results/Group2/Group2/Group2-235764.onnx (onnx, 85445 bytes, 10 tensors)

network_body.observation_encoder.processors.0.normalizer.running_mean f4 [18]
0.0003971588 -2.5970217e-13 -0.00014010034 -0.6005338 0.0 -0.16445181 3.3913102 -1.0033033
4.14006 0.28967437 0.62294394 17.398325 3.2796419 -0.0033079116 -11.96616 3.268565
-0.0033078413 -11.953623
00000000: c039 d039 0733 92aa e6e7 12b9 95bc 19bf
00000010: 0000 0000 0e66 28be 3a0b 5940 3e6c 80bf
00000020: 5f7b 8440 3350 943e 4179 1f3f c52f 8b41
00000030: a7e5 5140 8cc9 58bb 6475 3fc1 2b30 5140
00000040: 5ec8 58bb 0a42 3fc1

network_body._body_endoder.seq_layers.0.weight f4 [128, 18]
0.12112624 0.101454936 0.18554963 0.0047551794 -0.07640951 0.037754755 0.4259995 0.023212608
-0.16898793 -0.17139487 -0.2342526 0.2178123 -0.0348825 0.12776798 0.18688256 0.14226319
-0.15523879 -0.07912825 0.0135303475 0.07841693 0.013059698 0.22518447 -0.47213215 -0.11137212
-0.2683031 -0.39006758 -0.10048828 -0.21529041 -0.0569915 0.10878232 -0.19570905 -0.39214122
0.17522077 0.115098074 0.022297293 0.2643924 0.10553254 -0.30749723 0.7331273 -0.09227028
-0.12479045 -0.021384068 -0.20622432 0.00060894375 0.52243763 0.07543712 -0.23816374 -0.10860486
-0.023542387 -0.18025634 -0.08211984 0.03505617 0.054342423 -0.3338311 -0.20419827 0.22392547
0.12480735 0.2257879 0.029810147 -0.22769055 0.54867417 -0.040156126 0.14714475 0.03676335
0.19735871 0.056056652 0.106314436 -0.17215608 0.022067612 -0.28061837 0.036369443 -0.17875488
-0.09144188 0.3705026 -0.19254768 -0.17498797 0.11914814 -0.12827833 0.18890549 0.10848074
0.4098945 -0.079663076 -0.17851077 -0.10149917 0.149134 0.16915753 0.27051768 -0.010634208
0.037991304 -0.054127734 -0.16523634 0.10751597 0.08330493 0.23283012 0.10694454 0.2122699
-0.23387323 -0.017738199 0.27183837 -0.2657403 -0.17129833 -0.045269057 -0.10875869 0.22584927
-0.03409529 0.31997138 -0.018154806 0.13771728 0.34251392 -0.07718688 0.08638843 0.15296738
-0.2674569 -0.050310764 0.19571689 0.0935812 -0.26237655 -0.33328888 0.24396129 0.26709238
0.320551 0.05845533 -0.008648345 -0.18611513 -0.43430775 0.13325593 -0.45666707 0.037505243
-0.0110921 0.4335067 0.059426446 -0.10700566 -0.25399056 -0.3624303 -0.093589306 -0.025973085
0.3763675 -0.14721443 -0.02829358 0.014534481 -0.014056181 -0.2931425 0.38948882 -0.18869328
-0.4997859 -0.016551571 -0.17952892 -0.46343017 -0.3849753 -0.4543127 0.10855491 -0.17569914
-0.009171478 0.16693223 -0.38273433 -0.5548499 -0.18104474 -0.017115502 0.14043811 -0.06316535
-0.043219045 -0.17776659 0.03952856 0.17102383 0.21864869 0.26089725 0.30038512 -0.19043471
-0.007448575 0.40175235 0.23357765 -0.08191456 0.29355165 -0.12452628 0.23011072 0.38403827
0.23758943 0.4638794 -0.108511 -0.35710898 0.26675367 -0.11271588 0.18260144 0.32221135
0.0011482532 -0.26733828 0.15362744 0.024230832 0.22545823 0.25634724 -0.11775599 -0.3267716
0.15388958 0.27117455 0.06673499 0.12863214 -0.06304526 -0.08274038 0.72850627 0.010836132
0.21292855 0.54669607 0.15002094 0.43199286 -0.15900375 0.11708206 -0.4532817 0.4174233
-0.06281184 0.032660134 -0.27118352 0.57606006 0.1138701 -0.11498037 -0.2616301 0.04479839
-0.12678528 0.35018638 0.07441375 -0.20711 0.025040055 0.16958123 -0.5059554 -0.09390251
0.19566067 -0.38294005 -0.44746196 -0.04334465 -0.11873 0.11165724 0.13268341 -0.060434144
-0.22761227 -0.1650588 -0.05903043 -0.5867556 -0.19710878 -0.013853988 -0.049127977 -0.15365772
0.03493141 -0.0639681 -0.30234835 0.38720602 -0.26811174 0.6041398 -0.1256118 0.523068
-0.019950463 -0.0999659 -0.04047841 0.09587271 -0.13818868 -0.027083801 -0.23676239 0.24610652
00000000: 0911 f83d 9bc7 cf3d b900 3e3e 56d1 9b3b
00000010: 977c 9cbd bba4 1a3d 9b1c da3e 5e28 be3c
00000020: 2c0b 2dbe 2382 2fbe eadf 6fbe 300a 5f3e
00000030: f4e0 0ebd 9cd5 023e 245e 3f3e 71ad 113e
00000040: ebf6 1ebe fe0d a2bd 64ae 5d3c 0e99 a03d
00000050: 58f8 553c c296 663e 4ebb f1be 1117 e4bd
00000060: 065f 89be f0b6 c7be cdcc cdbd 1775 5cbe
00000070: eb6f 69bd 44c9 de3d f467 48be bcc6 c8be
00000080: 136d 333e 8ab8 eb3d d0a8 b63c 715e 873e
00000090: 7221 d83d 4770 9dbe 3bae 3b3f 33f8 bcbd
000000a0: 2392 ffbd a42d afbc 782c 53be 86a1 1f3a
000000b0: 79be 053f c77e 9a3d 32e1 73be 3a6c debd
000000c0: f7db c0bc 1e95 38be 722e a8bd 0f97 0f3d
000000d0: 2996 5e3d e9eb aabe 5a19 51be b84c 653e
000000e0: ff9a ff3d f134 673e 6934 f43c b627 69be
000000f0: e975 0c3f c07a 24bd 1dad 163e 2b95 163d
00000100: 6718 4a3e a99b 653d 62bb d93d af49 30be
00000110: 23c7 b43c 36ad 8fbe 20f8 143d 850b 37be
00000120: e145 bbbd 84b2 bd3e 382b 45be 0c30 33be
00000130: f103 f43d 655b 03be 7170 413e 262b de3d
00000140: b1dd d13e 6526 a3bd 87cb 36be ccde cfbd
00000150: 95b6 183e a237 2d3e 4b81 8a3e 1a3b 2ebc
00000160: c59c 1b3d 0bb5 5dbd b733 29be 5531 dc3d
00000170: c69b aa3d 056b 6e3e bd05 db3d 485d 593e
00000180: 777c 6fbe b34f 91bc 662e 8b3e 1d0f 88be
00000190: d468 2fbe 0c6c 39bd e0bc debd 0845 673e
000001a0: 81a7 0bbd 4ad3 a33e 63b9 94bc c205 0d3e
000001b0: fc5d af3e 2814 9ebd 6bec b03d 7ba3 1c3e
000001c0: 1cf0 88be a912 4ebd 026a 483e 80a7 bf3d
000001d0: 3856 86be d7a4 aabe fdd0 793e 55c0 883e
000001e0: 431f a43e db6e 6f3d cab1 0dbc f794 3ebe
000001f0: 965d debe 3e74 083e 44d0 e9be 199f 193d
00000200: a4bb 35bc 97f4 dd3e 2569 733d c925 dbbd
00000210: 0d0b 82be 7790 b9be c0ab bfbd 82c5 d4bc
00000220: 3eb3 c03e 61bf 16be f0c7 e7bc 0822 6e3c
00000230: e54b 66bc c616 96be 146b c73e d038 41be
00000240: f0e3 ffbe 2997 87bc 6ed6 37be b846 edbe
00000250: 7c1b c5be ad9b e8be 0952 de3d 7aea 33be
00000260: f843 16bc 48f0 2a3e c1f5 c3be a50a 0ebf
00000270: cb63 39be cf35 8cbc 02cf 0f3e d65c 81bd
00000280: 7406 31bd 7208 36be b3e8 213d df20 2f3e
00000290: 71e5 5f3e 5394 853e 14cc 993e 5101 43be
000002a0: 2d13 f4bb 7cb2 cd3e fb2e 6f3e d2c2 a7bd
000002b0: 674c 963e a207 ffbd 25a2 6b3e aaa0 c43e
000002c0: a54a 733e 9a81 ed3e 043b debd fdd6 b6be
000002d0: f093 883e 95d7 e6bd dffb 3a3e e3f8 a43e
000002e0: fc80 963a 90e0 88be 8350 1d3e bd7f c63c
000002f0: 86de 663e f23f 833e 0d2a f1bd 9b4e a7be
00000300: 3b95 1d3e 64d7 8a3e 5bac 883d 25b8 033e
00000310: e01d 81bd ca73 a9bd 637f 3a3f 088a 313c
00000320: f109 5a3e 46f4 0b3f 179f 193e 2b2e dd3e
00000330: e1d1 22be b8c8 ef3d 8a14 e8be 82b8 d53e
00000340: 7ea3 80bd a2c6 053d 91d8 8abe ac78 133f
00000350: ba34 e93d d47a ebbd 61f4 85be 847e 373d
00000360: 00d4 01be a14b b33e 3c66 983d a514 54be
00000370: cd20 cd3c b4a6 2d3e 4b86 01bf f64f c0bd
00000380: 455b 483e b810 c4be bc19 e5be 298a 31bd
00000390: b728 f3bd 8dac e43d 29de 073e cb89 77bd
000003a0: 3113 69be 2d05 29be e4c9 71bd 9d35 16bf
000003b0: e2d6 49be d6fb 62bc 6b3a 49bd 7358 1dbe
000003c0: 3d14 0f3d b501 83bd 67cd 9abe de3f c63e
000003d0: f145 89be e8a8 1a3f 61a0 00be c9e7 053f
000003e0: 276f a3bc ecba ccbd b0cc 25bd e958 c43d
000003f0: 5581 0dbe d9de ddbc d771 72be 5903 7c3e

network_body._body_endoder.seq_layers.0.bias f4 [128]
-0.009707661 0.044899296 -0.0063068755 -0.053892925 -0.038862657 -0.0058974507 0.011282145 -0.015300649
-0.019898973 -0.06749998 -0.044207912 -0.0024700935 0.015348638 0.04110819 0.04713901 -0.0153379915
-0.02393027 -0.044285975 0.06640217 -0.03386083 -0.023902135 -0.020729179 -0.01247208 -0.024943339
0.02460323 0.06066351 -0.04346155 0.008465248 0.0032191623 -0.028629057 -0.044008393 -0.032086477
-0.044824712 -0.05181227 -0.0034045486 -0.040376965 0.014572012 0.009010804 -0.075950205 -0.06636725
0.020318445 0.006836429 -0.053235658 0.029220171 0.049959313 0.0060710367 -0.024845539 0.04042289
-0.014043671 -0.06498 -0.018419158 0.029163135 -0.0703815 0.044226725 0.021550585 0.078739196
0.000563784 0.0006014478 -0.0052900985 -0.024729813 0.021636732 -0.04840084 -0.01134213 0.018505998
-0.032565452 -0.00075581716 0.051035903 0.015652694 0.03649625 -0.02084587 -0.0061483453 -0.083303444
0.020598454 -0.022663822 0.06640561 -0.07694062 -0.015325243 0.053691585 -0.03005894 0.053740922
0.019809065 -0.077302605 0.012755129 -0.054914545 -0.010179963 0.0026739358 0.03229182 0.057446998
0.01810375 -0.036390066 -0.045088418 -0.0034312163 0.017015751 0.050809085 -0.023763869 -0.029821958
0.012615541 0.034540962 0.053899843 -0.0323646 -0.056557316 0.06163976 0.016631853 -0.045191664
-0.017403005 0.065893576 0.074037716 -0.072143026 0.044189364 -0.087262355 -0.030195266 0.047480356
-0.053077288 -0.031759262 -0.0662209 -0.056152947 -0.030623378 0.05661274 0.015113098 0.008541645
-0.084474035 -0.020586936 -0.09332218 -0.04375453 0.0686682 -0.010626838 0.00075651 -0.08736588
00000000: e20c 1fbc 53e8 373d e8a9 cebb d4be 5cbd
00000010: 732e 1fbd 673f c1bb bfd8 383c 93af 7abc
00000020: 2c03 a3bc 6e3d 8abd 5b13 35bd 4be1 21bb
00000030: db78 7b3c 1061 283d d614 413d 334c 7bbc
00000040: 6a09 c4bc 3665 35bd dcfd 873d a7b1 0abd
00000050: 69ce c3bc 3dd0 a9bc b257 4cbc f955 ccbc
00000060: b78c c93c 4d7a 783d bd04 32bd d3b1 0a3c
00000070: 95f8 523b 7c87 eabc 2542 34bd 1c6d 03bd
00000080: 1e9a 37bd 1a39 54bd d91e 5fbb 5162 25bd
00000090: 73bf 6e3c 0da2 133c c88b 9bbd 8eeb 87bd
000000a0: de72 a63c 1f04 e03b a20d 5abd 245f ef3c
000000b0: 23a2 4c3d 8cef c63b df88 cbbc 7992 253d
000000c0: 6d17 66bc 3c14 85bd c6e3 96bc 87e7 ee3c
000000d0: 2d24 90bd 1527 353d da8a b03c 0442 a13d
000000e0: e7ca 133a 7baa 1d3a 9058 adbb 2d96 cabc
000000f0: 843f b13c f63f 46bd 57d4 39bc e499 973c
00000100: 5a63 05bd 0822 46ba 060b 513d 143a 803c
00000110: 187d 153d f5c4 aabc 0f78 c9bb ff9a aabd
00000120: 17be a83c 7ba9 b9bc aaff 873d 0b93 9dbd
00000130: ba16 7bbc b5eb 5b3d 2b3e f6bc 711f 5c3d
00000140: 9f46 a23c d450 9ebd e3fa 503c 13ee 60bd
00000150: dcc9 26bc 333d 2f3b 6d44 043d 8b4d 6b3d
00000160: 514e 943c c00d 15bd a2ae 38bd 42de 60bb
00000170: 9e64 8b3c 301d 503d 72ac c2bc 2e4d f4bc
00000180: 6ab1 4e3c d37a 0d3d 15c6 5c3d be90 04bd
00000190: a5a8 67bd f979 7c3d 863f 883c e51a 39bd
000001a0: bf90 8ebc 36f3 863d 16a1 973d b9bf 93bd
000001b0: e8ff 343d 9bb6 b2bd 105c f7bc c37a 423d
000001c0: 9267 59bd 0016 02bd d39e 87bd a200 66bd
000001d0: e1dd fabc c3e2 673d ed9c 773c 41f2 0b3c
000001e0: b900 adbd efa5 a8bc b31f bfbd f337 33bd
000001f0: eaa1 8c3d 301c 2ebc 8750 463a e2ec b2bd

network_body._body_endoder.seq_layers.2.weight f4 [128, 128]
0.09355958 -0.12920475 -0.15866321 -0.04125012 -0.088308156 0.07153106 0.01961805 0.085925564
-0.13335206 0.0711202 -0.0015131914 0.004604786 0.0311771 -0.1816424 -0.16678576 0.14633839
-0.025427427 -0.12117021 0.05458858 0.09796003 0.054691438 -0.09821344 0.07528131 0.10240861
-0.043168705 -0.18847165 0.011763942 -0.03922222 -0.0038860128 0.012154947 -0.15951572 0.009260831
-0.13226955 0.04164688 -0.14446807 0.01837107 0.004728072 -0.14873911 0.047992356 0.07527839
-0.079685844 0.00436857 0.041923035 0.07036138 0.13771234 0.06246094 -0.115596116 -0.020652007
0.07765815 0.088368356 0.08323239 0.118088074 0.004812712 -0.091940716 -0.15643328 -0.033417966
-0.21677507 -0.15663762 0.15231833 0.0676626 -0.110660575 -0.13573328 -0.06785004 -0.03212964
0.11454192 0.042643152 -0.15739472 -0.07548213 0.06748553 0.08805643 0.06788518 -0.18571733
0.086603634 0.075306036 -0.02345748 0.05162316 0.093907654 -0.022432445 -0.05985434 -0.113861546
0.029737007 0.0069314237 -0.02889535 0.01243737 -0.099544145 0.19521143 -0.047657654 -0.08461094
-0.08572697 0.018473897 0.030600427 0.073970325 -0.1263637 0.03745802 0.09746776 0.008594547
0.10621297 -0.20645949 -0.15199688 0.12478806 -0.044607077 -0.11181037 -0.038012695 -0.17494716
-0.057794977 -0.10497705 -0.20949382 -0.049003027 -0.15380213 0.069919534 0.13252339 -0.08905413
-0.07284936 0.0111426795 0.19415613 0.022870975 -0.00090806966 0.08155212 0.07651711 -0.05778161
-0.03521211 0.0019597434 -0.06734727 0.07187248 -0.06896754 -0.11548317 0.15419877 -0.101537146
-0.06495613 -0.029045545 0.14583363 0.08781439 -0.03539284 0.07346777 -0.2585682 0.0655109
-0.22598138 -0.008629611 -0.11304229 -0.09673182 0.03488488 -0.27281946 -0.020437753 0.039327636
-0.034256507 -0.03866825 0.1348691 0.04453501 -0.17368677 -0.16643769 -0.18282919 0.08731665
0.015981346 0.0040895543 -0.19424526 -0.096896924 0.049761515 0.020454437 0.022970382 0.015162169
0.053585596 -0.109674186 -0.043390475 0.067401536 0.0136699965 -0.055102788 -0.13322324 -0.08581671
-0.028581366 0.04426013 -0.083615914 -0.010065797 0.03701816 -0.029878924 -0.09172339 -0.1338733
-0.04906759 -0.07949286 -0.15962428 -0.10989462 -0.10983093 0.14568348 -0.015371911 -0.0041534505
-0.21670647 0.07772812 -0.04572023 -0.108289905 -0.2256563 0.02919207 -0.19639198 0.020327313
0.017923784 -0.12296213 0.19721444 -0.08375122 0.08818025 0.04289538 0.03785529 -0.20364402
0.05525531 -0.10973002 -0.00028052425 0.03006433 0.05807649 0.12643066 -0.16426049 0.0025643783
0.14203665 -0.11477778 0.09303704 -0.0011243189 -0.045732405 0.024412673 0.056344356 0.0047271666
0.0712066 -0.05560814 -0.018328924 0.035617635 -0.15532036 0.0687109 -0.16811678 0.07302631
0.11016034 -0.11215703 -0.10058486 0.1285021 -0.09717148 -0.0138150705 -0.046340507 -0.0064654
0.16885132 -0.06427212 0.08538709 0.073495924 0.097916745 0.04065622 -0.061285645 0.11182417
-0.13872543 0.00825682 -0.07165311 -0.092647076 0.0066915373 -0.28763145 0.0026376406 0.01663193
-0.12798552 -0.13750386 -0.053121988 -0.11160615 0.0905192 0.14040889 0.06765006 -0.01900174
00000000: 2a9c bf3d 404e 04be 9c78 22be e3f5 28bd
00000010: e8da b4bd e07e 923d 08b6 a03c bef9 af3d
00000020: 718d 08be 78a7 913d 4756 c6ba bfe3 963b
00000030: 1e67 ff3c 7700 3abe e3c9 2abe bbd9 153e
00000040: 2e4d d0bc 1628 f8bd 4698 5f3d 459f c83d
00000050: 2104 603d 2124 c9bd 162d 9a3d 9bbb d13d
00000060: abd1 30bd b6fe 40be 8dbd 403c 7ba7 20bd
00000070: 7aac 7ebb 8b25 473c 1758 23be beba 173c
00000080: ab71 07be eb95 2a3d 70ef 13be ed7e 963c
00000090: f1ed 9a3b 114f 18be a293 443d 8e2b 9a3d
000000a0: 5532 a3bd 3926 8f3b 7db7 2b3d a119 903d
000000b0: 7704 0d3e 0bd7 7f3d a8bd ecbd 662e a9bc
000000c0: 3c0b 9f3d 78fa b43d be75 aa3d 29d8 f13d
000000d0: f4b3 9d3b 6a4b bcbd 0c30 20be 47e1 08bd
000000e0: 49fa 5dbe 9d65 20be 56f9 1b3e b092 8a3d
000000f0: 03a2 e2bd aafd 0abe f6f4 8abd 5f9a 03bd
00000100: f494 ea3d 96aa 2e3d 152c 21be 6096 9abd
00000110: db35 8a3d ee56 b43d 6307 8b3d af2c 3ebe
00000120: 3f5d b13d 0d3a 9a3d e729 c0bc ce72 533d
00000130: a852 c03d 3fc4 b7bc d329 75bd 3e30 e9bd
00000140: 069b f33c ff20 e33b f1b5 ecbc 1cc6 4b3c
00000150: cddd cbbd 81e5 473e ac34 43bd 8048 adbd
00000160: 9f91 afbd 9256 973c bfad fa3c c17d 973d
00000170: 7c65 01be 956d 193d 2d9d c73d 25d0 0c3c
00000180: 3086 d93d 1e6a 53be 12a5 1bbe e290 ff3d
00000190: e9b5 36bd d6fc e4bd 33b3 1bbd 5925 33be
000001a0: 6dba 6cbd 35fe d6bd 8c85 56be 66b7 48bd
000001b0: 4e7e 1dbe f931 8f3d 36b4 073e 0362 b6bd
000001c0: 0c32 95bd c98f 363c ddd0 463e e95b bb3c
000001d0: 860b 6eba cc04 a73d 01b5 9c3d 69ac 6cbd
000001e0: 933a 10bd 0a6f 003b 5eed 89bd e131 933d
000001f0: db3e 8dbd 7182 ecbd 48e6 1d3e b5f2 cfbd
00000200: b807 85bd ecf0 edbc 6955 153e 08d8 b33d
00000210: 15f8 10bd 4576 963d 0d63 84be 942a 863d
00000220: aa67 67be 3663 0dbc b782 e7bd 551b c6bd
00000230: 73e3 0e3d feae 8bbe 136d a7bc 0416 213d
00000240: 8d50 0cbd 9962 1ebd 201b 0a3e 586a 363d
00000250: f2da 31be a46e 2abe 9337 3bbe 12d3 b23d
00000260: 50eb 823c ab01 863b 3be8 46be e571 c6bd
00000270: bbd2 4b3d 1090 a73c 622c bc3c bf6a 783c
00000280: 927c 5b3d dc9c e0bd 36ba 31bd d109 8a3d
00000290: 1ff8 5f3c 76b3 61bd ac6b 08be acc0 afbd
000002a0: 7823 eabc 1c4a 353d d23e abbd 03eb 24bc
000002b0: 5ba0 173d a5c4 f4bc 79d9 bbbd 1516 09be
000002c0: 19fb 48bd 27cd a2bd 8c74 23be 6e10 e1bd
000002d0: 0aef e0bd 0d2e 153e 78da 7bbc ab19 88bb
000002e0: 4de8 5dbe ec2f 9f3d 2345 3bbd 19c7 ddbd
000002f0: 7212 67be 3524 ef3c fb1a 49be 7785 a63c
00000300: e6d4 923c 92d3 fbbd 95f2 493e c285 abbd
00000310: d997 b43d 11b3 2f3d 260e 1b3d 0f88 50be
00000320: 6453 623d 22ba e0bd 5413 93b9 7849 f63c
00000330: 9de1 6d3d 0a77 013e e733 28be 210f 283b
00000340: 0e72 113e 9d10 ebbd 348a be3d e25d 93ba
00000350: e751 3bbd 16fd c73c 57c9 663d 59e6 9a3b
00000360: c4d4 913d 5cc5 63bd 8a26 96bc cce3 113d
00000370: 4d0c 1fbe 4db8 8c3d ce26 2cbe d18e 953d
00000380: bf9b e13d 96b2 e5bd 6fff cdbd 0e96 033e
00000390: d701 c7bd 9b58 62bc 8bcf 3dbd b5db d3bb
000003a0: 5ce7 2c3e 1aa1 83bd 6ddf ae3d 0885 963d
000003b0: 9388 c83d 2387 263d a806 7bbd 1204 e53d
000003c0: 0a0e 0ebe 9d47 073c debe 92bd c0bd bdbd
000003d0: af44 db3b 6e44 93be 44dc 2c3b af3f 883c
000003e0: a30e 03be d0cd 0cbe 7196 59bd c491 e4bd
000003f0: 2162 b93d 59c7 0f3e 1d8c 8a3d 89a9 9bbc

network_body._body_endoder.seq_layers.2.bias f4 [128]
-0.055097338 0.03968672 0.0064877486 -0.037111573 -0.0017533875 -0.016623866 0.00024391548 0.01951511
-0.011681129 -0.07209362 -0.008865162 0.015119989 -0.0033219035 -0.018034007 -0.019362262 -0.03841674
0.03203621 0.018608108 0.008353687 -0.020673014 0.056043196 -0.004084462 0.027776416 -0.05807102
0.021617673 0.07787663 0.045946043 0.058921166 0.0057617323 0.07395916 0.034302372 -0.012002866
-0.06708459 0.015093685 -0.031280372 0.015615237 -0.0487845 0.017912988 -0.035269685 0.007869445
-0.049518082 0.024751388 -0.014127618 0.03193481 0.0035702328 -0.037295725 0.0077156723 0.01573363
0.02004276 -0.052838117 -0.04270624 0.040590346 0.06860042 0.0069005243 -0.07862424 0.0012927657
0.059488166 0.063358136 -0.052090142 0.06603868 0.008325941 0.047260065 0.031070687 0.07469609
0.034771074 0.015727747 0.013404809 -0.033210877 0.0047386526 -0.056396645 0.034255996 -0.021151762
-0.012994662 -0.049820162 -0.04655587 -0.036253005 -0.007541107 -0.039851118 -0.061298806 -0.019152006
-0.022205273 -0.059107132 -0.059379317 -0.038614903 -0.09936396 -0.02971112 0.009400673 0.021834584
0.030914523 -0.06448549 0.0024709748 -0.0713732 0.05842921 -0.02377493 0.04379923 0.038662508
0.067385204 0.042999614 -0.07033312 0.02207535 -0.038878698 0.062360253 0.017183209 -0.060296375
-0.018062728 -0.0071073323 0.061595395 -0.029663986 -0.04910194 0.054691076 -0.04439367 -0.019052573
-0.017217148 0.028427284 -0.05780093 -0.023626607 -0.04287909 0.0142297745 0.04874868 -0.03760848
0.030313702 0.051037014 0.025324004 -0.022709955 -0.014816118 0.020948391 -0.0034332627 0.021792213
00000000: bfad 61bd 8b8e 223d 2e97 d43b 4e02 18bd
00000010: ecd1 e5ba c62e 88bc 90c3 7f39 27de 9f3c
00000020: 3562 3fbc d2a5 93bd 2f3f 11bc d5b9 773c
00000030: 4bb4 59bb 0ebc 93bc 9b9d 9ebc df5a 1dbd
00000040: 6738 033d 0870 983c e7dd 083c 745a a9bc
00000050: 8d8d 653d f3d6 85bb 5e8b e33c e1db 6dbd
00000060: 8c17 b13c c87d 9f3d eb31 3c3d 5257 713d
00000070: eacc bc3b e677 973d a580 0c3d aba7 44bc
00000080: a563 89bd 814b 773c d91f 00bd 0dd7 7f3c
00000090: 42d2 47bd 42be 923c f276 10bd d8ee 003c
000000a0: 79d3 4abd 6cc3 ca3c 8677 67bc 13ce 023d
000000b0: 91fa 693b 67c3 18bd c0d3 fc3b d0e3 803c
000000c0: b730 a43c c86c 58bd bdec 2ebd 1042 263d
000000d0: 617e 8c3d cb1d e23b bf05 a1bd 0572 a93a
000000e0: dda9 733d e9c1 813d 795c 55bd 4a3f 873d
000000f0: 8769 083c c593 413d f487 fe3c 43fa 983d
00000100: 1d6c 0e3d 7ad7 803c d89f 5b3c 2108 08bd
00000110: b346 9b3b 2b00 67bd 0450 0c3d 7646 adbc
00000120: 90e7 54bc 3a10 4cbd 5eb1 3ebd 087e 14bd
00000130: 641b f7bb ed3a 23bd 7514 7bbd abe4 9cbc
00000140: d5e7 b5bc 521a 72bd ba37 73bd a92a 1ebd
00000150: 557f cbbd bc64 f3bc 4805 1a3c 71de b23c
00000160: 7440 fd3c f810 84bd 14f0 213b 1d2c 92bd
00000170: 7853 6f3d a4c3 c2bc d266 333d 945c 1e3d
00000180: 4101 8a3d 5d20 303d d00a 90bd 5dd7 b43c
00000190: 453f 1fbd 776d 7f3d cdc3 8c3c 55f9 76bd
000001a0: 49f8 93bc a0e4 e8bb 744b 7c3d e301 f3bc
000001b0: 1e1f 49bd c003 603d 23d6 35bd 2414 9cbc
000001c0: fa0a 8dbc 56e0 e83c abc0 6cbd 968c c1bc
000001d0: fca1 2fbd 0024 693c b2ac 473d 590b 1abd
000001e0: 7154 f83c 300c 513d 4974 cf3c 3a0a babc
000001f0: 4ebf 72bc f69b ab3c 9700 61bb 9585 b23c

action_model._continuous_distribution.log_sigma f4 [1, 2]
-0.34892955 -0.3100499
00000000: e5a6 b2be dcbe 9ebe

action_model._continuous_distribution.mu.weight f4 [2, 128]
0.006642353 0.07991723 0.002945436 0.03234083 0.01792239 -0.0049608774 0.029495424 0.09553853
0.018323313 0.032444615 0.0082902415 0.016650075 0.0031641081 -0.043943763 0.015966699 -0.022748629
0.012204149 0.020838425 -0.0268962 -0.099247865 0.07637483 -0.021633303 0.06747062 -0.036088374
0.017805435 0.06592628 -0.031748805 0.058843646 -0.014139117 -0.0046993494 0.018013572 -0.061705906
0.031768426 0.058444645 -0.007257141 -0.020128412 -0.0034929677 -0.0064186333 -0.049193744 0.05390983
-0.010173087 0.006128113 -0.058668476 0.020601697 -0.01171978 0.00687246 0.03271177 -0.016095534
-0.00082806544 -0.0149516305 0.005715165 -0.024184857 0.028416276 0.054617744 -0.016035905 -0.011859334
-0.025095284 0.021185242 -0.028598187 0.0031500163 -0.023599053 0.010618629 0.008240115 0.075786434
-0.007216451 0.07297909 -0.01373569 0.003529044 -0.030021824 -0.027037421 -0.0074423905 0.04253994
0.009720733 -0.023217596 0.039993625 0.022793852 0.052367955 0.04233731 -0.0045311055 -0.025560686
0.025184106 -0.041918773 -0.03321326 -0.0030083102 -0.0268862 0.016992886 0.032446194 0.074258395
-0.032097016 0.012146313 0.021655994 0.009466805 0.019983971 -0.0067298803 0.012992192 0.032648865
0.019128826 0.03689623 -0.014024466 0.04205276 -0.033352826 0.01269693 0.059594866 0.010459881
0.009262931 -0.01746259 0.045793604 -0.00067663915 -0.053024694 -0.03284111 -0.030281022 -0.0063859993
0.03762062 0.015427116 -0.026073512 -0.053124268 -0.01967816 0.063720636 0.0747584 -0.049707584
0.035287287 0.06395645 0.0032327746 0.0034589078 -0.08750698 -0.0065041953 0.070323505 -0.03460733
-0.041586272 -0.009609137 -0.0107756015 -0.045982074 -0.00040552157 0.028596444 -0.02757554 -0.056942202
-0.0045166905 -0.04475818 -0.022017984 0.04587234 0.0012480508 0.043919165 -0.002722157 -0.0161282
0.025522623 0.07716083 0.023102568 0.06378032 0.0074050403 -0.013970445 -0.014894345 -0.001959017
0.041104726 0.05715886 0.08697455 0.020476053 0.026145544 0.07250823 0.046366606 0.045267053
-0.06374515 -0.072744966 0.0051827882 0.04134937 0.00027273488 0.051649112 -0.028789336 -0.011681902
-0.0021758415 0.05519531 0.078919604 0.017548464 0.037544448 -0.079252765 -0.012241129 0.059006248
0.040418006 -0.04097073 -0.00067601405 0.05149967 0.07020044 -0.02157024 -0.028910223 0.04560481
0.07067132 0.064549275 -0.007113363 0.014200406 0.042123362 0.054696634 0.025791394 0.08021297
0.010366767 -0.057778373 0.04588872 -0.10047354 0.023636416 -0.037590135 0.0037604645 -0.03132166
-0.036685422 -0.017618652 -0.04866617 -0.043603532 -0.014174124 0.0124867475 -0.018218301 0.026878102
0.0071382597 0.006046022 -0.042954776 -0.019583872 -0.042975906 -0.034339406 -0.0033540074 -0.058335073
0.06767831 -0.007673911 0.007900406 -0.024027107 0.057534885 -0.0031315158 0.019567 0.049427982
0.02340168 0.023458466 -0.050309632 0.03227145 -0.008753208 0.0781016 -0.011056259 -0.058058318
0.04977166 -0.036686774 0.026669305 -0.00042824054 -0.022240644 0.08082116 -0.012550718 0.03148229
-0.018417615 0.008631839 -0.0367188 0.0066193007 0.015226464 -0.04540301 0.031005003 -0.025226811
0.011957761 0.033427846 0.044853035 -0.025613474 0.01692401 -0.0010442944 0.0005698565 0.04254021
00000000: 18a8 d93b a5ab a33d 3708 413b d177 043d
00000010: fad1 923c db8e a2bb 63a0 f13c b4a9 c33d
00000020: c61a 963c a5e4 043d cbd3 073c bd65 883c
00000030: ed5c 4f3b 60fe 33bd 98cc 823c 555b babc
00000040: e9f3 473c 58b5 aa3c 6b55 dcbc 7742 cbbd
00000050: 686a 9c3d 5338 b1bc 092e 8a3d 67d1 13bd
00000060: b4dc 913c 5c04 873d 090b 02bd 0906 713d
00000070: c1a7 67bc 00fd 99bb 3391 933c 55bf 7cbd
00000080: 9c1f 023d a763 6f3d 50cd edbb 57e4 a4bc
00000090: 46ea 64bb 6653 d2bb 617f 49bd 8ed0 5c3d
000000a0: 05ad 26bc 56ce c83b 5b4e 70bd e4c4 a83c
000000b0: 5204 40bc 5f32 e13b c7fc 053d c8da 83bc
000000c0: 8812 59ba aff7 74bc 4746 bb3b 521f c6bc
000000d0: 40c9 e83c dbb6 5f3d bb5d 83bc a74d 42bc
000000e0: a094 cdbc ac8c ad3c bf46 eabc 8170 4e3b
000000f0: cd52 c1bc c2f9 2d3c 8c01 073c eb35 9b3d
00000100: fb77 ecbb 1076 953d a90b 61bc 8947 673b
00000110: 54f0 f5bc 957d ddbc 4cdf f3bb 5c3e 2e3d
00000120: b643 1f3c d432 bebc 5bd0 233d 2cba ba3c
00000130: c87f 563d e369 2d3d ab79 94bb a564 d1bc
00000140: e64e ce3c 05b3 2bbd a10a 08bd 1227 45bb
00000150: 7340 dcbc aa34 8b3c 4de6 043d c914 983d
00000160: 2978 03bd 5401 473c e967 b13c a81a 1b3c
00000170: 6db5 a33c 5486 dcbb 34dd 543c d1ba 053d
00000180: 0eb4 9c3c 8020 173d e0c6 65bc 843f 2c3d
00000190: f99c 08bd c906 503c bf19 743d ec5f 2b3c
000001a0: 8cc3 173c b50d 8fbc 1392 3b3d 7c60 31ba
000001b0: 6c30 59bd 6684 06bd e80f f8bc a541 d1bb
000001c0: 1418 1a3d 04c2 7c3c 1e98 d5bc d598 59bd
000001d0: 1834 a1bc f77f 823d ef1a 993d 2e9a 4bbd
000001e0: 6789 103d 99fb 823d f5dc 533b d8ae 623b
000001f0: dc36 b3bd 2521 d5bb c505 903d 6ac0 0dbd
00000200: 5e56 2abd a46f 1dbc 268c 30bc b357 3cbd
00000210: 2f9c d4b9 1743 ea3c 19e6 e1bc 3a3c 69bd
00000220: bf00 94bb 5a54 37bd 0f5f b4bc a3e4 3b3d
00000230: a395 a33a 95e4 333d 3766 32bb 491f 84bc
00000240: d214 d13c 7f06 9e3d 9941 bd3c 429f 823d
00000250: fba5 f23b 4be4 64bc 6907 74bc da62 00bb
00000260: 6e5d 283d 691f 6a3d b61f b23d 65bd a73c
00000270: 2e2f d63c 327f 943d e9ea 3d3d f269 393d
00000280: d18c 82bd 50fb 94bd 61d4 a93b f55d 293d
00000290: dbfd 8e39 058e 533d 9dd7 ebbc 7365 3fbc
000002a0: 9098 0ebb 7a14 623d 9aa0 a13d ccc1 8f3c
000002b0: 35c8 193d 464f a2bd 048f 48bc 89b0 713d
000002c0: 5a8d 253d edd0 27bd 8936 31ba 51f1 523d
000002d0: 40c5 8f3d 12b4 b0bc 22d5 ecbc 1ccc 3a3d
000002e0: 20bc 903d 6932 843d 3717 e9bb d2a8 683c
000002f0: 8c89 2c3d 9409 603d 7948 d33c b346 a43d
00000300: 5fd9 293c 04a9 6cbd cff5 3b3d 12c5 cdbd
00000310: 28a1 c13c 1df8 19bd 2072 763b 244b 00bd
00000320: 7443 16bd fe54 90bc 2e56 47bd 9e99 32bd
00000330: 963a 68bc 3795 4c3c 8c3e 95bc 772f dc3c
00000340: 10e8 e93b b51d c63b 59f1 2fbd 5b6e a0bc
00000350: 8107 30bd 7aa7 0cbd e8ce 5bbb c2f0 6ebd
00000360: ed9a 8a3d 6e75 fbbb b470 013c 7fd4 c4bc
00000370: b3a9 6b3d 1e3a 4dbb f94a a03c ff74 4a3d
00000380: e1b4 bf3c f82b c03c 7911 4ebd 112f 043d
00000390: 9e69 0fbc bbf3 9f3d 5025 35bc 8fce 6dbd
000003a0: 5edd 4b3d df44 16bd 9679 da3c 7985 e0b9
000003b0: 0332 b6bc 9085 a53d 87a1 4dbc 93f3 003d
000003c0: 8ae0 96bc 8f6c 0d3c 7466 16bd b8e6 d83b
000003d0: 6b78 793c 82f8 39bd 34fe fd3c 75a8 cebc
000003e0: 7cea 433c a3eb 083d d1b7 373d 59d3 d1bc
000003f0: 39a4 8a3c b5e0 88ba 6c62 153a a53e 2e3d

action_model._continuous_distribution.mu.bias f4 [2]
0.030579604 0.050857343
00000000: 1482 fa3c ca4f 503d

action_model._discrete_distribution.branches.0.weight f4 [1, 128]
-0.0021729367 0.0071722413 -0.012732741 0.00088420504 -0.00059115747 0.0054593417 -0.008245209 -0.011147431
0.0018077685 -0.0075787245 0.00058230065 -0.008284048 -0.020479575 -0.012460845 -0.0035808317 0.0093824165
0.008894442 0.0036023457 -0.0036646351 0.00088622794 0.007389179 -0.014697864 -0.00093557156 0.0028094582
0.0050581098 0.009606651 -0.0098065045 -0.007547787 -0.0025798837 0.002904397 0.0012782192 0.004390803
-0.016679484 -0.00947965 0.007802577 -0.0024536 0.005286918 0.00090600626 -0.008771024 0.005237379
-0.018446809 -0.012213121 0.012672621 -0.016428448 0.0016702876 -0.0005365591 -0.01525151 0.0022316114
0.006689609 -0.02179329 -0.0071582384 0.00078907417 0.012593775 0.003607012 0.0041880063 -0.0075974152
-0.010710097 0.005327145 -0.014700191 0.007318379 -0.0130540235 -0.00075918686 0.0030131934 -0.000113398724
0.008893184 0.03167566 -0.006393298 0.00047786089 0.012365597 0.009771033 -0.017705306 0.016567025
-0.024063854 -0.004948175 0.017060919 0.0006002343 -0.0020586285 -0.008083327 0.0055321413 0.015066149
0.0051457877 0.012486873 -0.0034378578 -0.017693961 0.003465257 0.00069052714 0.008127279 0.009960687
0.006889244 0.007928508 0.0025212667 0.0064697796 -0.0022410068 0.010080686 -0.004092145 -0.0017266435
0.014880712 -0.004251977 -0.023348495 -0.0045906296 0.00018041192 0.004872279 0.003822696 0.0028608458
0.0042367214 -0.009929093 0.015712803 -0.015596858 -0.020952612 -0.013894321 -0.002394849 0.005251661
-0.0045264657 -0.00440635 -0.004141 -0.0014860933 -0.023452073 -0.00083729933 -0.003459856 -0.0059888647
-0.0004659098 -0.008474558 -0.00080806756 0.007545261 -0.010012109 0.012664641 -0.0012462445 -0.0041522887
00000000: d467 0ebb 1f05 eb3b fd9c 50bc ffc9 673a
00000010: e8f7 1aba 47e4 b23b ea16 07bc b7a3 36bc
00000020: a5f2 ec3a f356 f8bb 89a5 183a d1b9 07bc
00000030: c8c4 a7bc 9228 4cbc 63ac 6abb b5b8 193c
00000040: feb9 113c 5515 6c3b 602a 70bb c051 683a
00000050: ed20 f23b 4fcf 70bc 2541 75ba e31e 383b
00000060: 80be a53b 3765 1d3c 76ab 20bc 6d53 f7bb
00000070: 4413 29bb b257 3e3b eb89 a73a bae0 8f3b
00000080: 6aa3 88bc 8950 1bbc c3ac ff3b 94cc 20bb
00000090: e23d ad3b 0d81 6d3a 57b4 0fbc 529e ab3b
000000a0: c31d 97bc 8b19 48bc d3a0 4f3c f494 86bc
000000b0: 8ded da3a dfa7 0cba 78e1 79bc 3a40 123b
000000c0: 8234 db3b d787 b2bc a88f eabb dfd9 4e3a
000000d0: 1f56 4e3c 9f63 6c3b 8b3b 893b bdf3 f8bb
000000e0: 6779 2fbc 558f ae3b 12d9 70bc 03cf ef3b
000000f0: 8be0 55bc 2b04 47ba ff78 453b 7ad0 edb8
00000100: b8b4 113c 56be 013d df7e d1bb 6789 fa39
00000110: 1399 4a3c af16 203c b80a 91bc 92b7 873c
00000120: 8f21 c5bc 4d24 a2bb 57c3 8b3c 0b59 1d3a
00000130: 0eea 06bb ee6f 04bc f746 b53b 02d8 763c
00000140: ff9d a83b be95 4c3c af4d 61bb edf2 90bc
00000150: 5d19 633b 7e04 353a 4728 053c 2632 233c
00000160: 2bbf e13b 93e6 013c d63b 253b 7200 d43b
00000170: dbdd 12bb 7629 253c 6617 86bb 8b50 e2ba
00000180: 3bce 733c 2b54 8bbb 5845 bfbc fe6c 96bb
00000190: f52c 3d39 a3a7 9f3b 3286 7a3b 077d 3b3b
000001a0: 32d4 8a3b a2ad 22bc 23b8 803c f789 7fbc
000001b0: d0a4 abbc 02a5 63bc e6f2 1cbb 2016 ac3b
000001c0: bf52 94bb 2563 90bb 3ab1 87bb 04c9 c2ba
000001d0: 901e c0bc 357e 5bba c0be 62bb 3d3e c4bb
000001e0: 5b45 f4b9 dfd8 0abc 7fd4 53ba 3d3e f73b
000001f0: d409 24bc 5b7f 4f3c 0759 a3ba ec0f 88bb

onnx::Div_70 f4 [18]
1.06277 0.0020600571 1.1108588 4.055118 0.002059493 4.072841 3.0015225 0.1136028
7.8066735 2.3418195 2.4583921 5.4694223 2.969776 0.11358403 7.8265243 3.0329201
0.11358401 7.786852
00000000: d908 883f 0602 073b 9f30 8e3f 87c3 8140
00000010: 8ff8 063b b754 8240 f218 4040 96a8 e83d
00000020: 45d0 f940 5fe0 1540 4c56 1d40 8205 af40
00000030: cf10 3e40 be9e e83d e372 fa40 5d1b 4240
00000040: bc9e e83d e42d f940
