results/ManagerAvoidShooting5/ManagerAvoidShooting5.onnx (onnx, 80244 bytes, 10 tensors)

network_body.observation_encoder.processors.0.normalizer.running_mean f4 [8]
000000 9a 88 e8 3f 00 00 00 00 d0 39 12 3f aa 39 eb 3e
       1.8166687 0.0 0.57119465 0.45942432
000010 3d 9b c8 c0 23 9b 92 3f bb 09 0c 32 6c 96 b5 b1
       -6.26895 1.1453594 8.151285e-09 -5.2848943e-09

network_body._body_endoder.seq_layers.0.weight f4 [128, 8]
000000 8b 65 a6 bd 5b a4 f0 bd 69 45 c7 3e 18 23 2a be
       -0.081248365 -0.11750098 0.38920143 -0.1661495
000010 b5 65 bc 3c 5e b8 20 3e c9 4d a9 3e ab 09 65 3e
       0.022997716 0.1569533 0.33067158 0.2236697
000020 fb 9f f1 3d bb 7c 01 3d 48 4b bc be 54 76 0e bf
       0.11798092 0.031613093 -0.36776185 -0.55649304
000030 06 bc d2 3e 87 ef 2d bf ae 37 39 3f 63 ba d3 be
       0.41159075 -0.67943615 0.72350585 -0.4135314
000040 91 10 4c be 3f bf 2d 3e 29 58 35 be 6f d5 ec 3d
       -0.19928195 0.16967486 -0.17709412 0.11564147
000050 cd 80 87 3d ad 63 56 3e 13 e7 e6 bd c9 91 81 3e
       0.06616364 0.20936461 -0.11274543 0.25306538
000060 ad a7 b9 be f6 0e e9 3d 99 c9 15 3e 5b 65 3e bf
       -0.3626074 0.11379807 0.14627685 -0.74373406
000070 bf 41 26 3e e1 c8 1e bf ef be 3f be 64 00 56 3d
       0.16236018 -0.62025267 -0.18725179 0.052246466
000080 43 ae 43 3e bc bf c7 bd fe d9 43 3e ff 22 15 bf
       0.19109444 -0.09753367 0.19126126 -0.58256525
000090 ef 57 fe be ce 82 10 3f ec aa 88 bd 5a 5a c5 3e
       -0.49676463 0.5644959 -0.06673226 0.38545495
0000a0 c6 0a 3c bf 20 9b dc 3e e7 96 62 3f 13 3b c7 3e
       -0.7345394 0.430871 0.8851151 0.38912258
0000b0 0c b5 3f 3e c5 cf e1 3e 75 68 bc bd 78 7d 1f bf
       0.18721408 0.44103828 -0.09199611 -0.62300825
0000c0 6d 68 ab be 4f ef cf be d7 88 a5 bc d2 74 00 be
       -0.33478108 -0.40612265 -0.020206852 -0.12544563
0000d0 24 bd e3 bd d0 b8 98 be be 7a c4 ba 95 46 86 3c
       -0.1112006 -0.298285 -0.0014990193 0.016391078
0000e0 fd 3e 0d 3f ba ba b9 be 50 39 8a be 9e b0 dc bc
       0.5517424 -0.36275274 -0.2699685 -0.026939686
0000f0 1e 39 bc 3e 9d 01 12 3e ac 1e c0 3e 45 b4 39 bf
       0.36762327 0.14258428 0.375234 -0.72540694
000100 d5 06 ca 3e e7 0f 45 be f2 06 42 be c7 1d 91 3e
       0.39458337 -0.19244348 -0.18947962 0.2834303
000110 7f 27 93 be b0 fa 81 3d 8c ef 6d 3f a2 20 5d 3e
       -0.2874107 0.06346643 0.92943645 0.2159448
000120 00 90 38 be c5 7d 1b be 23 f0 ff 3d 01 7b 49 be
       -0.18023682 -0.15184696 0.12496974 -0.19675829
000130 ef 97 25 3f 9b fb 2b 3f 2a 9b 17 bc e6 b9 8c be
       0.6468496 0.67180794 -0.009253303 -0.2748558
000140 47 6f 1a 3e ae 28 c4 3e be be 04 bf 81 a0 1c 3e
       0.15081511 0.38312286 -0.5185355 0.15295602
000150 2a 29 4e 3d d0 16 02 bf 57 64 10 3f 6e 2d 82 be
       0.050332226 -0.5081606 0.56403106 -0.25425285
000160 e6 1e 00 bd 02 0a 05 bf 41 db 1d 3e 3f 1a f9 3d
       -0.031279467 -0.51968396 0.1541567 0.12163209
000170 df 82 c2 3d 88 f0 08 3f 4d 21 b2 bd be 9d a0 bd
       0.09497618 0.5349202 -0.08697758 -0.07842587
000180 8c 99 3f 3d f1 ff d5 bc 2b 87 fa be 52 99 f4 3e
       0.046777293 -0.026123019 -0.4893125 0.47773224
000190 c5 ff 8e 3b ff c2 cb be b4 6c f8 3e e8 47 b3 be
       0.004363986 -0.39797208 0.48520434 -0.35015798
0001a0 0d 32 11 bf b1 da 43 bf 84 b6 c9 3e a3 f8 8b 3e
       -0.56716996 -0.7650557 0.3939706 0.27338132
0001b0 3c 0c 2e bd 87 0b e6 3c 7a 13 40 bd d6 dd 26 3f
       -0.042492136 0.028081669 -0.046893574 0.65182245
0001c0 88 f2 da be b0 87 77 bd 7f 68 72 bd 53 51 58 3e
       -0.42763162 -0.060432136 -0.059181686 0.21124773
0001d0 e7 c1 71 3c 73 49 8c be db 68 b2 3e 66 e9 6e be
       0.014755703 -0.27399787 0.34845623 -0.23331222
0001e0 6b 07 8e be 01 bf 86 bd bd 3e 5b bf 2a 4d b8 be
       -0.27740034 -0.065794 -0.85642606 -0.35996372
0001f0 7d 0d 11 bf f5 c9 8a 3e 8d 1e 92 3e 33 ae 27 3e
       -0.56661206 0.27107206 0.28538933 0.16375045
000200 8f 03 ab 3b b7 5d bd 3e 77 6c e2 3c b1 40 56 be
       0.00521893 0.3698556 0.02763961 -0.20923115
000210 85 d4 07 3d ea 51 27 be c8 4d 20 bf 9f e3 24 3f
       0.03316166 -0.16339841 -0.62618685 0.6440982
000220 a0 ec 41 bf f0 d4 60 3e 64 fb f9 bc 26 1a 2f 3f
       -0.75751686 0.21956229 -0.03051538 0.68399274
000230 69 b3 98 3e 58 86 67 3e 16 08 7f 3f fd 48 57 bd
       0.2982438 0.22609842 0.99621713 -0.05255984
000240 05 72 58 3e ee 97 55 3d 41 d3 0b bf 5b 5a 6f 3c
       0.21137245 0.052146845 -0.5461922 0.014608945
000250 02 be ae bd 8b 30 0c 3f a8 38 63 be 63 ed dc be
       -0.08532335 0.5476157 -0.22189581 -0.43149862
000260 3d b5 91 3d 6f 29 3c be ba fa b1 3e d3 2d 61 bf
       0.071146466 -0.1837518 0.34761602 -0.8796055
000270 0d c2 d8 3e d0 52 8a 3e 4a de 78 3e b3 cf 78 be
       0.4233555 0.27016306 0.24303547 -0.24297981
000280 7d 2e f4 3e bb 53 4e 3e 1c 7b aa be 4f 72 00 be
       0.47691718 0.20149128 -0.3329705 -0.12543605
000290 d7 8a 03 be e7 ab 78 bd a1 0e 94 3d 0b df 6a bd
       -0.12845932 -0.060710814 0.07229353 -0.057341617
0002a0 2e 38 9c bd 74 9b cf bc 65 28 b1 3e 22 91 54 3e
       -0.07627903 -0.02534268 0.3460113 0.20758489
0002b0 e7 32 20 3e 83 db 0d bf 0c ff 76 bc d4 c7 99 bd
       0.15644418 -0.55413073 -0.015075456 -0.07508817
0002c0 a3 24 7e be 1b 4b bd bc fe 63 62 3e ad e3 89 be
       -0.24818663 -0.023107102 0.22108456 -0.26931515
0002d0 4d 92 77 bd e4 3e 8e 3e b8 68 59 3f a2 e4 72 3e
       -0.060442258 0.27782357 0.84925413 0.23720029
0002e0 9f 25 40 bc 8a 7e 27 3d bf 4b 5f 3e 92 d1 1a 3d
       -0.01172772 0.04089216 0.21806239 0.037797518
0002f0 2e 2e 23 bf 36 a8 05 bf 32 2c ed 3e 2a f3 39 3f
       -0.6374234 -0.52209795 0.4632278 0.72636664
000300 f4 04 22 3e 91 10 ba be 0b cc 19 3f e2 89 cd 3e
       0.15822202 -0.36340764 0.6007697 0.4014426
000310 6a 45 3b bd 53 9d a8 3e c1 be ce 3e 68 58 aa bd
       -0.045720495 0.3293253 0.4037991 -0.083176434
000320 f7 85 8e 3e 46 2c 08 bf d7 4d d9 3e 02 1e 17 3f
       0.27836582 -0.53192556 0.424422 0.59030163
000330 b9 00 1f 3e e6 3a a1 3e d7 28 9a be 24 ba cf 3e
       0.1552762 0.31490248 -0.30109283 0.40571702
000340 25 b2 01 be 67 b2 1a bf 61 11 42 3d eb 7a 96 be
       -0.12665613 -0.6042847 0.047379855 -0.29390654
000350 64 41 06 3d 24 e8 ef 3d a8 e0 62 3d dd 61 5e be
       0.032777205 0.11714199 0.05539003 -0.2171702
000360 0c 7c 54 be 8e 74 22 3f 5c 18 ad bd cb 8d c6 3e
       -0.20750445 0.634591 -0.08451912 0.38780054
000370 fd 3e 8f 3e 33 26 2f be ef 4e 47 3e 9d 02 52 be
       0.27977744 -0.17104416 0.19463705 -0.2050881
000380 1d bf 44 3f 6f 24 e1 3e f8 f2 05 be 03 87 16 3d
       0.76854116 0.4397311 -0.13080966 0.03674985
000390 d0 29 38 3d eb 3a b2 bc e7 1a 7c be 03 75 37 bf
       0.04496175 -0.02175661 -0.24619637 -0.7166292
0003a0 36 d0 88 3f de 00 90 3e 48 f3 84 3e 61 63 e1 3d
       1.0688541 0.28125662 0.2596686 0.11005283
0003b0 f5 c0 fa be 49 04 e1 3e 9b 9b 9e bd 70 fb f7 3e
       -0.4897534 0.43948582 -0.07744523 0.4843402
0003c0 87 9f 54 3e 7b 53 6f 3d 13 4c dc bc c2 b8 1f 3f
       0.2076398 0.058429223 -0.026891744 0.62391293
0003d0 5e 91 0e bf fa d5 0f bf 45 d0 89 3e bf d2 28 3e
       -0.5569056 -0.5618588 0.2691671 0.16486643
0003e0 f9 6a 03 bd 41 57 22 3f 87 e8 b9 3d 9a e3 0c be
       -0.03208444 0.6341439 0.09077554 -0.13758698
0003f0 b9 f5 9b 3e a2 8d c5 3e e3 76 ca ba d9 83 a7 3b
       0.3046091 0.3858462 -0.0015446808 0.005112153

network_body._body_endoder.seq_layers.0.bias f4 [128]
000000 2c df ed 3c 47 83 0f 3c 5a 29 83 3b 2a 9b a4 3c
       0.02903708 0.008759326 0.004002732 0.02009352
000010 d3 75 6b 3c 3c 99 3a 3c fb b7 8e 3c 9a 7c 5e 3c
       0.014371353 0.011389073 0.017421713 0.013579512
000020 e2 58 19 bb ce 01 1e 3c f0 f9 e1 3c 5c 84 0b 3d
       -0.0023398926 0.009643985 0.027585 0.034061775
000030 91 14 50 bb 68 63 b1 39 0a 4d f2 3b 81 9a af 3c
       -0.003175054 0.00033834134 0.0073944377 0.021435978
000040 db e0 aa 3c f8 c2 b3 3c 00 82 01 3d 55 82 8b 3c
       0.020859173 0.021943554 0.03161812 0.01702992
000050 f5 d7 04 3d 08 df 87 3b 66 d8 95 3c 23 13 f7 bc
       0.032432515 0.0041464604 0.018291663 -0.030160492
000060 99 72 0d 3d d5 b7 d5 3c 16 89 07 bd 75 76 85 bc
       0.034533117 0.026088635 -0.03308972 -0.016291836
000070 9e e8 be 3c df cd 42 3c 7f 5d b2 3c cb ed af 3c
       0.02330428 0.011889904 0.021773098 0.021475693
000080 ca 1e 18 3c c9 14 c3 3c 6d 6a 06 3c 14 ab 9b 3c
       0.009284684 0.023813622 0.008204085 0.019002475
000090 75 e3 a8 3c 17 17 d9 bc 69 6a 97 3c 8b bd 68 3c
       0.020616272 -0.026500268 0.018483358 0.014205347
0000a0 0d 81 14 bc ad e0 da 3b 09 c4 9e 3c a0 f2 e0 3c
       -0.009063971 0.0066796155 0.019380586 0.027459443
0000b0 5b 0f 05 bb af 27 04 3d 26 df e6 3c 6c 87 36 3c
       -0.0020303342 0.032264408 0.028182577 0.0111406855
0000c0 41 db d6 3b 64 fd cd bc c1 62 d1 bc 19 4e d4 3c
       0.006556899 -0.02514524 -0.025559785 0.025916146
0000d0 bd 77 02 3d 67 4b c0 3c 95 6c d7 3c 01 16 c1 3c
       0.031852473 0.023473455 0.026296893 0.023570063
0000e0 d3 73 aa 3c f5 44 dd 3c b8 22 4c 3b 3f d4 c9 3c
       0.020807182 0.02701042 0.0031148624 0.02463734
0000f0 06 cd 76 3c c5 2b 41 3c c1 d3 bd ba 2a 2b ad 3c
       0.01506353 0.011790221 -0.0014482663 0.021138746
000100 0b 09 ea 3c 7c 49 b9 3c 66 0c df 3a 61 59 d1 bc
       0.028568765 0.022618048 0.0017017245 -0.025555314
000110 f7 3f 82 bc 4f 09 c3 3c 89 ac e7 3c 1e 69 09 3d
       -0.015899641 0.02380815 0.028280513 0.033547513
000120 08 83 c7 3c 63 6a 95 3c ae d9 c5 3c 06 65 ed 3c
       0.024354473 0.018239206 0.02415165 0.028978836
000130 35 55 66 3a 9e 9d d6 3c 24 ae 8c bc aa 15 aa 3c
       0.00087865005 0.026198205 -0.01717288 0.020762283
000140 31 a0 ac 3c b6 f9 da bb a5 b4 e7 3c ac 53 e3 bc
       0.021072479 -0.0066826 0.02828438 -0.027749859
000150 0a 15 c5 3c 82 4b da 3c 4b 24 6b bb a0 a2 03 3d
       0.024057884 0.026647333 -0.0035879787 0.032137513
000160 fb 9d c3 3c 55 fe e7 3c 56 54 b7 bc 59 6c f5 3c
       0.023879042 0.028319517 -0.022379082 0.02995889
000170 b1 ec 06 3d fb 2e c1 3c b1 b9 c1 3c db cf 79 bb
       0.03294057 0.023581972 0.023648115 -0.0038118276
000180 4d 5e e6 3b 67 7a e3 bc 01 14 f0 bb 28 b8 66 3c
       0.0070302845 -0.027768327 -0.0073266034 0.014081992
000190 e2 54 8d bc 75 40 e5 bb 1c aa fa 3b 71 da 63 bc
       -0.01725239 -0.0069962093 0.007649673 -0.013907061
0001a0 c4 4d 22 3b af 41 76 bc ff a4 b9 3c bc 9e dc 3a
       0.002476559 -0.015030309 0.022661684 0.0016831974
0001b0 f7 ba 0c bc 22 7c d2 bc df 49 c2 3c bf c4 c3 3b
       -0.008589498 -0.025693957 0.023716865 0.0059743817
0001c0 71 8b 3c 3a 17 90 fe 3c 1a bf 79 bc 91 13 da 3c
       0.0007192409 0.031074567 -0.015243316 0.026620658
0001d0 5c 7e f0 bc 42 d9 92 bc 87 e2 21 bb 31 44 9a 3c
       -0.029357128 -0.017925862 -0.0024701671 0.018831344
0001e0 99 c8 f4 bc 5b 16 f6 3c b9 39 d9 3c b1 91 94 bc
       -0.029880809 0.030039957 0.026516782 -0.018135877
0001f0 ad 23 ad bc 0b 27 55 bc e0 00 d5 3b 90 18 60 3c
       -0.021135176 -0.013009797 0.0065003484 0.013677731

network_body._body_endoder.seq_layers.2.weight f4 [128, 128]
000000 fa 67 23 ba ca 68 ed 3c fb 9b 2e bd 1d 18 9a 3c
       -0.000623345 0.028980631 -0.042629223 0.018810326
000010 92 27 24 3c 06 66 3f 3d b9 f2 dd bc 3a 16 bb 3d
       0.0100192 0.046728157 -0.027093278 0.09135099
000020 fd 97 fe bd 60 e4 fb bc 9c a9 fe 3c 87 75 86 bd
       -0.12431333 -0.030748546 0.031086735 -0.06565385
000030 af 68 ab bd e2 6d 06 be 90 72 f5 bc f7 d0 39 3e
       -0.08369576 -0.13127854 -0.029961854 0.1814612
000040 f0 ae cc bd a7 ab df 3d 53 5a 5c 3d 81 0c 68 bd
       -0.09994304 0.10921412 0.053797077 -0.05665255
000050 e0 d1 14 3e b5 e7 37 bd 18 11 e3 bd a9 d6 88 bd
       0.14533186 -0.044898707 -0.11087245 -0.06681568
000060 46 b0 1a bd 40 d8 04 ba 8f 6f 15 3d eb 0f d9 3d
       -0.037765764 -0.0005067624 0.036483344 0.10598739
000070 69 f5 94 3d ea 43 3f bc 9d 05 3c 3d e6 89 11 3e
       0.07273371 -0.011673907 0.04590379 0.1421276
000080 78 e5 bd bb 5f 60 8c 3d fb 70 fc 3d 66 7b b5 3d
       -0.005795177 0.06854319 0.12326237 0.08861427
000090 22 7e 84 3d db 95 c8 3d 41 c5 bb 3d 3f d1 ff bb
       0.064693704 0.09794208 0.091684826 -0.0078069265
0000a0 bb af c6 bd fc 34 08 3d a8 e5 cf bd 6e 88 cc 3d
       -0.09701487 0.033253655 -0.10151225 0.099869594
0000b0 56 83 eb bd c2 87 15 3e 98 a0 0e be 0c a4 09 3e
       -0.1149966 0.14602569 -0.13928449 0.13441485
0000c0 30 cd 08 3d 53 08 82 3c 76 07 46 3d 86 ac a7 3d
       0.033398807 0.01587311 0.04834696 0.08187203
0000d0 7f f7 3a 3e db d7 5b bc 47 be 12 3e d2 3e 48 ba
       0.18258475 -0.013418163 0.14330398 -0.00076387555
0000e0 ee 89 67 3d b4 01 da bd cd 77 a0 bd 8f 3b 86 3b
       0.056528024 -0.10644856 -0.0783535 0.0040964554
0000f0 1d e9 3f 3d 82 df 13 bd 84 8a b5 3d b6 53 d0 bc
       0.046853174 -0.036101826 0.088643104 -0.025430541
000100 4c c6 6a 3d f1 dc 0c 3d 4a 6a 46 3e c2 ff d2 bd
       0.057318017 0.034390394 0.19376484 -0.10302688
000110 f8 d5 cd 3d cb 54 56 be d6 33 87 3c 73 4e b0 3d
       0.10050577 -0.20930783 0.01650421 0.08608713
000120 28 a1 d9 3d 0f 45 8d 3d 91 da 5f bc a6 02 a1 3d
       0.10626441 0.068979375 -0.01366295 0.07861833
000130 8c af a5 3d 9c 80 e9 3b a2 92 9a bd bb 16 32 bd
       0.080901235 0.007125927 -0.07547499 -0.04347871
000140 f9 ae 04 3d 5f fe 7f 3d e7 e4 70 bd 85 ff c1 3d
       0.03239343 0.062498447 -0.05881205 0.094725646
000150 a2 e1 a1 3d d8 e4 2e 3d 46 20 8f 3d 36 07 15 3e
       0.07904364 0.04269871 0.069885775 0.14553532
000160 c9 ff f9 bc 53 cd c5 bd 26 09 1d 3e 9d 74 f7 3d
       -0.030517476 -0.09658303 0.15335521 0.12082789
000170 9d de e8 bd 68 65 a1 bd d4 a4 34 3e ad 51 a3 3c
       -0.11370585 -0.0788067 0.17641002 0.019936407
000180 f9 91 4d bd 92 31 44 3e 6b 82 04 bd 55 ed bf 3d
       -0.05018804 0.19159535 -0.03235094 0.09371439
000190 26 6e 08 be 6a 02 a3 3d 19 9a 03 3d ee 23 98 bd
       -0.13323268 0.07959445 0.03212938 -0.07428728
0001a0 a8 ec de 3b 29 33 bc bd 8d e7 eb 3a 02 3f 39 3e
       0.006803114 -0.091894455 0.0017998085 0.18090442
0001b0 21 c2 d4 3c 90 a5 8d bd 8a bb 02 3d 1d c9 ab 3d
       0.025971474 -0.06916344 0.031917132 0.08387969
0001c0 45 47 09 bd 63 4f 64 bd 17 6e f7 3c f2 2b 06 3d
       -0.033515234 -0.05573977 0.030203862 0.032756753
0001d0 68 ae d2 3c c3 86 d2 bd 52 5c 37 3c 61 05 66 be
       0.025717929 -0.1027961 0.0111914445 -0.2246299
0001e0 31 7d a6 bd b3 99 54 bd f7 2a e2 bd fd cb c8 bc
       -0.08129347 -0.05190439 -0.11043351 -0.024511332
0001f0 f2 62 15 3e e1 3b 86 bd 14 18 e7 bc 53 ff f2 bd
       0.14588526 -0.0655439 -0.028209724 -0.118651055
000200 20 7a e0 bd 74 c1 31 3e b5 47 cd bd 98 59 d2 3c
       -0.109607935 0.17358953 -0.10023443 0.025677487
000210 0b 7d 77 3d 33 e0 5b 3d 14 df 97 3d 85 2b 3c bd
       0.060421985 0.05368061 0.07415596 -0.04593994
000220 20 86 e8 3d bd cc 8c 3d e6 65 45 3e f4 b0 7c bd
       0.11353707 0.06874988 0.19277152 -0.061692193
000230 3a fb 52 3d 71 5c ba 3d a9 44 bc bd 87 0b c7 bc
       0.05150912 0.09099663 -0.091927834 -0.024297489
000240 ed 39 2d be 4e fe 2f 3d 1a 5d 3e bd 9c 0d 3d 3d
       -0.16916628 0.042967133 -0.046475507 0.046155557
000250 c6 16 47 3d eb 86 94 3d 2a 71 83 3d c2 69 73 3e
       0.048605703 0.07252296 0.06418069 0.23770812
000260 20 1b ad bd d2 99 81 3c 8b 44 98 3d 89 1a db 3d
       -0.08452439 0.015820418 0.074349485 0.106984206
000270 b5 d0 05 be 6a 84 06 3e e5 1d 5a bd 4d f3 4b bc
       -0.13067897 0.1313645 -0.053251166 -0.012448144
000280 4a 1c b0 bd 5a 47 18 3d b3 65 4b bd e4 04 bd bd
       -0.08599146 0.03717742 -0.049657535 -0.092294484
000290 f7 4b 42 bd 10 8a c6 bd 51 37 00 be 2b 80 54 bd
       -0.047435727 -0.09694302 -0.12521102 -0.051880043
0002a0 db ee 48 bc e5 45 60 3c 79 2f 66 bc e3 f1 ee bc
       -0.012263979 0.013688539 -0.014049404 -0.029168075
0002b0 19 74 3d 3e cf f0 de bd b5 3f 0e 3d 5e 95 b8 bd
       0.18501319 -0.10885774 0.034728725 -0.090128645
0002c0 cf dd 3b bd 05 ac 00 bd 27 29 e5 bb ed 96 e8 bc
       -0.04586583 -0.03141405 -0.006993431 -0.02839228
0002d0 48 52 df bc 5e 36 25 be 00 10 8e bd ef 90 32 bd
       -0.027260914 -0.1613402 -0.069366455 -0.04359525
0002e0 ea 88 2f bc 29 e2 a7 bb 59 30 91 3d a9 cf a5 3d
       -0.010713795 -0.005123396 0.070893 0.08096249
0002f0 33 9d 49 3d 08 42 d5 3d 0c a0 b5 bd 32 96 18 be
       0.049222182 0.10412985 -0.08868417 -0.14901045
000300 be a3 c5 3d 90 70 ef 3d cc 8a ea bc 17 23 45 be
       0.09650372 0.116913915 -0.028630637 -0.19251667
000310 30 19 89 ba d8 25 51 3d 9b 2f 83 3c 4d d5 1c be
       -0.0010459777 0.05106148 0.016013911 -0.15315743
000320 32 b8 38 bd 27 df 69 3d 00 f5 2f 3c 2c b6 ca bd
       -0.045097537 0.05709758 0.010739565 -0.09898028
000330 b3 15 4e be d4 ca ef 3d af 44 05 3e 91 b1 4a 3e
       -0.20125465 0.11708608 0.13014482 0.19794299
000340 dd 91 8b 3d 31 e1 81 bd 75 9c f8 3d 29 e6 87 bd
       0.068149306 -0.0634178 0.12139217 -0.066356964
000350 c5 64 8b bc d0 d2 0b be 4d 23 ae bc cd 7b 49 3e
       -0.017015824 -0.13654637 -0.021257067 0.19676133
000360 90 93 b7 bc e1 29 03 be 6b ed 00 be 6d 5d 98 3d
       -0.02240923 -0.12808944 -0.12590568 0.074396946
000370 cd fe 57 bd a2 c7 c7 bd 52 a6 24 bd 6e f3 87 3d
       -0.05273323 -0.09754874 -0.040197678 0.066382274
000380 3d 8d b5 bd 4e 5e 0c 3e b8 00 9b 3d bf b7 83 3d
       -0.0886483 0.1370785 0.075684965 0.06431531
000390 1a 2d 2a be bc 76 5b 3e 22 06 12 be 2b 55 bc bd
       -0.16618767 0.21432012 -0.14260152 -0.09195932
0003a0 e6 2c b7 bd ee df 2a 3e e0 2c 02 3d 01 01 31 bc
       -0.089441106 0.16686985 0.031781077 -0.010803462
0003b0 93 d5 e0 bd 97 54 94 3c 48 af 8b 3c dc 49 9e 3d
       -0.10978236 0.018106742 0.017051354 0.07728931
0003c0 1d dd e7 3d df 10 21 bc fb 9c e0 bd a4 b1 2c be
       0.11321471 -0.009830683 -0.10967442 -0.1686464
0003d0 d2 43 48 bd 4e 81 70 3d 70 2b 06 3d 8a b2 28 3d
       -0.048892803 0.058717065 0.03275627 0.041185893
0003e0 47 00 85 3d e4 2f 54 3d 03 30 00 bd ca 56 4e 3d
       0.064941935 0.051803485 -0.031295788 0.050375737
0003f0 3a 1b d2 bd e1 c5 0e bd 61 23 9f bd 4f 89 25 3d
       -0.10259099 -0.03485668 -0.0777042 0.04041415

network_body._body_endoder.seq_layers.2.bias f4 [128]
000000 7d 9a 05 3d 4f 0a 6f bc 86 b8 af bc d7 58 34 3c
       0.032618035 -0.01458986 -0.021450292 0.011007509
000010 0f e4 a7 bc a1 51 db bc b5 74 cd bc 91 96 ed 3c
       -0.020494489 -0.026772322 -0.025080064 0.02900246
000020 c0 81 cb bb 1c e5 a2 bc cc ed 05 3d c1 e2 92 3c
       -0.0062105358 -0.019884638 0.032697484 0.01793039
000030 8a 28 2f 3a 78 e4 c6 3c ac 8e 93 3c c1 27 07 3d
       0.0006681761 0.024278864 0.018012367 0.032996897
000040 66 c8 f9 3c 02 47 88 3c 88 7f a8 3c c1 a5 aa 3c
       0.030491065 0.016635422 0.020568624 0.02083099
000050 6f 17 f2 3c b5 92 c4 3c 22 1b 04 bd a2 49 f4 3c
       0.02955219 0.023995737 -0.03225244 0.029820267
000060 bb c9 eb bc da c0 19 3c 31 05 f6 bc d6 b6 14 bd
       -0.028782716 0.009384358 -0.030031772 -0.03630718
000070 a2 06 e1 3c 45 96 f8 3c f0 8e 5b 3c 9f cf ed 3c
       0.027468983 0.030345092 0.013400778 0.029029666
000080 62 c7 89 3c cc a7 1f bd df 59 07 bd 8c 60 e8 3c
       0.016818706 -0.038978383 -0.033044692 0.02836635
000090 71 49 06 bd a2 61 97 3c 29 1b 88 3c 0c d7 17 bd
       -0.032784883 0.018479172 0.016614513 -0.03707032
0000a0 d3 05 d0 bc fb 76 f5 3c 88 45 e2 bc 09 67 ed bc
       -0.025393402 0.02996396 -0.027621046 -0.028979795
0000b0 a0 b5 e6 3b 8d 35 93 3c 03 dd 01 3d f9 a8 dd bc
       0.0070406944 0.017969871 0.031704914 -0.027058112
0000c0 68 7f ec bc 95 44 a2 3a 6e 23 2e 3b af aa 13 bd
       -0.028869346 0.0012380058 0.002657141 -0.03605145
0000d0 a5 a7 ee 3c 35 44 00 3d 13 f5 95 3c f4 7a e9 3c
       0.029132674 0.031315047 0.018305337 0.028501011
0000e0 b5 e2 0f 3c 5e e9 97 3c 65 bf e0 3c 7e 82 fa 3c
       0.0087820785 0.018543895 0.027435014 0.030579802
0000f0 21 01 be bc 4f c2 d5 3b 81 60 04 bc 82 bd a5 bc
       -0.023193898 0.0065234075 -0.008079649 -0.020231966
000100 c2 01 f6 3c 69 cd c7 3c 36 df ef 3c 4d 24 15 bd
       0.030030135 0.02438994 0.02928124 -0.036411572
000110 a0 03 71 bc b2 42 ee 3c 69 0a bc 3c f5 5b 09 bd
       -0.014710337 0.029084537 0.022954183 -0.033534963
000120 3a ee c5 3c c1 35 01 bd 04 bb ca ba d8 23 d6 3c
       0.024161447 -0.031545404 -0.0015467112 0.026140139
000130 83 e1 2f 3c 87 71 a5 3c 75 f8 a3 bc 24 95 8d 3a
       0.0107349185 0.020195736 -0.020015934 0.0010801894
000140 75 d4 a6 bc b8 6b c4 bb 68 ca e1 3c f7 f2 9a bc
       -0.02036498 -0.0059942864 0.027562335 -0.018914683
000150 83 6b 1e bc f7 ab 86 3c 25 e5 c9 3c e4 64 ff bc
       -0.0096691875 0.016439421 0.024645397 -0.031176038
000160 71 a3 c7 3c be ca 02 3d fe 28 da 3c 6d 90 03 3d
       0.024369927 0.03193163 0.026630875 0.032120157
000170 bb e3 da 3c f6 83 70 bc e2 b3 ee bc 2a 7a c4 3b
       0.026719918 -0.014679899 -0.02913851 0.0059960084
000180 54 45 d0 3c 56 ef 81 3c b8 64 fa bb 27 b9 e5 bc
       0.025423683 0.015861195 -0.007641401 -0.02804239
000190 91 f9 2a 3c 00 c3 f0 ba bc 68 dc 3c 64 31 a1 bc
       0.010435478 -0.0018368661 0.02690541 -0.019676872
0001a0 6c 70 04 3b a1 f9 07 bc f7 ef 85 3c 2c 28 1c 3c
       0.002020861 -0.008299262 0.016349776 0.009531062
0001b0 c5 46 80 ba 98 44 c7 3c 4c 7f 37 38 5e 8b a7 3c
       -0.0009786716 0.0243247 4.3749154e-05 0.020452198
0001c0 fb 88 bc bc 46 3b e6 bc 74 e6 d8 3c fc 9e 74 3c
       -0.023014536 -0.028104436 0.026477076 0.014930483
0001d0 5b 91 de 3c ed 3f 0f 3b 3e ee 75 bb bc e2 ec bc
       0.02716892 0.002185817 -0.0037526037 -0.02891671
0001e0 1a 50 43 3c 2f e5 ae 3c 06 e1 99 3c 53 8b e3 3c
       0.011920953 0.021349518 0.018784057 0.027776396
0001f0 2f e1 a7 3b a6 45 0a 3d 0a 6b bc 39 9d e4 de 3c
       0.0051232795 0.03375783 0.00035937905 0.02720862

action_model._continuous_distribution.log_sigma f4 [1, 2]
000000 0a d7 0a bb 94 0d 7d 3b
       -0.0021185302 0.003861283

action_model._continuous_distribution.mu.weight f4 [2, 128]
000000 23 c9 c2 3c 4b 94 a5 ba 73 7a 65 bb 03 46 81 3c
       0.02377755 -0.0012632696 -0.0035015612 0.015780455
000010 14 9b eb bb 70 c1 ef bc df 6a c0 bc 7a db 00 3d
       -0.0071901176 -0.029267043 -0.02348846 0.03145931
000020 e1 db ab 3a f8 41 ca ba 03 0d ae 3c a0 76 07 3d
       0.0013111794 -0.0015431037 0.021246439 0.033072114
000030 d8 c8 c1 bc 45 78 1e 3d 68 50 4c 3c c1 e9 6a 3c
       -0.02365534 0.038688917 0.012470342 0.014337958
000040 15 d9 47 3d 90 c9 b7 3c 52 9c 8e 3c 53 95 36 ba
       0.04879101 0.02243498 0.017408524 -0.0006965
000050 b0 f9 93 3c 69 57 56 3b fc b1 b4 bc cd db 99 3c
       0.018063396 0.003270591 -0.022057526 0.018781567
000060 36 43 d6 bb d4 2a a5 3b f2 16 8a bc 75 56 1a bd
       -0.006538774 0.005040506 -0.016856644 -0.037680108
000070 e2 d3 14 3d 33 06 8b 3d 81 bf f9 3c 89 b3 05 3d
       0.03633488 0.06788292 0.030486824 0.03264192
000080 af 2a 33 ba bf ed 76 bc 77 d1 cd bc ce 34 74 3c
       -0.00068346685 -0.0150713315 -0.025124295 0.014905168
000090 fc 01 b9 bc 51 43 17 3d 96 7c 01 3c 09 60 1b bd
       -0.022583954 0.036929432 0.007903239 -0.037933383
0000a0 1f c0 c4 bc a2 b3 b3 3c a3 60 07 bd 9a fc 6d bc
       -0.024017392 0.021936242 -0.033051144 -0.014525557
0000b0 84 4a 97 3c b4 8c 33 3b d7 58 86 3d 7b 55 2b bc
       0.018468149 0.0027397098 0.065599136 -0.010457392
0000c0 d2 08 24 bc 1e 63 89 bc b9 b9 0f bc 7a 52 dd bc
       -0.010011869 -0.016770896 -0.008772307 -0.027016867
0000d0 f0 7e 20 3d c2 ac 3e 3d 9d 95 fd 3b 44 16 cb 3c
       0.039183557 0.046551473 0.0077387826 0.02479089
0000e0 8d b5 15 bc bc 99 c6 3c 2e a5 6f 3c 24 90 42 3c
       -0.009137523 0.024243228 0.014626784 0.011875186
0000f0 b0 67 6d bc 57 d4 21 bc ab fb e7 3b af f7 be 3b
       -0.014490053 -0.009877286 0.0070795617 0.005827866
000100 b3 78 11 3d 32 34 f6 3c 58 60 bd 3c 88 a1 0b bd
       0.0355155 0.030054186 0.02311723 -0.034089595
000110 aa cf 7d 3b dc 1d e7 3c 4d 2b 37 3c 43 6a 9d bc
       0.0038728514 0.02821248 0.011179757 -0.019215709
000120 0e a9 03 3b 26 07 0f bd 1b f6 f0 3b 2d 23 43 3c
       0.0020089778 -0.034918927 0.007353557 0.011910242
000130 65 cc a7 3c 74 72 ae 3c 65 cf c0 bb ba 65 0d 3c
       0.020483205 0.02129481 -0.0058840984 0.0086302105
000140 33 ac 82 bc eb e2 0c 3c 0a cd 6f 3d 39 d1 fe bc
       -0.015951252 0.008599023 0.05854515 -0.031105625
000150 6b ad 22 3b ed f0 d6 3c 24 07 ed 3c 54 d5 fb bc
       0.0024822603 0.02623793 0.028934069 -0.030741371
000160 4f 1f b9 3b 30 94 88 3d ed b8 ae 3c a0 c7 1a 3d
       0.005649484 0.066688895 0.021328414 0.037788033
000170 5a c0 8f 3c 0d 2d 8b 3a 81 d8 0f bd 07 df ca bb
       0.017547775 0.0010618285 -0.035118584 -0.0061911377
000180 9c 71 b3 3c 9c 2a af 3c 32 59 a4 3b 37 a0 0e bd
       0.02190476 0.021382622 0.0050155157 -0.03482076
000190 98 43 de 3c c4 39 73 bc 8d 8f f5 3c f8 91 cc ba
       0.02713184 -0.014845315 0.029975677 -0.0015607467
0001a0 88 b4 90 bc 4d a9 11 3c 60 1d bc 3b 90 a3 94 bc
       -0.017664209 0.008890462 0.0057408065 -0.018144399
0001b0 0c 5c 03 bc 41 a0 ef 3b d3 ea 4f bb bd 3c 9e 3c
       -0.008017551 0.007312805 -0.003172566 0.019316072
0001c0 0f 14 0a bc ae 53 34 bc 79 c7 a3 3c 24 da c5 bb
       -0.008427634 -0.011006279 0.019992577 -0.0060379673
0001d0 1a 27 a5 3c 50 02 d8 3c 47 30 c7 bc 47 74 fd bc
       0.020160247 0.02636829 -0.024315013 -0.030939234
0001e0 27 f8 a7 3c 5f 21 58 bb 3b be b0 3c 54 6c e5 3c
       0.02050407 -0.0032978875 0.021575084 0.028005756
0001f0 7b ff fe 3a 9d d7 52 3d a2 9f a9 3b a5 2b d6 3c
       0.0019454801 0.051475156 0.0051765004 0.026143858
000200 7a c4 9d 39 74 41 ef bb 0f 48 05 3d 9e 56 fb 3b
       0.0003009176 -0.007301504 0.032539424 0.0076702377
000210 31 9c 15 3c 6e de 7d 3d f9 77 08 bc 92 f8 84 3b
       0.009131477 0.061979704 -0.008329385 0.004057952
000220 57 26 88 3b 4b 1d 38 3c 35 08 69 bb d9 d2 11 3d
       0.004154961 0.011237453 -0.003555787 0.03560147
000230 b1 4c 13 bd d3 c8 ec 3a c1 02 af bc 92 4d 8b bc
       -0.03596181 0.0018065221 -0.021363618 -0.017004762
000240 e9 5a ee bc 7e 3e 34 bb f3 1e 75 3a aa a3 35 bd
       -0.029096084 -0.0027503069 0.000935062 -0.044345535
000250 39 42 c5 bb 06 93 b1 ba 58 bf d4 3c a0 d4 e5 bc
       -0.0060198572 -0.0013547845 0.025970146 -0.028055489
000260 f6 09 d5 3c 1c 57 17 bd 27 97 1c 3c e0 4e 84 3c
       0.026005726 -0.03694831 0.009557522 0.016150892
000270 ca 24 d7 3a 2f ba d6 bc 26 70 d6 3c 8b e3 09 bd
       0.0016414162 -0.026211826 0.026176523 -0.033664268
000280 c6 07 4f bc f6 ec a3 3c a0 df ab ba 39 18 49 bc
       -0.012636131 0.020010453 -0.001311291 -0.012273842
000290 f5 f4 9d 3c a9 80 c1 3c 55 3a 90 bc b2 e3 d0 3c
       0.019281844 0.02362092 -0.01760594 0.025499199
0002a0 07 e2 e4 3c 9c 21 1a bd ed 6a 4a 3d 26 85 5d bb
       0.02793981 -0.03762971 0.04941838 -0.0033801286
0002b0 d2 93 b8 3c af a4 6c bc c8 bb c1 bc 17 d5 c5 3b
       0.022531424 -0.0144435605 -0.023649111 0.006037365
0002c0 83 ad 1a bb 42 8d 8e bc 0d b4 fe bc 9a ac 7e 3c
       -0.0023601956 -0.017401341 -0.031091714 0.015544081
0002d0 30 41 98 3b 21 9f 0b bd 48 04 2e 3c 5c 65 57 bc
       0.004646443 -0.034087304 0.010621138 -0.013146725
0002e0 b5 ac ac bc 0c 1a 8f 3c e7 ea 0a bc 22 bc 33 bc
       -0.021078447 0.017468475 -0.008478857 -0.010970147
0002f0 a6 ef 30 3d 68 7d 05 bd 60 0e 41 3c 4a 2f c7 3c
       0.043197297 -0.0325903 0.011783212 0.024314541
000300 7f 12 2c bd 29 69 ef 3b 85 77 f3 bc 06 0f de 3c
       -0.042009827 0.0073062372 -0.029720077 0.027106773
000310 ba a8 0b 3c 1f 38 6b bc 2d d4 05 bd 85 17 8b 3b
       0.008524114 -0.014356642 -0.03267305 0.004244747
000320 0a 24 10 bc 18 d9 86 3c 8d 51 fc 3a 67 2d ed bb
       -0.008797655 0.01646094 0.0019250378 -0.0072380784
000330 e5 2f 0b 3c 21 b3 84 3b 1a d7 f8 3c e0 52 60 3b
       0.008495306 0.004049674 0.030376006 0.0034229085
000340 0f cd 97 bc a1 3b 85 3c d4 5d 70 3c 05 38 c6 bc
       -0.018530397 0.016263785 0.014670808 -0.024196634
000350 4f 15 de 3a e8 8f c0 3b 0e 80 34 bb 20 aa 29 3d
       0.0016943606 0.00587653 -0.0027542147 0.04142201
000360 b4 3f b9 bb 33 f9 98 bc 71 4d 15 3b 91 28 08 bd
       -0.005653346 -0.018673515 0.0022781754 -0.033241812
000370 0c 87 82 3b b7 78 01 bc 15 54 a6 bb 6a 65 8c 3b
       0.003983384 -0.007902316 -0.0050759413 0.0042845504
000380 7a 59 a8 3b 88 5f f3 3c 53 5b 82 3b ea bc 71 3b
       0.0051376196 0.029708639 0.003978172 0.0036886283
000390 ab 0c 47 3d 90 4b d6 bb 01 76 15 bd f4 27 c1 3b
       0.048596065 -0.0065397695 -0.03648949 0.0058946554
0003a0 a1 89 74 bc 06 f1 ce b8 b2 39 12 bb 86 c9 57 bd
       -0.014925391 -9.8677396e-05 -0.002231222 -0.052682422
0003b0 2e 73 1f bd bb 26 d8 bb 3f a6 8c bc 60 ae 57 bd
       -0.038928203 -0.006596414 -0.017169116 -0.05265653
0003c0 4c 7e d8 3c af 3d 75 3a 70 31 90 bc 68 9d 38 bd
       0.02642741 0.00093552 -0.017601699 -0.04507199
0003d0 ef 43 8b bc c7 e3 ec 3c 74 93 d4 bc 1e 8e 83 3c
       -0.017000167 0.028917206 -0.025949217 0.016058978
0003e0 96 b2 d9 3c 59 e4 38 bd 28 ed 5e 3b c8 cd 2c bd
       0.026574414 -0.045139644 0.0034015868 -0.042188436
0003f0 16 63 61 3c ab a1 bb bc d4 7c 96 bc c4 f3 2c bd
       0.013756534 -0.022904238 -0.01837007 -0.04222466

action_model._continuous_distribution.mu.bias f4 [2]
000000 1c 1a f0 3c a2 59 95 bc
       0.029309325 -0.018231217

action_model._discrete_distribution.branches.0.weight f4 [1, 128]
000000 77 52 01 3b d3 29 9b 3b 9b bc d9 bb 8f 40 00 bc
       0.001973299 0.0047352104 -0.006644798 -0.007827892
000010 df fe 01 3b da e7 8a bb 13 31 86 3b 2f 20 78 3b
       0.0019835753 -0.0042390646 0.0040952056 0.003786098
000020 64 b8 ba bb e8 42 72 bc d4 8f 95 bc e8 4e 11 3c
       -0.0056982506 -0.0147864595 -0.01825706 0.00886891
000030 52 13 f4 3a cb 81 7d 3c 20 fc fd b9 d2 f0 b3 3a
       0.001862148 0.01547284 -0.00048443768 0.0013728386
000040 83 11 01 ba aa 77 80 3c e0 9c d3 bc 5a 49 49 3c
       -0.0004923569 0.01568206 -0.02583164 0.012285555
000050 70 5e e9 3a c0 7f 92 bc 0d e4 10 bc 64 38 41 bc
       0.0017804634 -0.017883182 -0.008843434 -0.01179323
000060 bf ca ac 3a bb 24 fd bb ba 84 97 bb 8d f8 50 bc
       0.0013182982 -0.007725326 -0.0046239765 -0.012754572
000070 77 5a 0b bc 0d b1 fc 39 95 60 a5 bb a6 aa 26 bc
       -0.008505455 0.000481971 -0.005046914 -0.010172522
000080 45 89 f0 3b 0c 47 8a 3c f5 7b 9b b9 fe cb 87 3b
       0.0073405826 0.01687958 -0.0002965626 0.004144191
000090 b5 90 c2 bb ed 6b e6 ba 4b 47 6f 3c 7f 84 56 bc
       -0.0059376606 -0.0017579772 0.0146044 -0.013093113
0000a0 00 11 5a bb 5e 42 2c 3c e7 36 73 3c 1f 0d ec 3a
       -0.0033274293 0.01051387 0.014844633 0.0018009281
0000b0 53 54 4a 3a dd 78 7c 3b d8 04 60 bc a3 fb f0 bb
       0.0007718254 0.0038524189 -0.01367303 -0.007354216
0000c0 b2 05 1e 3c e2 5f 12 3c c9 31 ba 3a c4 8d c4 3b
       0.009644913 0.008933993 0.0014205511 0.005998345
0000d0 19 20 82 bc b8 41 1c 3c 8d 18 67 bc e5 26 80 bc
       -0.015884446 0.009537153 -0.014104974 -0.015643546
0000e0 7b 39 7c 3a e2 c2 7a bb cb b5 13 bb f2 53 66 3b
       0.00096216024 -0.0038263132 -0.0022538777 0.003514525
0000f0 6f 00 e1 3a 30 05 24 bc 6f e0 de bb bc 6b 86 3a
       0.0017166267 -0.010011002 -0.006801657 0.0010255496
000100 6c 52 19 bb d7 52 e7 ba e7 d5 a7 bb e7 8c 52 bc
       -0.0023395075 -0.001764859 -0.0051219347 -0.012850977
000110 00 eb 4d bc 55 aa 78 3b 8b 86 95 b9 c6 1d 03 ba
       -0.012568235 0.0037943323 -0.00028519737 -0.000500169
000120 17 11 ef bb 1e d0 a4 bb f7 99 5e 3c 3c ff 80 3b
       -0.0072957384 -0.0050296923 0.013586513 0.0039366763
000130 13 91 90 bb 00 b6 6c bb c4 36 bd ba d3 7b 75 3a
       -0.0044118254 -0.0036119223 -0.0014435877 0.00093644595
000140 40 00 b2 3b db 23 24 3c 47 d0 f0 3b 3b 2c 7f bb
       0.0054321587 0.010018314 0.0073490473 -0.0038936276
000150 f2 21 ea 3b 3f 8a fc 3b 13 a7 7c bb 7b a8 24 bc
       0.00714516 0.00770691 -0.0038551732 -0.0100499345
000160 00 98 b0 ba d7 db e8 bb 4a e7 ea bb 72 e2 64 bb
       -0.0013473034 -0.007106285 -0.007168685 -0.003492501
000170 c0 7a eb 3b bc 38 a1 bb 52 f9 19 3b 2f c4 10 3c
       0.007186264 -0.0049200933 0.0023494554 0.008835836
000180 80 8f 2d bb da b4 53 3b 53 50 fe bb ef ab 25 bc
       -0.0026483238 0.003230384 -0.0077610402 -0.010111793
000190 6b c8 7e 3a 53 bf 99 bb 58 7d 19 3b 83 89 46 bc
       0.00097191957 -0.004691997 0.0023420658 -0.012117746
0001a0 e4 f5 05 3c 5e 6d 11 bc dd d2 ca bb 2e c8 07 3b
       0.008176301 -0.008876173 -0.0061896876 0.0020718682
0001b0 60 a6 29 3c ab 48 11 bc d7 a1 67 3c 6f 89 d5 ba
       0.010354608 -0.008867423 0.014137707 -0.0016291569
0001c0 79 61 b4 bb 0c 3e 80 3b e8 79 75 bb dd 2c 6b ba
       -0.0055047837 0.0039136466 -0.0037456695 -0.0008971224
0001d0 2a 3b fa b8 f7 3d 74 ba 02 81 97 3c 4d 3a 2c 3c
       -0.00011931949 -0.0009317095 0.018494133 0.010511947
0001e0 10 88 d1 37 58 9b 00 bc 44 aa c7 3b e4 4a 0c bc
       2.49781e-05 -0.007849537 0.0060932953 -0.008562777
0001f0 6f e1 f7 bb 72 71 46 3a b8 bf bf 3b 0f 0a 06 3c
       -0.0075647156 0.0007570005 0.005851712 0.008181109

onnx::Div_70 f4 [8]
000000 cc 68 b3 40 aa fc 16 3c c8 ba 94 40 e7 62 c5 40
       5.6065426 0.009215513 4.6478004 6.168323
000010 8c a5 6f 3d e9 d4 3a 40 aa fc 16 3c aa fc 16 3c
       0.058507487 2.919245 0.009215513 0.009215513
