results/ManagerAvoidShooting/ManagerAvoidShooting/ManagerAvoidShooting-2759.onnx (onnx, 80794 bytes, 10 tensors)

network_body.observation_encoder.processors.0.normalizer.running_mean f4 [8]
00000000: c002 fc3f 0000 0000 baa0 1dbf 0289 7240
00000010: e3fa 47c4 f78f 5cc0 c7bc 983e 89cc dabe
1.9688339 0.0 -0.61573374 3.7896123 -799.9201 -3.446287 0.29831526 -0.42734173

network_body._body_endoder.seq_layers.0.weight f4 [128, 8]
00000000: 2d64 d1bd 666d 5ebe 7031 433e 2388 edbe
00000010: f42d 3d3e 7184 5f3d 3791 033f 3b16 e13e
00000020: 8278 39bd 6d65 133f 0eaa bf3d 4121 a6be
00000030: 6978 d33d ce26 cbbd 88e7 353f 0ac7 be3e
00000040: c6cb 72be 95b0 8f3e dcb3 113d 9599 ef3e
00000050: d289 f03e a7fd 79bd ddda debe 105e 813f
00000060: a63b 553e 51a6 d43e a6a9 ba3e 4379 fdbe
00000070: 2c7e 40be 35a3 413d ce89 f6bd b284 cd3c
00000080: 1eef ddbc 315c 3dbf 1cac b23e 5398 f0bd
00000090: 2a58 56be da8f 1d3f a990 083f 28bc c83d
000000a0: 2326 1e3c ed09 e13c 06c1 fc3c f23a 813e
000000b0: 49c1 153e cf45 9c3e 0a39 de3d e8af 293e
000000c0: 6bf6 cdbe a115 abbe 3dc1 aebe 82e1 b3be
000000d0: 745e ed3e 9aa9 483e 49f1 29be ae81 8dbe
000000e0: bb5e e33d 49a7 62be 3e7d ba3e 1e1c f6be
000000f0: d00f e33e 6c1e cebe 9f4b 0e3f db4f 1ebe
00000100: f0f6 8b3e 6a8a 67be dcdd 173f c06b 723d
00000110: 6c84 1f3e ae40 7ebe 2b73 463f 4251 da3e
00000120: 45c8 8f3e 6761 4c3e 00a6 4fbe dfc7 a63e
00000130: c6c5 053f c429 9dbe 6b5e 9c3e 53e6 513e
00000140: 3de0 af3e 2333 4dbc c2f0 633e a09d 86be
00000150: c73d bbbd 5a57 283e f55b bcbe 22b0 38be
00000160: 777a b0be 8507 bfbe f782 b7bd 6834 1dbc
00000170: 4fd5 78be 117c 22be b4d2 103f 12d6 b1be
00000180: 12a9 4fbe bec5 83bd 2997 90be 4321 b83e
00000190: 79d3 a83e 8b3a 30bf 144f 95bd 7ec6 b7be
000001a0: 0f45 0fbf 7652 a9be 16f1 f53e 9b66 bebd
000001b0: 6af8 04bd 5a00 d43d 1afe 913e 5c15 00bf
000001c0: 52a9 3fbe aef0 73be d8ca a8be 871a 0ebf
000001d0: 1212 103e 7877 d63e a2df 123e 3845 b6bd
000001e0: 08b9 83be 28d3 1bbe b8ac 82be 714c c2bd
000001f0: 4f14 d33d d15f 8abd dc7e 95be 458d 273e
00000200: 6f55 013f c0bf f0be 532d 9bbe 17b8 5bbe
00000210: 8a44 433e 7934 f73d a38c 893d 8a15 a3bd
00000220: fa26 d53e aa51 ccbe 3750 dabe 4b6d 1f3d
00000230: 68ca 86be 8ef4 823c ffbb 58be 57db 70be
00000240: 8a7b 143f ba1b 623e b9f1 9abe 44e7 abbe
00000250: 7cba 413e 2114 1b3c c027 66be 570a b8be
00000260: 6aa5 bebe 6d5e 473e f30e eabe e1d5 53bf
00000270: ecdd 78bd 3e65 89be 8a98 b2be 3bab 2a3e
00000280: 818a dc3d e234 b7bd 5b4f 44be 40a4 ac3b
00000290: f6e7 c1bc de32 b63e b4d2 5cbf 0b58 a1be
000002a0: e602 9abe 66ff 9f3c 5c1d cbbe 3d4d dc3d
000002b0: 5e4b 9ebe 50b0 abbe 8f44 cc3d 0f67 71be
000002c0: 9ef0 093d 6ed7 a3bd 3141 cf3c 017b 143e
000002d0: 24bf 383f 1167 613e 56ff 5cbe 808f 2f3f
000002e0: 6f93 81be 50d3 40be 5350 233e a68c 053e
000002f0: 9134 afbe 904d a5bd 3ea4 0f3e e1ff 27bf
00000300: 93f9 0bbe 9b6b 5c3e 13b0 e2be 14b6 ad3e
00000310: d44f c83d f5bb 10be 4959 063e 0f2b 043f
00000320: 15fe c33e 1b1d e9be 5e46 cabd 7e79 ac3e
00000330: beb4 833e 5fd2 ab3e 7852 2bbf 54e0 e83e
00000340: 3cf4 c9be 4db4 3abe 08b8 1fbf 6e86 7e3e
00000350: 137e 09be 8b42 6f3e 5504 123e 7893 bcbe
00000360: bc45 8e3e 65c3 f2bd b4ea 2b3d 821f 27be
00000370: 96e3 993e c599 cfbd 698c 20be 6e0e 79be
00000380: dbe1 f3bd a022 c8be 04a6 fc3e 457f 87be
00000390: 6395 bb3e 0141 a33e b170 673e 2e34 bc3d
000003a0: ba29 cd3e b69e 17bf 299c 263f d457 ca3c
000003b0: 7635 563e 4c00 c83e 6847 3c3c 407c 40bd
000003c0: e042 3e3d 8ec3 633e 4c7c e0be 9df6 cb3e
000003d0: e71d 143e 64da ccbe 299e 02be 4a60 cabe
000003e0: 6979 da3e b303 d2be ff82 593d cf9d 2fbe
000003f0: 06a7 b5bc 85c6 09bf 3ea7 043f 2eae 793e
-0.10224185 -0.2172142 0.19061828 -0.46392927 0.18474561 0.054569665 0.51393455 0.43962273
-0.04528094 0.5757664 0.09358607 -0.32447246 0.10325701 -0.09919511 0.71056414 0.3726123
-0.23710546 0.2806441 0.035571918 0.4679686 0.4698015 -0.061032917 -0.43526354 1.0106831
0.20823535 0.4153314 0.36457556 -0.49506578 -0.18798131 0.047274787 -0.12038003 0.025087688
-0.027091559 -0.739688 0.34896934 -0.117478035 -0.2093207 0.61547625 0.53345734 0.09801513
0.009652647 0.027470553 0.03085376 0.25240284 0.14624514 0.3052201 0.10850723 0.16571009
-0.40227064 -0.3341494 -0.34131804 -0.35132986 0.46361125 0.19595948 -0.16595949 -0.27638
0.11102053 -0.22134127 0.36423677 -0.48068327 0.44348 -0.40257585 0.5558414 -0.1546015
0.27336836 -0.22611395 0.59322906 0.05918479 0.15577859 -0.24829361 0.7751948 0.4264012
0.2808248 0.19959031 -0.20278168 0.32574365 0.52254903 -0.30695927 0.30540785 0.20498018
0.34350768 -0.012524399 0.2225981 -0.26292133 -0.091426425 0.16439572 -0.36788908 -0.1803594
-0.34468433 -0.37310424 -0.089605264 -0.009595014 -0.24300121 -0.1586764 0.5657151 -0.34733635
-0.20279339 -0.06434201 -0.28240326 0.35962877 0.3297384 -0.6883933 -0.072904736 -0.35893625
-0.5596475 -0.33070725 0.48035496 -0.09296914 -0.03246347 0.103516296 0.28514177 -0.5003259
-0.18716934 -0.23822281 -0.32967257 -0.5550923 0.14069393 0.41888022 0.14343122 -0.08899921
-0.25727105 -0.15217268 -0.255224 -0.09487236 0.10306608 -0.06756557 -0.2919835 0.16362484
0.50520986 -0.47021294 -0.30308017 -0.21456943 0.19069114 0.12070555 0.067162775 -0.079630926
0.416313 -0.39906055 -0.42639324 0.03892259 -0.263263 0.015985753 -0.21165465 -0.23521172
0.58001006 0.2208089 -0.30262545 -0.3357488 0.18918794 0.009465248 -0.22476101 -0.3594539
-0.37235576 0.19469614 -0.4571453 -0.8274823 -0.060758516 -0.26835054 -0.34882003 0.16666882
0.10768605 -0.089456335 -0.19170897 0.0052686036 -0.023670178 0.35585684 -0.8625901 -0.31512484
-0.30080336 0.019530963 -0.39670837 0.107569195 -0.30916876 -0.33532953 0.09974014 -0.2357447
0.033676736 -0.08000074 0.02529964 0.14500047 0.7216666 0.22011973 -0.21581778 0.6857834
-0.25307795 -0.1883061 0.1594861 0.13041934 -0.34219792 -0.080714345 0.14027497 -0.65624815
-0.13669424 0.21525423 -0.4427496 0.33927977 0.09780851 -0.141342 0.13119997 0.516282
0.38279787 -0.45530018 -0.09876703 0.3368644 0.25723833 0.33558938 -0.6692271 0.4548365
-0.3944415 -0.18232842 -0.62390184 0.24855968 -0.13427 0.23365228 0.14259465 -0.3683126
0.27787578 -0.11853675 0.041971877 -0.16320613 0.30056447 -0.10136751 -0.15678562 -0.2432191
-0.11908313 -0.39088917 0.4934541 -0.26464286 0.3663741 0.31885532 0.22601582 0.0918964
0.40070897 -0.5922655 0.6508203 0.024700083 0.20918831 0.39062726 0.011491634 -0.046993494
0.046450496 0.22242567 -0.4384483 0.39836589 0.14464532 -0.4001037 -0.12755646 -0.39526588
0.42670754 -0.41018447 0.053103443 -0.17150043 -0.02217437 -0.5381854 0.5181769 0.2438285

network_body._body_endoder.seq_layers.0.bias f4 [128]
00000000: a7d2 0a3c 968a 8c3c 90b4 66bc a2d0 72bb
00000010: 00d8 ac3c 1d6b 11bc 2b52 a63c 7bed 8f3c
00000020: da27 f13c e973 d33c 3c41 4f3b 6c9f baba
00000030: f4a2 2abc ce99 b1bc 9f39 f438 f141 fbbb
00000040: fb19 30bb d23d af3c 4a4e 483b 72c6 893c
00000050: f5fa ec3a 2fb3 483c 10ab a73c 55ee 763c
00000060: 4392 94bc 7e01 423b d41d 973c 29c0 96bc
00000070: 638b 8abc 2820 ad3c b6ad dcbb 4a9f 0d3b
00000080: f00a c13c 08c3 ac3a f355 363c 0711 a33c
00000090: 1857 543c b16a 21bb d7e7 ae3c 8bec a53c
000000a0: 7d88 b0bb 0d8a 8a3c a6c5 683b 771f 6d3c
000000b0: c320 c4bc 53df b43c 64c7 0b3c 046a 013c
000000c0: 4666 e53c 8cc7 8fbc a9f8 76bc 4b36 703c
000000d0: b6ef b43c 4a04 d23c 29ed 883c e29b 723c
000000e0: b84f 8f3c 7386 a33c 700a 98bc 8b8a ac3c
000000f0: b5d8 623c 5abd 933c 3ca2 0dbc 43fc 6ebc
00000100: f8b1 afbc 57d0 75bc ba7c 893b fda4 cb3c
00000110: 9932 983c 2b13 b03c 1ee7 873c 2678 40bc
00000120: 0b61 c63c 7ab7 03bc 08d8 cabb f987 373c
00000130: fc10 923c db1e d33c ccf7 03ba 6ebc 623c
00000140: 2781 e63b 3a15 8d3c 3e95 913c d0d7 ca3c
00000150: ceef 913c e204 cd3b cfd2 9c3c 452b a93c
00000160: 4a49 b43c 4c25 073b f808 81bc 4fdf efbb
00000170: 2ab4 373c 7b17 c73c c324 f6ba 726c e93c
00000180: 691f b93c 81e9 8f3c 8ba7 a63c 7857 953c
00000190: 24f0 683c 8f44 b83c cc6c 3cbc 9c8b 883c
000001a0: 4f41 093c 197c e73b fa2c b23b f526 90bb
000001b0: 90c3 913c 308d 84bc 357f c83c f0ea f03c
000001c0: db64 86bc 1d2a 6bbc aede 9a3c bac2 803c
000001d0: daa2 9b3c 004a 6e3c a66a 87bc 7dea 6d3c
000001e0: b98c 45bb 6e4f f03b bf25 c63c 8a52 4c3c
000001f0: f55f f73b 65c5 bfbb f272 07bc 7113 873c
0.008473075 0.017155927 -0.014081135 -0.0037050624 0.02109909 -0.008875635 0.020302853 0.017569294
0.029437948 0.025812106 0.0031624576 -0.0014238185 -0.010414828 -0.021679785 0.000116455594 -0.007667773
-0.0026870954 0.021391783 0.0030564242 0.016818259 0.0018080162 0.012249752 0.020467311 0.015071471
-0.01813615 0.002960294 0.01844684 -0.018402176 -0.016912168 0.021133497 -0.006734575 0.0021609836
0.023564786 0.0013180682 0.01112889 0.01990558 0.012960218 -0.0024630243 0.021350784 0.020254394
-0.0053873644 0.01691153 0.0035518198 0.014472834 -0.023941403 0.022079146 0.008531425 0.007898811
0.02800287 -0.017551206 -0.015073934 0.014661382 0.02208696 0.02563681 0.01671465 0.014807673
0.017494068 0.019961571 -0.018559664 0.021062156 0.013845612 0.018034626 -0.008644637 -0.014586511
-0.021447167 -0.015003285 0.004195777 0.024858946 0.018578814 0.021493515 0.016589697 -0.011747396
0.024216196 -0.00803935 -0.0061903037 0.011201852 0.017830364 0.025771549 -0.0005034178 0.01383887
0.007034439 0.017222036 0.01777136 0.02476111 0.017814543 0.0062566856 0.01914349 0.020650515
0.022007603 0.0020621596 -0.015751347 -0.0073203216 0.011212388 0.024303189 -0.0018779266 0.028494094
0.022597985 0.017567398 0.020343563 0.018230185 0.01421741 0.022493629 -0.011500549 0.016668133
0.008377387 0.007064354 0.0054374905 -0.0043991753 0.017793447 -0.016180605 0.02447472 0.029408902
-0.016405514 -0.014353302 0.01890501 0.015717853 0.018998552 0.01454401 -0.016530346 0.014521238
-0.0030143692 0.0073336875 0.02418792 0.012470851 0.0075492808 -0.0058523887 -0.008267151 0.016488763

network_body._body_endoder.seq_layers.2.weight f4 [128, 128]
00000000: caba 593c 9e3b 123e c94d a1bc 917a 013d
00000010: 1adf 103e 0b5f 0bbe 1ad5 a13c ef71 223e
00000020: a8aa 033e 3d00 ccbd 042b abbd 575c 01bd
00000030: cbce 903d 3821 8cbc 9b25 913d 5866 3a3d
00000040: 3356 a73b 8f1e 3f3d 7437 363e 5af9 133d
00000050: 8702 81bc 6159 0d3e 3f96 a5bd 0a75 e93c
00000060: 55a1 20be 9d4c c6bd 95bd b13d 43de 013e
00000070: 581d 223d 0830 e4bd 4408 b2bc e11e 093c
00000080: 8f11 343d d2eb 4b3d d3e9 29be 6f0b 0ebe
00000090: 51af 96bd 9554 7dbc ca3e a5bc a6e4 a1bd
000000a0: 5cb4 16be f978 2dbb d920 223c 94bd 903d
000000b0: 2038 b7bd a6bd 73bb f917 12be 6f3e c03d
000000c0: 3ae1 82bd 0d14 0f3e 6bcf 02bd db98 903d
000000d0: 6e1e 0ebd 0d79 da3d 3c92 123e 434c 3bbe
000000e0: 01b2 db3c 9286 0e3d e53b 983c 4cba ff3d
000000f0: 9faf 2e3d 055b 18bc a1ee 89bd 7624 a03b
00000100: 5158 163c 4fad 0a3a 3de3 e63d a7ec c8bd
00000110: e3e5 05be 6620 053e 6ba4 813c f839 2bbe
00000120: a9ec 89bc 5ed1 ec3d 066c 05bd 59be c2bd
00000130: 32bb d03c 4ed1 df3c 3056 203b 5632 6bbd
00000140: af4e 1b3c 8c51 b5bc 88a7 c83c 997d 243d
00000150: 3e61 00bd 4046 103d f743 a13c 7202 24bd
00000160: 56fb 6abc 7a9e 1b3d d696 c2bc 4787 3c3d
00000170: 217e 3fbd 115b 243e ce27 9abd b5b9 283e
00000180: 2999 dabd 3de4 b03d 93d4 b7bd b3e7 a73d
00000190: 533a 413e 682d 5b3c 51c1 0b3e 26f9 bc3c
000001a0: 9a07 dbbc 7cf1 ae3d 8b62 85bc 8c63 883d
000001b0: 0916 773d 9b1c 083d f69c 943d 7b4e 633e
000001c0: 8a0d e3bc 668d 8bbd 2181 84bc 9508 f5bd
000001d0: f27e 213d 364f bdbd 73b0 d63d e50d a53d
000001e0: 411a aa3c 515b 09bd 9b54 bb3c c4d5 513d
000001f0: c73c 41bd 834f a23b f1cc 9dbc 4690 c23d
00000200: 6230 843b 6402 6dbe ff9c 98bd c735 14bd
00000210: 1f7c 77bd d6b9 3cbd 815d c23d 0d26 813d
00000220: 1b16 f03d d436 cf3d 6fa5 e73d b683 4b3d
00000230: 3bbc cb3c a9cd 763d 0c38 8e3d d902 e7bc
00000240: 538a 99bc e8cf 813d 04b6 21bd 1e2a 7a3b
00000250: bff1 d6b9 36af 943c 24eb 55bd 9071 253e
00000260: dadd 9e3d 9717 bfbc f5dd c93d a285 18bd
00000270: 5e14 debd cb80 3539 b314 ecba 42df 4cbe
00000280: 8a3f a63d 40ca 0a3d 6513 ccbd 1469 513d
00000290: 6570 5fbd f1fe 6ebd a965 1c3e 7f37 143e
000002a0: 2364 713d ead2 1abd dd62 66bc 5be8 10bd
000002b0: cc4a 703c 9b60 0b3c 2a9b 4abd 946d 073d
000002c0: a94c a03d 0734 4fbd 3133 b0bd 9508 813d
000002d0: d476 47be 1341 51bd 8bf5 0cbe 63cc d23d
000002e0: d23c f8bd 8173 203a 047e 5bbe 03d1 e63c
000002f0: 7ae2 87bd 307e 0ebd eadb db3d 2538 b63d
00000300: 35c8 92bb 347e 873d 077d f5bc 2fea 56bb
00000310: 8f41 d03d 31cc ee3d 5069 8abe 015a d73d
00000320: 4de9 9abd 339f bf3c 0c5f c53d af98 c43c
00000330: 8e60 e53d 4e4b 6d3e 90c9 3dbc 6123 f53d
00000340: 1c34 1cbd 211b 203e 08b3 4ebd 1a37 ecbd
00000350: 5dba 6c3d 0464 fb3c 83e1 98bc 046f 3cbd
00000360: 6ddd 31bd df2f 4b3d 9866 173e 4291 023d
00000370: 5842 923d 7c39 ac3c 6e71 afbc a63c ea3d
00000380: e033 0f3d e441 843c bd82 ef3d c01f d73d
00000390: 5a73 1f3e 9df8 0d3e edc5 4dbd 2109 5c3c
000003a0: 56b2 fbbd b1e1 c93d 38e2 26be 60df 09be
000003b0: 2a93 003e 3ef9 00bd ce1e 49bc eb61 573e
000003c0: f301 63be 6263 223e 09cc b03c bc62 63bd
000003d0: f78c b3bc c288 abbd 6626 18be 6f27 9fbc
000003e0: 9a01 f53c 4ab9 023e 2beb 493d 02f7 113e
000003f0: 8f9e c0bc 66b4 97bd b785 7b3d d648 dc3d
0.013289163 0.14280555 -0.019690411 0.03161103 0.14147606 -0.13610475 0.019754935 0.15863775
0.12858069 -0.09960983 -0.08357814 -0.031582203 0.07070693 -0.017105684 0.07087251 0.04550776
0.0051067113 0.046660002 0.17794591 0.036126472 -0.015748275 0.13803627 -0.08085298 0.028498191
-0.15686543 -0.096825816 0.08678738 0.12682442 0.039578766 -0.11141974 -0.021732457 0.0083691785
0.043962058 0.049785443 -0.16593103 -0.13871549 -0.07357658 -0.01546206 -0.020171542 -0.07904939
-0.14717239 -0.002646981 0.009895527 0.07067409 -0.08946252 -0.0037191897 -0.14266957 0.09386908
-0.06390615 0.13972493 -0.03193609 0.07060405 -0.03469699 0.1066762 0.14313596 -0.1829081
0.026818277 0.034796305 0.018583247 0.12486705 0.042647954 -0.0092990445 -0.06734968 0.004887159
0.00917633 0.0005290107 0.11273811 -0.09810763 -0.13075976 0.1300064 0.01582547 -0.16721332
-0.016836481 0.11563371 -0.032573722 -0.09508962 0.025479887 0.027321484 0.0024465434 -0.05742105
0.009479209 -0.022133611 0.024493948 0.04015884 -0.031342737 0.035223246 0.019685728 -0.040041395
-0.01434215 0.037992932 -0.023753565 0.046027448 -0.046751145 0.16050364 -0.075271234 0.16477092
-0.10673744 0.08637283 -0.08976092 0.0819849 0.18869905 0.013377525 0.13647963 0.023068022
-0.026737023 0.08542153 -0.01628234 0.06659612 0.06032375 0.033230405 0.072565004 0.22197907
-0.027716417 -0.06814079 -0.016174855 -0.119645275 0.039427705 -0.09243624 0.10482874 0.08059291
0.020764472 -0.03353435 0.022867491 0.051229253 -0.047177102 0.004953326 -0.019262763 0.09500174
0.004034088 -0.23145443 -0.0745182 -0.0361841 -0.060421105 -0.046075664 0.09490491 0.06306086
0.11722966 0.101178795 0.11310851 0.049686156 0.024870029 0.060254727 0.06944284 -0.0281996
-0.018742716 0.06338483 -0.039480224 0.0038172076 -0.00040997376 0.018149953 -0.0522262 0.16156602
0.077571586 -0.023326678 0.09856788 -0.037236817 -0.108437285 0.00017309484 -0.001801154 -0.20007041
0.08117588 0.033884287 -0.09964637 0.0511256 -0.054550547 -0.0583486 0.15273155 0.14474295
0.05893339 -0.0377988 -0.014061657 -0.03537784 0.01466627 0.008506919 -0.049464382 0.033063486
0.07827122 -0.050586727 -0.08603514 0.06300465 -0.19478923 -0.05108745 -0.13765542 0.1029289
-0.121209756 0.0006120727 -0.2143479 0.028175836 -0.06634994 -0.03478831 0.10735305 0.088974275
-0.004479433 0.06615868 -0.029966844 -0.0032793393 0.10168754 0.1166004 -0.27033472 0.10515214
-0.0756403 0.023391342 0.096372694 0.023998586 0.11200057 0.23173258 -0.011583701 0.119696386
-0.038135633 0.15635349 -0.050463706 -0.11533947 0.057794917 0.03068734 -0.01866222 -0.04600431
-0.04342406 0.0496062 0.1478523 0.03187681 0.0714156 0.021023504 -0.021416392 0.11437349
0.03496158 0.0161447 0.11694858 0.10504103 0.15571347 0.1386437 -0.050237585 0.013429911
-0.12289874 0.098575 -0.16297233 -0.13464117 0.12556139 -0.031487696 -0.012275411 0.21033446
-0.22168712 0.15858224 0.021581667 -0.055514082 -0.021917803 -0.08375694 -0.14858398 -0.019427983
0.02990799 0.12765995 0.04929654 0.14254382 -0.023513107 -0.07407455 0.061406817 0.1075608

network_body._body_endoder.seq_layers.2.bias f4 [128]
00000000: 8b49 b43c b03f b13c 11f9 8bbc c707 c63c
00000010: 3804 b1bc e4f0 b2bc 9add 8f3c 4afe 9f3c
00000020: f403 933c c5b8 acbc fdd5 553c deee b33b
00000030: 54b6 ab3c 4001 7dbb e903 9cbc 7d32 6a3c
00000040: 04c1 863c 849c 17bb 4095 dc3c b0c0 d03c
00000050: 003c 8fbc 735e 8f3c 2d4f cb3c 0576 e4bb
00000060: 2e25 8a3c 1899 c73b 9d57 4dbc 4b6f 863c
00000070: 1aef 843c c469 843c 6da2 bd3c 8a25 13bc
00000080: 3204 a33c 70e1 f3bb 9dbc f23b 78a0 d43c
00000090: a2dd 693b 62d6 073c 3981 7abc e8dd 89bc
000000a0: d5d6 383c c0df 1d3c 603b a43c df39 65bc
000000b0: 5f4b 5cbc 975a a73c 49da a0bc 340f 8abc
000000c0: 8e99 a83c d9a0 be3c 468d bc3c 2a53 b93c
000000d0: 94e2 b13c 485e 2ebc 25e4 613c cabf aa3c
000000e0: b259 aa3c dfd4 983c 6fd4 30bc e2ef 8dbc
000000f0: 5f76 583c 2113 123b 3dc1 a43c 1ea9 8fbc
00000100: 789f 2e3c ad9f e73c b947 8e3c bf30 88bc
00000110: eafd b1bc 5e88 9e3c 4bdf 3e3c 6e33 823b
00000120: 8c3f 983c aa83 86bc b7f4 acbc 586e a53c
00000130: 5033 d3bc ce78 a73c 884b 5dbc d532 27bc
00000140: 1084 b33c cf69 933c 1e5b 923c d7a6 7fbc
00000150: f429 9a3c 81e5 b4bc ae83 a03c 8456 803c
00000160: 9cb4 e83c 4aef 783c 3f4c fe3b 3bde 86bc
00000170: bb9e 4fbc 5690 783c e126 2fbc e610 983c
00000180: 97e7 9abb f2de 86bc a6aa 64bc 553f 433c
00000190: 7e5b 7b3c fc18 a4bc 1f7e da3c 500d 7d3b
000001a0: 1b1e 813c 4e95 853c 05b9 763c 123a 7d3c
000001b0: 855f 9f3c 28d6 a13c 43e8 28bc 123c 9c3c
000001c0: 56c4 873c 8c2f 96bc a1d8 903c f361 50bc
000001d0: 8a54 b6bc 9c7c c23c 14a2 d6bc 6e2d bc3c
000001e0: eeb3 793c 8244 bebc 9802 cabc 925e 8f3c
000001f0: cb0b 73bc 85f3 0c38 800d 05bc b19f 373c
0.022007724 0.021636814 -0.017086538 0.02417363 -0.021608457 -0.021843381 0.017561723 0.019530434
0.017946221 -0.021084199 0.013051507 0.0054911217 0.020960964 -0.0038605481 -0.019044833 0.014294264
0.016449459 -0.0023134062 0.026926637 0.025482506 -0.017484665 0.017501092 0.024818027 -0.006972077
0.016863432 0.0060912482 -0.012533096 0.01641049 0.016227294 0.016163714 0.02314874 -0.008981118
0.019899461 -0.0074426457 0.0074077384 0.025955424 0.0035685082 0.008290859 -0.015289598 -0.016829446
0.011281689 0.009635866 0.020047843 -0.013990848 -0.013445704 0.020428939 -0.019635336 -0.016852953
0.020581033 0.023270058 0.023016583 0.022622664 0.021714486 -0.010642596 0.013787304 0.020843405
0.020794723 0.018656192 -0.010792836 -0.0173263 0.013211816 0.0022289234 0.020111674 -0.017536696
0.0106581375 0.028274382 0.017368184 -0.016624806 -0.021727521 0.019352134 0.011649917 0.003973416
0.018584989 -0.016420204 -0.021112783 0.020194218 -0.025781304 0.020443346 -0.013506778 -0.01020499
0.021913558 0.01799479 0.017865714 -0.015603743 0.018818833 -0.022082092 0.01959404 0.015666254
0.028406434 0.01519377 0.007760554 -0.01646339 -0.012672122 0.015171131 -0.010690422 0.018562745
-0.0047273147 -0.01646373 -0.013956701 0.011916955 0.015341638 -0.020031445 0.026671467 0.0038612671
0.015761426 0.016306546 0.0150587605 0.01545574 0.019454727 0.019755438 -0.010309282 0.019071613
0.016573112 -0.018333219 0.017681422 -0.012718665 -0.022257108 0.023741059 -0.026200332 0.022970881
0.0152406525 -0.023226026 -0.02465944 0.01750115 -0.014834355 3.3605396e-05 -0.008120894 0.011207507

action_model._continuous_distribution.log_sigma f4 [1, 3]
00000000: 59f3 91ba 645b 42bb 82cd 9e3b
-0.0011135145 -0.0029656524 0.004846276

action_model._continuous_distribution.mu.weight f4 [3, 128]
00000000: 795c e13c 99ba a83c ed71 4e3c 6efe 033d
00000010: 32a9 a5bc c116 58bc 0542 f8b9 233b fcbb
00000020: 3b85 ba3b a9ef b0bc 6b47 4fbc eb27 2dbc
00000030: c86b 7f3c 234a 9cbb 2d3c ecbc e41a bc3c
00000040: 6135 703c 2653 fe3c bd1b a73c 1cfc be3c
00000050: 9e43 1dbd c608 20b8 1b00 523c 4f25 50bd
00000060: 547d 6dbc 9e82 cbb8 b26e 763c 7739 3fbb
00000070: 3f3b 17b9 7b0c 803c 0b48 3e3b ece5 00ba
00000080: 8dea d63c d7fe 39bd 7310 4bbc 9860 a73c
00000090: ab29 2fbb 18a5 a43c 6cfa 203c c39c 0fbd
000000a0: 17db 9e3b 4738 b5bb cd2e 433d 4219 4c3b
000000b0: 31e5 07bc 83b3 293c 4e04 52bc ab39 b1bc
000000c0: b86d 9d3c f460 293d 4d41 273c bd5a f13c
000000d0: 09df ef3c 38e5 cbbc db77 a73a 7c9b 863c
000000e0: 2558 8f3c fefe 023c 538f 4d3b 9d17 babc
000000f0: ca3d 953c bbf5 353b c5df 343d a46d ebbc
00000100: eba3 b6bb 317b 7d3c c396 4fba d13e dbbc
00000110: 95ed bebc 608c 4d3c cde3 23bc 0bb3 8e3c
00000120: a4e6 473c cf1f 3dbd 4549 febc 286e b63c
00000130: 7f7d c3bc 9931 113d 4095 543c 8837 bfbc
00000140: 645e e83c d557 5abb df8b 703b ed1b d8bc
00000150: 98ff 5f3a b7ad 25bd f2dd 283c 8c00 fd3c
00000160: 2cea 673c e913 5b3c 0b1f 71bc 320e 4cb9
00000170: 9d4e ecbc 349f 7cba 1d5f a43c a901 7f3c
00000180: a633 c83b dfbf 23bc 003a 0c3b 68f1 51bc
00000190: c34d 603b 74df 52bc 97d6 433c 498d 803c
000001a0: c83e ce3a c2fe 6c3c a5e0 93bb 1ba1 da3c
000001b0: d994 a53b 1a7a 083d 241f 1bbd 36be e83b
000001c0: ee1c af3c c1e6 35bc 6827 2d3c deee ebbb
000001d0: 89e4 bbbc 260e 603c b00c d43b 51fc 933b
000001e0: 80d5 96bc 6a55 9fbb 06b6 9bbb 4efb bfbb
000001f0: ebfc c53c 221f a53c 1328 e03c f017 cc3c
00000200: dbc4 efbb 1a0e 39bc c553 303d 07c7 62bc
00000210: d576 e33c fa26 113c a1b4 f1bc 6e3b 69bc
00000220: 13df 08bd 9d33 bd3c 3f01 a3bc 07f4 edbb
00000230: f4c3 19bc 7a23 f23b 865e 5d3c 13fc ebbb
00000240: 68cb 9abc c6cb a8bb 7da1 2abc 6c06 ddbc
00000250: e779 833c 8d4f b6bc a2ba dabc 37af 7ebc
00000260: adaa 24bd fe82 893b e8e3 c3ba 9ac5 ecbc
00000270: 23cf 07bc dbe2 a0bb 9914 b7bc 341e 0dbc
00000280: 95cf 8e3c b522 c2bc fda6 47bc 5f8e c3bc
00000290: df58 d03a c099 1ebc 5cc7 ca3c 3fcf fc39
000002a0: 2aa6 933c 2b6f dcba 4ede 31bc a275 283d
000002b0: ea2b c6b7 d88f 183a e160 a33c ea46 32bb
000002c0: b56b a9bc 037f bebc f91f b9bb 8c94 f8ba
000002d0: b532 9abc f24c b93c c29c b2bc f429 8f3a
000002e0: be34 ebbc 227f a9bc d97a 8539 6802 d63c
000002f0: 04dd 96bc ca3d 51bc 84b9 00ba dba8 39bb
00000300: 8216 a5bb 4a42 5fbc 4236 8bbb 1d91 51ba
00000310: 5223 243c 656c 04bd a32c 44ba 4ea2 a13c
00000320: 33d9 cebc 8c83 863b b629 513d a70f 13bd
00000330: c262 1a3d e8cc 93bc 381e 983c f8c1 5c3c
00000340: f41b e5bc 2bf9 1fbc ad62 3ebc df9d 813c
00000350: cef8 7cbc 7f22 c53c 46a2 50bc e1e5 2e3c
00000360: a861 b2bc 1799 4f3c 9ade 96bc a25a 123c
00000370: 3c29 45bc 760f 10bc e54d 4f3c 31d7 6cbb
00000380: 36a1 93bb c873 d23a 18cb 813c 8228 26bc
00000390: ba1b 80bc 87ed a33c 6a5a 83bc 6257 99ba
000003a0: 98fb 09bb 9c83 c2bc be44 32bc 0eeb e3bb
000003b0: 3c20 9ebc bfce 053c cf02 1fbd e8b1 76bc
000003c0: f7a7 f0bc 8c9d 823c 3e6b 1ebd 0cfa 373a
000003d0: 441a 083d f4a4 f7bc fc98 143d 5803 afbc
000003e0: 5afa 11bd 5495 fd3c c9a2 a03c 6873 81bc
000003f0: 2eae 143d 227c 9abc 0faa 763c a9b1 99bc
0.027509915 0.02059679 0.012600404 0.032225065 -0.02022228 -0.013189019 -0.00047351434 -0.0076974793
0.005692152 -0.021598654 -0.012651305 -0.010568599 0.015589662 -0.00476958 -0.028837288 0.022962041
0.014661164 0.031045508 0.020398969 0.023313574 -0.038394563 -3.8155144e-05 0.012817408 -0.05081683
-0.014495213 -9.704124e-05 0.01504104 -0.0029178539 -0.00014422553 0.015630951 0.002903464 -0.00049170735
0.02623489 -0.04540905 -0.0123940585 0.020431802 -0.0026727717 0.020098254 0.00982533 -0.03506161
0.004847895 -0.0055303904 0.047652055 0.0031142985 -0.00829439 0.01035774 -0.012818409 -0.021633944
0.019217357 0.041352227 0.01020844 0.029462213 0.029281156 -0.024889573 0.0012776809 0.016431563
0.017498085 0.007995365 0.0031365945 -0.022716338 0.01821794 0.0027764875 0.044158716 -0.028738804
-0.0055737398 0.015471266 -0.00079188886 -0.026763352 -0.023306647 0.012545675 -0.010003042 0.017419359
0.012200985 -0.046172913 -0.031040797 0.022269323 -0.023863552 0.03544769 0.012975037 -0.023341909
0.028365321 -0.0033316512 0.0036704463 -0.026380504 0.00085448613 -0.04044887 0.010306822 0.03088405
0.014154952 0.013371446 -0.014716874 -0.00019460244 -0.02884608 -0.000963676 0.020064885 0.015564361
0.0061096726 -0.009994476 0.0021396875 -0.012813903 0.0034226037 -0.012870658 0.011953018 0.01569237
0.0015735263 0.014465036 -0.0045128637 0.02668815 0.0050531444 0.03331957 -0.037871495 0.007102753
0.0213761 -0.011102379 0.010568477 -0.007200106 -0.022936122 0.013675248 0.006471239 0.0045161624
-0.018412352 -0.004862477 -0.0047519235 -0.0058588153 0.024168452 0.020156447 0.027362859 0.024913758
-0.007317168 -0.011294866 0.04304864 -0.013841397 0.027766624 0.00885939 -0.029505076 -0.014235361
-0.033415865 0.0230959 -0.019898055 -0.0072617563 -0.009385098 0.007389483 0.013511306 -0.0072016804
-0.01889582 -0.005151245 -0.010414478 -0.026980601 0.016049339 -0.02225473 -0.026700322 -0.015544704
-0.04020183 0.0041965237 -0.0014945241 -0.028902818 -0.008289131 -0.004909856 -0.022348689 -0.008613158
0.017432967 -0.02369819 -0.012185809 -0.023871599 0.0015895626 -0.009680212 0.024753265 0.00048219596
0.01802357 -0.0016817799 -0.010856224 0.04112781 -2.3623888e-05 0.0005819774 0.019943656 -0.0027202913
-0.020681242 -0.023253923 -0.0056495634 -0.0018965169 -0.018823007 0.022619698 -0.021803264 0.0010922537
-0.028711673 -0.020690504 0.00025459265 0.026124194 -0.018415935 -0.012771079 -0.00049104565 -0.0028329405
-0.0050380835 -0.013626644 -0.0042484114 -0.0007994341 0.010018187 -0.032329936 -0.0007483458 0.019730713
-0.025250053 0.004105037 0.05106517 -0.0359036 0.03769184 -0.018042043 0.018569097 0.01347398
-0.02796743 -0.009763996 -0.011620206 0.01582235 -0.015440179 0.0240643 -0.0127340015 0.010674925
-0.021775082 0.012670777 -0.018416692 0.008932741 -0.012033757 -0.008792749 0.012652849 -0.0036139006
-0.004505302 0.0016056234 0.015843913 -0.010141494 -0.015638221 0.020010723 -0.016034324 -0.0011699016
-0.0021054503 -0.023744397 -0.010880647 -0.006955511 -0.01930248 0.008166968 -0.038821038 -0.015057065
-0.029376967 0.015944265 -0.038676493 0.0007018156 0.033228174 -0.030230023 0.03627871 -0.0213639
-0.035639144 0.030954994 0.019608872 -0.0158021 0.036298923 -0.01885802 0.015055194 -0.018761473

action_model._continuous_distribution.mu.bias f4 [3]
00000000: b444 8e3c 3bfc 92bc ad5e 913c
0.017366745 -0.017942538 0.01774534

action_model._discrete_distribution.branches.0.weight f4 [1, 128]
00000000: 358b 7bbb e061 f83b 6ff2 41bc 234c 13bc
00000010: ed23 a13a ffde 7abc 87d4 7dbb 170c a03c
00000020: 9d2b c83b 02bb 02bb 2b2b 79bc 67ae 193a
00000030: 6a06 e6bb 00d0 d6bb 8ec9 0b3c eba2 123c
00000040: 30fc c0bb e8c4 633b a229 7ebb 91e1 04bc
00000050: 65a2 89bb 28ea 4b3c 57c1 19bb 4d15 46bb
00000060: 9a54 73bb 8256 04bc 200d 3b3c 3aec f8bb
00000070: ff36 233c 4b12 31bc 19fb 8cbb d2dc c8bb
00000080: 2b99 7fbc 2997 223c 5230 173c 5beb a4bc
00000090: 1492 9d3c 2e24 23bc eb22 9fba b3ab b2bb
000000a0: 2519 beba 7b5d eab8 75dd 5e3c 4a2c f63a
000000b0: ccab 383c b895 27bc 8329 e83b 5e50 983b
000000c0: c7b1 bfbb 6b60 1f3c d34f 89bb 0764 34bc
000000d0: 917b 9f3a 6302 c13b 6481 463b 2a07 2b3b
000000e0: 3c01 1db9 dc1c 29bc 4371 113c d434 a03b
000000f0: b303 eabb dec9 333c df56 81ba 53c1 01bb
00000100: b13f c5b9 8b2d ccbb 4dbc 593a 5d74 4abb
00000110: 2b1d 33bc 252f 69bc 3258 0e3c 92e3 013c
00000120: 930a 0abc fafa 8a3c c33f 0dbb c62d 3938
00000130: 753b 46bc 47ab b9ba a043 8e3b d732 8c38
00000140: 1737 c9ba a756 44bb 7e00 963b 07d7 09bc
00000150: 8a98 f23b 0866 b3bb a0f6 b03b ffef 103c
00000160: 3bea 3fbc 039a c33a 582b 4dbc 5d52 c1bb
00000170: 1f29 8bbb 54f2 053c 1b15 653b 6803 bfba
00000180: 3345 a63b 4e1b abbb e097 653c eef9 38ba
00000190: 0377 07bc 5f41 a6bb 9fb8 a33c 9cb0 853b
000001a0: ffe5 4eb9 5179 8bb8 13c8 76bc 7aa7 f03a
000001b0: 7a44 a3bb 9b27 8aba 034d 223c b00a 6bbb
000001c0: 4d7d 7cbc 28fb a0ba 92b5 9c3b 351a 24bc
000001d0: 1bc7 5dba 390f 05bb 6bbd 5bbc a0a2 6d3c
000001e0: c837 cd3b 03ce 0c3a 7f05 d73a 6755 89bb
000001f0: 6ef0 22bb c467 9d38 ab41 4abc e724 00b9
-0.0038382534 0.007580027 -0.011837586 -0.00899032 0.0012294032 -0.0153119555 -0.0038731412 0.019537015
0.0061087147 -0.001994789 -0.015208046 0.0005862475 -0.0070198076 -0.0065555573 0.008531941 0.0089499755
-0.005889438 0.0034754816 -0.003878214 -0.00811042 -0.004200267 0.012445964 -0.0023461187 -0.0030225099
-0.0037129284 -0.008077266 0.011416703 -0.00759652 0.009961843 -0.010807584 -0.004302394 -0.0061298395
-0.015600483 0.009923735 0.009227829 -0.020131757 0.019234695 -0.009957356 -0.0012141144 -0.005452597
-0.0014503343 -0.000111754016 0.013602604 0.001878151 0.011271428 -0.010228567 0.0070850267 0.0046482524
-0.00585005 0.009727578 -0.004190424 -0.0110101765 0.0012167563 0.005890177 0.0030289525 0.00260968
-0.00014973147 -0.010321822 0.008877101 0.00488911 -0.0071415543 0.010973422 -0.0009867809 -0.0019799068
-0.00037622222 -0.006231015 0.0008305952 -0.0030892112 -0.010932247 -0.014232432 0.00868802 0.007927792
-0.008425373 0.016965378 -0.0021552898 4.4150067e-05 -0.012099137 -0.0014165425 0.0043415576 6.68519e-05
-0.0015351501 -0.0029958875 0.0045776954 -0.008413083 0.007403438 -0.0054748096 0.0054004937 0.008846282
-0.01171356 0.0014923218 -0.012522541 -0.005899711 -0.0042468454 0.008175451 0.0034955207 -0.0014573159
0.005074167 -0.005221761 0.014013261 -0.00070562854 -0.008268121 -0.005073711 0.019985495 0.0040798914
-0.00019731371 -6.6506334e-05 -0.01506235 0.0018360459 -0.0049825283 -0.0010540368 0.009906056 -0.0035864525
-0.015410733 -0.0012281882 0.004782387 -0.010016014 -0.000846015 -0.0020303263 -0.01341186 0.014504105
0.006262753 0.00053712743 0.0016404836 -0.004191089 -0.0024862546 7.505671e-05 -0.012344758 -0.00012220778

onnx::Div_70 f4 [8]
00000000: f704 9340 9bee 9b3c 40f9 8740 75d7 3141
00000010: 2b7d 3244 72a5 0341 5add 8d3f 8697 803f
4.594356 0.019034674 4.249176 11.115102 713.95575 8.227892 1.1083176 1.0046241
