results/Ten2/Ten2/Ten2-0.onnx (onnx, 101117 bytes, 9 tensors)

network_body.observation_encoder.processors.0.normalizer.running_mean f4 [49]
0.0 0.0 0.0 0.0 0.0 0.0 0.0 0.0
0.0 0.0 0.0 0.0 0.0 0.0 0.0 0.0
0.0 0.0 0.0 0.0 0.0 0.0 0.0 0.0
0.0 0.0 0.0 0.0 0.0 0.0 0.0 0.0
0.0 0.0 0.0 0.0 0.0 0.0 0.0 0.0
0.0 0.0 0.0 0.0 0.0 0.0 0.0 0.0
0.0
00000000: 0000 0000 0000 0000 0000 0000 0000 0000
00000010: 0000 0000 0000 0000 0000 0000 0000 0000
00000020: 0000 0000 0000 0000 0000 0000 0000 0000
00000030: 0000 0000 0000 0000 0000 0000 0000 0000
00000040: 0000 0000 0000 0000 0000 0000 0000 0000
00000050: 0000 0000 0000 0000 0000 0000 0000 0000
00000060: 0000 0000 0000 0000 0000 0000 0000 0000
00000070: 0000 0000 0000 0000 0000 0000 0000 0000
00000080: 0000 0000 0000 0000 0000 0000 0000 0000
00000090: 0000 0000 0000 0000 0000 0000 0000 0000
000000a0: 0000 0000 0000 0000 0000 0000 0000 0000
000000b0: 0000 0000 0000 0000 0000 0000 0000 0000
000000c0: 0000 0000

network_body._body_endoder.seq_layers.0.weight f4 [128, 49]
0.065635726 -0.066154994 -0.25225073 -0.32974154 0.046936795 0.03326742 0.22089545 -0.10499195
-0.1199463 -0.166445 -0.015407664 -0.05078376 -0.021373833 0.22257906 0.01553601 0.019136444
-0.043586977 -0.12169162 0.1077918 0.1315388 -0.01809315 0.07174317 -0.013409731 -0.03441505
0.3705658 0.0010535555 -0.39894673 0.26729852 -0.04525827 0.31384644 -0.06325444 -0.006293942
0.18280582 0.32417697 -0.15817392 -0.035400484 -0.021370525 -0.116134346 0.21041434 0.08540711
0.1767952 0.049337905 0.12856537 0.042661827 -0.044813108 0.06290892 0.011108254 0.15945348
-0.073893875 0.3065846 -0.13934381 -0.16645327 -0.27535483 0.12728833 0.25835606 0.11397277
0.17649253 -0.05227912 0.13629656 0.06457087 -0.04853145 0.04622092 -0.27788168 -0.1140672
-0.07363015 -0.043692656 -0.22414573 -0.03464538 -0.0633603 0.06938343 -0.04884173 0.059283376
-0.024012532 0.24373598 0.062194847 0.015048655 -0.19913189 0.049642097 -0.19173124 -0.16339473
-0.101287276 0.05890193 -0.16799153 -0.037246455 -0.26666322 -0.102500536 -0.12378359 -0.16268939
0.06613385 -0.22827452 0.013263849 -0.08311714 -0.05936147 -0.107788876 0.16390586 0.29707262
-0.11235214 0.06539515 0.22463025 -0.045333188 -0.18478741 0.060264528 -0.1562857 0.0041849534
0.043881018 0.027693594 -0.2838482 0.11492083 0.048373055 -0.0437159 0.057416476 -0.029401183
0.0024301799 -0.07064414 -0.10712571 0.084324054 -0.028681185 0.070284136 0.04140559 0.25537378
0.13014042 -0.14841971 -0.043914776 -0.024623629 0.1257315 0.062409014 0.14456153 0.17032336
0.03679727 0.07256442 -0.115458794 -0.17997979 -0.18921028 0.024983427 0.10298378 0.01618361
0.055487245 0.06578486 0.20401524 -0.3304598 0.064566396 0.31838885 -0.06162361 0.1020271
-0.06739765 0.020059772 0.061860297 -0.21567068 0.13720785 0.13345139 0.075610735 0.0469554
-0.016455788 -0.13254799 0.01147432 -0.07887619 0.050301634 -0.13945793 0.05270823 0.051695876
-0.14167488 0.018693753 0.045271967 -0.117114164 0.24417502 0.05348875 -0.015043135 -0.024178304
-0.03169688 0.1618741 -0.06838891 -0.03694994 -0.1334422 0.060449693 -0.33190686 0.16715187
-0.037980754 -0.044753034 -0.014463616 0.09334417 0.17531651 -0.048387464 -0.17438604 0.23605353
-0.11388267 0.13219741 -0.17109841 0.051054243 -0.12713955 -0.13227019 -0.07139157 -0.053731304
-0.13604452 0.116997994 -0.15999651 0.1419607 -0.04756497 -0.21562922 0.11482246 0.16960149
0.09536661 0.043196127 -0.090630926 0.23515552 0.11183584 0.23942846 0.007044174 -0.034681212
-0.17426899 -0.15630029 0.026094744 0.08757087 -0.108311735 0.024808954 0.08676354 0.1252087
0.05202837 0.20170146 -0.14164111 0.28031757 0.02760247 -0.053709436 -0.015307991 -0.062304188
-0.09551016 -0.060273312 -0.09877567 0.33510128 -0.039150923 -0.1749765 -0.14161555 0.10891603
0.068327755 -0.1368819 -0.23120779 -0.038090345 0.11274348 -0.059422974 -0.032673337 -0.18235841
0.021212818 -0.047488283 -0.050614316 -0.29712072 -0.32905784 -0.017562084 -0.23958334 -0.045854073
0.09988061 -0.13562424 0.077206045 0.04009545 0.12973414 0.038255155 -0.023059689 0.13613112
00000000: 066c 863d 457c 87bd 0227 81be e2d3 a8be
00000010: cc40 403d 6b43 083d 6b32 623e 0506 d7bd
00000020: 68a6 f5bd 8f70 2abe 6d70 7cbc a202 50bd
00000030: 2d18 afbc c4eb 633e c08a 7e3c 08c4 9c3c
00000040: 4288 32bd 7539 f9bd f2c1 dc3d 1bb2 063e
00000050: 1638 94bc 15ee 923d 7db4 5bbc ccf6 0cbd
00000060: cdba bd3e 7517 8a3a bf42 ccbe 5adb 883e
00000070: bc60 39bd 7bb0 a03e 8b8b 81bd 6a3d cebb
00000080: 7331 3b3e 86fa a53e 58f8 21be 1900 11bd
00000090: 3d11 afbc d8d7 edbd db76 573e ece9 ae3d
000000a0: cd09 353e 8b16 4a3d a4a6 033e 2bbe 2e3d
000000b0: f38d 37bd 64d6 803d 65ff 353c c647 233e
000000c0: ac55 97bd a8f8 9c3e 25b0 0ebe ba72 2abe
000000d0: 4ffb 8cbe df57 023e 3f47 843e 8e6a e93d
000000e0: 75ba 343e a122 56bd 5391 0b3e bb3d 843d
000000f0: eac8 46bd 2652 3d3d 8246 8ebe 109c e9bd
00000100: 67cb 96bd 12f7 32bd 7586 65be 50e8 0dbd
00000110: 0cc3 81bd e618 8e3d 440e 48bd 20d3 723d
00000120: eeb5 c4bc ed95 793e 06c0 7e3d a28e 763c
00000130: 3be9 4bbe 8355 4b3d 3255 44be f350 27be
00000140: b46f cfbd 2643 713d f905 2cbe bd8f 18bd
00000150: 1588 88be cdeb d1bd 4082 fdbd 0c98 26be
00000160: 2f71 873d ccc0 69be 9d50 593c 5239 aabd
00000170: 0325 73bd 6ac0 dcbd f0d6 273e e719 983e
00000180: e118 e6bd e4ed 853d 7905 663e 4baf 39bd
00000190: e938 3dbe f0d7 763d 5c09 20be ef21 893b
000001a0: 95bc 333d addd e23c 8d54 91be 9d5b eb3d
000001b0: d322 463d 720f 33bd 8a2d 6b3d c0da f0bc
000001c0: a743 1f3b e0ad 90bd b964 dbbd 17b2 ac3d
000001d0: cef4 eabc 21f1 8f3d e898 293d 5ac0 823e
000001e0: 8843 053e 56fb 17be fbdf 33bd 7eb7 c9bc
000001f0: c2bf 003e 98a0 7f3d f007 143e 3f69 2e3e
00000200: bcb8 163d a89c 943d a975 ecbd 9f4c 38be
00000210: 57c0 41be 0baa cc3c 29e9 d23d 7d93 843c
00000220: 9846 633d 36ba 863d 5fe9 503e 0732 a9be
00000230: 633b 843d dd03 a33e 0a69 7cbd 96f3 d03d
00000240: c707 8abd 6454 a43c 3961 7d3d c6d8 5cbe
00000250: 3780 0c3e 7ba7 083e cdd9 9a3d 4e54 403d
00000260: 4ace 86bc a9ba 07be c9fe 3b3c d789 a1bd
00000270: 1609 4e3d 0fce 0ebe 96e4 573d 0ebf 533d
00000280: 3813 11be a423 993c 196f 393d 8dd9 efbd
00000290: 0409 7a3e 0517 5b3d 7b77 76bc 9411 c6bc
000002a0: 96d4 01bd 53c2 253e 7c0f 8cbd d258 17bd
000002b0: 12a5 08be 199a 773d b2ef a9be dc29 2b3e
000002c0: b591 1bbd f54e 37bd cdf8 6cbc 3a2b bf3d
000002d0: 2c86 333e ef31 46bd 4192 32be 04b8 713e
000002e0: 513b e9bd c25e 073e 6c34 2fbe 411e 513d
000002f0: df30 02be d671 07be be35 92bd 5b15 5cbd
00000300: 414f 0bbe a59c ef3d 20d6 23be 255e 113e
00000310: 7cd3 42bd e8cd 5cbe 0a28 eb3d 03ac 2d3e
00000320: 924f c33d 6cee 303d b59c b9bd 9ccc 703e
00000330: 300a e53d bc2c 753e d0d2 e63b e30d 0ebd
00000340: 9273 32be 2f0d 20be a5c4 d53c 5b58 b33d
00000350: 8bd2 ddbd 263c cb3c 15b1 b13d b636 003e
00000360: b31b 553d d48a 4e3e 5e0a 11be c985 8f3e
00000370: 931e e23c 6dfe 5bbd 5ece 7abc ad32 7fbd
00000380: d59a c3bd 26e1 76bd e64a cabd 6592 ab3e
00000390: b85c 20bd 0a2d 33be ab03 11be 5e0f df3d
000003a0: 6cef 8b3d c52a 0cbe bcc1 6cbe 9f04 1cbd
000003b0: 0ee6 e63d 8165 73bd 7ad4 05bd 2abc 3abe
000003c0: 81c6 ad3c 1383 42bd f550 4fbd 3520 98be
000003d0: 457a a8be 5cde 8fbc 5655 75be 7bd1 3bbd
000003e0: 358e cc3d 15e1 0abe 341e 9e3d 203b 243d
000003f0: 07d9 043e 70b1 1c3d ace7 bcbc f565 0b3e

network_body._body_endoder.seq_layers.0.bias f4 [128]
0.0 0.0 0.0 0.0 0.0 0.0 0.0 0.0
0.0 0.0 0.0 0.0 0.0 0.0 0.0 0.0
0.0 0.0 0.0 0.0 0.0 0.0 0.0 0.0
0.0 0.0 0.0 0.0 0.0 0.0 0.0 0.0
0.0 0.0 0.0 0.0 0.0 0.0 0.0 0.0
0.0 0.0 0.0 0.0 0.0 0.0 0.0 0.0
0.0 0.0 0.0 0.0 0.0 0.0 0.0 0.0
0.0 0.0 0.0 0.0 0.0 0.0 0.0 0.0
0.0 0.0 0.0 0.0 0.0 0.0 0.0 0.0
0.0 0.0 0.0 0.0 0.0 0.0 0.0 0.0
0.0 0.0 0.0 0.0 0.0 0.0 0.0 0.0
0.0 0.0 0.0 0.0 0.0 0.0 0.0 0.0
0.0 0.0 0.0 0.0 0.0 0.0 0.0 0.0
0.0 0.0 0.0 0.0 0.0 0.0 0.0 0.0
0.0 0.0 0.0 0.0 0.0 0.0 0.0 0.0
0.0 0.0 0.0 0.0 0.0 0.0 0.0 0.0
00000000: 0000 0000 0000 0000 0000 0000 0000 0000
00000010: 0000 0000 0000 0000 0000 0000 0000 0000
00000020: 0000 0000 0000 0000 0000 0000 0000 0000
00000030: 0000 0000 0000 0000 0000 0000 0000 0000
00000040: 0000 0000 0000 0000 0000 0000 0000 0000
00000050: 0000 0000 0000 0000 0000 0000 0000 0000
00000060: 0000 0000 0000 0000 0000 0000 0000 0000
00000070: 0000 0000 0000 0000 0000 0000 0000 0000
00000080: 0000 0000 0000 0000 0000 0000 0000 0000
00000090: 0000 0000 0000 0000 0000 0000 0000 0000
000000a0: 0000 0000 0000 0000 0000 0000 0000 0000
000000b0: 0000 0000 0000 0000 0000 0000 0000 0000
000000c0: 0000 0000 0000 0000 0000 0000 0000 0000
000000d0: 0000 0000 0000 0000 0000 0000 0000 0000
000000e0: 0000 0000 0000 0000 0000 0000 0000 0000
000000f0: 0000 0000 0000 0000 0000 0000 0000 0000
00000100: 0000 0000 0000 0000 0000 0000 0000 0000
00000110: 0000 0000 0000 0000 0000 0000 0000 0000
00000120: 0000 0000 0000 0000 0000 0000 0000 0000
00000130: 0000 0000 0000 0000 0000 0000 0000 0000
00000140: 0000 0000 0000 0000 0000 0000 0000 0000
00000150: 0000 0000 0000 0000 0000 0000 0000 0000
00000160: 0000 0000 0000 0000 0000 0000 0000 0000
00000170: 0000 0000 0000 0000 0000 0000 0000 0000
00000180: 0000 0000 0000 0000 0000 0000 0000 0000
00000190: 0000 0000 0000 0000 0000 0000 0000 0000
000001a0: 0000 0000 0000 0000 0000 0000 0000 0000
000001b0: 0000 0000 0000 0000 0000 0000 0000 0000
000001c0: 0000 0000 0000 0000 0000 0000 0000 0000
000001d0: 0000 0000 0000 0000 0000 0000 0000 0000
000001e0: 0000 0000 0000 0000 0000 0000 0000 0000
000001f0: 0000 0000 0000 0000 0000 0000 0000 0000

network_body._body_endoder.seq_layers.2.weight f4 [128, 128]
-0.13474786 0.007491518 -0.10406373 0.0018074793 0.047997873 -0.027575165 -0.05238934 -0.056765944
-0.122929595 -0.032970197 -0.16614209 -0.04379307 0.04103739 0.07274819 0.0769279 0.07032679
0.0047926134 0.023018675 0.13751866 -0.031049496 -0.089039244 0.038617335 -0.014352282 -0.003940643
0.30098432 0.0155177675 -0.053788334 0.08859154 0.020270525 -0.059649184 0.0890504 -0.15560009
-0.05261063 0.07765574 -0.042394955 0.031618435 0.04963265 -0.0757702 -0.036430437 0.0831611
0.002349445 -0.09432643 0.057603776 -0.09554913 0.11577105 0.027450474 0.041278556 0.22827138
-0.12164712 -0.066754945 0.15467544 -0.13914005 0.13617618 -0.16354115 -0.063022554 -0.04785033
0.04123671 0.09234058 0.011895691 0.0025898826 0.0247843 -0.06256076 -0.18441285 0.09669908
-0.007839217 -0.2015575 -0.08998019 -0.17391263 -0.01647159 -0.04582001 0.15108253 -0.022544684
-0.02968186 -0.09903523 0.07423267 -0.050158057 0.11717087 -0.020793688 0.10671486 0.022780368
0.08833835 -0.05333368 0.08708803 -0.09430651 -0.035317447 -0.07782251 -0.051250845 0.12473273
-0.120716915 0.15765877 0.08592907 0.012571506 -0.11340997 0.17875327 -0.07533012 0.10190558
0.0453423 0.038792048 -0.11652246 -0.04527543 0.027765302 0.11803294 -0.049083617 0.13655335
-0.09434587 0.029003503 -0.011815676 0.00024250767 0.13322602 0.012765461 0.11049821 -0.16544715
-0.10405006 0.0019767254 0.026775653 0.06757115 -0.036105894 -0.107182026 0.104522936 0.09057717
0.06569903 -0.040688336 0.08479352 -0.029794963 0.06597897 0.05457874 0.02354305 -0.017378842
-0.00014224957 0.12822227 0.005778056 -0.018587647 0.09487801 -0.051312532 -0.036257572 -0.17700781
-0.11098272 -0.07538631 0.08281714 -0.03889 0.05469708 -0.057113837 -0.112845615 0.009633761
0.13913293 -0.012668096 -0.017233463 -0.02599099 -0.022950752 0.030035611 0.10316651 -0.019224193
-0.014507455 -0.07020836 0.14162967 0.064041704 -0.117740825 -0.031813625 -0.08157542 0.00052018586
-0.06829083 -0.08920968 -0.15305492 0.073335946 0.013838726 0.080955595 -0.05800798 0.012047167
-0.006681865 0.05343288 -0.05679547 0.032279827 0.05791927 0.07202201 -0.134181 0.016255962
0.08362403 -0.057553343 0.017435066 -0.025394313 -0.008324533 0.17276885 -0.034061626 -0.046915237
-0.16918597 0.008897038 0.076349445 -0.13950664 -0.119056046 0.011715786 -0.074150406 -0.25790954
-0.025355525 0.03428005 0.030302398 0.061559692 -0.047880124 0.030560631 0.06921553 -0.113773815
-0.04539441 -0.17555422 0.10088733 0.06731232 -0.042790774 0.003940437 -0.11109504 0.14067075
0.057817627 -0.12839043 0.056178425 -0.15169762 0.047656983 -0.048004337 -0.12911518 -0.08906342
-0.07528083 -0.016780093 0.018817103 -0.020438306 0.10503449 -0.06625573 0.038533293 0.037278578
-0.08286543 0.073250934 0.033799425 0.005373098 0.045259945 -0.13968204 0.1267551 -0.04515654
0.11703541 -0.015219261 -0.13966957 -0.083724715 -0.054434046 -0.08035731 0.03415446 -0.011866822
-0.17448367 0.039057482 -0.041103747 0.032833736 -0.10062785 -0.0868006 -0.093079545 0.13636178
0.0006983301 0.06068902 0.11269064 0.007683914 0.076409526 0.11866873 0.040021993 0.046444386
00000000: 58fb 09be 687b f53b 5d1f d5bd f1e8 ec3a
00000010: 6b99 443d 50e5 e1bc 3496 56bd 6883 68bd
00000020: 83c2 fbbd c20b 07bd 2721 2abe 5d60 33bd
00000030: d216 283d 01fd 943d 608c 9d3d 7e07 903d
00000040: 5b0b 9d3b a991 bc3c b1d1 0c3e 835b febc
00000050: 355a b6bd 362d 1e3d d525 6bbc 8220 81bb
00000060: 9e1a 9a3e 3c3e 7e3c 2851 5cbd 7b6f b53d
00000070: 5f0e a63c b452 74bd 0e60 b63d a155 1fbe
00000080: 3e7e 57bd f909 9f3d 55a6 2dbd 5582 013d
00000090: 9b4b 4b3d 682d 9bbd 1538 15bd 5e50 aa3d
000000a0: 25f9 193b 372e c1bd f0f1 6b3d 43af c3bd
000000b0: 5f19 ed3d d1df e03c b413 293d f9bf 693e
000000c0: 2022 f9bd d1b6 88bd 3d63 1e3e bb7a 0ebe
000000d0: c571 0b3e 5577 27be f811 81bd b5fe 43bd
000000e0: d3e7 283d 0f1d bd3d 25e6 423c 05bb 293b
000000f0: 7208 cb3c db1f 80bd b9d6 3cbe 2b0a c63d
00000100: 0f70 00bc 1765 4ebe 8947 b8bd 2716 32be
00000110: 6eef 86bc c3ad 3bbd 61b5 1a3e a1af b8bc
00000120: 5f27 f3bc fcd2 cabd 4c07 983d 8972 4dbd
00000130: 48f7 ef3d 8657 aabc 528d da3d e59d ba3c
00000140: bdea b43d 6b74 5abd 365b b23d c623 c1bd
00000150: 07a9 10bd 6861 9fbd 68ec 51bd e073 ff3d
00000160: 6e3a f7bd 4d71 213e 95fb af3d b8f8 4d3c
00000170: 7d43 e8bd 190b 373e ae46 9abd dfb3 d03d
00000180: d9b8 393d 69e4 1e3d 54a3 eebd bb72 39bd
00000190: 0f74 e33c 41bb f13d e70b 49bd a4d4 0b3e
000001a0: 6838 c1bd c198 ed3c 8a96 41bc a849 7e39
000001b0: 676c 083e 3926 513c e34c e23d fa6a 29be
000001c0: 3318 d5bd f38b 013b 9d58 db3c be62 8a3d
000001d0: c6e3 13bd 4082 dbbd 1f10 d63d 8680 b93d
000001e0: 378d 863d d0a8 26bd 3aa8 ad3d 9114 f4bc
000001f0: fb1f 873d f58d 5f3d 5bdd c03c 135e 8ebc
00000200: d428 15b9 b34c 033e d955 bd3b 1f45 98bc
00000210: 674f c23d 172d 52bd d282 14bd 8941 35be
00000220: e94a e3bd 2364 9abd 089c a93d 1f4b 1fbd
00000230: 0c0a 603d 33f0 69bd 9a1b e7bd ecd6 1d3c
00000240: dd78 0e3e d98d 4fbc 312d 8dbc 0feb d4bc
00000250: 3703 bcbc 3e0d f63c f748 d33d 0e7c 9dbc
00000260: adb0 6dbc 67c9 8fbd 5e07 113e 4c28 833d
00000270: 1a22 f1bd 014f 02bd 0411 a7bd 155d 083a
00000280: 10dc 8bbd 91b3 b6bd 6eba 1cbe 2831 963d
00000290: d3bb 623c 0ccc a53d c799 6dbd 7b61 453c
000002a0: 8cf3 dabb 70dc 5a3d 5ea2 68bd da37 043d
000002b0: c23c 6d3d 4780 933d be66 09be 392b 853c
000002c0: 1343 ab3d 0ebd 6bbd fcd3 8e3c bc07 d0bc
000002d0: 9f63 08bc 51ea 303e 3484 0bbd 312a 40bd
000002e0: 163f 2dbe e2c4 113c 195d 9c3d d4da 0ebe
000002f0: a8d3 f3bd 91f3 3f3c 2bdc 97bd b80c 84be
00000300: 64b6 cfbc 3d69 0c3d bc3c f83c 0426 7c3d
00000310: f31d 44bd 4a5a fa3c dfc0 8d3d 3f02 e9bd
00000320: 7def 39bd 7cc4 33be 049e ce3d 0bdb 893d
00000330: 6145 2fbd c81e 813b cc85 e3bd fe0b 103e
00000340: 2dd2 6c3d c878 03be 591b 663d 9f56 1bbe
00000350: f833 433d 32a0 44bd c536 04be e266 b6bd
00000360: d62c 9abd 6876 89bc 5326 9a3c 3c6e a7bc
00000370: 531c d73d 16b1 87bd 16d5 1d3d 6cb1 183d
00000380: 5ab5 a9bd 9604 963d 4471 0a3d d010 b03b
00000390: 7e62 393d cf08 0fbe 17cc 013e 10f6 38bd
000003a0: 43b0 ef3d 355a 79bc 8a05 0fbe dd77 abbd
000003b0: 3cf6 5ebd 6092 a4bd 8ce5 0b3d 0f6d 42bc
000003c0: d9ab 32be bdfa 1f3d 675c 28bd ab7c 063d
000003d0: f915 cebd 83c4 b1bd 7da0 bebd 6ca2 0b3e
000003e0: 2410 373a 0d95 783d 5aca e63d 58c9 fb3b
000003f0: 997c 9c3d 9708 f33d 1aee 233d 783c 3e3d

action_model._continuous_distribution.log_sigma f4 [1, 2]
0.0 0.0
00000000: 0000 0000 0000 0000

action_model._continuous_distribution.mu.weight f4 [2, 128]
0.0022243706 -0.014954715 -0.016529914 0.008714344 -0.003878516 -0.0018878853 -0.052888688 0.009243989
-0.0011961904 -0.0021617159 -0.010498105 0.004071879 -0.016069544 -0.018608462 -0.009117621 -0.0164125
0.022877745 -0.010187906 -0.01316036 0.002290058 0.023549572 0.008986135 -0.009474955 0.018162183
-0.012863851 0.0048550144 -0.03824682 -0.008158739 0.007875464 -0.010475918 -0.028198823 -0.0026750036
-0.02174284 0.0046587433 0.017705472 0.002164412 0.016761078 -0.012169273 -0.037509467 -0.019927163
-0.035517935 -0.025487384 -0.0051084748 -0.0033002347 -0.020494875 0.0017645796 -0.0013779986 0.0068275095
0.03577025 0.008893958 -0.052749313 -0.0056779985 -0.027236167 0.0010780649 0.022807488 -0.0013761347
-0.008508935 -0.0048149424 0.012748139 0.019428967 -0.00449202 0.02542201 -0.00553939 0.0029136965
0.010597104 0.008674025 0.014195603 0.0031293181 -0.0036285669 0.019208964 0.005177328 0.0040557743
-0.02984333 -0.0075063193 0.018088898 0.0021068498 -0.01172347 0.0058194343 -0.008848819 0.031483248
-0.0024161339 0.0032993609 0.008201678 0.0055651045 -0.01439223 -0.020548405 -0.005585857 -0.012899227
-0.007511005 0.009034582 0.025879795 -0.0095525505 -0.007739853 0.0053674714 -0.0018299926 -0.020960243
0.028835401 0.0009892321 0.021054989 0.013994037 0.023864893 -0.014573119 -0.025328774 -0.0056872396
-0.033794485 -0.0054377727 0.019000648 0.031479914 -0.0029004102 -0.0055287145 -0.020960666 -0.0049985177
-0.009343856 -0.013181211 -0.0065480876 0.041420247 -0.01648548 -0.0011868451 -0.031752247 -0.02014315
0.025392665 0.026884174 -0.011890096 -0.002669532 -0.02344904 -0.0017649351 -0.010357763 -0.0076927296
0.0014273965 -0.010728363 0.0008891695 0.009634271 -0.0064430195 -0.021571523 -0.0009755922 -0.0017078038
-0.00039548526 -0.036336176 -0.012438488 -0.021973224 -0.024205724 0.00033104117 0.011108511 -0.004219104
0.048597686 0.005074509 -0.011697306 0.01660793 0.03560008 0.020104935 -0.0021851775 -0.019019969
-2.1218138e-05 0.0012339735 -0.013957507 0.015457563 -0.005418576 -0.015798936 -0.019167546 0.011366072
-0.0017409989 0.022759542 0.0040487195 0.023309125 0.018303208 0.02953856 0.0041727014 -0.0037437752
0.031470057 0.013507753 0.008155066 0.0035427746 0.01268364 -0.019682197 0.00041454306 0.003805634
-0.0014778464 0.020867258 0.0024325673 0.020082166 0.015699418 0.0337437 -0.0016624313 0.0072417296
0.004952608 0.01831348 -0.016568342 0.029488435 -0.013231031 0.032404926 -0.012807058 0.023333669
-0.009586337 0.029876484 -0.007953045 0.01856385 -0.01261891 0.015259357 -0.0146400025 -0.0015017497
0.011055197 -0.002894572 0.007826198 -0.008423613 0.02506405 0.0033886374 -0.028420432 0.011302403
0.023256345 0.030951178 0.001121369 0.016025743 0.006471656 0.021241628 -0.027812466 0.016156677
-0.009252495 -0.012705477 -0.025189761 -0.0068230415 0.0027507865 0.0025236008 0.02108705 -0.030644407
0.003338486 -0.005587466 -0.026127612 0.011688952 -0.011221349 -0.043508615 0.0060507427 -0.0011660956
-0.0013378268 0.02031562 -0.0041191014 0.00010272729 -0.031258103 0.0061737993 -0.01100883 -0.022840893
-0.0085970685 -0.015092964 -0.006409922 0.014018858 -0.017437836 0.01177737 -0.0021809868 0.029634347
-0.025778085 0.02231541 0.011626906 0.0051563187 -0.011021995 0.023239698 -0.012913424 0.0069939094
00000000: bfc6 113b 9f04 75bc be69 87bc 9cc6 0e3c
00000010: b32e 7ebb eb72 f7ba cfa1 58bd 1a74 173c
00000020: 7dc9 9cba 93ab 0dbb 3e00 2cbc 666d 853b
00000030: 47a4 83bc c670 98bc 1362 15bc 8273 86bc
00000040: 1c6a bb3c 2deb 26bc 8d9e 57bc cc14 163b
00000050: 08eb c03c 953a 133c d73c 1bbc dcc8 943c
00000060: e7c2 52bc d016 9f3b b3a8 1cbd 3bac 05bc
00000070: 1708 013c 2fa3 2bbc 3801 e7bc 1d4f 2fbb
00000080: 0a1e b2bc 5fa8 983b 110b 913c cfd8 0d3b
00000090: 874e 893c a161 47bc 87a3 19bd 4a3e a3bc
000000a0: 417b 11bd ebca d0bc fe64 a7bb c048 58bb
000000b0: dee4 a7bc 7749 e73a f69d b4ba 4db9 df3b
000000c0: d383 123d f7b7 113c aa0f 58bd 810e babb
000000d0: 621e dfbc db4d 8d3a c5d6 ba3c 6b5f b4ba
000000e0: 0f69 0bbc aac6 9dbb 92dd 503c 7f29 9f3c
000000f0: cb31 93bb d241 d03c c583 b5bb b7f3 3e3b
00000100: 7a9f 2d3c 7f1d 0e3c ad94 683c 3f15 4d3b
00000110: 40cd 6dbb 1e5c 9d3c 93a6 a93b 4de6 843b
00000120: 007a f4bc 92f7 f5bb 2b2f 943c 1313 0a3b
00000130: cc13 40bc f4b0 be3b a3fa 10bc 94f4 003d
00000140: 0058 1ebb 173a 583b 5560 063c 7b5b b63b
00000150: 63cd 6bbc 2155 a8bc 9109 b7bb 4857 53bc
00000160: e01e f6bb c905 143c dd01 d43c 4d82 1cbc
00000170: 989e fdbb 9de1 af3b 5ddc efba d1b4 abbc
00000180: 3838 ec3c 1fa9 813a 837b ac3c 3f47 653c
00000190: 4f80 c33c 17c4 6ebc 4a7e cfbc 065c babb
000001a0: 166c 0abd 582f b2bb 3fa7 9b3c 15f1 003d
000001b0: cf14 3ebb 382a b5bb b4b5 abbc 9bca a3bb
000001c0: f916 19bc 02f6 57bc 5791 d6bb 47a8 293d
000001d0: 8f0c 87bc ea8f 9bba a50e 02bd 3f03 a5bc
000001e0: 4704 d03c 333c dc3c adce 42bc 51f3 2ebb
000001f0: 3318 c0bc 6555 e7ba 9bb3 29bc 4b13 fcbb
00000200: 7b17 bb3a 04c6 2fbc 2817 693a 10d9 1d3c
00000210: f71f d3bb c3b6 b0bc e2be 7fba 63d8 dfba
00000220: 2259 cfb9 3ed5 14bd cdca 4bbc 3101 b4bc
00000230: 154b c6bc 988f ad39 7900 363c 6940 8abb
00000240: 5e0e 473d 1148 a63b 0fa6 3fbc 5b0d 883c
00000250: 64d1 113d 1bb3 a43c 3235 0fbb c4cf 9bbc
00000260: 9bfd b1b7 48bd a13a 07ae 64bc b841 7d3c
00000270: 4f8e b1bb c56c 81bc 4205 9dbc c338 3a3c
00000280: 3b32 e4ba 3872 ba3c 1fab 843b c7f2 be3c
00000290: 9cf0 953c dafa f13c 28bb 883b 205a 75bb
000002a0: bfe6 003d 9f4f 5d3c d39c 053c e52d 683b
000002b0: 0bcf 4f3c 8f3c a1bc 0757 d939 f267 793b
000002c0: 4cb4 c1ba d0f1 aa3c b56b 1f3b 5b83 a43c
000002d0: 119c 803c d536 0a3d f0e5 d9ba 084c ed3b
000002e0: 7d49 a23b 2706 963c 55ba 87bc bb91 f13c
000002f0: f7c6 58bc 07bb 043d b2d4 51bc 4026 bf3c
00000300: 0310 1dbc 87bf f43c 7d4d 02bc 3713 983c
00000310: 8bbf 4ebc 6202 7a3c 9fdc 6fbc 5cd6 c4ba
00000320: db20 353c dcb2 3dbb 7439 003c 3203 0abc
00000330: 1f53 cd3c e713 5e3b f7d1 e8bc b72d 393c
00000340: 1784 be3c 538d fd3c e6fa 923a 6b48 833c
00000350: 2f10 d43b ec02 ae3c f8d6 e3bc 025b 843c
00000360: c797 17bc a22a 50bc c25a cebc d293 dfbb
00000370: 8a46 343b ff62 253b c0be ac3c fb09 fbbc
00000380: 80ca 5a3b 1017 b7bb 9309 d6bc 0583 3f3c
00000390: c0d9 37bc 1736 32bd 4f45 c63b add7 98ba
000003a0: 055a afba f16c a63c 87f9 86bb 4b6f d738
000003b0: 7f08 00bd 954d ca3b 615e 34bc d31c bbbc
000003c0: b8da 0cbc 7b48 77bc 530a d2bb 5aaf 653c
000003d0: cbd9 8ebc dff5 403c e3ee 0ebb bbc3 f23c
000003e0: 902c d3bc cfce b63c c77e 3e3c 56f6 a83b
000003f0: 9995 34bc 2e61 be3c d392 53bc 2a2d e53b

action_model._continuous_distribution.mu.bias f4 [2]
0.0 0.0
00000000: 0000 0000 0000 0000

action_model._discrete_distribution.branches.0.weight f4 [1, 128]
0.01112052 0.025539378 -0.010821328 -0.003911139 -0.014379226 -0.00804606 -0.013513798 0.0034756248
-0.01101534 -0.0022865883 0.008541035 -0.019324137 0.0053925277 -0.0012638987 -0.00030280792 -0.0038890627
0.014726618 0.0074109635 0.0027900287 0.009997355 -0.008955779 0.010451383 -0.009823817 -0.0074043237
-0.010806175 -0.009669107 -0.00676436 0.016624017 0.0022396948 0.008777416 0.0053559034 0.0016077039
0.0034916196 0.0048846826 -0.007859132 -0.0014332148 -0.0074023562 -0.0042257765 0.0041023153 -0.0076400028
-0.011664174 -0.003352708 0.0011645769 0.009953411 0.008858333 -0.010598261 -0.004927367 -0.0021134275
0.009270768 0.017630978 0.0054849465 0.0041441405 -0.0023172481 0.0039163125 0.016876198 0.014214783
-0.004351731 0.005144235 -0.0068092593 -0.009483025 0.000828634 -0.00465143 0.011164141 -0.00084337866
0.0006351074 0.004530735 -0.007491134 0.020308571 -0.011479927 -0.012801754 -0.0015656272 -0.0034902988
0.0014885775 -0.005708648 -0.0070136706 0.016030898 0.02030783 -0.0015757943 0.0031554878 -0.003523641
0.005136488 -0.00046104752 0.008402252 0.001352291 0.00191265 -0.0037244302 -0.011630489 -0.01412866
0.0034468693 -0.009850052 -0.008267007 0.009630348 -0.0010394618 0.0028364488 -0.011735498 -0.017742338
-0.0048147077 0.00014278574 0.015801536 -0.014441721 -0.008875626 -0.011964611 -0.018102447 -0.00095469813
0.0030917495 -0.0075934045 -0.01645389 0.009560361 0.009900487 -0.0032452622 0.0034323104 0.015730472
-0.008225929 0.0037568812 9.2146896e-05 0.003945394 -0.0035971154 -0.011119704 0.017083058 0.0066757128
-0.0012138025 -0.0059560533 0.00022337223 -0.0014580338 -0.013458835 -0.011343759 -0.0019786747 0.0059581087
00000000: d732 363c f537 d13c f04b 31bc 0329 80bb
00000010: d896 6bbc 9fd3 03bc fa68 5dbc 4fc7 633b
00000020: af79 34bc 96da 15bb b2ef 0b3c a74d 9ebc
00000030: cdb3 b03b 67a9 a5ba 31c2 9eb9 a5df 7ebb
00000040: ea47 713c abd7 f23b ead8 363b f2cb 233c
00000050: 42bb 12bc 473c 2b3c 13f4 20bc f89f f2bb
00000060: 620c 31bc 2d6b 1ebc 90a7 ddbb 172f 883c
00000070: d8c7 123b 27cf 0f3c 9380 af3b 97b9 d23a
00000080: a8d3 643b b00f a03b 97c3 00bc b5da bbba
00000090: 778f f2bb 6278 8abb b76c 863b fd58 fabb
000000a0: 171b 3fbc 1bb9 5bbb b7a4 983a a213 233c
000000b0: 8b22 113c 54a4 2dbc c075 a1bb 6e81 0abb
000000c0: 6be4 173c d76e 903c 11bb b33b 92cb 873b
000000d0: f9dc 17bb 6954 803b f43f 8a3c 1fe5 683c
000000e0: f798 8ebb f990 a83b 3520 dfbb b15e 1bbc
000000f0: b038 593a 066b 98bb cde9 363c 2f16 5dba
00000100: 567d 263a 8f76 943b 3078 f5bb 295e a63c
00000110: 4e16 3cbc 73be 51bc bb35 cdba 7fbd 64bb
00000120: 5f1c c33a 9c0f bbbb efd2 e5bb 3b53 833c
00000130: 9b5c a63c e28a ceba 4dcc 4e3b e3ec 66bb
00000140: fc4f a83b c0b8 f1b9 99a9 093c 5b3f b13a
00000150: e2b1 fa3a 9215 74bb ce8d 3ebc e57b 67bc
00000160: dfe4 613b 1d62 21bc 5772 07bc 9bc8 1d3c
00000170: 8d3e 88ba b7e3 393b 3f46 40bc 6158 91bc
00000180: b2c4 9dbb c1b8 1539 3972 813c f89c 6cbc
00000190: 136b 11bc 3707 44bc 954b 94bc b544 7aba
000001a0: f39e 4a3b 18d2 f8bb 4fca 86bc 0fa3 1c3c
000001b0: a735 223c 77ae 54bb 9df0 603b 31dd 803c
000001c0: 0cc6 06bc 0236 763b fd3e c138 5d48 813b
000001d0: 95bd 6bbb 6b2f 36bc c5f1 8b3c f0bf da3b
000001e0: 7418 9fba ff2a c3bb 0739 6a39 7f1b bfba
000001f0: 7282 5cbc 2cdb 39bc a7ac 01bb 3d3c c33b

onnx::Div_70 f4 [49]
1.0 1.0 1.0 1.0 1.0 1.0 1.0 1.0
1.0 1.0 1.0 1.0 1.0 1.0 1.0 1.0
1.0 1.0 1.0 1.0 1.0 1.0 1.0 1.0
1.0 1.0 1.0 1.0 1.0 1.0 1.0 1.0
1.0 1.0 1.0 1.0 1.0 1.0 1.0 1.0
1.0 1.0 1.0 1.0 1.0 1.0 1.0 1.0
1.0
00000000: 0000 803f 0000 803f 0000 803f 0000 803f
00000010: 0000 803f 0000 803f 0000 803f 0000 803f
00000020: 0000 803f 0000 803f 0000 803f 0000 803f
00000030: 0000 803f 0000 803f 0000 803f 0000 803f
00000040: 0000 803f 0000 803f 0000 803f 0000 803f
00000050: 0000 803f 0000 803f 0000 803f 0000 803f
00000060: 0000 803f 0000 803f 0000 803f 0000 803f
00000070: 0000 803f 0000 803f 0000 803f 0000 803f
00000080: 0000 803f 0000 803f 0000 803f 0000 803f
00000090: 0000 803f 0000 803f 0000 803f 0000 803f
000000a0: 0000 803f 0000 803f 0000 803f 0000 803f
000000b0: 0000 803f 0000 803f 0000 803f 0000 803f
000000c0: 0000 803f
