results/SimpleSam6/SimpleSam6/SimpleSam6-185733.onnx (onnx, 87005 bytes, 10 tensors)

network_body.observation_encoder.processors.0.normalizer.running_mean f4 [21]
0.0002663657 5.426355e-12 -7.26225e-05 0.32684252 0.0 -0.08377062 -0.13389145 -0.98156273
-0.32858106 0.05577668 0.01973712 7.574874 7.290228 -0.011091351 -0.00011917992 0.050378643
5.337811 0.011091432 0.00011918015 -0.050378498 4.929813
00000000: 00a7 8b39 43ec be2c e84c 98b8 e757 a73e
00000010: 0000 0000 ee8f abbd d71a 09be b247 7bbf
00000020: c73b a8be 1776 643d beaf a13c 5e65 f240
00000030: 8c49 e940 7fb8 35bc 3bf0 f9b8 d659 4e3d
00000040: 59cf aa40 d6b8 353c 5bf0 f938 af59 4ebd
00000050: 07c1 9d40

network_body._body_endoder.seq_layers.0.weight f4 [128, 21]
0.170019 -0.039647248 -0.10379306 -0.30439463 -0.18530618 0.25217432 0.25118932 0.3776028
0.031572822 -0.16617906 -0.24145567 -0.13517717 0.39083198 -0.0025754198 0.030423189 0.42774582
-0.18962458 -0.1353532 0.3225772 0.085334755 -0.06780894 -0.21606413 0.12077049 0.308175
0.19649607 -0.17084944 0.12555984 -0.49084648 -0.0661584 -0.10027078 -0.0069055674 -0.06333797
0.3407223 0.3405821 -0.024473192 -0.30306533 -0.184922 0.35972577 -0.003325172 -0.13310505
-0.116828226 0.39242208 -0.007148049 -0.1806232 0.033033803 0.07942993 -0.50538707 -0.12508135
0.34489426 0.18608652 -0.35762927 0.11084767 0.03170799 -0.08875311 -0.12872939 0.11747916
-0.17140476 -0.28735003 0.00051121507 -0.017062355 0.046219774 -0.0021150613 -0.033987984 -0.09138339
0.07980185 0.069273844 -0.02868058 -0.116089776 0.16391703 0.23997617 0.089477286 0.15411921
-0.032306254 0.0075477744 -0.11655245 -0.25609517 0.0038778894 0.15661757 0.40439788 0.04982563
-0.23013796 0.09726464 0.5471684 0.22399355 -0.0483946 -0.19459502 -0.30575395 0.2799484
-0.4506095 0.2182382 -0.14935915 0.3298451 -0.40611032 -0.3260838 -0.0075333426 0.047170103
0.18121387 -0.28011602 0.3254023 -0.05359503 -0.14794359 0.31327868 0.06926104 0.04559197
0.040348586 -0.24381828 0.23301275 0.10383227 -0.15665963 -0.44089696 0.09247717 -0.1979537
-0.007688672 0.2701256 -0.3955442 -0.26462123 0.08252804 0.014199741 -0.010247299 -0.262825
-0.21056323 -0.1904057 -0.09162118 -0.24733625 -0.3707679 -0.029983567 0.5833708 -0.06147641
0.24622914 0.032858606 0.10367329 0.1719004 0.12487853 0.10520157 0.11547987 0.08275551
-0.47251305 0.029887907 0.0016804523 -0.058780886 0.059898537 -0.20190185 -0.02069754 0.2590605
0.15772077 0.2314779 0.056047488 0.01204353 -0.22937058 0.030587884 -0.3053263 0.029585628
-0.29636288 -0.09807394 0.14379767 0.101867676 0.03895926 -0.036511343 -0.069093876 0.07522695
0.14482781 -0.3208225 -0.20072871 -0.14024167 0.045709588 0.2049836 0.119612 -0.3629554
0.083509535 0.46687037 -0.104585245 -0.35704696 -0.1111109 0.21919052 -0.41784784 -0.098629706
0.3267258 -0.12352264 -0.09518448 -0.09097238 0.4420305 0.39273435 0.09711667 -0.23326586
0.09729086 0.11473991 0.15818328 -0.09274435 0.13836543 -0.2134172 -0.0864606 -0.039785847
-0.22924826 -0.05724302 -0.00019186136 0.2861426 0.16689095 0.35170567 0.0058193095 -0.08517641
0.35840118 0.34945855 0.23618878 0.02519282 -0.74173415 0.45218593 0.14278933 0.2595418
-0.1135201 -0.10238774 0.12098411 0.06547015 -0.052026905 0.1951253 -0.17423381 0.42036164
0.059437994 0.06229682 -0.16631481 -0.11825743 -0.47126338 -0.37719333 -0.0013212713 0.0030417035
-0.07562552 0.17496821 -0.11158763 0.04082468 -0.000218907 0.54368347 -0.23349598 -0.05244451
0.3331393 -0.33913887 0.10560675 -0.036480594 0.09802371 0.015461046 0.3373008 -0.10961014
0.080827355 -0.32051772 0.04015143 0.12615529 -0.21943276 -0.2716875 0.0062891333 0.2429802
0.0637083 0.033702336 -0.065641366 -0.13250908 -0.087297074 -0.014305344 -0.1259668 0.22988577
00000000: 7619 2e3e 2765 22bd 7591 d4bd 9dd9 9bbe
00000010: e7c0 3dbe fe1c 813e e39b 803e 2755 c13e
00000020: 8152 013d d82a 2abe 2840 77be e26b 0abe
00000030: 211b c83e 60c8 28bb 0d3a f93c 8001 db3e
00000040: f22c 42be 079a 0abe d728 a53e fdc3 ae3d
00000050: 6adf 8abd ea3f 5dbe 8556 f73d 1dc9 9d3e
00000060: 4436 493e 28f3 2ebe c292 003e 3b50 fbbe
00000070: 0e7e 87bd c45a cdbd 1948 e2bb 56b7 81bd
00000080: 2773 ae3e c760 ae3e 017c c8bc 612b 9bbe
00000090: 315c 3dbe fa2d b83e 21eb 59bb b14c 08be
000000a0: a343 efbd 8ceb c83e 2e3a eabb 4af5 38be
000000b0: 744e 073d 29ac a23d 0c61 01bf 5315 00be
000000c0: fb95 b03e 778d 3e3e 2f1b b7be 1a04 e33d
000000d0: 3de0 013d 31c4 b5bd a3d1 03be ea98 f03d
000000e0: bb84 2fbe 8b1f 93be 1003 063a 5ac6 8bbc
000000f0: f250 3d3d d79c 0abb fc36 0bbd 3727 bbbd
00000100: 276f a33d 72df 8d3d 89f3 eabc 7ac0 edbd
00000110: ded9 273e 50bc 753e de3f b73d 6dd1 1d3e
00000120: 9053 04bd 5253 f73b 0db3 eebd e81e 83be
00000130: 3024 7e3b 5b60 203e 3d0d cf3e f615 4c3d
00000140: 49a9 6bbe af32 c73d 3a13 0c3f 915e 653e
00000150: 6b39 46bd eb43 47be c88b 9cbe 6655 8f3e
00000160: 4ab6 e6be d679 5f3e 9bf1 18be 75e1 a83e
00000170: b1ed cfbe 75f4 a6be 42da f6bb 7035 413d
00000180: 2190 393e 5e6b 8fbe 219b a63e 7686 5bbd
00000190: 867e 17be 1066 a03e bbd8 8d3d a5be 3a3d
000001a0: 8f44 253d 80ab 79be e59a 6e3e 03a6 d43d
000001b0: 626b 20be 3fbd e1be ac64 bd3d 60b4 4abe
000001c0: 41f1 fbbb e74d 8a3e c584 cabe 6f7c 87be
000001d0: 7604 a93d 08a6 683c 4ae4 27bc 0091 86be
000001e0: e39d 57be b6f9 42be e3a3 bbbd b745 7dbe
000001f0: 4ad5 bdbe 19a0 f5bc ca57 153f b0ce 7bbd
00000200: 7e23 7c3e bf96 063d a952 d43d a906 303e
00000210: 51c0 ff3d ec73 d73d b680 ec3d b97b a93d
00000220: 3bed f1be 7cd7 f43c 9f42 dc3a 3ac4 70bd
00000230: 2b58 753d 5cbf 4ebe e38d a9bc 94a3 843e
00000240: 8e81 213e 8b08 6d3e 0d92 653d 3a52 453c
00000250: 1fe0 6abe 7193 fa3c bb53 9cbe 8f5d f23c
00000260: e0bc 97be fdda c8bd b23f 133e 00a0 d03d
00000270: bf93 1f3d eb8c 15bd 1781 8dbd 9610 9a3d
00000280: be4d 143e d942 a4be d48b 4dbe 839b 0fbe
00000290: fa39 3b3d 39e7 513e 23f7 f43d 4ad5 b9be
000002a0: 0c07 ab3d a209 ef3e ca30 d6bd dcce b6be
000002b0: 1d8e e3bd 7b73 603e 27f0 d5be 5ffe c9bd
000002c0: 9b48 a73e 70f9 fcbd 15f0 c2bd ba4f babd
000002d0: d251 e23e 7a14 c93e 1be5 c63d 3fdd 6ebe
000002e0: 6e40 c73d c2fc ea3d ccfa 213e c0f0 bdbd
000002f0: abaf 0d3e 0a8a 5abe 4112 b1bd 7cf6 22bd
00000300: 0ec0 6abe a877 6abd 642e 49b9 4881 923e
00000310: 76e5 2a3e c412 b43e e8af be3b f870 aebd
00000320: 5c80 b73e 3bec b23e 79db 713e 2c61 ce3c
00000330: 4ae2 3dbf ea84 e73e 5e37 123e aae2 843e
00000340: 3a7d e8bd aab0 d1bd 84c6 f73d 3715 863d
00000350: 2a1a 55bd edce 473e 596a 32be a439 d73e
00000360: 4175 733d f32a 7f3d 6e4e 2abe f430 f2bd
00000370: 6f49 f1be 7c1f c1be 822e adba 5157 473b
00000380: 8de1 9abd de2a 333e 0e88 e4bd c837 273d
00000390: 668a 65b9 d72e 0b3f 9219 6fbe 0ed0 56bd
000003a0: 3c91 aa3e 9ca3 adbe 5a48 d83d ad6c 15bd
000003b0: a8c0 c83d 5450 7d3c b1b2 ac3e 487b e0bd
000003c0: d088 a53d e61a a4be d375 243d da2e 013e
000003d0: fbb2 60be a01a 8bbe 1315 ce3b cdcf 783e
000003e0: 7f79 823d 760b 0a3d fb6e 86bd 76b0 07be
000003f0: cfc8 b2bd f660 6abc 71fd 00be 2d67 6b3e

network_body._body_endoder.seq_layers.0.bias f4 [128]
0.016194278 0.024955645 -0.064319365 -0.04192669 0.042846575 0.020092243 -0.014725031 -0.017602887
-0.005063232 0.03919892 -0.042703845 0.018377272 0.0069474163 -0.027850857 0.018691018 -0.023477677
-0.04316292 -0.016582545 0.025658596 -0.035657287 -0.012867313 0.0041994285 -0.04552581 0.051369343
-0.023635352 -0.021115704 -0.014013682 -0.044021267 -0.04926811 -0.05313186 0.05242654 -0.03924398
-0.027291344 -0.013268619 -0.016174898 0.020624535 0.04051881 0.0006329862 0.025332425 -0.0003114516
0.025147887 -0.025530728 -0.008058153 -0.008211987 -0.0055197785 0.0070490735 0.026995191 -0.03651935
-0.042619217 -0.001942641 -0.006331985 -0.05795582 0.018024448 0.05482668 0.101129286 0.018322177
-0.006417622 -0.05452309 -0.0007038039 0.00610995 0.054896034 0.030086093 -0.020473778 -0.026164014
0.0206154 0.033206757 -0.009426684 -0.020911433 -0.021117082 -0.025938418 0.017775323 0.027129699
-0.0033583522 0.01876589 -0.023920046 0.003120458 0.005007437 -0.0012130999 0.046939585 0.023699466
0.019564176 0.05569305 -0.05262166 0.019527152 -0.0229012 -0.0408493 -0.018761016 0.011298308
0.049807172 -0.02262171 -0.050907895 -0.016267657 0.0022776416 0.030105304 -0.024098834 0.027914928
-0.006017587 -0.02758393 -0.01471725 0.0040159007 -0.02195807 0.035906233 -0.034704357 0.018330993
0.0021242884 0.006588526 -0.0399305 0.012811811 0.05064482 -0.016826594 -0.007215072 0.013296034
0.01868222 0.01818347 -0.02066217 -0.0013766264 0.019940175 -0.006749876 0.028474603 0.02151767
-0.005936182 0.040894143 0.025408302 -0.033214137 0.0032800585 -0.0029358552 0.01559885 -0.03859966
00000000: dda9 843c c86f cc3c dfb9 83bd 52bb 2bbd
00000010: e47f 2f3d 7d98 a43c 4241 71bc ee33 90bc
00000020: 78e9 a5bb 0c8f 203d 3aea 2ebd ef8b 963c
00000030: 27a7 e33b 7b27 e4bc e81d 993c 4254 c0bc
00000040: 9acb 30bd 1ed8 87bc fa31 d23c 600d 12bd
00000050: 6cd1 52bc 5c9b 893b 4679 3abd a968 523d
00000060: ed9e c1bc d7fa acbc a499 65bc a54f 34bd
00000070: 5ccd 49bd cba0 59bd 36bd 563d 4cbe 20bd
00000080: 1992 dfbc 9f64 59bc 3881 84bc c9f4 a83c
00000090: 0df7 253d fcee 253a f285 cf3c 534a a3b9
000000a0: f102 ce3c d125 d1bc 5806 04bc 928b 06bc
000000b0: 42df b4bb eafb e63b 0525 dd3c 5095 15bd
000000c0: 7d91 2ebd 37a0 feba 8a7c cfbb 1563 6dbd
000000d0: 02a8 933c f191 603d df1c cf3d 6418 963c
000000e0: ea4a d2bb 9b53 5fbd 7b7f 38ba fa35 c83b
000000f0: aada 603d 1c77 f63c a0b8 a7bc ea55 d6bc
00000100: a1e1 a83c cf03 083d 6172 1abc 744e abbc
00000110: bbfd acbc ce7c d4bc 8e9d 913c 1a3f de3c
00000120: cd17 5cbb ecba 993c f9f3 c3bc 9980 4c3b
00000130: 6d15 a43b e100 9fba b943 403d 6225 c23c
00000140: 0d45 a03c 651e 643d cf89 57bd 68f7 9f3c
00000150: 4c9b bbbc 9851 27bd b4b0 99bc 8a1c 393c
00000160: 9b02 4c3d 2a51 b9bc cc84 50bd c043 85bc
00000170: 7c44 153b 669f f63c eb6a c5bc d9ad e43c
00000180: 2e2f c5bb b2f7 e1bc 9f20 71bc d197 833b
00000190: 69e1 b3bc 6a12 133d 2826 0ebd e12a 963c
000001a0: a537 0b3b 90e4 d73b 2a8e 23bd a1e8 513c
000001b0: f170 4f3d edd7 89bc 696c ecbb 9cd7 593c
000001c0: 740b 993c 80f5 943c b643 a9bc eb6f b4ba
000001d0: 9459 a33c 102e ddbb 9243 e93c d345 b03c
000001e0: 4e84 c2bb 9e80 273d 1225 d03c 8c0b 08bd
000001f0: 40f6 563b 7a67 40bb 5292 7f3c ad1a 1ebd

network_body._body_endoder.seq_layers.2.weight f4 [128, 128]
-0.0060840137 -0.119350225 0.023807175 -0.049058285 -0.022538325 -0.06374506 -0.03335764 -0.02130171
0.05290362 -0.16672304 -0.0036043844 0.05633838 -0.011967639 0.020688457 -0.04050794 0.110079475
0.182158 0.08690691 -0.048068203 -0.04675822 0.04754405 -0.028521594 -0.06076736 0.18540952
0.0036256728 -0.11153114 -0.09891838 -0.19870324 -0.106392376 -0.09533067 -0.16481525 -0.049846996
-0.1409422 -0.020139258 -0.03721415 -0.12620957 0.08117034 -0.040651277 0.01707343 -0.052875463
-0.15990968 -0.0819437 0.037255168 0.016995471 -0.070608445 -0.098058626 -0.029405057 0.14124264
-0.06726829 0.016851071 0.031622656 0.121408135 -0.017200327 0.0004917347 0.12121381 -0.0905052
-0.024610259 0.052511364 0.02052624 -0.18231036 0.07652808 -0.018371245 0.04866576 -0.11472798
-0.142663 -0.117257476 0.09685337 0.004722818 0.106211275 0.020761738 -0.019491207 -0.00958805
-0.013254439 0.019894648 0.05606266 -0.11410049 -0.021961132 -0.13842425 0.24115485 -0.08906219
0.11619147 0.1351088 -0.038933065 -0.06429447 -0.0102457525 0.050732605 -0.20360506 0.036790356
-0.115433134 0.025899569 0.012908948 0.092252366 -0.00938692 -0.25813824 -0.033025574 0.0763772
0.0012093122 -0.040412173 -0.12876886 0.06275133 -0.057453807 0.10269609 0.19856165 0.052694656
-0.090596534 -0.047443587 -0.040698558 0.09125011 0.11906054 0.026210954 -0.07550668 -0.028812189
-0.15149495 0.33315784 0.14298436 -0.20864025 -0.050032277 -0.009341568 0.098010145 -0.02886063
0.08230696 0.0248017 0.06986841 0.045441918 -0.16761878 -0.14838323 0.07252116 -0.08302078
0.026236959 -0.01541064 -0.10591214 -0.053699434 -0.10111371 -0.0012350907 0.06894316 0.027890984
0.009324248 0.040810406 0.06607746 -0.14956377 -0.040951226 0.19812626 -0.08925129 0.10699275
0.0030303183 0.08656418 0.108024724 0.11480495 0.12149298 -0.0929572 -0.01868152 -0.032229085
-0.094678655 0.06432337 0.054204434 0.040597375 -0.094511114 0.18200009 -0.15505357 0.049192064
-0.05310352 -0.045108836 -0.004177021 0.010979573 -0.01632344 0.04641913 -0.18900055 0.13281716
0.0078006196 -0.029320296 -0.014219227 -0.039047223 0.06983701 -0.115472265 -0.040935498 -0.02513975
-0.0026450183 0.10330555 -0.17997684 -0.13226117 -0.110493675 -0.02950901 0.026774762 0.04850392
-0.05943023 -0.03010428 0.062000472 0.017089803 -0.0056234365 0.01955739 0.040645573 0.018823527
-0.075331636 -0.15334754 0.032709077 0.03685316 0.08353409 0.1616755 -0.17551784 0.06499785
0.0050836457 -0.05646843 0.057695203 -0.064157814 -0.04007879 -0.060564045 -0.059514165 0.2435292
-0.0025848667 -0.025608702 0.028599711 0.06245049 0.14862104 0.026167914 0.0386758 -0.07442934
0.00622335 0.08935821 -0.06807988 -0.02776463 0.15728243 -0.049581263 0.17591296 -0.12951763
0.108276665 0.007770884 -0.13411862 0.0044274274 -0.070931956 -0.1441145 0.05108123 0.09858639
0.07663072 0.007536648 0.01893193 -0.021376625 0.12849425 0.108466074 0.17809671 -0.19556125
-0.011353976 -0.013614473 0.07906768 0.03807387 -0.033192944 -0.034887288 0.088800505 0.110508636
-0.07458311 -0.09727578 -0.006813568 0.060252324 0.042547263 -0.08431693 -0.0050847107 -0.018115016
00000000: 685c c7bb e46d f4bd 4407 c33c 57f1 48bd
00000010: 4ba2 b8bc c58c 82bd 05a2 08bd ec80 aebc
00000020: 77b1 583d 72b9 2abe 8937 6cbb 13c3 663d
00000030: eb13 44bc d77a a93c a7eb 25bd 5971 e13d
00000040: a087 3a3e 40fc b13d 2ae3 44bd 8c85 3fbd
00000050: 8dbd 423d 1ea6 e9bc 32e7 78bd fedb 3d3e
00000060: b29c 6d3b 706a e4bd b895 cabd dd78 4bbe
00000070: 3fe4 d9bd ba3c c3bd 54c5 28be 5d2c 4cbd
00000080: 2753 10be 16fb a4bc dd6d 18bd 153d 01be
00000090: a33c a63d f481 26bd 94dd 8b3c f193 58bd
000000a0: 5dbf 23be 19d2 a7bd e098 183d 163a 8b3c
000000b0: 299b 90bd f6d2 c8bd e0e2 f0bc e9a1 103e
000000c0: f5c3 89bd 420b 8a3c c286 013d d4a4 f83d
000000d0: b3e7 8cbc c2e7 003a f23e f83d ca5a b9bd
000000e0: 749b c9bc 2816 573d a526 a83c 91af 3abe
000000f0: c1ba 9c3d 4b7f 96bc bf55 473d 81f6 eabd
00000100: 4016 12be b024 f0bd 0f5b c63d dec1 9a3b
00000110: 4c85 d93d 8514 aa3c 06ac 9fbc 3217 1dbc
00000120: 2629 59bc 1afa a23c f6a1 653d 85ad e9bd
00000130: d5e7 b3bc 16bf 0dbe 4cf1 763e 3d66 b6bd
00000140: cbf5 ed3d f659 0a3e 4778 1fbd d2ac 83bd
00000150: cddd 27bc fecc 4f3d d87d 50be 7cb1 163d
00000160: 3568 ecbd 552b d43c 0d80 533c cfee bc3d
00000170: 99cb 19bc b22a 84be d345 07bd a66b 9c3d
00000180: c981 9e3a 3c87 25bd fcdb 03be c583 803d
00000190: af54 6bbd 5452 d23d bf53 4b3e 5ad6 573d
000001a0: ad8a b9bd 3554 42bd 88b3 26bd 56e1 ba3d
000001b0: 03d6 f33d 5bb8 d63c 3fa3 9abd 8a07 ecbc
000001c0: 7e21 1bbe aa93 aa3e 7e6a 123e caa5 55be
000001d0: a5ee 4cbd 600d 19bc 8bb9 c83d 216d ecbc
000001e0: 8d90 a83d ef2c cb3c 2b17 8f3d 4e21 3a3d
000001f0: 42a4 2bbe c6f1 17be f985 943d cc06 aabd
00000200: e4ee d63c e97c 7cbc 77e8 d8bd f0f3 5bbd
00000210: b414 cfbd c4e2 a1ba 1232 8d3d a27b e43c
00000220: bbc4 183c d028 273d 9f53 873d 3f27 19be
00000230: 79bc 27bd 9ce1 4a3e 61c9 b6bd 041f db3d
00000240: 4e98 463b 9048 b13d 113c dd3d dc1e eb3d
00000250: 50d1 f83d 5860 bebd fd09 99bc a502 04bd
00000260: e2e6 c1bd f9bb 833d 7805 5e3d 6f49 263d
00000270: 0b8f c1bd 3b5e 3a3e 5dc6 1ebe 9e7d 493d
00000280: 1483 59bd 0bc4 38bd 64df 88bb abe3 333c
00000290: bcb8 85bc fc21 3e3d 5c89 41be 3901 083e
000002a0: 579c ff3b 1e31 f0bc c3f7 68bc fbef 1fbd
000002b0: b506 8f3d b97c ecbd fbab 27bd e1f1 cdbc
000002c0: 0b58 2dbb dc91 d33d d94b 38be 796f 07be
000002d0: 824a e2bd e1bc f1bc bf56 db3c 0cac 463d
000002e0: 1d6d 73bd 409d f6bc 35f4 7d3d eaff 8b3c
000002f0: ce44 b8bb d236 a03c f97b 263d cc33 9a3c
00000300: 7947 9abd 2307 1dbe f4f9 053d 57f3 163d
00000310: ec13 ab3d 438e 253e f3ba 33be 981d 853d
00000320: b694 a63b 714b 67bd ce51 6c3d 2c65 83bd
00000330: a829 24bd 0112 78bd 20c5 73bd b85f 793e
00000340: de66 29bb 57c9 d1bc f149 ea3c 16cc 7f3d
00000350: 1d30 183e 185e d63c 846a 1e3d 696e 98bd
00000360: 3eed cb3b 7001 b73d 776d 8bbd a672 e3bc
00000370: a50e 213e b915 4bbd 8722 343e 45a0 04be
00000380: 28c0 dd3d e6a2 fe3b 6456 09be f413 913b
00000390: c644 91bd c092 13be 8d3a 513d a9e7 c93d
000003a0: 91f0 9c3d fcf5 f63b 2317 9b3c 081e afbc
000003b0: ff93 033e 7623 de3d fc5e 363e 3541 48be
000003c0: 0706 3abc 3d0f 5fbc 3cee a13d 59f3 1b3d
000003d0: 53f5 07bd f9e5 0ebd 0add b53d 5a52 e23d
000003e0: 08bf 98bd 8638 c7bd 5a44 dfbb 24cb 763d
000003f0: 0a46 2e3d 5bae acbd a59d a6bb f165 94bc

network_body._body_endoder.seq_layers.2.bias f4 [128]
0.02820218 -0.034829047 0.028207157 0.043149162 0.0047334065 -0.0035251356 0.010576252 0.014543176
0.010935909 -0.00014326777 -0.0029789393 0.049997464 0.027987251 0.0038969198 0.012974672 0.03205667
0.027810756 -0.019317295 0.0010055691 0.04247452 0.035702452 0.013089703 0.011993439 -0.014801835
-0.015353916 0.0032007012 -0.0061963233 -0.009354834 -0.023420788 0.017322402 0.033740353 0.029827831
-0.012381056 0.01778639 0.0035563959 -0.007637175 0.0111689 -0.020292893 -0.002141054 0.011846696
0.050249483 0.046436414 -0.017633095 0.053813785 0.0366824 -0.00712406 0.014280647 -0.0096020475
-0.01091023 -0.010980252 0.016750162 0.02012577 0.010446109 0.033284023 -0.0027998975 -0.003572533
-0.03342285 -0.020385155 -0.009050412 0.026078453 -0.02117331 -0.03754982 0.007012203 0.0019069158
-0.0043476378 0.05876392 -0.025272584 0.016763518 0.03669882 0.016909136 -0.03657007 -0.0013171744
0.0041524516 0.018431403 0.012408087 0.03330504 0.016816076 -0.0035577388 0.019140676 -0.024618024
0.019137006 0.012697259 -0.024135746 0.0054073986 0.031483706 -0.009775999 -0.014394449 -0.00919631
0.001419998 0.023207268 -0.0059004324 0.0073346845 0.046567243 -0.030327057 -0.009981135 -0.0058322847
-0.010246046 0.0124024805 -0.015596932 0.015926436 -0.0013414732 -0.018002892 0.016422734 -0.006653802
-0.020561064 0.011529812 -0.031124944 -0.040889584 -0.009835793 -0.016544258 -0.023167502 0.0154823065
0.040994536 -0.007983937 -0.033806812 0.005958821 -0.004291476 -0.038067155 0.040995874 0.00014105241
-0.010062152 0.0047094543 -0.028617453 0.0198261 0.015026719 -0.01158192 -0.0144109065 0.0049367845
00000000: 4208 e73c e7a8 0ebd b212 e73c 2dbd 303d
00000010: b11a 9b3b f605 67bb 0448 2d3c 8046 6e3c
00000020: 872c 333c 263a 16b9 4f3a 43bb 24ca 4c3d
00000030: 8545 e53c 7763 7f3b b893 543c db4d 033d
00000040: 62d3 e33c 4e3f 9ebc 4dcd 833a c3f9 2d3d
00000050: bc3c 123d 3276 563c 2180 443c 6583 72bc
00000060: fe8e 7bbc dbc2 513b 870a cbbb 0545 19bc
00000070: f4dc bfbc b6e7 8d3c 5333 0a3d 7f59 f43c
00000080: ead9 4abc c3b4 913c 6c12 693b 4441 fabb
00000090: c3fd 363c 483d a6bc ed50 0cbb a518 423c
000000a0: 67d2 4d3d 1c34 3e3d 4873 90bc d86b 5c3d
000000b0: 4940 163d f270 e9bb 60f9 693c e851 1dbc
000000c0: d2c0 32bc 84e6 33bc a337 893c ccde a43c
000000d0: 2826 2b3c d454 083d 7c7e 37bb 2821 6abb
000000e0: 66e6 08bd c5fe a6bc 2e48 14bc 7ba2 d53c
000000f0: a673 adbc d7cd 19bd 9fc6 e53b 7af1 f93a
00000100: a176 8ebb 70b2 703d 7308 cfbc a553 893c
00000110: 8051 163d 0785 8a3c 7fca 15bd 0aa5 acba
00000120: 4a11 883b 74fd 963c 4a4b 4b3c de6a 083d
00000130: dec1 893c f428 69bb e8cc 9c3c bdab c9bc
00000140: 36c5 9c3c 2a08 503c 54b8 c5bc 8c30 b13b
00000150: 0ff5 003d 832b 20bc b2d6 6bbc 1fac 16bc
00000160: 3a1f ba3a 2b1d be3c 6a58 c1bb cb57 f03b
00000170: 4bbd 3e3d 7370 f8bc ea87 23bc c01c bfbb
00000180: 08df 27bc c633 4b3c 468a 7fbc 2878 823c
00000190: 5fd4 afba cd7a 93bc f888 863c 2308 dabb
000001a0: ad6f a8bc 89e7 3c3c bdf9 febc d67b 27bd
000001b0: 4e26 21bc d387 87bc c6c9 bdbc 80a9 7d3c
000001c0: e3e9 273d 0fcf 02bc 0379 0abd 3742 c33b
000001d0: 839f 8cbb 4eec 1bbd 4aeb 273d 78e7 1339
000001e0: b9db 24bc c451 9a3b 266f eabc 586a a23c
000001f0: a132 763c 18c2 3dbc b91b 6cbc c0c4 a13b

action_model._continuous_distribution.log_sigma f4 [1, 2]
-0.09175742 -0.08830747
00000000: 50eb bbbd 8cda b4bd

action_model._continuous_distribution.mu.weight f4 [2, 128]
0.0656913 0.007249245 0.024877679 0.083515175 0.009603687 -0.07565862 -0.0064843213 0.026462572
0.021381494 -0.044205297 -0.04537216 0.09231683 0.0149800265 -0.0070367893 -0.06999021 0.039580412
0.04234825 -0.015209153 -0.046054248 0.045021653 0.03611089 0.022469385 0.007475163 -0.03960779
-0.013063165 0.031481855 -0.032753624 -0.028329719 -0.0058554993 0.05389002 0.04214679 -0.0010589389
0.019646786 0.051829893 -0.024053719 0.023394499 -0.099192604 -0.052716516 0.0097001735 -0.110919006
0.07145302 0.054481562 -0.062359605 0.08530218 0.050440717 -0.095553055 0.04854884 -0.07212741
-0.0451588 0.008905961 0.030402834 -0.04040353 0.023795458 0.06457363 -0.042228315 -0.049954116
-0.008107248 -0.021760972 -0.05391668 0.044374682 -0.040567283 -0.028717414 -0.0406725 -0.050798226
0.012515627 0.0662784 0.018621745 0.027488459 0.09936607 -0.08706078 0.0062957793 -0.007543609
0.008315644 0.014615858 0.02054882 0.05633291 0.0025617846 0.023523 0.065690994 -0.04049605
-0.017606925 -0.022341674 -0.009524232 -0.020425703 0.06680313 0.0044405963 -0.022745458 0.026070507
0.0629541 -0.01579589 -0.061541516 0.032327093 0.09349525 -0.028228754 -0.013961511 -0.07887896
-0.071148016 0.0037926692 -0.02602743 0.010886118 0.0320678 -0.020039005 -0.0004554695 0.00035994794
-0.03850001 0.04289402 -0.050540827 -0.009947403 -0.06806354 -0.020000048 -0.017832268 0.06887018
0.06648037 -0.08591259 -0.015738292 0.023223452 -0.08563261 0.0013678935 0.11304627 0.03178444
-0.06299648 -0.11659381 -0.034544803 0.024348462 0.04474718 -0.025608677 -0.07879024 -0.044584483
0.026835032 -0.024116622 -0.07390778 -0.036501918 -0.01143761 -0.036795184 0.014960999 0.013095116
0.072837606 -0.0369698 -0.06071573 -0.056655124 0.07890053 0.059128713 -0.05070623 -0.043776397
0.016404074 -0.03986272 0.06557705 -0.08919174 -0.0048903106 0.095158406 -0.08014023 -0.006883197
-0.02662149 -0.01784323 -0.0459692 0.05230229 0.020516252 0.0042942655 -0.070793584 -0.10205082
0.050519064 -0.045819663 -0.0918477 0.041785553 -0.027511511 0.01538588 0.03693327 -0.05009706
-0.07049364 -0.06231411 0.014253091 -0.03127914 0.008644824 -0.03228789 -0.03927924 0.029114222
-0.024488254 0.0468279 0.08173114 0.1024795 -0.036190055 0.051480062 0.09013743 -0.083504096
-0.012556875 0.011619486 -0.029958468 0.104118496 -0.010819272 -0.01470492 0.05981783 0.08648785
0.057249695 0.033310205 0.0150603615 0.10472736 -0.0023141534 -0.063438796 0.023040857 0.0655428
-0.069223985 -0.06679889 -0.026385117 0.0581674 -0.08735417 0.009999936 0.045139227 0.02265383
-0.070133634 -0.075375885 0.034459848 -0.038278744 -0.03397129 0.05613461 0.030125007 -0.030118156
4.287011e-05 -0.11439647 -0.016257592 -0.023501795 0.062301934 -0.022364054 -0.01909275 0.005790593
-0.00529819 -0.058562912 -0.052091986 0.10273852 -0.012670588 -0.038687132 -0.05628134 0.05439319
-0.022651331 0.074608706 -0.009594838 0.021529486 0.004652105 -0.023219803 -0.019762134 0.040510334
-0.037527174 -0.01922883 0.021657087 -0.004389814 0.009586783 -0.013465303 -0.02494617 -0.02941041
0.022120703 0.032299276 -0.0033045707 0.090342335 0.06774117 0.044015817 -0.019769482 -0.02599257
00000000: 2989 863d 138b ed3b 46cc cb3c 010a ab3d
00000010: c858 1d3c e8f2 9abd 6e7a d4bb 09c8 d83c
00000020: 3e28 af3c 9d10 35bd 28d8 39bd 9b10 bd3d
00000030: c96e 753c de94 e6bb 0757 8fbd 121f 223d
00000040: 5c75 2d3d d02f 79bc 61a3 3cbd a068 383d
00000050: 03e9 133d b711 b83c 36f2 f43b c73b 22bd
00000060: e306 56bc 1ef3 003d aa28 06bd ba13 e8bc
00000070: 7ddf bfbb c8bb 5c3d 1da2 2c3d 18cc 8aba
00000080: 4cf2 a03c 954b 543d 4e0c c5bc d2a5 bf3c
00000090: 7e25 cbbd 46ed 57bd 7aed 1e3c 8129 e3bd
000000a0: f655 923d 0f28 5f3d c96c 7fbd e9b2 ae3d
000000b0: ed9a 4e3d 52b1 c3bd 26db 463d 89b7 93bd
000000c0: 6ff8 38bd 4fea 113c 5d0f f93c 2c7e 25bd
000000d0: b1ee c23c 2e3f 843d 99f7 2cbd b09c 4cbd
000000e0: 43d4 04bc 1144 b2bc bdd7 5cbd 3ac2 353d
000000f0: e129 26bd c840 ebbc 3598 26bd cd11 50bd
00000100: 580e 4d3c f8bc 873d a18c 983c 7a2f e13c
00000110: 7080 cb3d ec4c b2bd d34c ce3b 6130 f7bb
00000120: 573e 083c 5a77 6f3c 0056 a83c 56bd 663d
00000130: 9de3 273b 4eb3 c03c 0089 863d 30df 25bd
00000140: 663c 90bc e305 b7bc 860b 1cbc ce53 a7bc
00000150: 14d0 883d 6c82 913b af54 babc d191 d53c
00000160: 14ee 803d 6266 81bc f512 7cbd 6a69 043d
00000170: 707a bf3d fd3f e7bc d2be 64bc 4b8b a1bd
00000180: 0db6 91bd 6e8e 783b 7a37 d5bc b05b 323c
00000190: 8759 033d d728 a4bc 15cc eeb9 65b7 bc39
000001a0: 30b2 1dbd a4b1 2f3d e603 4fbd 6ffa 22bc
000001b0: e664 8bbd 24d7 a3bc fa14 92bc cf0b 8d3d
000001c0: dc26 883d f1f2 afbd 97ed 80bc 1c3f be3c
000001d0: 2660 afbd e44a b33a ce84 e73d 6730 023d
000001e0: 4c04 81bd bcc8 eebd da7e 0dbd 6d76 c73c
000001f0: d248 373d 4ac9 d1bc c75c a1bd 389e 36bd
00000200: 24d5 db3c 3990 c5bc f65c 97bd 0983 15bd
00000210: d064 3bbc 8cb6 16bd fa1e 753c e68c 563c
00000220: e22b 953d a56d 17bd 0fb1 78bd 340f 68bd
00000230: 9a96 a13d f330 723d 56b1 4fbd e14e 33bd
00000240: d661 863c 1747 23bd 434d 863d 29aa b6bd
00000250: e63e a0bb 69e2 c23d 9020 a4bd 718c e1bb
00000260: 5015 dabc f72b 92bc 334a 3cbd ed3a 563d
00000270: b311 a83c e9b6 8c3b 3afc 90bd 0500 d1bd
00000280: 14ed 4e3d 66ad 3bbd a61a bcbd 5427 2b3d
00000290: d25f e1bc 0f15 7c3c 5747 173d 9332 4dbd
000002a0: f85e 90bd 153d 7fbd cc85 693c 8e1e 00bd
000002b0: 05a3 0d3c 4e40 04bd 45e3 20bd f380 ee3c
000002c0: 979b c8bc 9dce 3f3d a862 a73d c6e0 d13d
000002d0: 063c 14bd c2dc 523d f999 b83d 3204 abbd
000002e0: 5abb 4dbc a85f 3e3c 766b f5bc 143c d53d
000002f0: 5143 31bc e8ec 70bc 8a03 753d 8b20 b13d
00000300: a87e 6a3d 4870 083d bcbf 763c 4c7b d63d
00000310: 0da9 17bb 33ec 81bd 2ec0 bc3c 4e3b 863d
00000320: 4ec5 8dbd dbcd 88bd 9a25 d8bc f140 6e3d
00000330: bee6 b2bd c6d6 233c e9e3 383d 8694 b93c
00000340: 39a2 8fbd ac5e 9abd c525 0d3d 2cca 1cbd
00000350: 7b25 0bbd 68ed 653d b8c8 f63c 5aba f6bc
00000360: 6ecf 3338 b248 eabd a42e 85bc d686 c0bc
00000370: 5030 7f3d d234 b7bc 6668 9cbc 04bf bd3b
00000380: 709c adbb aadf 6fbd 685e 55bd 9368 d23d
00000390: 4c98 4fbc 6676 1ebd 4387 66bd 65cb 5e3d
000003a0: 498f b9bc 73cc 983d ab33 1dbc 9b5e b03c
000003b0: af70 983b 7537 bebc 33e4 a1bc 2aee 253d
000003c0: 18b6 19bd c785 9dbc 346a b13c 6ed8 8fbb
000003d0: e211 1d3c 939d 5cbc e95b ccbc 1aee f0bc
000003e0: 7a36 b53c 3f4c 043d 7f91 58bb 6705 b93d
000003f0: e2bb 8a3d ee49 343d 9cf3 a1bc 5fee d4bc

action_model._continuous_distribution.mu.bias f4 [2]
0.01673416 -0.0051783575
00000000: 1416 893c 36af a9bb

action_model._discrete_distribution.branches.0.weight f4 [1, 128]
-0.0049473043 0.0017991184 0.0013074575 0.00698917 -0.007732225 0.0029507952 -0.0024411858 -0.0007187556
-0.0022456597 0.020925267 0.005295018 -0.0034614631 -0.0017075588 -0.009775023 -0.01910335 -0.006614193
0.008711933 0.004659438 0.010562844 -0.0067612226 -0.00022283025 0.0032752522 5.7530637e-05 0.0021251533
0.008757213 -0.008440079 -0.0005613079 -0.013150333 0.0018074505 0.001502536 0.005353078 0.00349332
-0.009719691 -0.0031530452 0.0193078 0.0015191343 0.015399501 0.0109755695 -0.011709919 -0.016160918
0.0151933655 0.012491002 -0.0044239582 -0.00082897564 -0.003759544 -0.0020342853 0.004263429 -0.0054551153
-0.010558519 -0.0008591618 -0.008914738 -0.0016747796 -0.017912006 -0.00080704875 0.009592373 -0.00032744426
-0.013274436 -0.0041777384 0.00268805 -0.003501834 -0.0014974654 0.004669852 -0.006104033 -0.002370494
0.002774107 -0.012330783 -0.01623795 0.0021669504 -0.010917073 0.0075501995 -0.0073935636 0.014895593
0.005865435 -0.004971933 0.009226185 -0.000102168706 -0.016660716 -0.0025672452 -0.000360662 -0.006992606
-0.0051459293 -0.008087357 0.007747228 -0.0063453005 -0.008156522 0.000796827 -0.008638921 0.020138038
0.008488058 -0.007981789 0.009653422 -0.016938405 -0.00019913717 -0.0003223736 -0.010385691 0.00093012414
0.0100548 -0.0052849674 0.0015750593 -0.0009972805 0.021481361 0.00010406196 -0.00016429118 -0.0055172336
0.007562056 -0.008952054 0.0021035906 -0.0007209218 0.0018253422 0.021333266 0.00029599396 -0.0029414778
-0.0053704465 0.014504797 0.010419391 0.00086499687 0.0062861675 -0.0015575723 0.02139566 0.012268859
0.002984445 0.0137758795 0.0012981169 0.01265313 -0.004675164 0.00775928 0.00934393 -0.0006054217
00000000: ff1c a2bb 65d0 eb3a fe5e ab3a 6805 e53b
00000010: 9b5e fdbb 2162 413b 4dfc 1fbb df6a 3cba
00000020: eb2b 13bb 776b ab3c d581 ad3b b7d9 62bb
00000030: 2ad0 dfba 6b27 20bc a17e 9cbc dfbb d8bb
00000040: 7fbc 0e3c 33ae 983b c70f 2d3c 3f8d ddbb
00000050: 8aa7 69b9 9da5 563b 0d4d 7138 2846 0b3b
00000060: 6a7a 0f3c 4248 0abc bc24 13ba 7f74 57bc
00000070: fae7 ec3a bef0 c43a df68 af3b 2ff0 643b
00000080: 573f 1fbc 52a3 4ebb 642b 9e3c b01d c73a
00000090: 304e 7c3c e0d2 333c f6da 3fbc e763 84bc
000000a0: 98ed 783c 0fa7 4c3c daf6 90bb 9d4f 59ba
000000b0: af62 76bb a551 05bb 3cb4 8b3b d3c0 b2bb
000000c0: a3fd 2cbc 5f39 61ba 1f0f 12bc 4784 dbba
000000d0: 33bc 92bc 2090 53ba 5429 1d3c d3ac abb9
000000e0: 057d 59bc 69e5 88bb ff29 303b 077f 65bb
000000f0: 9a46 c4ba 8f05 993b 5704 c8bb 4a5a 1bbb
00000100: cbcd 353b 0d07 4abc 7305 85bc 6503 0e3b
00000110: 86dd 32bc aa67 f73b b545 f2bb a50c 743c
00000120: d632 c03b 99eb a2bb 6d29 173c 6843 d6b8
00000130: 0e7c 88bc 3a3f 28bb 3c17 bdb9 3b22 e5bb
00000140: 2f9f a8bb d580 04bc 75dc fd3b 3dec cfbb
00000150: efa2 05bc 28e2 503a 438a 0dbc 87f8 a43c
00000160: 7f11 0b3c 0dc6 02bc 6329 1e3c 69c2 8abc
00000170: 7acf 50b9 4104 a9b9 bf28 2abc 93d3 733a
00000180: e3bc 243c 852d adbb 3872 ce3a 2eb7 82ba
00000190: aef9 af3c d73b da38 9445 2cb9 e9c9 b4bb
000001a0: 20cb f73b a3ab 12bc 65dc 093b 3efc 3cba
000001b0: 5240 ef3a 1ac3 ae3c a32f 9b39 cfc5 40bb
000001c0: 92fa afbb 87a5 6d3c 18b6 2a3c f5c0 623a
000001d0: 32fc cd3b 7427 ccba f345 af3c 5303 493c
000001e0: ae96 433b 3ab4 613c 9325 aa3a 134f 4f3c
000001f0: 1e32 99bb 8f41 fe3b 4817 193c 2ab5 1eba

onnx::Div_70 f4 [21]
1.2109548 0.020246783 1.0577887 4.22137 0.0023203543 4.1991463 4.461871 0.17257358
4.1224213 2.3775382 2.4302242 3.3616648 7.4899364 5.458293 0.04366753 4.8080716
4.94195 5.023298 0.047004584 4.423535 4.528025
00000000: 9100 9b3f 95dc a53c 9f65 873f 7715 8740
00000010: 1611 183b 685f 8640 a6c7 8e40 21b7 303e
00000020: e0ea 8340 9629 1840 cb88 1b40 8425 5740
00000030: 8fad ef40 56aa ae40 b9dc 323d b9db 9940
00000040: 7424 9e40 dbbe a040 e187 403d 998d 8d40
00000050: 95e5 9040
