results/SimpleSam6/SimpleSam6/SimpleSam6-207216.onnx (onnx, 87005 bytes, 10 tensors)

network_body.observation_encoder.processors.0.normalizer.running_mean f4 [21]
00000000: e0b5 8939 808b 8f2c 166c e6b8 faad 703e
00000010: 0000 0000 7b72 7f3d e55c 0bbf 86de 7abf
00000020: 2461 00bf 03df 143e 4b15 eb3d 3cd5 fe40
00000030: 356d e140 859c 21bc 9eb7 efb8 33a8 3c3d
00000040: 72a2 9c40 d09c 213c beb7 ef38 17a8 3cbd
00000050: 27ed 9040
0.00026266184 4.079792e-12 -0.00010987387 0.23503867 0.0 0.062365036 -0.5443862 -0.97995794
-0.50148225 0.14538197 0.11478671 7.9635296 7.044581 -0.009863977 -0.000114306094 0.046058845
4.8948298 0.009864047 0.00011430633 -0.04605874 4.5289493

network_body._body_endoder.seq_layers.0.weight f4 [128, 21]
00000000: e127 293e fdc9 29bd cc30 edbd 40f8 9dbe
00000010: e7c0 3dbe 96d8 823e 57f3 823e 02af c03e
00000020: 55f4 3a3d 4c4b 2dbe 1bc6 81be 042f 05be
00000030: b90f c93e 9c4c d0bb 11c2 073d 4f1f d43e
00000040: 32d1 49be a1ee 07be 29d8 a33e 114e bd3d
00000050: 4cf6 91bd d58f 65be 31ea 093e 2a19 a23e
00000060: 806f 473e 28f3 2ebe 307f fa3d 61cd 00bf
00000070: d2fe 84bd 524a debd c6fb acbb ddd4 7dbd
00000080: 931e ab3e b269 b73e 7071 1cbc a84d a0be
00000090: 86a3 25be 1787 bb3e 1cfc 97bb 459c 07be
000000a0: 805b f7bd c38c c93e a33d 9abc c0c9 3ebe
000000b0: 799d f13c a2ed 893d 0c61 01bf 0056 04be
000000c0: 7183 af3e 0d1f 3d3e e3a7 b4be fd1c ee3d
000000d0: 7b3a 1c3d 8fb0 c3bd e575 05be dbde ed3d
000000e0: c2f9 2abe 797d 90be b9ed 253c fa63 80bc
000000f0: 0377 403d 47f5 553a 0bda d0bc df86 c7bd
00000100: b21f a53d ab1e a23d efa2 d8bc 7ac0 edbd
00000110: 422a 273e 50d0 773e 1003 bd3d 1755 163e
00000120: e135 1dbd 418b f13b 7cab 01be 3322 86be
00000130: 57a4 eb3b 73f4 213e ee95 cb3e a926 343d
00000140: f8ba 66be 70be c83d 6100 0c3f 880e 623e
00000150: 3657 1ebd 4279 46be a642 9bbe a322 923e
00000160: 4ab6 e6be e618 5f3e 3900 15be 786f a93e
00000170: 8ac1 cebe c9ba adbe 5634 a0bc 4299 3b3d
00000180: 2e0f 393e ce61 8dbe dcad a73e 8353 49bd
00000190: e744 15be c05a a33e 699a 8d3d 8c3e 343d
000001a0: 714e 333d 2ecf 75be eb8a 7b3e 486f de3d
000001b0: b540 14be 3fbd e1be 582a c13d 7bc9 44be
000001c0: de39 33bc dedc 8d3e 685a cdbe fcf4 8abe
000001d0: f823 ae3d cd53 bf3c e155 13bc 012c 8cbe
000001e0: 3049 4abe b150 36be 8dad c1bd 6361 7dbe
000001f0: 9e20 bcbe b341 9bbc 6331 133f fcfb 80bd
00000200: 93ab 6c3e 0a9f e23c a952 d43d 1030 393e
00000210: 1876 fe3d b46f b83d 9604 053e 1efa d23d
00000220: 4116 f4be 3522 4d3c 13ef 843c 0d18 73bd
00000230: 9b8f 783d c83f 53be fd98 b8bc 9b3a 803e
00000240: 5ce8 213e 0344 703e ab67 6a3d 1ed7 5b3c
00000250: 4bdf 6cbe 7482 ca3c ac89 99be 8f5d f23c
00000260: 7b3f 9abe 9284 c0bd 424e 143e 71b4 c63d
00000270: 3e84 303d 08cf 33bd 032f 80bd 71b8 a13d
00000280: fa93 0c3e 22dd a3be aa40 51be d822 09be
00000290: 1d19 2d3d 5c7b 513e 130b 013e 75e0 b5be
000002a0: 1a3d a63d 293a f13e 84f7 bdbd c5d4 b2be
000002b0: 1d8e e3bd 6ac2 5b3e 0f36 d5be 6363 babd
000002c0: 3a72 a23e 2bca f2bd ca37 c4bd 6aa4 bdbd
000002d0: aeca dd3e 5222 cd3e 9aa9 bf3d c24a 5bbe
000002e0: 289c d73d 09af ef3d d24f 293e 317b c5bd
000002f0: 9b16 153e 5067 5fbe a83c b6bd ab3c f6bc
00000300: ef17 62be a877 6abd 7057 e3bb 6a6d 923e
00000310: 1511 2a3e eb9f b13e 5e07 b33a 8953 a7bd
00000320: 119c b63e e8c0 b53e 0728 783e 8e4f cf3c
00000330: f5a1 3abf b900 ed3e 9e9e 103e e8ba 863e
00000340: 2b4c f8bd fdc0 c3bd 898c e13d fc18 7a3d
00000350: 6c7e 36bd e2e4 503e 596a 32be caab d73e
00000360: a710 8e3d adeb 873d ec44 2ebe 57a1 f8bd
00000370: 0d05 fabe bef6 bcbe 4c6c 18bc aa5f 363c
00000380: c8b2 93bd 74a8 313e 1f90 f4bd c7e9 553d
00000390: 086b 4aba fe4d 0b3f cf13 70be acd3 5dbd
000003a0: 8cf6 a73e f24f aabe d827 c93d ad6c 15bd
000003b0: 9a80 da3d 4456 7a3c cdb4 ae3e 1ebf d8bd
000003c0: 25ac 803d 1c0a adbe ed40 113d f6f5 033e
000003d0: b9d0 5ebe 7485 8cbe 46a6 273b 13e1 7c3e
000003e0: da91 8f3d acf5 163d 48e1 85bd 9a7a 01be
000003f0: aa51 d3bd de11 5abc 6b80 02be fe9d 6c3e
0.16519119 -0.041452397 -0.11581573 -0.30853462 -0.18530618 0.25555867 0.2557628 0.3763352
0.04564317 -0.16923255 -0.25346455 -0.13006216 0.39269808 -0.006356789 0.03314406 0.41430137
-0.19708708 -0.13274623 0.32000855 0.092434056 -0.071270555 -0.22418149 0.13468243 0.31659824
0.19476128 -0.17084944 0.1223129 -0.50313383 -0.064939156 -0.10854019 -0.005279037 -0.06197058
0.33421764 0.35822827 -0.00954853 -0.31309247 -0.1617566 0.36626503 -0.004638208 -0.13243206
-0.12077999 0.39365205 -0.018828219 -0.18631649 0.029494034 0.06734778 -0.50538707 -0.12923431
0.3427997 0.18468876 -0.35284337 0.11626623 0.03814171 -0.0955516 -0.13033254 0.11614772
-0.16696838 -0.28220728 0.010127478 -0.015672673 0.0469885 0.00081618543 -0.025494596 -0.097425215
0.08062686 0.07916006 -0.02644488 -0.116089776 0.16324714 0.24200559 0.092291 0.14680897
-0.03838146 0.0073713367 -0.12663072 -0.26197967 0.0071912217 0.15815906 0.39762825 0.04398218
-0.2253226 0.09801948 0.5468808 0.22075856 -0.03865739 -0.19382194 -0.30324286 0.2854205
-0.4506095 0.21786842 -0.14550866 0.33092856 -0.40382034 -0.33931568 -0.019556206 0.045800455
0.18072197 -0.27613682 0.32749832 -0.04915191 -0.14577065 0.31905174 0.06914217 0.04400496
0.04377598 -0.24004814 0.24564712 0.10861069 -0.14477809 -0.44089696 0.094319046 -0.19217484
-0.01093909 0.2770757 -0.40108037 -0.27140033 0.08502954 0.023355389 -0.008992643 -0.27377322
-0.19754481 -0.17804219 -0.0945693 -0.24744181 -0.36743635 -0.018952226 0.57497233 -0.06298062
0.23112325 0.027663726 0.10367329 0.1808474 0.12424868 0.09005681 0.1299003 0.10301612
-0.47673228 0.012520363 0.01622728 -0.05934911 0.060683828 -0.206298 -0.022533888 0.25044712
0.15811294 0.23463444 0.05722777 0.013417987 -0.23132055 0.024720408 -0.29987848 0.029585628
-0.30126557 -0.09400286 0.14482978 0.09702385 0.043094866 -0.043898612 -0.06258967 0.078965075
0.13728324 -0.32004648 -0.20434824 -0.13392198 0.042260278 0.20457214 0.1260188 -0.3552281
0.08117123 0.47114685 -0.092757255 -0.34927955 -0.1111109 0.21460882 -0.41642806 -0.09100988
0.31727773 -0.11854967 -0.095809534 -0.09259875 0.43318695 0.40065247 0.09358521 -0.21415237
0.10527831 0.11703307 0.16534355 -0.096426375 0.14559405 -0.21816754 -0.08898288 -0.030058226
-0.22079442 -0.05724302 -0.0069379136 0.285991 0.16608079 0.3469232 0.0013658812 -0.0817023
0.35665944 0.35498738 0.24234019 0.02530649 -0.72903377 0.46289614 0.14123008 0.26314473
-0.12123903 -0.09558294 0.11013133 0.061058983 -0.04455416 0.20399812 -0.17423381 0.42123252
0.0693677 0.066367485 -0.17018479 -0.12140148 -0.48831978 -0.36907 -0.009303164 0.0111312065
-0.07211834 0.17349416 -0.119415514 0.0522249 -0.00077216374 0.5441588 -0.23445056 -0.054156944
0.32805288 -0.33264118 0.09822053 -0.036480594 0.1066906 0.015279356 0.34122315 -0.10583328
0.06282834 -0.33796775 0.03546231 0.12886795 -0.21759309 -0.27445567 0.0025581284 0.24695234
0.07010241 0.036855385 -0.065371096 -0.12644425 -0.103183106 -0.013309924 -0.127443 0.23107144

network_body._body_endoder.seq_layers.0.bias f4 [128]
00000000: c278 b53c 4451 9c3c 6bbc 92bd ad73 15bd
00000010: 6173 263d 10ff 123c e73d 32bc 78a1 bcbc
00000020: 0612 4abc 3561 003d df6a 10bd c461 583c
00000030: f8f4 123b 6fda abbc 290e 023d df69 f9bc
00000040: 2638 16bd 161a 55bc 24ab 993c 530c 08bd
00000050: bc63 99bc a205 b23b 84f8 26bd 5ba8 563d
00000060: 5030 efbc 5e7c 77bc a86d bdbc 06c1 43bd
00000070: a573 80bd a21f 72bd e7fa 333d ed14 20bd
00000080: 9795 03bd 79dd aabc 5bd9 0dbc e350 563c
00000090: 6aff 1d3d 38ce c239 5509 b23c 6cd5 e0bb
000000a0: 91d8 5b3c 45a8 b3bc 2981 89bc 13a3 93bc
000000b0: b9d6 38bc 4ae3 fd3b 0832 a23c 3a81 fabc
000000c0: bcb6 33bd c479 bd3a febf 4fbc e41f 67bd
000000d0: c40e bf3c 4f9e 433d 29e7 c53d 6bd1 8b3c
000000e0: 85d6 fb3a 626b 68bd 9088 78bb 52e3 f73b
000000f0: a266 463d 6baf e03c 1257 b5bc 1e53 68bc
00000100: 2692 903c 7184 f33c 9642 9fbb a327 0fbd
00000110: 1b6f b3bc d9fa c7bc ea86 8e3c 2ab1 df3c
00000120: 2239 8cbb dc16 723c 5474 eebc b424 493c
00000130: 893c a53a bfbc 09bc 79e7 483d 7f75 873c
00000140: 6867 903c 3146 513d b369 4abd a2a9 ae3c
00000150: 59a7 48bc 7dda c5bc ce37 e7bc 5715 513c
00000160: 107e 373d 9479 68bc f703 48bd 9d50 d1bc
00000170: f3a9 3ebc f345 053d 68b4 dcbc 68bd ec3c
00000180: ec0f 4abc 1add 71bb 0ba7 6dbc 6bb4 143c
00000190: a91a 78bc bd11 1a3d 6fd8 0cbd 1213 423c
000001a0: 6e55 a1ba 7473 b5bb 3374 18bd d85d f93b
000001b0: a0fc 3d3d 7ebd adbc 9cb4 2abc a640 7f3c
000001c0: a88f b03c 2228 8a3c e5b1 a8bc bf05 bcbb
000001d0: 889b 1f3c 6917 14bc 4842 8f3c 83e8 673c
000001e0: 5f4c b7ba 1282 1a3d ec20 613c aeab 10bd
000001f0: b5f2 e8ba 8365 debb 8571 8f3c ccea 26bd
0.022152308 0.01908172 -0.07164844 -0.03648727 0.040637378 0.008971944 -0.0108790165 -0.023026213
-0.012333399 0.031342704 -0.03525817 0.013206903 0.0022423845 -0.02097818 0.031751785 -0.030445991
-0.03667464 -0.013006708 0.018758364 -0.03321488 -0.018724315 0.0054328004 -0.040764347 0.05240665
-0.029197842 -0.015105335 -0.023123577 -0.047791503 -0.062720574 -0.0591122 0.04394045 -0.039082456
-0.032125082 -0.02085756 -0.008657779 0.013080808 0.03857366 0.00037156208 0.021732965 -0.0068613794
0.013418333 -0.021930823 -0.016785221 -0.018022096 -0.011281663 0.0077480422 0.019799247 -0.030579198
-0.04387544 0.0014455845 -0.012680052 -0.056426898 0.02332247 0.047758397 0.09663231 0.017067632
0.0019213712 -0.056743033 -0.0037923194 0.0075649405 0.048437722 0.027427396 -0.022136245 -0.014179973
0.017647814 0.029726239 -0.0048602326 -0.03494991 -0.021903565 -0.024411606 0.017398316 0.027306158
-0.0042792717 0.014775958 -0.029108204 0.012276817 0.0012606542 -0.008406817 0.049048875 0.016535519
0.017627433 0.05109233 -0.04941721 0.021321122 -0.01224693 -0.024152035 -0.028224852 0.0127614355
0.044797957 -0.014189143 -0.048831906 -0.025551135 -0.011637199 0.032537412 -0.026941493 0.02889891
-0.012332898 -0.0036905468 -0.014505158 0.009076218 -0.015143075 0.037614573 -0.034386095 0.011845367
-0.0012308785 -0.0055374447 -0.03722019 0.007610064 0.0463835 -0.021208521 -0.010419037 0.015579378
0.021552876 0.01686484 -0.02059264 -0.0057379897 0.009741671 -0.009038785 0.01748766 0.014154556
-0.0013984552 0.0377217 0.013740759 -0.035319977 -0.0017772528 -0.0067870035 0.017510185 -0.040751263

network_body._body_endoder.seq_layers.2.weight f4 [128, 128]
00000000: 46de c1bc 4f89 07be ef57 a03c 1534 62bd
00000010: 1570 bbbc b706 81bd 1ce8 16bd f412 5cbc
00000020: 7285 553d 3407 30be 0d46 93bc 03ef 3b3d
00000030: d9b2 63bc eebd 0a3c e789 61bd 2dab e33d
00000040: 7ef6 393e 880c b13d 892d 3fbd 140e 41bd
00000050: 6344 2b3d 2280 16bd 09f1 a6bd 6792 353e
00000060: ecce cb3b 6be5 00be 21b9 debd 501b 4dbe
00000070: df30 d7bd b170 cabd 8b5a 1fbe f7c8 5ebd
00000080: 3c24 12be 7495 bdbc e6b7 47bd 1b3c eebd
00000090: 50f0 a43d caf0 12bd 1a2d 923c faf5 18bd
000000a0: ce53 1fbe f77e 83bd 0fbf 373d fb9a c63b
000000b0: e1eb 96bd a07b b3bd d9cd aabc fd32 113e
000000c0: 62a9 9bbd e298 833c 1cfd 073d 951e ea3d
000000d0: 6f07 b3bc 9473 1039 8be2 013e 98e3 cabd
000000e0: 4087 b5bc d107 533d 97a8 b03c cd3b 3cbe
000000f0: 3c8a b53d 2ccd 73bc 165d 323d 6011 e0bd
00000100: 16ad 12be c2a8 fcbd 2e6c cc3d af3a 263c
00000110: 8684 bd3d 2698 d23c b31b f0bc 675b bdbc
00000120: fa5f 71bc ab2c a83c 1b91 553d 662f f5bd
00000130: 659e 9ebc 176e fbbd 1479 7c3e 90aa 93bd
00000140: 18a6 ef3d 21b3 1c3e 8ae1 31bd 0ef6 80bd
00000150: 6f93 91bc b5bf 453d adc7 4fbe 68e0 c53c
00000160: e43d e0bd 55bd a13c 7eaa 4aba 2015 da3d
00000170: ee2a 27bc c39d 83be c2d2 14bd 25c4 a73d
00000180: 16c6 d4bb e474 35bd 4293 02be 6f7b 873d
00000190: 5a45 71bd 037b cc3d 1b05 523e cbe8 553d
000001a0: 77e7 bdbd 40b1 28bd cffd 2fbd 92d0 a13d
000001b0: 64bb 013e 8213 9c3c e4a4 a8bd df57 c1bc
000001c0: ffe4 1dbe 6aef ab3e acc1 113e 81fc 4fbe
000001d0: acee 16bd 42b1 a3bc 1b42 c53d b5a6 e0bc
000001e0: 0276 913d a57b 023d eb0a 9b3d 443d 333d
000001f0: 10f7 28be 10c1 21be 3ef0 973d 7cb6 84bd
00000200: 02a9 973c b1db 3ebc c963 dfbd 73f9 49bd
00000210: e843 d3bd 118b 0dbc 2ebc 733d 65e5 8f3c
00000220: 4a10 353c bb1f 2d3d 873c 4f3d 3a4a 1abe
00000230: c009 01bd bd87 3f3e cc13 b3bd 5961 d73d
00000240: ceca c5bc 9dac ac3d 3180 e93d 880b d83d
00000250: d972 fb3d 3c0b c3bd f4af b9bc c9a5 11bd
00000260: 61ad b9bd 2b22 693d 031d 593d 539b 053d
00000270: 96cf c9bd c252 363e 1d14 16be 6d7e 643d
00000280: 4488 68bd 98ff 65bd 163e 91bc 470b 3b3c
00000290: ed25 bbbc 022b 4f3d f2b4 3bbe 1792 0b3e
000002a0: d8de 143c d0b4 d7bc fd8c 61bc 1f61 0cbd
000002b0: 69e3 8b3d 346e f4bd 41e8 0abd e549 11bd
000002c0: 4654 4cbc 820e ba3d b19e 36be 6b48 04be
000002d0: d3d0 e1bd c0c8 25bd 5bbb 133d 77bb 3e3d
000002e0: 2a63 97bd 43d1 cabc 7451 813d 3b56 093c
000002f0: 026f 3abc aed9 023c e2ff 003d 95c3 923c
00000300: 8bd4 b0bd 337e 1bbe ac9e db3c 20ec 1a3d
00000310: 787e 973d 9ad0 2b3e 3ce5 42be f9d9 703d
00000320: de85 c53b e0e3 87bd 6d5a 8b3d 838f 88bd
00000330: b51c 4bbd 068b 8cbd c233 a1bd 5333 6c3e
00000340: 4340 91bb aef8 bebc 7803 5d3c 8fcc 893d
00000350: 5184 0c3e 1551 b13c a867 0a3d a2ec 9dbd
00000360: 377e fd3b 48fa bf3d de61 a5bd c318 ffbc
00000370: f31a 263e 27d9 51bd 87c7 323e 5737 04be
00000380: 9d4d ef3d 73a5 e93a beff 0dbe 30ac a538
00000390: e95a 9dbd 13a0 19be 9ced 173d 052c b43d
000003a0: cdc1 a13d 84a9 893c 4d2f 723c 6992 d7bc
000003b0: 56ee fc3d 0d14 e73d 22f2 323e ca00 4abe
000003c0: 2a94 d4bc 9624 6ebc eeee 843d 6158 9a3c
000003d0: 8833 19bd cc7c 14bd 85f4 c13d d8fe c03d
000003e0: 7bcb b3bd f8b0 d7bd 7627 893a 3961 763d
000003f0: bed3 3e3d fe6b c5bd b9f3 53bc 770a 97bc
-0.023665559 -0.13235973 0.01957318 -0.05522545 -0.022880593 -0.06300109 -0.03684245 -0.013432253
0.052129216 -0.17190248 -0.017977739 0.045882236 -0.013897621 0.008468134 -0.055063155 0.111166336
0.18160436 0.08644968 -0.046674285 -0.047132567 0.041813266 -0.03674329 -0.081514426 0.1773163
0.0062197354 -0.12587516 -0.10875154 -0.2002995 -0.10507368 -0.098847754 -0.15561883 -0.054390874
-0.14271635 -0.023142554 -0.048759364 -0.11632558 0.080536485 -0.035874166 0.017843772 -0.037343957
-0.15559313 -0.06420701 0.044859942 0.0060609556 -0.07369209 -0.08763814 -0.020850109 0.14179607
-0.076006666 0.016064111 0.03320037 0.11431614 -0.02185413 0.00013775966 0.12684076 -0.09906691
-0.022159219 0.051521126 0.021564765 -0.18382187 0.08864257 -0.01488046 0.043545805 -0.10940814
-0.1432384 -0.123368755 0.09981571 0.010145827 0.092537925 0.025707316 -0.029310083 -0.023114873
-0.014732355 0.020529112 0.052140336 -0.11971931 -0.019362638 -0.12276857 0.24655563 -0.072102666
0.11701602 0.15302707 -0.04342798 -0.06296931 -0.017770497 0.04827853 -0.20291014 0.024154857
-0.10949305 0.0197436 -0.0007731094 0.106485605 -0.010203106 -0.257063 -0.036333807 0.081917085
-0.0064933402 -0.04430093 -0.12751487 0.0661534 -0.05890403 0.099844 0.2050976 0.05222396
-0.09272664 -0.041184664 -0.04296666 0.0790111 0.1266914 0.01905227 -0.082345754 -0.02360147
-0.15419386 0.33581096 0.14234036 -0.20311166 -0.03684871 -0.019981984 0.09631749 -0.027423242
0.07102586 0.031856198 0.07570442 0.0437596 -0.16500497 -0.15796304 0.074188694 -0.06480119
0.018513206 -0.011649058 -0.109077044 -0.04931016 -0.103156865 -0.008639113 0.059505634 0.017565439
0.011051247 0.04226659 0.050594833 -0.15067378 -0.03150344 0.18704124 -0.0874401 0.105166145
-0.024144556 0.08431361 0.11401404 0.105490744 0.12277765 -0.09523627 -0.022666909 -0.035558496
-0.090662725 0.05691735 0.053006183 0.03261883 -0.09854047 0.17805007 -0.1465611 0.05578463
-0.056770578 -0.056151956 -0.0177298 0.011416263 -0.022845233 0.050578125 -0.18330744 0.13629948
0.009086333 -0.026331335 -0.013766524 -0.03427231 0.068304844 -0.11935082 -0.0339129 -0.035470862
-0.012471264 0.090847984 -0.17833973 -0.1291825 -0.11026158 -0.040474653 0.036067348 0.0465655
-0.07391961 -0.024757987 0.06314364 0.008382375 -0.011379005 0.007986469 0.03149403 0.017915526
-0.08634289 -0.1518486 0.02680906 0.037822843 0.07397169 0.16778794 -0.19032758 0.058801625
0.006027921 -0.066352606 0.06804357 -0.06667998 -0.049587924 -0.06862454 -0.078712 0.23066454
-0.0044327094 -0.02331194 0.013489597 0.067284696 0.1372235 0.021645108 0.03379026 -0.0771115
0.0077359932 0.09373909 -0.08075307 -0.031139737 0.16221218 -0.051232483 0.17458926 -0.12911735
0.116847254 0.0017825797 -0.13867089 7.8998855e-05 -0.07683355 -0.1500247 0.037091836 0.087974586
0.07898293 0.016804464 0.014781785 -0.026314931 0.123501465 0.11283121 0.17475179 -0.19726864
-0.025949556 -0.01453509 0.06490885 0.01884097 -0.03740266 -0.036251828 0.094704665 0.094236076
-0.08779045 -0.10531801 0.0010464031 0.060151313 0.04658865 -0.096397385 -0.012936526 -0.018437607

network_body._body_endoder.seq_layers.2.bias f4 [128]
00000000: 4781 f13c 6480 37bd 060d a33c 1c9e 2a3d
00000010: 50eb 8bbb b86b 2abb 5c26 253c a706 4f3c
00000020: 6299 5d3c 3463 7fbb eeea 45bc 9251 463d
00000030: bdea fb3c a1b8 a33b 1c7b f43b 91d2 ae3c
00000040: 4202 dd3c fb8e d9bc 9ddc ff3b a050 133d
00000050: 8b7c 0c3d 5b54 653c 0b9f b23b f2f2 51bc
00000060: 86a0 b2bc 5b69 2aba add4 81bc 0779 94bb
00000070: 66f5 b8bc 67cb 993c e6a3 d43c 7c4a c33c
00000080: 704d aabb 1f9a 623c 526f 60bb 7242 0ebb
00000090: f9db 463c dec7 87bc 71aa 2bba 2022 363c
000000a0: 1cea 3d3d 0f44 1c3d 5373 2cbc f5d9 543d
000000b0: ba60 183d 9c6e d7bb efb8 e43b b1b0 dcbb
000000c0: 2bae 7bbc d745 fabb 5211 b13c 08d1 bd3c
000000d0: 6e51 563b 46d9 073d ef12 b23b 846e 1fbc
000000e0: 1c63 13bd afa3 40bc 72af 37bc 0302 e93c
000000f0: 38a9 babc 971a 26bd 67d4 373c 8049 f43b
00000100: 9a28 59bb d170 703d 025d bebc 12f9 893c
00000110: 99cf 0b3d 5b83 6f3c c3f4 04bd abbf 1e3b
00000120: 479f f9bb d6cf 103c 8f0b 5f3b 5b97 073d
00000130: 3667 f33b 9850 24ba d8af 943c d273 9cbc
00000140: 6089 573c 8e23 6b3b ee03 bcbc 4dba 6ebb
00000150: d8d8 dc3c b7e1 bebb 48db 26bc 5dad 92bc
00000160: 4c5b c6b8 ad1f b03c 85ea cfbb 3130 833b
00000170: 508c 433d 9e02 14bd 6960 6cbc c3b2 99ba
00000180: 8310 e0bb bad9 443b 9123 a9bc 33e5 923c
00000190: 3c46 93bb a211 00bd e730 fe3b aad1 61bb
000001a0: 9338 c0bc db7c 413c a799 e8bc a8af 1abd
000001b0: 3baa 16bc 7156 bdbc 9df1 d6bc 14b8 8b3c
000001c0: 6952 203d de10 09bc b6b2 f5bc a0e1 a63a
000001d0: 2a44 7b3b ef3b 3dbd 860e 183d b3fe febb
000001e0: e43f 94bb e2dc 0d3c da83 e8bc b5e2 ab3c
000001f0: 3b59 8d3c 200f 8cbb da44 84bc a266 313b
0.02948059 -0.044800177 0.019903671 0.04165469 -0.004269995 -0.0026004147 0.010079946 0.012635863
0.013525339 -0.0038969042 -0.012079937 0.048417635 0.03075158 0.0049963747 0.007460965 0.02134064
0.026978616 -0.026557436 0.0078082816 0.035965562 0.03429846 0.013997163 0.0054510883 -0.01281427
-0.02180506 -0.00065006845 -0.015848482 -0.004531029 -0.022577953 0.018773748 0.02595706 0.023839228
-0.0051972196 0.013830691 -0.003424604 -0.0021707085 0.0121374065 -0.016574796 -0.000654853 0.0111165345
0.046365842 0.038150843 -0.010525542 0.051965673 0.03720162 -0.006574465 0.0069800536 -0.0067349304
-0.015361349 -0.00763772 0.021614704 0.023170963 0.0032702344 0.033166192 0.005434386 -0.009730939
-0.03598319 -0.011757775 -0.011211263 0.028443342 -0.022785768 -0.0405527 0.011220074 0.007455051
-0.0033135773 0.05870134 -0.023237709 0.016842399 0.034133527 0.01461872 -0.032459985 0.002422313
-0.0076178643 0.008838614 0.003403399 0.03310333 0.007428075 -0.0006268113 0.018150255 -0.019098196
0.013155311 0.0035879347 -0.022951093 -0.0036426962 0.026958868 -0.005825247 -0.010184117 -0.017904932
-9.458381e-05 0.02149948 -0.0063450956 0.0040035476 0.047741234 -0.03613531 -0.014427283 -0.0011726249
-0.006837906 0.0030037002 -0.020646842 0.017931556 -0.0044944566 -0.031266816 0.0077572945 -0.0034457245
-0.023464477 0.011809553 -0.02839358 -0.037765175 -0.00919586 -0.023112508 -0.026238257 0.017055549
0.039141092 -0.008365838 -0.029992443 0.0012732036 0.003834019 -0.046199735 0.037123226 -0.0077818274
-0.004524218 0.00865862 -0.028383184 0.020982126 0.017254462 -0.004274264 -0.016146112 0.002706923

action_model._continuous_distribution.log_sigma f4 [1, 2]
00000000: 193a 9fbd dbba d9bd
-0.07774753 -0.10631343

action_model._continuous_distribution.mu.weight f4 [2, 128]
00000000: 9752 813d 542a 223c 8429 d93c e0d4 ba3d
00000010: 9ca4 203c fe65 9ebd 0d77 ceba 2da0 f43c
00000020: f872 c33c ddb3 3bbd 758e 19bd 99b1 bc3d
00000030: 123c 603c 15a2 b7ba 6b41 88bd 5164 103d
00000040: eaad 1e3d 5774 a5bc e766 35bd 7583 353d
00000050: b37b 1d3d 54ea 843c c969 5e3c ed47 33bd
00000060: c3c4 a3bc 05ec 183d 5824 ffbc d915 ebbc
00000070: b770 b23b a3b1 5a3d ae02 223d 1d71 bf3b
00000080: c169 ae3c 8c6a 5c3d 239f a6bc 348f d03c
00000090: f6e4 cfbd 6d57 45bd f25e 253c b2dd e1bd
000000a0: e87d 983d aaa1 523d 3e66 90bd f4e3 c43d
000000b0: aced 613d a390 c1bd 2ad3 583d 5122 8dbd
000000c0: ffd6 23bd 00d5 543c d20d f53c b6f7 19bd
000000d0: 2b13 b23c 4961 923d 2848 1bbd 31a2 45bd
000000e0: 06e8 1abc 5cdc e0bc d595 67bd 4f06 383d
000000f0: 5efb 16bd d4c1 e1bc 5f5e 3dbd 24b7 60bd
00000100: 4da1 4f3c e486 843d be81 a63c 8114 083d
00000110: 5f9c d93d 5323 abbd f48c c83b b417 08bc
00000120: f657 0e3c 8b68 193c 99eb 8e3c 0b9b 6d3d
00000130: 9a33 a13a 3703 083d 37b5 843d 1c62 2cbd
00000140: 228c 95bc c1cb 3abc 9551 34bb f424 85bc
00000150: 8764 893d 91aa 363c 30c0 c0bc 22c9 ca3c
00000160: 3165 813d 7f26 82bc e177 66bd 492d 263d
00000170: 9059 c73d 9178 b0bc da6b 1cbc f692 afbd
00000180: 719d 91bd aeb4 ca3b 0b43 afbc 6006 3e3c
00000190: 68b0 003d 039d 3fbc acaf f839 91b2 2eba
000001a0: 230b 26bd 876a 2c3d 36ea 56bd 43a6 b7bb
000001b0: 2007 6fbd 83c9 7abc 0821 a6bc 0ace 8a3d
000001c0: 5bdb 863d e76e b1bd 7bd8 bfbc 763d 0c3d
000001d0: 7c7d c7bd d63a 743b d603 ea3d facb d53c
000001e0: ec84 8fbd 1fcb eabd bbdd fcbc cd64 d03c
000001f0: 0275 653d 5359 04bd d610 8ebd 2487 36bd
00000200: dd8f 093d a1ab afbc cb78 85bd d64e 23bd
00000210: 51ab 2ebc d5fb 06bd ed30 54bb 8230 4e3c
00000220: 8a38 933d c22e 14bd b987 5dbd 7bda 62bd
00000230: b3a4 a43d f45b 383d 3944 37bd 118a a4bc
00000240: 13c2 8a3c 7338 1cbd 76eb 773d 0391 adbd
00000250: c110 92bb 4429 c63d ffc3 a0bd 0f8e 06bc
00000260: 710c c0bc 4954 eabc 27ca e0bc a3cc 3d3d
00000270: 1e0a 233c e00d d93b d878 75bd 2a08 cbbd
00000280: 86d8 683d 0d1a 37bd 29fb babd e2e9 313d
00000290: e067 d5bc 05c6 923c b108 043d a391 2ebd
000002a0: 2429 8bbd 443e 71bd 9bf7 433c 773c 87bc
000002b0: caa0 4d3c 9c76 06bd 43ef 26bd 7137 073d
000002c0: 9627 99bc e295 2d3d 43b5 ad3d 7fe4 c53d
000002d0: 0a29 09bd 7bbd 503d 55f1 b73d 931f b4bd
000002e0: b737 54bc a620 fe3b ab47 ebbc 4197 d03d
000002f0: 17b7 1abc b21b 0ebc 603e 6e3d 2abe ab3d
00000300: 0ebb 4f3d b220 1b3d d3dd 883c 8d26 cb3d
00000310: f6dc 23b9 8d50 70bd a65d 8b3c d367 813d
00000320: 356e 72bd aa93 7ebd a4de e7bc 631c 673d
00000330: c476 c3bd d058 2f3c c607 3c3d bfce cc3c
00000340: 8b98 92bd cf9f 8ebd 9206 e83c 62e4 dbbc
00000350: 79c8 07bd 1ada 743d 92ae e73c 3917 41bc
00000360: 6aa4 7e3b 9227 efbd 7ba3 8abb a42f 8dbc
00000370: be1d 743d c23e b3bc 69e3 22ba 9edf c73a
00000380: e284 b53a d78e 69bd 73ff 5abd 921b c03d
00000390: 59eb 50bc cfdc 0cbd 8254 4dbd 1a44 353d
000003a0: 96c3 a3bc 7ddc 8a3d 54c0 71bb 42db 503c
000003b0: da07 eb3b 78f4 53bc af39 debb 3bfc 423d
000003c0: 1aa4 febc 92b5 d7bb 97f1 7b3c d233 96bb
000003d0: 107a 3e3c 8a64 1bbc 60db 9dbc d79d e9bc
000003e0: 2054 bf3c b96c 093d bea9 b03b 1f6a a13d
000003f0: b131 6a3d 3b8d 2c3d 01c8 92bc 28e4 09bd
0.06314581 0.009897787 0.026509054 0.09122634 0.009804871 -0.07734297 -0.0015752033 0.029861534
0.023858532 -0.045825828 -0.037489373 0.092135616 0.013686197 -0.0014010096 -0.066531025 0.03525192
0.038740076 -0.020197077 -0.04428759 0.04431482 0.038448047 0.016225018 0.013575026 -0.043769766
-0.019991284 0.03733446 -0.03114526 -0.028696941 0.0054455656 0.053392064 0.039553337 0.0058423416
0.021290662 0.05381255 -0.020339554 0.02545891 -0.10151093 -0.04817908 0.0100934375 -0.11028613
0.0744589 0.051423706 -0.07050751 0.09613791 0.055158302 -0.094514154 0.052935757 -0.06891311
-0.039999958 0.012990236 0.029913817 -0.03758975 0.021737656 0.07147462 -0.03791061 -0.04825038
-0.009454733 -0.027448826 -0.056539375 0.04492789 -0.036860816 -0.027558245 -0.046232577 -0.054862157
0.012672734 0.06471041 0.020325538 0.03322268 0.106255285 -0.08356347 0.0061203185 -0.0083064325
0.008687964 0.009363304 0.017446326 0.05800919 0.0012298704 0.03320619 0.064798765 -0.042085752
-0.018255297 -0.011401118 -0.0027514447 -0.016252972 0.06708627 0.011149065 -0.023529142 0.02475411
0.06318129 -0.015887497 -0.05626667 0.04057053 0.097338796 -0.021541866 -0.009547198 -0.085729524
-0.07110108 0.0061860895 -0.021394273 0.0115982 0.031418234 -0.011695149 0.00047433132 -0.0006664182
-0.040537965 0.04209378 -0.052469455 -0.0056045367 -0.058356404 -0.015306833 -0.020279422 0.0677758
0.065848075 -0.08663731 -0.023418656 0.0342383 -0.09740731 0.0037266514 0.11426513 0.02609824
-0.07007775 -0.114645235 -0.030867448 0.02543869 0.05601979 -0.03231175 -0.06936805 -0.044562474
0.033584464 -0.021444144 -0.0651718 -0.039870106 -0.010660962 -0.03295501 -0.0032377795 0.012584807
0.07188518 -0.036177404 -0.054084513 -0.05538414 0.080392264 0.04500957 -0.044742797 -0.020085366
0.016938245 -0.03813977 0.060527287 -0.084749244 -0.0044575636 0.096758395 -0.07849883 -0.00821258
-0.023443433 -0.028604643 -0.027440144 0.046337735 0.009951143 0.0066239685 -0.0599297 -0.099136665
0.056847118 -0.04470258 -0.09129936 0.04343594 -0.026050508 0.017916689 0.03223485 -0.04261936
-0.06794956 -0.05889727 0.011960889 -0.016508324 0.012550542 -0.03282796 -0.04075552 0.033011857
-0.018695634 0.042379268 0.084818386 0.09662723 -0.033486404 0.050961953 0.08981577 -0.08795085
-0.012952737 0.007755357 -0.028720697 0.101850994 -0.009443066 -0.008673595 0.058164954 0.0838588
0.0507155 0.037872978 0.016707337 0.09919462 -0.00015627206 -0.05867057 0.017012428 0.06318631
-0.059187133 -0.062152542 -0.028304406 0.056423556 -0.09544137 0.010702327 0.04590585 0.025000928
-0.071580015 -0.06964075 0.028323445 -0.0268423 -0.03315017 0.05977831 0.028281484 -0.011785322
0.0038855323 -0.11677469 -0.004230914 -0.01723463 0.059598677 -0.021880511 -0.00062136963 0.0015249138
0.0013848806 -0.05702099 -0.05346627 0.093802586 -0.012751424 -0.034390267 -0.05012942 0.0442544
-0.019990724 0.06780336 -0.0036888318 0.012747588 0.007172567 -0.012936704 -0.0067817788 0.047603827
-0.03108411 -0.006582924 0.015377424 -0.004583814 0.011625782 -0.00948442 -0.019269645 -0.028517647
0.023355544 0.03355095 0.0053913286 0.07881569 0.057176296 0.042126875 -0.017917635 -0.033664852

action_model._continuous_distribution.mu.bias f4 [2]
00000000: 0595 703c 8806 0e3b
0.0146839665 0.0021671373

action_model._discrete_distribution.branches.0.weight f4 [1, 128]
00000000: ff1c a2bb 65d0 eb3a fe5e ab3a 6805 e53b
00000010: 9b5e fdbb 2162 413b 4dfc 1fbb df6a 3cba
00000020: eb2b 13bb 776b ab3c d581 ad3b b7d9 62bb
00000030: 2ad0 dfba 6b27 20bc a17e 9cbc dfbb d8bb
00000040: 7fbc 0e3c 33ae 983b c70f 2d3c 3f8d ddbb
00000050: 8aa7 69b9 9da5 563b 0d4d 7138 2846 0b3b
00000060: 6a7a 0f3c 4248 0abc bc24 13ba 7f74 57bc
00000070: fae7 ec3a bef0 c43a df68 af3b 2ff0 643b
00000080: 573f 1fbc 52a3 4ebb 642b 9e3c b01d c73a
00000090: 304e 7c3c e0d2 333c f6da 3fbc e763 84bc
000000a0: 98ed 783c 0fa7 4c3c daf6 90bb 9d4f 59ba
000000b0: af62 76bb a551 05bb 3cb4 8b3b d3c0 b2bb
000000c0: a3fd 2cbc 5f39 61ba 1f0f 12bc 4784 dbba
000000d0: 33bc 92bc 2090 53ba 5429 1d3c d3ac abb9
000000e0: 057d 59bc 69e5 88bb ff29 303b 077f 65bb
000000f0: 9a46 c4ba 8f05 993b 5704 c8bb 4a5a 1bbb
00000100: cbcd 353b 0d07 4abc 7305 85bc 6503 0e3b
00000110: 86dd 32bc aa67 f73b b545 f2bb a50c 743c
00000120: d632 c03b 99eb a2bb 6d29 173c 6843 d6b8
00000130: 0e7c 88bc 3a3f 28bb 3c17 bdb9 3b22 e5bb
00000140: 2f9f a8bb d580 04bc 75dc fd3b 3dec cfbb
00000150: efa2 05bc 28e2 503a 438a 0dbc 87f8 a43c
00000160: 7f11 0b3c 0dc6 02bc 6329 1e3c 69c2 8abc
00000170: 7acf 50b9 4104 a9b9 bf28 2abc 93d3 733a
00000180: e3bc 243c 852d adbb 3872 ce3a 2eb7 82ba
00000190: aef9 af3c d73b da38 9445 2cb9 e9c9 b4bb
000001a0: 20cb f73b a3ab 12bc 65dc 093b 3efc 3cba
000001b0: 5240 ef3a 1ac3 ae3c a32f 9b39 cfc5 40bb
000001c0: 92fa afbb 87a5 6d3c 18b6 2a3c f5c0 623a
000001d0: 32fc cd3b 7427 ccba f345 af3c 5303 493c
000001e0: ae96 433b 3ab4 613c 9325 aa3a 134f 4f3c
000001f0: 1e32 99bb 8f41 fe3b 4817 193c 2ab5 1eba
-0.0049473043 0.0017991184 0.0013074575 0.00698917 -0.007732225 0.0029507952 -0.0024411858 -0.0007187556
-0.0022456597 0.020925267 0.005295018 -0.0034614631 -0.0017075588 -0.009775023 -0.01910335 -0.006614193
0.008711933 0.004659438 0.010562844 -0.0067612226 -0.00022283025 0.0032752522 5.7530637e-05 0.0021251533
0.008757213 -0.008440079 -0.0005613079 -0.013150333 0.0018074505 0.001502536 0.005353078 0.00349332
-0.009719691 -0.0031530452 0.0193078 0.0015191343 0.015399501 0.0109755695 -0.011709919 -0.016160918
0.0151933655 0.012491002 -0.0044239582 -0.00082897564 -0.003759544 -0.0020342853 0.004263429 -0.0054551153
-0.010558519 -0.0008591618 -0.008914738 -0.0016747796 -0.017912006 -0.00080704875 0.009592373 -0.00032744426
-0.013274436 -0.0041777384 0.00268805 -0.003501834 -0.0014974654 0.004669852 -0.006104033 -0.002370494
0.002774107 -0.012330783 -0.01623795 0.0021669504 -0.010917073 0.0075501995 -0.0073935636 0.014895593
0.005865435 -0.004971933 0.009226185 -0.000102168706 -0.016660716 -0.0025672452 -0.000360662 -0.006992606
-0.0051459293 -0.008087357 0.007747228 -0.0063453005 -0.008156522 0.000796827 -0.008638921 0.020138038
0.008488058 -0.007981789 0.009653422 -0.016938405 -0.00019913717 -0.0003223736 -0.010385691 0.00093012414
0.0100548 -0.0052849674 0.0015750593 -0.0009972805 0.021481361 0.00010406196 -0.00016429118 -0.0055172336
0.007562056 -0.008952054 0.0021035906 -0.0007209218 0.0018253422 0.021333266 0.00029599396 -0.0029414778
-0.0053704465 0.014504797 0.010419391 0.00086499687 0.0062861675 -0.0015575723 0.02139566 0.012268859
0.002984445 0.0137758795 0.0012981169 0.01265313 -0.004675164 0.00775928 0.00934393 -0.0006054217

onnx::Div_70 f4 [21]
00000000: 7dea 983f eb9b a53c 3d19 873f 5615 8740
00000010: eaf7 0f3b b5ad 8640 e828 9240 124d 343e
00000020: 95a0 8340 4c51 1c40 4b1b 2040 0add 6440
00000030: e0ad ec40 649d a540 2953 2a3d cbf0 9140
00000040: 768d 9b40 9972 9840 a11a 373d f852 8640
00000050: ee6b 8e40
1.194656 0.020215949 1.0554577 4.2213545 0.0021967837 4.2087045 4.5674934 0.17607525
4.1133523 2.442462 2.5016658 3.5759912 7.396225 5.1754627 0.041583214 4.5606437
4.861018 4.763989 0.04470313 4.197628 4.450675
