results/Lia/Lia.onnx (onnx, 79204 bytes, 10 tensors)

network_body.observation_encoder.processors.0.normalizer.running_mean f4 [6]
000000 8b 36 36 3e 00 00 00 00 ef 52 89 3e 24 d4 b2 41
       0.17794244 0.0 0.26821086 22.353584
000010 b8 a0 96 c1 f7 32 23 42
       -18.828476 40.79977

network_body._body_endoder.seq_layers.0.weight f4 [128, 6]
000000 a5 47 59 3e 18 02 81 be 4d 80 e8 be 04 3d 17 bf
       0.21218736 -0.2519691 -0.45410386 -0.5907748
000010 03 68 10 be 52 70 6a bf 35 8c 99 be 54 c8 05 be
       -0.14102177 -0.9157764 -0.29989782 -0.130647
000020 25 d7 5b be 6b d3 96 be 48 5a a7 be 23 49 60 3e
       -0.2146879 -0.29458174 -0.32686067 0.219029
000030 86 cb 25 bf 55 da f8 bc 30 ed 06 bf 77 c9 68 bf
       -0.6476368 -0.030377546 -0.5270567 -0.9093241
000040 05 2e a4 be 8e 19 e8 be 34 35 0e 3e d2 4f 91 bf
       -0.3206636 -0.45331997 0.13887483 -1.1352484
000050 fc 17 49 3e c0 d0 20 bf ba 3a b9 3e 73 41 da bd
       0.19638056 -0.6281853 0.36177617 -0.10657015
000060 82 d9 31 3f fb 43 29 bf b2 ed 9e 3e 72 a9 f5 3e
       0.69472516 -0.66119355 0.31040722 0.4798084
000070 db 05 5a 3f 93 12 86 bf 5b f2 3e 3e c9 94 09 3f
       0.85165185 -1.0474418 0.18647139 0.53742653
000080 5f 13 3c 3e a4 35 22 bf a8 cb 37 3e 44 d6 70 be
       0.18366764 -0.633631 0.17948782 -0.23519236
000090 63 d8 90 3d b9 77 f7 3e 0d 91 8a 3e fd 11 94 be
       0.070725225 0.4833353 0.2706379 -0.28919974
0000a0 b0 a7 c0 3d 31 f8 e6 be 05 4c 07 bf 7c 93 db bb
       0.09406984 -0.4511123 -0.5285037 -0.006700931
0000b0 44 1e 4c bd 60 f5 34 3f b7 4c 5c 3f 10 13 01 be
       -0.04983355 0.7068691 0.8605456 -0.12604928
0000c0 69 26 d5 be 98 19 6c bd 69 42 6a be 02 7d 11 3f
       -0.41630867 -0.057641596 -0.22876896 0.5683137
0000d0 46 ad de be b8 11 e9 3e a1 e2 6e bd a0 af 98 3d
       -0.43491572 0.4552133 -0.0583216 0.07455373
0000e0 b8 11 72 be 3f 39 c0 3e e3 f0 81 bf 03 c9 ac be
       -0.23639572 0.37543675 -1.0151638 -0.3374711
0000f0 fd 14 30 bc fd bc 24 bf 23 92 db bd 2d 5f a0 ba
       -0.0107471915 -0.64350873 -0.10721233 -0.0012235396
000100 bb 21 2f bf 0b c6 50 bf 5d 20 0a bf ee ad 03 3e
       -0.68410844 -0.8155219 -0.5395563 0.12859318
000110 c3 7a 04 3f a5 0c 9c be c8 eb 3b 3d c3 8b 03 bf
       0.5174982 -0.30478397 0.045879155 -0.51385134
000120 f5 80 ba bf 06 ef a7 3d 1c 28 b8 be 6c ed 27 bf
       -1.4570605 0.08199887 -0.359681 -0.6559665
000130 60 d2 eb bd 86 46 e0 bd 99 ba 63 3f 18 2a 9f 3e
       -0.11514735 -0.10950951 0.889566 0.31086802
000140 c6 62 3a 3e c7 a2 62 3d dc 16 2f 3f 0e b7 10 3f
       0.18201742 0.055331018 0.68394256 0.5652932
000150 33 b8 2e bf 71 99 fa 3e 7b 7c f6 3e b2 fd 5b 3e
       -0.68249816 0.48945192 0.48141846 0.21483496
000160 6d 2b 9f be d3 63 c1 3d 8c e2 23 3e 77 e1 75 be
       -0.3108782 0.09442868 0.1600439 -0.2401179
000170 26 dd 2e 3e 56 b7 3a bf 8e 65 3d 3f 87 6a 03 bc
       0.17076549 -0.72936 0.73983085 -0.008021004
000180 7e 2b 2d 3d b1 2d a6 3d 1e 10 25 3f cc 68 45 be
       0.042277806 0.08114184 0.6447772 -0.19278258
000190 76 3b 9b bd cf bf 11 bd 02 65 61 3e 01 c4 87 be
       -0.07579701 -0.035583314 0.22011188 -0.26516727
0001a0 14 3e 45 3e 76 9f b5 3e e2 c9 6a 3f 26 03 64 3e
       0.19261962 0.35473222 0.917143 0.22266826
0001b0 b6 51 94 bd 51 74 91 bd 55 04 b6 3e 45 39 a1 bd
       -0.072421476 -0.07102264 0.3555018 -0.078722514
0001c0 90 02 76 be 71 54 7e be 2e 32 bf 3e 82 24 bd 3e
       -0.24024415 -0.248369 0.37342972 0.36941916
0001d0 25 cc a1 be 2a c4 b6 3e 4a d7 06 bf 59 71 e1 3d
       -0.31601062 0.35696536 -0.52672255 0.110079475
0001e0 42 d6 9b bf 93 0d 36 3f cf 9e 33 3e f8 d1 3f bf
       -1.2174761 0.7111446 0.1754105 -0.7492976
0001f0 37 e6 9b 3e 26 c2 00 3e 2c 6e 8b 3e 5a 34 15 bf
       0.30449077 0.12574062 0.27232492 -0.5828301
000200 1a ea 03 3f 0a 17 97 bd 75 ca 16 bf 2e 21 2f bf
       0.51529086 -0.07377441 -0.58902675 -0.68410003
000210 7b 0d 0c bf 12 ee fb 3c 25 f0 0b 3d 80 00 10 bf
       -0.5470807 0.03075317 0.034164567 -0.5625076
000220 d3 a7 19 bf dd ac db bd 2d c8 93 3e 36 1e 59 3d
       -0.60021704 -0.107263304 0.2886366 0.053007327
000230 5a 87 17 bf 14 9a e6 be 39 6a 04 bf e3 bb 9d bd
       -0.59190905 -0.45039427 -0.5172458 -0.07701852
000240 4e 5c 6a bd 5c 45 14 be 6f 07 7e be 49 1b e6 bd
       -0.057216935 -0.14479584 -0.24807523 -0.11235673
000250 6a fa de 3d b9 04 28 3f 5e 49 46 bf d3 9b ae be
       0.108876064 0.65632206 -0.774557 -0.3410326
000260 e2 d2 15 be 95 82 af 3e 6b c2 1d bf fe d0 fb be
       -0.14631227 0.34279314 -0.61624783 -0.49182886
000270 2b db aa 3d e4 2d 1c 3e 08 8f 5a 3e eb d2 70 be
       0.08342584 0.15251881 0.21343625 -0.23517959
000280 b5 bd b0 be 25 30 1f be f7 45 0c bf fd 39 12 3e
       -0.34519735 -0.1554571 -0.5479426 0.14279933
000290 2c b5 c7 be ca 63 aa be e7 f4 03 bf f9 9d d5 bd
       -0.3900541 -0.33279258 -0.51545566 -0.104305215
0002a0 4d 9c a6 3e 5f eb 85 bc 88 24 b8 be 18 0c d6 bd
       0.32541123 -0.016347585 -0.3596537 -0.104515254
0002b0 e8 5f 37 3e 68 2a 97 bc 7c f6 e6 3e 7f bc f1 bc
       0.17907679 -0.018452838 0.45109928 -0.029508827
0002c0 58 13 1e 3e 02 28 58 bc d1 b9 63 3f c2 a3 32 3e
       0.15437067 -0.013193132 0.8895541 0.17445281
0002d0 e6 88 fa be 83 9b 37 3f b0 e2 8d 3e 5c 27 18 bf
       -0.4893257 0.7172167 0.2771201 -0.5943506
0002e0 cc 07 2a 3e 4c f6 c3 bd ce a5 13 3d 73 23 d6 3e
       0.16604537 -0.09568462 0.036046796 0.4182392
0002f0 38 11 41 be 84 82 ed 3e b8 75 29 bf 48 b7 39 3e
       -0.18854225 0.46388638 -0.6619525 0.18136322
000300 4d ff 12 bf 54 8e 36 be 56 bf 1d 3f fc 94 a5 be
       -0.5742081 -0.17827731 0.6162008 -0.3234023
000310 94 9f 6a 3e 65 61 05 be c1 5e 4b bb 93 f5 f6 bd
       0.22912437 -0.13025434 -0.003103182 -0.12058558
000320 17 3c 85 bd c6 cf 05 3f 2d db c0 3e 06 a4 ef 3e
       -0.06505602 0.5227016 0.37667218 0.46804827
000330 81 db 39 bf f6 a8 c7 be 29 05 5e 3e f2 e4 f1 3e
       -0.7260056 -0.38996094 0.21681656 0.47244984
000340 1d 43 e9 be ed ed 42 bd 11 82 25 be 4e 7d ab be
       -0.45559016 -0.047590185 -0.16162898 -0.33494037
000350 1b ed 8f be 1a dc 12 bf 6e 41 83 3e bf 8d 87 3e
       -0.28110585 -0.573671 0.25635856 0.2647533
000360 ba cd b0 be 22 d0 46 bd b6 d8 92 be 95 e3 c7 3e
       -0.34531957 -0.048538335 -0.28680962 0.3904082
000370 24 78 d5 bd 91 3d 8b 3e 15 6e c3 3e 93 da cd 3d
       -0.10423306 0.2719541 0.38169923 0.10051455
000380 32 6a 4a be b1 3f 08 be 52 2c 3f 3f ed 1b 6a 3e
       -0.19767073 -0.13305546 0.74677 0.22862215
000390 c5 07 13 3f ad 68 87 3e 0f bf 30 3d 1d 20 ff 3e
       0.5743373 0.2644705 0.043150958 0.49829188
0003a0 71 e0 5a be 97 56 9a be 04 bc 96 3f ec be b6 bd
       -0.2137468 -0.30144188 1.1776128 -0.08923134
0003b0 46 d5 e6 be ff 23 e4 3d 46 b7 c3 3d f6 fd 99 be
       -0.4508459 0.11139678 0.09556441 -0.3007657
0003c0 d9 75 47 be b5 64 00 3f 53 e8 54 be 7e 16 25 3d
       -0.19478549 0.50153667 -0.2079175 0.040304653
0003d0 d8 c8 2b bf 5e 98 85 bf ff f5 8a 3f 89 62 33 3e
       -0.6710334 -1.0437124 1.0856322 0.17518057
0003e0 83 1d 1b 3f 70 dd c6 be 39 8b 1b 3e f4 fd bc bd
       0.60591906 -0.38840818 0.15189828 -0.09228125
0003f0 dd df 11 3f 21 74 11 3f 14 99 84 3e 8d c1 5a 3e
       0.56982213 0.56817824 0.2589804 0.21362896

network_body._body_endoder.seq_layers.0.bias f4 [128]
000000 a1 4d d8 bc fc af 43 bd dd 23 08 bd d1 df 24 3d
       -0.026404204 -0.047775254 -0.033237327 0.04025251
000010 a5 0d a4 3d 70 e7 c5 bb 6e fa d7 bc 84 f3 b9 3c
       0.08010415 -0.0060395524 -0.026364531 0.022699125
000020 ce 22 df ba dc 2d 0e bd e4 9f 19 bd 7d 30 9e bc
       -0.0017023922 -0.034711704 -0.037506 -0.01931023
000030 d3 3b 27 bc a8 86 98 3c 1e 6d 1f bd 11 e1 e0 3c
       -0.010207134 0.018618897 -0.03892242 0.02745107
000040 ef 9d 9e 3d 9f 17 87 3d 7a 95 a8 bc 79 1e 0a bd
       0.07744967 0.06596302 -0.020579088 -0.033720467
000050 b7 30 02 ba 2d 74 dd bc 95 49 0f bd c0 f8 42 bd
       -0.00049663655 -0.027032936 -0.034982283 -0.047600508
000060 81 a6 6c bd c7 66 93 bd df b1 ce bd 31 a4 af bb
       -0.057775978 -0.071973376 -0.1009252 -0.0053601493
000070 31 44 9b 3b fe 80 76 3d 08 b0 22 bc 83 6f 27 3c
       0.0047383537 0.06018161 -0.009929664 0.010219458
000080 f5 66 59 3c 81 85 91 3d 84 e2 25 bd d4 6a e0 bc
       0.013269176 0.07105542 -0.040499225 -0.02739469
000090 a6 10 dd bd 08 3e c7 3c c0 f9 98 3d b5 84 0f 3b
       -0.10794191 0.024321571 0.07469511 0.0021899168
0000a0 39 f9 35 bd 79 85 49 3d 33 93 fb 39 65 4b 46 bc
       -0.04442713 0.049199555 0.00047984123 -0.012102936
0000b0 50 91 c2 3d 03 83 8f bd ef a7 2f 3c f4 42 82 bb
       0.095003724 -0.070074104 0.010721191 -0.0039752666
0000c0 ad e7 ff bc 9a 97 50 3d f7 2f 99 bc 15 04 91 3c
       -0.031238401 0.05092583 -0.01869963 0.017702142
0000d0 e1 2a be bc 6c 64 a8 bd 86 7f 11 bb 13 f4 13 bd
       -0.023213806 -0.08222279 -0.0022201254 -0.03612144
0000e0 eb 63 67 bd 69 9a 9d bd 69 99 3e bd 15 de e5 bd
       -0.056491774 -0.07695467 -0.046533022 -0.112239994
0000f0 40 87 01 3d ad c0 01 bd 18 58 87 bd e4 9e 11 3d
       0.031623125 -0.03167789 -0.066085994 0.03555192
000100 26 6a a7 ba b1 6f e3 3d 9c f6 3b bd 5b a0 a7 3c
       -0.0012772724 0.11105288 -0.045889482 0.020462206
000110 41 96 98 3d 6e 29 99 bd 8c 9a 5a 3d 74 8c 94 bd
       0.07450534 -0.07478605 0.053370044 -0.07253352
000120 2c 28 ff 3c b2 bf f6 bb 4d 03 c4 bd 0a fb 71 bd
       0.031147085 -0.007530176 -0.09570942 -0.0590773
000130 e9 8c a2 3d c0 1d ed 3a 4a ae e6 3c 58 9c ce bb
       0.07937033 0.0018090531 0.02815928 -0.0063052587
000140 f8 a0 73 bd 92 13 05 bd 4c 1e f0 bc 5b ac 55 3d
       -0.059479684 -0.032489367 -0.029311322 0.052166324
000150 ae e3 bc 3c 4f af 9c 3b 14 88 03 3d 47 1f d8 bd
       0.023057785 0.0047816406 0.032112196 -0.10552841
000160 f3 c9 89 3d ae 1c 64 3b 90 b8 49 bd 81 de ca bd
       0.06727972 0.0034807133 -0.04924828 -0.099057205
000170 38 c0 8f bb 57 43 14 3d e0 8b 9f 3c 09 57 0f 3b
       -0.004386928 0.036197033 0.019475877 0.0021871945
000180 56 82 04 3d ab 03 c6 bc f3 b8 f4 3a 1e 91 33 3d
       0.03235086 -0.02417167 0.0018670842 0.043839566
000190 e7 69 d9 3c 43 43 66 bd c0 e0 4c bc e5 02 05 3e
       0.026539756 -0.05621649 -0.012504756 0.12989385
0001a0 db 37 07 bd bb 78 11 3e 0f ed 0d bd c1 b5 2a 3d
       -0.033012252 0.14206211 -0.034649905 0.04167724
0001b0 0a ed 3c bd 83 a2 b4 3c 4b 7a bb 3c f5 aa f0 bc
       -0.046124496 0.022050148 0.022885462 -0.029378394
0001c0 3b 4d b2 3b a3 2d 63 3d 84 bd 24 bd d9 39 ad bd
       0.0054413355 0.055463444 -0.0402198 -0.08458299
0001d0 1e 2f 39 3c ed 02 87 bd 2c 59 7c bd f0 63 0e bd
       0.0113027375 -0.06592355 -0.06160848 -0.034763277
0001e0 53 c4 fc 3c ab b3 55 3d 26 4a 51 bd 0b cf 58 3d
       0.030855333 0.052173298 -0.051096104 0.052931827
0001f0 45 d9 40 3d 28 84 4d bd ab e3 8b 3d e4 df dd bc
       0.047082204 -0.050174862 0.068305336 -0.027084298

network_body._body_endoder.seq_layers.2.weight f4 [128, 128]
000000 c9 f2 ea 3d bc 7c 68 3d 07 90 08 3d ec c7 fb 3c
       0.11472089 0.05675958 0.03334048 0.030734979
000010 8d 3e 7c bd 47 56 2a bc 68 5e 34 bd 7b 7b c5 3c
       -0.06158309 -0.010396547 -0.044035345 0.024106732
000020 40 54 be 3c fc 9e c9 3c 56 b0 32 bc d6 16 34 3e
       0.023233533 0.024611942 -0.0109063 0.17586836
000030 14 ba ef 3d c5 35 79 bd da e3 45 3d 5e 89 bf bd
       0.117054135 -0.060842294 0.048313 -0.093523726
000040 e3 83 00 bb 54 ed cf bd 90 26 98 3d 63 e7 09 3e
       -0.001960986 -0.101526886 0.0742923 0.13467173
000050 8f 9e 6d bc ee 77 a4 bc 63 3b eb 3c 0c 21 0c bd
       -0.014503135 -0.020076718 0.028714841 -0.034211203
000060 2b 8b 45 3e 18 3c c1 bd 9e 29 b9 3d 35 fe 11 3e
       0.1929137 -0.0943529 0.09041141 0.14257129
000070 65 b4 03 3e f2 d2 2d bd 11 59 55 3d 12 6e 05 be
       0.12861784 -0.0424375 0.052086893 -0.1303027
000080 52 b6 0f 3e d9 14 5b bd 84 2d 37 3e 3b c4 c6 bc
       0.14034393 -0.05348668 0.17888457 -0.024263492
000090 2d 57 81 bd 75 be 2a 3d 01 d0 84 bd 42 60 b6 bd
       -0.063154556 0.04168554 -0.06484986 -0.089050785
0000a0 f9 36 9e bd c4 ad 12 3c d3 c2 d8 bc f9 7e 30 3e
       -0.07725329 0.008952562 -0.026460087 0.17235936
0000b0 8a 5a b1 bd 1f 13 d5 bd 10 71 e2 bd d5 f0 7d bd
       -0.08659847 -0.10404038 -0.11056721 -0.061997253
0000c0 dd 3e e6 bd 46 5f 90 bc d1 15 e8 3c 83 cc c8 3d
       -0.11242459 -0.017623555 0.028330715 0.098046325
0000d0 03 40 c3 bb a0 5a be 3d 82 b5 ec 3d 4a 8c 2b 3d
       -0.0059585585 0.09294629 0.11558057 0.041881837
0000e0 48 6d 16 3d 04 db 25 3e 67 9d 84 3d df 09 c6 bc
       0.036725312 0.16196829 0.064753346 -0.024174629
0000f0 c7 16 0c bd 5f af aa 3c 87 83 1f 3d 9a f8 d7 bd
       -0.03420141 0.020835577 0.038943794 -0.10545464
000100 d3 96 27 be 72 45 75 be ed 96 a4 3c a0 d8 c6 bd
       -0.16366129 -0.23952273 0.020091498 -0.09709287
000110 77 59 ed bd 3c 61 99 bc 9e a9 00 3e 95 2e 6e 3e
       -0.1158933 -0.018723123 0.12564704 0.23259957
000120 31 3b a8 3c 14 17 0a be 9a 82 3d bd c9 c8 8f 3d
       0.020536037 -0.13485366 -0.04626713 0.070207186
000130 1b 41 67 bd 58 f4 2f 3e e7 8d df bd 9e 33 87 38
       -0.056458574 0.17183053 -0.109157376 6.446916e-05
000140 68 67 35 3d 1b 19 8b 3d e7 17 cf bc 3a 61 6f be
       0.04428807 0.06791898 -0.025279952 -0.23376933
000150 19 31 2e 3e 34 64 34 3e 3c f3 b6 3d 74 a7 ae 3c
       0.17010917 0.1761635 0.08933112 0.021320082
000160 13 e8 84 3c 97 ea cc bd 7f 7d 86 3e 0b 18 10 3e
       0.016223943 -0.10005682 0.2626762 0.14071672
000170 7e b6 6c 3c 6c 22 cb bd e0 3c 03 be d1 d9 5b 3c
       0.014447806 -0.09918675 -0.1281619 0.013418631
000180 07 73 71 bd 85 e8 8b bc f7 03 17 bd 58 0b 04 3e
       -0.05894759 -0.017078647 -0.036869016 0.12894952
000190 28 8a 2d be fc ec 91 3d f1 8d ee 3b 03 93 58 bc
       -0.16947234 0.07125279 0.0072801043 -0.013218644
0001a0 35 2c af bd c1 92 e9 bd 65 fd 6b 3c 89 70 72 3c
       -0.08553354 -0.11404944 0.014403676 0.014797338
0001b0 d7 8f 10 3d ab d9 a1 bd ff 7c d7 bd 53 cc 55 3e
       0.035293426 -0.07902845 -0.10521888 0.20878725
0001c0 6b e2 dc bc 2d ec 5e be 82 fd 6a bd 23 3d d3 3d
       -0.026963433 -0.21769781 -0.05737067 0.10314395
0001d0 f3 45 c1 3c 36 ce 59 3e 5c 20 e1 bd 38 ad a3 3c
       0.023592925 0.2127007 -0.109925 0.019980058
0001e0 16 e5 12 3e 22 2c 23 bd 61 ea 73 3d c0 7b 91 bd
       0.14345202 -0.03983701 0.059549693 -0.071036816
0001f0 69 0a b6 bd dc 59 5e 3c e1 99 1b 3d 7d b4 7d bd
       -0.08888704 0.013571229 0.037988547 -0.061939705
000200 d6 9e 13 bd 7f 33 e5 3d af f9 fe bd f4 ac d1 3d
       -0.03604015 0.11191463 -0.12449967 0.10238066
000210 b2 9d 4a 3e 01 2c fe bd 77 21 92 bd cf 93 3c bd
       0.19786718 -0.12410737 -0.07135289 -0.0460394
000220 68 3d d7 bd 4e d0 85 bc e5 d6 95 bd 5c 6a 75 3b
       -0.10509759 -0.016334679 -0.073163785 0.0037447428
000230 fc c7 e0 3c d1 45 5f be c4 98 e1 bc 80 18 15 be
       0.02743911 -0.21803977 -0.027538665 -0.14560127
000240 68 a5 33 bd 38 61 a3 bd f4 da c4 3d c7 10 70 be
       -0.043858916 -0.079775274 0.096120745 -0.234439
000250 64 75 64 bd 99 be 92 3d 12 1a 29 be 21 ed 25 ba
       -0.055776015 0.0716526 -0.16513851 -0.00063295854
000260 95 38 11 be a2 5b c2 bd 54 96 11 3e dc 66 5a 3d
       -0.1418174 -0.09490134 0.14217502 0.05332075
000270 2c e6 3e 3e cf b7 99 bb f0 66 bd 3c 3d ed 8f bc
       0.18642491 -0.004691101 0.023120373 -0.017569179
000280 96 c9 1b bd 19 ef db bd 5f 4a 52 be 20 13 02 3e
       -0.038034044 -0.10738964 -0.20536183 0.12702608
000290 96 db 2c be 83 fa 32 3e 5b 27 e0 bd dc eb f5 bd
       -0.1688064 0.17478375 -0.109450065 -0.12007877
0002a0 97 4f 8e bd 18 68 0a bc 02 84 d1 bc e9 60 a5 bd
       -0.06948774 -0.008447669 -0.025575642 -0.08075125
0002b0 c8 69 e3 bd fd ad b9 bd 80 70 2e be e5 f8 2c bd
       -0.111041605 -0.09066389 -0.17035103 -0.04222955
0002c0 11 55 a8 39 74 69 4f bd 7c 2c 74 bc fc b4 6d 3c
       0.00032106836 -0.050637677 -0.014903184 0.014508482
0002d0 b8 50 03 be 77 a1 0b 3e 62 90 a1 bd 0d 9a 24 bd
       -0.1282376 0.13635813 -0.07888867 -0.040185977
0002e0 83 0c 8e bd 9e e3 61 bd b7 5e ec bc 56 6e 9d 3d
       -0.0693598 -0.055148713 -0.028853757 0.076870605
0002f0 94 d0 3f 3e b8 e8 1e 3d f7 dd 8d bd 0c d2 06 be
       0.1873191 0.038796157 -0.06927102 -0.13166064
000300 7f 15 3e 3d a7 6e 85 be 87 7d 89 3c 31 ba 22 be
       0.04640722 -0.26060984 0.016783489 -0.15891339
000310 0e 26 4c bd c2 cc 65 3e 87 8e 34 be 96 4e 8b 3b
       -0.04984098 0.2244139 -0.17632495 0.0042513115
000320 eb 7f c0 3c b3 b3 07 be c7 02 b8 ba 32 96 6e bd
       0.023498496 -0.13252144 -0.0014038914 -0.058248706
000330 29 84 96 3d 31 a0 d8 bd b6 6d 02 be 41 a6 26 be
       0.07349426 -0.10577429 -0.12737164 -0.16274358
000340 b6 16 0a 3c ed a5 19 3d 36 7a b0 bc 2b c0 ee bd
       0.008428266 0.037511755 -0.02154265 -0.11657747
000350 e0 aa 43 be d4 4c 47 3e 13 a3 c4 3c 09 98 8d 3d
       -0.19108152 0.19462901 0.024003541 0.06913764
000360 77 69 87 be f5 a6 af bd 35 1d 9b bd a6 8f 20 3e
       -0.2644765 -0.085767664 -0.0757393 0.15679798
000370 a4 c7 e3 bd 7e 45 20 be 70 89 a5 3d 6b f8 39 be
       -0.11122063 -0.15651509 0.08082855 -0.1816117
000380 3f 07 4f 3d 21 5a ea 3d 6e b0 6a 3d ea f2 a0 3d
       0.05054402 0.11442972 0.057297163 0.07858832
000390 ff 91 02 be f1 c9 0a be 95 0b 7b bc 08 b7 ce be
       -0.12751006 -0.13553597 -0.015322586 -0.40374017
0003a0 6e 0c 1f be 55 2d 46 be 41 5b 07 be 93 b2 02 be
       -0.15532085 -0.1935323 -0.13218404 -0.12763433
0003b0 5b 75 2a 3e fc 9e c8 3b 86 52 73 3d 67 bf 80 3c
       0.1664633 0.006122468 0.059404872 0.015716268
0003c0 d2 48 af bd e4 be 46 3c 20 27 c2 bd 81 19 63 3d
       -0.08558811 0.012130473 -0.09480119 0.055444244
0003d0 b5 6c 30 3d fe 21 a0 bd fb 63 a0 bd b4 ca 9c bd
       0.04307242 -0.078189835 -0.0783157 -0.0765585
0003e0 d6 3a 93 3d f9 8c fd bd b6 89 4b bd e7 0f d4 3d
       0.071889564 -0.12380404 -0.04969188 0.10354596
0003f0 ac 6f e1 bd c3 4a 5f bd 47 d5 ed 3d a5 45 06 be
       -0.11007628 -0.054514658 0.11612945 -0.13112505

network_body._body_endoder.seq_layers.2.bias f4 [128]
000000 32 fd 16 bd 6a 5c 67 bc f4 82 4c bc 56 f8 b9 bc
       -0.03686256 -0.014121154 -0.0124823935 -0.022701424
000010 e1 34 90 bd 14 3a 95 3d dd 8d 8d 3d 43 49 b3 bd
       -0.07041336 0.07286468 0.06911824 -0.08754208
000020 07 ed 5d bc 13 1c 5f bc 1f 66 86 3c 5c 04 d2 bc
       -0.013545281 -0.013617533 0.016406117 -0.025636844
000030 66 a2 be 3c 9f 59 2c 3c 0d 26 ad 3c fd 27 2e bd
       0.023270797 0.010519414 0.021136308 -0.042518605
000040 f1 62 1f 3d ab 08 0a bd 8c 20 1e bd ac 61 b5 bb
       0.038912717 -0.033699673 -0.038605258 -0.005535325
000050 1b 51 8d 3d 94 06 91 3b 9f 9c be bd 16 10 70 bc
       0.06900235 0.004425833 -0.09307217 -0.014652273
000060 96 bb ab bc aa 39 24 3d 9c 0e 82 bc 4a 4e 1c bd
       -0.020963471 0.040094055 -0.015876107 -0.0381606
000070 2e e3 92 3d ba 18 b9 bc c9 98 aa bd 72 70 52 3c
       0.07172237 -0.022594798 -0.08329923 0.012844192
000080 2a 4e a1 bd ca d1 0b bd fa c4 98 bb e4 86 82 bc
       -0.07876237 -0.034135617 -0.0046621533 -0.015933461
000090 0b 6f 78 bd 2a 28 c7 3c b5 92 55 3d b1 01 da 3c
       -0.060652774 0.024311144 0.052141864 0.026612135
0000a0 99 35 13 bd ac 4f 47 3b 94 46 21 bd ba e3 57 3d
       -0.035939787 0.0030412478 -0.03937395 0.05270741
0000b0 96 a7 3b bd 05 d5 c8 bd 36 de 4e 3d 0d f3 35 bd
       -0.04581412 -0.09806255 0.050504886 -0.044421244
0000c0 b3 17 98 3c 89 43 84 bc e6 a2 6b 3c 62 69 8c bd
       0.018565988 -0.016145485 0.0143821 -0.06856038
0000d0 f6 14 9e bd 82 5d de 3c 96 21 70 bd da 28 0f 3e
       -0.07718842 0.027144197 -0.05862578 0.13980427
0000e0 6a 85 24 bd fa d0 44 3d 28 f2 cd 3a fa 48 dc bd
       -0.040166296 0.048050858 0.0015712427 -0.10756107
0000f0 33 5c f1 bc 99 37 b1 bd ce 92 28 bd 29 16 8a bd
       -0.02946291 -0.086531825 -0.04115563 -0.06742508
000100 d0 20 94 bd dd df 2d bd 10 d2 5e 3d ec 78 2f 3d
       -0.07232821 -0.04244982 0.05439955 0.04283993
000110 8d ed 43 bd 0d a8 ef 39 71 d4 fb 39 78 0f 97 bd
       -0.047833968 0.0004571084 0.00048032732 -0.07375997
000120 df 70 8a bd f6 c5 56 bc 3b 3a 01 3c 61 bc 93 3c
       -0.0675981 -0.013108721 0.007887418 0.018034162
000130 c7 74 c3 bc 57 dd 49 bd 58 b0 af bd 6f 76 8d 3d
       -0.023859395 -0.04928335 -0.08578557 0.06907355
000140 8c c8 a8 3d cd 7e 3b 3d 14 37 3e bc 33 52 96 3d
       0.08241376 0.045775224 -0.011609811 0.07339897
000150 88 1a 08 bc 7c 9f 8a 3d 7c d1 08 bd d0 93 19 bd
       -0.008307107 0.067687005 -0.033402905 -0.03749448
000160 5f 05 77 bc 2c e0 a5 3c 0b f6 fa 3c f8 9d 82 bd
       -0.015076964 0.020248495 0.0306349 -0.063777864
000170 ea bf 49 bd 83 91 c2 3c 3f 92 20 bb 54 84 b3 3c
       -0.04925529 0.023751026 -0.0024501232 0.021913685
000180 dd 6e 09 bd 6c 5e ee bc 5a 10 33 bd 80 46 7c 3c
       -0.033552993 -0.029097758 -0.043716766 0.015397668
000190 b7 6b 71 3a 10 17 9a bd f4 db 9f bd f8 dd 9b bd
       0.0009209471 -0.0752393 -0.078056246 -0.076106966
0001a0 43 38 56 bc 86 c4 bf 3c a0 18 a1 bd 9e f6 c5 bd
       -0.013074937 0.02340914 -0.07866025 -0.09666179
0001b0 ca 34 e1 bc c7 56 a3 3d 10 7f a1 3d 11 85 02 3d
       -0.027490992 0.07975536 0.078855634 0.031865183
0001c0 cc c5 36 bb 77 09 7e 3d be f6 c5 bc 3c eb c0 bd
       -0.0027888892 0.062020745 -0.024165507 -0.094198674
0001d0 0f af fe 3d 6d 98 86 3d e2 af ab 3d 48 39 ae 3d
       0.124357335 0.06572042 0.08383156 0.08507019
0001e0 f5 0c 72 bd 1b f4 86 bd 5b 1f 87 bd a1 37 08 bd
       -0.059094388 -0.06589528 -0.065977775 -0.033256177
0001f0 a9 b0 21 bd 84 85 51 bd 8f e7 0f 3d 1b 95 18 bd
       -0.039475117 -0.05115272 0.03513294 -0.037251573

action_model._continuous_distribution.log_sigma f4 [1, 2]
000000 64 be 2a be 08 cc 9b be
       -0.16674191 -0.304291

action_model._continuous_distribution.mu.weight f4 [2, 128]
000000 f2 66 87 bd 95 b0 d4 3c 6f ec b0 bc 59 8d 8d 3c
       -0.06611432 0.025963107 -0.021597115 0.017279314
000010 ab 5a b3 bc 6b e0 73 3d d9 99 89 3d f2 29 36 bd
       -0.02189382 0.059540194 0.06718797 -0.044473596
000020 b9 cd 67 3c 59 4e 41 3c cf e8 c9 bd 34 92 5c 39
       0.014148169 0.011798465 -0.09858858 0.000210353
000030 3e fc 6d bb d4 ab dd 3c 01 db 05 3c 5e a5 84 bd
       -0.0036313678 0.027059473 0.00816989 -0.06476854
000040 a7 b6 fd 3c 64 4b 2d 3b f4 e2 83 3c 0f 81 91 3c
       0.030970884 0.0026442641 0.01609943 0.017761735
000050 85 ec 68 3d 2a 50 4b 3b 96 3c 83 bd 1b 3b 14 bc
       0.056866188 0.0031023123 -0.0640804 -0.009047295
000060 d7 4b 1f bc 27 b8 3c 3c 40 02 1b 3c 52 a8 81 bd
       -0.0097226715 0.011518515 0.009460986 -0.06330933
000070 70 d9 c9 3d e9 0f 9d 3c 8b f8 9b bc f5 f7 bd bc
       0.09855926 0.019172626 -0.019039413 -0.023189524
000080 22 bb 2d bd 3f 48 bb 3b ee 81 d5 3c 55 b8 36 3d
       -0.042414792 0.0057153995 0.026062932 0.044609386
000090 a0 b1 d1 bc 52 c3 8c bd c5 34 41 3d 3b 4a 20 3b
       -0.025597394 -0.06873192 0.047169466 0.0024458307
0000a0 48 d1 7d bd f6 ea 10 3c 7b 80 36 3c a4 c0 25 3d
       -0.061967164 0.008845082 0.011139031 0.04046692
0000b0 04 bf d6 3a 16 ee c1 bc 3d f9 82 3c a2 25 cd bc
       0.0016383831 -0.023673099 0.015987987 -0.025042359
0000c0 34 01 e2 3c c4 94 87 36 d1 99 0e 3d f8 ee 24 bd
       0.027588464 4.040632e-06 0.03481466 -0.04026696
0000d0 83 05 46 bc 30 c5 e5 3c 6b 11 68 bc 35 11 7a 3d
       -0.012086275 0.028048128 -0.014164309 0.061051566
0000e0 12 60 63 bc 2a bc a6 3c d0 4e 72 bb 2d a9 48 bd
       -0.013877885 0.020353395 -0.0036973245 -0.048989464
0000f0 d3 f9 a8 bc 21 50 0f bd 1b d3 58 bd 7b be f9 bc
       -0.020626938 -0.034988526 -0.0529357 -0.030486336
000100 7b 09 2a bc 9a d0 da 3c 19 5d 20 3d ed 29 5f 3d
       -0.010378237 0.026710797 0.039151285 0.054483343
000110 cf a7 c6 bb 3a 4d 16 bc c4 7a 7b 3c fe 09 55 bd
       -0.006062485 -0.009173686 0.015349094 -0.052011482
000120 db e0 3e bd e1 39 26 3d 83 99 2d 3d fa dc 70 bd
       -0.046601158 0.04058254 0.04238273 -0.05880449
000130 f8 5e 65 bd 74 e1 b1 3c e4 db 03 3c 18 ef 23 3d
       -0.055998772 0.02171395 0.0080480315 0.04002294
000140 82 58 5f 3d 75 d3 6f 3d f4 c2 83 3c ca d1 06 3d
       0.054527767 0.05855127 0.016084172 0.032914914
000150 3d 4f e8 bc a9 be 9d 3d 43 97 0b bd 64 11 2c bc
       -0.028358096 0.07702381 -0.0340798 -0.010502193
000160 ad 63 a8 bc 42 85 89 3d aa c4 5e 3d b1 56 5d bd
       -0.020555342 0.0671487 0.054386772 -0.054037753
000170 ca d8 1f 3c 85 c4 91 bb ab 4f f1 bc fb 0f a8 3c
       0.009756276 -0.004448476 -0.029456934 0.020515433
000180 34 67 42 bb 28 1e 50 bc 17 a8 70 bd 09 53 ba 3c
       -0.0029663565 -0.012702502 -0.058754053 0.022744672
000190 78 38 49 bc b8 88 36 bd 2c 0d 01 bd 46 98 ad bd
       -0.01228153 -0.04456398 -0.031506702 -0.084763095
0001a0 6c 0e 91 bd af 74 dd 3c 98 89 83 bd b4 fb ae bc
       -0.07082829 0.027033178 -0.06422728 -0.021360256
0001b0 84 d6 eb 3c c8 d2 af 3d 8c 40 1b 3d 8d 02 5c bb
       0.028788812 0.08585125 0.037903354 -0.0033570856
0001c0 9a f2 93 bb 79 ef 8d 3d ab e4 28 3c 89 4e 95 bc
       -0.0045150043 0.069304414 0.010308425 -0.018225925
0001d0 e2 77 92 3d 09 26 2f 3d df 95 90 3d 54 c0 53 3d
       0.07151772 0.042760883 0.07059836 0.05169709
0001e0 39 73 5c bd 06 99 38 bc 3a f0 13 3d f2 48 5e ba
       -0.053820822 -0.011266952 0.03611777 -0.00084794976
0001f0 82 3c 3c bb f9 71 68 3c 14 05 68 3c 69 48 41 bd
       -0.002872259 0.014187329 0.014161367 -0.047188196
000200 61 0c e9 3c f0 10 d9 bd 1d b9 2a ba 40 fc a7 bd
       0.028448286 -0.10598934 -0.00065125694 -0.0820241
000210 7f 08 2d bd 07 92 5e 3d 75 a8 49 3d 75 d6 8c bd
       -0.04224443 0.05433848 0.04923292 -0.06876842
000220 3d c5 21 be 7e ed 23 be f2 ff 6b 3d 37 8c 0d bd
       -0.15797897 -0.16008565 0.057617135 -0.034557547
000230 a7 8d 20 3d ad 7d 01 3c 16 87 ac bb f5 72 39 3c
       0.03919759 0.007903499 -0.005265127 0.011318912
000240 e3 3e 0d 3b 36 48 13 bc 40 b9 86 bd 2a 8b 27 bd
       0.0021552376 -0.008989384 -0.065783024 -0.0409042
000250 d8 30 23 3d a8 26 41 3a 21 6d 0a bd 09 d4 d6 bc
       0.039841503 0.0007368126 -0.03379548 -0.026224153
000260 13 b0 89 3c 67 f1 71 3c 87 d1 a2 bc 2d 93 b9 bb
       0.016807592 0.014767027 -0.019875301 -0.0056632967
000270 16 b7 8b 3d 36 ee 4d bd a0 74 85 bd 53 db cd bb
       0.0682203 -0.050276004 -0.06516385 -0.006282249
000280 39 70 19 bd 6f ae f3 bd 61 c6 ca bd 17 b1 41 bd
       -0.03746054 -0.11898505 -0.09901119 -0.047288027
000290 63 e2 89 3b 05 b4 83 3d 37 c0 7e 3d 3f cb a3 bb
       0.0042078956 0.064308204 0.06219503 -0.004998594
0002a0 1a 99 ae 3c 86 4b 5e bc 4d 67 18 bd f7 97 62 3b
       0.021313239 -0.013567811 -0.03720789 0.0034575441
0002b0 a9 ab 02 bb 42 e0 d1 bc 2f 6f a2 3d 42 13 04 be
       -0.0019938743 -0.02561963 0.07931363 -0.12897971
0002c0 99 60 18 bb 23 cc 39 bd de 44 ee bd 46 9d 4c 3c
       -0.0023250936 -0.045360696 -0.11634229 0.012488669
0002d0 e9 92 70 bb 05 ef ef bc 19 8a 0e 3b b4 2d bc 3d
       -0.003670866 -0.029288778 0.0021749793 0.09188405
0002e0 63 dd 71 bd b7 e6 36 3c 2e c8 b2 3a 8d b4 05 bd
       -0.05904902 0.011163405 0.001363998 -0.03264289
0002f0 f4 d8 a8 bc 82 e0 39 bd ab c1 d2 3c a6 cd 33 bd
       -0.020611264 -0.045380123 0.025727114 -0.043897294
000300 2c d6 cf 3b 7d ca 70 3b 5d 81 8e 3d 27 f2 4b 3d
       0.00634267 0.0036741786 0.06958268 0.04979148
000310 e6 85 65 bc d8 f0 25 3c e4 bd c9 bc ab c0 8a bc
       -0.014008975 0.010128222 -0.02462668 -0.016937574
000320 8d fa e8 bc 30 00 ff bd 1b 47 08 3d 71 12 41 3d
       -0.028439784 -0.12451208 0.033270936 0.047136728
000330 dd 5d 24 3b 32 6a eb ba ab ad 0f bc 9c 4a bc 3c
       0.002508036 -0.0017960726 -0.008769433 0.022984795
000340 f5 0e c6 3d 18 9e 32 3c 39 f8 b0 bc 5c e5 8a 3d
       0.096708216 0.01090195 -0.021602737 0.06782028
000350 df f1 25 bc 99 e1 b5 3c 49 0b f4 bc dd 6c 96 3a
       -0.010128467 0.0222023 -0.029790537 0.0011476536
000360 96 7d dc bc 98 b7 02 bc 7d 66 e5 3c 3d b8 76 3c
       -0.026915353 -0.0079783425 0.028002972 0.015058574
000370 7e 0f ba bb fb 09 43 3c 86 76 4c 3c 3b f8 4d 3c
       -0.0056781163 0.011904235 0.01247943 0.01257139
000380 65 d2 de 3b 9b 30 19 bc ac e6 db 3c 6e 70 2f bd
       0.0067999833 -0.009349967 0.026843391 -0.04283183
000390 79 6a 1d bb 4f 4d 89 bd e6 80 fa bc 5b ff 72 bd
       -0.0024019761 -0.067041986 -0.030579042 -0.059325557
0003a0 9f 0e db 3c 5a f2 ad 3c 27 96 40 bd 32 b3 c3 bc
       0.02674037 0.021233726 -0.047018196 -0.023889158
0003b0 44 6e 46 bb 00 0f 01 3d 85 d0 a4 3c 64 4c 0f bc
       -0.0030278126 0.031508446 0.020118961 -0.00874624
0003c0 76 53 8a 3a b2 2d d0 3c 02 47 77 3b f9 54 34 bd
       0.0010553438 0.025412414 0.0037731533 -0.04402635
0003d0 88 7a 47 3d 30 bc 3a 3d 3e d7 d7 3c ae 8f 92 3c
       0.04870084 0.045589626 0.026347753 0.017890777
0003e0 19 97 3d bd 14 1a 27 bd af 7e fc 3b b8 02 79 bd
       -0.046286676 -0.040796354 0.0077055315 -0.06079361
0003f0 b9 4e 32 ba 31 bf de 3a 35 ed e0 3c ef 24 03 be
       -0.0006801892 0.0016994235 0.02745686 -0.12807058

action_model._continuous_distribution.mu.bias f4 [2]
000000 71 90 83 3d 57 75 71 3d
       0.064240344 0.058949795

action_model._discrete_distribution.branches.0.weight f4 [1, 128]
000000 12 5f 2d 3c f7 f5 24 3c 67 cf e7 3b 13 1c 38 3a
       0.010581749 0.010068408 0.007074285 0.00070232264
000010 91 ae a5 bb e7 7d 8f bc f0 c1 89 3b 86 f8 40 3b
       -0.0050562103 -0.01751609 0.0042040274 0.0029445007
000020 cb e9 a1 3b 8c e3 ba bb da 9f d1 3a f3 da 50 3b
       0.0049412004 -0.005703395 0.0015993074 0.0031868785
000030 67 6b 09 bc 97 2d 2a ba 80 21 9f bc aa ff 1b 39
       -0.008387423 -0.0006491779 -0.019425154 0.00014877194
000040 bd 52 71 bc 56 20 99 3a 3a 4d 33 bc b7 81 a7 bb
       -0.014729199 0.001168261 -0.010943705 -0.0051118988
000050 87 9f 86 ba c6 65 8c 3b 47 7f f5 ba ef dc fd 3b
       -0.0010270932 0.0042845933 -0.0018729948 0.0077472846
000060 e3 b2 8a 3b b9 72 45 3c 6f 54 47 3c 83 e7 56 bc
       0.0042327507 0.012051278 0.012166127 -0.01311672
000070 b7 10 39 bb 14 15 1b 3b c7 ab 23 3b 31 83 b4 3b
       -0.0028238723 0.0023663687 0.0024974213 0.0055088033
000080 4c f5 c3 3b 17 86 69 ba 7f 05 71 bc d4 d9 0f 3b
       0.0059801694 -0.00089082256 -0.014710783 0.0021949904
000090 77 40 44 bc 1f 45 7a 3a 3c d6 3a 3c 8f 5a 33 ba
       -0.01197826 0.0009547043 0.0114036165 -0.00068418024
0000a0 99 4a 81 3a 2e 64 c4 3b 47 a0 de 39 e8 5a 81 3c
       0.0009864151 0.0059933877 0.00042462556 0.015790418
0000b0 44 ab 89 3b 48 8a 0d 3c dd a1 ac ba f3 1e 03 bc
       0.0042013247 0.008638926 -0.0013170798 -0.008002984
0000c0 c5 3f 76 bb f5 3e 0c bc 25 ef f4 bb 26 3a 02 3b
       -0.003757463 -0.008559932 -0.0074747973 0.0019871085
0000d0 5b 90 12 bc 30 82 9e 3c e8 a0 39 3b b1 55 86 bb
       -0.00894555 0.019349188 0.0028324667 -0.0040995707
0000e0 79 ca 0b bc 72 ee 21 bb f4 64 4b 3c fb 19 8c 3b
       -0.00853216 -0.0024708775 0.012414206 0.004275558
0000f0 33 68 96 3b 73 ea b0 3c fb ad ee 3a 3c e8 05 3c
       0.0045900582 0.02159617 0.0018209809 0.008173045
000100 c3 cf 38 3b b3 a9 60 3c 6c 98 05 bb 30 a7 e5 3a
       0.0028200008 0.013712334 -0.002038504 0.0017521139
000110 4b 93 66 bb 8d 73 5c 3c ba 4e 3b 3c 1d 7c 63 bb
       -0.0035183008 0.013455284 0.011432344 -0.0034711428
000120 f0 e1 c5 3b 04 1a 10 3b 67 7f ef ba cf 79 b4 bb
       0.0060388967 0.0021988163 -0.0018272222 -0.005507685
000130 bb ae e8 39 91 d8 ae bb 13 1a dc b9 45 84 76 b9
       0.00044380673 -0.0053358753 -0.00041981097 -0.00023509662
000140 7f fb 60 3b 53 33 c5 3b b8 06 a8 ba 5d e6 c8 bb
       0.003432959 0.006018081 -0.0012819385 -0.006130977
000150 6b 2e 56 bc d3 f4 91 3b 77 ea 1c 3c db 39 5c bc
       -0.01307259 0.004454234 0.009577385 -0.013441528
000160 ad 83 45 3b 33 2a 54 bc da 7e 4b ba 1d c3 9b 3a
       0.00301383 -0.012949514 -0.0007762738 0.001188371
000170 63 80 0a 3a 4d f5 07 bb 91 a3 9c 3c 43 22 53 3c
       0.00052834133 -0.0020745576 0.019120963 0.012886587
000180 03 4d 3f 3c 1f d2 d4 bb 45 e3 20 bb 1d 83 d5 3b
       0.011676076 -0.006494775 -0.0024549526 0.006515874
000190 3d 2e a8 bb 7f 0e 16 3b ea e8 50 bc e0 8f 02 bc
       -0.005132465 0.0022896824 -0.012750844 -0.007968873
0001a0 be cb 43 3a a2 dc d5 bb 5c 1b 3a bc 7b 05 46 3c
       0.00074690196 -0.0065265456 -0.011359062 0.012086268
0001b0 ff c6 cf ba ea 6d ad bb 26 27 06 3c d9 e0 bd ba
       -0.0015852152 -0.005292644 0.008188045 -0.0014486565
0001c0 5e af 46 bb 37 62 a4 3c d7 a9 97 bb 49 b3 b3 3b
       -0.003031693 0.020066364 -0.004628401 0.005484019
0001d0 ad 08 c1 bb a6 50 41 3c cf c9 8e bb 57 8e 1b bc
       -0.005890927 0.011799013 -0.0043575536 -0.009494386
0001e0 8d 3d 76 bb 35 32 e4 ba c5 f5 83 3b 69 78 13 3a
       -0.0037573308 -0.0017409982 0.0040271007 0.00056255475
0001f0 47 56 14 3c c8 46 a5 bc 88 15 db bb ee e1 b5 bb
       0.009053773 -0.020175353 -0.0066859163 -0.0055506146

onnx::Div_70 f4 [6]
000000 25 71 9a 40 26 d0 9d 3a 46 8a 9b 40 54 74 cf 42
       4.8263116 0.0012040182 4.860629 103.7272
000010 b1 7b d7 41 0c 55 c4 42
       26.935396 98.16611
