results/Lia2/Lia2/Lia2-499959.onnx (onnx, 79204 bytes, 10 tensors)

network_body.observation_encoder.processors.0.normalizer.running_mean f4 [6]
000000 02 19 44 bd 00 00 00 00 fa c0 0a 3d 7b b1 c7 bf
       -0.04787541 0.0 0.033875443 -1.5601038
000010 b6 a0 c8 c0 5c 16 ee bf
       -6.269618 -1.8600574

network_body._body_endoder.seq_layers.0.weight f4 [128, 6]
000000 8d f0 3c 3e 6e c2 98 be 0b 33 2b bd c8 1d 81 be
       0.18451138 -0.29835838 -0.041796725 -0.25218034
000010 a2 85 aa be a3 a7 c3 bd 0d ea 09 bf 32 da 45 3e
       -0.3330508 -0.095534585 -0.5387276 0.19321516
000020 db 82 32 bf 0a d1 28 bf b9 55 51 be 97 99 83 3e
       -0.6973092 -0.6594397 -0.20442857 0.25703117
000030 e9 57 7d 3c f7 88 cd be a6 2a c5 be 7b 3b b5 3e
       0.015462854 -0.40143558 -0.385091 0.35396942
000040 82 c8 5e be 3c 31 42 3e 58 b3 f0 be 40 43 03 bf
       -0.21756175 0.18964094 -0.47011828 -0.5127449
000050 95 1a c5 be f1 49 17 bf b5 ad a9 be 68 ee cd be
       -0.38496843 -0.590972 -0.3314034 -0.40220952
000060 37 63 87 be a1 73 de 3e 16 55 31 3f ff 60 ae 3e
       -0.26442882 0.43447593 0.69270456 0.34058377
000070 e8 2d 40 3e ae de cf 3e 05 7c 8f 3d 25 07 5f 3e
       0.18767512 0.4059958 0.07006077 0.21780069
000080 81 01 3b 3e 46 8f 12 be 0e 8f 2f 3e 39 c6 8e bf
       0.18262292 -0.14312467 0.17144415 -1.1154243
000090 09 93 98 be 1a 6a c4 3e 89 21 2d 3f 96 8b 52 3e
       -0.2979968 0.383622 0.67629296 0.2056106
0000a0 b6 bc 41 3f 4b ed 23 3f 93 c0 8a bd 6e b8 f0 3e
       0.75678575 0.64033955 -0.06775012 0.4701571
0000b0 a7 83 0f 3e 1b 74 1f 3f 0e 66 bb 3d fb d7 a1 3e
       0.14015065 0.6228654 0.09150325 0.31610093
0000c0 de a7 5f be 35 e0 00 3f 27 72 71 3e df 24 23 bf
       -0.2184138 0.5034211 0.23578702 -0.63728136
0000d0 10 20 90 3e 24 4f 20 be 17 9f 2e bf 6e ea 46 be
       0.28149462 -0.1565519 -0.682115 -0.19425365
0000e0 d3 cc 65 3e 0a 9c 04 3f 42 f5 1a 3f c3 4b 48 be
       0.22441415 0.51800597 0.60530484 -0.19560151
0000f0 0b 78 87 3d 3c 8f f7 be 68 6e 41 3f 98 33 36 3d
       0.06614693 -0.48351467 0.7555909 0.044482797
000100 55 15 e4 bd 95 93 c2 be 1c 5a 76 3e 1e fa 2a bd
       -0.11136881 -0.3800322 0.24057811 -0.041742437
000110 31 87 97 be 90 58 c9 bd 7f 10 7c 3f c0 66 ff 3e
       -0.2959533 -0.09831345 0.9846267 0.4988308
000120 42 30 55 3e db 48 b4 bb 6f dc 8b be fe d7 86 be
       0.2081919 -0.005501849 -0.27316615 -0.26336664
000130 12 4d ea be 71 b3 53 bf 14 04 02 bf 65 74 e6 3e
       -0.45761925 -0.8269568 -0.5078747 0.45010677
000140 50 af 66 3e b5 55 2b bf f2 4a 1b 3e db 76 44 3d
       0.22527814 -0.66927654 0.15165308 0.047964912
000150 05 20 95 bd 5e d2 86 bf ff 8c 6f be 8f d2 88 3e
       -0.07281498 -1.0532949 -0.2339363 0.26723143
000160 2d 18 73 3f 6f 79 3a 3e 1d cc 3d 3e 53 7e 25 3d
       0.94958764 0.18210386 0.18534894 0.040403675
000170 7f 54 66 3f b3 44 29 3e e3 c6 24 3d d6 a5 d5 be
       0.8997268 0.16530113 0.040228736 -0.41728085
000180 17 52 b9 bd f0 fd 93 3e 05 9b b9 be 23 ca 82 be
       -0.090488605 0.28904676 -0.36251083 -0.25544843
000190 a8 10 d0 3d f2 e0 81 3d d3 4f b1 bd 5f 5d 4b 3e
       0.10159427 0.06341733 -0.086578034 0.19859837
0001a0 6a 2f 0c 3e 59 df 1b 3f 80 51 d8 be 9b 89 17 3f
       0.13689962 0.60887676 -0.4224968 0.59194344
0001b0 b8 92 11 3e 09 0e f3 be ab f6 d3 be 8d a2 16 3e
       0.14216125 -0.47471645 -0.4139913 0.14710446
0001c0 15 b8 36 be d1 ba 60 3f 53 5d 47 3e 60 4a 4b 3d
       -0.17843659 0.8778506 0.19469194 0.049631476
0001d0 1b b1 8e 3e 61 17 c0 be 56 bc 81 3e 04 ff 2d 3f
       0.27869496 -0.37517837 0.25339 0.6796725
0001e0 61 69 2e 3f 24 82 2b 3e d5 a0 c2 ba 4f 94 72 bc
       0.68129545 0.16748863 -0.0014848957 -0.014805867
0001f0 d8 a0 7f 3e 67 78 f3 3e a8 1e 98 3e 8a 19 ad 3c
       0.24963701 0.47552797 0.2971089 0.021130342
000200 9f 4a 30 3e ca ac 86 bd 44 8b 06 bf 08 a6 91 be
       0.17215966 -0.06575926 -0.5255625 -0.28446984
000210 05 bf a5 3d e9 14 28 bf ee 3b f5 3e fd 01 8e be
       0.08093075 -0.65656906 0.47897285 -0.27735892
000220 19 52 92 bd 2b 61 23 bf 31 8c 21 bf 77 54 e6 bd
       -0.07144565 -0.6382014 -0.6310454 -0.11246579
000230 45 87 58 be 70 33 d1 3e a3 5e 04 3f 62 af 2d bf
       -0.21145351 0.40859556 0.51706904 -0.6784574
000240 2c d1 8d be a1 96 d0 be fe d3 22 be 18 94 69 3f
       -0.27698648 -0.4073992 -0.15901181 0.912416
000250 55 da c7 be bd a4 c1 3d 5b ee 7e bd ad 45 24 3e
       -0.39033762 0.094552495 -0.062239032 0.16042204
000260 ef 4a 1e bf 78 9f 87 3e 38 4e 18 3f 37 82 9c be
       -0.6183309 0.26488853 0.5949435 -0.30568096
000270 80 eb 7d be 74 5a 68 3d 12 33 2d be cf 63 a2 3c
       -0.24796867 0.056726888 -0.16914013 0.019822983
000280 64 bc f0 3d 8b e5 0b 3f 50 52 1a 3e 9d 19 2c be
       0.11754683 0.5464713 0.15070462 -0.16806646
000290 16 0b 7b bc 72 77 ea be 45 f5 38 be bd 92 1b 3d
       -0.015322467 -0.45794255 -0.18062313 0.037981737
0002a0 ea 06 8f bd 7b 25 f5 3e c3 40 f0 3e 87 a7 02 bf
       -0.06983741 0.47880158 0.4692441 -0.51036876
0002b0 f6 b1 5f 3e aa c7 83 be 1b b2 41 be b9 f5 39 be
       0.2184523 -0.2573827 -0.18915598 -0.18160142
0002c0 61 ca f6 bd 50 32 bf 3e 4f 91 6e 3e 76 6b d9 3e
       -0.120503195 0.37343073 0.23297618 0.424648
0002d0 58 9b 10 3e e0 b9 32 be cb e7 b2 3e b1 f8 36 3f
       0.14121759 -0.17453718 0.3494247 0.7147322
0002e0 3b fb a9 be 70 06 01 be 15 10 5d 3b 01 75 63 3f
       -0.33199486 -0.12600112 0.003373151 0.8885041
0002f0 3a da 64 3f c2 5a ee bc cc 1c c1 3e a4 5d 8b bd
       0.8939549 -0.029096011 0.37717283 -0.0680497
000300 fc 59 9d bd b7 28 08 3d 95 4d 20 3d 68 23 c5 3e
       -0.07683179 0.033241954 0.039136488 0.38503575
000310 0e 5e 37 be ca 98 69 3e 88 09 a1 3e 43 3d 65 be
       -0.17906973 0.2281219 0.31452584 -0.2238665
000320 fb 58 29 3e cd 42 5b bf df 65 6c bf 9d 2a 4e bf
       0.1653785 -0.85648805 -0.9234294 -0.8053377
000330 39 77 93 bc 37 0e 26 3f 4c 61 14 bd f6 79 29 3e
       -0.018001186 0.6486544 -0.036225602 0.1655043
000340 d4 56 61 3e 96 cd 1a bf dc 75 b1 be be e5 4e bf
       0.22005779 -0.6046995 -0.34660232 -0.8081931
000350 e9 ad 40 3e 25 59 06 be 65 c0 80 bf 9d b6 07 3e
       0.18816341 -0.13119943 -1.0058714 0.13253255
000360 8d dd 96 3d 5d a1 0e 3e b4 07 a3 3e 20 c9 89 3e
       0.07366476 0.13928743 0.31841815 0.2691126
000370 01 20 c1 3d 36 68 94 be a1 f2 cd bd 91 84 54 3e
       0.094299324 -0.28985757 -0.100560434 0.20753695
000380 0b f2 47 3e e8 8e ea be 68 86 e3 be 59 be a9 3d
       0.19525926 -0.45812154 -0.4443848 0.08288259
000390 45 c9 13 3d 10 8b 46 3e 01 b6 80 3d 1c 5f ab 3e
       0.036080617 0.19388986 0.062847145 0.33471
0003a0 72 e9 11 bf 66 63 18 3e e9 3b 92 3e b6 55 10 3f
       -0.56996834 0.14881667 0.28561333 0.56380785
0003b0 48 bb bc 3e d9 76 dd be 04 48 fb bd 21 47 84 3d
       0.36861634 -0.43254736 -0.12269595 0.06458879
0003c0 42 5d 90 3e 55 ba 1b 3f af 70 48 bd 35 20 9a bc
       0.2819615 0.60831195 -0.04893559 -0.018814186
0003d0 87 3f 13 bf 6d 74 9f 3e 40 0a e0 bd f5 32 a2 bd
       -0.5751881 0.31143513 -0.10939455 -0.079198755
0003e0 8e da 1f 3f 3a 25 0f 3f d9 b3 05 be 02 90 36 3f
       0.62442863 0.5591618 -0.13056888 0.7131349
0003f0 b9 69 51 3d 27 6f 88 bc 7f 74 cf be 34 d6 30 3e
       0.051126216 -0.016654564 -0.40518567 0.17269212

network_body._body_endoder.seq_layers.0.bias f4 [128]
000000 c8 31 92 3d c2 eb 9e 3d 35 5d a9 bd 50 ce a7 bd
       0.07138401 0.07759811 -0.08269731 -0.08193648
000010 29 e7 7f bd ef 53 16 be 61 c2 fc bd 8a 8a c5 bd
       -0.06247631 -0.14680456 -0.12341762 -0.09645565
000020 7d 73 8a bd a9 3b a4 bd b7 e0 f6 3c f2 77 52 3c
       -0.06760309 -0.08019192 0.03013645 0.01284598
000030 c8 80 3f be 14 65 b0 bd 84 e9 9f bd c5 ea 31 3d
       -0.1870147 -0.08613029 -0.078082114 0.043436784
000040 9e 46 3d 3d 71 15 85 bd c3 d3 a4 bd 34 c6 01 bd
       0.046209924 -0.0649823 -0.08048203 -0.03168316
000050 ac 10 87 3d b3 ae a9 3d 96 b9 52 bd 3d 10 c6 bd
       0.06594977 0.08285274 -0.05144652 -0.09671066
000060 71 7c aa bd ab eb 89 bd bd 88 93 bd 05 aa f1 3d
       -0.083245166 -0.06734403 -0.07203815 0.11800007
000070 12 d7 a0 bd 4e 0a ab bd 4d 59 4e bd 0a 25 7e bd
       -0.078535214 -0.08351575 -0.050378133 -0.062047042
000080 a6 dd c9 bd 9a 61 bd bd d3 27 e6 bd a9 e2 d9 bd
       -0.09856729 -0.09247132 -0.112380646 -0.10638935
000090 94 2c 60 3d 1c be 36 3c 67 34 a1 bd af 3c 97 3c
       0.054730013 0.011153724 -0.07871323 0.018461553
0000a0 ce c5 e7 3c 9c c4 86 bd 0c 9f 13 be 9c 26 46 bc
       0.028292563 -0.06580469 -0.1441614 -0.012094166
0000b0 37 18 44 bd 34 f3 bc bc 31 f2 66 3d 27 3e ae 3d
       -0.047874656 -0.023065187 0.056383315 0.08507948
0000c0 2c 17 17 3d d4 f9 1b 3d 03 67 49 bd aa ae 54 bd
       0.036887333 0.03808005 -0.049170505 -0.051924385
0000d0 b7 21 cd bd 4f 4d 82 3c 23 94 18 3d 50 05 c0 bd
       -0.10016196 0.015906004 0.03725065 -0.09376013
0000e0 47 ea fd 3c 0e 1d 1a bb 33 80 f2 bc 21 be cb bd
       0.030995501 -0.0023515853 -0.029602146 -0.099483736
0000f0 e0 a1 48 bd ee 70 a2 bd 42 38 98 3d 31 a4 ea bd
       -0.0489825 -0.07931696 0.07432605 -0.11457098
000100 88 9b b1 3c 96 5d c2 bd c0 6a 91 bd b3 10 81 3d
       0.021680608 -0.09490506 -0.07100439 0.06302013
000110 49 e6 6a 3d 0f d3 e0 bd 82 76 12 bd f7 f7 58 3d
       0.057348523 -0.10977756 -0.03575755 0.052970853
000120 22 68 05 bc 81 9d 81 3c d3 a4 25 be a7 8c d8 bd
       -0.008142503 0.015822174 -0.16176157 -0.10573702
000130 73 f3 bb 3c 31 b3 65 3c f4 48 13 be 19 c9 95 3d
       0.022943234 0.014019773 -0.14383298 0.07313747
000140 0e c9 06 3e 94 20 0b 3d 03 db df bd b6 67 5d bd
       0.13162634 0.033966616 -0.10930445 -0.054053985
000150 ae 9d 0c bd b1 c2 e8 bd 66 e4 97 3d c8 97 9d bd
       -0.034330063 -0.113652594 0.074166104 -0.076949656
000160 c7 b2 31 bd 9a c1 fc bd 06 54 fe bc ff 74 ec bd
       -0.043383386 -0.12341614 -0.031045925 -0.11545753
000170 89 24 5f bd d9 26 c2 bd 6e 8c 8f 3b 93 73 85 3d
       -0.054478202 -0.09480066 0.004380754 0.06516185
000180 42 82 ed bd 0a cd 94 bd 10 ee e1 bd 99 fa 7b bd
       -0.1159711 -0.072656706 -0.11031735 -0.061518285
000190 0e 14 96 bd ac 87 c6 3d f5 ea 52 3d d8 cd bb bc
       -0.07328044 0.09693846 0.051493604 -0.022925302
0001a0 c4 d5 21 bd 07 35 6b bd 6c 3b 61 3d 5c da 3d bc
       -0.039510503 -0.057423618 0.05498831 -0.011587705
0001b0 ad 6d 07 bc ee 4f 2a be 97 5b c5 bd dc 03 2b be
       -0.008265895 -0.16632053 -0.0963661 -0.16700691
0001c0 90 33 99 bd 72 82 b9 bd ad 8f a9 bd 47 8e bf bd
       -0.07480538 -0.090580836 -0.08279357 -0.09353309
0001d0 5f af bf 3d 44 45 52 bc df e6 3a bd 8b 17 40 3d
       0.09359621 -0.012833897 -0.045630332 0.046897452
0001e0 f3 c1 98 3d df 23 08 3e 31 98 0b be 1d 6c bb 3d
       0.07458868 0.13294934 -0.13632275 0.0915148
0001f0 24 ee f5 3d a5 8b 63 bd 09 c7 b3 bc e7 1c fe bd
       0.12008312 -0.055553097 -0.021945493 -0.124078564

network_body._body_endoder.seq_layers.2.weight f4 [128, 128]
000000 4f fb 93 bc 1b 99 0e be db 5f 50 3d a9 87 84 3d
       -0.01806417 -0.13925593 0.050872665 0.064711876
000010 b1 07 9c bd ec d4 dd bb ab 93 4e bd 13 36 8a bd
       -0.076186545 -0.006769767 -0.050433796 -0.06748595
000020 f3 20 c7 bd be 64 29 3e 84 b8 c7 3d 50 94 f8 bd
       -0.097230814 0.16542336 0.097519904 -0.12137663
000030 4d 57 05 bd c9 40 b5 bc 84 3a 41 be 23 f5 4e ba
       -0.03255396 -0.022125619 -0.18869978 -0.00078948046
000040 6a 41 c4 bd 9c b9 b3 3c 4f b1 f8 bc 2a ec 17 bc
       -0.09582789 0.021939091 -0.030357985 -0.0092726145
000050 4c 6d cd bc 58 8c a0 bd 3c fe 81 3d 32 6f cc 3d
       -0.02507653 -0.078392684 0.063473195 0.09982146
000060 d7 ae 32 bd 72 d0 a6 bc a8 ac b8 bd 2b 4c 8b bd
       -0.04362377 -0.020363066 -0.090173066 -0.06801637
000070 e7 67 96 bd c6 43 25 3d f6 24 98 3d 3b 6c e0 3c
       -0.073440365 0.040347837 0.07428925 0.027395358
000080 a7 3b b8 bd 22 f4 87 bc d9 e6 af 3d ed 70 aa bd
       -0.08995753 -0.016595904 0.085889526 -0.0832232
000090 73 f9 06 3e 43 65 ad 3c 41 8a 34 be ef 60 5b 3d
       0.13181095 0.02116645 -0.17630865 0.05355924
0000a0 a6 3b 32 bd c7 f7 b5 bc 26 8b 54 be bc 63 9e 3d
       -0.043513916 -0.022212876 -0.20756206 0.077338666
0000b0 d7 2c 4b bd fe b4 0e 3d c6 08 c4 bb 71 79 94 3c
       -0.04960331 0.034840576 -0.005982491 0.018124314
0000c0 b4 f2 55 bd 1b 5e 1a be b1 30 0f 3d c7 40 da bd
       -0.052233413 -0.15074961 0.034958545 -0.106568865
0000d0 e4 13 57 3d b9 3c 01 bd 1f 8c 6b 3d bb 82 b8 bd
       0.052509204 -0.03155205 0.057506677 -0.0900931
0000e0 3c 17 86 bd 5f 7c 96 3d 8b 0d 0b be 13 84 19 3e
       -0.065474 0.07347941 -0.13579385 0.14991789
0000f0 09 58 6e 3c b0 10 c4 3d 3c b0 83 bd 30 f0 e5 bb
       0.014547356 0.095734954 -0.064300984 -0.007017158
000100 f1 a1 41 3d 54 7b e3 3c 91 f9 2b 3c 2d dd af 3d
       0.04727358 0.027768768 0.010496513 0.08587108
000110 ab 2b ca 3c 96 31 e5 bc 4a 68 38 be ba 87 f8 3d
       0.024679026 -0.027977746 -0.18008533 0.12135263
000120 45 73 41 bb 3c 7e 06 bd 0f 76 fb 3a 46 cd bd bd
       -0.002951817 -0.03283523 0.0019184964 -0.092676684
000130 bb 8a 11 be f2 6b 0a be ce 88 23 3e 97 69 3e 3e
       -0.14213078 -0.1351774 0.15970156 0.18594967
000140 fd dc c9 bd ec 96 1c 3d a0 81 df 3d e3 e7 f8 3d
       -0.09856603 0.038229868 0.10913396 0.12153604
000150 8d a2 cd bc 06 67 09 3e 82 fc 12 3d 07 4d 03 be
       -0.025101924 0.13418207 0.03588534 -0.12822352
000160 31 d8 81 bd ec c5 22 be 4d 70 8f bd 25 a9 e1 bd
       -0.06340063 -0.15895814 -0.070038415 -0.1101859
000170 d5 4c dd 3c 19 1b be bd 73 85 93 3c 07 5d 6b 3d
       0.027014175 -0.09282512 0.01800797 0.057461765
000180 83 8c 12 3d 66 6c 90 bc a8 a7 3b bb e4 6e e8 bd
       0.035778534 -0.017629813 -0.0028633866 -0.11349276
000190 d9 cc a7 3d 4c 1d 45 be b6 f3 98 3c 01 db 88 bc
       0.081933685 -0.19249457 0.018670898 -0.016705992
0001a0 4f 5e 49 bd 99 c0 f0 bc d0 e8 69 3d fa bd 8b 3c
       -0.049162205 -0.029388713 0.057106793 0.017058361
0001b0 ab 51 05 3e 19 59 a7 3d 6e 0f 05 3e 3b 80 3b 3e
       0.13019435 0.08171291 0.12994167 0.18310635
0001c0 af a0 98 3c 89 a1 03 be 8e 8b 7d 3c 72 26 0c 3e
       0.018631307 -0.1285459 0.015475167 0.1368654
0001d0 56 4b b6 3d c6 11 36 3d 5b 80 ef bd 4c 3f 8c 3b
       0.08901088 0.044450544 -0.11694404 0.0042800065
0001e0 3d 9f 29 be 41 e4 a1 3d de 8f 7a 3d c1 99 fe 3d
       -0.16564651 0.07904864 0.06117236 0.1243167
0001f0 01 20 45 bd 23 4f 1b 3e 08 31 6f bd db 26 c6 bd
       -0.048126224 0.15166907 -0.05839637 -0.0967538
000200 21 fd 07 be 51 52 36 bd 99 be cd bd ed 12 7d 3c
       -0.13280155 -0.044512097 -0.10046119 0.015446407
000210 80 e6 bf 3d 14 c5 eb 3c 89 2e fa 3c 9c b6 3f 3e
       0.09370136 0.028780498 0.030539768 0.18722004
000220 25 bb 93 bc 66 28 f9 3d 65 2b 3a be f1 ce f8 bd
       -0.018033573 0.121659085 -0.18180616 -0.12148846
000230 fd 3b 8f 3d e5 10 ed 3d c7 12 4c 3e 8a e5 9c 3c
       0.06993864 0.11575488 0.19929038 0.019152422
000240 de 01 90 bd 5d 6a 35 3e 74 18 1c 3e 74 8d c8 bd
       -0.07031606 0.17716356 0.15243703 -0.09792605
000250 9c 73 62 be cc 27 0e be 3d ac 0d be 74 a2 45 3e
       -0.22114414 -0.13882369 -0.13835235 0.19300252
000260 60 ee 3b 3e f8 3f 31 3e 8b 0a c3 3d 5b f2 80 be
       0.18352652 0.17309558 0.09523495 -0.25184903
000270 cd ba a0 3c e6 5e bb 3e c0 e4 ea 3d 44 39 9b 3c
       0.019620324 0.3659584 0.11469412 0.018948205
000280 fd bf 41 3e 0b 67 95 bd 92 1f 4a bd f7 2d ab bb
       0.18920894 -0.072950445 -0.049346514 -0.0052239853
000290 fa 25 4a be b0 11 25 be 1e c5 62 bd 1c 31 fd ba
       -0.1974105 -0.16120028 -0.055363767 -0.0019317004
0002a0 d1 6d f8 bc 3f 10 7b 3c f4 1b 86 3c c2 fd a5 bd
       -0.030325802 0.015323698 0.016370751 -0.08105041
0002b0 b2 11 ce bd bb 2e 0e 3b 4d 36 57 bd ba fc 9b bd
       -0.10061969 0.0021695334 -0.05254202 -0.07616563
0002c0 58 d4 46 be 41 02 c3 3b 7d c2 50 3e f9 1b 02 3e
       -0.1941694 0.0059511964 0.20386691 0.12705983
0002d0 34 b5 dd bd 7e 15 37 3d 15 26 17 be 99 93 5d 3c
       -0.108255774 0.04469823 -0.14760621 0.01352396
0002e0 fe 86 af 3b 18 eb dc bd 00 8b f4 bd 90 34 65 3e
       0.0053566685 -0.10787028 -0.11940575 0.22383332
0002f0 84 e2 00 3e 76 3e 02 be 4d 14 e2 bd 1f 00 3d 3d
       0.12586409 -0.1271914 -0.11039028 0.046142694
000300 ae dc 14 be c2 61 04 bd e1 b2 1c 3e bc 4e b0 bb
       -0.14537308 -0.03231979 0.15302612 -0.0053804796
000310 a9 03 96 be 6f dc 2f bc 08 28 c7 bd 12 8d f9 bc
       -0.29299667 -0.010733708 -0.09724432 -0.030462775
000320 96 ae cd 3d 1d 6b 29 bd 45 29 5a 3c 42 cc 0a 3e
       0.10043065 -0.041361917 0.0133155035 0.1355448
000330 85 f2 62 be 35 84 22 bd 23 c6 8d bd bd ec c7 bd
       -0.22162826 -0.039676864 -0.06922557 -0.09761951
000340 f0 e4 f1 3b 39 a3 0a be b9 f8 ae 3d 56 4b 25 3c
       0.007382028 -0.13538827 0.08543534 0.010088762
000350 1a 1f f8 3c f5 53 0c 3e 63 fa 22 be 3d 94 e5 bd
       0.030288268 0.13703902 -0.15915827 -0.11209915
000360 47 57 9a 3c b8 6f 7f 3d 31 e3 56 be 52 2a 81 bd
       0.018840445 0.062362403 -0.20985104 -0.063069
000370 f7 ab 4c 3c f5 2a 64 bd 88 87 a6 3c 51 86 b8 bd
       0.0124921715 -0.05570503 0.020328298 -0.09009994
000380 61 59 63 bb a2 fb bf bd 36 6b 20 bd c9 ce 37 3d
       -0.0034690725 -0.09374167 -0.039164744 0.04487494
000390 93 5f 8b bb 3b 00 ab bd a7 09 2c ba 9b d2 ff ba
       -0.0042533367 -0.08349653 -0.00065627176 -0.0019517721
0003a0 e8 57 58 3e 2b 5d c1 bd 09 e1 9e bd e5 58 d4 bd
       0.21127284 -0.094415985 -0.07757766 -0.10368518
0003b0 ae e4 06 3e ab 4e 1d 3d f5 3a 8e bc 0b 09 c4 bc
       0.13173172 0.0384051 -0.017362097 -0.023930093
0003c0 c0 08 90 3e a3 0c a8 3d 0b dd d2 ba e0 54 f0 3c
       0.28131676 0.08205535 -0.0016087604 0.029337347
0003d0 8c b4 75 bd 7d cc 82 be a9 bc f0 bc 1f 48 f4 bd
       -0.059986636 -0.25546637 -0.029386835 -0.119278185
0003e0 9b 64 ad bc 9c 7a 3c be 4d 16 29 bd 95 d1 51 3d
       -0.021166136 -0.18406147 -0.041281033 0.051225264
0003f0 2a f9 1b be b1 46 36 3e a9 8c 21 bc f5 28 35 bc
       -0.15231767 0.17800404 -0.009860196 -0.011057128

network_body._body_endoder.seq_layers.2.bias f4 [128]
000000 78 2f 82 3d 09 2b c1 bd b7 e4 f6 3d 9d 5f 16 bd
       0.0635671 -0.094320364 0.12055343 -0.036712278
000010 84 fc ce 3d f7 1c 02 3e 70 80 e8 3d 9b 05 9e bd
       0.10106757 0.12706362 0.113526225 -0.07715913
000020 18 44 07 3e 84 30 bb 3d c6 32 1e 3d f1 02 21 bd
       0.1320957 0.09140113 0.03862264 -0.039309446
000030 a7 1c d4 bd 29 b3 6f 3d 7e 4e 4a bd 17 24 9f bd
       -0.103570275 0.05852047 -0.049391262 -0.077705555
000040 2d ff af bd 39 53 e6 bd 5c 08 10 bd 8f 98 e7 bd
       -0.08593593 -0.11246342 -0.035164222 -0.11308395
000050 6d 48 a2 bd de d0 79 bd c7 2b 77 bc b1 12 4b 3d
       -0.0792397 -0.060990207 -0.015086121 0.049578372
000060 f9 f8 70 bd 22 06 cb bd 72 94 b4 bc ae aa 0e 3e
       -0.05883119 -0.09913279 -0.02204344 0.13932297
000070 b2 49 1d 3e c4 ec 11 bc 8d 78 84 bd 2e ae c2 3d
       0.15360144 -0.008906547 -0.06468306 0.095058784
000080 2e 94 c4 3c cd df 5e bc ee 70 55 3d 8e c1 27 3e
       0.023996439 -0.013603163 0.05210965 0.16382429
000090 8a 58 2c 3d ad 3c b4 3d 9b 98 78 3d 02 72 5e bd
       0.042076625 0.088006355 0.06069241 -0.054307945
0000a0 db 9e 8b bd 3e 21 8c bd 39 13 9a bd 60 24 65 bd
       -0.06817409 -0.06842278 -0.07523198 -0.055942893
0000b0 98 10 c6 3d 14 c3 b9 3d e1 20 8c bb 56 e1 94 3d
       0.09671134 0.09070411 -0.0042763804 0.07269542
0000c0 e7 86 fb 3c 2a 17 2e 3d 33 48 ce bd 6d 2a 8b bd
       0.030703975 0.04250256 -0.10072365 -0.067952015
0000d0 28 86 cc 3d b7 fa 00 be 20 0e 07 be 1b 55 d8 bc
       0.09986526 -0.1259564 -0.13188982 -0.026407769
0000e0 9f b3 7f 3d 57 52 19 be 29 e4 d0 3c 96 2b 95 bd
       0.06242716 -0.14972816 0.02549942 -0.07283704
0000f0 11 31 df 3c 8b a9 18 be 06 fe d6 3d da 14 68 3d
       0.027245076 -0.14908426 0.1049767 0.05666051
000100 f3 3e e2 bd a9 51 27 bd 74 4b 32 3e 75 cc 65 3c
       -0.11047163 -0.04084936 0.17411596 0.014025797
000110 fd 33 0b 3e 7c b8 aa bd 08 62 7c bd c1 07 8c 3d
       0.1359405 -0.08335969 -0.061616927 0.068374164
000120 f6 af 14 3e 45 8a d0 3d eb aa 88 3d 4c 10 be 3d
       0.14520249 0.10182623 0.06673225 0.09280452
000130 9d 5b 1d bc c5 11 1e 3e 90 c3 88 bd 1f 89 e6 3d
       -0.009604362 0.15436466 -0.066779256 0.112566225
000140 47 fa be bd 56 48 e0 3d cf a6 98 3d 96 e3 e7 bd
       -0.0932508 0.10951297 0.07453691 -0.113227054
000150 eb 0c 51 bd 69 b5 21 3d a7 75 73 bd a2 87 c0 bd
       -0.05103771 0.039479647 -0.059438374 -0.0940087
000160 66 32 04 be 33 9f a3 bd 1d 1c 0b 3e 1a a7 45 3c
       -0.1290985 -0.07989349 0.13584943 0.012063766
000170 7b 00 5e bd 3b 50 8d bd ee f6 f4 3d 79 49 af bd
       -0.054199677 -0.06900068 0.119611606 -0.08558936
000180 19 0c f6 bc 2f 33 71 bd 2f 2e a3 bc 2c 3c 93 bd
       -0.030035065 -0.058886703 -0.019919483 -0.07189211
000190 68 da a2 3d 57 53 88 bc e5 bf 96 bd 25 14 6a 3c
       0.07951814 -0.016641302 -0.0736082 0.014287029
0001a0 72 0d b8 bd 58 b0 f4 3c d6 36 8c bd 84 15 db bd
       -0.089869395 0.029869244 -0.068463966 -0.10697463
0001b0 60 b5 a7 bc 8a 77 1f bd e8 e1 01 bd 8d 1c f9 bd
       -0.020472229 -0.03893236 -0.03170958 -0.12163649
0001c0 10 55 a5 bd 67 32 46 3d 92 9e 31 bd 8e 53 af bd
       -0.08072865 0.04838791 -0.043364115 -0.08560859
0001d0 20 46 77 bb 59 0d d3 bd 24 09 47 bd 2e b0 be 3d
       -0.0037731007 -0.1030528 -0.0485927 0.09310947
0001e0 c8 e2 9c bd 05 ba 2e 3c 5a 5c 5f bd db b0 42 bd
       -0.076604426 0.010664468 -0.054531433 -0.047531944
0001f0 7f 3a e3 bd be 0d 80 bd 28 3b bc bd 49 6e 5d bd
       -0.110951416 -0.06252621 -0.09190971 -0.054060254

action_model._continuous_distribution.log_sigma f4 [1, 2]
000000 e2 44 d9 bd c9 50 dd bd
       -0.106088415 -0.10806424

action_model._continuous_distribution.mu.weight f4 [2, 128]
000000 ab c5 2f 3c 31 76 d2 bd f8 1e e2 3d c4 6a 38 bc
       0.01072828 -0.102764495 0.11041063 -0.011255924
000010 a0 f2 ab b9 23 cb 89 3d 46 65 b9 3d 6a 7c 29 bd
       -0.0003279643 0.067281984 0.090525195 -0.041378416
000020 cf 74 eb 3d 96 10 4d 3c 92 63 a8 3b d8 a9 9e bd
       0.11496889 0.012516161 0.005138823 -0.07747239
000030 6c 67 41 bd 35 1a 56 3d 06 1f 33 3a 1d f6 7c bb
       -0.04721777 0.052271087 0.0006832931 -0.0038598843
000040 33 fc 94 bd 6a 90 23 3c 1e 67 5f bc c2 3a 4a ba
       -0.07274666 0.009983161 -0.013635425 -0.0007714444
000050 55 29 e9 ba 61 95 b4 ba 5a e6 84 3c 50 43 49 3d
       -0.0017788807 -0.0013777429 0.016223121 0.04913646
000060 13 a2 3f bd 38 43 fe bc d3 2b 6b bd c1 a3 1a 3e
       -0.046785425 -0.031037912 -0.05741484 0.1510153
000070 e8 2c a6 3d 7c ef a4 bc 27 b6 bf bc 26 c3 d9 3d
       0.08114034 -0.020133726 -0.023402287 0.10632925
000080 9f de c3 bb 52 14 f3 bc 67 8f 29 3d 0c ab 1e 3e
       -0.0059774662 -0.029672775 0.041396525 0.15494937
000090 67 1e c2 3b d1 3f bb 3d d5 85 0e 3c e1 70 82 bd
       0.0059240344 0.091430314 0.0086989 -0.06369186
0000a0 cf 40 ad bd 1a 2a 0e bd 32 3e 15 bc ff 19 12 bd
       -0.08459627 -0.03470812 -0.009109067 -0.035669323
0000b0 d9 7b 89 3d 12 e6 15 3c d1 e6 21 3c c0 11 64 3d
       0.06713075 0.009149091 0.009881691 0.05568099
0000c0 3d a0 22 bc eb 16 02 3c 94 71 f5 bb de 83 56 bd
       -0.009925899 0.007940034 -0.007490346 -0.052371852
0000d0 a3 49 4a 3d e1 d7 02 3c ee a2 d6 bc 55 a9 cb bd
       0.04938663 0.00798604 -0.026200738 -0.09944407
0000e0 95 cc a1 3b c7 ad 0f 39 7b 23 31 3d 81 f4 4b bb
       0.004937718 0.0001370228 0.043246727 -0.0031121077
0000f0 15 49 47 3c 69 24 b3 bb d4 43 c3 3d 16 40 d2 3b
       0.01216342 -0.005466987 0.095344216 0.006416331
000100 22 09 1c bc 26 01 27 3c f9 a1 2e 3e 9c 37 15 3d
       -0.009523662 0.010193145 0.17053975 0.036429986
000110 14 b2 9d 3d ef 7b 50 3c dd 75 d3 3b ec f3 8b 3d
       0.07699981 0.012724861 0.0064532594 0.06833634
000120 4e 50 bd 3d 8f c9 d3 3d a5 77 16 bc b4 6f c3 3c
       0.092438325 0.103411786 -0.009183799 0.023856975
000130 99 cc f2 b8 31 16 d6 3d dc 83 99 bb 75 73 e5 3d
       -0.000115775685 0.104534514 -0.0046849083 0.11203662
000140 ea 3c 3f bb fa 79 42 3d 2d fb 23 3c d3 b1 df 39
       -0.0029180595 0.047479607 0.010008615 0.00042666364
000150 38 81 0e bd 3a d5 7d 3c 53 c5 0c be 7e 73 06 be
       -0.0347912 0.015492732 -0.13747148 -0.13129994
000160 31 1e ad 3b 26 99 41 bd 9a 45 0f 3e 4f 22 fc 3c
       0.00528314 -0.047265194 0.13991395 0.030778078
000170 ba 11 04 bc 89 4b 21 bd c1 f4 cb 3d d3 ce 9d bc
       -0.008060867 -0.039378677 0.099587925 -0.01926366
000180 7e 5c 32 bc 03 7b 74 bd 9b c9 b3 bc 7e 5f d2 bd
       -0.01088631 -0.059687626 -0.021946719 -0.1027212
000190 00 ee 29 3d 9f 24 00 3c b5 fd 13 bd 40 73 a4 bc
       0.04148674 0.007821231 -0.036130626 -0.020074487
0001a0 50 7d 26 bd 06 73 8c 3c 00 b6 31 be ca 4f bd 38
       -0.04064685 0.017144691 -0.17354584 9.027084e-05
0001b0 89 4b 26 bd 15 61 10 bd e4 3a 2c bd a0 9c e9 bb
       -0.04059938 -0.035248835 -0.04204835 -0.007129267
0001c0 51 c2 39 bd 4d 1c 53 3d 4f 39 8f bb 90 c6 08 bd
       -0.04535133 0.05154066 -0.0043708454 -0.03339249
0001d0 1b b3 ba 3b 22 0a c0 bb c7 2f e6 3c 46 78 8f 3d
       0.0056976206 -0.005860583 0.028098954 0.07005362
0001e0 0f ba e8 bc b8 17 e8 bb dc 1c 84 bd 12 62 1a bb
       -0.028409032 -0.0070829056 -0.06450817 -0.002355699
0001f0 bd 37 95 3c 19 dc 40 bd 5b 27 ab bd 39 cd ee bc
       0.018215055 -0.0470849 -0.08357116 -0.029150592
000200 f0 b6 b4 3b 42 8c 19 3d 95 2e c1 bd 6d b7 17 3d
       0.005514972 0.037487276 -0.09432713 0.037040163
000210 60 b9 8d bb d5 e9 c8 3c fe a3 9f 3d e8 5f 3f bd
       -0.004325077 0.024525562 0.07794951 -0.046722323
000220 66 5a ac 3c 14 6f a2 3b b6 8d 4c bb 8f 85 b5 3d
       0.0210392 0.004957089 -0.0031212396 0.08863365
000230 9a 9e 69 3d 06 45 43 bd 07 0b 57 bb 1d 74 9e bc
       0.05703602 -0.047673248 -0.003281297 -0.019342477
000240 fd 52 d9 bc 05 27 4c 3c 85 a7 d6 3c d0 dd f7 3b
       -0.02652883 0.012460475 0.026202926 0.007564284
000250 a7 2f 97 3b e5 5d 04 3c 6e 55 02 3b fd 90 92 bd
       0.004613835 0.008079027 0.0019887346 -0.071565606
000260 68 9d 86 bd 27 09 08 3d 7c 54 c9 3d 6c 8a 83 39
       -0.065729916 0.033211853 0.09830567 0.000250894
000270 c7 fe b1 3c 00 ca 2f 3d 78 8b 86 3d 0e d7 93 bc
       0.021727933 0.04291725 0.0656957 -0.018046882
000280 dd c7 bf 3d 71 e7 61 bd e0 d9 b0 bc 51 42 1b bd
       0.09364293 -0.05515236 -0.021588266 -0.03790504
000290 60 93 5d 3d 98 1e e9 bd fe 3d 49 bc 23 b8 17 be
       0.054095626 -0.113827884 -0.0122828465 -0.14816336
0002a0 d9 6d 43 3d a3 69 e2 bc 8e 26 e7 3b b9 11 ee bc
       0.04771218 -0.027638262 0.0070541566 -0.029061185
0002b0 67 fa 3b 3d c3 4c 8f 3b c8 b1 c8 3c 22 ae 8a bd
       0.0458931 0.0043731644 0.024498835 -0.067714944
0002c0 52 90 d7 3d d2 96 af ba 53 30 a4 3b 4a af a7 3c
       0.10525574 -0.0013396388 0.0050106435 0.020469327
0002d0 c1 60 28 3c fb b3 a4 bb b0 76 29 bc b7 ae e8 3d
       0.010276974 -0.005026338 -0.010343239 0.11361449
0002e0 c5 e9 4e 3b 1e ef 30 3c ee 6d 9b bd 68 42 ad 3b
       0.0031572443 0.0107991975 -0.07589327 0.0052874573
0002f0 73 f3 ff ba ad 3c 3b 3c ca 8e 7f 3c af 8c 6c 3d
       -0.001952751 0.01142804 0.015598008 0.057751354
000300 ac a8 73 3c e2 f2 2c bd 8e d6 95 3c 8f 58 ba bc
       0.0148717575 -0.04222382 0.018290784 -0.022747306
000310 bd d9 ee 3c 5c cb 9d bb 91 01 0a 3c 7c e2 0c be
       0.02915656 -0.004815502 0.008423225 -0.13758272
000320 53 69 7c 3d 12 3a 35 bd 7c e6 4a bb 23 ee 81 3c
       0.061623883 -0.044244833 -0.0030960133 0.015860623
000330 00 d6 96 bb 72 dd 8e 3d 83 4b 1c bd af 3b 58 3d
       -0.0046031475 0.06975831 -0.03815795 0.052791294
000340 4f 46 49 3b 24 4f 7c 3c d3 7e c1 3c 31 71 1e 3c
       0.0030712073 0.015399728 0.023620045 0.009670542
000350 81 2d 3a bd 71 01 56 3b ca fa 85 bd af 32 57 bd
       -0.045453552 0.0032654668 -0.06541975 -0.05253857
000360 36 1e f3 39 61 ac 7c bc b4 66 f5 bd 63 3a 26 bd
       0.0004637108 -0.015421958 -0.1198248 -0.040583026
000370 aa 84 56 3d b2 c0 7c 3d 22 d1 d2 3c c5 01 06 3d
       0.052372612 0.061707206 0.025734488 0.03271653
000380 92 6c 46 bc 45 68 cb bd fb bb 83 3d ca 92 fd bd
       -0.012110846 -0.09931997 0.06432339 -0.123815134
000390 fd f9 33 bd bf 06 48 bc bd b5 21 bd 63 42 b7 3d
       -0.04393958 -0.01220864 -0.03947996 0.08948209
0003a0 8c 35 13 bd 8c f5 6c 3d 65 a2 b6 bd f6 a9 6b bb
       -0.03593974 0.05785136 -0.08917693 -0.003595946
0003b0 1c 8b ce 3d e6 30 83 bd 93 f5 50 3d 94 4f 0c 3c
       0.10085127 -0.06405811 0.051015448 0.008563895
0003c0 0b f9 86 bc 2e 91 af bc a5 e7 7d 3b a1 d8 4d 3d
       -0.016476175 -0.021431532 0.0038742807 0.05025542
0003d0 b8 53 4b 3d b8 95 c2 3c ec 9d 09 bd b2 04 3c bd
       0.049640387 0.023753032 -0.03359787 -0.045902915
0003e0 d1 45 c8 bc 9d b2 78 39 45 ca a6 bd de 7c b4 bd
       -0.024447354 0.00023717662 -0.081440486 -0.08812879
0003f0 bb 8c be bc ee 81 2c bd 2e f0 fd bb 7d 8e 21 3d
       -0.023260465 -0.042116098 -0.007749579 0.039442528

action_model._continuous_distribution.mu.bias f4 [2]
000000 7b 84 a5 3d f2 fb f7 3b
       0.08081909 0.007567876

action_model._discrete_distribution.branches.0.weight f4 [1, 128]
000000 b9 36 42 3c 3e c4 3f bc b0 e1 9e ba fb 7b 01 bc
       0.011853867 -0.011704503 -0.0012121703 -0.007903094
000010 d6 07 37 3c 8f 7b 11 3c 3f 99 6c 3a cf da fc ba
       0.011171302 0.008879556 0.0009025521 -0.0019291284
000020 8a a8 8e ba a3 36 0e bc a6 84 a2 bc e2 e9 f4 3a
       -0.0010883969 -0.008680019 -0.019838642 0.0018685425
000030 9b ec 1e 3b ef 2f 99 bb 77 fd 12 bc 6d 32 1a 3b
       0.0024249915 -0.0046749036 -0.008971564 0.0023528591
000040 cc 1c 30 3c 16 5d cb bb c3 8f c2 ba c2 96 db 38
       0.010749053 -0.006206165 -0.001484387 0.000104708146
000050 47 53 5d 3b 22 9e 75 3c 08 81 a7 38 71 e1 49 bc
       0.003377156 0.014991315 7.9872145e-05 -0.012321816
000060 0d 50 cd 3b c0 cb 75 bb 07 d8 a5 36 a2 a1 c9 3b
       0.0062656463 -0.0037505478 4.942532e-06 0.0061533013
000070 46 b8 bf 3b 51 8b 96 3b a3 e9 7c bc e0 8b c0 bb
       0.0058508245 0.0045942445 -0.015436563 -0.0058760494
000080 8f b1 1b 3c b2 16 4e bc 33 e0 aa bb d8 48 ff 3b
       0.0095027825 -0.012578653 -0.005214715 0.007790666
000090 22 10 8d 3b 75 be 72 bb 9b 7c b6 3b 02 f8 65 bb
       0.0043049017 -0.003703979 0.0055690533 -0.003509045
0000a0 4e b6 c6 bb 6f 0a 0f bc bb 17 a4 3a e5 9f ed 3a
       -0.006064213 -0.008730515 0.0012519279 0.0018129317
0000b0 d3 66 64 bc 27 ea 8e 3b 57 47 80 bb f3 4a 13 3a
       -0.013940531 0.004361409 -0.0039147544 0.0005618773
0000c0 35 c2 6d 3b 6d af 35 3b 67 37 0d 3c ab 2e b0 ba
       0.0036279086 0.002772297 0.008619166 -0.0013441643
0000d0 55 5e bc 3b ba 60 09 3b 17 42 01 3c c5 6c df 3b
       0.00574855 0.0020962195 0.007889292 0.0068183863
0000e0 52 70 c7 bb d3 f8 61 3b 3f 45 4b 3c 69 26 2a bc
       -0.0060863877 0.0034480586 0.012406646 -0.010385134
0000f0 1f ff df 3b 5c 58 b3 3b ff de aa bb 7b 2c 52 bc
       0.0068358327 0.0054731797 -0.0052145715 -0.012827988
000100 96 22 c6 39 41 2a c6 bb f9 d9 b7 3b 58 d9 7d 3b
       0.00037791271 -0.0060475175 0.005610701 0.0038734283
000110 b5 d0 f7 ba 4f ba 23 bc c6 8e 2b 3c 2f a4 de bb
       -0.0018906804 -0.00999315 0.010471052 -0.0067944746
000120 c5 89 9e bc 9a 2d 82 bc 4e 7d 29 3c a3 9a d9 ba
       -0.019352803 -0.015890885 0.010344816 -0.0016601871
000130 0e 72 37 bc 6a b5 ea bb 3b 14 99 3c 2e 86 34 ba
       -0.011196626 -0.0071627395 0.018686404 -0.00068864494
000140 1a 0c 20 bc a1 ed 9f 3b dd c0 3f b9 00 77 a7 3b
       -0.00976851 0.0048806225 -0.00018287027 0.0051106215
000150 9c 23 38 ba 4f 88 36 bc 53 9f 80 3b dd d1 65 3b
       -0.0007024349 -0.011140897 0.003925243 0.0035067715
000160 af 79 1f 3b 32 07 91 3b f7 f8 96 bb d5 5d 56 3b
       0.0024334004 0.0044259066 -0.0046073156 0.0032709737
000170 4c 03 ca 3b 9b 22 47 bb ce b2 40 3c 42 93 b4 bb
       0.006164944 -0.0030385617 0.01176138 -0.0055107186
000180 20 80 11 3b 53 02 99 bb bc 05 00 3c 7b 3a c6 bc
       0.0022201613 -0.0046694665 0.007813867 -0.024197808
000190 57 bd 55 bc 35 7d ee bb b0 0a 39 3b 2d 9e 80 bb
       -0.01304563 -0.0072781094 0.002823513 -0.003925106
0001a0 3e 62 c7 ba 17 9d 3b 3c 03 09 b8 3b ba f6 99 bb
       -0.0015211774 0.011451027 0.0056163087 -0.0046986016
0001b0 7e 71 25 bc 77 33 03 bb 3b 0a 57 bc a7 ca a3 bc
       -0.010097859 -0.002001969 -0.013124998 -0.019994093
0001c0 8f 61 9e bb 00 23 0f bc bd c4 05 3b dd bb 04 bc
       -0.0048334072 -0.008736372 0.0020411455 -0.008101431
0001d0 7d 9e 90 3b d5 d2 ca b9 ef 5b a8 bb 8b e3 fa ba
       0.0044134245 -0.00038685524 -0.0051379125 -0.0019141299
0001e0 37 95 53 bb ef c0 88 3c eb ec d8 3b 77 03 c5 bb
       -0.0032284984 0.01669356 0.0066200397 -0.006012376
0001f0 0f 89 6e 3b 57 58 e1 b9 33 b5 6a 3c 6a b7 02 3c
       0.0036397611 -0.00042981163 0.014325428 0.0079783

onnx::Div_70 f4 [6]
000000 f0 0e 9c 40 08 5f b9 3a 6d ee 9e 40 15 b5 11 41
       4.8768234 0.0014142701 4.9666047 9.1067095
000010 e0 cd 82 3c 0c 67 38 41
       0.01596731 11.525158
