results/GrabbingPikmin3/GrabbingPikmin3/checkpoint.pt (torch, 463842 bytes, 47 tensors)

network_body.observation_encoder.processors.0.normalizer.running_mean f4 [11]
00000000: 0000 0000 0000 0000 0000 0000 4d4b 66bf
00000010: e55d 9fc1 abc5 6ac0 3b68 2fc1 c902 84c0
00000020: a304 26c1 9116 80bd ac08 4bbd
0.0 0.0 0.0 -0.8995865 -19.920847 -3.6683147 -10.962947 -4.12534
-10.376132 -0.06254304 -0.049568817

network_body.observation_encoder.processors.0.normalizer.running_variance f4 [11]
00000000: 0000 803f 0000 803f 0000 803f 1fa1 e73f
00000010: 5201 c743 2e66 6741 f3f0 b948 cdef ad44
00000020: f100 a448 6c58 e345 0546 df45
1.0 1.0 1.0 1.8096045 398.0103 14.462446 380807.6 1391.4938
335879.53 7275.0527 7144.7524

network_body.processors.0.normalizer.running_mean f4 [11]
00000000: 0000 0000 0000 0000 0000 0000 4d4b 66bf
00000010: e55d 9fc1 abc5 6ac0 3b68 2fc1 c902 84c0
00000020: a304 26c1 9116 80bd ac08 4bbd
0.0 0.0 0.0 -0.8995865 -19.920847 -3.6683147 -10.962947 -4.12534
-10.376132 -0.06254304 -0.049568817

network_body.processors.0.normalizer.running_variance f4 [11]
00000000: 0000 803f 0000 803f 0000 803f 1fa1 e73f
00000010: 5201 c743 2e66 6741 f3f0 b948 cdef ad44
00000020: f100 a448 6c58 e345 0546 df45
1.0 1.0 1.0 1.8096045 398.0103 14.462446 380807.6 1391.4938
335879.53 7275.0527 7144.7524

network_body._body_endoder.seq_layers.0.weight f4 [128, 11]
00000000: 8369 19bf ed69 833d 9d68 12bf 4737 d13d
00000010: 01d1 a43d 1abc 17bd 0a25 e6bd 97e7 b63e
00000020: e6c9 8bbe a622 e53e 967d 99bc d850 6dbe
00000030: 7986 8b3e 03e8 91be cc0b 8cbe 323b 333e
00000040: 5350 d1bd a57d 813e 7c96 e23e 7426 363f
00000050: a825 0d3d 2d98 833e 64a6 81be b059 e13e
00000060: 3d84 a63d b9fa 22be 2317 0cbf 0fce 963d
00000070: 76c7 9dbe 2454 073f b1aa aebe a43d 833e
00000080: ae5f 23be bb3d 8fbc e74b 15bc 9cb1 1fbf
00000090: 69f2 ec3c c550 2a3c 3e2a dfbd c6ff 913e
000000a0: fc57 09be 82cc 3a3d bd65 b1bc d36b ffbd
000000b0: 4ec2 e63d e662 30be 8bc7 08bf 00e3 4d3e
000000c0: 7e9d 7cbe 3dbf 89bd c79f 693d 706f 963e
000000d0: b276 52be 189a d4be f0ca 353f b6ab 98bd
000000e0: 4f29 3dbe 75de 053e 247f 40be 154b 2ebe
000000f0: f183 5f3e 1137 dbbd 7070 cebe cb1f 2a3e
00000100: f2e9 c83d c30a 6cbe c72d 433e c0fb 34be
00000110: d9f7 c2be dcfe d93e a826 a83e 4173 833d
00000120: e6c1 70bd 8e54 e63e c0f3 4abe 9f7a 823d
00000130: 9e36 33bd 4f79 13be e6e9 a83d cb3d 8bbd
00000140: adee 49be 2551 5ebe a101 a8bb 07ad 8a3e
00000150: 3ec9 23bf 75e6 d33d a458 d83d f80c b83b
00000160: 0baa d73d b05f 9a3c 7efd 343e 46da 173e
00000170: 88fd a7be 9e72 38bd 2b07 97be 6617 a4bd
00000180: e30a 10be c071 82bd b84d d9be 4676 e8be
00000190: 14ed 79be 97b4 8bbd 06ba 51be 97c1 17be
000001a0: 7bbc b2be 0181 b13d a669 1abe ae0d 393d
000001b0: beb5 a8be b1fc af3e 2a2b e13c 4ec4 ed3d
000001c0: a211 9fbe e946 903c fce9 0c3d 8d28 18be
000001d0: 70de f1bc ea4b dcbd 9c81 89bd 4b29 b0be
000001e0: 2968 debb 2d89 ff3d 4cdd 903e dd27 893d
000001f0: 6615 883e 5e3b c23e 3af1 3ebf 4338 9fbd
00000200: b2ac 06be f90a 87be 8d4d 18be 0d2f 42bf
00000210: 41f9 86be 77d7 ce3b 7cea 053e 6f15 37bb
00000220: d6c8 ad3c e44e c23e 8340 bc3e cc51 43be
00000230: 6b6a f8bc 1162 d33e d60e e3bd 56b0 5bbe
00000240: 46a9 253e 73af 1d3d e3c3 283e 2960 033e
00000250: 4b0a 5e3e f873 a53c bf66 11bf fd43 803c
00000260: 6bd6 7f3e de23 a43e 89dc 90bd 50c5 29be
00000270: dd93 5d3e 8cb7 b4bd d4c1 413d e84d 0bbf
00000280: 98c6 0f3f 28d7 983d 6ad5 2b3e f576 8fbe
00000290: e1e2 b33e 574e fa3e d8a2 f43e c7a8 ad3d
000002a0: f319 6dbc 4122 6f3e 2a22 00bf ed8f b2be
000002b0: ad9a 98be 70b8 9ebd a72c b8bd 4186 813e
000002c0: f62b 103e ba55 413e 28c0 f8be b25d b8bd
000002d0: e488 f43d b26d 4cbe 57a2 a63e f560 1fbe
000002e0: c4b5 273f 06b7 e8bc d8f1 9abe 0c50 d1bc
000002f0: a406 c5bd e08f 933c 05a6 6cbe f78e 98be
00000300: 88fd 1d3e e7bb 4c3d be44 353f 6103 51be
00000310: e7f1 903e e5fb b13e f6b2 9b3e 19a1 b63d
00000320: 3de7 d1be f73e 27bf 8f3b cf3d c858 f7be
00000330: 73e6 7f3e 4f5b b9bd 1a80 f0bb a8cb 173f
00000340: 8278 aa3e ac1e d9be a1f9 423e 6615 2cbd
00000350: ae7e f13d 3905 eb3e 3d68 083e f5cd a13e
00000360: 3813 8d3e 3213 07bf 64d5 71be 76e2 e8bd
00000370: fbb4 8d3c 90c4 703d 3572 81be 9797 243d
00000380: c0a2 b4be f420 84be 704b b63d 2c18 9ebe
00000390: 8ec9 33be d5b5 e9be adee 7ebe b54c 52bd
000003a0: 519c 34be 20e8 fcbe 9eb0 b03e b02c 1cbe
000003b0: 0e10 3a3e bc56 7bbe 405e 1c3e d0ee 3b3e
000003c0: 8e63 a3be d185 8c3e bbbf 0b3e 4582 9f3e
000003d0: 9aee 283f dcb0 30bf 40c4 7b3b adcc 1fbf
000003e0: caf3 313e e44a 3bbc 95fa 18be f588 4f3e
000003f0: 8c1c 78be 38ac 71be c15f bebe 7293 4c3e
-0.59926623 0.06416688 -0.5719088 0.102156214 0.08047677 -0.037044622 -0.112375334 0.35723564
-0.27302474 0.44752997 -0.018736642 -0.2317537 0.27251032 -0.28497323 -0.2735275 0.1750305
-0.10220399 0.25291172 0.44255435 0.71152425 0.03445974 0.25702038 -0.25322258 0.4401374
0.08130691 -0.15915956 -0.54722804 0.07363521 -0.3081624 0.52862763 -0.34114602 0.25632966
-0.15954468 -0.01748549 -0.009112335 -0.62380385 0.028924184 0.0103952335 -0.10896729 0.28515452
-0.1341247 0.04560519 -0.021654958 -0.12471738 0.112675294 -0.17225227 -0.5342948 0.20106125
-0.24669454 -0.06725929 0.05703714 0.29381895 -0.20553091 -0.41523814 0.71012783 -0.07454626
-0.18472789 0.13073142 -0.187985 -0.17020829 0.21827675 -0.107038625 -0.40320158 0.1661369
0.098102465 -0.2305098 0.19060431 -0.1767416 -0.38079718 0.42577255 0.32841992 0.06418467
-0.058778666 0.44986385 -0.19819546 0.06371044 -0.04375326 -0.14401744 0.082477376 -0.067988954
-0.19719954 -0.21710642 -0.0051271473 0.27085134 -0.63978946 0.103466906 0.10563782 0.0056167804
0.1053048 0.018844455 0.17674825 0.14829358 -0.32810616 -0.045031182 -0.29497656 -0.080122754
-0.14066653 -0.06369352 -0.42442107 -0.45402735 -0.24406844 -0.06821554 -0.20481119 -0.14819942
-0.34909424 0.08667184 -0.15079364 0.04517906 -0.32951158 0.34372476 0.027486403 0.11609708
-0.3106814 0.017611938 0.034402832 -0.14859219 -0.029525012 -0.10756667 -0.06714174 -0.34406504
-0.006787319 0.12477336 0.28293836 0.066970564 0.26578826 0.3793592 -0.7458683 -0.07774403
-0.13151816 -0.2637556 -0.14873333 -0.75853044 -0.2636204 0.0063123065 0.1307773 -0.002793636
0.02121393 0.37950814 0.3676797 -0.19074172 -0.030324182 0.41285756 -0.11086814 -0.21453986
0.16177854 0.0384974 0.16480975 0.12829651 0.21683614 0.0201969 -0.56797403 0.01565742
0.24984138 0.32058614 -0.07073314 -0.16579175 0.21638437 -0.08824071 0.04730399 -0.5441575
0.56162405 0.07462913 0.1678063 -0.28020445 0.35134032 0.48887894 0.4778049 0.08479457
-0.014471519 0.2335291 -0.5005213 -0.34875432 -0.29805508 -0.077500224 -0.08992892 0.2529774
0.1407927 0.18880358 -0.48584104 -0.09002246 0.11940172 -0.1996372 0.3254573 -0.1556433
0.6551173 -0.028407585 -0.30262637 -0.025550865 -0.09620407 0.01801294 -0.23110206 -0.29796574
0.15428746 0.049983885 0.7080802 -0.20411445 0.28309557 0.34762493 0.30409974 0.08917446
-0.40996733 -0.6533045 0.10118782 -0.48309922 0.24990253 -0.09050619 -0.0073394896 0.5929513
0.33295065 -0.42406213 0.19040538 -0.042012595 0.1179174 0.45902422 0.13321014 0.31602445
0.27553725 -0.52763665 -0.23616558 -0.11371319 0.017298212 0.058781207 -0.25282446 0.04018363
-0.35280418 -0.2580639 0.08901107 -0.30877817 -0.17557356 -0.4564654 -0.24895735 -0.051342685
-0.17637755 -0.49395847 0.34509748 -0.15251422 0.18170187 -0.24544805 0.15270329 0.18352818
-0.31911892 0.27445844 0.13647358 0.31154075 0.6598908 -0.69019866 0.0038416535 -0.62421685
0.17378154 -0.01143143 -0.1493934 0.20267089 -0.2422964 -0.23600852 -0.3718243 0.19978121

network_body._body_endoder.seq_layers.0.bias f4 [128]
00000000: 783c a43b 9e6f 9f3b 4045 00bc 5e32 833b
00000010: 8461 843b ef48 bfba 8dc3 bdbb d29e 1abc
00000020: c6a9 1b3c b270 533c 949f 753c 364b 293c
00000030: c2f5 2ebc 50d3 613c 8331 143c db7c e7bb
00000040: 2a63 053b ff12 273c 04e0 2ebc 7d67 583c
00000050: b2a4 f63b d183 2b3b bffc 6fbb d723 3cbc
00000060: e5c2 213c 719d c53b 74e9 e039 dacd 19bc
00000070: 6042 e2bb 8062 9dba 3660 5b3b 61c6 c7bb
00000080: 3560 cf3b 10c9 e2b7 40fd e83b 8ee6 9ebb
00000090: ba7b e83a 986e 99bb 4eff 843c fadb e13a
000000a0: ae7f e33a d022 96bb a17f 253b fef8 d83b
000000b0: fcfd 6dbb c0ae 42bc 1639 3cbc 099e 9a3a
000000c0: aad7 293c 5646 f63b b78a fc3a 2463 783b
000000d0: 16c0 30bb e8a7 4f3c f9c1 e83b 2f43 3f3c
000000e0: c1f3 2bbc 913d 033c 820e 983b f5ce eab9
000000f0: e92e d0bb 937d 67bb b51c 013c 5e90 573c
00000100: 149e a53b 431c e538 e568 bfbb 81ac 06bc
00000110: 8e93 0fbb fc75 97bb de7f 003c ef26 46bc
00000120: 9261 71bc 92c0 fbbb 3bc5 243c 676b 3f3c
00000130: 403d c73a 12bf 3dbc 64cc 26bc 5219 d1bb
00000140: e33d 09bc ecd2 27bb 39d8 6c3c 3412 2dbb
00000150: aacb 24bb 4ddc 10bc adbf a03b 5b86 463c
00000160: 7d9e c83b 6aaa a53b 0939 f3bb ff78 d8bb
00000170: 0c72 19bc b910 623c d371 21bc 003d 2f3c
00000180: 82b8 ba3b b6d2 ca3b ee9e 89b9 5d13 de3b
00000190: 8a86 ffbb 4921 3b3c fa21 2f3c 2d00 c33a
000001a0: 63c0 523c 5fb8 e83b 5d30 e2bb 4f79 503c
000001b0: d441 e0bb 0126 2e3a 51d0 f53b 8b01 a73b
000001c0: 9c97 26bc 05c8 98ba da5c 603c e012 133c
000001d0: ab30 2cbc 0efc bfba 6bde e93a 6aaf 08bc
000001e0: fdc6 cbbb 0989 a4bb 168d 8c3b 4a9a 91bb
000001f0: 7111 67bc 367f e33b fa89 13bc c512 86ba
0.0050120912 0.0048656007 -0.0078290105 0.004003807 0.004039945 -0.001459388 -0.0057911337 -0.00943728
0.009500926 0.012905287 0.01499166 0.010332873 -0.01067871 0.013783291 0.009045008 -0.0070644445
0.0020353296 0.0101974 -0.010673527 0.013208267 0.0075269574 0.0026171098 -0.0036619154 -0.011483154
0.009873127 0.0060307314 0.00042898546 -0.009387458 -0.006904885 -0.0012007505 0.0033474094 -0.0060966467
0.0063286074 -2.7034926e-05 0.007110268 -0.0048492616 0.0017737069 -0.0046823733 0.01623502 0.0017231696
0.0017356777 -0.0045817867 0.0025253075 0.006621479 -0.0036314717 -0.011882484 -0.01148822 0.0011796366
0.01036636 0.007515709 0.0019267414 0.003790089 -0.002696996 0.012674309 0.0071032015 0.011673733
-0.010495127 0.008010284 0.0046404013 -0.00044786153 -0.0063532484 -0.003532265 0.007880379 0.013156978
0.005054245 0.00010924835 -0.005841362 -0.008219839 -0.0021908018 -0.004622219 0.007842986 -0.012094243
-0.014732735 -0.0076828683 0.010056789 0.011683322 0.0015200749 -0.011581199 -0.010180566 -0.0063811922
-0.008376571 -0.0025607897 0.014455848 -0.0026408555 -0.0025145807 -0.008841586 0.004905662 0.012116994
0.006122409 0.0050557153 -0.0074225706 -0.0066062207 -0.00936557 0.013797932 -0.009853798 0.010695696
0.0056982646 0.0061896695 -0.00026249088 0.0067772106 -0.0077980207 0.01142151 0.010689253 0.0014877372
0.012863251 0.007102057 -0.006902738 0.012724235 -0.006843785 0.0006643236 0.00750164 0.0050966195
-0.010167982 -0.001165629 0.013694013 0.008976668 -0.01050965 -0.0014647262 0.0017842775 -0.008342603
-0.0062187896 -0.0050212187 0.0042892797 -0.0044434415 -0.014103279 0.006942655 -0.009005064 -0.0010228982

network_body._body_endoder.seq_layers.2.weight f4 [128, 128]
00000000: 9edc f83d 1b28 38bd 41da 97bd e3b6 15be
00000010: adbb 623d d200 d23c 68d8 e9bd 1ebd d6bd
00000020: 33b9 c3bd b890 73bd e99f c3bd d752 413d
00000030: 1813 10be 32b9 10be 5346 043e 8fee 0fbd
00000040: 08df f4bd 9e9c 56be 6d1e 873c d296 edbd
00000050: 73a6 c9bd 0f96 99bd bc11 63bd 01af d53c
00000060: 355c 103e 8e6e 38bd 0317 ae3d 44c0 bc3b
00000070: 32da bd3d e948 f83d 6124 04bd a740 0b3d
00000080: 6f72 ee3b 3896 a5ba e744 00bd 8c5c b33d
00000090: cf5d 60bd 1208 5b3d 6b37 edbd 0dbf 74bd
000000a0: 8bdb 4fbc bb21 d1bc 5d77 003c 6d6c d3bd
000000b0: 6c53 3ebd 126b c43d 0aa9 9c3d e62e 813d
000000c0: 194e b5bd 55f8 0e3e 1fec 1dbd 241e 0fbe
000000d0: 95a5 45be 975d f63c 8b34 093d d2b3 c7bd
000000e0: f096 14bd 8584 273e a4ab 7bbd 4b44 1f3e
000000f0: 6392 0cbc 0ed9 21bd 9736 e13c e248 f53d
00000100: 2f52 30bd eef3 89bd 60e7 9c3d 585e 40bd
00000110: 0d8a 393e f1ce 18be f7ae 15bd 20fc 0d3d
00000120: 16ba 4cbd f266 bfbd 9e1d 953d 471a dcbb
00000130: f81f 973b 4cdb 87bd ca96 a5bd b85c 6dbe
00000140: ee60 323d 8a8e 793d 50ee 8d3d ed53 85bc
00000150: 6573 eebb 8c15 5d3d 07cb 893d 44cf dd3c
00000160: 4e3d 2e3e b207 ed3d c272 0abe 5ffc 99bd
00000170: 9b94 083d 28f5 3fbd afdc 02bd aead a23d
00000180: 3f1d 39bd 6c73 ed3c eef2 a9bd b382 17be
00000190: a764 cc3d 9c11 0dbe 1019 2c3d c889 80bc
000001a0: 6447 e93d 6cfd 25be dbac 293d 967b 1c3b
000001b0: d989 7b3d c48a 1abe a94b a33d 7937 0c3d
000001c0: 4cf7 373e 8a8c 62bd 2860 4abd b6a4 1cbe
000001d0: 954d 403e 27c2 87bd 81fa 89bc 44f6 afbd
000001e0: fa6b 483d 24fb bcbd 71f0 eb3b c667 c43c
000001f0: 1e94 cc3c ea4b 13bd d77e 633d 3dd8 5bbc
00000200: 1abc 33be 4cc0 8ebd d1fe 973d 65d9 9abd
00000210: 0b73 793b d8e2 d1bd 9af0 4abe 20ca 643d
00000220: 5da5 5a3d 12ac aabd cbe6 8a3d 96e3 013d
00000230: 18ed 863d 5811 d0bd f0d1 8f3d cbd7 b73d
00000240: 3aa1 97bc d163 433b a89c 39bd c883 29bc
00000250: 3e7c eabc fac2 213e 0b79 2c3e 1204 f43c
00000260: 34bc b93c 7fe3 db3d 855b b93d fb4d 933d
00000270: d5d5 163c c27a 753d 66f4 193c 8988 3ebd
00000280: c613 833d 70b1 343d 575d cdbd e214 c7bd
00000290: 958f a53d a333 2fbc ba8f 733d dc66 04be
000002a0: 84c3 643e 8ff2 003e 0b69 c9bd 1520 823d
000002b0: 8a7d 88bd c671 eebc 0b15 fabb 931e 9f3c
000002c0: 49e5 363c 6748 333e 4130 703d 3a76 27bd
000002d0: 5107 cf3a 1475 1b3e aa3e c2bb e9b8 5b3d
000002e0: 15be b23d 744e db3d b060 ae3d ea89 983d
000002f0: f0d4 fdbd f399 783d b917 103d 1c5d ac3d
00000300: 00bc 103d e712 12be 10f6 a43d 20ee b0bd
00000310: 78c7 3bbd ae60 07be c2ce 68bd 79b7 d13d
00000320: b4ef 763c a48e 063e af25 72bb a59c 503d
00000330: c168 adbd ffa3 193d ade4 eaba 9554 8fbc
00000340: 9ee7 90bc 9e76 b0bd c03a 54bd 0ee9 1cbe
00000350: 9c24 26be 2fb3 01bd 8f22 29be fb0e 13bd
00000360: e577 313b f5b3 193d 7b5d 0bbd 6320 273e
00000370: b1ee 933d 1eeb 183e 6624 d6bc 6f4c 2b3d
00000380: d36e f43c 310e dabd ceba eabd e604 443c
00000390: a245 193d 51d1 9fbd 92bd 9ebd 80db 2bbd
000003a0: eab6 61bb f081 bbbd 9d23 903c 4b9a f43d
000003b0: 2122 36bd 11c1 4a3d 2ee9 1ebe a7a5 7dbd
000003c0: 04ba b9bd cbac b9bd 2ae3 3bbd 1a5b 57bc
000003d0: 3c7f 9bbb 161a 863c 616c 3ebd ccc7 bf3d
000003e0: d4e2 d13c 4ac8 933d 1f42 e0bd 8fec 7e3d
000003f0: bf33 a2bd cfa9 d2bd ffe5 adbd ec32 49bd
0.121514544 -0.044960123 -0.074146755 -0.14620547 0.055354763 0.025635157 -0.11418229 -0.1048529
-0.09556808 -0.059464186 -0.09551985 0.047198143 -0.14069784 -0.14133146 0.12917452 -0.035139617
-0.11956602 -0.20958182 0.016494 -0.11601032 -0.09846201 -0.074993245 -0.055436835 0.026084425
0.14097674 -0.04502731 0.08500483 0.0057602245 0.09270133 0.121232815 -0.032261256 0.033997204
0.007276825 -0.001263327 -0.03131571 0.08757886 -0.054776963 0.053474493 -0.11582836 -0.059752513
-0.0126866205 -0.02552878 0.007840958 -0.10323415 -0.046466276 0.095907345 0.07649429 0.06307773
-0.088527866 0.13961919 -0.03855526 -0.13976341 -0.19301446 0.030073924 0.033497375 -0.09751095
-0.036276758 0.16359146 -0.061442986 0.15553395 -0.008579823 -0.03951364 0.02749185 0.11976792
-0.043047126 -0.06735979 0.07661319 -0.046964973 0.18119068 -0.14922692 -0.036543813 0.034664273
-0.049982153 -0.09345807 0.0728104 -0.0067169997 0.0046119653 -0.066336244 -0.08085401 -0.231799
0.04354947 0.06092695 0.0693022 -0.01627537 -0.0072769397 0.053975627 0.067281775 0.027076371
0.17015573 0.115737334 -0.13520339 -0.07518839 0.033344846 -0.04686466 -0.03194874 0.07943283
-0.045193907 0.028985702 -0.08298288 -0.14795952 0.099801354 -0.13776249 0.04201609 -0.0156907
0.1139057 -0.16209954 0.041424613 0.0023877374 0.06141076 -0.15091997 0.079734154 0.03423259
0.1796543 -0.05530981 -0.049408108 -0.15297207 0.18779595 -0.066288285 -0.016843082 -0.08591893
0.0489311 -0.09227589 0.0072002937 0.023975264 0.024972972 -0.03596107 0.055540886 -0.013418254
-0.17552224 -0.069702715 0.07421649 -0.07560996 0.0038062956 -0.10248345 -0.19818345 0.055856824
0.05338036 -0.08333601 0.067823015 0.031711183 0.06588191 -0.10159558 0.07022464 0.08976706
-0.018509496 0.0029814134 -0.045315415 -0.0103463605 -0.028623696 0.15797034 0.16843049 0.029787097
0.02267275 0.10736751 0.09050659 0.07192608 0.009206255 0.059931524 0.009396648 -0.04651693
0.06400256 0.04411453 -0.10027569 -0.0972078 0.08084027 -0.0106934635 0.05946324 -0.12929863
0.22340208 0.12592529 -0.098344885 0.063537754 -0.0666457 -0.029106986 -0.007631903 0.019423759
0.011163064 0.17508088 0.05863977 -0.040884234 0.0015795027 0.1518138 -0.0059278803 0.05364314
0.087276615 0.10708323 0.085145354 0.0744818 -0.1239413 0.060693692 0.035178874 0.08416197
0.03533554 -0.14265023 0.08054745 -0.08639169 -0.045844525 -0.13220474 -0.056837805 0.10240073
0.015071798 0.1314035 -0.003694873 0.050930638 -0.08467246 0.037509914 -0.0017920934 -0.017496387
-0.017688569 -0.086163744 -0.05181384 -0.15323278 -0.16224903 -0.031665023 -0.1651709 -0.03590296
0.002707952 0.037525136 -0.034024697 0.16320948 0.07223261 0.1493344 -0.026140403 0.04182094
0.029838001 -0.10647238 -0.114614114 0.0119640585 0.037419923 -0.07803596 -0.077510014 -0.04195738
-0.00344413 -0.09155643 0.017595107 0.119434915 -0.04446614 0.04950053 -0.15518638 -0.061925557
-0.09068683 -0.09066161 -0.045870937 -0.013144279 -0.004745392 0.01636986 -0.046490077 0.0936428
0.025620855 0.072159365 -0.109501116 0.06223732 -0.07920026 -0.10286295 -0.08491134 -0.04912083

network_body._body_endoder.seq_layers.2.bias f4 [128]
00000000: 05c7 13bc 522d 563c 9e54 463c 41d4 e53b
00000010: c943 49bc 7fcb 63bb 8272 063c d4d0 c23b
00000020: d056 aeba aa97 adbb d1bf 28bc 59a5 ee3b
00000030: 23dc 0e3c 8421 ca3b eb7c be3b 80d4 423c
00000040: c9cf 3e3c 53f3 45bc 486f 71bc 1f85 5a3c
00000050: 774e adbb 76b8 873b 8282 1c3c 8378 73bc
00000060: eb58 3abc 83af 61bc be7b 6c39 02b6 d1bb
00000070: 4a79 6cbc 4396 30bc a1f4 843a 5901 4abc
00000080: b094 633c 9338 77ba 739d 51bb 816f 28bc
00000090: 2deb 433c 537a 083c ba96 653c 2b1f 703c
000000a0: b012 64bb 6205 713b 42ce 323c b35b 653b
000000b0: 3d47 e7bb 1226 b53b 1ad1 533a 933c 6ebc
000000c0: c080 843b 85a5 0abb bc21 64bc 0ad6 2b3c
000000d0: ed35 e9bb c07a 2cba e21f 36bc 7d30 f03a
000000e0: 12d0 1f3c 50cf b43a 9f4a b3bb 8550 dbbb
000000f0: f5b3 253c 4271 0d3c be0d 38bc 4ac3 8439
00000100: 444d 653c 3f80 6e3c 88b4 b4bb ba4a 2f3c
00000110: 6346 223c f5f3 81bc ffea 4dbc af3e 42bc
00000120: e563 9e3a 6d80 4c3c 1282 6bbc 85e2 06bc
00000130: 284b ae3b 35dd 723c f259 47bc 252e e23a
00000140: bb18 4dbc ec4e 4f3c 8d46 993c efc6 dabb
00000150: 883a 6abc c826 51bc 29c0 4f3c 1e93 6f3c
00000160: 02bf e4ba 974b 3e3c 0b26 173c 0e0e 9bbb
00000170: 4632 8a3b 5424 073c 74c4 f7bb 6031 53bc
00000180: e88e 59bc 88b8 4bbc 5858 5bbc bb62 4abc
00000190: c11b b93b 379e 483c ecd1 893c b07c 893c
000001a0: c409 db3b 75e4 7b3c 3007 efb9 ea69 693c
000001b0: 4ca8 9d39 7293 103c 9829 2dbc 93b1 4b3c
000001c0: c99e 783c 2d0f 66bc 9d05 db3b 69cc f03b
000001d0: d0b6 37bc 8766 ce3b 663c 723c 4927 393c
000001e0: 0149 f33a b930 0b3c 002a 4e3c 960e 3dba
000001f0: c350 56bc 04a7 5dbb 00d1 a43a 9e6f 4c3c
-0.009019618 0.013072329 0.012105135 0.007013828 -0.012284228 -0.0034758744 0.008206012 0.0059453044
-0.0013301019 -0.005297621 -0.010299639 0.0072828946 0.008719477 0.006168546 0.005813231 0.011891484
0.0116462195 -0.012081939 -0.014736004 0.013337403 -0.0052888948 0.0041418625 0.0095526 -0.014860275
-0.011373739 -0.013774755 0.00022552811 -0.006399871 -0.014433214 -0.010778013 0.0010143706 -0.012329423
0.01389043 -0.00094307325 -0.0031984716 -0.010280491 0.011957926 0.008329946 0.014012987 0.0146558685
-0.0034801178 0.003677689 0.0109134335 0.0034997284 -0.007058053 0.00552822 0.000808017 -0.014540809
0.0040436685 -0.0021155786 -0.0139240585 0.010488043 -0.007117024 -0.00065795705 -0.011116 0.0018324998
0.009754198 0.0013794694 -0.005471542 -0.0066929483 0.010113706 0.00863296 -0.011233745 0.00025322504
0.013995472 0.014556943 -0.005514685 0.010698969 0.009904477 -0.015863398 -0.0125682345 -0.011855765
0.0012084214 0.012481791 -0.014374273 -0.008232717 0.005319018 0.014823248 -0.012167441 0.0017256184
-0.012518103 0.012653094 0.018710399 -0.0066765468 -0.0142961815 -0.012765594 0.012680092 0.014622478
-0.0017451944 0.011614702 0.009225379 -0.0047319 0.004217419 0.008248407 -0.007561261 -0.01289019
-0.0132787 -0.012434132 -0.013387762 -0.012352641 0.0056490605 0.012244753 0.016823731 0.016783088
0.0066845138 0.015374293 -0.00045590987 0.014246443 0.00030070764 0.008824216 -0.010568999 0.012432474
0.015174576 -0.014041704 0.0066840188 0.0073485863 -0.0112130195 0.0062988433 0.014784908 0.01130087
0.0018561186 0.008495503 0.012583256 -0.00072119513 -0.0130807785 -0.0033821473 0.0012574494 0.0124777835

action_model._continuous_distribution.log_sigma f4 [1, 2]
00000000: 566f 4a3c fcd3 87bc
0.012355646 -0.016580574

action_model._continuous_distribution.mu.weight f4 [2, 128]
00000000: b805 123c c06b 76bb a2fb 47ba bc95 66bc
00000010: bd4b 33bc e455 143d 2711 973c 435d 6c3c
00000020: 6b31 8fbc 18f7 c2bc 15eb 39bc 876e 8c3c
00000030: 6c55 5abc a6c9 acbb 37fd 693c 0f87 0abc
00000040: 6bbe 3abc 3e84 7cbc ec80 d2bb 8084 693a
00000050: 2e0e 5b3d 8e3a 77bc 3796 403c 8acd 6a3b
00000060: defa 45bb 10fd f4bb 0296 093d e155 e1bc
00000070: 6129 2138 227e 513a d2c9 04bd 77ac 2a3c
00000080: c38a 42bb 49ad a73c e4b8 ccbc 92b9 bcbc
00000090: 1477 13bc f7cd 8eba 633e 103c 41a0 123c
000000a0: 2cfd 32bd 7d5e 02bd a52d 6ebc 87b4 b83c
000000b0: 2bc0 7a3c bb6a 06bd dfd4 72bc 5692 863a
000000c0: aaaa a03c 0b27 953c 9b2c a73a 96df 06bc
000000d0: 53ac 26bd ed6b 903c e32a c73a ae0f a53b
000000e0: 5710 bd3c 6c7f 80bc 9677 59bc 6a7c eebc
000000f0: 7c2b 8a3c cadf 443c baac 133b 12d5 b1bc
00000100: 687f a5b8 7aaa 333c 18b0 5c3c c6f9 493b
00000110: ba6e c5bb 282c c9ba 1e71 a5bc 743c b8bc
00000120: 9a2c 12bc b94c 8b3b 55cc 83bc def7 25bd
00000130: c89d 6db9 c377 ddbb c444 37bc 0819 543c
00000140: 3810 85bc d2d8 31bb 04bb fd3b 5a23 dfbb
00000150: be5f b2bb a3b6 8ebb 38aa d73a 7983 9a3c
00000160: 9a62 16bd f400 8f3c 4fb1 b5bc 3bac 333c
00000170: 2653 e6bc 25f1 253b 6ee5 1cbd 3f99 cab9
00000180: c98b 80bc a8bf 69bc cf90 e8ba 17cc 2cbc
00000190: 89f3 abbc 116b 243b bcab b03b 173a a7ba
000001a0: de33 aa3c 0aeb 1cbc 09c6 7a3c 976c 923c
000001b0: bbf2 4a3d dcf2 223c ab80 1a3b ca74 a5bb
000001c0: 412d a83b ccc7 5cbc fc32 e5ba 96a5 f23b
000001d0: 57fb 423c 495d 2f3b 4921 0b3b e314 5d3b
000001e0: c2e4 95bc 8875 9e3c 6fb2 b23b 3afb 11bd
000001f0: f644 263a 68fd ae3c 9dcf fdbc 6275 2f3c
00000200: aba4 223c a911 0cbc 35f4 53bc 9506 b9bc
00000210: bddb 183c 15fe b23c 5418 76bb ba3b 83bb
00000220: df24 5cba 8d48 063b 5325 463c fb6f cebb
00000230: 90d0 77bc 7863 e4bb 7c02 1fbb f46f 4dbd
00000240: a510 58bc ab5a e23c 2b2a eb3c 776a e9bc
00000250: dbe5 bf3c 52ea a3bc 49b7 80bb 7775 c73c
00000260: be83 8c3b 7dc0 983b 35f1 a6ba e465 a13b
00000270: 9831 813c 0b8a 113c 41b4 89bc f33f 123d
00000280: 3665 cdbb 90c7 193c 0194 b2bb d652 633c
00000290: 6edf 34bc b1cd 1bbc e85e 88bc d343 1cbd
000002a0: e09f 7ebb fb2d 98bc 3fd6 21bd b3a0 f5ba
000002b0: 4154 373c 686a a1bc d5a8 ed3a 4c86 463c
000002c0: 6a9c 06bc 6814 0c3c ada1 c53c 0570 31bc
000002d0: 4098 523c 8350 c73b edd2 df3c 6a01 13bb
000002e0: fc6b 2cbc 289c 58bb 45ed 26ba c6e9 e13b
000002f0: 3e33 a7bc 9cf7 07bb d356 e03c caab 90bb
00000300: 76d7 94bc c114 95bc 5f72 453c abdc 7dbc
00000310: 1c2e 8ebc a848 973c 6ae0 8b3c 7f45 a23c
00000320: fae4 b2ba c761 bebc 4347 283c a229 4d3c
00000330: aaa5 3cbb 8ac9 edbc efaa ef3c ef4c 933b
00000340: 1edb f03c 845a c6bb 4c83 e1bc 45d9 8c3a
00000350: fa6f bb3b 8adf 303c 4ac0 83bc ff3c 9fbc
00000360: fe40 31bb 882c 8bbc 130e e9bc 4227 bc3b
00000370: f63a c2bc aba1 86bb ab54 363c 4080 c13c
00000380: af12 8f3c 0e74 683c 9b78 db3c f33d 843c
00000390: 3014 a3bc c457 dabb 2238 fabc 0723 1fbc
000003a0: 4077 b03b 1603 f1bc 218a 9e3b 250b d1bc
000003b0: 87cc a53c ae5f f4bb d377 513c d9b9 dcbc
000003c0: a31c a3bc 57c5 b53c 8b09 b6ba 7ace b8bb
000003d0: 16e7 2f3d 4cc7 efbb 5e77 4dbd 8d27 f5bc
000003e0: 93db fdbb 7ff7 02bc 0b74 59bc 7b0c 09bc
000003f0: 1638 863b 2f4d 903c dd3a 6fbc c81a 98bc
0.008912496 -0.0037600845 -0.0007628744 -0.014073785 -0.01094335 0.036214724 0.018440796 0.014426532
-0.017479619 -0.023799464 -0.011347552 0.017142547 -0.01332603 -0.005273062 0.0142815625 -0.008455052
-0.011397938 -0.015412388 -0.00642406 0.00089079887 0.05348032 -0.015089644 0.011754564 0.0035828077
-0.0030209343 -0.0074764565 0.033590324 -0.02750677 3.842393e-05 0.00079915125 -0.032419033 0.010417095
-0.002968476 0.020468371 -0.024990506 -0.023037706 -0.009000558 -0.0010895123 0.008803937 0.00894934
-0.043698475 -0.031828392 -0.01453725 0.02254702 0.0153046055 -0.03281663 -0.01482126 0.0010267
0.019612629 0.018207094 0.0012754382 -0.008232018 -0.040691685 0.017629588 0.0015195276 0.0050372696
0.02307908 -0.01568576 -0.01327314 -0.02911206 0.016866438 0.012016246 0.0022533373 -0.021708045
-7.8915444e-05 0.010965938 0.013469718 0.0030819043 -0.0060251625 -0.0015348243 -0.02019554 -0.022489764
-0.008921767 0.0042510894 -0.016088644 -0.040519588 -0.0002266086 -0.0067586615 -0.011185829 0.012945421
-0.016243085 -0.0027137292 0.0077432413 -0.006809634 -0.0054435423 -0.004355268 0.0016453927 0.01886152
-0.036715128 0.01745651 -0.022179274 0.010966356 -0.02811582 0.0025320735 -0.03830474 -0.0003864262
-0.015691655 -0.014266886 -0.0017743352 -0.010546706 -0.02099015 0.002508823 0.005391566 -0.0012758401
0.020776685 -0.009577522 0.015306004 0.017874045 0.049547892 0.0099455975 0.0023575227 -0.0050493227
0.005132348 -0.01347537 -0.0017486508 0.0074049933 0.011900744 0.0026758483 0.0021229556 0.0033734373
-0.018297557 0.019343153 0.0054534 -0.03563998 0.00063426734 0.021361068 -0.030982787 0.010709139
0.009926955 -0.008549132 -0.012936641 -0.022586146 0.009329733 0.021849671 -0.0037551122 -0.0040049227
-0.0008397828 0.002049002 0.01209386 -0.00629997 -0.015125409 -0.0069698654 -0.0024262955 -0.050155595
-0.013187562 0.027631124 0.02870663 -0.02849315 0.023425033 -0.020009194 -0.0039280993 0.024348004
0.004288166 0.0046616183 -0.001273668 0.0049254764 0.015770718 0.00888301 -0.016809585 0.035705518
-0.006268169 0.009385958 -0.0054497723 0.01387473 -0.011039598 -0.00950949 -0.016646817 -0.03815062
-0.0038852617 -0.018576613 -0.03951096 -0.0018739909 0.011189521 -0.019704059 0.0018131981 0.01211698
-0.008216003 0.008549787 0.024124945 -0.01082993 0.012853682 0.006082596 0.027322257 -0.0022431263
-0.010523792 -0.003305206 -0.00063677534 0.006894323 -0.020410176 -0.0020746952 0.027385151 -0.00441501
-0.018169146 -0.018198373 0.012051194 -0.015494506 -0.017355971 0.018467262 0.017074782 0.019808529
-0.0013648563 -0.023239983 0.010270896 0.012522133 -0.0028785267 -0.029026765 0.029256312 0.004495255
0.029401358 -0.006053271 -0.027528428 0.0010745904 0.0057201358 0.010795483 -0.016082902 -0.019438265
-0.0027046795 -0.016989008 -0.028449094 0.0057419846 -0.023709755 -0.004108628 0.011128585 0.023620725
0.017464964 0.014187826 0.026790908 0.016142821 -0.019907087 -0.0066632945 -0.030544344 -0.009712941
0.0053853095 -0.029420417 0.0048382436 -0.02551801 0.020239128 -0.007457695 0.012784916 -0.026944088
-0.019911116 0.022188826 -0.0013888342 -0.0056398483 0.04294499 -0.007317459 -0.050162666 -0.029926086
-0.0077471226 -0.007993578 -0.013272296 -0.008364792 0.0040960414 0.017614929 -0.014601436 -0.018567458

action_model._continuous_distribution.mu.bias f4 [2]
00000000: 7746 a63b 0d78 69bc
0.005074318 -0.014249814

action_model._discrete_distribution.branches.0.weight f4 [1, 128]
00000000: 7503 c4b9 8d88 10bb 5bc9 263c 3af3 413c
00000010: bf45 bc3b 4301 46bc 98b2 c2bc 4f82 743c
00000020: 0382 f43b 7f95 36bc 5d38 6e3b d90f 1cbc
00000030: 2a96 5abc 0d45 f53a 5956 043c 2a0c 52bc
00000040: 4ba4 b0bb a8f7 eaba 0d72 783c 5f99 12bc
00000050: 4497 a73b b5f5 cd3a eb9c eb3b b3d0 463c
00000060: b2ef 87bb 3ef3 033c 3b5c e43b 7ddb 4fbc
00000070: 6708 ab3a 056a 65ba 9be9 c43b 95fe e1bb
00000080: a057 b73c ba16 393c 125c b93b 78a7 4ebb
00000090: 5c2d c63b 371f 0f3c 28b0 3a3b 7ba0 493c
000000a0: 84fc 303b 8b82 213b c9a2 81bc 2d54 d13b
000000b0: 506a fbbb 7f68 98bb 4f85 3b3b b58d 3dbb
000000c0: bae4 e7bb c7ff 603b 640b a33b 8071 4fbb
000000d0: a035 aebb 6d23 fa3b dd23 313c ecbd 1dbc
000000e0: 0b5b f83b 7e6e 1fbc 8298 55bc 8a59 9e3a
000000f0: b8c4 12b9 686e 93bc aeeb 26bb 3bf9 0739
00000100: 8090 35bb 67b5 70bc fbf9 c73b c04e 2fbc
00000110: a2fd 4a3b a5c4 06bb 00de 3e3b 989b 16b9
00000120: cb20 7c3a 15e2 643a 970f 58bc 3029 5f3b
00000130: eb41 323c 881d 6b3c ada8 3a3a a798 00bb
00000140: d1c5 acba eac7 623c 18d0 053b c3ff f63b
00000150: 2c70 323c dbca a8ba efe6 2ebc cca4 00bc
00000160: 8d92 9bbb 2fbc e83b 3eb7 a63a 2317 923c
00000170: 5fa8 c83a 3bcb 2d3c 0b9e dabb 5c1e 18bb
00000180: f4a9 183b 01d6 12bc 9567 1c3b 67ce 28bc
00000190: b5e0 0c3b 8fcf 313a d935 383c 13dc 2cbb
000001a0: 61da 333c 3cd8 8b3b 3840 f63b ecc5 4b3b
000001b0: 4d95 5b3a 23e9 03bc 94b4 9dbb e259 06bc
000001c0: 4e81 353c 6bf0 60bc 030b 1ebb fac0 6a3b
000001d0: dfb9 a33b 6b7a 2738 67c0 6b3b 3315 383b
000001e0: f39d 9dbb 75ec a6bb 7294 543a 94b6 adbc
000001f0: abb7 62bc 4886 0a3a 5081 55bb b143 1dbb
-0.0003738661 -0.0022054047 0.010179843 0.011837775 0.005745619 -0.012085262 -0.0237668 0.014923646
0.0074617877 -0.011144041 0.0036349513 -0.009525263 -0.013341466 0.0018712595 0.0080772275 -0.012820283
-0.005390679 -0.001792659 0.015163911 -0.008947699 0.005114468 0.0015713485 0.007190337 0.012134719
-0.004148447 0.008053599 0.0069690025 -0.012686607 0.0013048769 -0.0008751455 0.0060092933 -0.0068968036
0.02238065 0.011296922 0.0056567276 -0.0031532925 0.0060478877 0.00873547 0.0028486345 0.012306328
0.002700598 0.002464446 -0.015824692 0.0063882084 -0.0076725855 -0.004651129 0.0028613394 -0.0028923575
-0.007076827 0.0034332143 0.004975723 -0.0031653345 -0.005316451 0.0076336176 0.010811773 -0.0096278
0.0075792125 -0.009730933 -0.013036849 0.0012081128 -0.00013996928 -0.017996982 -0.0025470066 0.00012967449
-0.0027704537 -0.014691687 0.006102798 -0.010699928 0.003097393 -0.0020563987 0.0029124022 -0.00014363078
0.00096179236 0.00087311986 -0.013187311 0.003405165 0.010879974 0.0143503025 0.00071204716 -0.0019622238
-0.0013181512 0.013841609 0.0020418223 0.0075378134 0.010891002 -0.0012877838 -0.010675176 -0.007851791
-0.004747695 0.0071025114 0.0012719405 0.017833298 0.0015308968 0.010607536 -0.006671672 -0.0023211455
0.002329466 -0.008962155 0.002386545 -0.010303116 0.002149624 0.0006782943 0.011243307 -0.0026376292
0.010977359 0.0042677205 0.0075149797 0.0031093312 0.00083764346 -0.00805119 -0.0048127864 -0.008200141
0.011078192 -0.013729195 -0.002411545 0.003582059 0.004996523 3.9929913e-05 0.0035972835 0.0028088808
-0.004810089 -0.005094106 0.0008109278 -0.021205224 -0.013837735 0.00052842917 -0.0032578297 -0.0023996646

exp_avg f4 [128, 11]
00000000: 0000 0000 0000 0000 0000 0000 bcfc 6a35
00000010: 1862 af35 3168 a935 c4e6 deb7 a684 1ab8
00000020: 10c9 beb7 dd87 4db9 4a82 5b39 0000 0000
00000030: 0000 0000 0000 0000 7996 8036 8cf1 bf36
00000040: 3367 b936 11c6 6cb9 b490 48b9 3182 9bb9
00000050: 69d6 d4b8 3140 8e38 0000 0000 0000 0000
00000060: 0000 0000 3f00 41b6 f20b 90b6 6823 8bb6
00000070: c01e 1d39 2da6 d237 15b2 2739 e0f7 9e39
00000080: 2388 adb9 0000 0000 0000 0000 0000 0000
00000090: 95dc c835 dae9 1536 23ce 1036 a419 8ab8
000000a0: 41b7 8ab8 13b3 84b8 002a 20b9 74fe 6139
000000b0: 0000 0000 0000 0000 0000 0000 4e4e 0135
000000c0: f103 4135 3e70 3a35 11d6 3db8 f78f 61b8
000000d0: a338 56b8 8416 37b8 8e5e a1b8 0000 0000
000000e0: 0000 0000 0000 0000 58b8 0db5 cf8b 53b5
000000f0: 7856 4cb5 76a3 5938 521f 8c38 bbbf 9738
00000100: 444e 5038 ce9a cbb7 0000 0000 0000 0000
00000110: 0000 0000 1011 f0b4 912c 33b5 a511 2db5
00000120: 1fb0 0438 cf0f 6337 4b4b 0038 53fb 81b5
00000130: 1566 2337 0000 0000 0000 0000 0000 0000
00000140: 05b9 e9b5 7f70 2eb6 d77e 28b6 7048 c338
00000150: 0056 b338 89e4 c238 e615 9cb7 ed36 00b9
00000160: 0000 0000 0000 0000 0000 0000 e8a4 f635
00000170: 5915 3836 90cf 3136 b00b a2b8 1783 90b8
00000180: 9477 8eb8 286f b3b8 8a3c 6539 0000 0000
00000190: 0000 0000 0000 0000 8b9c 9e35 93c2 ec35
000001a0: 4ab1 e435 8dd4 8cb8 d07a 81b8 6843 a9b8
000001b0: d11c 2039 e735 9737 0000 0000 0000 0000
000001c0: 0000 0000 5ab4 0a35 780b 4f35 64fd 4735
000001d0: 7ef7 fc36 9241 5538 5946 2838 f4ae e437
000001e0: fb6f 31b6 0000 0000 0000 0000 0000 0000
000001f0: 667b 8a36 71b6 ce36 44ab c736 71b2 26b9
00000200: 1c90 46b9 75ef 20b9 93a8 21b9 0bac 023a
00000210: 0000 0000 0000 0000 0000 0000 b73c 2cb5
00000220: b38c 80b5 b156 78b5 6ac3 2c38 4901 1f38
00000230: cf57 5c38 d9af 7538 d953 66b9 0000 0000
00000240: 0000 0000 0000 0000 5c35 f534 0203 3735
00000250: 93c6 3035 4b47 f7b7 10f3 0ab7 6589 deb7
00000260: 2a45 5338 69dd 00b8 0000 0000 0000 0000
00000270: 0000 0000 dea2 f935 0351 3a36 c6f7 3336
00000280: 5490 b7b8 e3f3 80b8 802d f5b8 0349 5c39
00000290: 95a8 87b8 0000 0000 0000 0000 0000 0000
000002a0: b34f 47b5 a5c1 94b5 05b0 8fb5 1bb5 2238
000002b0: 438d 1b38 d3f4 3d38 04ce b9b8 fd89 5838
000002c0: 0000 0000 0000 0000 0000 0000 b1bb 4536
000002d0: 1d94 9336 c48c 8e36 edea 35b9 d1a1 23b9
000002e0: d4af 67b9 62f2 8438 9cc5 9538 0000 0000
000002f0: 0000 0000 0000 0000 8a75 a734 70f7 f934
00000300: 0073 f134 0ba0 4ab7 9bc4 abb7 d688 56b7
00000310: 8d7e ab37 1edc 9638 0000 0000 0000 0000
00000320: 0000 0000 25b6 5fb6 b1f7 a6b6 3747 a1b6
00000330: c9ed 6e39 2b3b 3f39 3523 8639 9b38 a239
00000340: 207a 9fb8 0000 0000 0000 0000 0000 0000
00000350: ba68 d635 5106 2036 6692 1a36 523a 77b8
00000360: 185d 8db7 d35b 35b8 3742 9836 642b e938
00000370: 0000 0000 0000 0000 0000 0000 78f3 b0b5
00000380: 5b11 04b6 9d22 ffb5 689f ff38 84ca 4b39
00000390: d820 5639 cec0 82b9 c6ab 40b9 0000 0000
000003a0: 0000 0000 0000 0000 9e8c 97b5 e237 e2b5
000003b0: 8982 dab5 f963 b938 f248 b038 c36a ec38
000003c0: 0c8c 30b9 e62b 0939 0000 0000 0000 0000
000003d0: 0000 0000 f574 8635 4db4 c835 89dd c135
000003e0: 0e4b ddb8 ff8e d3b8 3834 03b9 0ef6 12b8
000003f0: bd59 1c39 0000 0000 0000 0000 0000 0000
0.0 0.0 0.0 8.753957e-07 1.3067065e-06 1.2621805e-06 -2.657192e-05 -3.684e-05
-2.2743392e-05 -0.00019600937 0.00020934004 0.0 0.0 0.0 3.8322146e-06 5.7203633e-06
5.5254436e-06 -0.000225805 -0.00019127392 -0.00029660904 -0.00010148885 6.783044e-05 0.0 0.0
0.0 -2.8759384e-06 -4.292925e-06 -4.1466446e-06 0.00014984142 2.5111332e-05 0.00015992702 0.0003032079
-0.0003309856 0.0 0.0 0.0 1.4965359e-06 2.233885e-06 2.157766e-06 -6.585129e-05
-6.6144865e-05 -6.327606e-05 -0.00015274435 0.00021552463 0.0 0.0 0.0 4.8170193e-07
7.190384e-07 6.9453733e-07 -4.5260476e-05 -5.3778258e-05 -5.1074323e-05 -4.365157e-05 -7.6946904e-05 0.0
0.0 0.0 -5.279485e-07 -7.8807074e-07 -7.612175e-07 5.1889067e-05 6.681554e-05 7.235954e-05
4.9663955e-05 -2.4271572e-05 0.0 0.0 0.0 -4.4715898e-07 -6.674755e-07 -6.44732e-07
3.1635278e-05 1.3533935e-05 3.05877e-05 -9.684394e-07 9.739325e-06 0.0 0.0 0.0
-1.74137e-06 -2.5993502e-06 -2.5107781e-06 9.311817e-05 8.551404e-05 9.293209e-05 -1.8606846e-05 -0.00012227493
0.0 0.0 0.0 1.8376422e-06 2.7430563e-06 2.6495873e-06 -7.726939e-05 -6.8908725e-05
-6.793361e-05 -8.5560896e-05 0.00021861694 0.0 0.0 0.0 1.1817477e-06 1.7639999e-06
1.7038922e-06 -6.715311e-05 -6.174075e-05 -8.0711034e-05 0.00015269524 1.8025703e-05 0.0 0.0
0.0 5.167145e-07 7.71302e-07 7.450201e-07 7.538997e-06 5.0844224e-05 4.0119838e-05 2.7261187e-05
-2.6440237e-06 0.0 0.0 0.0 4.127086e-06 6.1605174e-06 5.9506e-06 -0.00015897468
-0.00018936436 -0.00015347994 -0.00015416955 0.0004984743 0.0 0.0 0.0 -6.4163345e-07
-9.577692e-07 -9.251335e-07 4.118999e-05 3.790975e-05 5.2533866e-05 5.8576323e-05 -0.00021965745 0.0
0.0 0.0 4.567363e-07 6.817719e-07 6.585407e-07 -2.9477893e-05 -8.282033e-06 -2.6528442e-05
5.0370734e-05 -3.0723782e-05 0.0 0.0 0.0 1.8599346e-06 2.7763315e-06 2.6817302e-06
-8.753003e-05 -6.148943e-05 -0.000116909854 0.00021008034 -6.4687025e-05 0.0 0.0 0.0
-7.4249255e-07 -1.1083217e-06 -1.0705559e-06 3.8792477e-05 3.708644e-05 4.528912e-05 -8.859861e-05 5.1626925e-05
0.0 0.0 0.0 2.9464538e-06 4.398184e-06 4.248317e-06 -0.00017349022 -0.00015605173
-0.00022095378 6.339398e-05 7.141681e-05 0.0 0.0 0.0 3.1191695e-07 4.65599e-07
4.4973422e-07 -1.2077401e-05 -2.047634e-05 -1.2787254e-05 2.0443718e-05 7.1935574e-05 0.0 0.0
0.0 -3.3335612e-06 -4.9760206e-06 -4.8064644e-06 0.0002278603 0.00018237221 0.00025584703 0.00030941222
-7.6044584e-05 0.0 0.0 0.0 1.5974722e-06 2.3845535e-06 2.3033003e-06 -5.8943704e-05
-1.685186e-05 -4.323928e-05 4.5376614e-06 0.00011118388 0.0 0.0 0.0 -1.3183881e-06
-1.9679635e-06 -1.9009054e-06 0.00012189039 0.00019435032 0.00020420866 -0.00024939183 -0.00018374537 0.0
0.0 0.0 -1.1291302e-06 -1.6854576e-06 -1.6280256e-06 8.840109e-05 8.405921e-05 0.00011273243
-0.0001683684 0.00013081692 0.0 0.0 0.0 1.0017817e-06 1.4953636e-06 1.4444096e-06
-0.00010552081 -0.00010087899 -0.00012512587 -3.503827e-05 0.0001491075 0.0 0.0 0.0

exp_avg_sq f4 [128, 11]
00000000: 0000 0000 0000 0000 0000 0000 8b41 a72c
00000010: 4f56 3a2d d2da 2d2d 683b fd32 332c 2e33
00000020: be10 1033 05a0 d033 161a 6c33 0000 0000
00000030: 0000 0000 0000 0000 c277 322d ecd3 c62d
00000040: 3f82 b92d fd21 9c33 8aba 0234 09f7 9433
00000050: 85b7 f633 608d b433 0000 0000 0000 0000
00000060: 0000 0000 b14a d22c 4e48 6a2d a296 5a2d
00000070: ca84 2c33 e0ce 4834 01e6 1133 f6e3 c633
00000080: 614e b033 0000 0000 0000 0000 0000 0000
00000090: b125 9b2b c7d8 2c2c a144 212c 32f7 0a32
000000a0: 2c90 e531 844d f031 483b be32 a0af 3f33
000000b0: 0000 0000 0000 0000 0000 0000 1c2d 1e2b
000000c0: a938 b02b a46a a42b c7e8 3531 a2d1 9d31
000000d0: 4000 5031 5d30 7532 84f3 5831 0000 0000
000000e0: 0000 0000 0000 0000 deaa cf2a d85b 672b
000000f0: 42dc 572b 1098 2531 4792 1131 1755 4531
00000100: fee6 bb31 2f91 c031 0000 0000 0000 0000
00000110: 0000 0000 d4f3 ce2b e88f 662c fd1d 572c
00000120: 12c6 0c32 8abe bd32 bd4b 1c32 fdca df32
00000130: 733d a732 0000 0000 0000 0000 0000 0000
00000140: 8c0e e52b 3730 7f2c fc17 6e2c c322 2532
00000150: a2e3 0432 3e81 2932 39d5 9732 101b 5b32
00000160: 0000 0000 0000 0000 0000 0000 53c1 c92b
00000170: 9dc5 602c 01b7 512c 6d12 cb31 f3e9 f231
00000180: cc66 d731 3c84 8032 2a0a b832 0000 0000
00000190: 0000 0000 0000 0000 dce7 a82b c12c 3c2c
000001a0: c291 2f2c 9ecc f831 02df d131 b256 fd31
000001b0: 7b26 1633 1d1e da31 0000 0000 0000 0000
000001c0: 0000 0000 2f1e a02b 7562 322c 576f 262c
000001d0: 27c4 b831 d502 df31 65a5 0132 54eb 6332
000001e0: a899 3e32 0000 0000 0000 0000 0000 0000
000001f0: 7550 ea2c d185 822d fd8e 732d a1fb 2033
00000200: e425 0733 6226 0c33 9c0a a533 dfb6 4834
00000210: 0000 0000 0000 0000 0000 0000 f135 bf2b
00000220: 4606 552c 1fc1 462c c040 e431 4395 3b32
00000230: 92c2 e431 acb4 ce32 aff9 d432 0000 0000
00000240: 0000 0000 0000 0000 0454 a12a a3bb 332b
00000250: 66b1 272b ac0d a130 d3a3 c530 f0ca f030
00000260: 90f7 1831 d636 8831 0000 0000 0000 0000
00000270: 0000 0000 f208 ad2c 71c6 402d 8cdc 332d
00000280: 86b5 0b33 2c84 2033 2680 0f33 c72f 0b34
00000290: ec7c 0b33 0000 0000 0000 0000 0000 0000
000002a0: 1cb6 d92a 628c 722b ea4c 622b ee61 fb30
000002b0: 391e 2d31 9f7f 2231 2a7b 4832 2919 8831
000002c0: 0000 0000 0000 0000 0000 0000 e6a5 0b2d
000002d0: 5e94 9b2d 5128 912d 8944 7633 1cec a533
000002e0: 96a9 6433 9da1 da33 f426 af33 0000 0000
000002f0: 0000 0000 0000 0000 c7fc 852c e245 152d
00000300: 0846 0b2d c3c8 cd32 5038 1833 6fc5 ed32
00000310: 9343 c033 3198 1033 0000 0000 0000 0000
00000320: 0000 0000 8172 0d2d 8795 9d2d 1807 932d
00000330: d7b8 5533 c706 be33 ec9a 6433 b725 1534
00000340: 6d9e bb33 0000 0000 0000 0000 0000 0000
00000350: 9e85 612c 1340 fb2c 5e6b ea2c c13d 9a32
00000360: 0bf5 df32 36f7 8932 dd62 8033 1063 d132
00000370: 0000 0000 0000 0000 0000 0000 79da 162d
00000380: 2710 a82d 10ce 9c2d f768 5c33 caa3 4833
00000390: 6b7a 8433 92bc 5134 8d04 a133 0000 0000
000003a0: 0000 0000 0000 0000 65bd 832c e4c4 122d
000003b0: f9ef 082d cac7 ce32 6b9b 4333 2099 f732
000003c0: 4930 e233 5d88 1333 0000 0000 0000 0000
000003d0: 0000 0000 31eb 5d2c 5d3c f72c 85ac e62c
000003e0: a567 a532 7653 9932 af63 b832 cdf7 7133
000003f0: 2eac 2933 0000 0000 0000 0000 0000 0000
0.0 0.0 0.0 4.753702e-12 1.059204e-11 9.882499e-12 2.9480091e-08 4.055273e-08
3.354284e-08 9.714862e-08 5.4971757e-08 0.0 0.0 0.0 1.014472e-11 2.2604106e-11
2.1089906e-11 7.2704985e-08 1.2175056e-07 6.9367225e-08 1.148865e-07 8.407619e-08 0.0 0.0
0.0 5.9768514e-12 1.3317415e-11 1.24253125e-11 4.016764e-08 1.8701712e-07 3.396963e-08 9.261559e-08
8.209896e-08 0.0 0.0 0.0 1.1023874e-12 2.4563006e-12 2.2917573e-12 8.088863e-09
6.6811676e-09 6.993732e-09 2.214587e-08 4.4630383e-08 0.0 0.0 0.0 5.619548e-13
1.2521279e-12 1.16825e-12 2.6471285e-09 4.593134e-09 3.0268126e-09 1.42718735e-08 3.157056e-09 0.0
0.0 0.0 3.688915e-13 8.2195145e-13 7.6689013e-13 2.4097098e-09 2.1183426e-09 2.871564e-09
5.468677e-09 5.604441e-09 0.0 0.0 0.0 1.4704856e-12 3.276485e-12 3.0569984e-12
8.1941085e-09 2.2089143e-08 9.097616e-09 2.6052925e-08 1.9469303e-08 0.0 0.0 0.0
1.6275466e-12 3.6264444e-12 3.3835148e-12 9.612168e-09 7.735169e-09 9.866481e-09 1.7675676e-08 1.2753631e-08
0.0 0.0 0.0 1.4335567e-12 3.1942012e-12 2.9802274e-12 5.9101724e-09 7.069724e-09
6.26901e-09 1.4961294e-08 2.1425041e-08 0.0 0.0 0.0 1.2001472e-12 2.674125e-12
2.4949908e-12 7.2410122e-09 6.1080536e-09 7.373125e-09 3.4959594e-08 6.3480585e-09 0.0 0.0
0.0 1.1377061e-12 2.5349976e-12 2.3651825e-12 5.3774047e-09 6.490476e-09 7.546395e-09 1.32666464e-08
1.1094393e-08 0.0 0.0 0.0 6.6596125e-12 1.4838715e-11 1.38447006e-11 3.7481758e-08
3.1466598e-08 3.26312e-08 7.685341e-08 1.869298e-07 0.0 0.0 0.0 1.3586338e-12
3.0272603e-12 2.8244696e-12 6.6430346e-09 1.0918771e-08 6.6577934e-09 2.4063716e-08 2.4793591e-08 0.0
0.0 0.0 2.8657643e-13 6.3853973e-13 5.957651e-13 1.1718178e-09 1.4380198e-09 1.7519977e-09
2.2259634e-09 3.964355e-09 0.0 0.0 0.0 4.917949e-12 1.0957999e-11 1.0223943e-11
3.2528554e-08 3.7373113e-08 3.3411332e-08 1.2962765e-07 3.2477075e-08 0.0 0.0 0.0
3.8673307e-13 8.617049e-13 8.039807e-13 1.8290487e-09 2.5191993e-09 2.3646647e-09 1.16695364e-08 3.9609813e-09
0.0 0.0 0.0 7.938072e-12 1.7687348e-11 1.6502496e-11 5.733867e-08 7.726359e-08
5.3239624e-08 1.0180813e-07 8.156158e-08 0.0 0.0 0.0 3.8081513e-12 8.4851865e-12
7.916785e-12 2.3956437e-08 3.5441474e-08 2.7680214e-08 8.9529884e-08 3.366603e-08 0.0 0.0
0.0 8.040347e-12 1.7915237e-11 1.6715115e-11 4.9761038e-08 8.848797e-08 5.3226287e-08 1.3890427e-07
8.7366836e-08 0.0 0.0 0.0 3.2048596e-12 7.1409627e-12 6.6626e-12 1.7956042e-08
2.607205e-08 1.6061318e-08 5.9784476e-08 2.437585e-08 0.0 0.0 0.0 8.5750235e-12
1.9106562e-11 1.7826657e-11 5.1318207e-08 4.6715094e-08 6.168997e-08 1.9533243e-07 7.4979745e-08 0.0
0.0 0.0 3.744271e-12 8.342858e-12 7.78399e-12 2.407241e-08 4.5543327e-08 2.8824218e-08
1.0532728e-07 3.4350126e-08 0.0 0.0 0.0 3.1536546e-12 7.026864e-12 6.5561467e-12
1.925566e-08 1.7849498e-08 2.146575e-08 5.633756e-08 3.9504975e-08 0.0 0.0 0.0

exp_avg f4 [128]
00000000: a502 80b8 fa18 8cb9 bd46 5239 2fd7 dab8
00000010: 42e1 0cb8 c267 1a38 00c7 0238 9fa4 fe38
00000020: 4c5c 06b9 04cf acb8 ad1e 17b8 9fe0 96b9
00000030: 6da7 3b38 1094 05b8 90fd 07b9 c826 5938
00000040: 9d6e 57b9 ac72 b6b7 5abc 7339 c699 e9b8
00000050: 2fca c038 451d a538 f17d 92b8 533e 2f39
00000060: e268 f9b6 780d 78b8 d1a8 3739 50ff 3938
00000070: 2898 2739 025a 59b8 64ee f5b7 4147 6d37
00000080: f866 6db9 7e77 4e38 d637 0fb9 4e1a 17b8
00000090: 1a9a 8b37 3149 3cb8 8c4d f2b8 f70a c538
000000a0: 3c89 2939 53ac 2c38 bace e138 60a1 39b9
000000b0: 675c 24b6 8dec 1d39 9d85 42b8 09ce 6f38
000000c0: 3c2d beb6 76ff beb8 1867 9eb9 587c 1cb9
000000d0: 29dd 26b9 42e9 5bb8 f23f f8b8 ccaa 31b9
000000e0: ab63 b7b7 86ce 8eb8 e0bc 7d38 2ea9 b8b8
000000f0: 7e4e 97b6 54f6 bab8 721a a8b9 0b2b 7eb9
00000100: ceb9 33b9 2b50 8838 7697 e238 fb2b 1839
00000110: 9720 9338 8afa d936 ebfa eab6 6c22 ffb6
00000120: 979e a138 5d86 b4b7 4772 c7b8 5efe 11b8
00000130: 43db a3b9 27da c738 a6bb 2438 2f7d a138
00000140: 7772 0a38 6124 edb7 c4fd 28b9 d6fc 2039
00000150: e262 7e38 29de 09b8 6245 dfb8 150b 35b9
00000160: 58a7 3db8 3061 a8b7 52fe 1c38 3750 9338
00000170: d228 8539 6ca4 50b9 1d71 b938 e0c2 b3b8
00000180: ba43 19b9 c255 d8b8 3b21 9739 91c8 6cb9
00000190: db74 1ab8 d83a 4db9 d2e2 81b8 9b96 45b7
000001a0: f04f 3bb9 627d 1e36 37b6 63b7 7c79 f7b8
000001b0: 06ee 1f39 775f c638 89d8 b9b7 00bd 13b8
000001c0: c74f e737 66b6 a9b7 999e 85b7 69e5 2238
000001d0: 9833 a838 8ef5 8638 6aca 09b9 28a0 8338
000001e0: c483 cd38 1712 2539 6152 85b9 e629 ed38
000001f0: dd89 0439 873d 62b7 9460 2436 b2b6 bd37
-6.104008e-05 -0.0002672149 0.00020053513 -0.00010435131 -3.358839e-05 3.6813093e-05 3.117975e-05 0.00012142327
-0.00012813619 -8.240159e-05 -3.6029774e-05 -0.00028777585 4.47402e-05 -3.1847565e-05 -0.00012969063 5.177295e-05
-0.00020545204 -2.1749489e-05 0.00023244452 -0.00011138948 9.192933e-05 7.873265e-05 -6.985281e-05 0.00016712518
-7.4329882e-06 -5.914035e-05 0.00017515129 4.4345215e-05 0.00015983044 -5.1820658e-05 -2.9317285e-05 1.4142891e-05
-0.0002264044 4.9225513e-05 -0.00013658343 -3.6025704e-05 1.664185e-05 -4.4890858e-05 -0.000115539035 9.3957344e-05
0.0001616822 4.1168485e-05 0.00010767342 -0.00017703092 -2.449169e-06 0.00015060809 -4.637764e-05 5.7173926e-05
-5.6677072e-06 -9.107489e-05 -0.0003021292 -0.00014923641 -0.00015913382 -5.2430907e-05 -0.00011837472 -0.00016943662
-2.1861712e-05 -6.8095556e-05 6.0495804e-05 -8.805316e-05 -4.5092884e-06 -8.915053e-05 -0.0003206316 -0.00024239362
-0.00017139988 6.499918e-05 0.000108047316 0.00014512234 7.0155766e-05 6.4962705e-06 -7.002954e-06 -7.6035994e-06
7.706618e-05 -2.152024e-05 -9.510345e-05 -3.4807592e-05 -0.00031253145 9.5296935e-05 3.927541e-05 7.7003955e-05
3.3008368e-05 -2.8269542e-05 -0.00016116264 0.00015352978 6.065041e-05 -3.2870248e-05 -0.00010646392 -0.00017265634
-4.5216962e-05 -2.0072417e-05 3.7430153e-05 7.0244474e-05 0.0002539815 -0.00019897678 8.8425564e-05 -8.5716834e-05
-0.00014616447 -0.00010315656 0.00028825723 -0.0002258143 -3.682529e-05 -0.00019572244 -6.193448e-05 -1.1777181e-05
-0.00017863489 2.3616817e-06 -1.357268e-05 -0.00011800506 0.00015252092 9.4591574e-05 -2.215455e-05 -3.522355e-05
2.7574495e-05 -2.0231306e-05 -1.5928688e-05 3.8837465e-05 8.020474e-05 6.435356e-05 -0.00013140743 6.276398e-05
9.799705e-05 0.00015742365 -0.00025429114 0.00011308845 0.00012639859 -1.3484975e-05 2.449412e-06 2.261563e-05

exp_avg_sq f4 [128]
00000000: bc89 c632 c3d8 5333 6e9f f932 1b2a b831
00000010: 8ec2 3b31 ed81 f630 a1a8 f531 dcf2 0732
00000020: 4a7d ef31 ff7e c831 9210 be31 ad11 0b33
00000030: 11f9 e231 5f80 bf30 c865 cd32 0937 0131
00000040: 34c4 2533 110c 9f32 f5e6 2733 c7d9 8532
00000050: 4411 3333 1061 9c32 4bb6 8332 9743 3b32
00000060: 9b91 1e32 fd75 d031 44a4 b232 4648 8c32
00000070: 0c1e a732 ec95 2732 49f3 4132 97da 7b31
00000080: 39e8 d432 174f 1833 df83 1132 d043 cd31
00000090: b896 7d31 72f2 8e31 fa6b 2132 14a9 6e32
000000a0: 38af 3d33 4bd0 0232 b268 4732 a7d3 8e32
000000b0: 3c9b b131 50cd 2933 45d6 9c31 b50c 9e32
000000c0: 2411 2e32 2bd9 2932 0100 1733 061b d432
000000d0: 92e5 8333 5922 a430 95da a032 52c5 b232
000000e0: 4c8f ad32 264c 4c31 3f32 2032 59b0 b331
000000f0: 555c c330 2553 7233 062a 4633 47ab 8133
00000100: 455c 4a32 5011 0832 1f70 e931 6386 0e32
00000110: 2a82 f431 cb48 1332 3a15 3832 2a87 d031
00000120: b931 5832 ba25 5532 a2f6 2032 f09d 4532
00000130: 1e49 9533 e4f3 8932 3551 5532 bb5c d131
00000140: 54e5 1c31 a40a 4c31 23b7 1f32 675d bd32
00000150: bfe5 0432 99d0 7232 aa03 a432 7038 ca32
00000160: 498f 9032 ea6f 8f31 2321 1a32 443a e831
00000170: 9ac1 9132 73ec 0833 6482 3b32 358d 2732
00000180: 287e 9732 000f a731 5fc7 6833 1c14 2233
00000190: 6d90 8e32 6f60 8832 8605 3b31 192c 6832
000001a0: 020d b232 a8ae af31 8471 3733 1bad 2b32
000001b0: 5eb6 2133 ff2b 2d32 e2b0 4233 9f23 7c32
000001c0: a75f 1b32 3620 b630 dd0e 4d32 a34e c632
000001d0: aa95 ee32 f1d8 1131 c15e 5e32 99fa 0f32
000001e0: c0f0 e331 e3b0 9432 ac40 3933 4438 0d32
000001f0: be8a 3432 ecf8 0a31 75ae f431 9039 8532
2.3112868e-08 4.932441e-08 2.9059915e-08 5.3598916e-09 2.7322673e-09 1.7935783e-09 7.1496093e-09 7.913254e-09
6.970059e-09 5.835204e-09 5.5316116e-09 3.2379535e-08 6.6057813e-09 1.3933564e-09 2.3911426e-08 1.8803255e-09
3.8595502e-08 1.8515523e-08 3.909277e-08 1.5582271e-08 4.1692388e-08 1.820493e-08 1.5333304e-08 1.0900201e-08
9.229917e-09 6.0670104e-09 2.0796627e-08 1.6331011e-08 1.9455022e-08 9.754768e-09 1.1289395e-08 3.6649561e-09
2.478565e-08 3.546219e-08 8.470095e-09 5.9739946e-09 3.690202e-09 4.1603068e-09 9.395984e-09 1.3891867e-08
4.4164352e-08 7.614356e-09 1.16071295e-08 1.6627224e-08 5.169026e-09 3.953511e-08 4.564557e-09 1.83994e-08
1.013203e-08 9.886473e-09 3.515743e-08 2.4692337e-08 6.1419215e-08 1.1942333e-09 1.8725851e-08 2.0811658e-08
2.0205015e-08 2.9729192e-09 9.32465e-09 5.229634e-09 1.421436e-09 5.6420635e-08 4.6138688e-08 6.038186e-08
1.1778927e-08 7.920178e-09 6.793939e-09 8.296044e-09 7.1161326e-09 8.573077e-09 1.0715036e-08 6.068963e-09
1.258416e-08 1.240681e-08 9.3693036e-09 1.150282e-08 6.951653e-08 1.6059808e-08 1.2416696e-08 6.093243e-09
2.2831346e-09 2.9691956e-09 9.2966586e-09 2.204497e-08 7.7356495e-09 1.4133684e-08 1.9093779e-08 2.354156e-08
1.6828965e-08 4.174571e-09 8.971514e-09 6.7587127e-09 1.6968261e-08 3.1880017e-08 1.091448e-08 9.752786e-09
1.7636083e-08 4.862045e-09 5.4198036e-08 3.7736854e-08 1.6596653e-08 1.5876337e-08 2.7215221e-09 1.3514204e-08
2.0727843e-08 5.1130264e-09 4.271125e-08 9.99287e-09 3.7651596e-08 1.0079929e-08 4.533002e-08 1.467643e-08
9.043936e-09 1.3251398e-09 1.193595e-08 2.3085994e-08 2.7774906e-08 2.1223594e-09 1.2943645e-08 8.380675e-09
6.6339396e-09 1.7309906e-08 4.3132488e-08 8.2200735e-09 1.0508925e-08 2.0223139e-09 7.121168e-09 1.5509414e-08
