results/Smart5/Smart5/Smart5-75910.pt (torch, 454780 bytes, 47 tensors)

network_body.observation_encoder.processors.0.normalizer.running_mean f4 [8]
0	0xbea3e998	-0.32014155
1	0x00000000	0.0
2	0xbe998c4f	-0.2998986
3	0xc2639f64	-56.905655
4	0xc1a3d14d	-20.477198
5	0x41ad87ce	21.69131
6	0xc114d7ed	-9.302716
7	0x40890219	4.281506

network_body.observation_encoder.processors.0.normalizer.running_variance f4 [8]
0	0x49c6e946	1.6294808e+06
1	0x3f800000	1.0
2	0x49e6ee1e	1.8917798e+06
3	0x4f93e10f	4.9620004e+09
4	0x4e05fe60	5.620101e+08
5	0x4ea7a2db	1.406234e+09
6	0x4cd25a71	1.10285704e+08
7	0x4c277c19	4.3905124e+07

network_body.processors.0.normalizer.running_mean f4 [8]
0	0xbea3e998	-0.32014155
1	0x00000000	0.0
2	0xbe998c4f	-0.2998986
3	0xc2639f64	-56.905655
4	0xc1a3d14d	-20.477198
5	0x41ad87ce	21.69131
6	0xc114d7ed	-9.302716
7	0x40890219	4.281506

network_body.processors.0.normalizer.running_variance f4 [8]
0	0x49c6e946	1.6294808e+06
1	0x3f800000	1.0
2	0x49e6ee1e	1.8917798e+06
3	0x4f93e10f	4.9620004e+09
4	0x4e05fe60	5.620101e+08
5	0x4ea7a2db	1.406234e+09
6	0x4cd25a71	1.10285704e+08
7	0x4c277c19	4.3905124e+07

network_body._body_endoder.seq_layers.0.weight f4 [128, 8]
0	0xbedb1150	-0.42786646
1	0xbdbde5fe	-0.09272383
2	0x3e1be371	0.15223481
3	0x3dc908b7	0.09816115
4	0x3e92f8b1	0.2870536
5	0xbdc4c80a	-0.09608467
6	0x3e5b7460	0.21431112
7	0xbdb56569	-0.08857233
8	0x3df8255b	0.121165
9	0xbd6cf39e	-0.05784952
10	0xbc97a5b5	-0.018511632
11	0xbe377249	-0.1791469
12	0x3eb26385	0.34841552
13	0x3ef30022	0.4746104
14	0x3e0dd628	0.13851225
15	0x3e9be85f	0.30450723
16	0xbec0470e	-0.3755421
17	0xbece6b39	-0.4031618
18	0xbb10c928	-0.0022092555
19	0x3f42b2b8	0.76053953
20	0x3ebf10ee	0.37317604
21	0x3f096d2c	0.5368221
22	0xbef6d68b	-0.48210558
23	0xbe8afcd8	-0.2714603
24	0xbee21ea3	-0.44164
25	0xbe9cfa1e	-0.30659574
26	0xbd312b98	-0.043254465
27	0xbe3ef4fc	-0.18648142
28	0x3f0e2e96	0.55539834
29	0x3eacb3bb	0.33730873
30	0x3d8600a4	0.06543091
31	0xbebabb8b	-0.3647121
32	0xbe506751	-0.20351912
33	0x3e45ca0c	0.19315356
34	0xbec984f9	-0.39359263
35	0xbf01c603	-0.50692767
36	0xbefbaffe	-0.4915771
37	0x3eaf2595	0.3420836
38	0x3f326bd9	0.6969581
39	0xbee8d62e	-0.45475906
40	0xbf5c7497	-0.861154
41	0xb995ad29	-0.0002854851
42	0x3d8012a9	0.06253559
43	0xbe6dff80	-0.23241997
44	0x3e412a4d	0.18863793
45	0xbe2905fb	-0.16506188
46	0x3defbdf7	0.11706155
47	0xbe6ca6c8	-0.23110497
48	0x3c56c6e8	0.013108946
49	0xbebdab33	-0.37044677
50	0xbf0a6fa3	-0.54076594
51	0xbe803adf	-0.25044915
52	0xbe7cc03f	-0.24682711
53	0xbd2907cf	-0.041267212
54	0xbc1b1b85	-0.00946701
55	0x3d520d27	0.051282074
56	0x3e63f289	0.22260489
57	0x3e8b49a3	0.27204618
58	0xbda73f55	-0.081663765
59	0x3e9b4e7a	0.3033331
60	0x3efdc707	0.49565908
61	0xbd668451	-0.05627853
62	0x3dd8a728	0.105787575
63	0x3ed24f3f	0.41076085
64	0x3e8a131d	0.26967707
65	0xbf22d188	-0.6360097
66	0x3e5d8c12	0.21635464
67	0x3d71a02c	0.058990642
68	0x3f0c4df6	0.5480646
69	0xbe29ef4a	-0.16595188
70	0x3e26f912	0.1630595
71	0xbe1fa87b	-0.15591614
72	0xbed8c0f7	-0.4233472
73	0x3ef9789a	0.48724824
74	0xbb49c2d3	-0.003078629
75	0x3e420a88	0.1894933
76	0x3db657ed	0.08903489
77	0xbef4068c	-0.47661245
78	0xbed539c2	-0.41645628
79	0x3e6d4ae0	0.23173094
80	0xbd6e9236	-0.058244906
81	0x3ea0ed38	0.31430984
82	0xbf11169c	-0.56675124
83	0x3d8acf84	0.06777862
84	0xbf2d29fb	-0.6764218
85	0x3e582bea	0.21110502
86	0xb9cdb5fb	-0.00039236233
87	0x3f10d2ae	0.5657147
88	0xbf28a050	-0.6586962
89	0xbe901a02	-0.28144842
90	0xbe86d681	-0.26335528
91	0xbe21e555	-0.1581014
92	0x3e42b3af	0.19013856
93	0x3eccd91a	0.40009385
94	0xbd2aa75b	-0.04166351
95	0xbcc0eac6	-0.023549449
96	0x3e819c49	0.2531455
97	0xbefa039d	-0.48830882
98	0x3ecdf1ad	0.40223446
99	0xbf087cca	-0.53315413
100	0x3e96d947	0.29462644
101	0xbcfd26d6	-0.030902307
102	0xbdb0bae3	-0.08629396
103	0x3e60d15b	0.21954863
104	0x3d73e0cb	0.05954055
105	0xbe1dac0d	-0.15397663
106	0xbf32ff0f	-0.6992044
107	0x3ac709f2	0.0015185459
108	0x3f1496e1	0.5804272
109	0xbde31159	-0.11087293
110	0xbf099b95	-0.53753024
111	0xbd19bd92	-0.037534304
112	0x3df696e7	0.12040501
113	0x3e7e64b9	0.2484311
114	0xbe2c3825	-0.16818292
115	0x3e2d7d2f	0.16942285
116	0xbe3bf846	-0.18356428
117	0xbd8a5a1c	-0.06755468
118	0x3e57ff41	0.21093465
119	0x3e824f1a	0.25450975
120	0xbce91e1f	-0.028456746
121	0x3e022fa6	0.12713489
122	0x3f01236a	0.5044466
123	0x3e89e0c1	0.26929286
124	0xbd4444a9	-0.047917042
125	0x3ea7fd2f	0.3281035
126	0x3ecd436e	0.40090507
127	0xbe4af395	-0.19819482
128	0xbeae3127	-0.34021875
129	0xbe6637d7	-0.22482239
130	0xbd8a2cfb	-0.067468606
131	0x3e9b9b2f	0.30391833
132	0x3e8dbe04	0.27684033
133	0x3e29a1de	0.16565654
134	0x3eb576d9	0.35442236
135	0xbe1d3791	-0.15353228
136	0x3e6f6ae4	0.2338062
137	0xbeb4b684	-0.35295498
138	0x3ea309db	0.31843457
139	0x3f5e7af8	0.86906385
140	0xbe8ec057	-0.2788112
141	0x3e947b8e	0.29000515
142	0xbe04d1c6	-0.12970647
143	0xbdc7086e	-0.09718405
144	0xbecf4d8f	-0.4048886
145	0xbcc7aada	-0.02437346
146	0x3f2ff947	0.6873974
147	0x3e3ba805	0.18325813
148	0x3e0a68d9	0.13516559
149	0x3f35893f	0.70912546
150	0xbe10614b	-0.14099614
151	0x3e1bfb88	0.1523267
152	0x3e9f6582	0.31132132
153	0x3eab42aa	0.33449298
154	0xbe937320	-0.2879877
155	0x3d119ad5	0.03554805
156	0xbe500b81	-0.20316888
157	0x3e188487	0.14894305
158	0xbd9c17be	-0.07621716
159	0x3e2e3139	0.17010964
160	0xbe0f562a	-0.13997713
161	0x3ea00503	0.31253824
162	0x3d5a400d	0.05328374
163	0xbe9649ef	-0.29353282
164	0xbf0a0294	-0.53910184
165	0xbe051546	-0.12996396
166	0xbc4c638e	-0.012474908
167	0xbe96b0fa	-0.29431897
168	0xbf077c40	-0.52923965
169	0xbec0a82e	-0.3762831
170	0xbec54ca3	-0.38535032
171	0x3ea5f9a8	0.32417035
172	0xbd5bc16d	-0.053651262
173	0x3eda267d	0.4260749
174	0x3e32d7aa	0.17465082
175	0xbe38304c	-0.17987174
176	0xbdfd2514	-0.12360588
177	0x3e2d0b78	0.16898906
178	0xbcfb8326	-0.030702185
179	0xbe028b62	-0.12748483
180	0x3f0312e0	0.51200676
181	0xbe1b6940	-0.15176868
182	0x3f1ea3ac	0.61968493
183	0xbe25ecf3	-0.1620367
184	0x3e583f55	0.21117909
185	0x3dfce52d	0.12348399
186	0x3e360e9e	0.17779014
187	0x3df09612	0.11747374
188	0x3ec1aa6c	0.37825334
189	0xbe711c0c	-0.23545855
190	0xbf23205a	-0.6372124
191	0xbcffac30	-0.031210035
192	0xbd0e4659	-0.034735058
193	0x3e540366	0.20704421
194	0xbbdf829a	-0.006820989
195	0x3ef3ac51	0.47592404
196	0x3e53ecd6	0.20695814
197	0x3e082724	0.13296181
198	0xbf2d3217	-0.67654556
199	0xbf1dc020	-0.61621284
200	0xbea728fa	-0.3264845
201	0xbe0ab2c9	-0.13544764
202	0xbf2f34f9	-0.68440205
203	0x3f03cddc	0.5148599
204	0xbea5fd44	-0.3241979
205	0xbe5f73a3	-0.21821456
206	0xbf2f1299	-0.6838775
207	0xbeb511d0	-0.35365152
208	0xbe15b27c	-0.14618868
209	0xbbafb44d	-0.0053620697
210	0xbe4f5ce1	-0.20250274
211	0xbf0d9d32	-0.55317986
212	0x3e94f9ce	0.29096836
213	0xbdfcbb37	-0.12340396
214	0xbe401fdb	-0.18762152
215	0x3e9c8435	0.30569616
216	0xbceb5250	-0.028725773
217	0xbe89d01a	-0.2691658
218	0x3c948950	0.018131882
219	0xbe7a0cc9	-0.2441894
220	0xbd9b4481	-0.075814255
221	0xbe31c2de	-0.17359492
222	0xbe9f334e	-0.3109383
223	0xbd9f706b	-0.07785114
224	0x3ed62451	0.41824582
225	0x3e8a4d6f	0.27012202
226	0xbd4115c0	-0.047139883
227	0x3d34ead4	0.044169262
228	0xbd2c54f0	-0.04207319
229	0x3df00f4c	0.11721668
230	0xbe311e67	-0.17296754
231	0xbf383155	-0.71950275
232	0x3f0ccb90	0.5499811
233	0xbf275672	-0.6536628
234	0xbcfd883a	-0.030948747
235	0x3ed51178	0.4161489
236	0x3da760cb	0.08172759
237	0x3e159a6b	0.14609687
238	0xbf4385fd	-0.76376325
239	0xbc8f9c76	-0.017530661
240	0x3cafd642	0.02146447
241	0x3e73cd19	0.23808707
242	0xbe4ca6c2	-0.19985488
243	0xbd7f9b70	-0.062404096
244	0xbde63923	-0.11241367
245	0xbe06b0f8	-0.13153446
246	0x3de9d905	0.11418346
247	0xbf3c5c23	-0.7357809
248	0x3ee5a2b3	0.44850692
249	0xbef1b1d5	-0.47205988
250	0x3e23a4ed	0.15980883
251	0x3f183efa	0.59471095
252	0xbe402123	-0.1876264
253	0x3f2253b6	0.6340898
254	0x3e6b3eb6	0.22973141
255	0x3e7c2726	0.24624309

network_body._body_endoder.seq_layers.0.bias f4 [128]
0	0x3d40bfc7	0.047057893
1	0xbb3f4f30	-0.0029191487
2	0x3d350251	0.044191662
3	0xbd6881fc	-0.056764588
4	0x3c0da66c	0.008645635
5	0x3d1d9ae7	0.038477805
6	0xbc31cde1	-0.010852308
7	0xbb28a331	-0.0025732035
8	0xbd18bdd6	-0.037290417
9	0x3d6f3734	0.058402255
10	0x3bd845db	0.0066001243
11	0x3d58bfc9	0.052917276
12	0x3cb367ed	0.021900142
13	0x3d253aa9	0.040339146
14	0xbc0e2d88	-0.008677848
15	0xbca9917b	-0.020699253
16	0xbcfc3c25	-0.030790398
17	0x3d1968ca	0.03745345
18	0x3d88e6e4	0.06684664
19	0xbc993a50	-0.018704563
20	0xbd385c67	-0.045009997
21	0x3cba1460	0.022714794
22	0xbd02d3ab	-0.031940144
23	0x3d12ac3f	0.035808798
24	0x3d13f9b4	0.036126807
25	0xbc33e21f	-0.010979204
26	0xbcb8cc0c	-0.022558235
27	0xbc112ce5	-0.008860801
28	0x3cc7db71	0.02439663
29	0x3c8b2045	0.01698316
30	0x3ca42110	0.020035297
31	0x3cec859e	0.028872307
32	0x3d2bb1e1	0.041917685
33	0x3cde85cc	0.027163409
34	0xbd7c1e9f	-0.06155264
35	0x3ca2845a	0.0198385
36	0xbc1658d9	-0.009176456
37	0x3c624ad2	0.013811784
38	0xbd494b5d	-0.049144138
39	0xbc728a4b	-0.014803479
40	0xbd91b267	-0.07114106
41	0x3d619cfa	0.055081345
42	0x3d39f89c	0.045403108
43	0x3d10b77a	0.035331227
44	0x3cdd2ed0	0.026999861
45	0xbcc5606a	-0.024093825
46	0x3d1f31a0	0.038865685
47	0x3cfd648e	0.030931737
48	0x3cbbaf2f	0.022910682
49	0xbd232a53	-0.039835285
50	0x3d8c73ed	0.068580486
51	0x3d2d7f86	0.042357944
52	0xbd00b80c	-0.03142552
53	0x3d20995c	0.039208755
54	0x3d06736d	0.032824922
55	0xbcf59a26	-0.02998073
56	0xbd462058	-0.04837069
57	0xbd3c42c7	-0.04596212
58	0xba5aea5f	-0.0008350964
59	0xbc1d8d9c	-0.009616282
60	0x3d51ee6a	0.05125276
61	0xbd157e9e	-0.036497705
62	0x3d325f4b	0.04354791
63	0xbd223a61	-0.039606456
64	0xba2ca3a1	-0.0006585662
65	0x3b4fcf5a	0.0031709285
66	0x3b2078e3	0.0024486117
67	0x3cce2e63	0.025168603
68	0x3d58823e	0.052858584
69	0x3cbe394c	0.02322068
70	0x3c933961	0.017971696
71	0x3cba2875	0.02272437
72	0x3d6a984e	0.057274155
73	0xbd42e4dd	-0.047581542
74	0x3d1d4485	0.038395423
75	0x3d484332	0.048892207
76	0x3d1699d0	0.03676778
77	0x3d21a0f5	0.03946014
78	0x3d2885cd	0.041143227
79	0x3d238ad6	0.039927326
80	0xbd29baee	-0.041438036
81	0xbd88c040	-0.06677294
82	0xbd10782b	-0.03527085
83	0xbd98f953	-0.0746943
84	0x3c983869	0.018581586
85	0xbc4438a9	-0.011976399
86	0xbc521537	-0.012822441
87	0xbd05530d	-0.032549907
88	0x3d19b3e2	0.037525065
89	0x3d8952c6	0.06705241
90	0xbcb2f96f	-0.021847455
91	0x3d3a7e69	0.04553071
92	0x3cd1e836	0.025623422
93	0x3bf3389f	0.0074225212
94	0x3cbcb671	0.023036214
95	0x3d23f89b	0.04003201
96	0x3d2d4f6b	0.042312067
97	0xbd0f3147	-0.034959104
98	0x3c3e1a27	0.011602915
99	0x3d3e01e2	0.046388514
100	0x3d816e4f	0.06319868
101	0x3b413600	0.002948165
102	0xbca2f151	-0.01989046
103	0x3cd75de0	0.02628988
104	0x3d5b84bf	0.053593393
105	0x3cd9e590	0.026598722
106	0xbd77386f	-0.060356554
107	0xbaa01445	-0.0012213072
108	0xbd91642c	-0.070991844
109	0x3c05ac33	0.008158731
110	0x3d6a929f	0.057268735
111	0x3d2b8863	0.041878115
112	0xbca664ad	-0.020311678
113	0xbd93d685	-0.07218651
114	0x3d0dd5a7	0.034627583
115	0xbc0f2e62	-0.008739086
116	0xb9caa907	-0.00038654378
117	0xbb522d57	-0.0032070482
118	0x3cd62b02	0.026143555
119	0x3cbf0373	0.023317074
120	0x3d505c09	0.05086902
121	0x3b56d9b6	0.0032783574
122	0x3c6b4fed	0.0143623175
123	0x3d0ef1b8	0.03489849
124	0x3d888dd6	0.06667678
125	0xbcf640e9	-0.030060248
126	0x3d1343cc	0.035953328
127	0xbc8dc0fe	-0.01730394

network_body._body_endoder.seq_layers.2.weight f4 [128, 128]
0	0x3d00e9d5	0.031473
1	0xbdce9062	-0.100861326
2	0xbcfd1448	-0.03089346
3	0x3c5db032	0.013530778
4	0xbe4761fc	-0.19470972
5	0xbd670d76	-0.05640932
6	0x3cf39f10	0.029738933
7	0x3e338957	0.1753286
8	0xbc017fd9	-0.007904016
9	0x3dade686	0.084912345
10	0xbd08fb51	-0.0334428
11	0xbd57fedf	-0.0527333
12	0x3d9925a4	0.074778825
13	0xbdb1f48a	-0.0868922
14	0x3d92ab6e	0.07161604
15	0xbc95f858	-0.018306896
16	0xba911ab6	-0.0011070583
17	0x3cf1b342	0.029504422
18	0xbd738b3d	-0.05945896
19	0xbc913664	-0.01772613
20	0xbd86d81c	-0.06584188
21	0x3d464b66	0.04841175
22	0x3dd510df	0.104036085
23	0x3db8c693	0.0902225
24	0xbd1bdcae	-0.038052253
25	0xbe29e4d0	-0.16591191
26	0x3d464a67	0.0484108
27	0x3db3df19	0.08782787
28	0xbdd145cd	-0.102183916
29	0x3cf41811	0.029796632
30	0x3dfb2331	0.122625716
31	0xbdbcc343	-0.09216931
32	0x3d2bdf1b	0.041960817
33	0xbda67974	-0.08128634
34	0xbddfd00b	-0.10928353
35	0x3e1315b8	0.14363754
36	0xbdb6cc29	-0.08925659
37	0x3e44fc53	0.19236879
38	0xbe145a4f	-0.14487575
39	0xbd915b3f	-0.07097482
40	0xbd2d3be6	-0.04229345
41	0xbdfcd07e	-0.12344454
42	0xbe741c75	-0.2383898
43	0xbd94b9f2	-0.07262029
44	0xbd7894c8	-0.060688764
45	0xbe10fb81	-0.14158441
46	0x3ca4d9ee	0.020123448
47	0xbe1fdcc2	-0.15611556
48	0x3bcba8a3	0.0062151714
49	0xbc54cc6f	-0.012988194
50	0x3e08c0f6	0.13354859
51	0xbd42ad8a	-0.04752878
52	0x3d4dcacd	0.050242234
53	0x3da8b5ec	0.08237824
54	0xbdae33af	-0.085059516
55	0xbb807a0f	-0.0039208005
56	0xbdb4d156	-0.0882899
57	0x3e7535df	0.23946331
58	0x3da9512e	0.08267437
59	0x3be3cfe7	0.006952274
60	0xbce518ed	-0.027965987
61	0xbc90b97e	-0.017666575
62	0x3de5c5b6	0.11219351
63	0x3d22c993	0.039743017
64	0xbd56ebd8	-0.052471012
65	0x3d04e1fa	0.03244207
66	0xbd770a3e	-0.060312502
67	0xbd5262f7	-0.05136391
68	0xbbc97685	-0.006148162
69	0x3ca08694	0.019595422
70	0xbd9faa3b	-0.07796141
71	0x3dedcbcb	0.11611136
72	0xbcda8afc	-0.026677601
73	0x3c222d9b	0.0098985685
74	0xbe0ca987	-0.13736545
75	0xbe1cc41f	-0.1530919
76	0x3d3caffb	0.046066266
77	0x3d6640d5	0.056214172
78	0xbda6f879	-0.08152861
79	0xbde62df4	-0.112392336
80	0xbd51ae52	-0.051191635
81	0xbd15ae27	-0.036543038
82	0xbdc83644	-0.09775975
83	0xbc84ecad	-0.016226137
84	0x3c3af761	0.011411519
85	0xbdb5cd12	-0.08877005
86	0xbdbdb972	-0.092638865
87	0xbd9931b1	-0.07480181
88	0xbd1a6f02	-0.03770352
89	0xbd59f1e5	-0.053209204
90	0xbe311246	-0.17292127
91	0xbe6dffcc	-0.2324211
92	0x3e0e7f91	0.1391585
93	0xbd83a620	-0.0642817
94	0x3db26e70	0.087124705
95	0xbd8efec7	-0.06982189
96	0xbcf22559	-0.029558824
97	0x3e1cca30	0.15311503
98	0xbdcc5e3d	-0.09978912
99	0x3e1d3da5	0.15355547
100	0xbc8b638a	-0.017015237
101	0xbd902525	-0.07038335
102	0xbc8416f9	-0.016124235
103	0xbc9a188c	-0.018810533
104	0xbe07d564	-0.13264996
105	0xbd4aa522	-0.04947389
106	0xbc95667a	-0.018237341
107	0x3e182095	0.14856179
108	0xbc2d5f09	-0.01058174
109	0xbc8c0a67	-0.017094804
110	0xbdff92aa	-0.12479146
111	0x3df58c01	0.11989594
112	0xbe0973ff	-0.13423155
113	0x3d683b98	0.056697458
114	0xbd73e232	-0.05954189
115	0x3cf5fa60	0.030026615
116	0xbeab2b76	-0.33431596
117	0xbe1b1e42	-0.15148261
118	0xba8d8e9f	-0.0010799951
119	0xbdd476e2	-0.103742376
120	0xbca5fd93	-0.020262515
121	0xbda300ca	-0.07959135
122	0x3c277d6d	0.010222775
123	0xbe4f22a8	-0.20228064
124	0xbb409657	-0.0029386485
125	0xbd90402c	-0.0704349
126	0x3d2dfdbc	0.042478308
127	0xbd22079c	-0.039558038
128	0x3e2fcd5d	0.17168184
129	0xbca81100	-0.020515919
130	0xbe800d59	-0.25010183
131	0x3d646b54	0.05576642
132	0x3c231543	0.0099538
133	0xbd0d0005	-0.034423847
134	0x3d36e0f0	0.04464811
135	0xbd064f6e	-0.032790594
136	0x3d465f4b	0.048430722
137	0x3df4bc5e	0.11949991
138	0x3db9d738	0.09074253
139	0x3d2c657f	0.04208898
140	0x3d1dfbf2	0.038570352
141	0xbd9feb97	-0.07808607
142	0xbd0e44f8	-0.034733742
143	0x3cfd8cb6	0.030950885
144	0xbdeb63ed	-0.11493669
145	0x3ddde8d6	0.108354256
146	0x3e194b67	0.1497017
147	0x3e5fb16c	0.21845025
148	0x3b869bbe	0.0041079214
149	0x3ddb9cdd	0.10723279
150	0xbdae56a5	-0.0851262
151	0xbcea449d	-0.02859717
152	0xbc33857c	-0.010957118
153	0x3cc33d9b	0.023833087
154	0xbce87f57	-0.028381033
155	0xbd3c9713	-0.046042513
156	0x3d18a5e9	0.0372676
157	0xbc981867	-0.018566323
158	0x3cd4b5bf	0.02596557
159	0x3dc01b44	0.093802005
160	0x3d74e0a1	0.059784535
161	0x3d13e61d	0.036108125
162	0xbc1d414d	-0.009598088
163	0x3d9f526d	0.07779393
164	0x3e51ddca	0.20494762
165	0xbdcc466a	-0.09974368
166	0x3d241353	0.04005749
167	0xbdecd3f8	-0.11563867
168	0x3d45f6e8	0.04833117
169	0xbda1695e	-0.07881425
170	0xbde54035	-0.11193887
171	0xbbb31da6	-0.005466181
172	0x3c459366	0.012059068
173	0xbe12f2db	-0.14350455
174	0x3bb4d05e	0.0055180034
175	0xbb959420	-0.004564777
176	0x3d93a8d6	0.07209937
177	0xbd7d4ef8	-0.06184289
178	0x3e2a6b9e	0.16642615
179	0xbe585260	-0.21125174
180	0xbc5d3663	-0.013501736
181	0x3e30940e	0.17243978
182	0x3d87e49b	0.066354
183	0xbd95a192	-0.07306208
184	0x3d4adb08	0.04952529
185	0xbcfa01d4	-0.03051845
186	0xbd198843	-0.037483465
187	0xbcb4e64b	-0.022082468
188	0xbddf2312	-0.10895361
189	0xbd2fa16b	-0.04287855
190	0x3d922b02	0.07137109
191	0x3cc803a1	0.024415793
192	0x3d653b5f	0.055964824
193	0x3c894ae3	0.016759342
194	0xbd4983f1	-0.049198095
195	0x3d541bd9	0.05178437
196	0x3e29f83f	0.16598605
197	0xbd038590	-0.032109797
198	0xbd3081da	-0.043092586
199	0x3e4b0e36	0.1982964
200	0xbdf12bc3	-0.11775925
201	0xbdf85050	-0.121246934
202	0x3c3a5814	0.0113735385
203	0x3cdece56	0.027197998
204	0x3ea53173	0.3226429
205	0xbcc03f5e	-0.023467716
206	0x3d8e27c9	0.06941182
207	0xbc7fd74a	-0.015615294
208	0xbba5eaf8	-0.005063411
209	0xbe0dec45	-0.13859661
210	0xbd998fff	-0.07498168
211	0xbe55728b	-0.20844476
212	0xbc762b22	-0.015024932
213	0xbe01d5b6	-0.1267918
214	0xbdbf1eb4	-0.09332028
215	0xbca46219	-0.020066308
216	0x3d87d9de	0.06633352
217	0x3d413bb7	0.04717609
218	0x3dca8093	0.09887805
219	0xbaa0126c	-0.0012212521
220	0xbdd39272	-0.103306666
221	0x3d6f677d	0.058448303
222	0x3d428f24	0.04749979
223	0x3e47aa6a	0.19498602
224	0x3e1ce80b	0.15322892
225	0xbd7be5d7	-0.06149849
226	0xbd993e1b	-0.07482549
227	0x3d25407c	0.0403447
228	0x3dc72583	0.09723952
229	0x3baf5f74	0.005351955
230	0xbe1f1e51	-0.15538909
231	0x3d83da0b	0.06438073
232	0xbd8146b3	-0.06312313
233	0x3c146727	0.009057797
234	0x3ce0fe5f	0.027465044
235	0xbd11dad9	-0.0356091
236	0xbdc424cf	-0.09577333
237	0xbd0fe2cf	-0.03512841
238	0x3e3f48f7	0.18680178
239	0x3db32474	0.08747187
240	0xbe7ae5c0	-0.24501705
241	0x3c22e56d	0.009942395
242	0x3d3adc1f	0.04562008
243	0xbcaedf52	-0.021346722
244	0xbc952d40	-0.018210053
245	0xbd47fe6a	-0.048826613
246	0xbe17052a	-0.14748064
247	0xbde9323f	-0.11386537
248	0xbcc6a449	-0.02424826
249	0x3ea2045d	0.31643954
250	0x3dcee25e	0.1010177
251	0xbdbaaad7	-0.09114616
252	0xbd1350d9	-0.035965774
253	0xbcc8f60f	-0.024531392
254	0x3d25805b	0.040405612
255	0xbe69ccf2	-0.22832087

network_body._body_endoder.seq_layers.2.bias f4 [128]
0	0xbc34cac6	-0.011034673
1	0x3d52c4a7	0.051457074
2	0x3d7b85f8	0.06140706
3	0xbcaeb8a0	-0.02132827
4	0x3d834ba5	0.064109124
5	0x3c54a8bc	0.012979683
6	0xbb8a6a16	-0.004224072
7	0x3c85077d	0.016238922
8	0x3d8190d4	0.06326452
9	0x3bcae549	0.0061918837
10	0xbd0a2f1e	-0.03373634
11	0x3d7b58c5	0.061363954
12	0xbc836152	-0.016037617
13	0x3d7dc1a5	0.061952252
14	0x3c0df7a1	0.008664996
15	0xbc92121a	-0.017830897
16	0xbc37086c	-0.0111714415
17	0x3d7daafc	0.06193064
18	0xbd64a9c6	-0.05582597
19	0xbce78324	-0.028260775
20	0xbd84523d	-0.06460998
21	0xbd048bab	-0.03235976
22	0x3c84ccb4	0.016210891
23	0x3d627dfe	0.055295937
24	0x3d00f6c8	0.03148535
25	0x3ca202e7	0.019776775
26	0x3cc4dd1a	0.02403121
27	0xbd65e745	-0.05612876
28	0x3d742879	0.05960891
29	0xbd5b6a78	-0.053568333
30	0xbc3772b0	-0.011196777
31	0x3d3f19c7	0.046655443
32	0xbd22e05d	-0.03976475
33	0xbc64e72d	-0.013971132
34	0xbd7f9ebb	-0.062407237
35	0x3a604446	0.00085550954
36	0x3d6847f4	0.056709245
37	0xbd4728c0	-0.048622847
38	0xbd945e14	-0.072445065
39	0xbd12cdfb	-0.03584097
40	0x3d6a4b75	0.057200868
41	0xbd6758dd	-0.05648123
42	0xbd6a3e79	-0.057188485
43	0xbc9fe1b5	-0.019516805
44	0x3b178382	0.0023119156
45	0xbd703246	-0.058641694
46	0x3bf8085c	0.007569356
47	0xb71766a8	-9.024203e-06
48	0xbd72ceda	-0.0592793
49	0xbd62c8f6	-0.055367433
50	0xbd0e6907	-0.03476813
51	0x3d44899a	0.04798279
52	0x3d236f5d	0.039901126
53	0x3c8d06ed	0.017215217
54	0xbbd6d4f0	-0.006556146
55	0xbce38179	-0.027771698
56	0xbcee4ccf	-0.02908936
57	0x3d1ddaef	0.03853887
58	0x3d2fc0d2	0.042908497
59	0xb9afdda0	-0.00033543725
60	0x3d27ff48	0.04101494
61	0x3c600ea8	0.013675369
62	0x3d5e8082	0.054321773
63	0xbb979424	-0.004625814
64	0x3d383c16	0.044979177
65	0x3c3e6f5e	0.011623232
66	0x3ce9fddd	0.028563434
67	0x3bd498c3	0.006487937
68	0x3bfd2794	0.0077256653
69	0xbafd279b	-0.0019314172
70	0x3a92b56d	0.0011192985
71	0x3c103383	0.008801344
72	0x3d4390ce	0.04774552
73	0xbc0f48c6	-0.008745378
74	0x3d02bef7	0.0319204
75	0x3cc45bef	0.023969619
76	0xbd35cac3	-0.04438282
77	0x3c484f95	0.012226005
78	0xbd357766	-0.04430332
79	0xbd41e7cd	-0.047340203
80	0x3d64a6b8	0.055823058
81	0x3d864c19	0.06557483
82	0xbd39dc1e	-0.045375936
83	0xbb828ece	-0.003984309
84	0x3d5fd890	0.05464989
85	0x3d7a8e78	0.061171025
86	0xbd4e66aa	-0.050390877
87	0xbd4b0556	-0.049565636
88	0x3d27c801	0.040962223
89	0xbd0221bf	-0.031770464
90	0x3cdc1857	0.026867075
91	0x3d871121	0.06595064
92	0xbc4838ed	-0.012220603
93	0xbd2750c6	-0.040848516
94	0x3c5d7227	0.013515986
95	0x3d3aadd5	0.045575935
96	0x3d6c93e3	0.057758223
97	0x3d0a2e78	0.033735722
98	0x3b4e959e	0.0031522284
99	0xbc875d36	-0.016523939
100	0xbbec25f5	-0.0072066733
101	0x3d46e907	0.048562076
102	0x3d845fc7	0.064635806
103	0xbb31df35	-0.0027141098
104	0xbd60c2e6	-0.05487337
105	0xbc8b5171	-0.017006608
106	0x3c22ffba	0.009948665
107	0x3d1a3aa2	0.037653573
108	0x3c0fb07b	0.008770104
109	0x3d1774bc	0.03697656
110	0xbcd76d52	-0.026297245
111	0xbc011ae0	-0.007879943
112	0x3d07f1bd	0.033189524
113	0x3ca87287	0.020562423
114	0x3d5fb261	0.054613475
115	0xbd86ba01	-0.06578446
116	0x3b9ebd0a	0.0048443126
117	0xbc01dd51	-0.007926301
118	0xbd58e18c	-0.052949473
119	0x3d85487b	0.06507965
120	0xbd4cc644	-0.04999377
121	0x3d5b0781	0.053473953
122	0x3adc95c1	0.0016829298
123	0xbcb96bbf	-0.022634385
124	0x3d1a6f74	0.037703946
125	0xbc07ed77	-0.008296362
126	0xbd603174	-0.054734662
127	0x3d6f0f66	0.058364294

action_model._continuous_distribution.log_sigma f4 [1, 2]
0	0xbd9c0c75	-0.076195635
1	0xbd847cce	-0.06469117

action_model._continuous_distribution.mu.weight f4 [2, 128]
0	0xbc492ccf	-0.01227875
1	0xbd552cc0	-0.05204463
2	0xbd577579	-0.052602265
3	0x3c4531d5	0.012035807
4	0xbd0f3fa0	-0.034972787
5	0xbc6dd5e0	-0.014516324
6	0xbc7c831d	-0.015412119
7	0x3ca2107f	0.019783257
8	0xbd44677e	-0.04795026
9	0x3c48950b	0.012242566
10	0x3cae024c	0.02124133
11	0xbd7e74bf	-0.062123057
12	0x3c2f7e6f	0.010711296
13	0xbd4d00ff	-0.050049778
14	0x3b8ff2b7	0.0043929475
15	0x3c47b2f4	0.012188662
16	0xba530dbb	-0.0008051057
17	0xbd811baf	-0.06304108
18	0x3d1dc782	0.038520344
19	0x3d56371c	0.05229865
20	0x3cfed96a	0.03110953
21	0x3b866809	0.0041017574
22	0xbba2d17d	-0.0049688206
23	0xbd5f51dd	-0.05452143
24	0xbc61b7ac	-0.013776701
25	0xbcc32def	-0.023825614
26	0xbc1722dd	-0.009224621
27	0x3d71046d	0.05884211
28	0xbd1b0e9c	-0.03785573
29	0x3cbfc36e	0.023408618
30	0xbab2498d	-0.0013602242
31	0xbd087bd6	-0.033321224
32	0x3c4108e0	0.011781901
33	0x3c989c1e	0.01862913
34	0x3d84c6bc	0.06483218
35	0xbc401498	-0.01172366
36	0xbd326d5d	-0.04356133
37	0x3d329c7b	0.043606263
38	0x3ce7f010	0.028312713
39	0x3d6bd788	0.057578593
40	0xbd65fd9a	-0.056150056
41	0x3cd066b6	0.025439601
42	0x3d56515a	0.052323677
43	0x3c196afc	0.009363886
44	0xbca30010	-0.01989749
45	0x3d7fc5b6	0.06244441
46	0xba191af2	-0.0005840502
47	0xbb4da7d4	-0.003138055
48	0x3d20d4f5	0.03926559
49	0x3ccbbcae	0.024870243
50	0x3cf2191a	0.029552985
51	0xbcf3d9e9	-0.029766994
52	0xbce5e857	-0.02806489
53	0xbc8819e6	-0.016613912
54	0xbc3e786c	-0.0116253905
55	0x3d2d9b12	0.042384215
56	0x3cab4a23	0.020909375
57	0xbcff850e	-0.031191375
58	0xbc61816e	-0.013763769
59	0xbc2c7134	-0.010525037
60	0xbcd33722	-0.025783125
61	0xbb68f9c0	-0.0035549253
62	0xbd2d1d1d	-0.042264093
63	0xbb8b5448	-0.0042519905
64	0xbd16a357	-0.036776867
65	0x3bd5ca59	0.006524366
66	0xbd4323ca	-0.047641553
67	0xbc85597d	-0.016278023
68	0x3cb79304	0.02240897
69	0x3c159636	0.009130051
70	0xbc026d4b	-0.007960628
71	0xbcc5bb76	-0.02413724
72	0xbc5f9a5e	-0.013647644
73	0x3b105de7	0.0022028626
74	0xbcf9f5fd	-0.030512804
75	0xbc51539e	-0.012776284
76	0x3c8d853c	0.017275445
77	0x3c52f2f8	0.012875311
78	0x3d118688	0.03552869
79	0x3d179298	0.037005037
80	0xbd295ea2	-0.041350015
81	0xbd40fbc9	-0.04711512
82	0x3c89442d	0.016756142
83	0x3b89d286	0.0042060046
84	0xbd21191e	-0.039330594
85	0xbd3c1f01	-0.045928005
86	0x3d17cc3c	0.037060007
87	0x3c7001e8	0.014648892
88	0xbcdda393	-0.027055537
89	0x3c79fb98	0.0152577385
90	0xbbef9498	-0.007311415
91	0xbd1c76c3	-0.038199198
92	0x38c311ac	9.301616e-05
93	0x3d83a058	0.064270675
94	0xbcc151f9	-0.023598658
95	0xbd063219	-0.03276262
96	0xbd0745e0	-0.033025622
97	0xbcec485c	-0.028843097
98	0xbb3faedc	-0.0029248511
99	0x3c7d8ce0	0.015475482
100	0xbbb44687	-0.0055015716
101	0xbcc52786	-0.024066698
102	0xbcde7487	-0.027155174
103	0xbc5e33cb	-0.013562153
104	0x3c98e845	0.018665442
105	0xbbf38599	-0.0074316976
106	0xbcc31eb3	-0.02381835
107	0xbc1ec1ff	-0.009689807
108	0x3c601f39	0.013679319
109	0xbcfca487	-0.030840172
110	0xb9a54ffb	-0.00031530843
111	0x3c3daba3	0.011576566
112	0xbc67f852	-0.014158325
113	0xbbf69779	-0.007525381
114	0xbd1ca1bf	-0.03824019
115	0x3cfe1cb1	0.03101954
116	0xbabdf685	-0.0014493024
117	0xba07d19d	-0.0005181076
118	0x3c877e0f	0.016539602
119	0xbd09bf3e	-0.03362965
120	0x3d83eeff	0.06442069
121	0xbcfc46a7	-0.030795408
122	0xbbe2e867	-0.006924677
123	0x3bd6fcbe	0.006560891
124	0xbcf268e1	-0.029591026
125	0xbc09409a	-0.008377219
126	0x3d385414	0.04500206
127	0xbd69c7f4	-0.057075456
128	0xbd5b8d9f	-0.053601857
129	0x3cac670f	0.021045236
130	0xbcf3a269	-0.02974053
131	0x3c24ecbd	0.010066208
132	0x3c2e2f11	0.010631339
133	0xbc656409	-0.014000901
134	0x3bdcbc91	0.006736346
135	0x3d689bee	0.05678933
136	0x3bcab397	0.0061859596
137	0x3cf3c679	0.029757725
138	0x3c425356	0.011860689
139	0xbbfc8d11	-0.007707246
140	0x3c144cdc	0.009051528
141	0x3c590227	0.013245142
142	0x3d1bf8b2	0.03807897
143	0xbd0fcfcd	-0.035110284
144	0xbd2c24bd	-0.042027224
145	0xbc6d2742	-0.014474692
146	0xbbd46038	-0.0064811967
147	0x3cfbf037	0.030754192
148	0xbc1487e0	-0.009065598
149	0xbd4a5952	-0.04940159
150	0x3cb8fb7b	0.022580853
151	0x3d624d13	0.055249285
152	0x3cf4a267	0.029862596
153	0x3d5293fc	0.05141066
154	0x3c892f51	0.016746195
155	0xbc675108	-0.01411844
156	0x3accb7b9	0.0015618718
157	0xbce4186c	-0.027843677
158	0x3c0cf9fa	0.008604521
159	0xbbd78b40	-0.006577879
160	0xbd008568	-0.031377226
161	0xbcda209a	-0.026626874
162	0xbcb9fb34	-0.02270279
163	0xbca8794f	-0.020565657
164	0x3cccf3b3	0.025018549
165	0xbc852f5d	-0.016257936
166	0xbcc1eef7	-0.023673518
167	0x3c7ab92e	0.015302939
168	0x3d23ac83	0.039959442
169	0xbc0f2fcd	-0.008739424
170	0xbc21402e	-0.009841962
171	0x3ba2a344	0.0049633104
172	0xbda0699e	-0.07832645
173	0xbd0e5a53	-0.03475411
174	0x3cad411f	0.021149216
175	0x3b0e5b0b	0.0021721746
176	0xbc829bb3	-0.015943384
177	0xbc9bc926	-0.019016813
178	0xbd44653e	-0.047948115
179	0xb91515ac	-0.0001421782
180	0x3b042cf7	0.0020168403
181	0xbb291ab1	-0.0025803263
182	0x3d1f7935	0.03893395
183	0x3cbbe3d5	0.022935787
184	0x3ca5de41	0.02024758
185	0xbcebdc08	-0.028791443
186	0xbc511b75	-0.012762894
187	0xbbc9e53a	-0.006161359
188	0x3ce4c0e8	0.027924016
189	0x3c4e33be	0.0125855785
190	0x3c94cfa2	0.018165413
191	0x3c3e848e	0.011628283
192	0x3d102c9d	0.035198797
193	0x3c621679	0.013799303
194	0xbd3709c6	-0.044687055
195	0x3c2f658c	0.010705363
196	0x3d38a1de	0.045076244
197	0x3cac2095	0.02101163
198	0xbd7d25e8	-0.06180373
199	0xbd250f8e	-0.040298037
200	0x3cc99148	0.024605408
201	0xbd661664	-0.056173697
202	0x3ad7f076	0.0016474861
203	0x3af04ba2	0.0018333087
204	0x3a26661d	0.00063476135
205	0x3d3b491d	0.045724023
206	0xbcacc53f	-0.021090148
207	0xbd42c9f4	-0.04755588
208	0x39923cc3	0.0002789256
209	0x3c7694f3	0.015050161
210	0xbbf4e3a9	-0.0074734283
211	0x3b687b15	0.0035473753
212	0xbc8a76ae	-0.016902294
213	0x3cb4a3b2	0.022050712
214	0x3b724a4f	0.003697056
215	0xbb96632d	-0.0045894594
216	0xbbc55a67	-0.0060227397
217	0x3abb17b9	0.0014274038
218	0x3ccebc0f	0.025236158
219	0x3cbbac57	0.022909326
220	0x3b4dde2d	0.0031412945
221	0x3cf0427e	0.029328581
222	0xbd293379	-0.041308854
223	0x3d1f65ee	0.038915567
224	0x3c33b6e4	0.0109688975
225	0xbbcaccfa	-0.006188986
226	0xbbff4c89	-0.007791106
227	0xbd93ea9a	-0.07222481
228	0xbd53a231	-0.05166835
229	0x3b217321	0.0024635273
230	0xbbe25f56	-0.0069083376
231	0xbc8ffffe	-0.017578121
232	0x3be03c8a	0.0068431543
233	0xbcfaebd5	-0.030630032
234	0xbd385861	-0.04500616
235	0x3cecdef1	0.0289149
236	0x3c8365d5	0.016039768
237	0xbb891e88	-0.004184548
238	0x3b21985c	0.0024657464
239	0xbc033df9	-0.008010381
240	0x3c7ee787	0.01555813
241	0xbc24e276	-0.010063758
242	0xbbd11be7	-0.0063815
243	0xbcd0a590	-0.025469571
244	0x3bde573a	0.0067853006
245	0xbd694446	-0.056949876
246	0xbd079e66	-0.033110045
247	0x3b086467	0.0020811798
248	0x3b24f428	0.0025169943
249	0xbc89b418	-0.016809508
250	0x3d6fca30	0.05854243
251	0x3c238626	0.009980714
252	0xbb7edf18	-0.0038890298
253	0xbd698224	-0.057008877
254	0xbb5703b7	-0.003280861
255	0x3cdd522a	0.027016718

action_model._continuous_distribution.mu.bias f4 [2]
0	0xbd6e2e13	-0.05814941
1	0x3ca6ba03	0.02035237

action_model._discrete_distribution.branches.0.weight f4 [1, 128]
0	0x3bac23d6	0.0052532954
1	0x3a3fa86b	0.0007311168
2	0x3a441efb	0.0007481423
3	0x3bb0b435	0.005392576
4	0xbcc0792a	-0.023495276
5	0xbc70574b	-0.01466925
6	0xbb690182	-0.0035553877
7	0xbc6497cf	-0.01395221
8	0xbc130ff1	-0.008975969
9	0xbb8316d7	-0.0040005255
10	0x3c617532	0.013760852
11	0xbc316f47	-0.010829753
12	0x3ba073f8	0.004896637
13	0x3b8a254c	0.004215872
14	0x3bfd3035	0.007726694
15	0xbb9e9ee7	-0.00484072
16	0xbb3a732f	-0.0028450002
17	0x3b3e9a84	0.0029083798
18	0xbbef66f3	-0.0073059737
19	0x3c284103	0.010269406
20	0x3bf02d68	0.0073296316
21	0xbc19329b	-0.009350444
22	0x3b33a0e4	0.002740913
23	0x3b0ed647	0.00217952
24	0x3ba0985d	0.0049009756
25	0x3c608385	0.013703232
26	0x3c78d23b	0.015186842
27	0x3b11b96b	0.0022235762
28	0xbc0049d3	-0.007830101
29	0x3a00869f	0.00049028726
30	0x3bb4b213	0.005514392
31	0x3be1f933	0.006896162
32	0xbad3f6fb	-0.0016171628
33	0xbb9a4feb	-0.004709234
34	0xbb84b97f	-0.004050433
35	0xbc454a38	-0.012041621
36	0x3be9a4f2	0.0071302587
37	0xbabcdf6c	-0.0014409847
38	0xb9c08d3c	-0.00036726322
39	0x3bf6274f	0.00751201
40	0x3ba3d00b	0.004999166
41	0x3b294b46	0.002583222
42	0x3bc6cec1	0.0060671275
43	0x3cad0a5b	0.021123102
44	0x3b172529	0.002306292
45	0xbbc46bd1	-0.005994298
46	0x36702d8f	3.5789305e-06
47	0xba531043	-0.00080514344
48	0x3c6ea848	0.014566489
49	0xbae3eff8	-0.0017390242
50	0x3a4cbd5d	0.00078102
51	0xb95fb0a3	-0.0002133274
52	0x39933551	0.0002807775
53	0xbc81a699	-0.01582651
54	0x3b83e559	0.004025143
55	0x3c3bdecb	0.011466692
56	0xbc30f12b	-0.010799686
57	0xbc86d45b	-0.01645868
58	0xbb6c8c8b	-0.0036094512
59	0xbb8c80a7	-0.0042877975
60	0xbc0caa45	-0.008585517
61	0xb982b6fb	-0.00024931863
62	0xbabc9bf3	-0.0014389738
63	0xbc21bb86	-0.009871369
64	0x3c37e4c2	0.011223974
65	0x3be804eb	0.0070806644
66	0x3ba97fe7	0.005172718
67	0x3c0eb12b	0.008709232
68	0xbc56fc1f	-0.013121634
69	0x3ba084e0	0.0048986524
70	0xbc16135b	-0.009159888
71	0xbc21f46b	-0.009884934
72	0xb9f8e54f	-0.00047473094
73	0xb9893837	-0.0002617256
74	0xbbb26bbc	-0.005444972
75	0x3b5e5412	0.0033924622
76	0xbb90408a	-0.004402225
77	0xbbe3de7b	-0.006954012
78	0xbba9d5cd	-0.0051829577
79	0x3c7ec05a	0.01554879
80	0xbbf7476f	-0.0075463573
81	0x3c2eb503	0.010663274
82	0xbc1acc91	-0.0094481865
83	0xbbd639f5	-0.0065376707
84	0xbc0cf820	-0.0086040795
85	0xbbbc018b	-0.0057374886
86	0x3c0e0323	0.00866774
87	0xbbaa2b39	-0.005193141
88	0x3aed6415	0.0018111492
89	0x3c84b834	0.016201116
90	0xbc00ff28	-0.007873334
91	0x3a89e77b	0.0010521257
92	0xbb9d1102	-0.0047932873
93	0x3a8a1f72	0.0010537936
94	0x3aea5330	0.0017877575
95	0x3b074054	0.0020637708
96	0x3be972b0	0.0071242675
97	0x3bf2e922	0.0074130455
98	0xbaace61b	-0.0013191135
99	0xbb31e007	-0.0027141587
100	0x3b20c5d5	0.002453198
101	0x3c75b6e5	0.014997219
102	0x3c118d57	0.008883796
103	0x3b854e9e	0.00406821
104	0xbb9f301a	-0.004858029
105	0x3c41b457	0.0118227815
106	0xbba603eb	-0.005066385
107	0xbb6fe102	-0.003660262
108	0x3c543d17	0.012954018
109	0x3c81d5c3	0.015849
110	0xbc246c66	-0.01003561
111	0x3c42f2df	0.011898725
112	0x3c814ca7	0.015783621
113	0x3b249f17	0.002511924
114	0xbb067faa	-0.002052287
115	0xbc3042cb	-0.010758112
116	0xbb71c993	-0.003689383
117	0x3bfa5728	0.0076397844
118	0x3c5e88d3	0.013582426
119	0x3c0770b6	0.0082666185
120	0xbc2c6173	-0.010521281
121	0x3c749592	0.0149282385
122	0xbbf5cbdb	-0.007501108
123	0xbc1c4a55	-0.0095392065
124	0x3c942645	0.018084655
125	0xbb05c03c	-0.002040877
126	0xbcada676	-0.021197539
127	0x3b41cd6d	0.0029571906

exp_avg f4 [128, 8]
0	0xb7828d43	-1.5562988e-05
1	0x00000000	0.0
2	0x388d965a	6.751409e-05
3	0x37839ff4	1.56909e-05
4	0x35b0715c	1.3146014e-06
5	0x35a6ac18	1.241805e-06
6	0x360dce7c	2.1130827e-06
7	0x37839941	1.5687781e-05
8	0x370e0721	8.465519e-06
9	0x00000000	0.0
10	0xb800c5bf	-3.0701744e-05
11	0xb704b3ac	-7.909646e-06
12	0xb706bc9c	-8.030936e-06
13	0x36de1452	6.618481e-06
14	0xb65a7775	-3.2554065e-06
15	0x36cf0cd5	6.1705746e-06
16	0xb5151270	-5.5533656e-07
17	0x00000000	0.0
18	0xb819c280	-3.6659185e-05
19	0x36b3e66e	5.3614413e-06
20	0x356961bf	8.6941503e-07
21	0x36229062	2.4223923e-06
22	0x374d4982	1.2236067e-05
23	0x36903956	4.298209e-06
24	0xb84e23d4	-4.9147595e-05
25	0x00000000	0.0
26	0x3889db1f	6.5734836e-05
27	0xb5503255	-7.755928e-07
28	0x36813cde	3.8515855e-06
29	0xb69a2225	-4.5935326e-06
30	0xb685558f	-3.973669e-06
31	0xb6a3b2a8	-4.878577e-06
32	0xb919a8e6	-0.00014654137
33	0x00000000	0.0
34	0xb788cdc5	-1.6308282e-05
35	0xb8893ae1	-6.543636e-05
36	0xb848c92e	-4.787108e-05
37	0x3774723e	1.4570132e-05
38	0xb827dd46	-4.002198e-05
39	0x37467a91	1.1830257e-05
40	0xb83b2281	-4.461641e-05
41	0x00000000	0.0
42	0x38c68fe7	9.4681796e-05
43	0x388dd07b	6.7622364e-05
44	0x3863a2c6	5.4272612e-05
45	0xb6a8ace3	-5.026917e-06
46	0x3861439f	5.3707157e-05
47	0xb5f64abd	-1.835018e-06
48	0xb927d72c	-0.00016006519
49	0x00000000	0.0
50	0x381ccc3f	3.7383517e-05
51	0xb87b6fe6	-5.9947277e-05
52	0xb83cc55e	-4.5006505e-05
53	0x3763498e	1.354738e-05
54	0xb82abc40	-4.070648e-05
55	0x37846c67	1.5786105e-05
56	0x385b9d53	5.236019e-05
57	0x00000000	0.0
58	0xb7fff997	-3.0514593e-05
59	0x378a407a	1.6480906e-05
60	0x36ba9b98	5.5613455e-06
61	0xb694b635	-4.4319554e-06
62	0x3727abb3	9.9939525e-06
63	0x35755941	9.1399494e-07
64	0x37788b39	1.4814367e-05
65	0x00000000	0.0
66	0x3805494a	3.1777927e-05
67	0x374a1634	1.2045308e-05
68	0x36c85788	5.9706545e-06
69	0xb64d8728	-3.0626052e-06
70	0x3679042d	3.7106322e-06
71	0xb580ecf7	-9.605709e-07
72	0x3801cbf5	3.0945946e-05
73	0x00000000	0.0
74	0x382c7952	4.1120984e-05
75	0x38fcc4a2	0.00012052922
76	0x38cc5bfe	9.744613e-05
77	0xb71b252e	-9.2473765e-06
78	0x38d8cb9e	0.00010337609
79	0xb7921092	-1.7412272e-05
80	0xb92baa0a	-0.00016371175
81	0x00000000	0.0
82	0x377224a4	1.4432855e-05
83	0xb87d738f	-6.0427523e-05
84	0xb85294e2	-5.020656e-05
85	0x37b1c052	2.11896e-05
86	0xb8248280	-3.9222185e-05
87	0x37c8616e	2.3887227e-05
88	0x3854529c	5.0621675e-05
89	0x00000000	0.0
90	0xb980ea5d	-0.00024588677
91	0x388f250f	6.825674e-05
92	0x383ea518	4.5453286e-05
93	0xb5e372f9	-1.6946279e-06
94	0x38d595cf	0.000101845355
95	0x35fc54bc	1.8800124e-06
96	0x3726f226	9.950751e-06
97	0x00000000	0.0
98	0x36b625e9	5.428436e-06
99	0x384fc4c2	4.953589e-05
100	0x3832f0a4	4.266262e-05
101	0xb6ea61e4	-6.9851394e-06
102	0x38422c00	4.6294183e-05
103	0xb75b0e05	-1.3056681e-05
104	0xb8a03ceb	-7.6407414e-05
105	0x00000000	0.0
106	0xb7d31e22	-2.5167192e-05
107	0x37173384	9.012296e-06
108	0x36977cfe	4.5147017e-06
109	0x36ed8bcf	7.0794263e-06
110	0x37d52186	2.540719e-05
111	0x37263e80	9.908923e-06
112	0x3808ca40	3.2613287e-05
113	0x00000000	0.0
114	0xb7bc537b	-2.245022e-05
115	0x3721403d	9.611304e-06
116	0x36517348	3.121053e-06
117	0xb6000476	-1.9076083e-06
118	0x3707e645	8.100241e-06
119	0x33de6224	1.0355532e-07
120	0x3795fc63	1.787971e-05
121	0x00000000	0.0
122	0xb6ff1838	-7.6024116e-06
123	0xb4eba871	-4.3894718e-07
124	0xb5ce3175	-1.536259e-06
125	0x35d9d7d3	1.6230573e-06
126	0xb567c3fa	-8.633939e-07
127	0xb5635bfe	-8.4697956e-07
128	0xb77bc78e	-1.5007228e-05
129	0x00000000	0.0
130	0xb8153cc1	-3.558095e-05
131	0x361adcb4	2.3076254e-06
132	0x360629d5	1.9991905e-06
133	0xb4f09b1d	-4.4816343e-07
134	0x373eae71	1.1365498e-05
135	0xb4afc7d4	-3.2741684e-07
136	0x3725cef4	9.882951e-06
137	0x00000000	0.0
138	0xb7f7ba47	-2.9531437e-05
139	0x3786624d	1.601982e-05
140	0x36a4dffa	4.913655e-06
141	0x3480ee4e	2.4015247e-07
142	0x378c5034	1.6726648e-05
143	0x3686be82	4.0156892e-06
144	0xb7e09d57	-2.6776148e-05
145	0x00000000	0.0
146	0x37f00594	2.8612827e-05
147	0x38b02ec7	8.401047e-05
148	0x38935a00	7.02627e-05
149	0xb7980435	-1.8121771e-05
150	0x38941c06	7.06241e-05
151	0xb782fcbf	-1.5614902e-05
152	0x37142175	8.829277e-06
153	0x00000000	0.0
154	0x38131a3b	3.507196e-05
155	0xb82d7ed4	-4.1364532e-05
156	0xb81d908d	-3.756634e-05
157	0x371cee4a	9.353806e-06
158	0xb84f1f35	-4.938171e-05
159	0x3755220d	1.2703717e-05
160	0x36ec3d10	7.0404567e-06
161	0x00000000	0.0
162	0x3820be8a	3.8324426e-05
163	0xb82eb11a	-4.164977e-05
164	0xb7ffb20f	-3.0481284e-05
165	0x35325a4a	6.6441555e-07
166	0xb848bd5d	-4.7860074e-05
167	0x34f8a09f	4.6310467e-07
168	0x37b34185	2.1368973e-05
169	0x00000000	0.0
170	0xb90ab71e	-0.00013228922
171	0x35e0cbc1	1.6748601e-06
172	0xb69ab3cf	-4.61049e-06
173	0x372ae546	1.01861715e-05
174	0x37a5a4b6	1.9746232e-05
175	0x372b829f	1.0222807e-05
176	0x386c4e9b	5.633999e-05
177	0x00000000	0.0
178	0x3837f47d	4.3858297e-05
179	0x3768e077	1.388054e-05
180	0x36baf8bc	5.5721885e-06
181	0xb5f78b71	-1.8443517e-06
182	0x353ca4b7	7.027515e-07
183	0x35e3cc09	1.69722e-06
184	0x371e572d	9.437831e-06
185	0x00000000	0.0
186	0x37a45c63	1.9593344e-05
187	0x386eec18	5.69635e-05
188	0x382b2a70	4.08091e-05
189	0xb71298c2	-8.737845e-06
190	0x384b5049	4.8473743e-05
191	0xb7003c94	-7.643499e-06
192	0xb823f3a7	-3.9089147e-05
193	0x00000000	0.0
194	0x3889a5e4	6.5635686e-05
195	0x382ec428	4.1667518e-05
196	0x37cff5f9	2.4790863e-05
197	0xb64a1520	-3.0112642e-06
198	0x380fca7f	3.4282446e-05
199	0x36eb6ee2	7.016454e-06
200	0xb88545f6	-6.3549654e-05
201	0x00000000	0.0
202	0xb8a1ec96	-7.721146e-05
203	0x38376c5f	4.373153e-05
204	0x381cb067	3.7357586e-05
205	0x3577aa66	9.226263e-07
206	0x3891e346	6.956472e-05
207	0xb61ac510	-2.3062494e-06
208	0xb5fcf2f7	-1.8846175e-06
209	0x00000000	0.0
210	0xb88960a1	-6.5506676e-05
211	0xb76ae2b9	-1.4000275e-05
212	0xb782cced	-1.5592634e-05
213	0x377483f3	1.4574255e-05
214	0xb6a78949	-4.99297e-06
215	0x3784b064	1.5817765e-05
216	0x382ca938	4.1165593e-05
217	0x00000000	0.0
218	0x36f3fce7	7.271406e-06
219	0xb6ad5ffa	-5.166975e-06
220	0xb6856a5a	-3.97609e-06
221	0xb6a7610f	-4.988287e-06
222	0xb74b4084	-1.2114764e-05
223	0xb68155c2	-3.854483e-06
224	0xb8acfaff	-8.248351e-05
225	0x00000000	0.0
226	0xb832d97a	-4.2641048e-05
227	0x37a13e5b	1.9221732e-05
228	0x36dc960d	6.573979e-06
229	0x37c7c7aa	2.3815624e-05
230	0x384d391d	4.8929e-05
231	0x37c5c5f1	2.3576404e-05
232	0xb7588f53	-1.29079735e-05
233	0x00000000	0.0
234	0x37a74c9c	1.9943625e-05
235	0x36ea52e1	6.983392e-06
236	0x36870a7a	4.024533e-06
237	0x365c4e04	3.2827966e-06
238	0x3707fdb5	8.105698e-06
239	0x36372cac	2.7295127e-06
240	0xb93a7462	-0.00017781698
241	0x00000000	0.0
242	0xb8ad532e	-8.264776e-05
243	0x3502f6c6	4.8787876e-07
244	0x366e713d	3.5530677e-06
245	0x3747f601	1.1918602e-05
246	0x384f0b4c	4.9363167e-05
247	0x37562c52	1.2765713e-05
248	0xb85a0c39	-5.1986633e-05
249	0x00000000	0.0
250	0x34fdb64b	4.7257558e-07
251	0xb616f6de	-2.2495437e-06
252	0xb51d864b	-5.868248e-07
253	0x36cd6c16	6.122059e-06
254	0x36a4d15e	4.9119544e-06
255	0x36c0465e	5.7302377e-06

exp_avg_sq f4 [128, 8]
0	0x359b3f49	1.1566818e-06
1	0x00000000	0.0
2	0x351d74f7	5.8657264e-07
3	0x3344d5ff	4.5829434e-08
4	0x32ff9b08	2.9756407e-08
5	0x332b3054	3.9857994e-08
6	0x33759d02	5.7186305e-08
7	0x336695d0	5.36873e-08
8	0x3314b02e	3.461917e-08
9	0x00000000	0.0
10	0x330d1339	3.2846604e-08
11	0x320cd31d	8.197074e-09
12	0x323e78eb	1.1086949e-08
13	0x3278071d	1.4437117e-08
14	0x320cb08e	8.189216e-09
15	0x328c0187	1.629884e-08
16	0x348a02e5	2.570661e-07
17	0x00000000	0.0
18	0x34548a90	1.9794447e-07
19	0x32807d21	1.4958063e-08
20	0x32224ca8	9.447071e-09
21	0x329ddaa2	1.8376628e-08
22	0x32cb3581	2.3656641e-08
23	0x32dcfbfc	2.572596e-08
24	0x344cf0c8	1.9086576e-07
25	0x00000000	0.0
26	0x33cb62b1	9.470876e-08
27	0x32049ac0	7.718597e-09
28	0x31a2fdff	4.7436965e-09
29	0x31d892f4	6.303134e-09
30	0x3238a579	1.0747834e-08
31	0x31f3a8aa	7.0914057e-09
32	0x3554f041	7.932577e-07
33	0x00000000	0.0
34	0x355e3602	8.2780036e-07
35	0x33bd413c	8.8128644e-08
36	0x33923f8b	6.810213e-08
37	0x3398250b	7.0847896e-08
38	0x33e380f2	1.0593966e-07
39	0x33bcd525	8.793203e-08
40	0x3585c633	9.966956e-07
41	0x00000000	0.0
42	0x34e150d3	4.1968323e-07
43	0x33457e3f	4.5982457e-08
44	0x3300769c	2.9910197e-08
45	0x332256d4	3.7797534e-08
46	0x3389cfdb	6.417368e-08
47	0x336ef2e2	5.5634594e-08
48	0x352019dd	5.964228e-07
49	0x00000000	0.0
50	0x352b78b8	6.3878133e-07
51	0x34221024	1.5093298e-07
52	0x3410185b	1.3419906e-07
53	0x3441631f	1.8010586e-07
54	0x343e8217	1.7742455e-07
55	0x3468904d	2.165918e-07
56	0x34afab23	3.2720808e-07
57	0x00000000	0.0
58	0x34966809	2.8015373e-07
59	0x3296656f	1.7508425e-08
60	0x32241658	9.551137e-09
61	0x3278a13d	1.4472161e-08
62	0x32ce90ec	2.404746e-08
63	0x32f10154	2.8056697e-08
64	0x340c0bbe	1.3042788e-07
65	0x00000000	0.0
66	0x34163736	1.3989924e-07
67	0x3206f652	7.855833e-09
68	0x319f7bc2	4.6415787e-09
69	0x319b0605	4.511778e-09
70	0x3232f5d5	1.0416859e-08
71	0x31d25dc1	6.122463e-09
72	0x357093d8	8.962211e-07
73	0x00000000	0.0
74	0x34fd3271	4.7161623e-07
75	0x33e974cd	1.0871154e-07
76	0x33ade7e8	8.098124e-08
77	0x33d0f9ff	9.731229e-08
78	0x342c8898	1.6068441e-07
79	0x341731e6	1.4081124e-07
80	0x35269cda	6.206807e-07
81	0x00000000	0.0
82	0x352939f1	6.304172e-07
83	0x33c91e05	9.3652524e-08
84	0x339b2b96	7.225678e-08
85	0x33b6d3c1	8.513553e-08
86	0x33f7cc82	1.15390336e-07
87	0x33ed084f	1.1037684e-07
88	0x3635df07	2.710092e-06
89	0x00000000	0.0
90	0x35dc26fd	1.6402624e-06
91	0x346f550e	2.2289552e-07
92	0x34410129	1.7974948e-07
93	0x3490b550	2.6954012e-07
94	0x349fba23	2.975149e-07
95	0x34c01c49	3.5783367e-07
96	0x33c7e153	9.307646e-08
97	0x00000000	0.0
98	0x33a209e4	7.545512e-08
99	0x33422f6b	4.521227e-08
100	0x332cec65	4.026187e-08
101	0x334c2852	4.7534122e-08
102	0x3384a296	6.176303e-08
103	0x336f6d87	5.574614e-08
104	0x342ac898	1.590546e-07
105	0x00000000	0.0
106	0x345338f5	1.9671627e-07
107	0x3281219e	1.5032864e-08
108	0x3208fd7d	7.9738784e-09
109	0x325be48f	1.2799446e-08
110	0x32bb6e89	2.181993e-08
111	0x32a77813	1.9495962e-08
112	0x3414e990	1.3868544e-07
113	0x00000000	0.0
114	0x340155f3	1.204533e-07
115	0x321199df	8.475097e-09
116	0x31d458f8	6.1801266e-09
117	0x3207bfc1	7.901634e-09
118	0x3237597c	1.0672348e-08
119	0x3259f55c	1.2686851e-08
120	0x341a636b	1.4378536e-07
121	0x00000000	0.0
122	0x34266247	1.5495708e-07
123	0x31b2ae9f	5.200334e-09
124	0x318bc229	4.067506e-09
125	0x31a12538	4.689948e-09
126	0x321d8d4f	9.170733e-09
127	0x31db7fd6	6.388272e-09
128	0x341de908	1.470654e-07
129	0x00000000	0.0
130	0x33dcb99e	1.0278312e-07
131	0x31eed966	6.951427e-09
132	0x3194730b	4.320446e-09
133	0x31a62002	4.8348747e-09
134	0x3229245d	9.845363e-09
135	0x3200f5db	7.506482e-09
136	0x35264e68	6.1953915e-07
137	0x00000000	0.0
138	0x3513278c	5.4819316e-07
139	0x330c4312	3.265729e-08
140	0x32adefb8	2.0248862e-08
141	0x32de8548	2.590481e-08
142	0x33471d8f	4.636018e-08
143	0x331727d5	3.5193654e-08
144	0x36441213	2.9216797e-06
145	0x00000000	0.0
146	0x35afc243	1.3095054e-06
147	0x34dbabd9	4.0916964e-07
148	0x34cedf8a	3.8533136e-07
149	0x3526f89a	6.220158e-07
150	0x3515b2a8	5.5766805e-07
151	0x3565b8db	8.557815e-07
152	0x33af3501	8.158714e-08
153	0x00000000	0.0
154	0x33c08f41	8.9667545e-08
155	0x3381cd45	6.044369e-08
156	0x338021e6	5.9666306e-08
157	0x33bba87b	8.7385125e-08
158	0x3399a412	7.154462e-08
159	0x33e4c2c3	1.0652504e-07
160	0x34ce6636	3.8444858e-07
161	0x00000000	0.0
162	0x3487168b	2.5162112e-07
163	0x3352637b	4.8984912e-08
164	0x3332da3b	4.1642334e-08
165	0x335003cf	4.8432238e-08
166	0x3387283e	6.2937474e-08
167	0x336a196a	5.4505485e-08
168	0x35701e23	8.945082e-07
169	0x00000000	0.0
170	0x3506bd6f	5.019455e-07
171	0x33478895	4.645752e-08
172	0x33144a98	3.4526778e-08
173	0x3342831a	4.528838e-08
174	0x338a3927	6.436522e-08
175	0x33859af9	6.2214845e-08
176	0x35338cb0	6.6887424e-07
177	0x00000000	0.0
178	0x351c9289	5.8327765e-07
179	0x33134373	3.428745e-08
180	0x32b19b3f	2.067611e-08
181	0x32b6bb0a	2.1272644e-08
182	0x33555988	4.9674355e-08
183	0x32fbe9e9	2.9326616e-08
184	0x34e399af	4.2393864e-07
185	0x00000000	0.0
186	0x34b98a35	3.4559494e-07
187	0x33099b82	3.203923e-08
188	0x32a2d4a2	1.8955976e-08
189	0x32c47237	2.2869342e-08
190	0x3361a9dd	5.2541385e-08
191	0x3315c48b	3.487052e-08
192	0x34fcd0af	4.7090495e-07
193	0x00000000	0.0
194	0x34d8ca9f	4.0380561e-07
195	0x3310ec1a	3.3742346e-08
196	0x32a7aea7	1.9520781e-08
197	0x32a64574	1.9356527e-08
198	0x33546975	4.945601e-08
199	0x32e5f76c	2.6771623e-08
200	0x352a445f	6.342943e-07
201	0x00000000	0.0
202	0x351d36c6	5.8566764e-07
203	0x3355ce82	4.9780745e-08
204	0x330904a9	3.1902037e-08
205	0x331bdd8b	3.6290242e-08
206	0x338ba802	6.503252e-08
207	0x336a9252	5.4615448e-08
208	0x344d86b7	1.9141122e-07
209	0x00000000	0.0
210	0x33cc8d49	9.52519e-08
211	0x333812a8	4.2857806e-08
212	0x331ef1dc	3.700721e-08
213	0x338d1846	6.5702395e-08
214	0x3385fad6	6.238922e-08
215	0x33e2db32	1.05638165e-07
216	0x341ed860	1.4793613e-07
217	0x00000000	0.0
218	0x33f62887	1.14626395e-07
219	0x32d8aed8	2.522522e-08
220	0x32b2b2f1	2.08033e-08
221	0x32c8eea8	2.3391593e-08
222	0x330d415d	3.288857e-08
223	0x32ff6a8e	2.9734363e-08
224	0x35b53d23	1.3503344e-06
225	0x00000000	0.0
226	0x35c14271	1.4398958e-06
227	0x33ae343d	8.1120085e-08
228	0x33381c82	4.2866766e-08
229	0x335117e5	4.8683336e-08
230	0x33e74997	1.0770162e-07
231	0x33960c9e	6.9872144e-08
232	0x339a52fd	7.186279e-08
233	0x00000000	0.0
234	0x334dd2b6	4.7921922e-08
235	0x3219b86e	8.947707e-09
236	0x31e28fb4	6.593803e-09
237	0x323cb5be	1.0984364e-08
238	0x326d3ed6	1.3809503e-08
239	0x328c8f6e	1.636337e-08
240	0x361b571a	2.31475e-06
241	0x00000000	0.0
242	0x36052788	1.9841555e-06
243	0x340a0ccd	1.2856908e-07
244	0x339d41ee	7.322875e-08
245	0x33a50244	7.6838234e-08
246	0x3439d551	1.7307072e-07
247	0x33f2b8e9	1.1302638e-07
248	0x3449a9c6	1.8781347e-07
249	0x00000000	0.0
250	0x3431cd0c	1.6559005e-07
251	0x330bbb91	3.253405e-08
252	0x330a22e6	3.216237e-08
253	0x33558681	4.9715258e-08
254	0x3333ed5c	4.1892562e-08
255	0x33864ba0	6.2536174e-08

exp_avg f4 [128]
0	0x3810fc8e	3.4567485e-05
1	0xb7709058	-1.4338722e-05
2	0x3724ac9a	9.815349e-06
3	0x378040ad	1.5288906e-05
4	0x37781450	1.4786681e-05
5	0x37444048	1.1697477e-05
6	0x36f0e9fe	7.1797976e-06
7	0x382f6f3e	4.1826854e-05
8	0x37b5b490	2.1660962e-05
9	0xb7246139	-9.797798e-06
10	0x37e614a0	2.742774e-05
11	0x3856ef69	5.1244544e-05
12	0x366d4e2e	3.5361259e-06
13	0x37c78659	2.378521e-05
14	0x37c36ee1	2.3297443e-05
15	0xb71ff1e6	-9.53346e-06
16	0x37861ab4	1.598648e-05
17	0x38135b58	3.51326e-05
18	0x37f047fc	2.864375e-05
19	0xb72a00ef	-1.0133007e-05
20	0xb7b8a138	-2.2009583e-05
21	0x3750819c	1.2427943e-05
22	0x3691c9e8	4.3448417e-06
23	0x38363a3f	4.3446427e-05
24	0x385703f1	5.1263665e-05
25	0x3771cfa6	1.4413066e-05
26	0x3721c1d2	9.641475e-06
27	0xb69a64f6	-4.601311e-06
28	0xb6cc949a	-6.0969733e-06
29	0xb74a73a7	-1.2067066e-05
30	0x37f5e180	2.9311283e-05
31	0x374d20f2	1.2226623e-05
32	0x37b015a8	2.099092e-05
33	0x3862e193	5.409268e-05
34	0x37be3d21	2.267823e-05
35	0xb73ceef3	-1.1261308e-05
36	0xb7692290	-1.3895929e-05
37	0x37fde114	3.026476e-05
38	0xb7d02d34	-2.4816582e-05
39	0xb80037b9	-3.0569474e-05
40	0x36eb9f74	7.0221085e-06
41	0xb6c88ce1	-5.976865e-06
42	0xb7125b17	-8.723487e-06
43	0x38392bd8	4.414827e-05
44	0xb784a729	-1.5813466e-05
45	0x37f74987	2.9478933e-05
46	0x343a75cd	1.7365456e-07
47	0x378f0245	1.7047985e-05
48	0x3780d35a	1.5357207e-05
49	0xb8117233	-3.467705e-05
50	0x3809857a	3.2787655e-05
51	0xb6639f9b	-3.3918539e-06
52	0x371d3005	9.36911e-06
53	0x381284ed	3.493291e-05
54	0x38005011	3.0592146e-05
55	0xb7f020c8	-2.8625494e-05
56	0xb546be0f	-7.403732e-07
57	0xb6978e76	-4.5167353e-06
58	0x36b0cce7	5.2690625e-06
59	0xb6011a8b	-1.9237948e-06
60	0x383d890d	4.518875e-05
61	0xb7c17b83	-2.3064908e-05
62	0x3922d2b8	0.00015528023
63	0xb8802a27	-6.111367e-05
64	0xb7de37b7	-2.6490407e-05
65	0x384305a2	4.649687e-05
66	0x372c31af	1.0263567e-05
67	0x37df9d09	2.6656797e-05
68	0xb81bfb1b	-3.718874e-05
69	0x377b44fe	1.4976829e-05
70	0x3871f5ee	5.7687917e-05
71	0xb5b826b7	-1.3720336e-06
72	0x36d7e756	6.4344304e-06
73	0xb8001a76	-3.054222e-05
74	0x388f0701	6.820076e-05
75	0x36ed7b8e	7.077534e-06
76	0xb6ef2260	-7.126757e-06
77	0x37322862	1.0619029e-05
78	0x389211ae	6.9651156e-05
79	0x3766543e	1.37286825e-05
80	0xb78dc76c	-1.6901373e-05
81	0xb72f7a42	-1.0459278e-05
82	0xb82d1ce3	-4.1273317e-05
83	0xb80f117b	-3.4110137e-05
84	0x37af018c	2.0862346e-05
85	0xb7789cee	-1.481849e-05
86	0xb7b36a10	-2.1387852e-05
87	0xb7929989	-1.7476052e-05
88	0x3719c5c9	9.165561e-06
89	0x384f8f8c	4.9486334e-05
90	0xb7fc695f	-3.0089808e-05
91	0x371b3124	9.250161e-06
92	0x38fcc57c	0.00012053081
93	0x37790e7d	1.484493e-05
94	0xb71cf80d	-9.356078e-06
95	0x3800ec8a	3.0737872e-05
96	0x38786721	5.9223854e-05
97	0x375045cc	1.2414017e-05
98	0x3793791a	1.7580158e-05
99	0x38d8f1d4	0.000103447266
100	0x36df1db1	6.6493744e-06
101	0xb80f1acb	-3.411881e-05
102	0xb7a25c78	-1.9354964e-05
103	0x37907904	1.722249e-05
104	0xb7b8667f	-2.1982238e-05
105	0x383c6e94	4.4925677e-05
106	0xb7c7f4f6	-2.3836717e-05
107	0x388aa87e	6.611737e-05
108	0xb7aa0493	-2.026771e-05
109	0x378eca7b	1.7022006e-05
110	0x37fb1382	2.9930616e-05
111	0x387c0122	6.0082537e-05
112	0x374440d6	1.1697606e-05
113	0xb790a00a	-1.7240662e-05
114	0x38c72d56	9.497504e-05
115	0xb8603b5d	-5.3461048e-05
116	0xb7d359a0	-2.5194895e-05
117	0xb7890ab2	-1.6336653e-05
118	0x387d8d8b	6.0451723e-05
119	0x373ed604	1.1374712e-05
120	0x392cd4de	0.00016482497
121	0xb86a02f5	-5.57927e-05
122	0x38057856	3.1821743e-05
123	0xb70242e8	-7.764182e-06
124	0x3830be63	4.213898e-05
125	0xb838dd74	-4.4075263e-05
126	0x37e99fc2	2.7850157e-05
127	0x37cccb44	2.4413348e-05
