results/Dumb4/Dumb4/checkpoint.pt (torch, 448482 bytes, 47 tensors)

network_body.observation_encoder.processors.0.normalizer.running_mean f4 [6]
0	0xbf18f9de	-0.5975627
1	0x00000000	0.0
2	0xbf98a797	-1.1926144
3	0xbed07ac2	-0.40718657
4	0xc0c89f00	-6.269409
5	0xbf6c74c6	-0.9236568

network_body.observation_encoder.processors.0.normalizer.running_variance f4 [6]
0	0x498c7ad2	1.1508102e+06
1	0x3f800000	1.0
2	0x49894373	1.1244624e+06
3	0x49b12939	1.4513031e+06
4	0x422144f5	40.31734
5	0x49d2c516	1.7266268e+06

network_body.processors.0.normalizer.running_mean f4 [6]
0	0xbf18f9de	-0.5975627
1	0x00000000	0.0
2	0xbf98a797	-1.1926144
3	0xbed07ac2	-0.40718657
4	0xc0c89f00	-6.269409
5	0xbf6c74c6	-0.9236568

network_body.processors.0.normalizer.running_variance f4 [6]
0	0x498c7ad2	1.1508102e+06
1	0x3f800000	1.0
2	0x49894373	1.1244624e+06
3	0x49b12939	1.4513031e+06
4	0x422144f5	40.31734
5	0x49d2c516	1.7266268e+06

network_body._body_endoder.seq_layers.0.weight f4 [128, 6]
0	0x3f0435d1	0.5164462
1	0x3e86d669	0.26335457
2	0x3eca0fb5	0.3946511
3	0xbf20fac3	-0.6288263
4	0x3ee35881	0.4440346
5	0xbdc078c6	-0.09398036
6	0xbf317a64	-0.6932738
7	0x3dd47c5b	0.103752814
8	0x3dda1b66	0.10649757
9	0xbe80fc65	-0.25192562
10	0xbe8b4bfc	-0.2720641
11	0xbefc47c5	-0.49273506
12	0x3eb56904	0.35431683
13	0x3db136ce	0.08653031
14	0xbf22143f	-0.63312143
15	0xbe9c1594	-0.30485213
16	0xbbaf39a9	-0.00534745
17	0x3f071ad0	0.5277529
18	0x3eb78acb	0.35848078
19	0xbda60f94	-0.0810844
20	0x3e6c0368	0.23048174
21	0x3e873981	0.2641106
22	0x3eb21c51	0.3478723
23	0xbe3a81ed	-0.18213625
24	0x3ed7457c	0.420452
25	0xbe8b7979	-0.27241114
26	0xbdf64559	-0.12024946
27	0x3e9246b1	0.28569558
28	0x3f14bb4c	0.5809829
29	0xbd1b2518	-0.037877172
30	0xbf01e833	-0.5074493
31	0x3daaa2c0	0.08331823
32	0x3e9195e3	0.28434667
33	0xbe279a5a	-0.16367474
34	0xbec5e88c	-0.38653982
35	0x3e94bb15	0.29048982
36	0xbf2bacb3	-0.67060393
37	0xbf0ab855	-0.5418752
38	0xbf0ffd0d	-0.562455
39	0xbe82090a	-0.2539752
40	0x3ef7961d	0.48356715
41	0xbda6e2e0	-0.08148742
42	0xbeefcb83	-0.46834955
43	0x3f16e5b1	0.5894423
44	0x3dfeb0f4	0.12436095
45	0xbe551982	-0.20810512
46	0x3b578980	0.0032888353
47	0x3e9c9ee0	0.30589962
48	0xbe2b4902	-0.16727069
49	0x3d2bc58c	0.041936442
50	0xbd141506	-0.036152862
51	0x3f278dfe	0.6545104
52	0xbe3878d0	-0.18014836
53	0xbefe1843	-0.49627885
54	0xbd7e0a84	-0.062021747
55	0x3ee7fcfe	0.45310205
56	0xbe5cf069	-0.21576084
57	0x3dde7d6a	0.108637646
58	0x3d0d0fc6	0.03443887
59	0x3d5abf3d	0.053405035
60	0xbe6c7d45	-0.23094662
61	0xbe969f65	-0.29418483
62	0xbe0d5b1c	-0.13804287
63	0xbd97181e	-0.07377647
64	0x3f4ad8ae	0.79236877
65	0x3e2c9b9e	0.16856238
66	0xbed8f4c0	-0.4237423
67	0x3f0281d8	0.50979376
68	0x3e134db6	0.14385113
69	0x3f671d6c	0.9027927
70	0xbc8f43c8	-0.017488375
71	0xbad960bd	-0.0016584616
72	0xbf29b0cf	-0.66285414
73	0x3e288edb	0.16460745
74	0xbe905e27	-0.28196833
75	0x3cf8b2b6	0.030358654
76	0x3c0d1f6e	0.00861345
77	0xbe4b8938	-0.19876564
78	0xbea57388	-0.32314706
79	0x3efad1cc	0.48988187
80	0xbda7faac	-0.08202109
81	0x3dfa2cba	0.12215562
82	0x3e083559	0.133016
83	0x3f8a628c	1.0811324
84	0xbf1231b3	-0.57107085
85	0xbf2088a8	-0.6270852
86	0xbe8205a5	-0.2539493
87	0x3fa50589	1.2892314
88	0xbe5e6865	-0.21719511
89	0xbd48fcbd	-0.049069155
90	0xbec907fa	-0.39263898
91	0x3e608b02	0.21928027
92	0x3ebcb21c	0.36854637
93	0xbea3d5a2	-0.31998926
94	0xbed34861	-0.41266158
95	0xbe71c50c	-0.23610324
96	0xbe23336a	-0.15937582
97	0x3e70d7ec	0.23519868
98	0x3e85c7ee	0.26129097
99	0xbf025158	-0.5090537
100	0x3e90f093	0.28308544
101	0x3e254a29	0.16141571
102	0xbe718caf	-0.23588823
103	0xbd36f1ba	-0.044664122
104	0xbea1e70e	-0.31621593
105	0x3ea6eaf4	0.3260113
106	0x3ebf08e7	0.3731148
107	0xbe932d7d	-0.28745642
108	0x3f2c3757	0.6727194
109	0x3dec926d	0.11551366
110	0xbe24b3f7	-0.16084276
111	0x3d54f8f3	0.05199523
112	0x3eccb440	0.3998127
113	0xbf0bdfc3	-0.5463831
114	0xbf4c5f3f	-0.79832834
115	0xbf2fd5bc	-0.6868551
116	0x3dd4fa4a	0.10399301
117	0xbf11a32b	-0.568896
118	0xbe1113ea	-0.14167753
119	0x3db9bebd	0.090695836
120	0xbf20f6c1	-0.62876517
121	0x3d333f06	0.043761276
122	0xbefaef44	-0.4901067
123	0xbe630aa9	-0.22172035
124	0x3e1e85fe	0.15480801
125	0x3dc9894b	0.0984064
126	0x3d9bc6e3	0.07606294
127	0xbe211249	-0.15729631
128	0x3f3773b3	0.7166092
129	0x3e3d6966	0.18497238
130	0x3ddaaf60	0.106779814
131	0xbf2da00e	-0.6782235
132	0xbed4cf01	-0.4156418
133	0xbf0c800d	-0.5488289
134	0xbe874618	-0.26420665
135	0xbf60f1ac	-0.8786876
136	0x3ebe81b0	0.3720832
137	0x3e35afc4	0.1774283
138	0xbeb78f36	-0.3585145
139	0x3e746f12	0.23870495
140	0xbf19ab91	-0.60027415
141	0x3daae6f5	0.08344833
142	0xbf5055a2	-0.81380665
143	0xbdfeab31	-0.12434996
144	0xbd6737b6	-0.056449614
145	0xbde0c4b3	-0.109750174
146	0x3f010a03	0.504059
147	0xbdda969d	-0.106732585
148	0xbedcb03a	-0.431032
149	0x3e3305bd	0.17482658
150	0x3f468801	0.77551275
151	0x3e828c91	0.2549787
152	0x3e2d54a7	0.16926824
153	0xbe9eb176	-0.30994767
154	0x3d8e685e	0.069535
155	0xbf63adc4	-0.8893702
156	0x3d860728	0.06544334
157	0xbea00e7e	-0.31261057
158	0xbea93265	-0.3304626
159	0xbd47da0b	-0.048791926
160	0xbed773a2	-0.42080408
161	0xbcadc5cd	-0.021212483
162	0xbef133ad	-0.47109738
163	0xbf0b71ad	-0.5447033
164	0x3ee84538	0.4536531
165	0x3f1b921b	0.60769814
166	0xbea9fc9c	-0.33200538
167	0x3d8b6fd9	0.068084426
168	0x3bb0b8fb	0.005393145
169	0xbec79ee1	-0.38988402
170	0xbe1ce03e	-0.15319917
171	0xbbabfc72	-0.0052485997
172	0xbed706cc	-0.41997373
173	0xbd77fd32	-0.0605442
174	0xbf5bc921	-0.85853773
175	0x3f0308c5	0.51185256
176	0x3ce5faab	0.02807363
177	0xbbc0e830	-0.005887054
178	0xbed3a947	-0.41340086
179	0xbf6f34da	-0.9344002
180	0xbe212fcf	-0.15740894
181	0x3e08fbf9	0.1337737
182	0xbe81b4e4	-0.2533332
183	0xbe15f3b8	-0.14643753
184	0xbee6a885	-0.45050445
185	0xbe050645	-0.12990673
186	0xbf11cd5a	-0.56953967
187	0xbe1a3c41	-0.15062048
188	0xbe4ac0e1	-0.1980014
189	0x3ee56b5e	0.44808477
190	0x3ebcdece	0.36888736
191	0x3ed8a019	0.42309645
192	0x3e9cf803	0.30657968
193	0x3f274a4e	0.65347755
194	0x3d3b40a3	0.04571594
195	0xbf22f6fc	-0.6365812
196	0xbd5ec1fd	-0.05438422
197	0xbebbefcb	-0.36706385
198	0xbc1e38f8	-0.009657137
199	0xbf8ff39d	-1.124622
200	0xbc15a02b	-0.009132425
201	0x3e716d2d	0.23576804
202	0xbe13549c	-0.14387745
203	0xbf20a5e8	-0.6275315
204	0x3f031894	0.5120938
205	0xbdce35a1	-0.10068823
206	0xbdd50e7d	-0.10403154
207	0x3e8b8195	0.272473
208	0xbf36e451	-0.71442133
209	0xbede5699	-0.43425444
210	0xbf4e9b2d	-0.8070553
211	0x3db06b54	0.08614221
212	0xbe4879e3	-0.19577746
213	0x3f4318d7	0.7620978
214	0xbed32818	-0.41241527
215	0xbe009156	-0.12555441
216	0x3ef1a247	0.4719412
217	0x3f41276a	0.75450766
218	0x3da8ad7a	0.08236213
219	0xbcefcd07	-0.02927257
220	0x3e3c54f9	0.1839179
221	0x3f0141fc	0.5049131
222	0x3ec0fa1d	0.3769082
223	0x3ea290b5	0.31751028
224	0x3ed6aeea	0.41930324
225	0x3f4da82e	0.80334747
226	0xbeeb275a	-0.4592846
227	0xbf3c06d0	-0.73447895
228	0xbe3ae1a5	-0.18250139
229	0x3cc0e4e7	0.02354665
230	0xbebdf48a	-0.3710063
231	0xbee73c87	-0.45163366
232	0x3e1f852f	0.1557815
233	0x3e70e820	0.23526049
234	0x3f08849e	0.5332736
235	0xbeb056b2	-0.34441143
236	0xbf369a6f	-0.71329397
237	0xbe17831b	-0.14796107
238	0x3ca1ac5f	0.019735513
239	0xbf40e6c8	-0.75352144
240	0xbf2b1404	-0.66827416
241	0x3f0646fb	0.5245206
242	0xbe6dfc11	-0.23240687
243	0x3f173583	0.5906603
244	0xbf4e1bb8	-0.80511045
245	0x3d62158a	0.055196323
246	0x3ea48523	0.32132825
247	0x3ef50124	0.47852433
248	0xbeac83d6	-0.33694333
249	0xbe887a0f	-0.26655623
250	0x3ee983b2	0.45608288
251	0xbe4eee68	-0.20208132
252	0xbf2197db	-0.6312234
253	0xbd080b4c	-0.0332139
254	0xbe7f8e82	-0.24956706
255	0x3d924729	0.07142479

network_body._body_endoder.seq_layers.0.bias f4 [128]
0	0xbc8c66fa	-0.017138947
1	0xbb5ca16b	-0.0033665549
2	0x3d1f7613	0.038930964
3	0xbc6bfaf1	-0.014403091
4	0xbbb602f8	-0.005554553
5	0x3cc6090a	0.024174232
6	0xbcc822a8	-0.024430588
7	0x3d14e262	0.036348708
8	0x3c827e1e	0.015929278
9	0x3d345986	0.04403069
10	0xbc103f18	-0.008804105
11	0xbc85425d	-0.016266996
12	0x3cc0edaa	0.023550827
13	0xbb2381e0	-0.0024949238
14	0xbcaab305	-0.020837316
15	0xbccdf45e	-0.025140937
16	0x3cb27fb6	0.021789413
17	0x3bb8a679	0.0056350795
18	0x3c7f3bd8	0.015578233
19	0x3cc38911	0.02386907
20	0xb948dce5	-0.00019155776
21	0xbd8238f9	-0.06358523
22	0xbd515e2e	-0.051115207
23	0xbd2702e1	-0.04077423
24	0xbd191017	-0.03736886
25	0xbc2c64bd	-0.010522065
26	0xbc8e6112	-0.017380271
27	0x3c7d2288	0.015450127
28	0xbc0e1e18	-0.008674167
29	0x3c1f0df5	0.009707917
30	0xbcc577e7	-0.024105025
31	0xbce50423	-0.027956074
32	0xbc825e65	-0.015914151
33	0xbcef2952	-0.029194508
34	0x3b4725e8	0.0030387584
35	0x3d1fd245	0.039018888
36	0xbc04dbb8	-0.008109026
37	0xbb8565f3	-0.004070991
38	0x3d1568d0	0.03647691
39	0x3c7d2ef0	0.015453085
40	0x3c574afe	0.013140438
41	0x3bd5e333	0.0065273284
42	0xbcff07e9	-0.031131702
43	0x3cc824d0	0.024431616
44	0xbb33e0ed	-0.0027447299
45	0xbd074afa	-0.033030488
46	0x3c59a7ac	0.013284605
47	0x3d648bbb	0.05579732
48	0x3c3781f4	0.011200417
49	0x3cc06ee0	0.02349037
50	0xbc6d946d	-0.0145007195
51	0x3c3f1609	0.011662968
52	0x3c8afe0c	0.016966842
53	0x3b5cce86	0.0033692433
54	0xbd29d009	-0.041458163
55	0xba9a43ed	-0.0011769511
56	0xbc229e4c	-0.009925436
57	0x3d091d69	0.033475313
58	0x3c2d6e74	0.010585416
59	0xbcc63c34	-0.024198629
60	0xbbfb84cb	-0.0076757423
61	0xbc4d83e1	-0.012543649
62	0x3c94efe7	0.0181808
63	0x3b43927b	0.0029841948
64	0xbb400744	-0.0029301206
65	0x3c9524e4	0.018206067
66	0x3c869208	0.016427055
67	0xbc49dd45	-0.012320821
68	0xbc17b24a	-0.009258816
69	0x3cc5497f	0.024082897
70	0x3c6a2c47	0.014292783
71	0xbcf0a797	-0.029376788
72	0xbcdd5181	-0.027016403
73	0x3b93058e	0.004486746
74	0x3ce8420f	0.028351812
75	0xbca27d97	-0.019835277
76	0xbd008764	-0.03137912
77	0x3d5c5b7b	0.05379818
78	0xbcedcea9	-0.029029207
79	0x3d490f78	0.049087018
80	0xba5e2cee	-0.0008475323
81	0x3cbe7bb7	0.023252351
82	0xbc977ef4	-0.018493153
83	0x3c67e43c	0.014153536
84	0x3c69db08	0.0142734125
85	0xbd0667bc	-0.032813773
86	0xbc62214b	-0.013801883
87	0x3c4d8ab7	0.012545279
88	0xbb9e62b5	-0.004833544
89	0xbd1b2f57	-0.037886944
90	0x3bc499d7	0.0059997845
91	0xbcc4d067	-0.024025155
92	0x3b048dc9	0.0020226112
93	0xbcef2366	-0.029191684
94	0x3c6a2e1e	0.014293222
95	0xbcd1d281	-0.025613071
96	0xbc344dd0	-0.01100488
97	0x3ce3f35c	0.027826004
98	0xbd244ab0	-0.04011029
99	0xbd644e2f	-0.055738624
100	0xbcc4cd89	-0.024023788
101	0x3d0b9d31	0.034085456
102	0xbcf38d1d	-0.029730374
103	0x3c164537	0.009171776
104	0x3cc50016	0.024047893
105	0xbbf226dd	-0.007389887
106	0xbd052e12	-0.03251464
107	0xbbf604f7	-0.007507916
108	0x3c80eaaf	0.015736906
109	0xbd283a72	-0.041071363
110	0x3cc85898	0.024456307
111	0xbb2fb4c5	-0.0026810628
112	0xbcfcc2fe	-0.030854698
113	0xbd4896d4	-0.048971966
114	0xbce6d2ed	-0.02817675
115	0x3c8988e3	0.016788905
116	0xbd442c2b	-0.047893684
117	0xbbc01ed9	-0.0058630523
118	0x3b947c1c	0.0045313966
119	0xbca65fea	-0.020309407
120	0x3c0b5c21	0.008505852
121	0xbc8b3a83	-0.016995674
122	0xbc0649d5	-0.008196314
123	0xbb761474	-0.0037548812
124	0xbcc5edc6	-0.02416123
125	0x3c25ab87	0.010111696
126	0xbd78e77d	-0.06076764
127	0xbd464268	-0.048403174

network_body._body_endoder.seq_layers.2.weight f4 [128, 128]
0	0x3db77821	0.0895846
1	0x3d848398	0.06470412
2	0xbd8db65c	-0.06919548
3	0xbd74192c	-0.05959432
4	0xbe07e98d	-0.13272686
5	0xbd42f701	-0.047598843
6	0xbe0f195e	-0.1397452
7	0xbd96d99f	-0.07365727
8	0xbc3617ba	-0.011114055
9	0xbdc2e4f8	-0.095163286
10	0x3db533a7	0.088477425
11	0xbe0a7832	-0.13522413
12	0xbe2be33a	-0.16785899
13	0xbdc9e1b0	-0.098574996
14	0x3dd19833	0.10234108
15	0xbc7a2f3e	-0.0152700525
16	0xbdd90012	-0.105957165
17	0x3d4fcc94	0.05073221
18	0xbd8b4e81	-0.06802083
19	0x3cd6625e	0.026169952
20	0xbd71894f	-0.05896884
21	0x3dd93d88	0.10607439
22	0x3d799ea4	0.060942307
23	0x3d3d7156	0.046250664
24	0xbd95906e	-0.073029384
25	0xbd64c610	-0.05585295
26	0xbd973672	-0.073834315
27	0x3dc2aaa3	0.095052026
28	0xbdf5083a	-0.1196446
29	0x3deb46e0	0.11488128
30	0x3e0ac73b	0.13552563
31	0xbe545dae	-0.20738861
32	0x3e56274e	0.20913431
33	0x3cff2ead	0.031150186
34	0xbca3fc0a	-0.020017643
35	0x3e4fb862	0.2028518
36	0xbe279de8	-0.1636883
37	0xbd22eb80	-0.03977537
38	0xbd1592ff	-0.03651714
39	0xbdfe4c5f	-0.124169104
40	0x3d350a21	0.044199113
41	0x3dced689	0.10099513
42	0x3dd8c4d9	0.10584421
43	0xbded2bda	-0.1158063
44	0xbe23307d	-0.15936466
45	0xbdb55f8d	-0.088561155
46	0x3d8fdd50	0.07024634
47	0xbe12f21d	-0.14350171
48	0xbcc9fbe7	-0.02465625
49	0x3be3d6f4	0.0069531146
50	0xbe058d7b	-0.13042252
51	0xbd914fa2	-0.07095267
52	0xbd03f529	-0.032216225
53	0xbcdd46f2	-0.027011368
54	0x3ddd68c5	0.10810999
55	0x3d88bb09	0.06676299
56	0x3d383fe1	0.044982795
57	0x3d5a2293	0.05325563
58	0xbdf90b72	-0.12160386
59	0x3c37b6e9	0.011213043
60	0x3ced1961	0.028942766
61	0xbdd933a2	-0.10605551
62	0x3e496d4e	0.19670603
63	0x3d466869	0.048439417
64	0xbcece3b7	-0.028917177
65	0x3d8e96bb	0.06962343
66	0xbd3eb352	-0.046557732
67	0xbcc35af9	-0.02384709
68	0xbd29761d	-0.041372407
69	0xbe399133	-0.18121795
70	0xbdbd0d6a	-0.09231074
71	0x3ba020f4	0.004886741
72	0x3cb972d2	0.022637758
73	0xbd097558	-0.033559173
74	0xbd2b1d51	-0.041776005
75	0xbcdfa099	-0.027298259
76	0xbe36932b	-0.17829578
77	0xbe311b94	-0.17295676
78	0xbdcf2e4f	-0.101162545
79	0xbd905aad	-0.07048545
80	0x3e34efb8	0.1766957
81	0xbd80cf73	-0.06289568
82	0xbba8b8b6	-0.0051489724
83	0xbe263fa1	-0.1623521
84	0xbbfb7cdd	-0.007674797
85	0xbd7fbbff	-0.062435146
86	0x3e1d1add	0.15342279
87	0xbc8dd845	-0.01731504
88	0x3d11112b	0.035416763
89	0x3ca1bec1	0.019744279
90	0xbd5f70e2	-0.054551013
91	0x3d09e383	0.033664238
92	0xbdf885d5	-0.121349014
93	0xbe3fbdcc	-0.18724746
94	0xbd8ab62b	-0.06773027
95	0x3b89026d	0.0041811974
96	0xbde4e192	-0.111758366
97	0x3cf6717e	0.030083414
98	0xbd95f491	-0.07322038
99	0x3d7c3621	0.06157506
100	0xbe1e5f7b	-0.1546611
101	0x3dab9f77	0.08380025
102	0x3e478cc6	0.19487295
103	0xbdcb11c3	-0.09915497
104	0xbc328c27	-0.010897673
105	0xbd564888	-0.052315265
106	0xbd40ad1c	-0.04704009
107	0x3cb0b3da	0.021570135
108	0xbd617af0	-0.055048883
109	0x3dd54084	0.10412696
110	0xbc4fabef	-0.0126752695
111	0xbdb12c75	-0.08651058
112	0xbdda35fd	-0.10654829
113	0x3ddbb0b9	0.107270665
114	0xbd8801e2	-0.06640984
115	0xbdd4a5c9	-0.103831835
116	0xbd0167c0	-0.031593084
117	0x3d550803	0.052009594
118	0xbd94df5e	-0.072691664
119	0x3cc48037	0.023986919
120	0x3d737b32	0.05944366
121	0x3e147f9a	0.14501801
122	0xbe178ac4	-0.14799029
123	0x3db81c97	0.08989828
124	0x3d99bed8	0.07507104
125	0xbd714bfe	-0.058910362
126	0x3ce1f7ff	0.027584074
127	0xbdea6fd0	-0.11447108
128	0xbe1e3ce4	-0.15452915
129	0xbcc35978	-0.023846373
130	0x3d408021	0.046997193
131	0xbd737981	-0.059442047
132	0x3d58ce0d	0.05293088
133	0xbd596dbf	-0.053083178
134	0xbd71a929	-0.058999214
135	0x3d6467f1	0.05576319
136	0x3da19329	0.07889397
137	0x3e3cdbf7	0.18443285
138	0xbe2dfcf0	-0.16991019
139	0x3d4d8e84	0.05018474
140	0x3d00aba2	0.03141368
141	0xbe0a1eb5	-0.13488276
142	0x3e662544	0.22475153
143	0xbe0dfe27	-0.13866483
144	0x3c00e809	0.0078678215
145	0xbd82ec3b	-0.06392714
146	0x3b9c10f8	0.004762765
147	0xbd67562b	-0.05647866
148	0x3bd2d153	0.006433645
149	0x3db9e53b	0.09076925
150	0x3db5b1be	0.08871792
151	0xbe1b1963	-0.15146403
152	0xbb162c4b	-0.0022914584
153	0xbd8eea55	-0.06978289
154	0xbd8f4f3f	-0.06997537
155	0x3db06f78	0.08615011
156	0xbe10c656	-0.14138159
157	0x3bdd4bb1	0.006753408
158	0xbd5fe4f8	-0.05466172
159	0xbcc90731	-0.024539562
160	0x3cea9875	0.02863715
161	0xbda8bb94	-0.08238903
162	0xbe027eaf	-0.12743638
163	0xbe509bcd	-0.20371933
164	0xbc9c2203	-0.019059187
165	0xbdc5b40d	-0.096534826
166	0xbe51104e	-0.20416376
167	0xbd2d6668	-0.04233399
168	0x3d3f474b	0.04669885
169	0x3dc151f2	0.09439458
170	0xbcdf57dd	-0.027263576
171	0x3e1f24aa	0.1554133
172	0xbd89cc20	-0.06728387
173	0x3d894daf	0.0670427
174	0xbdbefb20	-0.09325242
175	0xbca36a78	-0.01994823
176	0x3d37c08f	0.044861373
177	0xbe0cbbfe	-0.13743588
178	0x3e0040f5	0.12524779
179	0x3d766f3c	0.060164675
180	0x3d5d99ae	0.05410164
181	0x3e59cc03	0.2126923
182	0x3d55602d	0.052093673
183	0xbbe1c3f9	-0.006889817
184	0x3dfc9b8a	0.12334354
185	0xbe08396d	-0.13303156
186	0xbde70a54	-0.11281267
187	0xbdb37d19	-0.08764095
188	0x3dd97fe9	0.106201
189	0x3d00d783	0.031455528
190	0x3e053bb6	0.13011059
191	0xbdfb3dae	-0.12267624
192	0x3d8d4988	0.068987906
193	0xbd3b750f	-0.045765933
194	0x3d5dfa9f	0.05419409
195	0x3cd709d9	0.026249813
196	0x3e0fa46b	0.14027564
197	0x3be9ba8c	0.007132834
198	0xbe78ac76	-0.24284539
199	0x3d4c3147	0.049851682
200	0xbd9092ee	-0.070592746
201	0x3d6359c6	0.055505536
202	0xbe09f975	-0.13474067
203	0x3d520e4e	0.051283173
204	0x3d443bec	0.04790871
205	0xbde7783e	-0.11302231
206	0xbcdfeef5	-0.027335623
207	0xbd924c58	-0.07143468
208	0x3d9c3be0	0.07628608
209	0x3cefe349	0.029283183
210	0xbcd47613	-0.025935208
211	0xbc8ac95d	-0.01694172
212	0x3ce15cb3	0.027510023
213	0x3e054ef3	0.13018398
214	0x3d8105b9	0.0629992
215	0xbca43743	-0.020045882
216	0x3d4ee15e	0.050507896
217	0x3cc71eec	0.024306737
218	0xbbcc3feb	-0.0062332056
219	0xbe494608	-0.19655621
220	0xbba424a0	-0.005009249
221	0xbc1c4a6c	-0.009539228
222	0x3d8d9d4f	0.0691477
223	0xbd206082	-0.039154537
224	0xbd987e07	-0.07445913
225	0x3d81169e	0.06303142
226	0x3e3f4352	0.18678024
227	0xbd4924f6	-0.049107514
228	0xbaba5440	-0.0014215782
229	0xbda9c43e	-0.08289383
230	0x3dff4101	0.124635704
231	0xbde3b2d9	-0.11118097
232	0x3d4bf93d	0.04979824
233	0xbb8a24ec	-0.004215827
234	0x3c6fe5d6	0.0146421995
235	0x3dc6b5e2	0.0970266
236	0x3caf4fd1	0.021400364
237	0x3c4ebe63	0.012618634
238	0xbdb98e62	-0.090603605
239	0x3ca7958e	0.020457055
240	0xbd8cf076	-0.06881802
241	0x3dc35e17	0.095394306
242	0xbd0b1edf	-0.033964988
243	0xbdbde610	-0.092723966
244	0x3d87920c	0.06619653
245	0xbda970b1	-0.08273447
246	0x3bebfdb5	0.007201875
247	0xbbdf0730	-0.0068062767
248	0xbd330438	-0.043705195
249	0xbe038b29	-0.12846054
250	0xbcd6f089	-0.026237743
251	0xbda357a3	-0.079757
252	0x3e58230d	0.21107121
253	0xbd50a13a	-0.050935008
254	0x3df001a1	0.11719061
255	0x3cdb38d2	0.026760492

network_body._body_endoder.seq_layers.2.bias f4 [128]
0	0xbcf020fc	-0.029312603
1	0xbd2a04a1	-0.04150832
2	0xbd195bc9	-0.03744105
3	0x3c6c6d7a	0.014430398
4	0xbc1275d9	-0.00893923
5	0x3c20364a	0.0097785685
6	0x3cb3c362	0.021943752
7	0xbc9faf34	-0.019492723
8	0xbcfeb4f1	-0.031092139
9	0xbd4ca37b	-0.049960595
10	0xbd199b3e	-0.037501566
11	0xb9ae37ad	-0.00033229348
12	0xbd348d3b	-0.04408
13	0xbc50afde	-0.0127372425
14	0x3c1c2113	0.00952937
15	0x3c4a4253	0.0123449145
16	0x3d07e4db	0.033177238
17	0xbc75edbd	-0.0150102945
18	0xbc6bd5b6	-0.014394214
19	0x3bf19a13	0.0073731034
20	0x3cb4e775	0.022083024
21	0xbce31e44	-0.027724393
22	0xbd066e63	-0.032820117
23	0xbd3b39b3	-0.045709323
24	0xbc558b96	-0.013033768
25	0x3cd90ddc	0.026495866
26	0xbcdac71e	-0.026706275
27	0x3d06b5ca	0.03288821
28	0xbd1410e9	-0.03614894
29	0x395fa234	0.00021327363
30	0xbd0aa249	-0.033846173
31	0xbc2f807f	-0.010711788
32	0x3ce78475	0.028261403
33	0x3ba16df1	0.004926436
34	0xbd248664	-0.040167227
35	0x3d0166c0	0.03159213
36	0x3ce93666	0.028468322
37	0xbd558c73	-0.052135896
38	0xbc06dba9	-0.008231082
39	0x3bc0a358	0.005878847
40	0x3d0ea08f	0.03482109
41	0xbd0208fd	-0.031746853
42	0x3d1c66ca	0.038183965
43	0xbd23baf0	-0.0399732
44	0x3cef7e25	0.029234955
45	0xbd3325d7	-0.04373726
46	0xbba986ae	-0.005173526
47	0xbcca456f	-0.024691312
48	0xbb8a31ab	-0.0042173467
49	0xbd170d6e	-0.036878042
50	0x3b94ed5a	0.004544896
51	0x3c2f5e14	0.010703582
52	0x3c2a52eb	0.010395746
53	0xbca2b484	-0.019861467
54	0xbd538a49	-0.05164555
55	0x3d085ab6	0.033289634
56	0xbd0f3edf	-0.034972068
57	0xbd1515bc	-0.03639768
58	0xbd226483	-0.039646637
59	0xbd047621	-0.03233922
60	0x3b824f2a	0.0039767222
61	0x3b4720a7	0.0030384453
62	0xbcf81e10	-0.030287772
63	0x3d0f6efe	0.03501796
64	0xbc148f28	-0.009067334
65	0xbc26e181	-0.0101856
66	0xbc2983f3	-0.010346401
67	0xbcfc5ba2	-0.030805413
68	0x3c9cc5dc	0.019137315
69	0xbcecb4ea	-0.02889486
70	0x3d23991f	0.03994095
71	0x3d4445ec	0.047918245
72	0xbd2d530b	-0.042315524
73	0xbced685d	-0.028980428
74	0xbd227359	-0.039660785
75	0xbc85905b	-0.016304186
76	0xbd160ed1	-0.036635224
77	0xbd280675	-0.041021783
78	0x3ce335de	0.027735647
79	0xbc9ef7bc	-0.019405238
80	0x3d4aa841	0.049476866
81	0x3cb7d237	0.022439105
82	0xbce37c2b	-0.027769169
83	0xbc784baf	-0.015154763
84	0xbb0ccc5f	-0.002148412
85	0xbc9c8296	-0.019105237
86	0xbc66b81c	-0.014081981
87	0xbd1feedc	-0.039046153
88	0xbd195dbc	-0.037442908
89	0xbd1d7f40	-0.038451433
90	0xbcdd8661	-0.027041616
91	0x3cf81685	0.030284176
92	0xbb6fa908	-0.0036569256
93	0x3d1eac8f	0.038738783
94	0xbc830ee5	-0.015998313
95	0xbcbd7642	-0.023127679
96	0x3c685e46	0.014182633
97	0x3c174249	0.009232112
98	0xbc9af47a	-0.018915404
99	0x3c7002d1	0.014649109
100	0xbcf6db65	-0.030133912
101	0xbd224b1f	-0.039622422
102	0xb9bfb802	-0.00036567455
103	0xbba511cc	-0.005037522
104	0xbcc0bbd7	-0.023527069
105	0xbcf1fb57	-0.029538793
106	0xbd1a1c44	-0.037624612
107	0xbd4992d7	-0.049212303
108	0xbcbe82f9	-0.023255812
109	0x39b7a8b8	0.00035030185
110	0x3d43ec8e	0.047833018
111	0x3b28cd58	0.002575716
112	0x3cfce9d7	0.030873222
113	0x3d5d468c	0.054022357
114	0xbd002b38	-0.031291217
115	0x3bfd215a	0.007724923
116	0xbcbd784a	-0.023128647
117	0x3c2a7741	0.010404409
118	0xbc8d8101	-0.017273428
119	0xbcecb273	-0.028893685
120	0x3c6cd33c	0.014454659
121	0xbd17a7e0	-0.037025332
122	0xbd1f71ce	-0.038926892
123	0xbca1dd6f	-0.019758908
124	0x3b716730	0.0036835186
125	0x3a1566a2	0.00056991924
126	0xbd0e402f	-0.03472918
127	0x3b79aaed	0.0038096264

action_model._continuous_distribution.log_sigma f4 [1, 2]
0	0xbcaff5b1	-0.02147946
1	0xbd532154	-0.051545456

action_model._continuous_distribution.mu.weight f4 [2, 128]
0	0xbca43994	-0.020046987
1	0x3a97fa55	0.001159499
2	0x3c2df40b	0.010617266
3	0xbc8a1deb	-0.01685997
4	0xbb86d017	-0.0041141617
5	0x3cb2f6b7	0.021846158
6	0xbc5a4494	-0.013322014
7	0x3cf79005	0.030220041
8	0x3cc33eab	0.023833593
9	0xbaf98044	-0.0019035419
10	0xbb488c68	-0.0030601267
11	0x3c80b8c2	0.0157131
12	0xbb266e4e	-0.0025395337
13	0x3d0432c4	0.032274976
14	0x3d5ac8a0	0.053413987
15	0xbd392bbf	-0.045207735
16	0xbc225c7e	-0.009909747
17	0xbd124990	-0.035714686
18	0x3d9ba0e4	0.07599047
19	0xbcf28549	-0.029604571
20	0x3bfd80c2	0.0077362964
21	0x3c119e1c	0.008887794
22	0x3bc1edd6	0.005918245
23	0x3aa96189	0.0012922744
24	0xbb1b7e3e	-0.002372637
25	0xbc7476ea	-0.014920929
26	0x3cc16a59	0.02361028
27	0x3c422a1a	0.011850858
28	0x3cac25e2	0.021014158
29	0xbaca4f89	-0.001543508
30	0x3cf268d5	0.029591003
31	0x3d12e8a5	0.0358664
32	0xbc35e015	-0.011100789
33	0x3c9b0c89	0.018926876
34	0xbb75011e	-0.00373847
35	0x3b1ae6c4	0.0023636082
36	0xbcc1bdda	-0.023650099
37	0x3b7421ef	0.0037251671
38	0x3d074325	0.03302302
39	0x3b3dcdc0	0.0028961748
40	0xbcccf811	-0.025020631
41	0xbac63cb4	-0.0015124292
42	0xbcd860b5	-0.026413301
43	0xbbde47a1	-0.006783441
44	0xbce54ca5	-0.027990649
45	0x3c6764db	0.014123167
46	0x395f28ae	0.00021282092
47	0x3c908a2a	0.017644007
48	0xbd211d17	-0.039334383
49	0xbbcaab29	-0.0061849547
50	0x3d55e76a	0.052222647
51	0xbc8d7853	-0.01726929
52	0xbcf6b339	-0.030114757
53	0xbc2512d0	-0.010075286
54	0x3b476580	0.003042549
55	0xbd15b269	-0.0365471
56	0xbbe4dc22	-0.0069842497
57	0x3cc597bd	0.024120206
58	0x3bb64e82	0.005563558
59	0x3b9c829c	0.004776312
60	0x3cc1d92a	0.023663122
61	0xbc8e8774	-0.017398573
62	0x3b9ea82f	0.0048418264
63	0xbab185e7	-0.0013543934
64	0x3d377e35	0.044798095
65	0xbcb80938	-0.022465333
66	0xbb93bb2e	-0.0045083975
67	0xbcd3b244	-0.02584184
68	0xbb85bb91	-0.0040811975
69	0x3d20929e	0.039202325
70	0xbc624163	-0.013809535
71	0xbcee7f2f	-0.02911338
72	0x3cbf4491	0.023348125
73	0xbbc0c8d5	-0.005883316
74	0x3ac744d2	0.0015203005
75	0x3cd14862	0.02554721
76	0xbca7546b	-0.020425996
77	0x3c131b6b	0.008978705
78	0xbcdcb97d	-0.026943916
79	0x3b51eb7a	0.0032031224
80	0x3d12d41a	0.035846807
81	0xbc4138be	-0.011793314
82	0x3cb08ff0	0.02155301
83	0x3b11ac66	0.0022228002
84	0xbd0cff14	-0.03442295
85	0x3d84524e	0.06461011
86	0xbc245b31	-0.010031507
87	0xbc39679e	-0.011316208
88	0x3d01e8aa	0.031716026
89	0xba84ad0f	-0.0010122376
90	0xbcd0c213	-0.025483167
91	0xbb7183a7	-0.0036852153
92	0x3c5037d6	0.012708625
93	0xbb8209ae	-0.003968439
94	0xbc555965	-0.013021802
95	0x3cc86a1c	0.02446466
96	0xbc8d45ec	-0.017245255
97	0xbbacf12d	-0.005277774
98	0xbc555f94	-0.013023276
99	0x3bbffe8f	0.005859203
100	0xbc5ed6ff	-0.013601064
101	0xbc332ce7	-0.0109359985
102	0x3d59b858	0.05315432
103	0x3d18691e	0.037209623
104	0xbc260ff1	-0.010135637
105	0xbb4195c7	-0.0029538737
106	0x3c35b983	0.011091593
107	0xba5d88f6	-0.000845089
108	0x3a811341	0.0009847657
109	0xbbdda58a	-0.0067641186
110	0xbc9efd55	-0.019407908
111	0x3bf0ad06	0.0073448448
112	0x3be6bd14	0.007041583
113	0x3c8bfb85	0.017087707
114	0x3c2f7431	0.0107088545
115	0xba24d026	-0.000628712
116	0x3d6bff3b	0.057616454
117	0x3c34dfb4	0.011039663
118	0x3c386de7	0.0112566715
119	0xbca8cfef	-0.020606963
120	0x3d1bd6e2	0.038046725
121	0x3b097a05	0.002097727
122	0x3be734cb	0.007055854
123	0x3c90a1e2	0.017655317
124	0x3d568b79	0.052379105
125	0x3bc2a7d3	0.0059404164
126	0xbbacdc67	-0.0052752974
127	0x3b6a3cfe	0.003574192
128	0x3d2f51ac	0.042802498
129	0x3d108b0c	0.035288855
130	0x3cf382e7	0.029725505
131	0xbb82423e	-0.003975182
132	0xbbf658f3	-0.007517928
133	0xbc0ca0b6	-0.008583238
134	0xbc120ecf	-0.008914663
135	0x3c32d394	0.010914702
136	0x3c5c914e	0.013462378
137	0x3d0b702b	0.03404252
138	0x3c606c06	0.01369763
139	0xbc3fe6eb	-0.01171277
140	0x3b9df770	0.0048207566
141	0x3c9f8b9c	0.01947575
142	0xbc6a2935	-0.014292051
143	0xbc2c7479	-0.010525816
144	0xbcb8172a	-0.022471983
145	0x3c2f1b48	0.010687657
146	0x3d722f1e	0.059126966
147	0xbc365ca4	-0.011130486
148	0xbc04863d	-0.0080886455
149	0x3c1d4347	0.00959856
150	0x3d4cc006	0.049987815
151	0x3c77c6fc	0.015123125
152	0xbb66ba0b	-0.0035206105
153	0xbc80896c	-0.015690528
154	0xbb7ac367	-0.0038263442
155	0xbd152976	-0.036416493
156	0x3c731fd8	0.014839135
157	0xbbec2e7e	-0.0072076907
158	0x3d2b462f	0.04181498
159	0xbc0f7fad	-0.008758468
160	0xbc90ef63	-0.017692273
161	0xbc20fba6	-0.009825623
162	0x3cfee6e7	0.031115962
163	0xbc376c46	-0.011195248
164	0xbd017e5c	-0.031614646
165	0xbbaecc06	-0.00533438
166	0xbca2e321	-0.019883694
167	0xbc015cac	-0.00789563
168	0xbcbf8b70	-0.023381919
169	0xba2016c5	-0.00061069085
170	0xbd042fe6	-0.032272242
171	0x3d1306d8	0.0358952
172	0xbd45c922	-0.04828752
173	0x3c80e009	0.015731828
174	0x3b28b10c	0.0025740294
175	0x3c359054	0.011081774
176	0x3c0ffec9	0.008788773
177	0x3cc23b3a	0.023709882
178	0xbd15d437	-0.036579337
179	0xbc421bed	-0.011847478
180	0xbbf0e912	-0.007352003
181	0x3c8482c4	0.016175635
182	0x375a1ae4	1.30000735e-05
183	0xbce1de55	-0.027571836
184	0x3c866888	0.016407266
185	0x3d2d72e6	0.042345904
186	0x3c821805	0.015880594
187	0x3b533a6c	0.0032230867
188	0xbbd70474	-0.00656181
189	0x3b894b47	0.004189882
190	0x3c2f5504	0.010701422
191	0xbcb938b3	-0.022610044
192	0x3bbadba7	0.005702454
193	0xbb91bd19	-0.004447591
194	0x3b5fb20f	0.003413323
195	0x3c74c363	0.014939162
196	0xbbcd2910	-0.0062609985
197	0x3d80bc44	0.06285909
198	0xbd78274e	-0.06058436
199	0xbd162c3a	-0.03666327
200	0x3ba09367	0.004900384
201	0x3be7ae6d	0.0070703537
202	0x3ce4f5a0	0.027949154
203	0x3c2554f5	0.010091056
204	0x3d17e553	0.037083935
205	0x3c8c9169	0.01715918
206	0xbc000bd2	-0.007815318
207	0x3c5c68fa	0.013452763
208	0xbd0785d2	-0.033086605
209	0xbcae19c9	-0.02125253
210	0x3b7bcf63	0.0038423173
211	0x3ad6ab0d	0.0016377881
212	0x3ad0fee6	0.0015945106
213	0x3cd43cb9	0.025907861
214	0x3c880275	0.016602734
215	0x3c0d06b7	0.008607558
216	0x3d65987f	0.056053635
217	0x3be9bd83	0.0071331873
218	0x3cebb99a	0.028775025
219	0xbc4405aa	-0.011964241
220	0xbc1f7a48	-0.009733744
221	0xbcbc1ef6	-0.022963982
222	0xb82e421b	-4.15464e-05
223	0x3cc37bbb	0.02386271
224	0xbc19ad26	-0.009379661
225	0x3a2ac283	0.000651397
226	0x3b8f7846	0.0043783514
227	0xbc78059d	-0.015138057
228	0x3b1d2cb4	0.0023982944
229	0x3d06909b	0.03285275
230	0x3b25e050	0.0025310703
231	0x3bb3c7bf	0.005486458
232	0x3c0da855	0.0086460905
233	0xba25f7dc	-0.00063311844
234	0x3ce654c5	0.028116593
235	0xbb83ec8b	-0.004026001
236	0xbaeee874	-0.0018227235
237	0xbbdc1e81	-0.0067175035
238	0xbce4b126	-0.027916502
239	0xbb356583	-0.0027678914
240	0xbc9c8508	-0.019106403
241	0xbd150e1d	-0.036390413
242	0xbb20fef0	-0.0024566017
243	0x3a9c387b	0.0011918688
244	0x3cbf69e0	0.023365915
245	0xbba66266	-0.005077648
246	0xbbf00aaf	-0.0073254923
247	0x3cfe65dd	0.031054432
248	0xbcf2e685	-0.029650936
249	0x3ade7ff2	0.0016975387
250	0x3d0375ff	0.03209495
251	0x3c39c126	0.011337554
252	0xbc9c8e3c	-0.019110791
253	0xbadbc3ed	-0.0016766764
254	0x3d3032ca	0.043017186
255	0xbc84e564	-0.016222663

action_model._continuous_distribution.mu.bias f4 [2]
0	0xbac5f98c	-0.0015104278
1	0xbd26f519	-0.040761087

action_model._discrete_distribution.branches.0.weight f4 [1, 128]
0	0xbc12860b	-0.008943091
1	0xbbc302e3	-0.005951272
2	0xbaed2827	-0.0018093631
3	0x3be6bf25	0.007041829
4	0x3be3a00f	0.0069465707
5	0xbc1045b5	-0.008805682
6	0xbc85b26e	-0.016320433
7	0xbb510df5	-0.0031899188
8	0x3becae0a	0.0072228955
9	0x3bd7a130	0.0065804943
10	0x3abfe880	0.0014641434
11	0x3c2c844a	0.010529587
12	0x3a3c2714	0.0007177454
13	0x3c131352	0.008976774
14	0xbc254a5b	-0.0100885285
15	0x3a107887	0.0005511124
16	0x3a90c55d	0.0011045147
17	0x3aadd28b	0.0013261599
18	0xbb603b3f	-0.0034215
19	0x3b85a996	0.004079054
20	0x3bcc6705	0.006237867
21	0xbbc499a7	-0.005999762
22	0xbaeb26d8	-0.0017940653
23	0x394ee753	0.00019731866
24	0x3bb21bbf	0.0054354365
25	0xbbfb6723	-0.007672207
26	0xbb5f19da	-0.0034042508
27	0xbb919085	-0.004442277
28	0x3c0263f6	0.007958403
29	0x3b2157ab	0.0024618905
30	0xb9a48f61	-0.00031387343
31	0x3c43f8ea	0.011961201
32	0xbbb5fa2b	-0.005553504
33	0x39b2eb5e	0.00034126168
34	0xbb11db48	-0.0022255946
35	0xbadfc90d	-0.0017073468
36	0x3c9cc59c	0.019137196
37	0x3baf6fa6	0.0053538857
38	0xbb7998f3	-0.003808555
39	0xbb9dab6e	-0.004811696
40	0x3c2820f7	0.010261766
41	0xbb159f88	-0.0022830684
42	0xbb94cc73	-0.004540974
43	0x3ba39aa9	0.004992802
44	0xbbbd0453	-0.0057683378
45	0x3bb43f84	0.0055007357
46	0xbb5bcc90	-0.0033538677
47	0xbc3181e5	-0.010834192
48	0x3c306e97	0.010768554
49	0x3b30ddda	0.0026987703
50	0x3c2435e1	0.010022611
51	0x3c5430b7	0.012951068
52	0x3b9f8479	0.004868087
53	0xbc3f9798	-0.011693858
54	0xbbbacfcc	-0.005701041
55	0x3bb6fb5e	0.0055841645
56	0x3c659f40	0.014015019
57	0x3b35594c	0.0027671633
58	0x3b72712f	0.0036993732
59	0x3b28d8e7	0.002576405
60	0x3a8b834e	0.001064399
61	0xbbb1aec4	-0.005422445
62	0x3b944f56	0.004526059
63	0x3b8b31fd	0.0042479024
64	0x3c5fbf52	0.013656454
65	0xbb8bfc1f	-0.0042719985
66	0x3a1abd47	0.00059028383
67	0x3b3652a0	0.0027820244
68	0x3ba1f6bc	0.004942743
69	0xbc36da7b	-0.011160488
70	0x3a3a93c3	0.0007117355
71	0x3bf43b7d	0.0074533806
72	0x3bb0a796	0.0053910716
73	0xbaf30bb5	-0.0018542918
74	0xbbfb660b	-0.0076720766
75	0x3bc5003d	0.0060119913
76	0xbacd2945	-0.0015652558
77	0x3c0f80b7	0.008758715
78	0x39c6324f	0.00037802986
79	0x3b53ec00	0.0032336712
80	0x3bc8884a	0.0061197625
81	0x3b4d5d43	0.0031336106
82	0x3ac7d28f	0.0015245246
83	0xbd02ce3b	-0.031934958
84	0xbc7598ad	-0.014990014
85	0x3bad0074	0.005279595
86	0x3b595a33	0.0033165335
87	0xbbd2144d	-0.0064111114
88	0xbabeaf51	-0.0014548098
89	0xbb404133	-0.0029335737
90	0x3b62b18f	0.0034590696
91	0xbc1ef493	-0.009701866
92	0xbc81ba57	-0.015835924
93	0xbc62e367	-0.013848162
94	0x3b59ec10	0.0033252276
95	0x3c2320c3	0.0099565415
96	0xbc865cd8	-0.016401693
97	0xbc08e737	-0.008355907
98	0xbc32afa7	-0.010906137
99	0xbb2c55bc	-0.002629622
100	0xbba63b43	-0.0050729825
101	0x3b2f93f1	0.002679106
102	0xbca1fe1c	-0.01977449
103	0x3bb4ef8f	0.0055217217
104	0xba9dc781	-0.0012037606
105	0x3b205ef8	0.0024470668
106	0xbba674f0	-0.005079858
107	0x3bf15882	0.0073652873
108	0x3c379d36	0.011206916
109	0xbc6bd165	-0.014393185
110	0xbc0286b3	-0.007966685
111	0x3c85eca9	0.0163482
112	0x3c205eaf	0.009788199
113	0xbb8d21dc	-0.004307015
114	0x3c4a87e1	0.012361498
115	0xbc4d7278	-0.0125394985
116	0x3b7bfee7	0.0038451494
117	0xba270039	-0.00063705776
118	0xbb91bbd7	-0.004447441
119	0x3b9793a1	0.004625753
120	0x3c4b23cf	0.012398674
121	0xbaec1a80	-0.0018013269
122	0xbbc861cb	-0.0061151735
123	0x3c5cacd8	0.013468944
124	0x3c2e205a	0.01062783
125	0x3c0125ab	0.007882516
126	0xbbd2fabf	-0.0064385827
127	0x3b1a752f	0.0023568382

exp_avg f4 [128, 6]
0	0x39b19124	0.0003386821
1	0x00000000	0.0
2	0x391880ed	0.00014543878
3	0x3a230ae5	0.000621958
4	0x363f3f65	2.8498118e-06
5	0x3a3fc425	0.00073152996
6	0xb8db3621	-0.00010452816
7	0x00000000	0.0
8	0xb82b926d	-4.0905947e-05
9	0xb9178aa0	-0.00014452124
10	0xb579cdbd	-9.3059117e-07
11	0xb975ea6f	-0.00023452354
12	0x390620e9	0.00012791496
13	0x00000000	0.0
14	0x3900cf0d	0.00012284164
15	0x392e3eaf	0.00016617285
16	0x3557c814	8.0384893e-07
17	0x3940128d	0.00018317458
18	0xb73f4348	-1.1400152e-05
19	0x00000000	0.0
20	0x38006917	3.061545e-05
21	0x3659bb30	3.2444477e-06
22	0xb40e2942	-1.323979e-07
23	0x37c23f82	2.3156175e-05
24	0x385ac50d	5.2158768e-05
25	0x00000000	0.0
26	0xb880e349	-6.145851e-05
27	0x38a89ee5	8.040461e-05
28	0x35bc5e07	1.4034457e-06
29	0x38d6d878	0.000102446356
30	0xb8ca852f	-9.656918e-05
31	0x00000000	0.0
32	0xb86cb173	-5.6432047e-05
33	0xb940f123	-0.00018400377
34	0xb56c5d38	-8.80525e-07
35	0xb9378794	-0.00017502747
36	0xb8b30088	-8.535484e-05
37	0x00000000	0.0
38	0xb76cf8bf	-1.4124612e-05
39	0xb9027c7f	-0.00012444145
40	0xb58c66e9	-1.0460764e-06
41	0xb8fbffd1	-0.00012016262
42	0xb860f48d	-5.3633517e-05
43	0x00000000	0.0
44	0xb8867a62	-6.4124135e-05
45	0xb917174c	-0.00014409161
46	0xb57947fe	-9.286449e-07
47	0xb93681f6	-0.00017405287
48	0xb9689e9c	-0.00022184331
49	0x00000000	0.0
50	0xb8df4481	-0.000106462285
51	0xb9c5b408	-0.00037708902
52	0xb6262b1f	-2.4761027e-06
53	0xba120198	-0.00055696955
54	0xb840c84d	-4.5962912e-05
55	0x00000000	0.0
56	0x384f5642	4.943298e-05
57	0xb89c9ee7	-7.4682575e-05
58	0xb580533b	-9.560966e-07
59	0xb84d34ee	-4.8925103e-05
60	0xb930fdd0	-0.0001687922
61	0x00000000	0.0
62	0xb8de9ab5	-0.00010614601
63	0xb987c46e	-0.00025895558
64	0xb5682563	-8.648114e-07
65	0xb9812238	-0.00024630292
66	0xb795838b	-1.7823439e-05
67	0x00000000	0.0
68	0x384bc5a0	4.8583024e-05
69	0x374d2fc7	1.2230076e-05
70	0xb546bf14	-7.4038803e-07
71	0xb56d71a7	-8.8454766e-07
72	0xb9e7035e	-0.00044062262
73	0x00000000	0.0
74	0xb968d295	-0.00022203692
75	0xba469abf	-0.00075761596
76	0xb6577a38	-3.2108637e-06
77	0xba620eeb	-0.0008623439
78	0x37fa8fe0	2.986932e-05
79	0x00000000	0.0
80	0xb883fcc0	-6.293645e-05
81	0x37e9141d	2.778513e-05
82	0x33b89ac1	8.596317e-08
83	0xb7965f1d	-1.7925684e-05
84	0xb82c5461	-4.108658e-05
85	0x00000000	0.0
86	0xb7077fc0	-8.076371e-06
87	0xb740c464	-1.1489818e-05
88	0xb5aebec3	-1.3019529e-06
89	0xb888de94	-6.526444e-05
90	0x399f621d	0.00030399943
91	0x00000000	0.0
92	0x39556818	0.00020352041
93	0x3a0a5317	0.00052766636
94	0x35e13216	1.6778383e-06
95	0x3a1a988c	0.0005897365
96	0x38b0668e	8.411436e-05
97	0x00000000	0.0
98	0xb7b26a90	-2.1268876e-05
99	0x38c8868a	9.561803e-05
100	0x340fec92	1.3403977e-07
101	0x38ab7730	8.176116e-05
102	0xb978c9ec	-0.00023726345
103	0x00000000	0.0
104	0xb962718a	-0.00021595336
105	0xb9dd1905	-0.00042171046
106	0xb5ea5b00	-1.7460843e-06
107	0xba1557a4	-0.00056969584
108	0xb930dd8d	-0.00016867202
109	0x00000000	0.0
110	0xb8d7aaa9	-0.00010283787
111	0xb9b1e6e0	-0.00033932086
112	0xb55b7bfb	-8.1764273e-07
113	0xb9f91ac0	-0.0004751291
114	0xb8cf32f5	-9.880021e-05
115	0x00000000	0.0
116	0x34e89c1a	4.3326946e-07
117	0xb94287cc	-0.0001855187
118	0xb5a0b0cc	-1.1972384e-06
119	0xb926f75e	-0.00015923145
120	0x39092af9	0.00013081347
121	0x00000000	0.0
122	0x3911659f	0.00013866134
123	0x3967380e	0.00022050759
124	0x33ffb846	1.1907882e-07
125	0x39a4578e	0.0003134575
126	0xb793ae11	-1.7604822e-05
127	0x00000000	0.0
128	0x388e88fe	6.7966044e-05
129	0x383a16c6	4.4367065e-05
130	0x3509fe4c	5.140653e-07
131	0x38dd8e8c	0.000105646526
132	0x39493f9f	0.00019192554
133	0x00000000	0.0
134	0x3955b9a9	0.00020382427
135	0x39a263dc	0.0003097345
136	0x34e4e64a	4.2635867e-07
137	0x39b1bacb	0.00033899242
138	0xb8e8a457	-0.00011093233
139	0x00000000	0.0
140	0xb817542d	-3.60796e-05
141	0xb9418fdb	-0.00018459505
142	0xb458ab23	-2.0178827e-07
143	0xb9240ed1	-0.00015645778
144	0x38834cee	6.260896e-05
145	0x00000000	0.0
146	0xb86e34c2	-5.6792756e-05
147	0x38caba7f	9.666848e-05
148	0x3604c4af	1.9784018e-06
149	0x387c7699	6.0191935e-05
150	0x39c67138	0.00037849857
151	0x00000000	0.0
152	0x399a1c23	0.00029394132
153	0x3a339dec	0.00068518403
154	0x3641f4d0	2.890174e-06
155	0x3a5d4cdd	0.00084419345
156	0x38b6416e	8.6906235e-05
157	0x00000000	0.0
158	0x38134640	3.5112957e-05
159	0x39153421	0.00014229167
160	0x35ce58c0	1.5374026e-06
161	0x3926dc9a	0.00015913174
162	0xb7d5b734	-2.547689e-05
163	0x00000000	0.0
164	0x38efdff5	0.00011438123
165	0xb5c9ca7a	-1.5034595e-06
166	0xb58bb4e9	-1.0408959e-06
167	0x3769ab77	1.39278045e-05
168	0x3873b5ca	5.810502e-05
169	0x00000000	0.0
170	0x38293560	4.034245e-05
171	0x38bbb96d	8.951393e-05
172	0x353bf98b	7.002606e-07
173	0x3926582d	0.00015863842
174	0xb856c1cb	-5.120206e-05
175	0x00000000	0.0
176	0x3904bceb	0.00012658878
177	0xb8e017e9	-0.00010685606
178	0xb5e6d846	-1.7199279e-06
179	0xb92829a6	-0.00016037244
180	0x38dd3697	0.00010548269
181	0x00000000	0.0
182	0x391fd8a6	0.0001524413
183	0x3954a1fe	0.00020278242
184	0xb383ad61	-6.1317e-08
185	0x39924583	0.0002789908
186	0x37c0457f	2.2920545e-05
187	0x00000000	0.0
188	0xb72f56ac	-1.0450993e-05
189	0x384c116c	4.8653616e-05
190	0xb3a213fa	-7.5473466e-08
191	0x3685c7dd	3.986976e-06
192	0x3a095f61	0.0005240348
193	0x00000000	0.0
194	0x39bf3d19	0.0003647588
195	0x3a74d9d4	0.000934032
196	0x364febf9	3.0982758e-06
197	0x3a91a541	0.0011111872
198	0x38804de5	6.1180246e-05
199	0x00000000	0.0
200	0x3811e82f	3.478693e-05
201	0x38f9c13c	0.00011909238
202	0x34dac530	4.0749137e-07
203	0x3907dcfa	0.00012956923
204	0xb92f70c0	-0.00016731303
205	0x00000000	0.0
206	0xb90816dd	-0.00012978488
207	0xb9bde1b0	-0.0003621704
208	0xb5a2891c	-1.2109845e-06
209	0xba1e5de2	-0.00060412113
210	0xb9c47041	-0.0003746767
211	0x00000000	0.0
212	0xb870b380	-5.738763e-05
213	0xba0f25b0	-0.0005460633
214	0xb68ae7b7	-4.1396956e-06
215	0xba239876	-0.0006240675
216	0x37c72707	2.3740822e-05
217	0x00000000	0.0
218	0xb92c6086	-0.00016439156
219	0xb777b3c3	-1.4764201e-05
220	0x357a375f	9.3212833e-07
221	0xb8ac8839	-8.2269726e-05
222	0xb894412f	-7.069331e-05
223	0x00000000	0.0
224	0xb805ded4	-3.1917196e-05
225	0xb9306175	-0.00016820974
226	0xb5a311bc	-1.2149608e-06
227	0xb9d5b1d3	-0.00040759015
228	0xb95ef772	-0.0002126375
229	0x00000000	0.0
230	0xb8c58b06	-9.419587e-05
231	0xb9d4fc6d	-0.00040623863
232	0xb5a094a5	-1.196419e-06
233	0xb9eb49d9	-0.00044877714
234	0xb927828e	-0.00015974996
235	0x00000000	0.0
236	0xb73f2bbd	-1.1394671e-05
237	0xb9b36018	-0.00034213136
238	0xb4579115	-2.0076216e-07
239	0xb9c7be2e	-0.00038097933
240	0xb920d7b1	-0.0001533914
241	0x00000000	0.0
242	0x37845c84	1.5778707e-05
243	0xb9647394	-0.0002178683
244	0xb5e3a58a	-1.6960996e-06
245	0xb95bcc47	-0.00020961567
246	0x397d4575	0.00024153835
247	0x00000000	0.0
248	0x393de00f	0.00018107913
249	0x39dfb956	0.0004267196
250	0x3610b853	2.1564963e-06
251	0x3a01e8ea	0.00049556664
252	0xb8161e94	-3.5791265e-05
253	0x00000000	0.0
254	0x37c43450	2.338938e-05
255	0xb82ccb42	-4.1197294e-05

exp_avg_sq f4 [128, 6]
0	0x34e1db00	4.206886e-07
1	0x00000000	0.0
2	0x3549a69e	7.5120795e-07
3	0x35544d35	7.9088505e-07
4	0x2ebc276e	8.556254e-11
5	0x35999a1e	1.1444242e-06
6	0x3395ca51	6.975154e-08
7	0x00000000	0.0
8	0x34086204	1.2701645e-07
9	0x33f69b4e	1.14835174e-07
10	0x2deab489	2.6682894e-11
11	0x34a92e4b	3.1512386e-07
12	0x3482fc34	2.439789e-07
13	0x00000000	0.0
14	0x347adf63	2.3364332e-07
15	0x3506e222	5.0247957e-07
16	0x2edb9460	9.985324e-11
17	0x350fe62b	5.360659e-07
18	0x33a15210	7.512074e-08
19	0x00000000	0.0
20	0x3413b076	1.3754638e-07
21	0x341a16b7	1.4350631e-07
22	0x2d0cc407	8.0016055e-12
23	0x34669a69	2.1476593e-07
24	0x34c95047	3.7497577e-07
25	0x00000000	0.0
26	0x34c4a36e	3.6626756e-07
27	0x353f04c8	7.116e-07
28	0x2e3f1c46	4.3453484e-11
29	0x356baaa1	8.779262e-07
30	0x34fb9a65	4.686473e-07
31	0x00000000	0.0
32	0x35841ed2	9.843736e-07
33	0x35576366	8.0238385e-07
34	0x2e85ea6f	6.0897835e-11
35	0x35857be7	9.945333e-07
36	0x3370c999	5.6062706e-08
37	0x00000000	0.0
38	0x339dc5ce	7.346863e-08
39	0x33ce555f	9.6081514e-08
40	0x2dc067c0	2.1873947e-11
41	0x34635a45	2.1173862e-07
42	0x351e51b5	5.8978486e-07
43	0x00000000	0.0
44	0x35a106ec	1.1997449e-06
45	0x357cc0ca	9.415786e-07
46	0x2ee2f975	1.03216026e-10
47	0x35b329cc	1.3348704e-06
48	0x349ac4a8	2.8827822e-07
49	0x00000000	0.0
50	0x34db05ed	4.079624e-07
51	0x34e06fdb	4.1804637e-07
52	0x2e7d9908	5.766146e-11
53	0x35923b85	1.089517e-06
54	0x3450a560	1.9431673e-07
55	0x00000000	0.0
56	0x34901c0a	2.684249e-07
57	0x34c0eb3c	3.5933942e-07
58	0x2e277a1d	3.8079862e-11
59	0x34ddc092	4.130457e-07
60	0x337be616	5.8649753e-08
61	0x00000000	0.0
62	0x3392171f	6.8028605e-08
63	0x33f3cbd1	1.1352643e-07
64	0x2cd1ae15	5.9594643e-12
65	0x3409a397	1.2818633e-07
66	0x34024e60	1.2135706e-07
67	0x00000000	0.0
68	0x349f6d77	2.9695704e-07
69	0x34786c3e	2.3136178e-07
70	0x2d64cc8f	1.3005721e-11
71	0x34a9932f	3.1585793e-07
72	0x34f1e3ae	4.5055407e-07
73	0x00000000	0.0
74	0x353386aa	6.687866e-07
75	0x355797cf	8.031465e-07
76	0x2f120500	1.3280399e-10
77	0x35e68435	1.7174813e-06
78	0x33b2d31a	8.32717e-08
79	0x00000000	0.0
80	0x3434082b	1.6766778e-07
81	0x34821b72	2.4234356e-07
82	0x2ce19d64	6.4123585e-12
83	0x34aabe5a	3.1803467e-07
84	0x34ecbb01	4.409449e-07
85	0x00000000	0.0
86	0x3539696c	6.907128e-07
87	0x359330c3	1.0966545e-06
88	0x2e727546	5.512859e-11
89	0x35ae498d	1.2985416e-06
90	0x34939945	2.7492402e-07
91	0x00000000	0.0
92	0x34ee0975	4.4337835e-07
93	0x35110f24	5.403874e-07
94	0x2e819fc7	5.894623e-11
95	0x355996a2	8.1058e-07
96	0x340ade57	1.2933138e-07
97	0x00000000	0.0
98	0x347885f9	2.3145539e-07
99	0x33fd093c	1.178291e-07
100	0x2d5b088e	1.2450608e-11
101	0x3402e75a	1.2191359e-07
102	0x33fd5bb5	1.1797912e-07
103	0x00000000	0.0
104	0x341c7041	1.456947e-07
105	0x349f0c19	2.962486e-07
106	0x2dc1cd5a	2.2032754e-11
107	0x353eefc8	7.1129443e-07
108	0x34839703	2.4510527e-07
109	0x00000000	0.0
110	0x348697a0	2.5069767e-07
111	0x34da2211	4.063045e-07
112	0x2e6e0d56	5.412678e-11
113	0x3584a31e	9.88224e-07
114	0x3480bdd7	2.3979985e-07
115	0x00000000	0.0
116	0x34c499df	3.66198e-07
117	0x34a44ddb	3.0604028e-07
118	0x2e5e78b7	5.0584172e-11
119	0x349a13ac	2.8699048e-07
120	0x334f8e99	4.8325635e-08
121	0x00000000	0.0
122	0x3387fc20	6.332289e-08
123	0x33c5e292	9.21474e-08
124	0x2cedf55b	6.763185e-12
125	0x345d11db	2.0588725e-07
126	0x34c9e6f5	3.760721e-07
127	0x00000000	0.0
128	0x356e07e4	8.867339e-07
129	0x34fdf8b8	4.730589e-07
130	0x2e819433	5.892566e-11
131	0x352e505a	6.493698e-07
132	0x33a77231	7.797315e-08
133	0x00000000	0.0
134	0x33b4cd2e	8.419225e-08
135	0x3437ae27	1.710656e-07
136	0x2d559a8d	1.2141965e-11
137	0x349b8a97	2.8971837e-07
138	0x3324bc3d	3.8355427e-08
139	0x00000000	0.0
140	0x33443a5b	4.568788e-08
141	0x33aa7d7c	7.9390674e-08
142	0x2dd35a54	2.4028037e-11
143	0x33ee4441	1.1095154e-07
144	0x350baa3d	5.2029264e-07
145	0x00000000	0.0
146	0x359fb715	1.1899707e-06
147	0x353a64dd	6.9437175e-07
148	0x2edb0877	9.9604706e-11
149	0x356e1913	8.8698397e-07
150	0x35209d47	5.9833513e-07
151	0x00000000	0.0
152	0x353ccd93	7.033461e-07
153	0x359c80e2	1.1660416e-06
154	0x2f118241	1.3233949e-10
155	0x362a4055	2.536942e-06
156	0x345dfead	2.067488e-07
157	0x00000000	0.0
158	0x344d1e53	1.9103145e-07
159	0x34772d84	2.3020226e-07
160	0x2e8fda9b	6.541719e-11
161	0x34b405e7	3.3531907e-07
162	0x3456759f	1.9973093e-07
163	0x00000000	0.0
164	0x34c88c08	3.735479e-07
165	0x34ef6722	4.4592258e-07
166	0x2daaabea	1.9403108e-11
167	0x352aa61b	6.357165e-07
168	0x33049d03	3.0876446e-08
169	0x00000000	0.0
170	0x3326daab	3.8848764e-08
171	0x335abe8e	5.093039e-08
172	0x2d13eb59	8.40824e-12
173	0x34044e40	1.2321925e-07
174	0x33e1717b	1.0498021e-07
175	0x00000000	0.0
176	0x3457ffb7	2.0116464e-07
177	0x3423e39f	1.5263366e-07
178	0x2e6c8c74	5.3784935e-11
179	0x34b081fd	3.2877134e-07
180	0x3319658d	3.571545e-08
181	0x00000000	0.0
182	0x33501db4	4.845579e-08
183	0x33acfb4a	8.0550834e-08
184	0x2cb85269	5.238744e-12
185	0x3453f566	1.9740182e-07
186	0x338b826f	6.4964176e-08
187	0x00000000	0.0
188	0x34038086	1.2247082e-07
189	0x339b95be	7.244988e-08
190	0x2cee19d5	6.7672348e-12
191	0x33b9a5f1	8.6449184e-08
192	0x35026a54	4.85835e-07
193	0x00000000	0.0
194	0x35284f3d	6.2700184e-07
195	0x35a2da32	1.2133444e-06
196	0x2f12ed32	1.3362891e-10
197	0x3616e629	2.2485713e-06
198	0x33b4b750	8.4152475e-08
199	0x00000000	0.0
200	0x33e57aa2	1.068595e-07
201	0x33afaa8c	8.180095e-08
202	0x2dd89ef8	2.4626953e-11
203	0x34588959	2.0166534e-07
204	0x3454b5f1	1.9810228e-07
205	0x00000000	0.0
206	0x34843650	2.4626434e-07
207	0x34be6911	3.5466704e-07
208	0x2e1652f1	3.4179718e-11
209	0x35aea9b9	1.3013406e-06
210	0x3559b964	8.110858e-07
211	0x00000000	0.0
212	0x35d6e47e	1.6010742e-06
213	0x358ee4b3	1.0646385e-06
214	0x2f7321c5	2.2112719e-10
215	0x35e9076e	1.7362015e-06
216	0x34875e81	2.521447e-07
217	0x00000000	0.0
218	0x34c3845b	3.6417882e-07
219	0x35178db9	5.6458117e-07
220	0x2dd8bf26	2.4641244e-11
221	0x35233e14	6.081257e-07
222	0x34a0cad9	2.9949913e-07
223	0x00000000	0.0
224	0x34e72626	4.305486e-07
225	0x350baf87	5.203696e-07
226	0x2e3f8172	4.3543343e-11
227	0x35b47e50	1.3447807e-06
228	0x34877a5d	2.523474e-07
229	0x00000000	0.0
230	0x349e1037	2.944159e-07
231	0x353e6993	7.0934146e-07
232	0x2eb3b2b4	8.1717216e-11
233	0x3558ec87	8.0810463e-07
234	0x35092125	5.108471e-07
235	0x00000000	0.0
236	0x34e78106	4.312098e-07
237	0x358abc96	1.0336687e-06
238	0x2f614b8b	2.0490469e-10
239	0x35d89487	1.6136481e-06
240	0x3427e6d3	1.563706e-07
241	0x00000000	0.0
242	0x34a86062	3.1362566e-07
243	0x3459f70b	2.0299574e-07
244	0x2e5af343	4.978352e-11
245	0x34adabe4	3.2348828e-07
246	0x350374be	4.8971185e-07
247	0x00000000	0.0
248	0x34e804e1	4.3216917e-07
249	0x35222ea6	6.0417585e-07
250	0x2ef1cd6e	1.0995903e-10
251	0x35958246	1.113928e-06
252	0x33ec3d2c	1.10007335e-07
253	0x00000000	0.0
254	0x343d4092	1.7625487e-07
255	0x349c6d10	2.9136618e-07

exp_avg f4 [128]
0	0xb9eee467	-0.0004556507
1	0x390fca49	0.000137129
2	0xb8d46887	-0.000101284175
3	0x3801e9b4	3.097365e-05
4	0xb8bf9015	-9.134427e-05
5	0x38e7dfda	0.00011056634
6	0x38f48780	0.000116600655
7	0x37ca62b5	2.412624e-05
8	0x39a4981b	0.00031393845
9	0x38bc1bb4	8.969699e-05
10	0x392af2d3	0.00016302922
11	0x38a2efe4	7.769445e-05
12	0x39e94019	0.0004448898
13	0xb82da36d	-4.1398616e-05
14	0x39036567	0.00012530909
15	0xb9b0c65b	-0.00033717122
16	0xb8d9ea4c	-0.000103910075
17	0x39915bc3	0.00027724923
18	0x3918684c	0.00014534703
19	0x391c28d4	0.00014892529
20	0xb9065c4f	-0.00012813623
21	0x37775485	1.4742026e-05
22	0xb908c018	-0.00013041531
23	0x3886d581	6.429386e-05
24	0xb92912a6	-0.00016124043
25	0xb9fa86e6	-0.00047784223
26	0xb8c2f0b8	-9.295478e-05
27	0x38cdc4bb	9.811806e-05
28	0xb8ac2a3f	-8.209468e-05
29	0x39660137	0.00021934962
30	0xb8a7b0d5	-7.996118e-05
31	0x37dd722c	2.6398418e-05
32	0xba100f16	-0.0005495412
33	0xb862ab93	-5.404239e-05
34	0x393d40ae	0.0001804854
35	0x39e31f06	0.00043319928
36	0xb888c296	-6.52123e-05
37	0x39222735	0.0001546413
38	0x394ac511	0.00019337634
39	0x38c9aa2a	9.6161224e-05
40	0x39491dc0	0.00019179936
41	0xb9997319	-0.00029268189
42	0x382fe19e	4.1933374e-05
43	0x3a0bb29c	0.0005329044
44	0x3705aead	7.968088e-06
45	0x37f641c8	2.9356117e-05
46	0x391a92c2	0.00014741256
47	0xb865d085	-5.4792054e-05
48	0x37ff182e	3.0409628e-05
49	0xb93b5a9e	-0.00017867467
50	0xb8741ccb	-5.820095e-05
51	0x39851039	0.00025379824
52	0x37b156b3	2.1140417e-05
53	0xb96e5ff2	-0.00022733191
54	0xb7b7318c	-2.1838372e-05
55	0x38db1ba1	0.0001044788
56	0x389ba7e0	7.422245e-05
57	0x3809cb93	3.285294e-05
58	0xb9339bc1	-0.00017128793
59	0x390fc2ce	0.00013710113
60	0xb9897bd9	-0.0002622295
61	0xb7c0393c	-2.2914835e-05
62	0x39e989de	0.00044543942
63	0xb990fa9b	-0.00027652536
64	0xb80495ac	-3.1610645e-05
65	0x3a13f1b8	0.0005643624
66	0x39789946	0.00023708222
67	0xb8c5e4b8	-9.436294e-05
68	0xb7f6bc4c	-2.9413168e-05
69	0x39d85f2c	0.0004126964
70	0xb8ec5d6c	-0.00011270758
71	0x381ba8f4	3.711223e-05
72	0xb9f636d0	-0.00046961615
73	0xb8b8494f	-8.7874585e-05
74	0xb916142f	-0.00014312634
75	0xb8646e70	-5.446229e-05
76	0xb76227b4	-1.3479894e-05
77	0xb955db65	-0.00020394994
78	0xb840543e	-4.5854824e-05
79	0x39682849	0.00022140252
80	0x38af689c	8.364135e-05
81	0xb780ad26	-1.5339418e-05
82	0xb8d0add7	-9.950593e-05
83	0xb88e12b0	-6.7745685e-05
84	0x3811881c	3.4697456e-05
85	0xb6ff7d98	-7.6142132e-06
86	0xba5a44c7	-0.00083262887
87	0x3885152c	6.345878e-05
88	0x389db084	7.519222e-05
89	0x397e2efc	0.0002424083
90	0xb9c0aa4e	-0.0003674798
91	0xb590b451	-1.0781315e-06
92	0xb81c13d1	-3.7211754e-05
93	0xb8456046	-4.705812e-05
94	0xb94b448e	-0.00019385127
95	0x3729ad8d	1.0113593e-05
96	0xb8b450ee	-8.598143e-05
97	0x3a06e933	0.0005146444
98	0x38a95160	8.073705e-05
99	0x37a79b3f	1.9980243e-05
100	0xb7f0cabe	-2.8704639e-05
101	0xb83cef18	-4.5045366e-05
102	0xb9970d83	-0.0002881103
103	0xba080c27	-0.0005189799
104	0x369e2c0d	4.713895e-06
105	0xb876e4fc	-5.886423e-05
106	0x38180c02	3.6250807e-05
107	0x3865e41f	5.481031e-05
108	0xb8b5cd02	-8.668938e-05
109	0xb841dfd5	-4.6223246e-05
110	0x3998236a	0.00029018085
111	0x391e3e96	0.0001509137
112	0xba0679ca	-0.00051298423
113	0xb9b650de	-0.00034773996
114	0x38319e55	4.2347547e-05
115	0x38d02305	9.924736e-05
116	0xb921ba0c	-0.00015423464
117	0xb9dacea1	-0.0004173415
118	0xb8ba7893	-8.89163e-05
119	0x3980f78e	0.00024598505
120	0x39685a27	0.00022158829
121	0xb9a204e1	-0.00030902683
122	0xb8aa9c98	-8.1353995e-05
123	0x390cf4ff	0.00013442709
124	0xb9943514	-0.00028268306
125	0xb8a16d63	-7.697453e-05
126	0x38e57a0f	0.00010942306
127	0xb8209d32	-3.8293372e-05
