results/ManagerAvoidShooting6/ManagerAvoidShooting6.onnx (onnx, 80244 bytes, 10 tensors)

network_body.observation_encoder.processors.0.normalizer.running_mean f4 [8]
00000000: ac7b ef3e 0000 0000 3a13 923e 2af7 8ebf
00000010: 0d9f c8c0 e014 e23f 16dc 3cbf 3ca8 343d
0.46774042 0.0 0.28530294 -1.1169178 -6.2694154 1.766262 -0.73773324 0.044105753

network_body._body_endoder.seq_layers.0.weight f4 [128, 8]
00000000: 5122 b1bc 6bfd 27bd 933a bebe b8d8 35be
00000010: fce6 a93e 3f14 0b3f c9a2 dc3e 4a0b 37be
00000020: c037 5fbe 9d68 5dbd 550f d93e 553b ad3e
00000030: 32b8 e1be 43e6 1f3f d5ad 113e 2fad 5c3e
00000040: ed51 51be a2c9 e5bc b01a 603e 424f fcbe
00000050: 8119 d0bd 3950 f2bd 2a4a fd3d e159 a73d
00000060: 640e ebbb fce2 0b3e c898 bcbe b53d 34bc
00000070: 39aa 83bd 489c 0d3f ce5a 443f 048e 873e
00000080: 6bb2 473c f401 14be 0226 913c d965 313f
00000090: 33fc 90bd 7c88 843e 6d5b 0f3c 60d5 e5bc
000000a0: 4b63 c4be 762d 4c3f 243b c1bd 2519 f53d
000000b0: 05a0 1f3f 9389 4d3f d3df 35bf cd8a b03e
000000c0: 5e11 aebd 4028 07bd 26eb cabd 8efc d7bd
000000d0: 7fb6 94be cbd2 51be 9789 343e 9f18 fc3e
000000e0: 65c9 91be 0ad5 df3e adf8 713c be76 473e
000000f0: 8d23 033f 8f78 dbbe 61aa ffbe 124d c83b
00000100: 65a5 083f e39a 1e3e 1925 403f 09c6 2b3e
00000110: 3caa b43e 6b47 9fbd 4031 2dbe 4c48 d2bd
00000120: 3af2 dfbc 501f 373d 19d0 0abf 9aa9 cb3e
00000130: 636e dc3d aff8 b93e 4334 7abe 703c 773e
00000140: 4191 ac3e 80c7 e9be c8e6 c13e 9980 bb3e
00000150: 1933 663f cd93 fcbe 2331 3cbe 2d4d 83be
00000160: 5c08 223d ebf7 a7be 6162 22be 0309 36bf
00000170: ac60 ccbd 2701 02be b002 923e 83ac c5be
00000180: fcf4 bb3e 0bdd ee3e 32ce 92be 7186 523e
00000190: a625 e13d 5570 b93a 46a4 2ebe e1f0 cf3d
000001a0: c7c6 e93e 1bdb fdbe 9a2d d53d 5b01 793d
000001b0: 3e62 46be 5177 c73c 5695 32bf f38a 51bf
000001c0: c158 103e 078c 56bf 248f c93d df17 693d
000001d0: 90cd 2d3d 81cd a4bd 35ed a2bd 5574 9b3d
000001e0: 7460 603d 7e6f 2ebe 7d5b eebe 3f3c 8d3e
000001f0: d92a 63be e1d5 f73e f50f cbbc 7192 f8be
00000200: bec0 5bbe 79ad 61bf 0707 50bf 6f7b 9bbe
00000210: eda2 bdbe 006f c5be 3314 5e3e 80f2 613e
00000220: d7f4 13bf 284b 47be bc3c 91be a380 093f
00000230: 4c40 aa3e 4e45 9c3e 1b58 37be 9169 fdbd
00000240: 065f ae3e 2e92 9abe dfe6 05bf fcbd e9be
00000250: 96a1 9f3e 3cc4 7dbf 660c 9dbe 6b11 d0be
00000260: 2f03 3dbe 1e82 17be 127e 043e 0ae7 523d
00000270: 5840 32be 18e6 8dbd fd36 2cbd 280c ab3c
00000280: b984 2abe 6e2d 04be 1cb0 d6be ee97 3d3f
00000290: f76a c1be a6c6 66be 008e 0b3f 9a72 293f
000002a0: b25b acbe a15b 7d3e 8054 ddbc bac4 433e
000002b0: 2452 9fbe b107 133e 2bd8 313e a218 f83e
000002c0: 7794 44bf 4686 b83e fbd6 3b3f 8663 28be
000002d0: 1ad7 743e 9cf1 2b3f 85c4 c43e fa6c b13e
000002e0: 9694 88be 02c1 323b 7b60 9cbe 2b5c 033e
000002f0: fc86 23be 2a41 ad3e e4e0 b73e fd1f 42be
00000300: d826 8fbd 93de 35be 6622 82be c0e1 d03e
00000310: 6ae3 9f3c c6b2 99be 040d 943e c193 80be
00000320: bb11 fc3e 9ee8 e03e d0c9 9cbd f8a8 c2be
00000330: 9114 61bd 7c75 fa3e f849 bcbe 2306 193e
00000340: d577 c3be adc5 ccbe 7c0e 22be 2c5e 923e
00000350: ebab 133f d227 ef3d 3152 333e 58d5 0a3d
00000360: 7176 8bbe 6544 2fbd b0dd adbe 216a 2abe
00000370: 0a62 6c3e 5342 b5be 28d2 843e 0ee5 1c3f
00000380: 84a9 943e fd66 6c3e b4c8 3fbf e3c6 ffbd
00000390: cab5 8a3e 1071 16bf c7d6 0b3f 5dd1 8f3e
000003a0: 9d20 febd 098d 3c3e 9a60 34be 0354 bbbe
000003b0: 3bd0 1d3f 0b70 cd3e 18bd 23be 79aa 033f
000003c0: 0ca9 1cbf 6fd9 18be 6759 5f3e d677 89be
000003d0: 60ca 8c3e cd38 29be bdcf 0fbe 6180 b83c
000003e0: 9c6c f23d 0d7f c4be a525 ee3e 252e 0dbe
000003f0: d7ee 79be 76b4 e7be a80d b4be 451e 76bd
-0.021622809 -0.041013163 -0.37154064 -0.17758453 0.3318404 0.5432777 0.43092945 -0.178754
-0.2179861 -0.054054845 0.4239451 0.3383433 -0.44085842 0.62460726 0.14226468 0.2155044
-0.20441408 -0.028050248 0.2188518 -0.4927922 -0.101611145 -0.118317075 0.12367661 0.0817144
-0.0071733464 0.13660806 -0.36835313 -0.01100104 -0.06428952 0.5531659 0.76701057 0.26475537
0.012188534 -0.1445387 0.017718319 0.6929603 -0.07079353 0.2588538 0.008749825 -0.028055847
-0.38357005 0.7975687 -0.09435108 0.119676866 0.62353545 0.80288047 -0.71044654 0.34480897
-0.08499406 -0.03299737 -0.09908132 -0.10546218 -0.29045483 -0.20490567 0.17630611 0.49237534
-0.28473964 0.43717223 0.014768762 0.1947889 0.5122612 -0.42865416 -0.49934676 0.006112703
0.5337737 0.15488772 0.75056607 0.16774763 0.3528613 -0.07777294 -0.16913319 -0.10267696
-0.027337182 0.044707596 -0.5422378 0.39777833 0.10763242 0.36322543 -0.24433999 0.24144149
0.3370457 -0.4566002 0.37871385 0.3662155 0.8992172 -0.49331513 -0.18378119 -0.25644818
0.039558753 -0.32806334 -0.15857841 -0.711075 -0.09979376 -0.12695752 0.28517675 -0.38608178
0.36710346 0.46653017 -0.2867294 0.20559098 0.10993509 0.0014147857 -0.17054853 0.10153366
0.45659468 -0.49581227 0.104090884 0.06079231 -0.19373414 0.024348887 -0.6975912 -0.81852645
0.14096357 -0.83807415 0.09841755 0.05690753 0.042432368 -0.08047009 -0.079554 0.07590548
0.054779485 -0.17034718 -0.46554175 0.27585027 -0.22184314 0.48405364 -0.024787882 -0.48549226
-0.21460244 -0.88155323 -0.8126072 -0.3036761 -0.37038365 -0.3856125 0.21687393 0.22065163
-0.5779547 -0.19462264 -0.2836665 0.5371191 0.3325218 0.30521625 -0.17904703 -0.12373651
0.34056872 -0.3018965 -0.52305406 -0.4565276 0.31177968 -0.99127555 -0.30673522 -0.4063829
-0.18458246 -0.1479573 0.12938717 0.051489867 -0.17407358 -0.069286525 -0.04204463 0.02087982
-0.16652192 -0.12907955 -0.41931236 0.7405995 -0.3777692 -0.22536716 0.5451355 0.66190493
-0.33663708 0.24741985 -0.027017832 0.19118014 -0.31117356 0.14358403 0.17367618 0.48456293
-0.7678904 0.36039943 0.7337491 -0.16444215 0.2391018 0.6716554 0.38431183 0.34653455
-0.26675862 0.0027275686 -0.3054236 0.12828128 -0.15969461 0.3383878 0.35913765 -0.18957515
-0.06989831 -0.17760687 -0.2541687 0.40797234 0.01951762 -0.30019206 0.2891618 -0.25112727
0.49232277 0.43927473 -0.0765568 -0.38019538 -0.054951254 0.48917758 -0.36775184 0.14943747
-0.38177362 -0.39994565 -0.15825838 0.28587472 0.576842 0.11677517 0.17511822 0.033894867
-0.272388 -0.042789835 -0.33958197 -0.16642047 0.23084274 -0.35402164 0.25941586 0.6128701
0.2903558 0.23086162 -0.74915624 -0.124891065 0.2709182 -0.5876627 0.546246 0.2808942
-0.12408564 0.18413176 -0.17614976 -0.36587533 0.6164586 0.40124545 -0.15990102 0.51431996
-0.61195445 -0.14926694 0.21811448 -0.2684924 0.2749815 -0.16525574 -0.1404409 0.022522153
0.11837122 -0.38378182 0.46513095 -0.13787134 -0.24407516 -0.45254868 -0.3516667 -0.06008746

network_body._body_endoder.seq_layers.0.bias f4 [128]
00000000: 6897 12bd eb06 50bc 218e 35bd b4f1 b0bc
00000010: 305c 003d fe9e 43bd 0dce c8bd d29c 213d
00000020: 0fec f53b 8c2a 693c 3f30 4f3d 7161 10bd
00000030: 014b 853d cf76 363d daed 44bd 8540 333b
00000040: 99e3 c6bc cccb 8c3d 1920 a93c 3a0a 9c3d
00000050: 7a2f 3e3d 7626 383d a318 2abd e0f2 88bd
00000060: d3d0 923d 5c90 0f3d 55f3 4d3d 49dc 6cbd
00000070: 8f0e 0cbd be7c 6bbb a32c 22bd c018 4cbc
00000080: 41ad 413d e02e 0e3c 6403 c7bc 8ae7 57bb
00000090: e91b 5dbc 9064 8d3d e0e0 84bd 9eb1 b9bd
000000a0: 307f 003d 1189 e43b c950 6b3a 529f 273c
000000b0: 33e3 da3b 1642 5ebb 2fc0 ea3b 926e 693c
000000c0: ea68 96bb a236 843b 9fa4 3fbd 3796 443c
000000d0: 036c 7f3d e68c f03c 971f cb3c 8327 883d
000000e0: 7053 153c d1cf 5c3d 2eba e5bb 1586 433d
000000f0: c7c6 32bd 4b8b 853a ba41 543d a855 533c
00000100: 7a38 e23c 5584 05bd e7f9 fb3c 29be 173d
00000110: de0a 10bc 8a69 d93b 7f98 b33c 6d83 26bd
00000120: 3de7 513d 106d 073d c25b 1cbd 6196 f23c
00000130: d43f 3c3d 0b4b bebb f850 24bd 3545 fc3a
00000140: aef3 48bb 6899 0cbd bcb1 5f3d 592b 6cbd
00000150: 36cd 52bd 2fba cd3d ef8e e43c 051a 9cb9
00000160: 5d7f a73d b0ec 8e3d 4674 a6bc 10ff c5bb
00000170: 3051 7e3d 8719 a7bd 1fab 563c 148e cabc
00000180: c3af 903d 08cc 9b3d cd60 00be acb0 87bd
00000190: 5658 353d 9a74 24bd 49be 52bc a1e0 b0bc
000001a0: 9688 803d 98e1 05bc 0b02 6f3d 1a85 f5bc
000001b0: 35a0 07bd af78 5dbd b553 fbbb 31eb 87bd
000001c0: ddbd 5b3d bbe0 923d 6587 15bb 5bb9 8fbd
000001d0: 8539 943b 3b24 4a3d 2190 1bbd 6bed dabd
000001e0: 173e 113d 379b b9bb d552 0dbc 7bc7 163d
000001f0: 3846 aa3d 459c b0bc c699 86bc 9327 d03a
-0.035788924 -0.012696962 -0.044324998 -0.021599628 0.031337917 -0.04775905 -0.09804926 0.039456196
0.007504947 0.014231335 0.05058312 -0.035249177 0.065084465 0.0445469 -0.048078395 0.002735169
-0.024278449 0.06874809 0.020645188 0.07619138 0.046431996 0.044958554 -0.0415274 -0.0668695
0.07168736 0.03504978 0.050280888 -0.057827268 -0.03419357 -0.0035932506 -0.03959335 -0.012457073
0.04728437 0.008678168 -0.024293609 -0.0032944405 -0.013495424 0.069039464 -0.06488204 -0.09067081
0.031371295 0.0069743474 0.00089765765 0.010230856 0.0066799163 -0.0033913902 0.0071640234 0.014247553
-0.0045901434 0.004034833 -0.046787854 0.011998705 0.062358867 0.02936406 0.024795337 0.06648161
0.009114131 0.053909127 -0.0070107197 0.047735292 -0.0436466 0.0010188607 0.051820494 0.01289884
0.02761482 -0.032596905 0.030758811 0.037046585 -0.008791653 0.0066348957 0.021923302 -0.04065268
0.051245917 0.033062994 -0.038173445 0.029612722 0.04595931 -0.0058072857 -0.04011628 0.00192467
-0.0030662823 -0.034325987 0.05461286 -0.057658527 -0.051465236 0.10045277 0.027900187 -0.00029774025
0.081785895 0.06978738 -0.020319115 -0.0060423687 0.062089145 -0.08159166 0.013102322 -0.024725951
0.07064774 0.07607275 -0.12536927 -0.06625494 0.044273697 -0.040150262 -0.01286275 -0.021591486
0.06276052 -0.0081714615 0.058351558 -0.029970694 -0.03311177 -0.05407017 -0.0076698908 -0.06636656
0.053647865 0.0717177 -0.0022816297 -0.070177756 0.0045234584 0.04935096 -0.03797925 -0.10689815
0.035459604 -0.005664255 -0.008625706 0.036811333 0.083141744 -0.02155889 -0.016430747 0.0015880935

network_body._body_endoder.seq_layers.2.weight f4 [128, 128]
00000000: 9525 5f3d 6760 db3b bee0 29be 86d6 153e
00000010: 6543 13bc a14a 52be 3e0a c43d 0da7 693d
00000020: d54c a03d 51a5 013e 8497 4b3d 1cd5 87bb
00000030: 2bd7 8a3d 3700 20bd e4c6 c03c 387f c23d
00000040: 8c08 25bd 5a5c 4f3e 8798 603e c228 a5bd
00000050: 84d0 fd3c 5db8 79bd b6c8 09be 1db4 7dbd
00000060: b5f3 17be ccc8 053e 7d4f 8abd 23f2 afbd
00000070: 8cef 363e d506 8abd dd70 00be faeb 96bd
00000080: 39ab df3d e681 a23d daff e1bd b97a a6bc
00000090: 4a4c 7fbc 02e6 923c ea01 393d 715b 23be
000000a0: 329d 51be d0a8 8d3d 8db3 673e 9095 b5bd
000000b0: da01 c2bd d868 27be a188 633d 10d7 95bc
000000c0: 1181 883d ac0b e5bc d17c 083d edfa 79be
000000d0: 6945 73be 76e5 fbbc 152d a1bd e112 87bd
000000e0: d65b 44be 8605 a6bc 72a9 383d 4e8c 513d
000000f0: 974a ea3d f1c4 063d bf36 82bd c6df 65bd
00000100: 0027 193c 301d 793d b22e 8dbd 47aa 7d3e
00000110: af51 28bc c03c e03a cf43 963d fd0e 153d
00000120: 0cfe 33be fc8d e13c 87c0 aabd db00 d23d
00000130: b579 213d 6805 833d 0d93 9abd e128 efbc
00000140: 67ec d73d a6f2 4cbd 93c1 6e3d 9156 c03c
00000150: 2672 88bd a869 71bd 3aeb 8ebc 049c acbd
00000160: 2027 9dbc 74ed 8fbd 7f53 1a3e 2215 2fbe
00000170: 62a1 0abc 66b9 623d 090e cbbd 7b13 41be
00000180: c311 03bd 8ebb e8bd f662 55bc 2d31 0d3d
00000190: f8c2 3d3d 1943 383d 3569 f5bd becf 573d
000001a0: 00de 96bd 5008 b33d d561 1c3e ef8d aabb
000001b0: 710d cd3c 3e03 973d b1ef 1f3e 60b6 df3d
000001c0: 4903 653d 18ae 46be b3d6 0d3e 48fa 8fbe
000001d0: 744b be3d 8368 68bd 1408 7abc 4f8a 08be
000001e0: 6450 713d 3351 573d aa1c 3b3e 100c e0bd
000001f0: c417 c9bd 52cd 903d fd9a 893d 7efb b9bd
00000200: 1f9e 183d e0cb ae3c f96d 2abd 41ac 05be
00000210: 4159 fabd 18d0 ce3d 36d7 9f3d b01a 963d
00000220: e8f7 4a3c 34f0 9c3c c6ce c1bd 84b2 053d
00000230: dbf4 c6bc 444e 96bd 41f4 debc 1670 d1bd
00000240: 7028 ea3a a87b 55bb d5e2 1bbe 3264 eb3d
00000250: ad09 4ebe 83fe 8c3d 0dfd 99bd 2d01 fdbc
00000260: e4a5 9cbc 3125 bc3b c939 d1bd e019 ed3d
00000270: 00ba d33c fc49 d1bd dd21 0ebe ea4b 2b3e
00000280: c91f 1cbe 7c8e 083e dc1a fd3d 2e60 f13d
00000290: 67e0 2d3e 6cce 35be 382e 77bd 6a29 6b3d
000002a0: cb21 9bbd 4470 78bd 5ac4 14bd b20e 02be
000002b0: 2525 583e 58bc 93bd 37c5 80bd bed1 403d
000002c0: 4898 673d 934d f6bc 78a6 0d3e 700a f6bd
000002d0: 64b6 cbbd 3a24 f3bd b3cf 95bd 7d01 c4bd
000002e0: 62cb 01be f9ec 54bd c3fc af3d 6b79 a43c
000002f0: 47fb e53c 1c9c 2fbd f3e6 2bbe c53e 0fbe
00000300: 5a2d 5abc 65d3 6c3d ff8e 3cbe 364c 803d
00000310: f0e0 c4bd 4d00 b63b f4dc 293d 9c85 aebd
00000320: 16ff 10be cab0 2ebe e589 19bc e372 8ebd
00000330: 45c0 353d 5bb8 f9bd 17cf 813c 8e6a 9ebb
00000340: 8332 a03d e03c 0f3e e4a1 263d 8aee ac3b
00000350: 6be8 143c e97c 64be 9ad6 28be 25c1 a6bd
00000360: 9eeb ebbc 6a8d 2cbe ab6e 193e 32ab 1bbd
00000370: f9bb 1f3e eb36 38bd a320 c8bd 996e 993c
00000380: 2ede 28be be93 b53d 110e feba 0fc8 3abb
00000390: 2d16 88bd 6c9d b53c 6b7f 17bd 0792 9d3c
000003a0: 2589 8fbc f7bd 8cbd 95ef a1bd 9e7e cebc
000003b0: b4bb c33b 5b2a 8bbd 045d 80bd 6d50 efbd
000003c0: 191c 5abd ec95 c43c 935a 6abc c01b f5bc
000003d0: 3e32 003e ff53 6fbe 2967 71bc b0fe aa3d
000003e0: ebb9 57bd 6485 d1bc d76a 29bd 70db 31be
000003f0: 44c2 ccbd 442e b1bc 2545 51bd d501 1dba
0.0544792 0.0066948417 -0.16589639 0.14632615 -0.008988236 -0.20536281 0.09572266 0.057044078
0.078271545 0.1266072 0.049705043 -0.0041452777 0.06779321 -0.039062705 0.023532338 0.09496921
-0.040291354 0.20250073 0.21933185 -0.080644146 0.030983217 -0.06096684 -0.13455471 -0.061939348
-0.1483906 0.13064879 -0.067534424 -0.08591106 0.17864817 -0.06739584 -0.12543054 -0.07369228
0.1092133 0.079349324 -0.11035128 -0.02032219 -0.015582154 0.017931942 0.04516784 -0.15952851
-0.20470122 0.06916964 0.22627087 -0.088664174 -0.094730094 -0.16348588 0.05555022 -0.018291026
0.066652425 -0.027959667 0.03332216 -0.24412127 -0.23756947 -0.030749064 -0.07869927 -0.06595398
-0.19175658 -0.020266306 0.04508347 0.051159196 0.11440008 0.03290266 -0.06358098 -0.05612161
0.009347677 0.06081885 -0.06893672 0.24771987 -0.010273381 0.0017107949 0.07337152 0.036391247
-0.1757738 0.027533524 -0.08337503 0.102540694 0.03942271 0.063975155 -0.07547579 -0.029194297
0.10543137 -0.050036095 0.058290076 0.023478778 -0.06662397 -0.058938652 -0.01744615 -0.08428195
-0.019183695 -0.070277125 0.15070914 -0.17097905 -0.008461328 0.05535259 -0.09914786 -0.18855087
-0.03199936 -0.11363898 -0.013024082 0.034470726 0.046328515 0.044985864 -0.11982957 0.052688353
-0.07366562 0.0874182 0.15271695 -0.005204908 0.025030823 0.07373665 0.15618779 0.10923457
0.055911336 -0.19402349 0.13851433 -0.28120637 0.09291735 -0.056740295 -0.015260715 -0.1333401
0.058914557 0.052567672 0.18272653 -0.10939801 -0.09818986 0.07070412 0.06719015 -0.090811715
0.03726017 0.02133745 -0.041608784 -0.13053991 -0.12224055 0.100982845 0.0780472 0.07329309
0.012388207 0.019157507 -0.09463267 0.03264095 -0.024286678 -0.07339147 -0.027216079 -0.10226457
0.0017864835 -0.0032574926 -0.15223248 0.1149372 -0.20120879 0.06884482 -0.07518969 -0.03088435
-0.019122072 0.0057417382 -0.102161 0.11577201 0.025845528 -0.102191895 -0.13880105 0.16728178
-0.152465 0.13335603 0.12358639 0.11785923 0.16980134 -0.17754525 -0.060346812 0.057412542
-0.07574805 -0.06065394 -0.036320068 -0.12700918 0.2110792 -0.07213658 -0.06287616 0.047075026
0.05654171 -0.030066287 0.13833034 -0.120137095 -0.099468976 -0.11872144 -0.07315006 -0.09570596
-0.1267524 -0.051983807 0.08593132 0.020077428 0.02807392 -0.042873487 -0.16787319 -0.13988788
-0.013316477 0.05781879 -0.18413924 0.06264536 -0.09613216 0.005554235 0.041470483 -0.08521578
-0.14159808 -0.17059627 -0.0093712555 -0.06955507 0.044372816 -0.12193366 0.015845818 -0.0048344797
0.07822134 0.13988066 0.040681735 0.0052774595 0.009088616 -0.22313274 -0.16488114 -0.08142308
-0.028798874 -0.1685082 0.14983623 -0.03800506 0.1559905 -0.04497425 -0.0977185 0.018729495
-0.16491005 0.0886607 -0.0019382854 -0.0028500592 -0.06644855 0.022169791 -0.03698675 0.01923467
-0.01752145 -0.068721704 -0.07907025 -0.02520686 0.0059733037 -0.06795188 -0.06267741 -0.11685262
-0.053249452 0.02399727 -0.014303821 -0.029920459 0.12519166 -0.23371886 -0.014734068 0.08349359
-0.05266754 -0.0255763 -0.041361656 -0.17368865 -0.09997991 -0.021628506 -0.051091332 -0.00059893477

network_body._body_endoder.seq_layers.2.bias f4 [128]
00000000: eca4 ca3c b376 a3bd 8d24 743d eea8 9e3c
00000010: 2545 eeba c8ad aabd c64e 993d 4aca 1b3d
00000020: cd8f ae3d c043 e1bd 85d9 823d 48f8 7fbd
00000030: 9bd7 82bb 7225 6f3d 4fb5 a13d 1972 85bd
00000040: 5c69 98bc 100b c33b 577c 563d 7622 c53a
00000050: 5c70 893d 9976 29bd 0640 85bc e666 45bb
00000060: f8eb b0b9 ca33 c1bd 0850 b23c efda c43d
00000070: 1e28 df3c 763c 963d da23 733d b7c6 cdbc
00000080: 25bb 3fbc 0127 153d 1066 6c3d 3a6b 813c
00000090: 55d3 963b e9bb ef3b ae67 77bd 234a 703d
000000a0: a19a 1bbd a2fd d1bb 1a9a 983d bda8 593d
000000b0: 6b94 63bd 7ed0 4d3d 66d8 0fbd 0551 d63d
000000c0: d6f6 993b edc9 edbc 61c8 aa3d 7f09 1abc
000000d0: 2d6f cf3d 67b9 ad3c a83a 593d 370f d0bd
000000e0: fc42 01bd e94f fdba 48de edbc 8c16 37bc
000000f0: 23b3 86bd 1b66 a23c 0d90 54bd b776 19bd
00000100: 245b ea3c e2a8 d7bc 7ce4 283d 3ac2 223d
00000110: f0ea b6bc 4abc 8e3d 05da 81bd 7313 b9bd
00000120: 5caa aabd 4205 94bc 5c89 833c 193b 9fbd
00000130: 7f77 103d 1ce5 843d 2b2b 1d3d 1708 cbbd
00000140: 2a55 cb3c da12 f1bc 00d1 16bc c980 b1bc
00000150: 21b6 683d 3d94 a53c 63a7 c93b 8bdf 2fbd
00000160: f9e4 403d cb49 913c ddd9 75bc 2a1c 083c
00000170: acfa ccbc 8603 0b3d 687c 0a3d 1255 95bd
00000180: bf0b 4dbd c205 f8bc 5f82 c13c 5a75 b73d
00000190: c8e6 db3c 83dd 9d3c df35 083c 8454 a4bd
000001a0: 4a4d 9fbd 1178 3dbd 65a4 86bd 2fa4 863d
000001b0: 9a5e 763d 7f25 4e3d b2bc 893c bf95 54bd
000001c0: bc35 0abd e705 a43d 7760 a6bd fa91 6ebd
000001d0: ca75 aebd 76a3 703d b426 6a3c 5ea6 0b3d
000001e0: 60cc eebb 23e0 173d e6b0 14bd 0d0d 873d
000001f0: 1dda 76bd b6ce f03c 6107 823d dd15 733d
0.024736844 -0.079816245 0.05960517 0.019367661 -0.0018178566 -0.083339274 0.07485728 0.038034715
0.085235216 -0.109992504 0.06389145 -0.06249264 -0.0039929873 0.05838532 0.0789591 -0.06515903
-0.018604927 0.0059522465 0.052364673 0.0015040177 0.06710884 -0.04137287 -0.01626588 -0.0030121147
-0.00033745146 -0.09433706 0.021766677 0.09612071 0.027240809 0.07335751 0.059360363 -0.025119169
-0.011702334 0.03641415 0.057714522 0.0157982 0.0046028295 0.007316102 -0.06040161 0.058664452
-0.037989262 -0.006408409 0.074512675 0.053139437 -0.055561464 0.05024766 -0.035118483 0.10464672
0.0046986146 -0.02902695 0.083390005 -0.009401678 0.10128627 0.02120657 0.053034455 -0.10159152
-0.031558022 -0.0019326183 -0.029036656 -0.011174809 -0.06577136 0.019824078 -0.05189519 -0.03746673
0.028607912 -0.026325647 0.041233525 0.03973601 -0.022328824 0.06969507 -0.06340412 -0.09036913
-0.08333275 -0.018068913 0.016056709 -0.07774944 0.03527021 0.06489012 0.038371246 -0.099136524
0.024820883 -0.029427934 -0.009205103 -0.021667855 0.056814317 0.020212287 0.0061539873 -0.042937797
0.047093365 0.017735383 -0.015005556 0.008307496 -0.025021873 0.033938907 0.03381005 -0.072916165
-0.05006003 -0.030276183 0.023621736 0.0895793 0.026843444 0.019270664 0.008313625 -0.080239326
-0.077784136 -0.046257082 -0.065743245 0.06574284 0.060148813 0.050328728 0.01681361 -0.05190062
-0.03374265 0.08008938 -0.08123868 -0.058244683 -0.0851856 0.05874964 0.014291454 0.034094207
-0.007287547 0.037078988 -0.036301516 0.06594286 -0.060266603 0.029395442 0.06349064 0.059347022

action_model._continuous_distribution.log_sigma f4 [1, 2]
00000000: 20db 35bd dc15 6b3c
-0.044398427 0.014348473

action_model._continuous_distribution.mu.weight f4 [2, 128]
00000000: 31b9 32bd fe60 b43d 0a5e dabc 0f69 613c
00000010: a036 9bbc 862b 973d e13a 53bd c3f7 d7bb
00000020: f9af 88bd 7c75 b13d 7d45 30bd 8821 b63a
00000030: 0dd1 59bb 277e 07bd c231 1dbd 4a05 bc3c
00000040: 559d 4d3c 2989 953c 7c9a ebbc 8c9c 8b3b
00000050: 91c3 5fbd 2961 f13b 454b a33d e604 0dbc
00000060: 5dd5 10bc 5e96 cf3c 636c 7a3a 2485 2dbd
00000070: 784c b7bc 037e 6ebd baef 43bd 41f8 933c
00000080: 373d 8fbb 76c9 c4bc ee7e a73b ebb4 d4bb
00000090: 4a47 b53b c47c a6bc ecac 213d e3eb c4bc
000000a0: c4f9 813c 3b84 853c 8553 7cbd 9908 37bb
000000b0: fa75 03bc ebbd 77bc 2e60 2a3d c968 a4bd
000000c0: 9463 113c 4ef5 1c3d b7b2 32bd a4c6 6cbc
000000d0: 3f9c dabd 06fc cdbc a004 12bd f072 ed3c
000000e0: e71e 3dbc 0d40 0fbc 1b2f 703b 2aa6 b13b
000000f0: fa8b b23c f3c8 fd3a 377e 1c3d e742 593d
00000100: 87c5 febb ab16 103a 05e1 19bc dab8 a0bc
00000110: 6e17 2cb9 27dd b1bc cc5e c93c 48c9 bd3c
00000120: 0d8b 963c 0ed9 d83b 90e4 aeb8 eaa6 e03b
00000130: 9b5b eabc b510 1abd bafd 42ba 08e7 7c3d
00000140: f6a8 303b 9b4a f23b 90c9 663c 5227 a83c
00000150: 8f26 83bd 7815 57bc 6169 453b 4bda 083e
00000160: 4358 35bc 64d7 173c 20bb b03b 3329 e6bc
00000170: 33fb df3c 4171 96bb 12b3 2d3c 8112 cd3d
00000180: 4c54 523c 4e3f d7bb b762 98bc 1603 67bd
00000190: cfb8 00bd ba35 f0b9 1b18 72bc e393 d93c
000001a0: c76a 903d d0a0 433c bab0 f83c b443 a0bd
000001b0: 1ec2 ddbc f326 1cbd c3b5 81ba 5433 9a3d
000001c0: 3a6b 6a3d 6f45 98bd d7b8 143d b6fc 823d
000001d0: 6642 143d 1078 47bd 4360 eabb 4901 62bc
000001e0: e68c 12bc 31e8 0abd 85bf b23b db0a f9bc
000001f0: b3c9 8c3c a1e2 97bc be52 1bbd c03f b0bc
00000200: f4ff 15bd c1d4 1c3d aa86 263c edcd 6b3c
00000210: 9826 d13b f0c1 053c d9b1 f6bb c682 b0bd
00000220: 017b 173a 34d7 2e3c eb25 85bb 70c6 2dbc
00000230: fbdb 89bc 7704 14bc 6df2 94bb 4a5b ce3c
00000240: 02d4 2fbc fdea 4a3d da75 5b3d 3e08 5ebd
00000250: 2fe6 bb3b 8ff4 103d 9bb0 7e3d 4256 ad3c
00000260: c300 0f3d 340b edbb 0cfb 21bc c807 09bb
00000270: 23eb da3b 429d 463b 80c0 05bb 17c5 4cbc
00000280: 7584 9d3c 8c35 223d 21d4 e9bc eb62 1cbd
00000290: c201 13bd 235c 313d 100d 82bd 5d60 743c
000002a0: c6f9 523d beb6 6bbd a063 34bc 81d0 5dbd
000002b0: 7cf7 24bc 514a 2dbc 4de2 86bd 216a afbc
000002c0: 6aac 0d3d e04e 18bd 7eb1 8d3c e6b1 e83b
000002d0: f958 e63b 5ddd 293d d034 9dbc 0735 87bb
000002e0: 63d1 59bd 0b60 ff3c 5010 0abd 2dea f8bc
000002f0: 511a 2abd c591 2ebd 58de f23c ca59 8e3d
00000300: 0768 033d c88b 793d 78ae a23c 3264 91bc
00000310: e182 35bb 99c7 99bc 7d49 3dbd 53af 0ebd
00000320: 1000 bb3b d37e 97bc bb60 a93c e105 b8bb
00000330: 0f12 033d dfa1 6c3c c6e9 5fbd 0d05 0abd
00000340: 5f51 23bd 44d0 c4bb 0952 033c 5e50 12bd
00000350: 17ee fcbc c83a 50bc 3682 73bc 29cf e63c
00000360: f48d d13a 1eae e13c 2c79 453c 69aa 833c
00000370: ca53 51bd 4ccf a7bb 6744 97bc cf4f 523d
00000380: 0486 513c 4c3f d93c a7d6 593d 0981 2d3c
00000390: 1117 893c a1c6 74bb c60e 753d 78a2 cbbc
000003a0: d243 90bc 09b7 6a3c 63b7 a2bc f15a fc3c
000003b0: 0ae4 173d f451 3bbb 0249 d639 ef8b 5d3d
000003c0: 7c3b 54bd 2a27 413c 264d f5bc feec 303d
000003d0: 4dcf 283d 55fc 8ebb 933e a4bb 83b6 4b3c
000003e0: b2cd 693d 02a1 083d 841e d939 b280 f7ba
000003f0: 1880 cc3c c841 e1bc 8b17 4c3c 5d11 a2bc
-0.043633644 0.08807562 -0.02665617 0.013757958 -0.018946946 0.07381348 -0.051569823 -0.006590815
-0.06674189 0.086649865 -0.04303502 0.0013895491 -0.0033236176 -0.033079293 -0.03837753 0.02295174
0.012549718 0.01825388 -0.028760187 0.004260605 -0.054629866 0.0073663187 0.07973341 -0.008607125
-0.008839932 0.025340255 0.0009552894 -0.0423633 -0.02237533 -0.058225643 -0.047836043 0.018062713
-0.004371311 -0.024021845 0.0051115667 -0.0064912937 0.00553218 -0.020323165 0.03947155 -0.02403826
0.015866168 0.016298404 -0.061603088 -0.0027928709 -0.008023733 -0.015120964 0.04159563 -0.08027799
0.008873839 0.03831988 -0.043627467 -0.0144516565 -0.10674333 -0.025144588 -0.035648942 0.02898547
-0.011543012 -0.008743298 0.003664917 0.0054214196 0.021795262 0.0019362256 0.038206305 0.05304232
-0.007775012 0.0005496542 -0.009392028 -0.019619394 -0.00016411926 -0.021711899 0.024581335 0.023167267
0.018376851 0.006617672 -8.3395396e-05 0.006855835 -0.028608134 -0.03761359 -0.0007438321 0.061743766
0.0026956177 0.0073941476 0.014086142 0.020526562 -0.06403839 -0.013127677 0.0030122625 0.13364522
-0.0110684065 0.009267662 0.005393401 -0.028095817 0.02734146 -0.0045911376 0.010601776 0.10013295
0.012837481 -0.006568826 -0.018601758 -0.056399427 -0.031426247 -0.00045816397 -0.014776255 0.026559776
0.07051616 0.011940196 0.030357707 -0.07825413 -0.027070101 -0.038123082 -0.0009896088 0.07529321
0.057231165 -0.074351184 0.03630909 0.06395857 0.036196135 -0.048698485 -0.0071525886 -0.013794252
-0.008944726 -0.03391284 0.00545496 -0.030400684 0.017186021 -0.018540682 -0.037920706 -0.021514773
-0.03662105 0.038288835 0.010163942 0.014392358 0.0063827746 0.008163914 -0.0075285253 -0.08618693
0.0005778522 0.010671426 -0.004063358 -0.010606393 -0.016828528 -0.009034268 -0.004545501 0.025190014
-0.010731699 0.04954051 0.05357919 -0.05420708 0.005734227 0.03538948 0.062180143 0.021159295
0.034912836 -0.0072340015 -0.009886514 -0.002090918 0.0066808625 0.0030306135 -0.0020408928 -0.012498162
0.0192282 0.039601848 -0.028543534 -0.038180273 -0.03589035 0.04330076 -0.06350148 0.014915553
0.051507734 -0.057547323 -0.011010081 -0.054153923 -0.0100687705 -0.0105768 -0.06586132 -0.02141291
0.034588255 -0.037184596 0.017296549 0.0071012853 0.0070296493 0.041470874 -0.019190222 -0.0041261944
-0.053178202 0.031173727 -0.033706963 -0.030385101 -0.041529004 -0.042619485 0.029647037 0.0695072
0.03208163 0.06092432 0.019858584 -0.017747972 -0.0027696418 -0.018771933 -0.046212662 -0.03483517
0.0057067946 -0.018493092 0.020676007 -0.005615935 0.031999644 0.01444289 -0.054666303 -0.033696223
-0.039872523 -0.0060062725 0.008015164 -0.035721175 -0.030875249 -0.012709327 -0.014862588 0.028174954
0.001598774 0.027548846 0.012052815 0.016072469 -0.051105298 -0.0051211473 -0.018465234 0.051345643
0.0127882995 0.02651944 0.053183224 0.010589846 0.016734632 -0.0037349837 0.059828542 -0.024857745
-0.017610464 0.014325866 -0.019862836 0.030805083 0.03708271 -0.0028582783 0.00040871656 0.05408853
-0.05181454 0.011789123 -0.029944014 0.043194763 0.041213322 -0.0043635764 -0.0050123422 0.012433651
0.057080932 0.033356674 0.000414122 -0.0018882959 0.024963424 -0.027497187 0.012456785 -0.01978367

action_model._continuous_distribution.mu.bias f4 [2]
00000000: e836 babd f3e0 87bb
-0.09092504 -0.004146689

action_model._discrete_distribution.branches.0.weight f4 [1, 128]
00000000: 37ff 4a3c c37b 453b 309c 37bb 5d45 3f3b
00000010: dec0 08bc 4084 44bc 037d a3bb 8085 80bb
00000020: 5e5f 8a3a 6f81 3fbc 1028 25bc 0dd0 37bb
00000030: fe66 483c 9774 c63b ca37 5a3b 7571 14bc
00000040: 07ec 01bb bb2b bfbb 58a7 833c 1b2d 6abb
00000050: f70e 36bb 054a febb bf43 cf3b fb2d afbb
00000060: e5b1 7dbb fbe4 3d3b a25f ae3c 53a6 0f3c
00000070: e7bc 94bb 62bb ff3a 7fe9 45bc 5129 c7bc
00000080: e08a 893b 1932 a2bb ba7f 4cb9 1840 96ba
00000090: ad6c 6fbb ca40 5e3b 00c6 6a3c 40a5 21bc
000000a0: ee66 14bc 04a8 05bc 21b9 953b a609 a4ba
000000b0: ac9c bcbb 609a 6fbc 34b5 2c3a 8baa 4bbc
000000c0: 6929 96bb b765 043c ebb0 c73b ed90 eb3b
000000d0: 94e0 2a3c d309 4d3c 19a6 22bc 3bae b8bb
000000e0: 0e78 083c ab43 0f3c 6473 aabb 7b7f 0fba
000000f0: f5df 91b9 37c1 6abb a8b1 853b 187b ca3a
00000100: 9c4f 283c e2e0 7a3b ea04 7abc d379 d4bb
00000110: 7a95 103c dac6 783b 1310 6ebc 9a3f de3b
00000120: b890 1dbc 1025 af3b f17d 9d3b 32fa 88bc
00000130: 8bb8 30bc 36e5 3f3a 7cb1 0aba 3b3d 4eba
00000140: edba 0c3b e0ac b83b 6033 4fbc 427f 293b
00000150: 7a11 29bb 4239 edbb 38b8 dabb 0818 113c
00000160: eda0 fbbb a65d beba 298f 0a39 0b28 be3c
00000170: fe88 b2bc 05b2 7bbb 0da1 d73a f5f5 08ba
00000180: a7a2 98bc 4823 d8bb 9022 693c 0a53 75bb
00000190: 81d1 c4b9 5b3e d8bb a7a2 a13b 1363 ec3b
000001a0: cc5a b9bb 6162 94bc 2eba aa3b dd5a 53ba
000001b0: 98c7 413c 2567 fe3b a7e4 cebb cb58 ec39
000001c0: cb27 3a3b 3ff7 603b 4051 eaba 531e e2ba
000001d0: 689d 673c 457e e0bb 3d8e f33b 23bc 03bc
000001e0: d5fd 43bc b110 9bbb 7cd8 bf3a fbd8 86bc
000001f0: 08cf b53b 65f3 2dbb 8b28 fdbb 7b88 cfba
0.0123899495 0.0030133582 -0.002801668 0.002918563 -0.008346764 -0.0119944215 -0.004989268 -0.0039221644
0.0010556986 -0.011688574 -0.010080352 -0.0028047592 0.0122315865 0.006056379 0.0033297413 -0.009060253
-0.001982452 -0.0058340705 0.016071007 -0.0035732451 -0.0027779916 -0.0077602887 0.0063252146 -0.0053460575
-0.003871077 0.0028975594 0.021285836 0.008767682 -0.0045391205 0.00195108 -0.012079596 -0.024311693
0.0041974634 -0.0049498198 -0.00019502538 -0.0011463193 -0.0036533282 0.003391313 0.014329433 -0.009866059
-0.0090577435 -0.008157734 0.004569188 -0.0012515082 -0.0057559814 -0.014624208 0.00065882807 -0.012430797
-0.004582573 0.008080891 0.0060940883 0.0071889074 0.01042952 0.012514549 -0.009927296 -0.0056360043
0.0083294045 0.008744161 -0.005201744 -0.0005474013 -0.00027823416 -0.0035820731 0.004080016 0.0015448062
0.010272887 0.0038281013 -0.015259961 -0.006484249 0.0088247005 0.0037960322 -0.0145302 0.0067824842
-0.009617023 0.0053449944 0.004806273 -0.016720865 -0.010786186 0.0007320227 -0.00052907295 -0.00078674004
0.002147372 0.0056358427 -0.012646526 0.0025863205 -0.002579777 -0.0072394917 -0.0066747926 0.008855827
-0.007679096 -0.0014523759 0.00013214037 0.023212453 -0.021793839 -0.0038405668 0.0016451195 -0.0005224639
-0.018632246 -0.0065960027 0.014229432 -0.0037433528 -0.00037540126 -0.00659923 0.0049327197 0.007213959
-0.005656576 -0.018113317 0.0052101826 -0.0008062551 0.011827372 0.0077637606 -0.0063138786 0.00045079584
0.0028405066 0.0034327058 -0.0017876998 -0.0017251469 0.01413665 -0.00685099 0.0074327276 -0.008040461
-0.011962374 -0.0047322144 0.0014636661 -0.016460886 0.0055483617 -0.002654278 -0.0077257804 -0.0015833521

onnx::Div_70 f4 [8]
00000000: 3ebc 9a40 373e 4f3b 9595 9c40 d3ad 1041
00000010: 097a a43c 6b72 c040 f271 ff3f 8854 fa3f
4.835479 0.0031622776 4.8932595 9.042438 0.020077722 6.013967 1.9956648 1.9557047
