results/Group12/Group12.onnx (onnx, 87005 bytes, 10 tensors)

network_body.observation_encoder.processors.0.normalizer.running_mean f4 [21]
0	0xb913ff50	-0.00014114124
1	0xad375bc2	-1.042272e-11
2	0x39d3aec8	0.00040375278
3	0x3e7f3965	0.24924238
4	0x00000000	0.0
5	0xbe6b691d	-0.22989316
6	0xbf64914d	-0.8928421
7	0xbf7d64be	-0.98981845
8	0xbfb05424	-1.3775678
9	0xbd4fd72c	-0.050742313
10	0xbd109e50	-0.03530723
11	0x40f1bad1	7.5540547
12	0x410ef4b1	8.934739
13	0x3d9f6f1f	0.077848665
14	0xb9a8d337	-0.00032200824
15	0x3d4bdd10	0.04977137
16	0x40610ae1	3.516289
17	0xbd9f6f32	-0.07784881
18	0x39a8d32a	0.00032200787
19	0xbd4bdd16	-0.04977139
20	0x4068f7fd	3.640136

network_body._body_endoder.seq_layers.0.weight f4 [128, 21]
0	0xbecea29d	-0.4035844
1	0xbe026b8d	-0.1273634
2	0xbeae6c69	-0.34067085
3	0x3ec974aa	0.3934682
4	0xbdfa3176	-0.12216465
5	0xbd668e1d	-0.056287874
6	0x3e5f6240	0.21814823
7	0xbe63b237	-0.22235952
8	0x3e322f13	0.1740077
9	0xbc11b15d	-0.008892384
10	0x3ddfa6d5	0.109204926
11	0x3e6e7fef	0.2329099
12	0x3dd6b9ea	0.10484679
13	0x3e47cd32	0.1951187
14	0x3c8b43bf	0.017000077
15	0x3e8b88be	0.27252764
16	0xbda70005	-0.081543006
17	0x3e4c97f6	0.19979843
18	0x3f039771	0.51402956
19	0xbea6621b	-0.32496724
20	0xbd126e46	-0.035749696
21	0x3e837e46	0.25682276
22	0x3e46c965	0.19412763
23	0x3eaf84eb	0.34281096
24	0xbdb7b8d6	-0.089708015
25	0xbe015ef3	-0.12633877
26	0xbea4bcdd	-0.3217534
27	0x3e041ec1	0.12902357
28	0xbd22ab59	-0.03971419
29	0x3e7a8a9b	0.24466936
30	0xbd8e8476	-0.06958859
31	0xbe9f8ff9	-0.3116453
32	0x3ee8e032	0.45483547
33	0xbdbb02c6	-0.09131388
34	0x3dae8fa9	0.08523495
35	0x3d9f82b4	0.077886015
36	0xbe244906	-0.16043481
37	0x3d907796	0.07054059
38	0x3d3c475d	0.045966495
39	0xbe623a92	-0.22092655
40	0xbe71e887	-0.23623858
41	0xbf02a024	-0.51025605
42	0x3e766a2d	0.2406394
43	0xbe847de9	-0.25877312
44	0xbeb82cc7	-0.35971662
45	0x3c0f9cd2	0.008765416
46	0x3e2fdb24	0.1717344
47	0xbe168dbc	-0.14702505
48	0x3cad38a2	0.021145169
49	0x3ea65b47	0.32491514
50	0x3e51cc7f	0.20488165
51	0x3e96c180	0.29444504
52	0x3e9c251c	0.30497062
53	0x3d54b795	0.05193289
54	0x3f04bc51	0.5184985
55	0x3e5934f8	0.21211612
56	0xbe624f31	-0.22100522
57	0xbece76fb	-0.4032515
58	0xbec28b2d	-0.37996808
59	0xbec58070	-0.38574553
60	0x3eafcf44	0.3433782
61	0xbeaad395	-0.3336455
62	0xbe2a2920	-0.1661725
63	0xbe8e656c	-0.27811754
64	0x3e9caef6	0.30602235
65	0xbe988d42	-0.2979527
66	0x3e7d69a9	0.24747337
67	0x3db7e8c2	0.08979942
68	0x3ebf2fb8	0.37341094
69	0xbeda4885	-0.42633453
70	0x3ecb5b37	0.3971803
71	0xbd587a9f	-0.052851316
72	0x3e0ec614	0.13942748
73	0x3ce67c6f	0.028135506
74	0xbe33177b	-0.17489426
75	0xbd902cce	-0.07039796
76	0xbe83ba97	-0.25728294
77	0xbe15a4b9	-0.14613618
78	0xbee462fe	-0.44606775
79	0x3edc145d	0.42984286
80	0x3de9d201	0.11417008
81	0x3d96db7c	0.07366082
82	0xbe45b3cd	-0.1930687
83	0x3dca0163	0.09863546
84	0x3cf21310	0.029550105
85	0xbdd8dc28	-0.105888665
86	0xbe1bb40c	-0.15205401
87	0xbecca49b	-0.39969334
88	0x3ce21c41	0.027601363
89	0x3c02c9c1	0.007982672
90	0x3e405d31	0.1878555
91	0xbdde88e1	-0.10865951
92	0xbd35564b	-0.04427175
93	0x3e800aa2	0.25008112
94	0x3e8d76a3	0.27629575
95	0x3df02847	0.11726432
96	0xbe3de08b	-0.18542688
97	0xbcd0a2fa	-0.025468338
98	0x3df13a96	0.117787525
99	0x3e59d08f	0.21270965
100	0xbe4f8eb9	-0.20269288
101	0x3e0ef2ae	0.13959762
102	0xbcf85696	-0.030314725
103	0xbe15297b	-0.14566605
104	0xbd2c206e	-0.042023115
105	0x3ec306ea	0.38091213
106	0xbe8f9f82	-0.28051382
107	0x3e414f09	0.18877806
108	0xbcb3040f	-0.021852521
109	0x3e8244d3	0.25443134
110	0xbdc96855	-0.09834353
111	0x3ebe8064	0.3720733
112	0xbb81e2cc	-0.003963804
113	0x3e0c5d99	0.1370758
114	0x3d6cf0b5	0.057846744
115	0x3e10d191	0.14142443
116	0xbe3a2bcb	-0.18180768
117	0xbeb0d0dc	-0.34534347
118	0x3f01c737	0.506946
119	0x3ecf78ab	0.4052175
120	0xbbe8935a	-0.007097644
121	0x3e901952	0.28144318
122	0x3e409012	0.18804958
123	0xbd622ecc	-0.05522041
124	0x3e28868b	0.16457574
125	0x3d7a49ec	0.061105654
126	0xbee3fd60	-0.44529247
127	0x3ea195d5	0.31559625
128	0x3d45c051	0.04827911
129	0x3dcf9777	0.101363115
130	0xbe1578bc	-0.14596838
131	0x3e5c9733	0.21542053
132	0xbcd407b1	-0.025882574
133	0xbd2cb05e	-0.042160384
134	0xbe0e3111	-0.13885905
135	0xbe0d3b10	-0.13792062
136	0x3d8d15ae	0.06888901
137	0x3ab7dd74	0.001402779
138	0xbe34c634	-0.17653733
139	0x3b1bbeec	0.0023764921
140	0xbe62987b	-0.22128479
141	0x3e03eb95	0.12882836
142	0xbeb3202d	-0.34985486
143	0xbe3b41a4	-0.18286759
144	0x3d98e1d2	0.07464947
145	0x3e223140	0.158391
146	0x3ccea5b6	0.025225502
147	0xbbb58377	-0.0055393535
148	0xbc762ce3	-0.01502535
149	0xbebac9bb	-0.36482033
150	0x3d45a427	0.04825225
151	0x3e3e6b87	0.18595706
152	0x3f1769e4	0.5914595
153	0xbd5bda87	-0.0536752
154	0x3db045d8	0.08607072
155	0xbe16e96a	-0.14737478
156	0x3f054375	0.52056056
157	0x3dc52c8c	0.09627637
158	0xbe39725c	-0.18110031
159	0x3dccff3b	0.10009619
160	0xbd8e4295	-0.06946293
161	0x3e9969f8	0.2996366
162	0x3e3861fc	0.18006128
163	0xbd8aa3ed	-0.067695476
164	0x3d1d6b47	0.038432386
165	0xbab86c04	-0.0014070277
166	0x3c74653d	0.014916715
167	0x3bffa966	0.0078021763
168	0x3e057ad3	0.13035135
169	0xbe2c0a7f	-0.16800879
170	0x3de650e5	0.11245898
171	0x3da245e1	0.079234846
172	0x3cb18c50	0.021673352
173	0x3e35cba4	0.17753464
174	0xbe85ec62	-0.26156908
175	0x3cb88d50	0.02252832
176	0x3ee64c9e	0.4498033
177	0xbe489c9c	-0.19590992
178	0xbe09e016	-0.13464388
179	0x3dbe173c	0.09281775
180	0x3e4391f3	0.19098644
181	0xbe496fe2	-0.19671586
182	0x3e49ff15	0.19726212
183	0xbec513a8	-0.3849156
184	0xbeea46e7	-0.4575722
185	0x3e1c605a	0.1527113
186	0x3e4cc623	0.19997458
187	0x3e2b5b37	0.16734014
188	0x3d5a1382	0.05324126
189	0xbe8f1bf8	-0.27951026
190	0x3e321661	0.1739135
191	0x3e35d2b2	0.17756155
192	0x3ed598ab	0.4171804
193	0xbe28d1c8	-0.16486275
194	0x3e401c6d	0.18760844
195	0xbe266eb6	-0.1625317
196	0x3c2270f8	0.009914629
197	0xbe78d2ba	-0.24299136
198	0x3e3589f5	0.17728408
199	0xbeaf7f24	-0.34276688
200	0x3d1f4ba7	0.038890507
201	0x3d0ed37a	0.03486965
202	0x3e650ff7	0.22369371
203	0x3dfaf10f	0.122530095
204	0x3ef5a578	0.47977805
205	0xbdcaaf12	-0.09896673
206	0xbd9b4adb	-0.07582637
207	0xbd31198b	-0.04323725
208	0xbe0309ec	-0.12796754
209	0xbe547792	-0.20748737
210	0x3da2ac44	0.07943013
211	0x3ea38344	0.31936085
212	0xbe66caa1	-0.22538234
213	0x3df6d3cb	0.12052115
214	0x3e7df1be	0.24799249
215	0x3e406798	0.18789518
216	0x3e69d349	0.22834505
217	0x3e4f4be8	0.202438
218	0xbe2d1769	-0.16903462
219	0x3edebd1b	0.4350365
220	0x3eea2042	0.45727736
221	0x3d8715eb	0.065959774
222	0x3e0ca60a	0.13735214
223	0xbec80d56	-0.39072675
224	0x3e7e9632	0.24861982
225	0xbe8b384a	-0.27191383
226	0x3db8bbf3	0.090202235
227	0x3e4faee3	0.20281558
228	0x3e883c66	0.2660858
229	0x3eb58891	0.35455754
230	0xbc88baa3	-0.016690558
231	0xbdbb3197	-0.09140318
232	0xbe9c9e09	-0.3058932
233	0xbdfb25d4	-0.122630745
234	0x3e180a90	0.1484778
235	0x3e2d2871	0.16909958
236	0x3e8fc4ad	0.2807974
237	0xbd751ef9	-0.05984399
238	0x3d4d73a1	0.0501591
239	0x3e884d50	0.26621485
240	0x3eafa594	0.34306014
241	0x3d46344d	0.04838972
242	0xbd669d04	-0.056302086
243	0xbee9a1ee	-0.45631355
244	0x3d4bafad	0.049728084
245	0xbd0020b5	-0.03128119
246	0x3e54ba67	0.20774232
247	0xbf107638	-0.5643039
248	0x3e3f59c9	0.18686594
249	0xbe27fe16	-0.1640552
250	0x3e56ec90	0.20988679
251	0x3f015c91	0.5053187
252	0x3eca177b	0.3947104
253	0x3ea72b2c	0.32650125
254	0xbe4ca114	-0.19983321
255	0xbed1b171	-0.4095569

network_body._body_endoder.seq_layers.0.bias f4 [128]
0	0x3d2226f2	0.039587922
1	0x3c2d8a74	0.010592092
2	0xbca094b2	-0.019602153
3	0xbce41461	-0.027841749
4	0xbd42920f	-0.047502574
5	0xbb6aaf46	-0.0035810038
6	0xbb02ffbc	-0.0019988855
7	0x3b61a161	0.0034428465
8	0x3caef7f6	0.021358471
9	0x3ce6e8ca	0.028187174
10	0x3c8bf9a8	0.017086819
11	0xbc682a42	-0.014170231
12	0x3b398eaf	0.0028313806
13	0xbce4e881	-0.027942898
14	0x3c8df76a	0.01732989
15	0x3b92ebb7	0.004483666
16	0xbd5cd4cd	-0.05391388
17	0xbd1f5f5a	-0.038909294
18	0xbc2a628d	-0.010399473
19	0xbd15e462	-0.036594756
20	0x3bcfa045	0.0063362443
21	0x3bc2292b	0.0059253178
22	0x3a22c33e	0.0006208903
23	0xbc80191f	-0.015636979
24	0xbabd6b4b	-0.0014451531
25	0x3c93a3ad	0.018022383
26	0xbb8f7ea3	-0.00437911
27	0xbb2549f9	-0.0025221093
28	0xbb018aed	-0.0019766644
29	0x3ca80032	0.020507906
30	0xbce0b9f6	-0.027432423
31	0xbc83ac28	-0.016073301
32	0x3cb48b04	0.022038944
33	0xbba1849e	-0.0049291393
34	0xbd4a84d9	-0.0494431
35	0x3c170afd	0.009218928
36	0x3c2a17ef	0.010381683
37	0xbc96dcc5	-0.018415818
38	0xbb082b4f	-0.0020777767
39	0xbc51bb5c	-0.012801018
40	0xbc86157d	-0.016367668
41	0xbccf7860	-0.025325954
42	0x3b9e55d7	0.0048320103
43	0xbbeb68f7	-0.0071841436
44	0x3c0c2ecb	0.008556078
45	0x3c252986	0.010080701
46	0x3c327048	0.010891028
47	0xbc6876fa	-0.0141885225
48	0xbd06a6dc	-0.032873973
49	0x3ba95063	0.0051670535
50	0x3b9a20a5	0.0047035986
51	0x3d30885f	0.043098804
52	0x3c9191b0	0.017769665
53	0xbce090cc	-0.027412795
54	0xbc8bf1ea	-0.017083127
55	0xbd176918	-0.03696546
56	0xbcece7f2	-0.028919194
57	0x3a16d679	0.0005754005
58	0xbb1e2fca	-0.0024137371
59	0x3cf021ea	0.029313046
60	0x3c97c07b	0.018524399
61	0x3cd7ddf3	0.02635095
62	0x3c201915	0.009771605
63	0xbc7066e8	-0.014672972
64	0xbd4170ae	-0.0472266
65	0xbbe7488b	-0.0070582083
66	0x3bb928e4	0.0056506265
67	0xbcf745a0	-0.030184567
68	0xbb84fa8d	-0.0040581883
69	0xbcf40199	-0.029785918
70	0xbcb59b2e	-0.022168722
71	0x3b9f80c3	0.0048676445
72	0x3cfb5d8d	0.030684257
73	0xbd306c08	-0.043071777
74	0xbc289bd2	-0.010291057
75	0xbb818e24	-0.003953712
76	0xbc4ccc82	-0.01249993
77	0x3ca00eda	0.019538332
78	0xbd435534	-0.047688678
79	0xbca6e81d	-0.020374352
80	0x3b4b4934	0.0031018974
81	0xbbd8afda	-0.00661276
82	0x3bbbd75e	0.005732461
83	0x3bd87146	0.0066053
84	0xbd254ed7	-0.04035839
85	0xbc06423a	-0.008194501
86	0xbcc05992	-0.02348021
87	0xbc58ea8a	-0.013239512
88	0xbb27cd01	-0.002560437
89	0x3b1c3d91	0.0023840407
90	0x3c981916	0.01856665
91	0x3c9ed8c6	0.019390475
92	0x3b7b2476	0.0038321293
93	0x3c8cdb88	0.017194524
94	0x3d1997b0	0.037498176
95	0x3c2972be	0.010342298
96	0xbb3b68e8	-0.0028596465
97	0x3a6e17e3	0.0009082539
98	0xbcb5f6b9	-0.022212373
99	0x3c9fd3b6	0.019510131
100	0xbc5dfca7	-0.013549007
101	0xba932d15	-0.0011228645
102	0x3cf8acbd	0.030355806
103	0x3a9d7d9f	0.0012015587
104	0xbc284af7	-0.010271779
105	0x3c85663a	0.016284097
106	0xbcccf214	-0.025017776
107	0x3bf49fc1	0.007465333
108	0xbc113b2e	-0.008864207
109	0xbc4bdebf	-0.0124432435
110	0x3c90bcf9	0.017668234
111	0xbd038d19	-0.032116983
112	0xbca017cc	-0.019542597
113	0xbbd84b70	-0.0066007897
114	0x3ca6e1ca	0.020371336
115	0x3bbac820	0.0057001263
116	0xbc739bf8	-0.014868729
117	0xbcbeb01a	-0.023277331
118	0x3c92fc75	0.017942647
119	0xbd053bd1	-0.03252775
120	0xbd829519	-0.06376094
121	0xbbd9c2db	-0.006645543
122	0x39c8ef79	0.00038325394
123	0xbb6e0cac	-0.003632347
124	0xbce4bbc2	-0.027921561
125	0xbc92c502	-0.017916206
126	0xbd0b58f5	-0.034020383
127	0x3bdd77b2	0.0067586536

network_body._body_endoder.seq_layers.2.weight f4 [128, 128]
0	0x3ae55ffc	0.0017499919
1	0xbe0bc7a5	-0.13650377
2	0x3d8efc1b	0.06981679
3	0xbdf1702d	-0.11788974
4	0x3da7641d	0.08173392
5	0xbd9f11d8	-0.07767075
6	0xbd69b5aa	-0.057058014
7	0x3d7904dc	0.06079565
8	0xbdb008db	-0.08595439
9	0xbce1be6b	-0.027556619
10	0xbd90908c	-0.0705882
11	0x3c82b82a	0.015956957
12	0x3e501d10	0.20323586
13	0x3d8cc89c	0.06874201
14	0xbcfa23d9	-0.030534672
15	0xbd6fa60e	-0.05850797
16	0x3cf61ca8	0.030042961
17	0x3c2e2536	0.010628989
18	0xbc00fca7	-0.007872737
19	0xbd38ac80	-0.045086384
20	0x3d6db55d	0.05803429
21	0xbccf685a	-0.025318313
22	0xbccf5e3d	-0.025313491
23	0x3cd109a5	0.025517294
24	0xbe044c97	-0.12919842
25	0x3de5875e	0.1120746
26	0xbb88e96e	-0.0041782176
27	0xbda371ab	-0.07980665
28	0xbdb95f36	-0.09051363
29	0x3ca34e74	0.01993487
30	0x3c650460	0.013978094
31	0x3cde80af	0.02716097
32	0x3e1f4cae	0.15556595
33	0xbd4d1dcb	-0.05007724
34	0x3bf73df8	0.007545229
35	0xbe3daae9	-0.18522228
36	0x3da5d611	0.080974706
37	0x3ca8ded9	0.020614075
38	0xbc9a5456	-0.018839043
39	0x3cfc3d24	0.030790873
40	0x3d030efa	0.031996705
41	0x3d9de3d9	0.07709474
42	0xbd29ac9b	-0.041424375
43	0x3cce37f1	0.02517316
44	0x3d9d5efb	0.07684132
45	0x3d45c1d2	0.048280545
46	0xbe0cf604	-0.13765723
47	0x3d12f367	0.035876658
48	0x3d5a0a2e	0.053232364
49	0xbd9597f9	-0.07304377
50	0x3d24f633	0.040273856
51	0x3c1ef237	0.009701303
52	0xbdfbed5b	-0.12301131
53	0xbce09c6e	-0.027418341
54	0x3d9ad8ed	0.075609066
55	0xbdab9030	-0.08377111
56	0x3e1133af	0.14179872
57	0x3e33b552	0.17549637
58	0x3e32f911	0.17477824
59	0x3c04c379	0.008103245
60	0xbde16b51	-0.11006797
61	0xbd801840	-0.06254625
62	0xbd82813a	-0.06372304
63	0x3ddd4279	0.10803694
64	0x3de19a0b	0.110157095
65	0xb98cdf6c	-0.00026869343
66	0x3e31c1d3	0.17359094
67	0xbdbd5d33	-0.09246292
68	0xbd86d9b3	-0.065844916
69	0x3e158932	0.14603117
70	0xbd1ad89f	-0.037804242
71	0xbde52d5c	-0.11190292
72	0xbe15e37d	-0.14637561
73	0xbde8e30d	-0.113714315
74	0x3da2ea9c	0.079549044
75	0x3d84863b	0.06470915
76	0xbd647da8	-0.055783898
77	0xbe802025	-0.25024524
78	0xbd5743ee	-0.052555017
79	0xbd386256	-0.045015655
80	0xbb90ef84	-0.0044230837
81	0xbd807326	-0.06271963
82	0xbcf5a98f	-0.029988078
83	0xbd4f9598	-0.050679773
84	0x3ca62e81	0.020285847
85	0xbd6c4301	-0.057681087
86	0x3d0cdbf0	0.034389436
87	0xbd918920	-0.07106233
88	0xbd63aa63	-0.055582415
89	0xbbe5ec89	-0.0070167226
90	0x3c80bed7	0.015716
91	0xbe17771d	-0.14791532
92	0xbd0486ff	-0.032355305
93	0x3d69fa5a	0.05712352
94	0xbd1bdcf7	-0.038052525
95	0x3d8b39c0	0.06798124
96	0x3d666dac	0.056256935
97	0xbc9c8577	-0.01910661
98	0x3d8e1c97	0.06939047
99	0xbe37cfce	-0.17950365
100	0x3d4b37c5	0.049613733
101	0xbd296a71	-0.041361276
102	0x3cac0216	0.020997088
103	0x3d47519c	0.048661813
104	0x3e11b04a	0.14227405
105	0xbde6c0f9	-0.11267275
106	0xbc801c9b	-0.01563864
107	0x3d739fbc	0.059478506
108	0x3c32ccaf	0.010913058
109	0x3cc11c40	0.023573041
110	0xbc767a9e	-0.015043883
111	0xbdbed0e0	-0.093171835
112	0xbbb664ff	-0.005566239
113	0x3b1c8595	0.0023883332
114	0xbdb6d1f9	-0.08926768
115	0x3d9d775d	0.07688782
116	0xb9bb81c8	-0.00035764114
117	0x3ded540c	0.11588296
118	0xbce45281	-0.027871372
119	0x3deae23e	0.114689335
120	0x3dd97792	0.10618509
121	0x3d2eb42c	0.042652294
122	0x3d228d2f	0.039685424
123	0x3bedd3e8	0.007257927
124	0x3e106f2c	0.14104909
125	0xbdd5f308	-0.10446745
126	0xbc984095	-0.018585483
127	0xbdb59146	-0.08865599
128	0xbcd3ef09	-0.025870817
129	0xbd307202	-0.043077476
130	0x3d230ecb	0.03980903
131	0xbd5efb14	-0.054438666
132	0x3dbae842	0.09126331
133	0x3df8274a	0.12116869
134	0x3d308058	0.04309115
135	0x3e4dfba9	0.20115532
136	0xbd9799c6	-0.07402377
137	0xbca43959	-0.020046877
138	0x3e2875e8	0.16451228
139	0x3e1c1707	0.15243159
140	0x3e0dd2c9	0.1384994
141	0x3dc8bc30	0.09801519
142	0x3e187540	0.14888477
143	0x3c31fd0e	0.010863556
144	0xbd651d73	-0.055936288
145	0x3c051a96	0.008124014
146	0xbe0af07c	-0.135683
147	0x3ca52787	0.02016045
148	0x3e4fd5cc	0.20296401
149	0xbc1f3b74	-0.009718765
150	0xbd0623be	-0.03274893
151	0x3d98caf2	0.07460584
152	0x3d9b78a5	0.075913705
153	0x3d598a88	0.05311063
154	0x3dd05e52	0.1017424
155	0xbdc9ba9a	-0.098500445
156	0xbce3cf4e	-0.027808812
157	0xbdd78f56	-0.10525386
158	0x3e288879	0.1645831
159	0x3dd1e7fc	0.10249326
160	0xbbfd5ff7	-0.007732387
161	0x3d48b151	0.048997227
162	0xbd3e3a5c	-0.046442375
163	0x3d11b5a0	0.0355736
164	0xbdda8d8d	-0.1067153
165	0x3cfef8dc	0.031124525
166	0xbcf3c848	-0.029758587
167	0x3dac3cff	0.084100716
168	0x3d5f1d5f	0.05447137
169	0xbda48d15	-0.08034722
170	0xbe2e2bea	-0.1700894
171	0x3dc5af4c	0.09652576
172	0x3da6669a	0.081250384
173	0xbdf6d03f	-0.120514385
174	0xbdae9b53	-0.085257195
175	0xbaef5bbf	-0.0018261595
176	0xbdf429a5	-0.119220056
177	0x3a93e7d3	0.0011284299
178	0xbd885519	-0.06656856
179	0xbde4de4e	-0.11175214
180	0x3c1836df	0.009290426
181	0x3daf4c92	0.085595265
182	0x3ca8fa36	0.020627122
183	0x3e17166b	0.14754646
184	0x3d214742	0.039374597
185	0xbc927800	-0.017879486
186	0x3d6cc7bb	0.057807665
187	0x3d4c7edb	0.049925666
188	0x3d046916	0.03232678
189	0xbd5a60d4	-0.053315
190	0x3e0f2875	0.13980277
191	0xbcdc3f2a	-0.026885588
192	0xbd312edc	-0.04325758
193	0xbdfc8529	-0.12330086
194	0x3d6dc366	0.058047675
195	0xbe2b69fb	-0.16739647
196	0x3d851634	0.064983755
197	0xbd9b371d	-0.075788714
198	0xbd4231f9	-0.04741094
199	0xbd2d7068	-0.042343527
200	0xbcaedb8d	-0.021344924
201	0x3d657317	0.05601796
202	0xbd392088	-0.04519704
203	0xbde08ce5	-0.109643735
204	0xbd956a25	-0.07295636
205	0x3cbf8b8f	0.023381976
206	0xbd8ee168	-0.069765866
207	0x3c85f63b	0.016352763
208	0x3e12e31b	0.14344446
209	0x3d90db75	0.07073108
210	0x3e24c4f4	0.16090757
211	0xbcd6e681	-0.02623296
212	0x3d59003c	0.05297874
213	0xbdc62c8b	-0.09676465
214	0xbcd76e22	-0.026297633
215	0xbe3d7718	-0.18502462
216	0xbd8e8764	-0.069594175
217	0x3d56ce62	0.052442916
218	0xbcedd4f0	-0.0290322
219	0x3d6b72a1	0.057482366
220	0x3d0c63be	0.03427481
221	0x3d85d386	0.065344855
222	0xbe4d3f81	-0.20043756
223	0xbe9d8020	-0.30761814
224	0x3df35f80	0.118834496
225	0xbd4ffe94	-0.050779894
226	0x3e25314e	0.1613209
227	0xbe24c1e2	-0.16089585
228	0xbd52b486	-0.05144169
229	0x3cde1761	0.027110757
230	0xbd8ea0e6	-0.06964283
231	0xbd0cd91a	-0.03438673
232	0x3c559380	0.013035655
233	0x3d9829fc	0.07429883
234	0xbdae6295	-0.08514897
235	0x3d45a1ba	0.048249938
236	0x3d6c7d2d	0.057736564
237	0x3e155fc7	0.14587317
238	0xbe31f68d	-0.17379208
239	0x3dfc2d37	0.123133115
240	0xbd65ddba	-0.056119658
241	0x3c23185c	0.009954538
242	0xbe0d20ea	-0.13782087
243	0xbd8b0c43	-0.06789448
244	0xbd552f7e	-0.052047245
245	0x3dca20f5	0.09869567
246	0xbccd8409	-0.025087373
247	0xbd945fbf	-0.072448246
248	0x3d421fd4	0.047393635
249	0xbe48e029	-0.1961676
250	0x3e0c5c96	0.13707194
251	0x3d0346c7	0.03204992
252	0xbda1f3e4	-0.079078466
253	0x3e26f5e7	0.16304742
254	0x3e0265b7	0.12734114
255	0x3beb8c58	0.007188361

network_body._body_endoder.seq_layers.2.bias f4 [128]
0	0xbcb7e711	-0.022449048
1	0x3bb3b576	0.0054842783
2	0x3cf62c71	0.030050488
3	0xbc23abbd	-0.009989676
4	0xbcdbbbf5	-0.026823023
5	0x3c5a8024	0.013336215
6	0xbbefe479	-0.0073209372
7	0xbce5b960	-0.028042495
8	0x3c42fea2	0.0119015295
9	0xbc88bc1e	-0.016691264
10	0xbcc1028e	-0.023560788
11	0xbc29bef1	-0.010360465
12	0xbc298a95	-0.010347982
13	0x3ce892f1	0.02839038
14	0xbc5f4ee6	-0.013629651
15	0xbbef7b9d	-0.007308437
16	0xbc0bc015	-0.008529683
17	0x3bb14a67	0.005410481
18	0x3ccd1ce8	0.025038198
19	0xbd5fca02	-0.05463601
20	0x3aa46c93	0.0012544565
21	0xbbb81f53	-0.0056189685
22	0x3b73f2f4	0.0037223669
23	0x3c8e93e4	0.017404504
24	0x3c831b74	0.016004302
25	0xbd094802	-0.033515938
26	0xbceadc70	-0.028669566
27	0x3bd47951	0.0064841886
28	0x3d2a1dbc	0.041532263
29	0xbca4b9ba	-0.020108093
30	0xbbeb3740	-0.007178217
31	0xbca0c01b	-0.019622853
32	0xbc73d3a3	-0.014882001
33	0xbbbb4332	-0.0057147974
34	0x3c0dd37b	0.008656378
35	0xbc76391c	-0.015028264
36	0x3c1b9886	0.009496814
37	0x3b057459	0.0020363538
38	0xbc65c1e4	-0.014023278
39	0x3c7ac984	0.015306834
40	0xbc1d0e83	-0.009585979
41	0x3bbd5d99	0.00577898
42	0x3b4ff470	0.003173139
43	0xbbea017d	-0.0071412907
44	0x3b934b9e	0.0044950983
45	0xbcc314d4	-0.023813643
46	0x3c65ce50	0.0140262395
47	0x3b5cf6ec	0.0033716513
48	0x3b2b4272	0.0026132134
49	0x3b45b306	0.003016652
50	0x3b12382c	0.0022311313
51	0xbc887669	-0.016658025
52	0x3c62dec2	0.013847055
53	0x3b1344ea	0.0022471496
54	0xbc8a74f3	-0.016901469
55	0x3c65a27c	0.01401579
56	0x3cc73cfb	0.02432107
57	0x3c632754	0.013864357
58	0x3b4d3a78	0.0031315368
59	0xbb2a57b0	-0.0025992207
60	0xbaf22139	-0.0018473036
61	0x3afdbfb4	0.00193595
62	0xbc98bd36	-0.01864491
63	0xbce44d1a	-0.027868796
64	0x3b9607b9	0.0045785573
65	0x3c5ca969	0.013468125
66	0xbb0f4301	-0.0021860006
67	0x3aecd69e	0.0018069332
68	0x3c8729ea	0.016499478
69	0x3bf3bc64	0.0074382294
70	0xbbaf65da	-0.005352718
71	0xbc8f00f9	-0.017456518
72	0xbc97c165	-0.018524835
73	0xbb246087	-0.002508195
74	0x3c405cc8	0.011740871
75	0xbc32cfad	-0.010913772
76	0xbce662bf	-0.028123258
77	0xbb523d5a	-0.0032080025
78	0xbc99bd06	-0.018766891
79	0x3bdf958f	0.0068232487
80	0xbc16ba91	-0.009199754
81	0xbbf982e3	-0.00761448
82	0x3c98b2aa	0.018639881
83	0x3c9ed1c9	0.019387143
84	0x3bc6c624	0.0060661007
85	0x3a88168a	0.0010382694
86	0x3bdabd39	0.006675389
87	0xbc19042c	-0.009339374
88	0x3d5a83de	0.053348415
89	0x3b92fcfb	0.004485724
90	0xbcda5ae8	-0.026654676
91	0x3c08acb5	0.008341958
92	0xbcc97e12	-0.024596248
93	0xbb6a2775	-0.0035729085
94	0xbc678d42	-0.0141328
95	0x3ba197e1	0.0049314355
96	0x3cc2c6a4	0.02377636
97	0x3cbdc551	0.023165377
98	0x3b6d010d	0.0036163956
99	0xbc0190f0	-0.007908091
100	0x3c120540	0.0089123845
101	0x3c55a3eb	0.013039569
102	0xbc1fc302	-0.009751083
103	0x3befc22f	0.0073168497
104	0xbb0b25c1	-0.002123222
105	0xba3ba3f8	-0.0007157917
106	0xbc0423e4	-0.008065198
107	0xbc19a6dd	-0.009378162
108	0xbc0bc0b4	-0.008529831
109	0xbbbb7105	-0.00572026
110	0x3b434148	0.002979355
111	0x3bfe27e3	0.0077562197
112	0xb98e2bfd	-0.00027117124
113	0xbc2ece90	-0.0106693655
114	0xbc8b5563	-0.017008489
115	0x3cecb767	0.028896047
116	0xbbb734f9	-0.0055910316
117	0xbccfff33	-0.025390243
118	0xbc06cb18	-0.008227132
119	0xbc024e38	-0.007953219
120	0xbb99263c	-0.0046737473
121	0x3c9de5a6	0.019274544
122	0x3bbea729	0.005818267
123	0x39253c9a	0.00015758202
124	0x3b66a8f6	0.0035195923
125	0x3ca9932c	0.02070006
126	0x3b118d7a	0.002220957
127	0x3c44e43c	0.012017306

action_model._continuous_distribution.log_sigma f4 [1, 2]
0	0xbe50da2f	-0.2039573
1	0xbe6475a2	-0.22310498

action_model._continuous_distribution.mu.weight f4 [2, 128]
0	0xbc313a15	-0.0108170705
1	0xbca8354a	-0.020533223
2	0x3d06fa8a	0.032953776
3	0xbd498f54	-0.049208954
4	0xbd428349	-0.047488485
5	0x3cddb804	0.027065285
6	0xbb28d751	-0.0025763104
7	0xbca18708	-0.019717708
8	0x3d4cf0cf	0.05003434
9	0xbd4ea0e3	-0.050446402
10	0xbcf2d4a4	-0.02964241
11	0xbc65523e	-0.013996659
12	0x3b0734b4	0.0020630779
13	0x3d1ec5d8	0.038762897
14	0xbd92a1dd	-0.07159779
15	0xbd22e0fa	-0.039765336
16	0xbd8d7be4	-0.06908396
17	0xbdb2e874	-0.08735743
18	0x3d4fac7c	0.050701603
19	0xbd083775	-0.033256013
20	0xbb8024fb	-0.0039106584
21	0xbd36e594	-0.044652537
22	0xbc6a1c9b	-0.014289047
23	0x3d93ddf4	0.072200686
24	0x3cd903ab	0.026491007
25	0x3cb46abf	0.022023557
26	0xbadbebe7	-0.0016778678
27	0x3c92a8e5	0.0179028
28	0x3dc86af0	0.09786022
29	0x3caf30b2	0.021385524
30	0x3a093d2c	0.00052352506
31	0xbd28f404	-0.041248336
32	0x3bb9be3b	0.005668429
33	0x3cb93073	0.02260611
34	0xbd8a49a5	-0.06752328
35	0xbc881932	-0.016613577
36	0x3cd58615	0.026064912
37	0xbbee9f06	-0.0072821407
38	0xbd85fad1	-0.0654198
39	0x3d574417	0.05255517
40	0xbc799896	-0.015234133
41	0x3d39926e	0.04530566
42	0xbd1c4a9c	-0.03815709
43	0x3bcb63f4	0.0062069837
44	0x3d0a90dc	0.033829555
45	0xbbf70b2e	-0.0075391745
46	0x3d325847	0.04354122
47	0xbce97cc5	-0.028501878
48	0xbbfbb51a	-0.007681501
49	0xbd3389a9	-0.043832455
50	0x3cb16b73	0.021657681
51	0xbd2cba3b	-0.04216979
52	0xbda13130	-0.0787071
53	0x3c8e6cc1	0.017385842
54	0xbc9457e5	-0.018108318
55	0x3c028f03	0.007968667
56	0x3da6951e	0.081339106
57	0x3d3c2164	0.04593028
58	0x3d1ad69c	0.037802324
59	0xbd7b5469	-0.061359797
60	0x3be0ef04	0.0068644304
61	0x3cbb8c6a	0.022894103
62	0xbd06ee41	-0.03294206
63	0xbccccc53	-0.024999773
64	0xbd9439da	-0.07237597
65	0x3da1d3a1	0.07901693
66	0xbd05050b	-0.032475512
67	0x3cc8c718	0.024508998
68	0xbc6b220c	-0.014351379
69	0xbc8533bb	-0.016260019
70	0xbd5c277e	-0.0537486
71	0xbc66a465	-0.014077281
72	0x3c43962c	0.011937659
73	0xbc81f011	-0.015861543
74	0xbd807373	-0.0627202
75	0x3ca64309	0.020295637
76	0xbd2e4085	-0.042542
77	0xbd88f7c7	-0.06687885
78	0xbc5c63b9	-0.01345151
79	0x3d6197fd	0.055076588
80	0xbaae5aa2	-0.0013302157
81	0x3cb01b43	0.021497374
82	0x3c9ce4a7	0.019151999
83	0x3d8cdf6f	0.06878554
84	0xbd6fb9ff	-0.05852699
85	0x3b85f7a7	0.0040883604
86	0x3c86e25a	0.016465355
87	0xbc9fa984	-0.019490011
88	0x3ded3c16	0.11583726
89	0x3d0fc1d4	0.03509696
90	0x3be4c470	0.006981425
91	0xbcc808c8	-0.02441825
92	0x3d05c361	0.03265703
93	0xbd25c8d5	-0.04047473
94	0xbd2f4443	-0.04278971
95	0x3d4f07ae	0.050544433
96	0x3da17cce	0.07885133
97	0x3d8169f4	0.06319037
98	0x3d5cf7fc	0.053947434
99	0xbd45458e	-0.048162036
100	0x3c8c1020	0.017097533
101	0x3d91f473	0.07126703
102	0x3c00a5fc	0.007852074
103	0xbcf385d7	-0.029726906
104	0x3c2ad422	0.010426553
105	0x3d12e797	0.035865393
106	0xbbdd0235	-0.006744648
107	0xbcc89bf9	-0.024488436
108	0x39a9dbcc	0.00032397953
109	0xbd7059d5	-0.05867942
110	0xbda218af	-0.07914864
111	0x3d439270	0.047747076
112	0xbd317f7a	-0.04333446
113	0xbc6b8664	-0.014375303
114	0xbc77ceb9	-0.01512497
115	0x3d78f39e	0.060779206
116	0xbc9f6671	-0.019458028
117	0x3c7b2ee6	0.015331006
118	0xbc57caf6	-0.013170948
119	0x39afa0c6	0.00033498387
120	0x3b82f788	0.003996793
121	0x3b6792df	0.0035335345
122	0x3d0a3030	0.03373736
123	0x3cd2fef0	0.02575633
124	0x3d454b08	0.04816726
125	0x3d02e9f0	0.03196138
126	0xbcc31b97	-0.023816867
127	0xbbf036c4	-0.0073307473
128	0x3c1625d0	0.009164289
129	0x3d8fa51b	0.07013913
130	0xbd0be7b3	-0.034156512
131	0x3c11054a	0.008851359
132	0x3c16911d	0.009189871
133	0xbd134c2b	-0.03596131
134	0x3cbdf0b7	0.02318607
135	0x3c6beac5	0.014399235
136	0xbca3539d	-0.01993733
137	0x3ae36133	0.0017347693
138	0x3cba796e	0.02276298
139	0x3d4003eb	0.046878736
140	0x3d4a3c40	0.049373865
141	0x3cd9e260	0.026597202
142	0xba578c25	-0.0008222482
143	0x3d3661f2	0.044527
144	0x3d002adb	0.03129087
145	0x3ce9dc43	0.028547412
146	0xbdb09fd4	-0.08624235
147	0xbc9946d0	-0.018710524
148	0xbd0c6d20	-0.034283757
149	0xbd34d3c2	-0.04414726
150	0xbd470e11	-0.0485974
151	0xbd1a0921	-0.037606362
152	0x3cd1811d	0.025574261
153	0xba035b7d	-0.0005010886
154	0x3cbc7afa	0.023007859
155	0x3d836354	0.0641543
156	0xbc0ff764	-0.00878701
157	0xbc7073ef	-0.014676078
158	0xbcf72967	-0.03017111
159	0xbcac7850	-0.021053463
160	0xbce800e1	-0.028320732
161	0xbcae6901	-0.021290304
162	0x3d4c2eb7	0.04984924
163	0xbd0e183b	-0.034691077
164	0x3cdedc80	0.027204752
165	0x3d3bbdb2	0.045835204
166	0x3aa10d43	0.0012287277
167	0x3d0b2f28	0.03398052
168	0x3d11b6c7	0.0355747
169	0xbb8d674a	-0.0043152915
170	0x3d5d25ac	0.053991005
171	0xbcee067c	-0.029055826
172	0xbcd0ef41	-0.02550471
173	0x3bb63b45	0.0055612647
174	0x3a6e1711	0.00090824167
175	0x3da01a40	0.07817507
176	0x3d1733de	0.0369147
177	0xbd7070bc	-0.058701262
178	0xbd792fcb	-0.060836595
179	0xbae677eb	-0.0017583346
180	0xbd21066a	-0.039312758
181	0x3bfd9793	0.0077390163
182	0xbb597a3f	-0.0033184437
183	0xbc518652	-0.012788372
184	0x3cfc26f6	0.030780297
185	0xbca5ac37	-0.02022372
186	0x3b15c4cb	0.0022852893
187	0x3c9f3725	0.019435475
188	0xbd85068f	-0.064953916
189	0x3d3f6ffa	0.04673765
190	0x3cfff886	0.031246435
191	0xbb46a740	-0.003031209
192	0xbc6de95a	-0.014520967
193	0x3d114fb5	0.035476405
194	0x3c81d5f2	0.015849087
195	0x3ce423ca	0.027849097
196	0xbdacf5ef	-0.084453456
197	0xbd86e812	-0.06587233
198	0x3cc7b007	0.024375929
199	0x3c9f497c	0.01944422
200	0x3bf65afb	0.00751817
201	0xbd5c072c	-0.053717777
202	0xbd7a1a36	-0.061060153
203	0xbcd57dc1	-0.02606094
204	0xbcdd7a7d	-0.027035946
205	0xbc6d15e1	-0.014470548
206	0x3c21a8e1	0.009866924
207	0xbc52a0f6	-0.012855759
208	0xbd1d0059	-0.03833041
209	0xba646aa7	-0.0008713402
210	0xbd40151c	-0.04689513
211	0x3d9dca30	0.0770458
212	0x3d81a29c	0.063298434
213	0xbd69f392	-0.057117052
214	0x3d79c70e	0.06098085
215	0xbd4922bf	-0.049105402
216	0xbcacdd5a	-0.021101642
217	0x3d00b0d6	0.031418644
218	0xba740997	-0.00093092903
219	0xbd4da7a6	-0.05020871
220	0x3c366d3e	0.011134444
221	0xbd594078	-0.053039998
222	0xbc80b097	-0.015709205
223	0xbd5af904	-0.053460136
224	0x3ceff954	0.029293694
225	0x3d5378de	0.05162894
226	0x3c1c378e	0.00953473
227	0x3b9f30f0	0.0048581287
228	0x3d396998	0.045266718
229	0x3c8c218b	0.017105838
230	0xba8ac4a7	-0.0010587171
231	0x3c875b46	0.016523015
232	0x3c6b8998	0.014376067
233	0xbc880bf7	-0.016607268
234	0x3d5877d9	0.05284867
235	0x3d1d70d0	0.038437665
236	0x3c0d7946	0.008634871
237	0xbcbfe315	-0.02342371
238	0xbc453b21	-0.012038023
239	0x3cd1bbe5	0.02560229
240	0x3d6021a2	0.054719575
241	0x3b9ed92b	0.004847666
242	0x3d2c8056	0.04211458
243	0x3d7fb38f	0.0624271
244	0xbd4d4832	-0.05011768
245	0xbbf83817	-0.007575046
246	0x3af7efaf	0.0018916036
247	0x3c17ee23	0.009273085
248	0xbd1eeb5f	-0.038798686
249	0x3d51d815	0.051231463
250	0x3c3fe663	0.011712643
251	0xbce08e53	-0.027411615
252	0x3c1cfcd5	0.009581764
253	0xbc06493a	-0.0081961695
254	0x3b92bf74	0.0044783894
255	0xbdabfea8	-0.08398181

action_model._continuous_distribution.mu.bias f4 [2]
0	0x3c463629	0.012097874
1	0xbb32c21d	-0.0027276345

action_model._discrete_distribution.branches.0.weight f4 [1, 128]
0	0xbc119be3	-0.008887264
1	0xbbf7aac7	-0.0075582
2	0x3c351314	0.011051912
3	0xbc2fc6ff	-0.010728597
4	0x3c52f1db	0.012875046
5	0x3af46ab8	0.0018647527
6	0xbb787cc8	-0.0037916172
7	0x3a92948e	0.0011183189
8	0x3c516bef	0.012782081
9	0xbc148c45	-0.009066646
10	0xbc25f166	-0.010128355
11	0xbb262ad0	-0.0025355108
12	0x3b201093	0.0024423942
13	0xbc886d29	-0.016653614
14	0xbc5b7e90	-0.013396874
15	0x3bfd622f	0.0077326517
16	0xbbb0a4ac	-0.005390724
17	0x3ae7edc5	0.0017694762
18	0xbc8f6c69	-0.017507749
19	0xbc6e67db	-0.014551128
20	0xbbc73470	-0.006079249
21	0x3b0b9235	0.0021296863
22	0xb8f03907	-0.00011454714
23	0xbbf6995a	-0.007525605
24	0x3b3e3b88	0.0029027183
25	0xbc484e01	-0.012225629
26	0xbb65066b	-0.0034946452
27	0x3b2bc7bc	0.002621158
28	0x3c27b6cb	0.010236452
29	0xba5cc393	-0.0008421477
30	0xbc9fd5b7	-0.019511087
31	0x3c0ce9c2	0.008600654
32	0x3a84fa54	0.0010145404
33	0xbb8a0bb8	-0.0042128228
34	0x3c2d49ec	0.010576706
35	0xbb242617	-0.0025047117
36	0x3c1ba482	0.009499671
37	0xbb20180b	-0.0024428393
38	0xbbb1a331	-0.0054210653
39	0x3c8fa821	0.017536225
40	0xbc11b54b	-0.008893321
41	0xbc49965d	-0.012303916
42	0x3c02d5d3	0.00798555
43	0xb9dc11b8	-0.0004197487
44	0x3984e545	0.0002534782
45	0xbb6866f3	-0.0035461753
46	0xbbdc0095	-0.0067139366
47	0xbb9df44f	-0.0048203836
48	0xbc0d54f7	-0.008626214
49	0xbb77a47b	-0.0037787247
50	0xbb71cc2a	-0.0036895373
51	0x3a878022	0.0010337869
52	0x3b985d45	0.0046497905
53	0x3c1f672d	0.009729189
54	0xba95953a	-0.0011412271
55	0xba0ff1a6	-0.00054910255
56	0xba21223b	-0.00061467633
57	0x3bfbdfbf	0.0076865847
58	0x3b1fd6dd	0.0024389543
59	0x3b26a057	0.002542516
60	0xbc3dca08	-0.011583813
61	0xb98a6e49	-0.0002640358
62	0xbc0ed748	-0.008718319
63	0x3c55b84d	0.013044429
64	0xbc66a222	-0.014076741
65	0x3bb988b8	0.00566205
66	0x3b7e0af3	0.003876385
67	0x3bd03935	0.006354476
68	0xbb4c154d	-0.0031140626
69	0x3be672fd	0.0070327506
70	0x3bfefd2a	0.0077816444
71	0x3c510930	0.012758538
72	0xbc4f039d	-0.012635139
73	0x3b45395b	0.0030094
74	0x3ba05f2a	0.004894157
75	0xbb0e1eeb	-0.002168591
76	0xbb37443d	-0.0027964257
77	0x3b3475db	0.0027536068
78	0x3b966e5b	0.004590792
79	0xbb5f2e12	-0.003405456
80	0x3c872a7f	0.016499756
81	0x3c291030	0.010318801
82	0xbc2480b2	-0.010040449
83	0xbb925d79	-0.004466709
84	0x3c381f32	0.011237906
85	0xbc0cbb7b	-0.008589621
86	0xbba96cdc	-0.0051704478
87	0xbbf8e823	-0.007596032
88	0x3bb8f358	0.005644243
89	0xbc0ee727	-0.008722103
90	0xbc2be913	-0.010492581
91	0x3b086c30	0.0020816438
92	0x3b5fbb20	0.0034138635
93	0x3c1ae43d	0.00945383
94	0x3c2d14d6	0.01056405
95	0x3ba0863a	0.0048988136
96	0x3bd7ddb8	0.00658771
97	0x3c57391b	0.013136174
98	0xba433e00	-0.00074478984
99	0x3a74030a	0.0009308314
100	0x39080074	0.0001297014
101	0xbb2cbe54	-0.0026358562
102	0xbaeb7f85	-0.0017967081
103	0x3c8cf9ad	0.017208898
104	0xbbd3b670	-0.006460957
105	0xbbf7a6cb	-0.007557725
106	0x3c87013e	0.016480085
107	0xbc353e63	-0.011062237
108	0xba851bdf	-0.0010155401
109	0x3bc5a73b	0.0060318983
110	0xbb2c5af0	-0.002629932
111	0xba03993b	-0.00050200865
112	0x3c07acc1	0.008280934
113	0xbcae8e18	-0.02130799
114	0x3b4aa977	0.0030923763
115	0x3bf03dad	0.007331571
116	0x3c96b80e	0.018398311
117	0xbbe46e98	-0.0069711916
118	0x38201fd7	3.8176626e-05
119	0xbc0d3987	-0.008619673
120	0x3c0a8b0b	0.008456002
121	0x3b838fef	0.004014961
122	0x3b3865ab	0.002813677
123	0x3b1a4e1f	0.00235451
124	0x3c5c0915	0.0134299
125	0xbc30c2d4	-0.010788638
126	0x3b6b755d	0.0035928108
127	0xb9a33b66	-0.00031134038

onnx::Div_70 f4 [21]
0	0x3f937ba8	1.1522112
1	0x3c958cca	0.01825561
2	0x3f8940d9	1.0722915
3	0x40810a48	4.032505
4	0x3b37089a	0.002792871
5	0x408a084e	4.3135138
6	0x40d7b002	6.7402353
7	0x3e1d5305	0.153637
8	0x40a89158	5.267742
9	0x401184f7	2.2737405
10	0x4013f442	2.3117833
11	0x405fba07	3.4957292
12	0x41038340	8.219543
13	0x40725917	3.7866876
14	0x3d35b322	0.044360287
15	0x405d5c88	3.4587727
16	0x406f05f6	3.7347388
17	0x407b6159	3.9278166
18	0x3d4d3f77	0.050109353
19	0x40550b7d	3.3288262
20	0x40692223	3.6427085
