results/GrabbingPellet/GrabbingPellet/checkpoint.pt (torch, 466914 bytes, 47 tensors)

network_body.observation_encoder.processors.0.normalizer.running_mean f4 [12]
0.0 0.0 0.0 -0.8996358 -19.921936 -3.6685147 0.17765903 -442.7323
30.219786 0.02445036 0.108255014 2.537506
00000000: 0000 0000 0000 0000 0000 0000 884e 66bf
00000010: 2060 9fc1 f2c8 6ac0 40ec 353e bc5d ddc3
00000020: 1fc2 f141 1f4c c83c ceb4 dd3d 8066 2240

network_body.observation_encoder.processors.0.normalizer.running_variance f4 [12]
1.0 1.0 1.0 1.8096757 398.04462 14.463458 61198.64 7.804652e+09
506553.06 15322.46 14742.725 9366.745
00000000: 0000 803f 0000 803f 0000 803f 74a3 e73f
00000010: b605 c743 536a 6741 a40e 6f47 c598 e84f
00000020: 2257 f748 d769 6f46 e65a 6646 fb5a 1246

network_body.processors.0.normalizer.running_mean f4 [12]
0.0 0.0 0.0 -0.8996358 -19.921936 -3.6685147 0.17765903 -442.7323
30.219786 0.02445036 0.108255014 2.537506
00000000: 0000 0000 0000 0000 0000 0000 884e 66bf
00000010: 2060 9fc1 f2c8 6ac0 40ec 353e bc5d ddc3
00000020: 1fc2 f141 1f4c c83c ceb4 dd3d 8066 2240

network_body.processors.0.normalizer.running_variance f4 [12]
1.0 1.0 1.0 1.8096757 398.04462 14.463458 61198.64 7.804652e+09
506553.06 15322.46 14742.725 9366.745
00000000: 0000 803f 0000 803f 0000 803f 74a3 e73f
00000010: b605 c743 536a 6741 a40e 6f47 c598 e84f
00000020: 2257 f748 d769 6f46 e65a 6646 fb5a 1246

network_body._body_endoder.seq_layers.0.weight f4 [128, 12]
0.31296343 -0.08652529 0.23961735 -0.022357216 0.12861031 -0.4743427 0.5077604 -0.49545082
0.22408079 -0.12394832 -0.06208364 0.17823969 -0.23190048 -0.63715315 -0.09093508 0.77171355
-0.22297329 0.033950713 0.51574165 0.26383656 0.19216534 -0.33498693 -0.22124763 -0.017936831
0.19243462 0.083097585 0.6097607 -0.18487076 -0.15018916 -0.1281211 -0.025330424 0.4020031
0.4192656 -0.09981142 -0.63213843 0.4428301 0.1260104 0.26040444 0.021669395 -0.2431453
0.26380938 0.024526183 -0.08555119 0.16283923 -0.24337393 0.3890251 -0.0065234033 -0.059552662
0.31294826 0.13941076 0.0060747457 -0.06987805 0.12579267 -0.30557048 -0.17403118 0.07558595
-0.26225296 -0.02170105 0.05228463 -0.023851546 -0.36100596 0.33956444 0.24283649 -0.64891696
0.23812295 -0.11612569 -0.062159285 0.3073245 0.71174985 -0.34890726 -0.18631557 0.25030968
0.16513798 0.69008046 0.15745538 0.035113186 -0.07754161 -0.1043968 -0.15884876 -0.27570027
0.2129038 -0.3320313 -0.60576326 -0.4670909 0.27376896 0.1774165 -0.39622378 0.5105983
-0.17601334 0.16074704 0.14439149 0.40771317 0.3617052 -0.11586168 -0.3267817 -0.3447057
-0.26761705 0.6231436 0.4182518 -0.23357625 0.067453705 -0.4761454 0.110837765 -0.008950524
0.28225234 -0.48537564 0.24553007 -0.18747613 0.13014607 -0.3191121 -0.048619505 -0.12521438
-0.13284501 -0.03005705 -0.4809707 0.24435738 0.24297038 0.108061805 0.21741879 -0.31515276
-0.2635956 -0.38376185 0.24078238 -0.24354175 -0.36394718 0.2099269 0.10734587 -0.039183993
0.11075136 0.21746783 -0.23005801 -0.059426993 -0.09832141 0.29255277 0.16798165 0.085374
0.23153254 0.23487942 0.31796548 -0.12137484 0.2986866 -0.5970344 -0.3536266 0.030723587
-0.33486828 0.1966565 -0.06801942 0.26993144 -0.22395916 0.12200064 -0.04882641 -0.07743974
-0.27036914 -0.041913446 0.4904519 0.10341774 -0.16021547 -0.122948945 0.35446927 0.22243696
0.19217804 0.056605175 -0.15623449 0.26232326 0.071517296 0.08046641 -0.60322934 -0.4219182
0.02092393 -0.18173492 -0.013110489 -0.20255691 -0.19850518 0.39510825 -0.08636957 -0.103644535
-0.14685133 0.5587023 -0.17576979 0.33401427 -0.09334524 -0.011880181 -0.6999664 0.28677353
-0.40153867 0.10102455 0.57663685 -0.28353754 0.16085759 -0.089766264 -0.35016838 -0.44704422
-0.3397258 0.008809416 -0.023075286 -0.15969573 -0.11267303 0.25221837 -0.36261413 0.18572645
-0.053117536 -0.17646576 0.19521713 -0.13408166 0.4261427 -0.30333972 0.020645307 0.3234862
0.51589996 -0.60354424 0.43304005 -0.027838634 -0.0033214889 -0.3293636 -0.557423 0.49955988
0.13439582 0.3059218 0.6981325 0.23027927 -0.25599954 0.0013830508 -0.07733093 -0.010058419
0.8652911 0.08920249 0.32561588 -0.03146769 -0.22138658 0.2200618 0.39929655 0.16413483
0.1365138 0.41677538 -0.47558486 -0.089912824 -0.27148268 -0.0076382426 0.13409457 0.40053007
-0.19201769 -0.09913763 0.21369766 -0.51779866 -0.08480625 -0.3364355 -0.016632643 -0.25471967
0.0019330465 -0.008003804 -0.22677913 -0.0076175174 -0.17776223 -0.45377415 -0.021436194 -0.0067756185
00000000: be3c a03e 2c34 b1bd 405e 753e 7b26 b7bc
00000010: 6cb2 033e 0cdd f2be 96fc 013f bbab fdbe
00000020: 6f75 653e 9ed8 fdbd 6a4b 7ebd 7784 363e
00000030: 5277 6dbe 781c 23bf 2c3c babd 058f 453f
00000040: 1c53 64be e70f 0b3d a507 043f 9615 873e
00000050: fec6 443e 6883 abbe bd8e 62be 43f0 92bc
00000060: 950d 453e 112f aa3d 4719 1c3f c34e 3dbe
00000070: 30cb 19be 2d32 03be c081 cfbc 5ad3 cd3e
00000080: fba9 d63e ee69 ccbd d3d3 21bf a0ba e23e
00000090: df08 013e bb53 853e 0484 b13c 15fb 78be
000000a0: 0612 873e 22eb c83c 7635 afbd 54bf 263e
000000b0: 0437 79be 4c2e c73e 46c2 d5bb 7eed 73bd
000000c0: c13a a03e b2c1 0e3e a90e c73b 391c 8fbd
000000d0: cbcf 003e bc73 9cbe 3b35 32be cecc 9a3d
000000e0: 0546 86be 67c6 b1bc 6828 563d 5164 c3bc
000000f0: c6d5 b8be 64db ad3e 21aa 783e 6c1f 26bf
00000100: 81d6 733e 4ed3 edbd bc9a 7ebd a359 9d3e
00000110: 3d35 363f f9a3 b2be 82c9 3ebe 9728 803e
00000120: ee19 293e 1da9 303f fc3b 213e d8d2 0f3d
00000130: 23ce 9ebd fdcd d5bd 40a9 22be 9628 8dbe
00000140: 7403 5a3e 0200 aabe 4d13 1bbf 8a26 efbe
00000150: 722b 8c3e acac 353e d8dd cabe 92b6 023f
00000160: d73c 34be df9a 243e 5ddb 133e c8bf d03e
00000170: 6d31 b93e e348 edbd ee4f a7be 447d b0be
00000180: 1a05 89be 5786 1f3f 1a25 d63e 9d2e 6fbe
00000190: 2b25 8a3d 54c9 f3be e9fe e23d 38a5 12bc
000001a0: 6183 903e 2883 f8be 3c6c 7b3e bef9 3fbe
000001b0: 0345 053e a962 a3be 3f25 47bd 3338 00be
000001c0: 8608 08be 343a f6bc cb41 f6be d238 7a3e
000001d0: 3acd 783e 824f dd3d 08a3 5e3e b45b a1be
000001e0: 01f6 86be 6f7c c4be a88f 763e 0263 79be
000001f0: 4957 babe 14f7 563e 27d8 db3d 657f 20bd
00000200: 9cd1 e23d e3af 5e3e 5494 6bbe b869 73bd
00000210: bc5c c9bd 7ac9 953e 6203 2c3e 90d8 ae3d
00000220: de16 6d3e 3b84 703e 5fcc a23e 5f93 f8bd
00000230: 73ed 983e 3fd7 18bf 8c0e b5be 08b0 fb3c
00000240: db73 abbe 5260 493e c44d 8bbd 7434 8a3e
00000250: 8d55 65be 79db f93d 34fe 47bd ba98 9ebd
00000260: d36d 8abe 6fad 2bbd 831c fb3e aecc d33d
00000270: 860f 24be a8cc fbbd ff7c b53e 84c6 633e
00000280: 52ca 443e d4da 673d effb 1fbe 3c4f 863e
00000290: a977 923d 93cb a43d 3d6d 1abf aa05 d8be
000002a0: a968 ab3c b818 3abe 60cd 56bc 146b 4fbe
000002b0: f144 4bbe a14b ca3e 87e2 b0bd 9643 d4bd
000002c0: 3260 16be 1d07 0f3f fffc 33be eb03 ab3e
000002d0: ca2b bfbd 17a5 42bc ff30 33bf fbd3 923e
000002e0: 7a96 cdbe f6e5 ce3d 799e 133f d52b 91be
000002f0: dab7 243e 60d7 b7bd 4549 b3be fbe2 e4be
00000300: 8af0 adbe 5e55 103c 6208 bdbc 4787 23be
00000310: 1ec1 e6bd c422 813e 8fa8 b9be 132f 3e3e
00000320: c691 59bd 71b3 34be 00e7 473e b44c 09be
00000330: 602f da3e 584f 9bbe 5920 a93c fc9f a53e
00000340: 0512 043f e081 1abf 6db7 dd3e d90d e4bc
00000350: 56ad 59bb 59a2 a8be 46b3 0ebf 50c6 ff3e
00000360: 0f9f 093e c8a1 9c3e d0b8 323f 54ce 6b3e
00000370: 5f12 83be 7c47 b53a ae5f 9ebd 11cc 24bc
00000380: b883 5d3f ccaf b63d 20b7 a63e 44e4 00bd
00000390: 2ab3 62be e157 613e 9970 cc3e f612 283e
000003a0: 46ca 0b3e 9563 d53e dc7f f3be 3724 b8bd
000003b0: c7ff 8abe 394a fabb 1650 093e 4712 cd3e
000003c0: 49a0 44be ab08 cbbd 8fd3 5a3e 748e 04bf
000003d0: e6ae adbd 4641 acbe 2e41 88bc 9e6a 82be
000003e0: 475e fd3a 6322 03bc ca38 68be 5e9c f9bb
000003f0: 4d07 36be 1655 e8be f59a afbc 0206 debb

network_body._body_endoder.seq_layers.0.bias f4 [128]
0.005727263 0.00260073 -0.0012964789 0.0022493082 -0.0037873173 -0.0015277041 0.002754604 0.0018674606
0.0026655197 0.0009850957 -0.001301293 0.0029497815 0.0013344284 0.0036082985 0.0068718283 0.0017595991
-0.005586674 0.00089296803 -0.0023333805 -0.0017417246 -0.0039985217 -0.0012395043 -0.0011305365 -0.0011441262
-0.0012747471 0.004273831 -0.0039349333 0.00207077 0.0016913626 -0.0052271024 -0.0034836573 -0.0015730131
-0.0026152402 -0.0003585305 -0.0022403346 0.005887169 0.0043743346 0.0051413155 -0.0037988897 0.0041282466
-0.0019573886 0.0012255849 0.0005326569 0.0010621898 -0.005511004 -0.0030100492 -0.0018117407 -0.0022015313
0.0001530214 0.0019284806 -0.0012649017 0.001269146 0.003933705 0.0050763637 -0.0013994456 0.0017916812
-0.0007200188 0.00076810375 -0.004825757 0.0019341704 -0.0026382918 0.0030992862 -0.004606832 -0.0024916762
0.0014398539 0.003871281 -0.00088603696 0.00085228786 0.0020863703 -0.0019268005 0.003110587 4.9581264e-05
0.00017270385 2.2622262e-05 -0.00021112127 -0.0016487933 0.0037105947 -2.6952122e-05 0.0025153614 -0.0003508516
0.0039172 -0.0017349694 0.0051142974 0.003530124 0.0015603112 -0.0023155918 0.0057846867 -0.0036886358
9.481232e-05 0.0054547694 -0.0027394118 0.0018995594 -0.0022801629 0.0026942166 0.0023669617 -0.0038858352
0.0031386772 -0.0011416478 -0.0019607581 -0.00244675 0.0019912953 0.0031929628 -0.0023361612 0.0055267634
0.0023380269 -0.0005893602 -0.0024439048 -0.0010148392 0.0035601342 0.0034272794 -0.0019087913 0.0021853219
0.0006558876 -0.0026189846 -0.0015996533 0.0050608693 -0.0037398573 -0.0021777097 -0.0043952633 0.0015954968
-0.0010608146 0.005035222 0.0017855753 0.00060008804 -0.0053758575 0.006296401 0.0050110947 0.0056245346
00000000: c4ab bb3b 0271 2a3b 9dee a9ba 2169 133b
00000010: a434 78bb 3e3d c8ba 9686 343b 94c5 f43a
00000020: 00b0 2e3b 541e 813a 2690 aaba 1f51 413b
00000030: fde7 ae3a 3479 6c3b 132d e13b 59a2 e63a
00000040: 6b10 b7bb 1216 6a3a a1eb 18bb 944a e4ba
00000050: 0806 83bb dd76 a2ba 832e 94ba 81f6 95ba
00000060: 6a15 a7ba 7e0b 8c3b 9df0 80bb c1b5 073b
00000070: b6b0 dd3a 1d48 abbb 124e 64bb 902d ceba
00000080: 7364 2bbb 26f9 bbb9 94d2 12bb 27e9 c03b
00000090: 9456 8f3b 7b78 a83b cbf6 78bb 3e46 873b
000000a0: 8847 00bb cea3 a03a 00a2 0b3a 2d39 8b3a
000000b0: a795 b4bb 3f44 45bb ee77 edba 9147 10bb
000000c0: 5f74 2039 12c5 fc3a 0fcb a5ba 7959 a63a
000000d0: 4fe6 803b a057 a63b 9a6d b7ba d8d6 ea3a
000000e0: a5bf 3cba 925a 493a 6221 9ebb fd83 fd3a
000000f0: 31e7 2cbb 651d 4b3b e8f4 96bb 644b 23bb
00000100: 7bb9 bc3a 51b5 7d3b ef44 68ba 126c 5f3a
00000110: 7cbb 083b b28c fcba fdda 4b3b 7af5 4f38
00000120: d617 3539 f0c4 bd37 6f60 5db9 531c d8ba
00000130: 732d 733b 3e17 e2b7 c3d8 243b 81f2 b7b9
00000140: db5b 803b ea67 e3ba d695 a73b a759 673b
00000150: 5b83 cc3a 2fc1 17bb 788d bd3b 0abd 71bb
00000160: fad5 c638 ecbd b23b b487 33bb a3fa f83a
00000170: c96e 15bb 7491 303b 071f 1b3b 7fa9 7ebb
00000180: 44b2 4d3b 58a3 95ba 1080 00bb a759 20bb
00000190: 6480 023b 0741 513b 481a 19bb da19 b53b
000001a0: 9539 193b 4b7f 1aba eb29 20bb 5a04 85ba
000001b0: 2451 693b 359c 603b 6830 faba 9e37 0f3b
000001c0: dfef 2b3a 45a3 2bbb 75ab d1ba a6d5 a53b
000001d0: 6518 75bb e8b7 0ebb 2406 90bb fd1f d13a
000001e0: 080b 8bba 81fe a43b f709 ea3a 3a4f 1d3a
000001f0: f627 b0bb 0a52 ce3b 1c34 a43b 044e b83b

network_body._body_endoder.seq_layers.2.weight f4 [128, 128]
-0.08507845 -0.04051979 -0.0719517 0.08480828 0.085863344 0.11317644 -0.07174065 0.050829682
0.11320223 0.01091101 -0.047426343 -0.08185953 0.04804456 -0.18475251 -0.116419315 0.006425857
-0.0033149451 0.025758864 -0.021000667 0.042191837 0.050168745 0.006325048 0.11512416 0.21434563
0.014703745 0.074992634 -0.13588248 -0.006259997 -0.0011380491 0.013133803 0.097084425 -0.03144343
0.08968461 0.05697763 -0.060937464 -0.0031311943 0.037368365 0.055197246 0.007208633 0.02121895
-0.1927475 -0.06741996 0.00549405 0.044016946 0.013846157 -0.06210338 0.08597704 -0.06465954
-0.08341475 -0.013060541 0.0066778697 0.007717891 -0.09547645 0.122822076 0.1475688 0.038187664
0.036978014 -0.023716103 -0.019051341 0.07887682 -0.07092268 -0.06332431 -0.030786728 -0.10721223
-0.03099026 -0.021262575 -0.02439127 -0.14546853 0.11921445 -0.038602732 0.11019127 0.01763152
-0.09805593 -0.08551478 0.056545675 0.013382666 0.082793556 0.051118586 -0.06036877 0.05953885
0.14310263 0.10512504 -0.0047414363 0.15226483 0.008113879 0.2048495 0.025866602 0.016037721
0.14016087 0.036135025 0.14228702 0.08565222 -0.040644806 -0.047537375 0.087128855 0.0076117413
0.021307224 -0.102740705 -0.13181987 0.07642817 0.02489291 -0.044488102 -0.0363223 0.13820413
-0.02491705 -0.17342728 0.08739708 -0.0022179582 -0.09450004 0.049187943 -0.03761428 0.10304798
-0.04725329 -0.08316199 0.026403848 0.04642067 0.004034632 -0.057168823 0.01756347 -0.09458478
0.057318248 0.0782932 -0.011571894 0.060064044 -0.020172123 0.039744966 0.085980974 -0.14176917
-0.083959416 0.08078036 -0.01190993 -0.29980516 0.106563784 -0.19080198 0.03281414 0.016970709
0.03193734 -0.08947079 0.004100331 0.101413235 0.118718795 -0.03035787 -0.03463827 -0.0925684
-0.03424893 -0.11571035 -0.030034116 -0.06288933 0.03551615 -0.08326515 0.0162173 -0.035763822
-0.13046916 -0.03597506 -0.03867916 -0.049613617 -0.045248028 -0.06255912 0.00027359033 -0.08023769
0.038367286 -0.061634056 0.049135085 0.20143642 -0.032938685 -0.006242057 -0.040138766 -0.10534946
-0.011312053 -0.10249385 0.01136551 -0.16094677 -0.057335336 0.05361964 0.012174045 -0.049801853
0.002822223 -0.00022102348 0.061371334 -0.15390989 0.0019435424 0.15632176 -0.1069185 -0.021011095
0.061060663 -0.010005155 0.15755765 -0.06274978 -0.043987554 0.0044893962 0.05491 -0.041102603
0.07958892 -0.081087105 0.008026265 0.07748022 -0.03630917 -0.052549355 0.0040955963 -0.11484799
0.062232554 0.021406585 -0.06760852 -0.038399443 -0.0744076 0.0474619 0.07174453 0.027517188
-0.09721796 -0.10684041 -0.061485026 0.09534575 -0.1045196 0.088520214 -0.06074184 0.051029537
-0.06395883 0.03613632 -0.09266159 0.25449347 -0.05850523 0.02118998 -0.02774535 0.093742155
0.19089493 0.05087124 0.07447623 -0.06848088 0.059594866 0.2185518 0.079323515 -0.003918825
0.092519164 -0.1858801 0.037176583 -0.073890276 0.09937821 0.061506104 0.029557705 -0.004688104
-0.09663819 -0.007994984 0.105047114 0.10682311 -0.15754518 -0.026316524 -0.0935859 -0.042657305
0.035980765 -0.06451072 0.20339218 0.19631684 -0.033348273 -0.010676997 -0.009827482 0.016114369
00000000: 9c3d aebd 14f8 25bd 6a5b 93bd f7af ad3d
00000010: 1fd9 af3d 0dc9 e73d c3ec 92bd c932 503d
00000020: 92d6 e73d 18c4 323c 2042 42bd f8a5 a7bd
00000030: 5fca 443d c32f 3dbe 406d eebd ff8f d23b
00000040: 8d3f 59bb 4104 d33c 9709 acbc 59d1 2c3d
00000050: be7d 4d3d 5942 cf3b 37c6 eb3d 6c7d 5b3e
00000060: fae7 703c bd95 993d c724 0bbe a920 cdbb
00000070: 972a 95ba 2a2f 573c 33d4 c63d d3ca 00bd
00000080: 91ac b73d 6061 693d 9099 79bd b934 4dbb
00000090: 920f 193d 8216 623d 6536 ec3b 5dd3 ad3c
000000a0: 9a5f 45be 7a13 8abd 6f07 b43b 1d4b 343d
000000b0: feda 623c 1d60 7ebd bb14 b03d 396c 84bd
000000c0: 5ad5 aabd e1fb 55bc 08d2 da3b 5de6 fc3b
000000d0: 2889 c3bd 248a fb3d 471c 173e ab6a 1c3d
000000e0: 4276 173d 4648 c2bc 8f11 9cbc 2c8a a13d
000000f0: e93f 91bd 2db0 81bd 7334 fcbc 1692 dbbd
00000100: 49df fdbc da2e aebc 33d0 c7bc b4f5 14be
00000110: b526 f43d e61d 1ebd f6ab e13d fa6f 903c
00000120: 8cd1 c8bd 5f22 afbd 709c 673d f842 5b3c
00000130: ab8f a93d b961 513d 3e45 77bd 02df 733d
00000140: 7f89 123e cc4b d73d 0d5e 9bbb 50eb 1b3e
00000150: 13f0 043c 11c4 513e 32e6 d33c 8a61 833c
00000160: 5586 0f3e 5202 143d b0b3 113e 6e6a af3d
00000170: 2b7b 26bd 8db6 42bd 9d70 b23d ea6b f93b
00000180: 7d8c ae3c b869 d2bd cafb 06be 5f86 9c3d
00000190: 37ec cb3c 2839 36bd b1c6 14bd 6285 0d3e
000001a0: d71e ccbc ec96 31be 3efd b23d 2a5b 11bb
000001b0: 3d89 c1bd 4c79 493d 6e11 1abd d20a d33d
000001c0: aa8c 41bd d550 aabd e24c d83c 9a23 3e3d
000001d0: f234 843b db29 6abd 44e1 8f3c aab5 c1bd
000001e0: 8ac6 6a3d 2f58 a03d 0b98 3dbc b705 763d
000001f0: 0240 a5bc 9ecb 223d cb16 b03d f02b 11be
00000200: eaf2 abbd 2c70 a53d de21 43bc 1080 99be
00000210: 1d3e da3d 9861 43be 1f68 063d 2806 8b3c
00000220: bad0 023d 763c b7bd 125c 863b beb1 cf3d
00000230: d722 f33d 11b1 f8bc dce0 0dbd 8094 bdbd
00000240: 9b48 0cbd 8cf9 ecbd 1b0a f6bc 1fcc 80bd
00000250: 6279 113d eb86 aabd 25da 843c 167d 12bd
00000260: b599 05be 965a 13bd 0a6e 1ebd a637 4bbd
00000270: ff55 39bd ff1e 80bd ac70 8f39 a853 a4bd
00000280: 0427 1d3d fe73 7cbd df41 493d 5945 4e3e
00000290: b7ea 06bd 2b8a ccbb 8c68 24bd 75c1 d7bd
000002a0: 3056 39bc 4ce8 d1bd 6736 3a3c 3bcf 24be
000002b0: 75d8 6abd 45a0 5b3d a575 473c 07fd 4bbd
000002c0: 0bf5 383b 8ac2 67b9 8260 7b3d 8e9a 1dbe
000002d0: 76be fe3a d012 203e 16f8 dabd 761f acbc
000002e0: bf1a 7a3d a9ec 23bc cb56 213e f582 80bd
000002f0: 4b2c 34bd c91b 933b 4fe9 603d 345b 28bd
00000300: 84ff a23d ff10 a6bd 9880 033c f3ad 9e3d
00000310: edb8 14bd fe3d 57bd 5a34 863b 6c35 ebbd
00000320: 90e7 7e3d dd5c af3c 5676 8abd bc48 1dbd
00000330: 0363 98bd 6967 423d ccee 923d ba6b e13c
00000340: 361a c7bd 25cf dabd b9d7 7bbd a244 c33d
00000350: 5f0e d6bd 164a b53d 70cc 78bd 5904 513d
00000360: d9fc 82bd ae03 143d 5cc5 bdbd f84c 823e
00000370: 2ea3 6fbd 9c96 ad3c 374a e3bc e3fb bf3d
00000380: f679 433e 5d5e 503d fe86 983d b43f 8cbd
00000390: bf19 743d 0bcc 5f3e 5e74 a23d 7d69 80bb
000003a0: b07a bd3d 5a57 3ebe 7946 183d c953 97bd
000003b0: ce86 cb3d d3ed 7b3d 0023 f23c ab9e 99bb
000003c0: 3eea c5bd 65fd 02bc f122 d73d 13c6 da3d
000003d0: 8653 21be c095 d7bc f7a9 bfbd 6db9 2ebd
000003e0: 9160 133d 321e 84bd 0a46 503e 4807 493e
000003f0: 3398 08bd 92ee 2ebc 7203 21bc 4802 843c

network_body._body_endoder.seq_layers.2.bias f4 [128]
0.004046426 0.0029938382 0.0034055372 -0.002557174 0.0012171768 0.0014642972 0.003337505 0.00015506502
0.0064008585 -0.0002310814 -0.0008156582 -0.00023486505 0.002924327 -0.0034901816 -0.00051273964 0.0015706841
0.003425538 0.00085428945 0.0010036195 0.0016432452 5.0602e-05 0.0053650956 -0.0020121129 0.0042140423
-0.0063183703 -0.0018070689 -0.0037838595 -0.002376201 -0.0024175828 0.0034403247 -0.0022746597 0.00052686303
0.004160632 -0.0021034123 0.004631656 -0.0052172146 -0.0047188266 0.00042544465 0.0022149836 0.00036005373
-0.0003607897 0.00084443804 -0.000588982 0.0014173789 0.004641133 -0.0020125539 -0.0020508044 -0.0036073504
0.0014382302 0.0036425672 0.0001693802 -0.0028280218 0.0032198965 0.0023081286 -0.0040612794 0.0014181207
0.0037811983 -0.0034165399 0.0010029272 -0.0010667416 0.0013732294 -0.0016100087 -0.0036620263 -0.00043975117
0.0015236059 0.00025366165 -0.0009521008 0.0041356594 -0.0013562003 -0.004186061 4.1729272e-05 0.0032569359
0.0047754818 -0.004912086 0.0024194226 -0.0022796064 -0.0032095697 -0.0026763538 0.0023911246 -0.0021891268
-0.00160039 0.0030187587 -0.0020343452 -0.0019658105 -0.00010283933 -0.0014436108 0.0022807945 -0.003509859
-0.0041647307 -0.0024285156 -0.0031880434 0.003464273 -0.0045508044 0.00048271645 0.0021613745 0.0017739212
-0.0038531455 0.005452328 -0.0013601816 0.004311297 -0.0023253611 -0.00036734407 -0.001721806 -0.0011151948
0.00059670024 0.0023539134 -0.0040201754 0.0020458826 -0.00291521 0.0004247847 0.0023312643 0.003570436
-0.0017457934 0.0035152065 0.0015847014 -0.0018568535 -0.003964315 -0.00062028016 -0.0031485378 -0.0030674636
-0.002402939 -0.0015439525 -0.0006542135 0.0046517863 -0.0039018802 0.0027420635 0.0049030804 -0.0031199285
00000000: e297 843b 4534 443b 6f2f 5f3b 4396 27bb
00000010: ad89 9f3a a9ed bf3a 0bba 5a3b f398 2239
00000020: 4bbe d13b 714e 72b9 e5d1 55ba 1b46 76b9
00000030: 11a6 3f3b 88bb 64bb 6069 06ba 6adf cd3a
00000040: fe7e 603b 65f2 5f3a e28b 833a 2962 d73a
00000050: 7c3d 5438 afcd af3b a7dd 03bb f315 8a3b
00000060: 550a cfbb 2cdb ecba a1fa 77bb 0aba 1bbb
00000070: 4f70 1ebb 1277 613b 7512 15bb 2e1d 0a3a
00000080: e955 883b 67d9 09bb 26c5 973b 2bf5 aabb
00000090: 63a0 9abb 370e df39 4229 113b 98c5 bc39
000000a0: 6028 bdb9 475d 5d3a ea65 1aba 58c7 b93a
000000b0: a514 983b 0de5 03bb ca66 06bb 4c69 6cbb
000000c0: ff82 bc3a 23b8 6e3b a79b 3139 5556 39bb
000000d0: e604 533b f943 173b 7b14 85bb 3ce0 b93a
000000e0: fbcd 773b 07e8 5fbb a774 833a e9d1 8bba
000000f0: effd b33a ed06 d3ba 9bfe 6fbb 678e e6b9
00000100: bbb3 c73a e4fd 8439 6796 79ba 6d84 873b
00000110: 88c2 b1ba 3a2b 89bb 7706 2f38 5172 553b
00000120: a57b 9c3b 90f5 a0bb 2d8f 1e3b 7365 15bb
00000130: a557 52bb c465 2fbb 6ab4 1c3b 7477 0fbb
00000140: 2dc4 d1ba 5ed6 453b a652 05bb d4d4 00bb
00000150: 72ab d7b8 8a37 bdba 6279 153b aa05 66bb
00000160: 4b78 88bb bb27 1fbb 7eee 50bb db08 633b
00000170: ea1e 95bb 1b15 fd39 d9a5 0d3b eb82 e83a
00000180: 0e85 7cbb 71a9 b23b 1f48 b2ba c845 8d3b
00000190: 1665 18bb 1698 c0b9 39ae e1ba ba2b 92ba
000001a0: e06b 1c3a 1d44 1a3b adbb 83bb 3714 063b
000001b0: 1c0d 3fbb a3b5 de39 20c8 183b fafd 693b
000001c0: 1bd3 e4ba 615f 663b c1b5 cf3a aa61 f3ba
000001d0: 16e7 81bb 4c9a 22ba b357 4ebb 8007 49bb
000001e0: a07a 1dbb 735e caba 867f 2bba 036e 983b
000001f0: b0b6 7fbb 31b4 333b 05aa a03b b777 4cbb

action_model._continuous_distribution.log_sigma f4 [1, 2]
-0.0034922657 -0.011796109
00000000: 7fde 64bb 7844 41bc

action_model._continuous_distribution.mu.weight f4 [2, 128]
-0.032134082 -0.014864224 -0.023695895 0.02500362 -0.011935404 0.007656779 -0.023478208 0.001862231
-0.019149056 -0.0045089144 0.024866624 0.0018819722 -0.014044984 0.010298288 -0.0041801846 -0.0028329655
-0.023012782 0.0068487045 -0.0026994022 -0.0011764683 0.0122761 -0.012492193 0.0039492026 -0.013828054
0.031591088 -0.0007271614 0.018247657 0.026708806 0.012644136 -0.021066442 0.006691342 0.0016633243
-0.017056942 0.008690583 -0.033256587 0.038951598 0.02135622 0.0012290202 -0.007506026 -0.00064017484
0.008214713 -0.0047699804 -0.009129354 -0.0012196692 -0.050257042 0.009604855 0.018512435 0.0073903794
-0.017622584 -0.025395477 -0.00092390337 0.0066416734 -0.0063003614 -0.004574481 0.009814724 0.00015777277
-0.022696706 0.03545916 -0.011953934 -0.0024663291 -0.004678687 0.018563978 0.018432962 -0.00055406644
0.004335144 -7.657175e-05 0.030163756 -0.019514745 0.0039996966 0.01655946 0.0031268205 -0.022605537
-0.028639385 -0.0015452536 -0.010224556 0.011967868 0.020035582 0.005432831 -0.013012803 0.008432091
0.014580934 -0.022547284 0.010065017 0.005703198 -0.009072026 0.035149623 -0.0066457004 0.005700981
0.0032178431 0.012310962 0.0066294777 0.0006158787 0.028802859 -0.008090792 -0.017572068 -0.0063829054
0.019446481 -0.011634725 -0.0017345181 -0.023409968 0.0067245965 -0.0011809585 0.007669544 -0.0025272728
0.006489191 -0.012244584 0.020834433 -0.010310994 0.010391887 -0.0013066126 -0.013396995 -0.041455433
0.014373226 -0.029079506 -0.01387245 0.009830573 0.007104299 -0.00477498 0.023070276 0.0046586916
0.00040775837 0.0041088224 0.019985178 -0.013183451 0.02712911 -0.008286333 -0.025769707 0.011028509
0.013000747 0.0062131085 0.004625556 -0.01461972 0.004903875 0.025725435 0.019174805 0.007203072
-0.011304061 0.014435574 -0.017852286 -0.013442602 -0.006075219 -0.008953265 0.012166263 -0.007612687
-0.012091624 0.023430198 -0.018287504 -0.015202929 -0.021131733 -0.034339212 -0.008534369 -0.005179685
0.012882423 -0.0017849739 0.0073795016 -0.0137967365 -0.026384972 -0.008883788 0.018286308 0.00312074
-0.005611971 -0.015980642 -0.019785494 0.0212321 0.0034716744 -0.00965853 0.0026463512 -0.022169037
-0.005376664 0.022081533 0.014039624 -0.015299566 0.014792023 -0.013501466 0.014489438 0.019363245
0.034835 0.00022363356 -0.04013683 -0.008146544 -0.0014426606 0.0038017817 0.0009851007 -0.008105682
-0.013474986 0.013651067 0.033151343 0.021706384 0.009910492 0.012795815 0.023993885 -0.023302563
-0.020863038 0.009748456 -0.0134275835 -0.005649966 -0.008463381 -0.010804544 -0.0096177105 0.0032378554
-0.016198644 0.0014420827 -6.391648e-05 -0.008716917 0.013833672 -0.012019961 0.03580698 -0.009404003
-0.013245062 -0.0034863104 0.032023273 -0.010198214 0.025467701 -0.019611679 -0.0037867266 -0.00426722
0.005666337 -0.01377143 0.013962452 -0.018966159 0.01064759 0.009456123 0.00091217255 0.01394982
-0.0011764142 -0.00967813 0.00271953 -0.0008688949 -0.008931783 0.016161498 0.0108498335 0.029430876
-0.0049146456 -0.011879892 9.384489e-05 0.010178956 -0.0020843735 -0.030111646 0.008931479 0.012115029
0.0034515103 -0.017358452 -0.0031771287 -0.009625344 0.018532103 -0.004703828 -0.003401503 0.00096136477
-0.0046515414 -0.02434008 -0.019998837 -0.016445003 -0.009314595 0.026054628 -0.011889866 0.015224678
00000000: 079f 03bd 1389 73bc e51d c2bc 64d4 cc3c
00000010: b68c 43bc b8e5 fa3b 5f55 c0bc 1a16 f43a
00000020: 7bde 9cbc 84bf 93bb 17b5 cb3c 82ac f63a
00000030: ef1c 66bc 27ba 283c eef9 88bb 46a9 39bb
00000040: 4d85 bcbc 196b e03b 74e8 30bb ba33 9aba
00000050: b221 493c 0eac 4cbc 5068 813b 108f 62bc
00000060: a865 013d fa9e 3eba 1c7c 953c 6dcc da3c
00000070: 5a29 4f3c 8893 acbc 0c43 db3b e703 da3a
00000080: 00bb 8bbc f262 0e3c 0f38 08bd b68b 1f3d
00000090: 3df3 ae3c 1317 a13a 1cf5 f5bb 68d1 27ba
000000a0: 0197 063c 7f4d 9cbb 4993 15bc 4fdd 9fba
000000b0: 54da 4dbd af5d 1d3c 64a7 973c ff2a f23b
000000c0: 3d5d 90bc 2d0a d0bc 1b32 72ba 65a2 d93b
000000d0: 4373 cebb 87e5 95bb f0cd 203c ce6f 2539
000000e0: 71ee b9bc a03d 113d 6fda 43bc 23a2 21bb
000000f0: ac4f 99bb 7c13 983c b900 973c c53e 11ba
00000100: d30d 8e3b 2595 a0b8 fb19 f73c 63dd 9fbc
00000110: e30f 833b b4a7 873c 58eb 4c3b 3f2f b9bc
00000120: 259d eabc 1b8a caba e584 27bc e014 443c
00000130: a921 a43c e405 b23b a733 55bc c126 0a3c
00000140: dfe4 6e3c 15b5 b8bc bee7 243c e4e1 ba3b
00000150: d6a2 14bc 0df9 0f3d 2dc4 d9bb 4bcf ba3b
00000160: 73e2 523b ebb3 493c 173c d93b eb72 213a
00000170: f9f3 eb3c 3e8f 04bc 4cf3 8fbc b127 d1bb
00000180: 3a4e 9f3c 939f 3ebc c558 e3ba 43c6 bfbc
00000190: 015a dc3b 64ca 9aba cc50 fb3b 9aa0 25bb
000001a0: 48a3 d43b 829d 48bc f9ac aa3c 72ef 28bc
000001b0: bc42 2a3c a542 abba 127f 5bbc 2ccd 29bd
000001c0: ae7d 6b3c 2538 eebc 4649 63bc 6910 213c
000001d0: 2ecb e83b 6f77 9cbb e0fd bc3c f0a7 983b
000001e0: 67c8 d539 4da3 863b f5b7 a33c 67ff 57bc
000001f0: de3d de3c 66c3 07bc fe1a d3bc ebb0 343c
00000200: 1601 553c 5597 cb3b fa91 973b 8d87 6fbc
00000210: afb0 a03b 26be d23c 7b14 9d3c bf07 ec3b
00000220: ab34 39bc 3083 6c3c f53e 92bc 5c3e 5cbc
00000230: a112 c7bb b7b0 12bc 0155 473c d973 f9bb
00000240: f21b 46bc b0f0 bf3c adcf 95bc b515 79bc
00000250: 751c adbc 46a7 0cbd bdd3 0bbc 59ba a9bb
00000260: cc10 533c c9f5 e9ba bfcf f13b b50b 62bc
00000270: 4c25 d8bc 4f8d 11bc 2bcd 953c 5485 4c3b
00000280: a0e4 b7bb d6e9 82bc 3015 a2bc f1ee ad3c
00000290: 0885 633b d03e 1ebc 686e 2d3b d79b b5bc
000002a0: ba2e b0bb 55e4 b43c 7306 663c 08ab 7abc
000002b0: 3e5a 723c 4135 5dbc 1c65 6d3c ab9f 9e3c
000002c0: 25af 0e3d 2d7f 6a39 8466 24bd 1579 05bc
000002d0: a817 bdba 5027 793b 7f1e 813a b2cd 04bc
000002e0: 30c6 5cbc baa8 5f3c b4c9 073d 96d1 b13c
000002f0: 9e5f 223c 8aa5 513c d38e c43c 04e5 bebc
00000300: f6e8 aabc fdb7 1f3c 5eff 5bbc 5a23 b9bb
00000310: fea9 0abc 8b05 31bc 9a93 1dbc 3332 543b
00000320: 05b3 84bc 4404 bd3a e60a 86b8 66d1 0ebc
00000330: a0a6 623c 5fef 44bc 57aa 123d 3f13 1abc
00000340: d101 59bc 957a 64bb d62a 033d 6916 27bc
00000350: a4a1 d03c aca8 a0bc bb2a 78bb 09d4 8bbb
00000360: aeac b93b 90a1 61bc c5c2 643c eb5e 9bbc
00000370: 3b73 2e3c dbed 1a3c dd1e 6f3a c98d 643c
00000380: e931 9aba 0591 1ebc 243a 323b 8dc6 63ba
00000390: 9d56 12bc 1e65 843c 80c3 313c 0519 f13c
000003a0: 090b a1bb e1a3 42bc 97ce c438 a3c5 263c
000003b0: fc99 08bb b3ac f6bc 5755 123c 1d7e 463c
000003c0: bc32 623b 5033 8ebc 6037 50bb 9eb3 1dbc
000003d0: a3d0 973c 9222 9abb c0eb 5ebb 1904 7c3a
000003e0: f56b 98bb d964 c7bc 9ad4 a3bc acb7 86bc
000003f0: 3e9c 18bc 8470 d53c b6cd 42bc ee70 793c

action_model._continuous_distribution.mu.bias f4 [2]
-0.0036413188 -0.00016216235
00000000: 31a3 6ebb 200a 2ab9

action_model._discrete_distribution.branches.0.weight f4 [1, 128]
-0.003421975 0.006555605 -0.008855393 0.020857302 -0.00067254476 0.0005045026 0.01164025 -0.0076523237
0.0054869168 -0.0018930894 0.00433881 -0.0025579685 0.01306651 -0.0025732864 0.0033081328 -0.003521929
0.0026646766 0.008832111 0.009270027 0.0016328229 0.0018754533 -0.0007307621 0.00082834385 -0.005823967
-0.008981491 0.003678614 0.010944522 0.011948669 -0.006116339 -0.009689872 0.011890184 -0.01098015
-0.0094418805 -0.024208667 0.0025361967 0.027530625 0.006129342 -0.017275346 0.005270135 -0.0016893222
-0.014075719 0.00036388508 0.0007117266 -0.004802845 -0.017804403 -0.0013814105 -0.008899187 0.00471587
0.006708603 -0.0040349956 -0.0054226555 0.02493123 0.006446653 0.0028290555 -0.009143206 0.00046434902
0.01863513 0.00877861 0.007276062 -0.012133932 0.009509575 0.0011102445 -0.011744129 0.008046943
0.008162065 -0.0015271552 8.513772e-05 -0.00045190644 -0.002900683 -0.0016300613 -0.014687202 -0.0040801573
-0.002206254 -0.014840265 -0.0035489544 -0.02423424 0.007844279 0.0016935775 -0.02211755 0.011122362
0.01581486 0.004214247 -0.0058746557 0.0041378387 -0.00096162735 0.009839248 -0.0019816833 -0.0182848
-0.013648502 0.00035625618 0.002876129 0.01236935 0.0017115669 0.011036254 0.011644699 0.00019501206
-0.003973606 0.0065764464 0.011638072 0.0076467767 0.004281768 0.009058545 -0.016814414 -0.01563365
-0.01399356 -0.0018055849 0.0074286605 -0.01330962 -0.0079368185 0.005818648 -0.00043348424 0.006703271
-0.0018133915 -0.0045247762 0.00042545158 0.0076899254 -0.0008431586 0.005795081 0.007352418 -0.01393494
0.00082505 -0.004921908 -0.011639924 0.0036248881 -0.0120950965 -0.017013539 0.008971177 0.01674137
00000000: 3743 60bb 67d0 d63b 3616 11bc efdc aa3c
00000010: b74d 30ba 9940 043a bfb6 3e3c 58c0 fabb
00000020: 98cb b33b 8a21 f8ba 942c 8e3b 97a3 27bb
00000030: ea14 563c 95a4 28bb 42cd 583b 2ad0 66bb
00000040: dba1 2e3b 8fb4 103c 50e1 173c 7204 d63a
00000050: c5d1 f53a 9d90 3fba 3725 593a fad6 bebb
00000060: 1b27 13bc e714 713b a750 333c 5ac4 433c
00000070: 926b c8bb 45c2 1ebc 0ccf 423c 16e6 33bc
00000080: 1eb2 1abc 4151 c6bc 5236 263b e887 e13c
00000090: a6d8 c83b 0785 8dbc 19b1 ac3b 3f6c ddba
000000a0: d89d 66bc d4c7 be39 2a93 3a3a 2f61 9dbb
000000b0: 8ada 91bc 7210 b5ba e5cd 11bc 9687 9a3b
000000c0: d7d3 db3b ff37 84bb 88b0 b1bb 943c cc3c
000000d0: 723e d33b ad67 393b 63cd 15bc df73 f339
000000e0: b3a8 983c 29d4 0f3c 086c ee3b 66cd 46bc
000000f0: 0cce 1b3c a085 913a 726a 40bc 53d7 033c
00000100: 2fba 053c d32a c8ba f78b b238 dbed ecb9
00000110: 6319 3ebb c8a7 d5ba 97a2 70bc d7b2 85bb
00000120: cd96 10bb 9524 73bc 9395 68bb e386 c6bc
00000130: 4a85 003c 08fb dd3a dd2f b5bc 913a 363c
00000140: 2a8e 813c ab17 8a3b 2f80 c0bb b596 873b
00000150: b815 7cba cc34 213c 21df 01bb 01ca 95bc
00000160: f79d 5fbc e5c7 ba39 707d 3c3b d0a8 4a3c
00000170: a856 e03a 68d1 343c 68c9 3e3c 277c 4c39
00000180: 0635 82bb 3b7f d73b 9dad 3e3c d091 fa3b
00000190: 134e 8c3b 4b6a 143c 62be 89bc 2412 80bc
000001a0: 3f45 65bc 60a9 ecba 1f6c f33b 9810 5abc
000001b0: 6e09 02bc 5baa be3b 4545 e3b9 1da7 db3b
000001c0: 52af edba 9344 94bb 250f df39 c5fb fb3b
000001d0: 6a07 5dba aae4 bd3b 8dec f03b 604f 64bc
000001e0: 2b48 583a f547 a1bb 61b5 3ebc 888f 6d3b
000001f0: 832a 46bc fa5f 8bbc d8fb 123c 3325 893c

exp_avg f4 [128, 12]
0.0 0.0 0.0 1.666925e-07 2.4889817e-07 2.4048632e-07 -2.0535113e-05 2.0161675e-05
-1.7932694e-05 -5.086333e-06 9.429712e-06 9.591103e-06 0.0 0.0 0.0 8.27635e-07
1.2357896e-06 1.1940248e-06 -3.0534204e-05 2.4815703e-05 -4.9415372e-05 -2.8044067e-05 1.8146506e-05 -1.3198914e-05
0.0 0.0 0.0 -1.12104175e-07 -1.673892e-07 -1.6173225e-07 -2.6693437e-05 -1.3421871e-05
2.6420208e-05 3.064491e-05 1.696356e-05 4.488356e-05 0.0 0.0 0.0 1.0582131e-06
1.5800791e-06 1.5266785e-06 2.4319485e-05 -3.078253e-05 2.0441248e-05 -3.971094e-05 -1.8908711e-05 -5.029516e-05
0.0 0.0 0.0 -3.37405e-07 -5.0379884e-07 -4.867725e-07 1.3863064e-05 2.6792315e-05
-1.5680009e-05 4.8596303e-06 -2.8025857e-05 2.1699672e-05 0.0 0.0 0.0 2.2431044e-07
3.34931e-07 3.236116e-07 5.186235e-06 -5.2906642e-05 4.7804984e-05 1.1993886e-05 -7.995256e-06 -3.1289088e-05
0.0 0.0 0.0 1.1952354e-06 1.784675e-06 1.7243595e-06 -4.9636525e-05 7.044149e-05
-8.294117e-05 -3.0445497e-06 3.880175e-05 1.3669559e-05 0.0 0.0 0.0 6.05838e-07
9.0461157e-07 8.740395e-07 -9.206654e-06 -4.2558717e-05 3.8289025e-05 -3.8611957e-05 1.5165741e-06 -6.2622885e-06
0.0 0.0 0.0 1.3173778e-06 1.9670529e-06 1.9005743e-06 -1.550239e-05 8.536056e-05
-0.000102529455 -5.3810392e-05 -2.8742425e-05 1.0033371e-05 0.0 0.0 0.0 6.889266e-07
1.0286756e-06 9.939107e-07 0.00010350296 2.3587896e-05 -9.4047e-06 -6.4509995e-06 -3.942322e-05 5.5922924e-06
0.0 0.0 0.0 -7.0259233e-07 -1.0490811e-06 -1.0136264e-06 3.4942307e-06 2.3393977e-06
4.326641e-06 -1.5415823e-06 -1.4182996e-05 -1.6623543e-06 0.0 0.0 0.0 1.3023821e-06
1.9446618e-06 1.8789399e-06 -6.872938e-05 -6.5914855e-07 -1.6550364e-05 1.542653e-05 5.144978e-05 6.038676e-07
0.0 0.0 0.0 7.0608695e-07 1.0542998e-06 1.0186681e-06 5.6795852e-05 -2.0438547e-05
3.076512e-05 -2.0044306e-05 -1.18794915e-05 -3.2603e-05 0.0 0.0 0.0 1.0116197e-06
1.510508e-06 1.4594586e-06 -1.3874136e-05 5.6471203e-05 -7.812231e-05 -7.276623e-05 4.3769065e-05 1.3668816e-05
0.0 0.0 0.0 -1.1755728e-06 -1.7553153e-06 -1.695993e-06 9.259567e-06 1.4403764e-05
-3.7812565e-06 -1.4521967e-05 -2.315967e-05 3.337442e-05 0.0 0.0 0.0 7.969882e-07
1.1900286e-06 1.1498106e-06 -7.1305825e-05 -0.00011107782 0.00013186006 -8.0877486e-05 5.7681482e-05 1.18271555e-05
0.0 0.0 0.0 -7.931675e-07 -1.1843244e-06 -1.1442987e-06 -4.4673918e-05 -1.7133618e-05
3.530779e-05 3.229503e-05 6.6225955e-05 1.5888027e-05 0.0 0.0 0.0 1.1728238e-06
1.7512108e-06 1.6920269e-06 -8.73428e-05 -0.0001391183 0.00013588111 -9.512892e-06 6.795265e-05 -1.953794e-05
0.0 0.0 0.0 -9.59238e-07 -1.4322943e-06 -1.3838883e-06 -0.0001430453 -4.2939304e-05
2.9557914e-05 5.602339e-05 3.9043913e-05 -1.2374316e-05 0.0 0.0 0.0 -1.4188618e-06
-2.1185847e-06 -2.0469845e-06 -0.00011918585 3.8213228e-05 -3.2252115e-05 3.2240002e-06 2.8411308e-05 4.1183474e-05
0.0 0.0 0.0 -1.8214025e-06 -2.7196409e-06 -2.627728e-06 1.0904811e-05 -1.1157425e-05
1.3133574e-05 2.4968822e-05 -2.8319186e-05 -4.053718e-06 0.0 0.0 0.0 2.2725825e-07
00000000: 0000 0000 0000 0000 0000 0000 16fc 3234
00000010: 4ea0 8534 301c 8134 d242 acb7 de20 a937
00000020: 2b6e 96b7 45ab aab6 4e34 1e37 79e9 2037
00000030: 0000 0000 0000 0000 0000 0000 a52a 5e35
00000040: 68dd a535 6142 a035 da11 00b8 512b d037
00000050: 5a43 4fb8 2d40 ebb7 5339 9837 e770 5db7
00000060: 0000 0000 0000 0000 0000 0000 ecbd f0b3
00000070: 98bb 33b4 9fa8 2db4 b8eb dfb7 7f2e 61b7
00000080: f7a0 dd37 b988 0038 f84c 8e37 5b41 3c38
00000090: 0000 0000 0000 0000 0000 0000 ed07 8e35
000000a0: 1b13 d435 46e8 cc35 b201 cc37 7d1c 01b8
000000b0: 3f79 ab37 4c8f 26b8 269e 9eb7 04f4 52b8
000000c0: 0000 0000 0000 0000 0000 0000 9724 b5b4
000000d0: cb3c 07b5 c0aa 02b5 6895 6837 0fc0 e037
000000e0: 9088 83b7 e80f a336 1219 ebb7 b107 b637
000000f0: 0000 0000 0000 0000 0000 0000 fcd9 7034
00000100: 91d0 b334 d7bc ad34 6b05 ae36 13e8 5db8
00000110: 3682 4838 5939 4937 5d23 06b7 673c 03b8
00000120: 0000 0000 0000 0000 0000 0000 fa6b a035
00000130: f788 ef35 8b70 e735 d030 50b8 fdb9 9338
00000140: b4f0 adb8 f750 4cb6 10bf 2238 4f56 6537
00000150: 0000 0000 0000 0000 0000 0000 dfa0 2235
00000160: 6fd4 7235 899f 6a35 4776 1ab7 1381 32b8
00000170: 8798 2038 46f3 21b8 178d cb35 a620 d2b6
00000180: 0000 0000 0000 0000 0000 0000 c2d0 b035
00000190: b601 0436 3c17 ff35 210b 82b7 9a03 b338
000001a0: 1505 d7b8 78b2 61b8 e31b f1b7 0055 2837
000001b0: 0000 0000 0000 0000 0000 0000 adee 3835
000001c0: 0611 8a35 8366 8535 bb0f d938 9fde c537
000001d0: e1c8 1db7 aa75 d8b6 5c5a 25b8 6da5 bb36
000001e0: 0000 0000 0000 0000 0000 0000 c799 3cb5
000001f0: 27ce 8cb5 f00b 88b5 6d7e 6a36 8cfe 1c36
00000200: 902d 9136 5de8 ceb5 81f3 6db7 0f1e dfb5
00000210: 0000 0000 0000 0000 0000 0000 82cd ae35
00000220: 0981 0236 e22f fc35 ce22 90b8 58f0 30b5
00000230: a3d5 8ab7 3968 8137 c8cb 5738 7719 2235
00000240: 0000 0000 0000 0000 0000 0000 ed89 3d35
00000250: 7781 8d35 2bb9 8835 1538 6e38 7273 abb7
00000260: cc09 0138 d224 a8b7 074e 47b7 34bf 08b8
00000270: 0000 0000 0000 0000 0000 0000 fdc6 8735
00000280: a9bc ca35 9ee2 c335 f6c4 68b7 7edb 6c38
00000290: 99d5 a3b8 129a 98b8 ad94 3738 1e53 6537
000002a0: 0000 0000 0000 0000 0000 0000 60c8 9db5
000002b0: 2d98 ebb5 e0a1 e3b5 8a59 1b37 b2a7 7137
000002c0: 7ec1 7db6 60a3 73b7 0347 c2b7 83fb 0b38
000002d0: 0000 0000 0000 0000 0000 0000 9df0 5535
000002e0: 12b9 9f35 3153 9a35 068a 95b8 73f2 e8b8
000002f0: ea43 0a39 c59c a9b8 05ef 7138 3f6d 4637
00000300: 0000 0000 0000 0000 0000 0000 0eea 54b5
00000310: 14f5 9eb5 ce95 99b5 4160 3bb8 2aba 8fb7
00000320: 7317 1438 8674 0738 cae2 8a38 4747 8537
00000330: 0000 0000 0000 0000 0000 0000 eb69 9d35
00000340: 250b eb35 9a19 e335 cf2b b7b8 49e0 11b9
00000350: 4f7b 0e39 8f99 1fb7 cd81 8e38 68e5 a3b7
00000360: 0000 0000 0000 0000 0000 0000 2bbf 80b5
00000370: 423d c0b5 0abe b9b5 6efe 15b9 ba19 34b8
00000380: 23f3 f737 a8fa 6a38 15c3 2338 489b 4fb7
00000390: 0000 0000 0000 0000 0000 0000 b86f beb5
000003a0: 022d 0eb6 ed5e 09b6 6af3 f9b8 2447 2038
000003b0: 7246 07b8 e75b 5836 d254 ee37 6bbc 2c38
000003c0: 0000 0000 0000 0000 0000 0000 ea76 f4b5
000003d0: 1383 36b6 0658 30b6 cef3 3637 c730 3bb7
000003e0: 4558 5c37 2374 d137 fd8e edb7 2c05 88b6
000003f0: 0000 0000 0000 0000 0000 0000 4604 7434

exp_avg_sq f4 [128, 12]
0.0 0.0 0.0 1.3268069e-13 2.9581443e-13 2.7615754e-13 6.0807054e-10 5.651188e-10
5.7523164e-10 1.1066329e-09 1.5816971e-09 3.1737868e-10 0.0 0.0 0.0 1.8256301e-12
4.0702793e-12 3.799809e-12 7.290113e-09 7.1477904e-09 6.473238e-09 9.329442e-09 7.59658e-09 1.0444299e-09
0.0 0.0 0.0 3.9702695e-13 8.851793e-13 8.263589e-13 2.2033813e-09 2.7908562e-09
2.1626703e-09 2.6759575e-09 3.3912912e-09 4.5275357e-09 0.0 0.0 0.0 2.7458914e-12
6.1220144e-12 5.7152083e-12 1.0897045e-08 1.3084684e-08 1.3771249e-08 1.4409386e-08 1.2547267e-08 6.7839983e-09
0.0 0.0 0.0 4.1220575e-13 9.190205e-13 8.5795157e-13 2.3197821e-09 2.2502724e-09
2.19435e-09 1.4001513e-09 1.6319665e-09 8.799909e-10 0.0 0.0 0.0 4.1733682e-13
9.304604e-13 8.686319e-13 1.7958884e-09 2.0790165e-09 1.546013e-09 1.7118116e-09 1.7472608e-09 2.132329e-09
0.0 0.0 0.0 3.1769344e-12 7.0830434e-12 6.6123704e-12 1.3119522e-08 1.3609624e-08
1.2300969e-08 1.6531612e-08 2.4641853e-08 3.397089e-10 0.0 0.0 0.0 7.36328e-13
1.6416587e-12 1.5325708e-12 3.840712e-09 4.181804e-09 4.4400608e-09 3.2845264e-09 2.7273586e-09 3.0502545e-10
0.0 0.0 0.0 4.253463e-12 9.483179e-12 8.8530225e-12 1.6724952e-08 1.6528503e-08
1.6317516e-08 2.7146692e-08 2.2557273e-08 3.0094e-10 0.0 0.0 0.0 1.516144e-12
3.3802748e-12 3.1556546e-12 1.2781859e-08 6.9328085e-09 6.440367e-09 6.2568826e-09 1.1504667e-08 2.0870931e-10
0.0 0.0 0.0 6.053406e-13 1.3496186e-12 1.2599371e-12 2.5386386e-09 2.628327e-09
2.639011e-09 3.791832e-09 3.286617e-09 3.0877975e-10 0.0 0.0 0.0 1.2899756e-12
2.876025e-12 2.6849137e-12 6.001572e-09 6.86219e-09 6.490233e-09 1.0294098e-08 7.248834e-09 2.15534e-09
0.0 0.0 0.0 1.5847025e-12 3.5331258e-12 3.298348e-12 9.288603e-09 8.227593e-09
7.598682e-09 6.422119e-09 8.697197e-09 3.6850791e-09 0.0 0.0 0.0 3.3419784e-12
7.45101e-12 6.9558903e-12 1.1183484e-08 1.3513794e-08 1.4508148e-08 1.4021562e-08 1.863358e-08 4.3292595e-10
0.0 0.0 0.0 6.455764e-13 1.4393254e-12 1.3436829e-12 3.697593e-09 2.7599887e-09
2.6729723e-09 5.765401e-09 4.7742685e-09 2.0405702e-09 0.0 0.0 0.0 6.4105964e-12
1.429255e-11 1.3342815e-11 3.1080887e-08 3.0006028e-08 2.8250906e-08 3.461606e-08 3.883778e-08 4.5718532e-10
0.0 0.0 0.0 2.6253155e-12 5.8531947e-12 5.46425e-12 1.1847895e-08 1.03486935e-08
1.0285773e-08 1.0140468e-08 1.3472654e-08 1.3616904e-09 0.0 0.0 0.0 2.262468e-12
5.044219e-12 4.709031e-12 1.2398818e-08 1.3258455e-08 1.1404444e-08 1.1555597e-08 1.3683831e-08 3.5069774e-09
0.0 0.0 0.0 7.710703e-12 1.7191169e-11 1.604881e-11 4.097968e-08 3.17793e-08
2.8502482e-08 2.774287e-08 3.972808e-08 5.4723254e-10 0.0 0.0 0.0 3.0761815e-12
6.8584123e-12 6.40267e-12 2.1454929e-08 1.5718804e-08 1.4091345e-08 1.08041736e-08 1.543875e-08 7.791639e-09
0.0 0.0 0.0 3.0142067e-12 6.7202337e-12 6.273676e-12 1.2683723e-08 1.3213788e-08
1.31162805e-08 1.2568636e-08 1.4557348e-08 1.8315423e-09 0.0 0.0 0.0 5.9480264e-13
00000000: 0000 0000 0000 0000 0000 0000 9b62 152a
00000010: 5a87 a62a 7f76 9b2a 2925 2730 b356 1b30
00000020: 541e 1e30 2f18 9830 0563 d930 147b ae2f
00000030: 0000 0000 0000 0000 0000 0000 a177 002c
00000040: d135 8f2c a3b1 852c 837c fa31 a198 f531
00000050: 346b de31 5247 2032 1d82 0232 9c8b 8f30
00000060: 0000 0000 0000 0000 0000 0000 9d81 df2a
00000070: e427 792b 6f99 682b 4b6a 1731 43c9 3f31
00000080: 199e 1431 f1e3 3731 3a0c 6931 a090 9b31
00000090: 0000 0000 0000 0000 0000 0000 9539 412c
000000a0: 3466 d72c 0516 c92c b635 3b32 0ccb 6032
000000b0: 9896 6c32 268d 7732 778f 5732 ae18 e931
000000c0: 0000 0000 0000 0000 0000 0000 1c0d e82a
000000d0: 3457 812b ed7d 712b 0a6a 1f31 36a3 1a31
000000e0: 6acb 1631 726f c030 b74b e030 dbe3 7130
000000f0: 0000 0000 0000 0000 0000 0000 93f0 ea2a
00000100: 5ef3 822b 867f 742b 35d3 f630 72de 0e31
00000110: 7f7b d430 0445 eb30 4624 f030 5488 1231
00000120: 0000 0000 0000 0000 0000 0000 908e 5f2c
00000130: 6236 f92c f0a6 e82c 4564 6132 c2cf 6932
00000140: 3c54 5332 6601 8e32 02ac d332 c7c1 ba2f
00000150: 0000 0000 0000 0000 0000 0000 0642 4f2b
00000160: fd0a e72b afb0 d72b 43f7 8331 89af 8f31
00000170: 308f 9831 00b6 6131 336c 3b31 84b0 a72f
00000180: 0000 0000 0000 0000 0000 0000 caa7 952c
00000190: 71d4 262d 78be 1b2d 8faa 8f32 90fa 8d32
000001a0: 992a 8c32 3530 e932 f8c3 c132 8a71 a52f
000001b0: 0000 0000 0000 0000 0000 0000 d860 d52b
000001c0: 9edd 6d2c 380f 5e2c 3697 5b32 a135 ee31
000001d0: 114a dd31 1ffc d631 10a6 4532 737a 652f
000001e0: 0000 0000 0000 0000 0000 0000 6363 2a2b
000001f0: 22f1 bd2b 0552 b12b 3474 2e31 049e 3431
00000200: f959 3531 4f49 8231 c7da 6131 e3c0 a92f
00000210: 0000 0000 0000 0000 0000 0000 458c b52b
00000220: dc61 4a2c 1bef 3c2c 6336 ce31 76c8 eb31
00000230: b100 df31 ecd9 3032 6b11 f931 241d 1431
00000240: 0000 0000 0000 0000 0000 0000 ed06 df2b
00000250: 239f 782c c119 682c b593 1f32 5659 0d32
00000260: 5b8b 0232 8ea9 dc31 ad6a 1532 993c 7d31
00000270: 0000 0000 0000 0000 0000 0000 bb2b 6b2c
00000280: 5e14 032d 17bd f42c 7c21 4032 4b2a 6832
00000290: 823f 7932 7be3 7032 ad0f a032 e900 ee2f
000002a0: 0000 0000 0000 0000 0000 0000 afb6 352b
000002b0: 2a91 ca2b 471b bd2b be18 7e31 3caa 3d31
000002c0: 6daf 3731 0119 c631 e90a a431 173a 0c31
000002d0: 0000 0000 0000 0000 0000 0000 858d e12c
000002e0: ec6f 7b2d b2ba 6a2d cc7d 0533 fadf 0033
000002f0: 66ac f232 c3ac 1433 97ce 2633 1d57 fb2f
00000300: 0000 0000 0000 0000 0000 0000 7bbd 382c
00000310: e4f0 cd2c 9741 c02c 988b 4b32 09ca 3132
00000320: 4fb5 3032 4036 2e32 5c75 6732 3926 bb30
00000330: 0000 0000 0000 0000 0000 0000 0035 1f2c
00000340: 497a b12c 2eaf a52c 9402 5532 4dc7 6332
00000350: 46ed 4332 0e86 4632 2016 6b32 66ff 7031
00000360: 0000 0000 0000 0000 0000 0000 eba5 072d
00000370: 1237 972d b52a 8d2d a201 3033 b67d 0833
00000380: 9fd5 f432 374f ee32 7ca1 2a33 116c 1630
00000390: 0000 0000 0000 0000 0000 0000 8f77 582c
000003a0: 164f f12c 2046 e12c e34b b832 0406 8732
000003b0: 6416 7232 429d 3932 2c9e 8432 fedb 0532
000003c0: 0000 0000 0000 0000 0000 0000 1f1b 542c
000003d0: 7c72 ec2c 40bc dc2c 9be7 5932 db02 6332
000003e0: 0356 6132 72ed 5732 e517 7a32 aab9 fb30
000003f0: 0000 0000 0000 0000 0000 0000 0c6c 272b

exp_avg f4 [128]
-1.1383854e-05 -5.6521305e-05 7.655884e-06 -7.226807e-05 2.304225e-05 -1.5318732e-05 -8.162566e-05 -4.1374216e-05
-8.996709e-05 -4.7048525e-05 4.798182e-05 -8.894299e-05 -4.822048e-05 -6.9086076e-05 8.028285e-05 -5.4428336e-05
5.4167434e-05 -8.009512e-05 6.550882e-05 9.689769e-05 0.00012438821 -1.5520049e-05 -9.326055e-05 3.7922815e-05
1.9037292e-05 -3.306617e-05 7.4620206e-05 -4.2840467e-05 1.3373991e-06 0.00010561763 -3.9138908e-05 2.9625138e-05
-6.6114203e-06 3.637179e-05 1.9865738e-05 -0.0001015533 -0.0001236766 -7.724534e-05 0.0001240244 -6.97893e-05
7.7912055e-06 3.3726672e-05 -8.100533e-05 1.3424121e-06 3.6315058e-05 0.0001642177 3.9526854e-05 6.543391e-05
-1.836333e-05 -7.35455e-05 0.000118294265 -5.1074818e-05 1.9149027e-05 -1.2878391e-05 5.3907588e-05 2.7555183e-05
8.7084135e-07 1.3019245e-05 2.6316413e-05 -1.2409131e-05 4.3776363e-05 2.8670114e-05 6.0721297e-05 -9.366333e-06
-1.2801481e-06 2.3845725e-05 7.039204e-05 -2.1519132e-05 -9.302631e-05 9.06896e-06 -5.9453738e-05 9.814068e-05
-4.739184e-05 -0.00011249287 -1.1769511e-06 3.2532484e-05 -0.00013188583 -2.5469764e-05 -2.9287654e-05 5.074232e-06
-0.00011329746 7.6481956e-05 -7.4253614e-05 -0.0001171194 -5.5698958e-05 3.2098199e-06 -8.769695e-05 9.598607e-06
0.000121014615 -3.4204233e-05 7.0298214e-05 -1.1298701e-05 3.379742e-05 -5.6069515e-05 -3.0452706e-05 0.000100411315
-2.4917314e-05 4.06972e-05 7.0491566e-05 0.00011244567 2.9102868e-05 -4.872346e-05 8.194648e-05 -2.6524285e-05
2.8846858e-05 7.2220905e-06 0.00013445465 1.6241505e-05 -6.9319176e-05 -8.188126e-05 -4.34412e-05 -5.4600652e-05
-4.5944886e-05 -2.3915933e-05 5.0016504e-05 -9.908517e-05 4.6718695e-05 -1.2839319e-06 3.9652703e-05 6.299636e-05
0.000103886414 -6.627004e-05 -2.8431854e-05 -9.244726e-06 1.975219e-05 -4.8605612e-05 -6.454064e-05 -4.10213e-05
00000000: 48fd 3eb7 4a11 6db8 c571 0037 a08e 97b8
00000010: db4a c137 ba80 80b7 712e abb8 3a89 2db8
00000020: b7ac bcb8 f855 45b8 1640 4938 e786 bab8
00000030: 5940 4ab8 4ee2 90b8 875d a838 fb49 64b8
00000040: d731 6338 bdf8 a7b8 c861 8938 8d35 cb38
00000050: 356e 0239 0d31 82b7 e094 c3b8 500f 1f38
00000060: 46b2 9f37 88b0 0ab8 6b7d 9c38 9aaf 33b8
00000070: af80 b335 097f dd38 1529 24b8 8083 f837
00000080: abd7 ddb6 ea8d 1838 59a5 a637 03f9 d4b8
00000090: 2faf 01b9 c7fe a1b8 8c0c 0239 d85b 92b8
000000a0: f9b6 0237 bd75 0d38 68e1 a9b8 ee2c b435
000000b0: ff50 1838 da31 2c39 a3c9 2538 9039 8938
000000c0: f30a 9ab7 713c 9ab8 c014 f838 2b39 56b8
000000d0: 39a2 a037 4510 58b7 d51a 6238 4e26 e737
000000e0: c3c3 6935 3b6d 5a37 11c2 dc37 d030 50b7
000000f0: 839c 3738 9a80 f037 ffae 7e38 1824 1db7
00000100: 8ed1 abb5 4e08 c837 709f 9338 fc83 b4b7
00000110: 1f17 c3b8 e326 1837 f75d 79b8 e0d0 cd38
00000120: 9ac6 46b8 26ea ebb8 bbf7 9db5 7d73 0838
00000130: d54a 0ab9 e7a7 d5b7 c2ae f5b7 5243 aa36
00000140: 1c9a edb8 f064 a038 9bb8 9bb8 009e f5b8
00000150: 4d9e 69b8 4968 5736 f1e9 b7b8 b409 2137
00000160: 3ac9 fd38 8476 0fb8 116d 9338 8d8f 3db7
00000170: b4c1 0d38 2f2c 6bb8 b074 ffb7 ea93 d238
00000180: 8605 d1b7 49b2 2a38 dfd4 9338 cfd0 eb38
00000190: ef21 f437 6b5c 4cb8 aeda ab38 7880 deb7
000001a0: 28fc f137 4955 f236 65fc 0c39 5e3e 8837
000001b0: 735f 91b8 abb7 abb8 a234 36b8 0103 65b8
000001c0: f2b4 40b8 139f c8b7 d0c8 5138 f2cb cfb8
000001d0: d1f3 4338 9053 acb5 c450 2638 ea1c 8438
000001e0: 98dd d938 75fa 8ab8 f180 eeb7 cc19 1bb7
000001f0: 81b1 a537 e1dd 4bb8 fe59 87b8 490e 2cb8

exp_avg_sq f4 [128]
6.1880545e-10 8.5145055e-09 1.8516826e-09 1.2806482e-08 1.9224744e-09 1.9464053e-09 1.4816821e-08 3.4341405e-09
1.9837596e-08 7.0711037e-09 2.8232297e-09 6.016279e-09 7.3908444e-09 1.558656e-08 3.010885e-09 2.9898207e-08
1.2244135e-08 1.0551861e-08 3.5961744e-08 1.4346918e-08 1.4057884e-08 2.7740839e-09 3.0284436e-08 1.9160725e-08
6.361402e-09 1.1808765e-08 5.259106e-09 1.1734454e-08 3.5411343e-08 1.8685549e-08 8.594075e-09 3.746946e-09
1.0275142e-09 8.321645e-09 1.5783509e-09 1.6591756e-08 1.6993894e-08 8.921632e-09 1.5487636e-08 5.9948606e-09
1.9920556e-09 8.989031e-09 2.9312414e-08 4.5717945e-09 1.0418656e-08 2.5422525e-08 3.999604e-09 1.3070983e-08
6.955017e-09 8.7577865e-09 2.8461049e-08 5.9889866e-09 4.959934e-09 6.5099335e-09 1.1615348e-08 3.3209953e-09
1.4800323e-08 2.9019784e-09 8.760926e-09 1.2666291e-09 5.7453526e-09 2.53937e-09 8.380647e-09 6.3195142e-09
6.0198846e-09 2.622926e-09 5.530961e-09 3.0021354e-09 1.13800045e-08 2.253175e-09 1.0333406e-08 1.7471926e-08
3.2774234e-09 2.3499188e-08 5.2496363e-10 6.9485226e-09 4.2671758e-08 5.1692077e-09 7.257443e-09 1.508416e-09
2.5253609e-08 9.440932e-09 1.7426002e-08 2.0645048e-08 4.7319695e-09 5.235825e-09 1.604853e-08 2.1811402e-09
1.7197863e-08 1.6774075e-09 1.3259308e-08 5.3696434e-09 1.9663366e-08 7.157315e-09 4.607803e-09 2.0897538e-08
5.1341393e-09 5.924184e-09 1.0380976e-08 5.997353e-08 6.4874705e-08 4.514232e-09 7.4193296e-09 8.047213e-10
2.2785238e-09 1.7154548e-08 1.7519305e-08 2.8788705e-09 1.9678424e-08 1.3860735e-08 8.582366e-09 1.9137177e-08
1.1505806e-08 4.7274984e-09 5.510605e-09 5.9336553e-09 4.01209e-09 4.0541432e-09 1.1467206e-08 2.9793712e-09
1.3603302e-08 6.848462e-09 7.917369e-09 3.042719e-08 3.305529e-08 2.426049e-09 1.7167622e-08 2.8225806e-09
00000000: 9018 2a30 3147 1232 4a7e fe30 8103 5c32
00000010: 871c 0431 86c1 0531 118d 7e32 0afe 6b31
00000020: 5667 aa32 16f6 f231 c802 4231 c0b7 ce31
00000030: 8ef2 fd31 35e3 8532 0de8 4e31 6d69 0033
00000040: 465a 5232 9347 3532 5b74 1a33 6a7a 7632
00000050: 3a83 7132 33a2 3e31 1712 0233 e196 a432
00000060: 7c93 da31 7fdf 4a32 96b3 b431 ad98 4932
00000070: 2f17 1833 f581 a032 24a5 1332 7cbe 8031
00000080: 7138 8d30 fbf6 0e32 49ed d830 a885 8e32
00000090: f8f9 9132 c145 1932 ac09 8532 5afb cd31
000000a0: 9de4 0831 2d6e 1a32 aeca fb32 ee15 9d31
000000b0: bcfd 3232 b960 da32 e46c 8931 cb8e 6032
000000c0: faf8 ee31 2775 1632 827a f432 afc7 cd31
000000d0: 0a6c aa31 fbad df31 d78c 4732 9137 6431
000000e0: 8244 7e32 256c 4731 f682 1632 8d15 ae30
000000f0: a868 c531 1281 2e31 7afa 0f32 0923 d931
00000100: 77d7 ce31 013f 3431 d90a be31 204e 4e31
00000110: ca81 4332 46d6 1a31 cd86 3132 2c15 9632
00000120: 0b39 6131 43db c932 084d 1030 dabf ee31
00000130: 1846 3733 d59c b131 255d f931 ab50 cf30
00000140: 46ed d832 a831 2232 2fb0 9532 f156 b132
00000150: d896 a231 cee6 b331 17db 8932 06e3 1531
00000160: 80ba 9332 888a e630 0ecb 6332 e27f b831
00000170: 33e8 a832 69ec f531 aa52 9e31 2c82 b332
00000180: 5e68 b031 ac8d cb31 0458 3232 ccca 8033
00000190: 3f51 8b33 9b1b 9b31 1ded fe31 3a33 5d30
000001a0: 3794 1c31 405b 9332 5c7d 9632 a0d5 4531
000001b0: 5009 a932 2820 6e32 a571 1332 1963 a432
000001c0: 12ab 4532 846f a231 cb57 bd31 fce0 cb31
000001d0: b8da 8931 9f4c 8b31 4e01 4532 a7bd 4c31
000001e0: f4b3 6932 b54f eb31 f504 0832 0daf 0233
000001f0: adf8 0d33 81b7 2631 0078 9332 5df7 4131
