results/Roller2/Roller2.onnx (onnx, 82324 bytes, 10 tensors)

network_body.observation_encoder.processors.0.normalizer.running_mean f4 [12]
0	0x00000000	0.0
1	0x00000000	0.0
2	0x00000000	0.0
3	0x3e8cfb4e	0.2753548
4	0xc19f6f01	-19.929201
5	0x3cb22b71	0.02174923
6	0xc0d1e194	-6.5587864
7	0xc0575e86	-3.3651443
8	0x3fdd6ba5	1.7298476
9	0xbe05530e	-0.13019964
10	0x3e3aa7f4	0.18228132
11	0x41990324	19.126534

network_body._body_endoder.seq_layers.0.weight f4 [128, 12]
0	0x3ea36fe4	0.31921303
1	0xbe0a438e	-0.13502333
2	0xbe5e2ed8	-0.21697557
3	0xbd9e4bcc	-0.07729301
4	0x3ee7990e	0.4523396
5	0x3d93f8fc	0.072252244
6	0x3e36cc79	0.17851438
7	0xbe9b3b7d	-0.30318823
8	0xbeb05152	-0.34437042
9	0xbe16eb5c	-0.1473822
10	0x3ed77a28	0.42085385
11	0x3e842a0a	0.25813323
12	0x3c44e67b	0.012017841
13	0x3e5f8b9f	0.21830605
14	0xbe821a0f	-0.25410506
15	0x3ee9b0d0	0.4564271
16	0xbdacdd65	-0.08440665
17	0xbe98eafc	-0.2986678
18	0xbd455498	-0.048176378
19	0x3e19cee9	0.15020336
20	0x3d0fb95f	0.035088893
21	0x3da8f996	0.0825073
22	0x3df49716	0.1194288
23	0xbf1264dc	-0.5718515
24	0xbe1a87de	-0.15090892
25	0x3df4f56b	0.11960872
26	0x3ef24277	0.47316334
27	0xbd9a7986	-0.0754271
28	0xbed73c55	-0.42038217
29	0xbf079e47	-0.5297589
30	0xbd7f92fa	-0.062396027
31	0xbf086fb8	-0.5329547
32	0x3e3a5ed1	0.18200232
33	0xbcb683a1	-0.022279562
34	0xbe108d43	-0.14116387
35	0x3d4c029f	0.049807187
36	0x3e854d11	0.2603536
37	0x3dd6345a	0.10459204
38	0x3ed08239	0.40724352
39	0x3e90d9e4	0.28291237
40	0xbed004f7	-0.40628788
41	0xbd04e34e	-0.032443337
42	0x3dc17180	0.094454765
43	0x3ec75465	0.38931575
44	0x3e308061	0.17236473
45	0x3dea7806	0.11448674
46	0xbefc8381	-0.4931908
47	0x3e3dcc5d	0.1853499
48	0xbc6f2cc2	-0.014598073
49	0xbe84c31e	-0.25930113
50	0xbd828c0e	-0.063743696
51	0xbf005917	-0.5013594
52	0xbd33c90d	-0.04389291
53	0xbddc81df	-0.107669584
54	0x3e2f92cb	0.17145841
55	0xbaa0a7ff	-0.0012257098
56	0xbbffde97	-0.007808517
57	0x3e7daf20	0.24773836
58	0x3ef0229e	0.4690141
59	0x3e00cadf	0.12577389
60	0xbe38c151	-0.18042494
61	0x3e3b8299	0.18311538
62	0xbce1268c	-0.0274842
63	0xbe118239	-0.14209832
64	0x3ebc4e2a	0.36778384
65	0xbee18a26	-0.4405071
66	0x3ebd7651	0.3700433
67	0xbde28593	-0.110606335
68	0x3f1a4e4c	0.6027572
69	0xbe066d5e	-0.13127658
70	0xbe5e492d	-0.21707602
71	0x3d3dc96f	0.04633468
72	0x3d75cc52	0.06000931
73	0x3e84ce83	0.25938806
74	0x3d853d4c	0.06505832
75	0x3dcbd536	0.09952776
76	0xbe4207af	-0.18948244
77	0xbde8bd70	-0.11364257
78	0xbe16d268	-0.14728701
79	0x3e64cbc2	0.22343352
80	0x3e74c0d6	0.23901686
81	0x3dd8368a	0.105572775
82	0x3efff2cd	0.4998993
83	0x3e8b51a8	0.27210736
84	0xbe276e71	-0.16350724
85	0xbd8c3879	-0.06846709
86	0x3f0e24ab	0.555247
87	0xbecafaff	-0.3964462
88	0x3e9339de	0.28755087
89	0x3d21cef4	0.039504007
90	0xbe1ae667	-0.15126954
91	0xbe2edde6	-0.17076835
92	0x3e04e67c	0.12978548
93	0xbeec8422	-0.4619456
94	0x3ee59af6	0.44844788
95	0xbcf208ca	-0.029545207
96	0x3f6859df	0.9076213
97	0xbec3992f	-0.38202807
98	0xbe747b60	-0.23875189
99	0xbf0fe77c	-0.5621259
100	0x3e81bf7b	0.253414
101	0xbdad7a55	-0.084705986
102	0x3ec58643	0.38578996
103	0xbe188c5e	-0.14897296
104	0xbe4dd782	-0.20101741
105	0xbe036339	-0.12830819
106	0xbe88275e	-0.26592535
107	0xbe405326	-0.18781719
108	0xbd196a43	-0.037454855
109	0xbddd8811	-0.10816968
110	0x3e2e39ab	0.17014186
111	0xbe98bfc3	-0.29833803
112	0xbd60af3f	-0.054854628
113	0x3e835477	0.2565038
114	0xbd9642df	-0.073369734
115	0x3f00c868	0.50305796
116	0xbda4bd74	-0.08043948
117	0xbecd20c6	-0.40064067
118	0xbf74188c	-0.95349956
119	0x3eb5dca7	0.35519907
120	0x3dded6b0	0.10880792
121	0x3f39bc0f	0.7255258
122	0xbec8b42a	-0.39199954
123	0xbd6767f0	-0.056495607
124	0xbd8b827f	-0.068119995
125	0xbe0acafa	-0.13553992
126	0x3e4e1bd5	0.20127805
127	0xbde27b77	-0.11058705
128	0x3cd5e266	0.026108932
129	0x3e1302e7	0.14356576
130	0xbe7f78c4	-0.24948412
131	0xbdedbb58	-0.116079986
132	0xbcdfba14	-0.027310409
133	0x3effe3d3	0.49978504
134	0x3d4264ad	0.047459293
135	0xbdd53553	-0.104105614
136	0xbe0513c2	-0.12995818
137	0xbd38356e	-0.04497283
138	0x3e10a405	0.14125068
139	0x3e409dab	0.18810146
140	0x3e7df8ed	0.24801989
141	0xbe5ce19d	-0.2157044
142	0xbf047930	-0.5174742
143	0x3edc691e	0.43048948
144	0xbd11927b	-0.035540085
145	0x3d350d1a	0.044201948
146	0x3e14fe18	0.14550054
147	0x3e65b466	0.22432098
148	0x3add7121	0.0016894677
149	0x3f0baf6a	0.54564536
150	0x3e714574	0.2356165
151	0xbe591a0f	-0.21201347
152	0x3edd08bb	0.43170723
153	0xbe31ceb4	-0.17364007
154	0xbe28c182	-0.16480067
155	0xbe07e374	-0.1327036
156	0x3e756ca6	0.23967227
157	0x3e1767ca	0.14785686
158	0xbeb33c8a	-0.35007125
159	0xbe8b2fdb	-0.27184948
160	0x3e52ad46	0.20573911
161	0xbc4602f0	-0.012085661
162	0xbc74be79	-0.01493799
163	0x3f21210f	0.6294107
164	0xbd56bb29	-0.052424584
165	0x3e7a24ce	0.24428102
166	0xbe1234cb	-0.14277951
167	0xbdb2a87c	-0.08723542
168	0x3e8b31b4	0.27186358
169	0xbebf0e6b	-0.37315688
170	0x3bc35705	0.0059613013
171	0xbda0ef68	-0.07858163
172	0x3ec04615	0.37553468
173	0x3db9367c	0.09043595
174	0xbdad712f	-0.08468854
175	0xbd66e363	-0.056369197
176	0xbe6568bc	-0.22403234
177	0x3db4554f	0.08805334
178	0xbebf6d65	-0.3738815
179	0x3dd0c561	0.10193897
180	0xbe0818a1	-0.13290645
181	0xbee86b8b	-0.4539455
182	0xbe2c3561	-0.16817237
183	0xbe4f7c2f	-0.20262216
184	0x3d8683db	0.06568118
185	0xbe99dc21	-0.30050758
186	0xbdf0e806	-0.11763005
187	0xbce12229	-0.02748211
188	0x3d200068	0.039062887
189	0xbc04d270	-0.008106813
190	0xbe32e496	-0.17470011
191	0x3e0dc587	0.13844882
192	0x3ee394f2	0.44449574
193	0x3e933e1c	0.28758323
194	0xbea3a33c	-0.31960475
195	0x3da26733	0.0792984
196	0x3e9af8ff	0.30268094
197	0xbe7ad097	-0.24493633
198	0x3e329f93	0.17443685
199	0xbd8b6b37	-0.06807559
200	0xbdfa9811	-0.122360356
201	0x3e779f9f	0.24181984
202	0x3cf5d712	0.03000978
203	0x3ef738d2	0.48285538
204	0x3ef63e22	0.4809428
205	0x3eb36c52	0.3504358
206	0x3e189f4f	0.14904521
207	0x3da4c1fc	0.08044812
208	0x3e8a63a7	0.27029154
209	0x3d984dd6	0.07436721
210	0xbe834f9a	-0.2564667
211	0x3ddb1897	0.106980495
212	0xbef09cbc	-0.4699458
213	0xbe895e46	-0.26829737
214	0x3ed7dcd4	0.42160666
215	0x3e575911	0.2103007
216	0x3e4440a2	0.1916528
217	0x3d83797e	0.06419657
218	0x3e3976ec	0.18111771
219	0x3f049561	0.51790434
220	0x3e84d5b6	0.25944299
221	0xbe7cf613	-0.24703245
222	0xbe8fe8f2	-0.2810741
223	0x3ed8d718	0.42351604
224	0xbdf476da	-0.11936732
225	0x3d979b61	0.07402683
226	0x3d33c79c	0.043891534
227	0x3e25d7e2	0.16195634
228	0x3e41fb50	0.18943524
229	0xbe97d2d1	-0.29653028
230	0xbdb1f918	-0.08690089
231	0x3e82b7fa	0.25530988
232	0xbe2ae048	-0.16687119
233	0x3f64035b	0.8906762
234	0x3d991b34	0.07475892
235	0xbebab9b5	-0.36469808
236	0xbe3b9c8c	-0.18321437
237	0xbebda5e3	-0.37040624
238	0xbd75f71c	-0.060050115
239	0xbf034b16	-0.5128645
240	0x3e11e8ce	0.14248964
241	0x3db3f7a7	0.0878747
242	0x3e999830	0.29998922
243	0x3eaee5f9	0.3415983
244	0x3f0e4e4c	0.5558822
245	0x3e43728d	0.19086666
246	0x3ec6e4a1	0.38846305
247	0x3e8275e3	0.25480565
248	0xbecea2de	-0.40358633
249	0x3e9304c3	0.2871457
250	0xbed8e6d4	-0.42363608
251	0x3da7ec46	0.081993625
252	0xbe6618e8	-0.22470438
253	0xbe793800	-0.24337769
254	0xbd3da5a5	-0.04630055
255	0xbd334fb1	-0.04377717

network_body._body_endoder.seq_layers.0.bias f4 [128]
0	0xbbd7d658	-0.006586831
1	0x3c6e1930	0.014532372
2	0x3c85eb12	0.016347442
3	0xbc80c100	-0.01571703
4	0xbbb72f22	-0.0055903355
5	0xbcc9658e	-0.024584558
6	0x3bb9567e	0.0056560626
7	0xbc39def4	-0.01134466
8	0xbc497270	-0.01229535
9	0x3b9691d8	0.0045950226
10	0x3b4f0b42	0.0031592404
11	0x3bae6764	0.0053223837
12	0x3ccbc0c4	0.024872191
13	0xbc06934a	-0.008213827
14	0x3c14caf3	0.00908159
15	0xbd04b2f3	-0.03239722
16	0x3b337a8e	0.002738628
17	0x3b89b7d4	0.004202822
18	0x3c2a083f	0.010377943
19	0x3d56272e	0.05228346
20	0x3c1855a6	0.009297764
21	0xbbfa58f2	-0.0076399976
22	0xbc038df4	-0.00802945
23	0x3c48db2f	0.012259289
24	0x3cad1bfb	0.021131506
25	0xbc59c3c6	-0.013291305
26	0xbc78ad2c	-0.015178006
27	0xbd74e3e0	-0.05978763
28	0x3c8d7e0a	0.017272014
29	0xbbadff68	-0.005309988
30	0xbb351cbe	-0.002763554
31	0x3b962a3c	0.0045826714
32	0x3c83b56b	0.016077718
33	0xbcc4a515	-0.024004498
34	0x3d16fc2c	0.036861584
35	0xba59d50a	-0.00083096384
36	0xbc17473a	-0.00923329
37	0xbc195dde	-0.009360759
38	0xbcb82c32	-0.022482011
39	0xbb93ac26	-0.0045066057
40	0xbc674334	-0.014115144
41	0x3b88cf39	0.0041750935
42	0xbc1f60b5	-0.009727647
43	0x3cac0bdd	0.02100175
44	0x3c1f27fc	0.009714123
45	0xbc8311b1	-0.015999647
46	0xbbdbd401	-0.0067086224
47	0x3c902754	0.017596878
48	0xbb369f28	-0.002786586
49	0xbb49fdb0	-0.0030821376
50	0xbc1e0c8c	-0.009646546
51	0xbc218c61	-0.009860129
52	0xbc08dd8f	-0.008353605
53	0xbb700618	-0.0036624726
54	0xbb0fa18b	-0.0021916355
55	0xbaab7fe7	-0.0013084383
56	0xbcac77f6	-0.021053296
57	0xbc846f11	-0.016166242
58	0xbc971507	-0.018442644
59	0xbccd905b	-0.025093248
60	0xbc811061	-0.01575488
61	0xbc2beb59	-0.010493123
62	0xbcc9a2c8	-0.024613753
63	0xbbb8b2ce	-0.0056365496
64	0x3c7e8d97	0.015536687
65	0xbcb470ad	-0.022026384
66	0xbc68d6aa	-0.014211336
67	0x3c4d24ac	0.01252095
68	0x3ce3646a	0.027757842
69	0xbd0c0c3c	-0.034191355
70	0x3c4acc3b	0.012377794
71	0x3c0ca21b	0.008583571
72	0xbc27be82	-0.010238292
73	0xbb5aa440	-0.003336206
74	0x3c2a3c00	0.010390282
75	0xbc21276d	-0.00983606
76	0x3bd12ea5	0.0063837343
77	0x3c130634	0.008973647
78	0x3d029782	0.03188277
79	0xbcf04554	-0.029329933
80	0xbba0fa62	-0.0049126605
81	0x3c8d8bb8	0.017278537
82	0xbc7f4761	-0.015580983
83	0xbc108863	-0.00882158
84	0xbab8928a	-0.0014081758
85	0x3abd11f8	0.0014424911
86	0x3c60545c	0.013691988
87	0x3c0cb57d	0.008588192
88	0xbc807e12	-0.015685115
89	0xbba30ee0	-0.0049761385
90	0xbc4d3fb6	-0.012527397
91	0xbbaad1b5	-0.0052129873
92	0xba9e3376	-0.001206978
93	0x3c712494	0.014718194
94	0xbae9ea0a	-0.0017846238
95	0xbc61a1a8	-0.013771452
96	0x3c5d947f	0.013524174
97	0x3c288c3e	0.010287343
98	0xbccac7aa	-0.02475341
99	0xbcdc0c64	-0.026861377
100	0xbc96d902	-0.018414024
101	0x3bdde1a5	0.0067712837
102	0xbc6db5b6	-0.014508655
103	0xbbc24e3d	-0.005929737
104	0xbb405c3c	-0.002935185
105	0xbc90c53b	-0.017672172
106	0x3b7b75a1	0.0038369673
107	0xbcb6ac04	-0.02229882
108	0x3c4a01d2	0.012329536
109	0x38640c5f	5.4370958e-05
110	0xbcd75319	-0.026284741
111	0xbc1ff14f	-0.009762122
112	0x3c874430	0.016512007
113	0x3c79a5f0	0.0152373165
114	0xbbb09204	-0.0053885
115	0x3b7feae3	0.0039049916
116	0x3c702b2f	0.014658733
117	0xbcb4da9f	-0.022076903
118	0x3c72733b	0.014797981
119	0x3c68e3ff	0.014214515
120	0xbb4d80b7	-0.0031357238
121	0x3c489c8d	0.012244356
122	0x3c55d0f4	0.013050307
123	0xbb2d4ba3	-0.0026442788
124	0x3c18424a	0.009293148
125	0xba378644	-0.0007000903
126	0x3c556a5b	0.013025845
127	0x39ba87e8	0.00035577943

network_body._body_endoder.seq_layers.2.weight f4 [128, 128]
0	0xbdaf97e3	-0.08573892
1	0x3d53d06b	0.051712435
2	0x3d7f1c8c	0.062283084
3	0x3c386f2a	0.011256972
4	0x3d9b894a	0.07594545
5	0xbd3d7d9f	-0.04626238
6	0xbe0da095	-0.13830788
7	0x3d83547d	0.06412599
8	0x3dd9b66f	0.106304996
9	0x3e4b65a2	0.19862989
10	0x3c3e8dda	0.0116305
11	0x3cc844e7	0.024446918
12	0xbd26e97e	-0.04075002
13	0xbe132702	-0.14370349
14	0x3d53d446	0.05171611
15	0x3e6716a1	0.22567226
16	0xbde3df0d	-0.11126528
17	0xbd1ccfcf	-0.03828412
18	0x3c8e6355	0.01738135
19	0x3d7cb44e	0.06169539
20	0x3dbdb70b	0.09263428
21	0xbe806dee	-0.2508387
22	0xbe6000d1	-0.21875311
23	0xbe0bea57	-0.13663612
24	0x3d96237e	0.07330988
25	0x3d486013	0.04891975
26	0xbd41858a	-0.047246493
27	0xbd27fc5f	-0.041012164
28	0xbc967cb1	-0.018370004
29	0xbdb336c9	-0.08750684
30	0xbc460621	-0.012086422
31	0x3d8120c4	0.06305078
32	0x3e67c196	0.22632441
33	0xbdbaffb9	-0.091308065
34	0xbce88962	-0.028385822
35	0xbce7050c	-0.028200649
36	0xbd5961d9	-0.05307183
37	0xbdd62fa0	-0.104583025
38	0xbd2288a6	-0.0396811
39	0xbd9fdb28	-0.078054726
40	0xbc4505bc	-0.012025293
41	0x3d5d7a66	0.054071806
42	0x3d306eb2	0.043074317
43	0x3d3ac1b7	0.045594897
44	0x3cc81d54	0.024428047
45	0xbd9a9eb1	-0.07549799
46	0x3d8d5087	0.06900125
47	0x3d9cf84f	0.076645486
48	0x3e2a1672	0.16610125
49	0xbd83bdce	-0.06432687
50	0xbd3328f8	-0.043740243
51	0xba1dee14	-0.0006024551
52	0x3d4152f7	0.047198262
53	0xbd7f6f8d	-0.062362242
54	0xbc54fdae	-0.012999935
55	0xbd1f273f	-0.038855787
56	0xbdab6300	-0.08368492
57	0x3dc5641a	0.096382335
58	0xbe4d39f5	-0.2004164
59	0xbd1f07b5	-0.03882571
60	0x3db83ffd	0.0899658
61	0xbe10dd79	-0.14146985
62	0x3b10722e	0.0022040713
63	0xba4dd356	-0.0007851621
64	0x3cb305ae	0.021853294
65	0xbda1e6f8	-0.07905382
66	0xbdce8217	-0.100834064
67	0x3dd783c7	0.105231814
68	0x3d8d67e2	0.0690458
69	0x3d7b0a85	0.06128933
70	0x3cd75965	0.026287744
71	0xbde1fb46	-0.11034255
72	0xbe697cd3	-0.22801523
73	0xbd784961	-0.060616855
74	0xbd8ce10d	-0.068788625
75	0xbdf69451	-0.12040008
76	0xbb701b02	-0.0036637192
77	0xbde28089	-0.110596724
78	0xbdba4056	-0.09094302
79	0xbe0ea065	-0.13928373
80	0xbdeadf2b	-0.11468347
81	0xbdb15abd	-0.08659885
82	0xbd922a8f	-0.07137024
83	0xbc2a7d6e	-0.010405881
84	0x3bf41785	0.007449093
85	0xbddd7123	-0.10812595
86	0xbdc1d649	-0.094647
87	0x3b2e543a	0.0026600496
88	0xbd85fe78	-0.06542677
89	0xbe4435ee	-0.19161198
90	0x3dde348f	0.108498685
91	0x3c97c2ca	0.0185255
92	0x3d88a077	0.06671231
93	0x3ba7ded3	0.0051229983
94	0xbdcf52ec	-0.10123238
95	0xbd503dbe	-0.050840132
96	0xbdbebc50	-0.093132615
97	0x3dfe1f20	0.124082804
98	0xbcffe615	-0.031237641
99	0xbd935599	-0.07194061
100	0x3c1c6f00	0.009547949
101	0xbdabd604	-0.083904296
102	0x3e0a2497	0.1349052
103	0x3e29fc5c	0.16600174
104	0xbd84ee21	-0.06490732
105	0xbda5715d	-0.08078263
106	0x3ca44074	0.020050265
107	0xbdd85220	-0.10562539
108	0x3d833446	0.06406455
109	0xbe054d7f	-0.13017844
110	0xbdc9067f	-0.09815692
111	0x3d9ac0d3	0.075563096
112	0x3c8d7401	0.017267229
113	0x3e0c7816	0.13717684
114	0xbd6b6570	-0.057469785
115	0xbae3eed2	-0.00173899
116	0xbdcd4904	-0.10023692
117	0xbdadf884	-0.08494666
118	0xbd41fde5	-0.047361273
119	0x3c4e84ea	0.012604931
120	0x3e127141	0.14301015
121	0x3d79157e	0.060811512
122	0xbd1cfa5a	-0.03832469
123	0xba69d948	-0.0008920622
124	0x3c2cdc37	0.01055055
125	0x3deb2bdf	0.11482977
126	0xbc80dc23	-0.01572997
127	0xbdcb0ed7	-0.0991494
128	0x3d8c43b1	0.068488486
129	0xbbb18812	-0.005417832
130	0xbd955a95	-0.07292668
131	0xbd463d15	-0.048398096
132	0x3d90fe0b	0.07079705
133	0x3e5f79a5	0.21823747
134	0xbd295805	-0.041343708
135	0xbd1f967b	-0.03896187
136	0x3d36b0eb	0.044602316
137	0x3d8e246e	0.06940542
138	0xbc359342	-0.011082472
139	0xbd340157	-0.04394659
140	0xbe1c4bf1	-0.15263344
141	0xbd013df4	-0.031553224
142	0xbdfec807	-0.12440496
143	0xbdefaece	-0.11703263
144	0x3d9d32c5	0.07675699
145	0xbd54db64	-0.05196704
146	0x3d92a6ee	0.071607456
147	0xbe0c26b1	-0.13686635
148	0xbb57ec8b	-0.0032947387
149	0x3e01a328	0.12659895
150	0x3e53fa92	0.20701054
151	0x3d95222a	0.07281907
152	0xbc2ad9ab	-0.010427873
153	0x3dd05f59	0.10174436
154	0xbc884874	-0.01663611
155	0x3c244c06	0.010027891
156	0x3dfa11a0	0.12210393
157	0x3dbda23b	0.09259459
158	0x3d48c34d	0.04901438
159	0x3dd01949	0.10161073
160	0x3e11cd40	0.14238453
161	0x3de4e826	0.11177091
162	0xbcfdcc3b	-0.030981174
163	0xbd1fb6f0	-0.038992822
164	0xbd6963e2	-0.05698002
165	0x3b362552	0.002779324
166	0xbd4dcfdb	-0.050247055
167	0x3b04ee8b	0.0020283784
168	0xbde6697b	-0.112505876
169	0xbddc96d7	-0.10770958
170	0xbd2dacc8	-0.042401105
171	0xbdd2ddae	-0.10296188
172	0xbd6c4a84	-0.05768825
173	0xbc4e5527	-0.012593544
174	0xbcbe49c0	-0.023228526
175	0xbe62d3d5	-0.2215112
176	0x3d81d0eb	0.06338676
177	0x3dcf5624	0.10123852
178	0xbdc7893f	-0.097429745
179	0xbde6cac1	-0.11269141
180	0x3decb9eb	0.115588985
181	0x3d210f47	0.03932121
182	0xbd2b5d7b	-0.041837197
183	0x3dcfbda1	0.10143591
184	0x3dae2aa4	0.08504227
185	0x3e40657d	0.18788715
186	0x3d29fd2b	0.041501205
187	0x3d9ce395	0.07660595
188	0x3ac0cf60	0.001471024
189	0xbd9bc305	-0.076055564
190	0xbd77ad0d	-0.06046777
191	0xbdacd080	-0.08438206
192	0xbdd5ea8e	-0.104451284
193	0x3d9dbe48	0.07702309
194	0x3e2ed858	0.17074716
195	0xbdcda7aa	-0.10041745
196	0xbdf3491d	-0.118791796
197	0x3d9c98b2	0.07646312
198	0x3d537ada	0.051630832
199	0xbd87cfb4	-0.06631413
200	0x3aa33cf8	0.0012454083
201	0xbe18fe89	-0.14940847
202	0x3d848654	0.064709336
203	0x3d833abe	0.064076886
204	0x3cf77924	0.030209132
205	0x3d5addb2	0.05343408
206	0xbca7d512	-0.020487342
207	0xbe0f2650	-0.13979459
208	0x3d7ad559	0.06123862
209	0x3e1107cc	0.1416313
210	0x3cb29886	0.021801244
211	0x3c8d2da3	0.017233675
212	0xbd72fc01	-0.05932236
213	0xbe1ca2a0	-0.15296412
214	0xbdc88c68	-0.09792405
215	0xbe46d3ce	-0.19416735
216	0xbcd324ff	-0.025774477
217	0x3ce78182	0.028259996
218	0xbd5757d6	-0.052574
219	0x3c4f907f	0.012668728
220	0xbdbb004c	-0.09130916
221	0x3d0f174f	0.03493434
222	0x3ce70eef	0.028205363
223	0xbd20bb77	-0.03924128
224	0x3dccbf25	0.099973954
225	0x3d618edb	0.05506788
226	0x3d4b3819	0.049614046
227	0xbdf909cf	-0.12160074
228	0x3d7cd396	0.06172522
229	0xbd536232	-0.05160732
230	0xbd81c533	-0.06336441
231	0x3da2755d	0.079325415
232	0xbdf6dfa6	-0.12054376
233	0x3cdcd838	0.02695857
234	0x3cefa98a	0.029255647
235	0xbe0788d3	-0.13235788
236	0x3e1b66b1	0.15175892
237	0x3dd3546c	0.103188366
238	0xbe4bb11f	-0.19891785
239	0x3c6d245d	0.014474002
240	0x3d4938c1	0.04912639
241	0xbddfdcd6	-0.10930793
242	0x3e347320	0.17622042
243	0xbced5aa1	-0.02897388
244	0x3d032647	0.032018926
245	0xbe042a5b	-0.12906782
246	0xbe0dbd03	-0.13841633
247	0xbbe1cb35	-0.0068906792
248	0x3d118582	0.035527714
249	0x3ddafd91	0.10692895
250	0x3be160a6	0.0068779765
251	0x3d93fc2f	0.072258346
252	0x3dacdd54	0.084406525
253	0x3c7b1f4f	0.015327289
254	0xbc12f7b0	-0.008970186
255	0x3dc39cb5	0.09551374

network_body._body_endoder.seq_layers.2.bias f4 [128]
0	0x3ceac04c	0.028656147
1	0xbc18a27f	-0.009316086
2	0xbc4691ab	-0.012119691
3	0xbaf7251b	-0.0018855663
4	0x3c55bc91	0.013045446
5	0x3bf35fa9	0.007427175
6	0xbc359b5a	-0.011084402
7	0xbcdb6b4a	-0.026784558
8	0x3bb23544	0.0054384787
9	0xbc577903	-0.01315141
10	0xbc634c03	-0.013873103
11	0xbc6c1752	-0.014409857
12	0x3b7c6173	0.0038510233
13	0x3c457bda	0.012053454
14	0x3a11340a	0.00055390655
15	0xbc37cbbb	-0.011218007
16	0xbca82af4	-0.020528294
17	0xbcdd2978	-0.026997313
18	0x3bc0a31a	0.005878818
19	0x3c3ee76e	0.011651857
20	0x3c6ee2ea	0.014580468
21	0x3c6e6253	0.0145498095
22	0xbc62a46c	-0.013833147
23	0xbc76e63c	-0.015069541
24	0x3beefe59	0.007293504
25	0xbcb9a831	-0.022663208
26	0xbcc2dcd5	-0.023786942
27	0xbbbdd028	-0.0057926364
28	0x3c60578d	0.013692749
29	0xbbf09d64	-0.007342981
30	0x3c1cdc1a	0.009573961
31	0xbc788dd7	-0.015170536
32	0x3c5a3fa2	0.013320835
33	0x3c9ce5ab	0.019152483
34	0x3bf5adf3	0.007497543
35	0x3b241ab5	0.0025040333
36	0x3c286191	0.010277168
37	0xbaa98d7b	-0.0012935841
38	0xbc02b099	-0.0079766745
39	0xbbe1f5bf	-0.0068957503
40	0x3bfac109	0.007652406
41	0x3cc8572f	0.024455635
42	0xbcb1f92b	-0.021725258
43	0xbcd342cc	-0.025788687
44	0xbc962c2e	-0.018331613
45	0xbca7958b	-0.02045705
46	0x3c567a48	0.013090678
47	0x3c459348	0.01205904
48	0xbca17655	-0.019709745
49	0x3c5be8ed	0.013422233
50	0xbc315e01	-0.010825635
51	0xbc6fdda7	-0.014640248
52	0xbc0a51b0	-0.008442327
53	0xbc913418	-0.017725036
54	0xbbb974fa	-0.0056596966
55	0x3c094075	0.008377184
56	0x3c9a57ae	0.018840637
57	0x39fd4ac4	0.00048311625
58	0x3c520af4	0.012819994
59	0x3c65222e	0.0139852
60	0xbb57b505	-0.0032914293
61	0x3cabb7c0	0.020961642
62	0xbc95ea22	-0.01830012
63	0xbcf3b688	-0.029750124
64	0x3cb0244a	0.021501679
65	0xbb530009	-0.0032196066
66	0x3bdfcf08	0.0068301
67	0xbca09fff	-0.019607542
68	0x3b0e54d4	0.0021718042
69	0x3b16dd4a	0.0023020082
70	0x3bf7553e	0.0075480035
71	0x39ac6d43	0.00032887803
72	0xbc86584b	-0.016399523
73	0x3c4d622c	0.012535613
74	0xbc977acf	-0.018491177
75	0xbbf393d5	-0.0074333944
76	0xbc8089cc	-0.015690707
77	0x3c4830d8	0.0122186765
78	0xbcbd5a72	-0.023114417
79	0xbb712def	-0.003680106
80	0xbc9e03f2	-0.01928899
81	0xbcb45a6d	-0.022015775
82	0xbc5a9a0d	-0.013342393
83	0x3bcdce1f	0.006280675
84	0xbc03a6c3	-0.008035365
85	0xbbfb538f	-0.007669873
86	0xbca4c676	-0.020114165
87	0xbb90c12a	-0.004417558
88	0xbc881c94	-0.01661519
89	0xbcbfba2e	-0.023404207
90	0x39551c06	0.00020323702
91	0x3bf675c9	0.0075213653
92	0x3c3a7197	0.011379621
93	0x399ca21b	0.00029875417
94	0x3c8ad966	0.016949367
95	0xbc275ff1	-0.010215745
96	0xbc044893	-0.008073944
97	0x3be3af90	0.006948419
98	0x3bd9a38b	0.0066418103
99	0xba1242e5	-0.0005579426
100	0x3abce4c7	0.0014411443
101	0xbc169cda	-0.00919267
102	0xbcf27d6c	-0.029600821
103	0xbc538beb	-0.012911777
104	0xbc2191c4	-0.009861413
105	0x3b5670e1	0.003272109
106	0xbc96c025	-0.018402169
107	0xbc59e5ca	-0.013299415
108	0xbccc1ad2	-0.024915133
109	0x3c3c2b68	0.011484958
110	0xbc58473a	-0.0132005755
111	0xbac078bc	-0.0014684419
112	0x3c43c836	0.0119495895
113	0xbcd47b5d	-0.02593773
114	0x3aa10880	0.0012285858
115	0xbc015587	-0.007893926
116	0x3aee5b7a	0.0018185221
117	0x3b9db035	0.0048122653
118	0x3c3aea20	0.011408359
119	0x3c5c2e29	0.01343874
120	0x3b57e85d	0.0032944896
121	0xbba4f970	-0.005034618
122	0x3b5d2c82	0.0033748453
123	0xbab12bf4	-0.0013517127
124	0xbcc07bec	-0.02349659
125	0x3adfb30e	0.0017066912
126	0xbc133e1f	-0.008986979
127	0x3c266fc5	0.010158484

action_model._continuous_distribution.log_sigma f4 [1, 2]
0	0xbccbb812	-0.024868045
1	0xbc17c122	-0.009262355

action_model._continuous_distribution.mu.weight f4 [2, 128]
0	0x3cb1fc1a	0.021726657
1	0xbcf0f35e	-0.029412922
2	0xbce85d5f	-0.028364835
3	0xbd12bffd	-0.035827626
4	0xbced90b5	-0.028999666
5	0x3d34df7b	0.04415844
6	0x3beec14a	0.0072862254
7	0xbcb7d2e4	-0.022439428
8	0x3d4c5d52	0.049893685
9	0xbcfea003	-0.031082159
10	0xbaa955ff	-0.0012919306
11	0x3c0b8040	0.008514464
12	0x3cd51c60	0.026014507
13	0x3aed876d	0.0018122025
14	0x3bdff247	0.0068343016
15	0xbc47434e	-0.012162043
16	0xbb60ed7c	-0.003432124
17	0xbc03ad7d	-0.008036968
18	0xbbc29735	-0.0059384354
19	0x3ce87fba	0.028381217
20	0x3cc4060d	0.023928666
21	0x3bbc7501	0.0057512526
22	0xbc9c66c9	-0.01909198
23	0x3a7f58e8	0.0009740726
24	0xbc110f19	-0.008853697
25	0xbd046c05	-0.032329578
26	0xbbfc2a60	-0.007695481
27	0xbcf35513	-0.029703652
28	0xbb2e34db	-0.0026581797
29	0xbcedf230	-0.029046148
30	0x3b6c8fe8	0.0036096517
31	0xbc941c1a	-0.018079806
32	0x3a499564	0.00076898024
33	0xbc0829ab	-0.008310716
34	0x3d6788ae	0.056526832
35	0xbc9d7667	-0.019221498
36	0x3c0c094f	0.008547141
37	0x3bc4d88a	0.006007259
38	0xbd21f4fe	-0.039540283
39	0x3c95296f	0.018208234
40	0x3be64ff1	0.0070285727
41	0x3c886e86	0.016654264
42	0xbcb16118	-0.021652743
43	0xbbc6ee94	-0.006070921
44	0x38f5fd71	0.000117297175
45	0xbca03abf	-0.019559262
46	0x3ce579e1	0.028012218
47	0xbc6c53ca	-0.014424274
48	0xbb968883	-0.00459391
49	0x3d2bec14	0.04197319
50	0xbcafd97d	-0.021466011
51	0xbc78c95b	-0.015184726
52	0xbcfa3dcc	-0.030547045
53	0xbc4346ad	-0.011918706
54	0xba56ad74	-0.00081892987
55	0xbccc5e88	-0.02494742
56	0x3ce1fabf	0.027585385
57	0xbc19033a	-0.009339148
58	0x3ca6543e	0.020303842
59	0x3ca72684	0.020404108
60	0x3cee7741	0.0291096
61	0x3d1d26dc	0.038367137
62	0xbc4e7856	-0.0126019325
63	0xbc227dc1	-0.009917677
64	0x3cc9d298	0.024636552
65	0x3c96756d	0.01836654
66	0x3c588190	0.013214484
67	0xbb8a909f	-0.004228666
68	0x3cf9a44f	0.030473856
69	0x3d1c04ef	0.038090643
70	0xbb0a0a4e	-0.002106327
71	0x3bd2c20c	0.0064318236
72	0xba8bc7ec	-0.001066444
73	0x3c49e1e1	0.01232192
74	0xbcd77c0f	-0.026304273
75	0x3baafe51	0.005218305
76	0x3ab5d204	0.0013871794
77	0x3c6c7c0c	0.014433872
78	0xbb7b4c59	-0.0038345067
79	0xbd09222f	-0.033479866
80	0xbcabce08	-0.020972267
81	0xbca54af6	-0.020177346
82	0xbd2ab72d	-0.041678596
83	0xbd0986d5	-0.03357585
84	0xbc4582a5	-0.012055074
85	0xbcb1f7db	-0.021724632
86	0xbb9dddd1	-0.0048177023
87	0xbd28ea57	-0.04123911
88	0xbc8b2f98	-0.016990468
89	0xbbfbdbeb	-0.0076861284
90	0xbc740d1e	-0.0148957055
91	0x3ca5aba5	0.020223448
92	0xbd1c4d2c	-0.038159534
93	0x3d537b2e	0.051631145
94	0x3bf9a066	0.007617998
95	0x3c11a1b0	0.008888647
96	0xbb3ee6d1	-0.0029129277
97	0xbcf2841c	-0.02960401
98	0xbc27ca91	-0.010241167
99	0xbcd4c696	-0.0259736
100	0xbb8026b2	-0.003910863
101	0x3cc3da68	0.023907855
102	0xbc8655fe	-0.016398426
103	0xbca1619b	-0.019699862
104	0xbcb6fc53	-0.022337114
105	0x3cd41776	0.025890093
106	0xbb83c50c	-0.0040212926
107	0xbce85a55	-0.028363386
108	0xbc777ba6	-0.015105164
109	0x3cb3c913	0.021946466
110	0xbcf7e5e1	-0.030260982
111	0xbb297810	-0.0025858916
112	0xbae7823f	-0.0017662718
113	0xba830274	-0.0009995238
114	0x3c981a7d	0.018567318
115	0xbd383553	-0.04497273
116	0xbc9b255d	-0.018938715
117	0xbc850a45	-0.016240248
118	0x3d010057	0.031494465
119	0x3c41654a	0.011803934
120	0x3c6aaf15	0.014323969
121	0xba1e79b7	-0.00060453586
122	0x3c258c9e	0.0101043265
123	0x3d0f53c3	0.03499199
124	0xbc3449b4	-0.0110039
125	0x3c3d2024	0.011543307
126	0xbcf450fd	-0.029823774
127	0x3c54f039	0.012996727
128	0x3cd9f0e5	0.026604125
129	0xbc5af259	-0.013363444
130	0xbc8790fb	-0.016548624
131	0x3c497da4	0.012298021
132	0x3d4c045e	0.049808852
133	0x3bc6bc8f	0.0060649584
134	0xbca95646	-0.020671021
135	0xbd068af6	-0.032847367
136	0xbcb6e3da	-0.022325445
137	0xbc0fa298	-0.008766793
138	0xbd471a50	-0.048609078
139	0xbc7b5723	-0.015340599
140	0xbb184dfe	-0.0023239846
141	0x3d252e7d	0.040327538
142	0x3b7ed582	0.0038884585
143	0xbb3ed184	-0.002911658
144	0xbc983126	-0.018578123
145	0xbc1103aa	-0.008850971
146	0x3d11de93	0.035612654
147	0xbbde99a1	-0.0067932163
148	0x3cf72d65	0.030173013
149	0x3cb03cbf	0.021513341
150	0xbd15ecaa	-0.036602654
151	0xbcea046b	-0.02856656
152	0x3c1714f6	0.009221306
153	0xbcdcf4d0	-0.026972204
154	0xbcb956fb	-0.022624483
155	0xbc30b919	-0.010786318
156	0x3cddfe2e	0.027098741
157	0x3b099ede	0.0020999233
158	0x3c8d99fd	0.017285341
159	0xbd20c18d	-0.039247084
160	0x3cdcf6b0	0.026973099
161	0x3d0b85db	0.0340632
162	0x3b1c00e2	0.0023804237
163	0x3c7d456f	0.015458449
164	0x3ce0e84b	0.027454516
165	0x3a9cf680	0.0011975318
166	0x3c00326b	0.007824521
167	0xbc3fe186	-0.011711484
168	0x3ca4b6cf	0.020106701
169	0x3cb0927e	0.021554228
170	0xbd0858dd	-0.03328787
171	0xbd061ed9	-0.032744262
172	0xbace0dc5	-0.0015720656
173	0xbc87c1ad	-0.016571844
174	0x3ca6929f	0.020333586
175	0x3cea6655	0.028613249
176	0xbcced622	-0.02524859
177	0x3bbdd96e	0.005793742
178	0x3b4a892b	0.0030904512
179	0x3b0c7beb	0.0021436166
180	0xbbb168f2	-0.005414122
181	0xbd40b74e	-0.047049813
182	0x3c1d7340	0.009609997
183	0x3c9ae9a4	0.018910237
184	0x3aefed27	0.001830493
185	0x3c133157	0.0089839315
186	0x3c7382a6	0.014862692
187	0x3c86b6bc	0.016444556
188	0xbc165524	-0.009175573
189	0x3d3b59c3	0.0457399
190	0xbc8161b4	-0.015793659
191	0xbcbee468	-0.023302272
192	0x3ce5f76a	0.028072078
193	0xbcb31921	-0.021862568
194	0x3c9c27d1	0.019061955
195	0xbb86b5cc	-0.0041110273
196	0xbd73244c	-0.059360787
197	0xbc0a621e	-0.0084462445
198	0x3ce85630	0.02836141
199	0xb9056990	-0.00012723194
200	0xbc00dfba	-0.007865841
201	0xbad6327b	-0.0016341949
202	0xbbebeb38	-0.007199671
203	0xbbb8b608	-0.005636934
204	0xbc98e6af	-0.018664686
205	0x3cbba577	0.022906048
206	0xbd0f561e	-0.034994237
207	0xbc1a0597	-0.009400747
208	0xbbc8633d	-0.0061153458
209	0xbbf37eee	-0.0074309027
210	0xbcb1a938	-0.021687135
211	0x3c1f34ad	0.009717149
212	0x3c3666d9	0.011132919
213	0xbbf22506	-0.0073896674
214	0xbbf7a63f	-0.00755766
215	0x3bc6d285	0.0060675764
216	0xbd0b91f5	-0.034074742
217	0xbb5e1aad	-0.0033890412
218	0x3c30cfff	0.010791778
219	0x3cc89336	0.024484258
220	0x3d2fa6c2	0.042883642
221	0xbcf13684	-0.02944494
222	0x3d31830b	0.043337863
223	0xbcb1c7e3	-0.021701759
224	0x3b1d9198	0.002404308
225	0x3ceb59b1	0.028729292
226	0x3ca6647f	0.020311592
227	0x3ced25cf	0.028948693
228	0x3b7c19f8	0.0038467627
229	0xbd7713f6	-0.06032177
230	0xbca663db	-0.020311287
231	0x3a8d389f	0.0010774321
232	0x3c77a06f	0.015113934
233	0xbc0b61f4	-0.008507241
234	0xbbb2571a	-0.005442512
235	0x3b5f0fa8	0.0034036431
236	0xbc53e800	-0.012933731
237	0x3cb48ea2	0.022040669
238	0xba3339eb	-0.00068369386
239	0x3b9b65fe	0.004742383
240	0x3c957de0	0.018248498
241	0xbc9af169	-0.018913941
242	0xbae6c171	-0.0017605257
243	0xbc6b23eb	-0.014351825
244	0x3c5ff4d6	0.013669213
245	0x3c4fb5b9	0.012677603
246	0x3d051b76	0.032496892
247	0x3b04d9b4	0.0020271363
248	0xbc14c3ae	-0.009079857
249	0x3bb667c6	0.00556657
250	0x3bbb8976	0.0057231737
251	0xbb82e340	-0.0039943755
252	0xbc9cc372	-0.019136164
253	0x3c299b52	0.010351973
254	0xbccd2387	-0.025041355
255	0x3cd3bf6b	0.025848111

action_model._continuous_distribution.mu.bias f4 [2]
0	0x3bb9ec49	0.0056739193
1	0x3c87e79b	0.01658993

action_model._discrete_distribution.branches.0.weight f4 [1, 128]
0	0xbaa9cc12	-0.0012954494
1	0xba4ee81b	-0.0007892863
2	0x3b7f4e70	0.0038956665
3	0x3c4b9ff0	0.012428269
4	0xbad76358	-0.0016432805
5	0xbbdc85e5	-0.0067298287
6	0xbc1f03bf	-0.009705483
7	0xbc093939	-0.008375459
8	0xbaeeacc7	-0.0018209451
9	0xbc85afcb	-0.016319176
10	0x3c10ebd7	0.008845291
11	0x3b429b16	0.002969449
12	0x3b9d8937	0.004807617
13	0xbcd3a5a2	-0.025835816
14	0xb9de834d	-0.00042440966
15	0x3c3243a7	0.010880387
16	0xba8cd401	-0.0010744334
17	0xbc33538d	-0.010945213
18	0xbbde24c2	-0.006779284
19	0x3aeced0d	0.0018076018
20	0x3be410b7	0.0069600004
21	0x3bce1e75	0.006290252
22	0x3bf134e0	0.0073610395
23	0xba628830	-0.00086415093
24	0xbbd1d13b	-0.006403116
25	0x3c4a4a11	0.01234676
26	0x3b59c88a	0.0033231103
27	0xbbf93b05	-0.0076059126
28	0x3b82fb23	0.003997223
29	0xbc21b154	-0.0098689385
30	0xbad18e4f	-0.0015987846
31	0x3c65cee2	0.0140263755
32	0x3b896215	0.0041926005
33	0x3b90db84	0.0044206996
34	0x3c44118b	0.011967073
35	0x3b3ea1bc	0.00290881
36	0xbc295667	-0.010335541
37	0x3ca083af	0.019594042
38	0xbac7140d	-0.0015188471
39	0x3b6728f7	0.003527222
40	0x3bf7fb28	0.007567782
41	0x3b161137	0.0022898444
42	0xbb470fb0	-0.003037434
43	0x3b0e3892	0.00217012
44	0xbc16c514	-0.0092022605
45	0xbb29d0af	-0.0025911739
46	0x3c8080ca	0.015686411
47	0xbb8d4777	-0.004311498
48	0xbb578e67	-0.0032891275
49	0xbb941309	-0.0045188707
50	0x3a54bb85	0.0008115101
51	0xbc4fd29a	-0.012684489
52	0xbb50fc23	-0.0031888566
53	0xbbe2c6ea	-0.006920685
54	0xbc3b0412	-0.011414545
55	0x3bf61877	0.0075102407
56	0xbbca00b7	-0.006164636
57	0xbbb54497	-0.005531858
58	0x3c13565b	0.008992757
59	0x3c4357a3	0.01192275
60	0xbb63b905	-0.0034747731
61	0x3c3f7c43	0.011687341
62	0xbc1559ef	-0.00911568
63	0x3c37a71b	0.011209275
64	0xbba9ca08	-0.0051815547
65	0xbcb6c9b3	-0.022312975
66	0x3c7a3500	0.015271425
67	0x3b4fdc5b	0.0031717035
68	0xbb879db6	-0.0041386737
69	0xbc1bd74b	-0.009511779
70	0x3c6b3070	0.01435481
71	0xbb18133f	-0.002320483
72	0x3aff228d	0.0019465253
73	0x3b450f87	0.003006907
74	0xbc19457e	-0.009354947
75	0xbbf967e2	-0.0076112607
76	0x3b827083	0.0039806976
77	0xbb19823b	-0.002342357
78	0xbc5543cb	-0.013016651
79	0x3aeea800	0.0018208027
80	0x3c1ede17	0.009696505
81	0xbc0c0f17	-0.00854852
82	0x3a5763dd	0.000821648
83	0x3c39d226	0.011341607
84	0xbb3024f0	-0.0026877485
85	0x3c4ee4f7	0.012627832
86	0xbb305b58	-0.0026909914
87	0x3bfc8c7f	0.007707178
88	0x3bdc3c5a	0.0067210617
89	0xbb59c133	-0.0033226728
90	0xbb283a6d	-0.002566959
91	0x3c613b7b	0.013747091
92	0x3b81f9d9	0.0039665517
93	0x3c5d31c3	0.013500634
94	0xbb8b4716	-0.0042504175
95	0xbb4657b3	-0.0030264675
96	0x3ac3cc87	0.0014938273
97	0xbc88bd3a	-0.016691793
98	0xbaee7932	-0.0018194078
99	0xb99464b8	-0.000283038
100	0xbb809a5b	-0.0039246506
101	0x3b33c178	0.0027428549
102	0x3c9a6ff7	0.018852217
103	0xbaaf4bad	-0.0013373994
104	0x3c151ca9	0.009101071
105	0x3c3b7413	0.0114412485
106	0xbc15439a	-0.009110356
107	0xbbbda290	-0.005787201
108	0xbbebc69b	-0.0071953065
109	0xbb96ef8f	-0.0046061943
110	0x3b9e457b	0.00483006
111	0x3bfde93f	0.0077487524
112	0x3b002479	0.001955299
113	0x3c80c16f	0.015717236
114	0x3ae27b42	0.0017279165
115	0x3c8c53cb	0.0171298
116	0xbbec158a	-0.007204716
117	0x39fcdf4d	0.00048231558
118	0xbc07c1a4	-0.008285914
119	0x3cbb9150	0.022896439
120	0xbb84421a	-0.0040362
121	0x3a9839d3	0.0011613913
122	0xbc2433a3	-0.010022077
123	0x3bd84f32	0.0066012377
124	0xbae25da5	-0.001727034
125	0xbad41883	-0.0016181621
126	0x3b97da1f	0.0046341564
127	0x3c34e0b8	0.011039905

onnx::Div_70 f4 [12]
0	0x3bcf4c04	0.0063262004
1	0x3bcf4c04	0.0063262004
2	0x3bcf4c04	0.0063262004
3	0x4012b178	2.2920818
4	0x3e0143d6	0.12623534
5	0x400e5fbe	2.2245936
6	0x41066d4b	8.401683
7	0x3f4abaca	0.7919127
8	0x41120b76	9.127798
9	0x40142386	2.3146682
10	0x4014b3b9	2.3234694
11	0x400ce072	2.201199
