results/TenSimple3/TenSimple3/TenSimple3-169270.pt (torch, 452093 bytes, 47 tensors)

network_body.observation_encoder.processors.0.normalizer.running_mean f4 [7]
0.0009516394 -2.3699391e-11 0.0005837965 0.5799985 0.0 -0.6992371 -0.17920955
00000000: 7077 793a 4976 d0ad ec09 193a c87a 143f
00000010: 0000 0000 3401 33bf b582 37be

network_body.observation_encoder.processors.0.normalizer.running_variance f4 [7]
1.7550001e+06 38.35738 3.9801902e+06 4.9086875e+06 1.0 5.0814285e+06 5.0247665e+06
00000000: c13b d649 f56d 1942 79ee 724a 1fcd 954a
00000010: 0000 803f a912 9b4a fd57 994a

network_body.processors.0.normalizer.running_mean f4 [7]
0.0009516394 -2.3699391e-11 0.0005837965 0.5799985 0.0 -0.6992371 -0.17920955
00000000: 7077 793a 4976 d0ad ec09 193a c87a 143f
00000010: 0000 0000 3401 33bf b582 37be

network_body.processors.0.normalizer.running_variance f4 [7]
1.7550001e+06 38.35738 3.9801902e+06 4.9086875e+06 1.0 5.0814285e+06 5.0247665e+06
00000000: c13b d649 f56d 1942 79ee 724a 1fcd 954a
00000010: 0000 803f a912 9b4a fd57 994a

network_body._body_endoder.seq_layers.0.weight f4 [128, 7]
0.29897496 -0.2298852 0.28622714 -0.28630877 -0.07766325 -0.35044944 0.5654783 -0.019221473
0.6215264 -0.8983194 0.05755188 -0.2252571 0.47324726 -0.20980425 -0.30947092 -0.05418818
-0.34651822 0.275095 0.23914856 -0.09852791 0.482115 0.6018474 -0.74035656 -0.63696766
-0.34087613 -0.77240515 -0.59552604 0.41849276 0.45703703 0.06695521 -0.13453387 0.6995374
0.37213367 0.33006963 -0.40788728 -0.51432544 0.20268118 0.37605962 -0.04119856 0.04250125
0.4332044 0.27214795 -0.025113003 -0.45405227 0.18752201 -0.01555251 0.55009556 -0.2558444
0.64019585 0.44831997 -0.2727915 -0.18267381 -0.10308635 -0.1518046 0.5245961 -0.043468066
-0.060806956 0.0027041838 -0.61343104 -0.16421282 -0.17317171 0.5524134 -0.6716555 0.47549826
-0.16033226 -0.06041565 -0.28535903 -0.32392192 0.4158157 0.53627425 0.47785938 0.006224893
0.33000296 0.39648142 0.8644911 0.13430105 0.45996755 0.090879306 -0.52714247 -0.408691
0.35947308 -0.10743629 0.029012138 -0.49683094 0.30578786 0.03174831 -0.15738966 -0.24487476
0.087683454 -0.25407502 0.6156082 -0.31737223 0.10979188 -0.13530898 0.6542669 -0.26455468
-0.8027757 -0.51764303 -0.199175 -0.25979957 0.2691762 0.16756414 0.45259324 0.53920096
-0.24735968 -0.6157623 0.032700416 0.321981 0.4456091 -0.107624024 0.035058904 0.23031172
-0.092939965 -0.18009822 0.08416094 0.32712096 -0.34454182 -0.54320586 -0.3157867 0.19980353
0.2804395 -0.8069187 -0.4464577 0.0733383 0.1675861 0.30100346 -0.09397333 0.44247916
-0.0024210727 0.112041354 -0.3945276 0.35592595 0.8751653 -0.14818001 0.602182 0.69985276
0.033842705 0.3541216 0.61896557 0.0057247225 -0.28238183 -0.09344249 0.25586796 -0.004876546
0.1585327 0.36836317 0.05876266 0.53830856 -0.7599822 -0.7798629 0.12355491 0.24101494
0.3952724 -0.0545899 -0.16240631 -0.34544477 -0.43968007 -0.051295083 0.4156445 -0.34707573
-0.3810963 -0.6674747 -0.6004241 0.17566794 0.30829364 0.060354117 0.006684971 0.805965
0.026444044 -0.13674563 -0.34317917 0.5293316 0.20286335 -0.82868934 0.04310486 0.2525464
-0.24270934 -0.27988625 0.31314903 -0.013925502 0.58084905 0.33882645 0.12630156 0.5365139
0.1972931 -0.069227345 0.8222436 0.11248874 0.30308688 -0.050999075 -0.0055747586 0.013728188
-0.3342547 0.45569542 0.02152701 0.3125916 -0.2954251 -0.35638267 -0.08626652 -0.3448793
-0.7129244 -0.4790467 0.3614631 -0.4783679 0.5351657 0.5176565 -0.072213076 0.27309942
0.1799746 0.3383773 -0.7948549 0.6293131 -0.5208139 0.48411557 0.1926594 0.52170247
0.32968488 -0.4437528 0.15492162 0.30703384 -0.0033551038 -0.80928737 -0.0057954285 0.56559247
-0.007221037 -0.27928525 -0.033162512 0.3408884 -0.063312635 -0.9544844 0.13322209 -0.17181687
0.48667526 -0.009026111 -0.51535153 0.25041914 -0.2560529 0.500045 0.34089404 0.2218415
-0.05934905 0.12521343 -0.38489228 0.0012002635 -0.11097086 -0.25146812 -0.38298076 -0.14864685
-0.4858169 -0.37373888 0.031661242 0.10538356 0.28978923 0.022344626 0.21112256 -0.14146811
00000000: 3f13 993e 0767 6bbe 5d8c 923e 1097 92be
00000010: e90d 9fbd 1c6e b3be 30c3 103f 5a76 9dbc
00000020: 5b1c 1f3f 43f8 65bf 85bb 6b3d cca9 66be
00000030: 774d f23e edd6 56be f972 9ebe 6df4 5dbd
00000040: d66a b1be 40d9 8c3e 5ce3 743e 00c9 c9bd
00000050: c7d7 f63e ac12 1a3f 0288 3dbf 5010 23bf
00000060: 5187 aebe 58bc 45bf 6574 18bf af44 d63e
00000070: c200 ea3e d01f 893d 3fc3 09be e214 333f
00000080: 4e88 be3e e3fe a83e 9ad6 d0be d5aa 03bf
00000090: a88b 4f3e e38a c03e d2bf 28bd ca15 2e3d
000000a0: f8cc dd3e fa56 8b3e c9b9 cdbc 8a79 e8be
000000b0: c505 403e f4cf 7ebc 10d3 0c3f 0afe 82be
000000c0: e0e3 233f 328a e53e 54ab 8bbe d80e 3bbe
000000d0: f01e d3bd aa72 1bbe ee4b 063f 920b 32bd
000000e0: b710 79bd ad38 313b d109 1dbf 6827 28be
000000f0: ed53 31be f76a 0d3f 9df1 2bbf 8274 f33e
00000100: 242e 24be 6776 77bd 941a 92be 18d9 a5be
00000110: cce5 d43e 4549 093f fca9 f43e 30fa cb3b
00000120: 26f6 a83e 9dff ca3e 4a4f 5d3f 3786 093e
00000130: de80 eb3e ee1e ba3d cff2 06bf f23f d1be
00000140: db0c b83e 8f07 dcbd ddaa ed3c a060 febe
00000150: 3a90 9c3e 840a 023d c12a 21be 73c0 7abe
00000160: 6293 b33d 1f16 82be 8098 1d3f 9d7e a2be
00000170: 91da e03d 708e 0abe 097e 273f b673 87be
00000180: b582 4dbf 4184 04bf 88f4 4bbe 7304 85be
00000190: 76d1 893e ef95 2b3e 4dba e73e 1309 0a3f
000001a0: db4b 7dbe 99a2 1dbf dff0 053d b2da a43e
000001b0: e026 e43e fc69 dcbd ed99 0f3d d6d6 6b3e
000001c0: 4f57 bebd ab6b 38be 925c ac3d 667c a73e
000001d0: c967 b0be 8a0f 0bbf cbae a1be 4c99 4c3e
000001e0: c495 8f3e 3992 4ebf 1b96 e4be 6432 963d
000001f0: b19b 2b3e 201d 9a3e 1775 c0bd a18c e23e
00000200: dcaa 1ebb f075 e53d 86ff c9be ed3b b63e
00000210: d50a 603f 80bc 17be 9928 1a3f 8d29 333f
00000220: a69e 0a3d 6d4f b53e 8774 1e3f 7496 bb3b
00000230: 5a94 90be c75e bfbd 2001 833e 6fcb 9fbb
00000240: 6556 223e 199a bc3e 1db1 703d 97ce 093f
00000250: 328e 42bf 18a5 47bf 5b0a fd3d 9fcc 763e
00000260: 2561 ca3e a999 5fbd d74d 26be 23de b0be
00000270: bf1d e1be cb1a 52bd 5bcf d43e e9b3 b1be
00000280: 0e1f c3be 9fdf 2abf 65b5 19bf 4ce2 333e
00000290: aad8 9d3e e135 773d 9a0d db3b b953 4e3f
000002a0: 2ea1 d83c 0c07 0cbe 2eb5 afbe 4782 073f
000002b0: 69bb 4f3e fc24 54bf b98e 303d c34d 813e
000002c0: cc88 78be 404d 8fbe 1255 a03e ca27 64bc
000002d0: 86b2 143f a97a ad3e 3255 013e fa58 093f
000002e0: 3407 4a3e 11c7 8dbd 8e7e 523f 7f60 e63d
000002f0: 342e 9b3e 68e4 50bd 77ac b6bb 32ec 603c
00000300: 6f23 abbe e950 e93e 6959 b03c 020c a03e
00000310: f541 97be ca77 b6be 80ac b0bd 0594 b0be
00000320: 3782 36bf 9c45 f5be b111 b93e a3ec f4be
00000330: 9f00 093f 2385 043f 73e4 93bd b0d3 8b3e
00000340: 434b 383e ca3f ad3e 9c7b 4bbf aa1a 213f
00000350: 0f54 05bf ffdd f73e 8148 453e 4b8e 053f
00000360: 75cc a83e 9133 e3be c6a3 1e3e 8a33 9d3e
00000370: 4de1 5bbb 752d 4fbf 94e7 bdbb abca 103f
00000380: 739e ecbb 7afe 8ebe 6ad5 07bd ed88 ae3e
00000390: 0eaa 81bd 1759 74bf 5f6b 083e c3f0 2fbe
000003a0: 802d f93e 41e2 13bc 14ee 03bf f036 803e
000003b0: 5e19 83be f302 003f aa89 ae3e 6b2a 633e
000003c0: fd17 73bd f337 003e 9a10 c5be 2952 9d3a
000003d0: b144 e3bd 6ec0 80be 0e16 c4be e136 18be
000003e0: febc f8be b45a bfbe 38af 013d 56d3 d73d
000003f0: 415f 943e 140c b73c 8330 583e 04dd 10be

network_body._body_endoder.seq_layers.0.bias f4 [128]
0.02831679 -0.022975598 -0.011708299 0.05244903 -0.06345775 -0.0057158857 -0.06887433 0.05865683
-0.035737753 0.039334007 -0.002189045 -0.057717975 -0.017064009 0.03011279 0.02037418 -0.031367093
0.031200485 0.010056099 0.00034519285 -0.012451694 0.049954664 -0.04767234 0.04561232 0.03594489
0.0006013236 0.014691868 -0.04847684 -0.0411834 -0.061351646 0.028875403 0.0032135749 0.01516027
-0.018644203 0.046167817 0.05952861 0.038286027 0.05063398 -0.032184113 -0.027055187 0.05461489
0.008637246 0.02474546 -0.034980547 -0.038988393 0.007551874 -0.03087381 0.0012403271 -0.0013486781
-0.008703906 0.040607724 -0.07272947 -0.04308075 -0.04084228 -0.010168931 -0.02473919 0.025412202
0.036762547 0.016596826 0.016072229 -0.048788346 -0.0866747 -0.053209484 -0.06505192 0.060497824
0.0072762077 0.0059987265 0.0044776383 -0.07893251 -0.060657617 0.055041686 0.062069256 -0.07615604
0.0010561779 0.032356918 0.019892545 0.057122055 -0.061592083 -0.057431452 0.0109355105 0.013399936
-0.068262815 0.01196436 0.028346403 -0.092734575 0.0058539123 0.056469575 -0.08402566 0.019515226
0.045085397 0.015982302 -0.05986993 -0.05721558 -0.035978753 0.031078469 0.03134036 0.005788677
-0.060482293 0.010115406 0.048159536 0.033677816 0.023860049 -0.034672234 -0.049757075 0.038706552
0.012640909 -0.006550899 -0.024808422 -0.052639265 0.00092138554 -0.006839323 -0.015975412 0.031529196
0.048092186 -0.012592846 -0.022779744 -0.023938134 -0.04118123 -0.055153724 0.018013785 0.0013761257
0.0025472343 0.030694652 -0.0026236991 -0.030420933 0.038537003 0.058830623 0.065876335 -0.07529025
00000000: 9df8 e73c 5237 bcbc 2ad4 3fbc cbd4 563d
00000010: 23f6 81bd 534c bbbb fc0d 8dbd 2542 703d
00000020: c061 12bd b21c 213d 1576 0fbb af69 6cbd
00000030: d2c9 8bbc 19af f63c c1e7 a63c c87a 00bd
00000040: 2998 ff3c 56c2 243c 00fb b439 3102 4cbc
00000050: 439d 4c3d 1244 43bd fcd3 3a3d f33a 133d
00000060: 25a2 1d3a 29b6 703c a78f 46bd edaf 28bd
00000070: dd4b 7bbd 1c8c ec3c d79a 523b c862 783c
00000080: babb 98bc 771a 3d3d 46d4 733d cfd1 1c3d
00000090: 9465 4f3d 7dd3 03bd d7a2 ddbc ddb3 5f3d
000000a0: 3c83 0d3c feb6 ca3c c347 0fbd 4bb2 1fbd
000000b0: b675 f73b 13eb fcbc 7992 a23a 21c6 b0ba
000000c0: d49a 0ebc 4954 263d 30f3 94bd 7175 30bd
000000d0: 3c4a 27bd 979b 26bc d7a9 cabc 402d d03c
000000e0: 5394 163d 11f6 873c e8a9 833c 4ad6 47bd
000000f0: 8182 b1bd 30f2 59bd f139 85bd 91cc 773d
00000100: 416d ee3b f790 c43b 27b9 923b 5ea7 a1bd
00000110: 1f74 78bd 6473 613d 553c 7e3d b3f7 9bbd
00000120: 736f 8a3a b088 043d b1f5 a23c d1f8 693d
00000130: fb47 7cbd 3e3d 6bbd db2a 333c 688b 5b3c
00000140: 60cd 8bbd 2a06 443c b736 e83c a0eb bdbd
00000150: 2dd2 bf3b a44c 673d a515 acbd 65de 9f3c
00000160: 77ab 383d 51ed 823c 2c3a 75bd e25a 6abd
00000170: 755e 13bd 4698 fe3c c05e 003d f1ae bd3b
00000180: 48bc 77bd 16bb 253c ef42 453d c0f1 093d
00000190: 2676 c33c 7904 0ebd 13ce 4bbd c38a 1e3d
000001a0: d11b 4f3c eca8 d6bb 083b cbbc 459c 57bd
000001b0: 2389 713a 661c e0bb dede 82bc c224 013d
000001c0: 50fc 443d 3952 4ebc 969c babc e819 c4bc
000001d0: a6ad 28bd dfe8 61bd a591 933c 1e5f b43a
000001e0: 80ef 263b 5a73 fb3c 5ef2 2bbb 5235 f9bc
000001f0: fad8 1d3d 61f8 703d 2cea 863d c631 9abd

network_body._body_endoder.seq_layers.2.weight f4 [128, 128]
-0.13112022 -0.0932968 -0.07458793 -0.01969113 -0.0049787723 -0.17682853 0.012184307 -0.061569426
0.01781856 -0.041034922 -0.22879642 -0.05535836 0.049923915 0.0148083335 -0.16734876 -0.059027385
-0.064798445 0.089955024 -0.15786454 -0.03854443 0.019907294 -0.10174502 -0.047070798 -0.05272104
-0.051442076 -0.08143428 -0.008193705 -0.17127508 -0.11799096 -0.016925747 -0.082160875 0.08469837
0.043679632 0.04106476 -0.08055132 -0.021905124 0.118540786 -0.10232252 0.065436155 -0.062059607
0.11096905 0.0036439141 -0.11398698 0.056708124 -0.11579509 0.09523633 0.00028703117 0.062078252
0.10891801 -0.10671678 -0.113515936 0.037259668 -0.19182763 -0.18789724 -0.18166797 0.0049936892
0.0010578864 -0.027632574 -0.20009796 0.05331024 -0.18675563 -0.19674404 0.10360842 -0.125869
0.0100173 0.08072628 0.118117414 -0.05454838 -0.12849084 -0.09691121 0.043082274 -0.15313393
0.115363725 -0.047830578 0.101445794 -0.15176743 0.025331477 -0.025731321 -0.008193419 -0.008521918
-0.11583125 0.028553924 -0.10911697 -0.025946721 0.032468464 -0.06399812 0.11381449 0.073324926
-0.115647145 0.06654484 0.049436893 -0.13640627 0.042394605 -0.09774916 0.13583574 -0.08156962
-0.0717711 0.15490884 0.08188293 -0.021884244 -0.008336557 -0.15158744 -0.013613062 -0.017923836
0.10858816 0.02401395 0.09119224 -0.042111557 -0.13769542 -0.0015933486 -0.07493156 0.14455657
-0.16580887 -0.10210465 0.14794418 -0.07055944 -0.11601735 -0.08191927 -0.076018415 0.034169205
0.019804552 -0.1006755 -0.040176563 0.017611677 0.09569327 -0.14025345 0.0071365396 -0.13524832
0.09004699 -0.060001012 -0.13006057 0.02946023 0.0045296582 0.06578663 0.0947276 0.10667832
-0.043774195 0.008775618 0.08666894 0.058089584 -0.10362625 0.056412045 0.015170638 0.075289495
-0.025006305 0.034981996 -0.16135205 -0.024722774 -0.052894786 -0.09812164 -0.04950313 -0.05149975
0.019783812 -0.023763793 -0.009751615 0.09203285 -0.041895714 -0.05288299 -0.05003685 -0.17522629
-0.13109821 0.11584122 0.023015285 -0.13940628 -0.0717174 -0.10103708 0.084711164 -0.036591943
0.14691211 -0.08534606 -0.12402889 -0.049944364 0.11397939 0.06952289 -0.09702806 -0.1417426
0.07234169 -0.05456149 -0.006704164 -0.17507155 -0.07243154 0.06289787 -0.44364458 0.101393186
-0.080902755 -0.071330965 -0.16497682 0.017255183 0.07890165 0.08584382 -0.03043297 -0.048793994
-0.0757751 0.07678022 -0.0025565869 -0.15732807 -0.072774045 0.018879028 -0.02715719 0.1379143
0.083604656 0.06581274 -0.08235896 -0.12048375 0.08003764 -0.1305014 -0.026584815 -0.09773481
-0.041463204 -0.09628429 -0.08249292 0.07042987 -0.09563267 -0.13252549 -0.00038197232 0.026167396
-0.029950289 0.17327492 -0.004133482 0.01633431 -0.07363258 0.18208158 -0.021781597 0.12238175
-0.022449069 0.15684532 0.16879584 -0.060154118 0.055063825 -0.093112566 -0.13440447 -0.059323147
0.089615665 -0.13889241 0.03904225 0.08133574 -0.06487717 0.082050525 0.056459315 0.09149592
-0.08928149 0.1441028 0.1125428 -0.008599939 0.019276408 -0.09280496 -0.05132772 -0.06986784
-0.034117077 -0.1555902 0.03615805 -0.16707155 0.010929513 -0.09155205 0.112364836 -0.010097734
00000000: 6144 06be 6512 bfbd 8fc1 98bd 4b4f a1bc
00000010: f824 a3bb 8a12 35be b0a0 473c 3930 7cbd
00000020: 3bf8 913c 3c14 28bd 9c49 6abe 73bf 62bd
00000030: 057d 4c3d a79e 723c 795d 2bbe b3c6 71bd
00000040: 0cb5 84bd 573a b83d 3ea7 21be c4e0 1dbd
00000050: 9f14 a33c b15f d0bd 4fcd 40bd 04f2 57bd
00000060: edb4 52bd 04c7 a6bd e43e 06bc bc62 2fbe
00000070: 3fa5 f1bd dda7 8abc f643 a8bd 5776 ad3d
00000080: 6ae9 323d 8633 283d 17f8 a4bd 6072 b3bc
00000090: 83c5 f23d 788e d1bd 6403 863d 3732 7ebd
000000a0: be43 e33d bcce 6e3b 0172 e9bd c746 683d
000000b0: fa25 edbd 440b c33d ac7c 9639 c445 7e3d
000000c0: 6810 df3d 548e dabd 0b7b e8bd 989d 183d
000000d0: 766e 44be 2268 40be 2b07 3abe 1aa2 a33b
000000e0: c7a8 8a3a b55d e2bc 7be6 4cbe d75b 5a3d
000000f0: de3c 3fbe 4577 49be a730 d43d cee3 00be
00000100: 9a1f 243c d253 a53d 8be7 f13d 1f6e 5fbd
00000110: 1a93 03be 6279 c6bd 0a77 303d 24cf 1cbe
00000120: d143 ec3d ffe9 43bd d0c2 cf3d ec68 1bbe
00000130: f583 cf3c 7eca d2bc b13d 06bc 849f 0bbc
00000140: ef38 edbd ebe9 e93c b878 dfbd 388e d4bc
00000150: a7fd 043d 7211 83bd 9217 e93d 612b 963d
00000160: 69d8 ecbd a948 883d 577e 4a3d 16ae 0bbe
00000170: f7a5 2d3d b630 c8bd 8618 0b3e f90d a7bd
00000180: bafc 92bd 6ca0 1e3e 3db2 a73d 9646 b3bc
00000190: 0e96 08bc bd39 1bbe 5209 5fbc 02d5 92bc
000001a0: 7863 de3d e7b8 c43c ffc2 ba3d 2b7d 2cbd
000001b0: 0700 0dbe e8d7 d0ba b875 99bd a306 143e
000001c0: cdc9 29be 3e1c d1bd ae7e 173e 7881 90bd
000001d0: 819a edbd 4ac5 a7bd 8baf 9bbd 02f5 0b3d
000001e0: 283d a23c f52e cebd 2e90 24bd 5d46 903c
000001f0: d5fa c33d 9a9e 0fbe a2d9 e93b 897e 0abe
00000200: 8e6a b83d 9fc3 75bd 992e 05be 9556 f13c
00000210: 876d 943b 24bb 863d 8b00 c23d 2a7a da3d
00000220: 924c 33bd 9cc7 0f3c 7c7f b13d 58ef 6d3d
00000230: 003a d4bd 5110 673d 458e 783c 6131 9a3d
00000240: 06da ccbc 4849 0f3d 7939 25be 6a87 cabc
00000250: 34a8 58bd 00f4 c8bd cbc3 4abd 67f1 52bd
00000260: a911 a23c 49ac c2bc 3dc5 1fbc b87b bc3d
00000270: d79a 2bbd d69b 58bd 71f3 4cbd 856e 33be
00000280: 9c3e 06be 293e ed3d 8d8a bc3c 85c0 0ebe
00000290: 92e0 92bd 87ec cebd 0c7d ad3d 6fe1 15bd
000002a0: 2170 163e eac9 aebd dc02 febd 7692 4cbd
000002b0: 076e e93d 0462 8e3d a6b6 c6bd f924 11be
000002c0: e127 943d de7b 5fbd 9bae dbbb f545 33be
000002d0: fd56 94bd 99d0 803d 6225 e3be 3ba7 cf3d
000002e0: 58b0 a5bd f815 92bd afef 28be be5a 8d3c
000002f0: 3097 a13d e2ce af3d 904e f9bc 36dc 47bd
00000300: fa2f 9bbd f33e 9d3d 698c 27bb 9c1a 21be
00000310: 8f0a 95bd 31a8 9a3c c178 debc 6839 0d3e
00000320: eb38 ab3d d4c8 863d d0ab a8bd 2fc0 f6bd
00000330: c6ea a33d 29a2 05be 66c8 d9bc 3029 c8bd
00000340: 52d5 29bd b330 c5bd 0cf2 a8bd 893d 903d
00000350: 10db c3bd c3b4 07be 7543 c8b9 025d d63c
00000360: 4f5a f5bc fb6e 313e 2972 87bb 88cf 853c
00000370: aecc 96bd 9873 3a3e 526f b2bc 48a3 fa3d
00000380: 1ce7 b7bc 0f9c 203e d1d8 2c3e 2a64 76bd
00000390: 9b8a 613d cdb1 bebd 53a1 09be d4fc 72bd
000003a0: 6b88 b73d d039 0ebe c4ea 1f3d 5a93 a63d
000003b0: 52de 84bd 1b0a a83d e241 673d 3762 bb3d
000003c0: 37d9 b6bd af8f 133e d77c e63d c2e6 0cbc
000003d0: 8fe9 9d3c 8710 bebd 043d 52bd df16 8fbd
000003e0: 59be 0bbd 0a53 1fbe 771a 143d ce14 2bbe
000003f0: b311 333c a47f bbbd 891f e63d f770 25bc

network_body._body_endoder.seq_layers.2.bias f4 [128]
-0.041819833 0.022774244 -0.048648153 -0.010028044 0.023203693 -0.06489399 -0.059655473 -0.09207022
-0.005481368 -0.0091312025 -0.0021812876 -0.012210533 -0.044638734 -0.04805151 0.06416191 -0.055613615
0.008138762 0.07162478 0.020714702 0.00086499547 -0.10501209 -0.074521326 0.015814656 0.0070441714
0.007687131 0.040936083 -0.080687575 -0.05264491 0.008359408 0.027807632 0.04462109 -0.06335736
0.04431446 -0.016111366 -0.0059255916 -0.059645113 0.060475346 -0.036899332 0.051472712 -0.0057521253
0.053378988 0.035359208 -0.018700294 0.06560154 -0.007978096 -0.016698055 0.054758634 -0.040305052
0.04504818 0.036057305 0.060539037 -0.021874651 -0.027206164 -0.0221572 0.00070495025 -0.080156006
0.038059372 0.04053082 -0.025133168 0.0032483474 -0.08347546 -0.07650129 0.05327447 0.046351466
0.015540013 0.04868059 0.003790101 0.03625144 -0.076035455 -0.018354166 0.009968131 -0.029649287
0.04445442 0.05406026 -0.014352623 0.05144974 -0.072997116 -0.007523605 0.037173767 -0.06604501
-0.051923256 -0.10045658 -0.070874594 0.06343801 -0.06800595 -0.016681029 -0.048995793 0.037224103
-0.0710074 -0.05170886 0.0068933032 -0.088026 -0.033837926 -0.021555278 0.024419084 -0.006942439
-0.052268494 -0.008999692 -0.019460902 -0.03917417 -0.002102486 -0.038164295 -0.03895203 -0.040118344
-0.08284131 -0.026402278 0.050722685 0.06720769 0.029191263 0.017372731 0.039009627 0.02366516
-0.060279675 -0.032935217 0.037763387 0.007830946 0.023989985 0.03448456 0.027602522 0.05076972
-0.10277037 -0.06179097 -0.013132693 -0.020428339 0.028486323 -0.00019074863 0.02396494 -0.099887334
00000000: 464b 2bbd 0d91 ba3c 4943 47bd aa4c 24bc
00000010: ac15 be3c 24e7 84bd 4c59 74bd 508f bcbd
00000020: 0c9d b3bb 0a9b 15bc eff3 0ebb b00e 48bc
00000030: 1bd7 36bd a9d1 44bd 5267 833d 1acb 63bd
00000040: 7158 053c 03b0 923d e1b1 a93c ddc0 623a
00000050: 9410 d7bd a39e 98bd bd8d 813c cbd2 e63b
00000060: 54e4 fb3b 98ac 273d 873f a5bd 30a2 57bd
00000070: e6f5 083c d5cc e33c 9bc4 363d 81c1 81bd
00000080: 1483 353d fcfb 83bc 772b c2bb 6f4e 74bd
00000090: ffb4 773d c123 17bd 0dd5 523d 537c bcbb
000000a0: eda3 5a3d d1d4 103d 5c31 99bc 1a5a 863d
000000b0: 8fb6 02bc 5cca 88bc 974a 603d e916 25bd
000000c0: 7184 383d d3b0 133d c8f7 773d 7832 b3bc
000000d0: 76df debc 0483 b5bc 69cc 383a d528 a4bd
000000e0: 25e4 1b3d a503 263d 13e4 cdbc 3ae2 543b
000000f0: 2ff5 aabd b5ac 9cbd 5536 5a3d 09db 3d3d
00000100: 8a9b 7e3c 4c65 473d 5863 783b 647c 143d
00000110: 7ab8 9bbd 7a5b 96bc 5f51 233c 10e3 f2bc
00000120: d715 363d 4b6e 5d3d 4427 6bbc f6bc 523d
00000130: 837f 95bd 9388 f6bb 8543 183d 9b42 87bd
00000140: 7bad 54bd 2ebc cdbd b326 91bd caeb 813d
00000150: b446 8bbd a7a6 88bc d0af 48bd 4d78 183d
00000160: 546c 91bd abcc 53bd 38e1 e13b fa46 b4bd
00000170: a399 0abd b294 b0bc 880a c83c 667d e3bb
00000180: 7d17 56bd 7273 13bc 786c 9fbc 1875 20bd
00000190: ddc9 09bb 2a52 1cbd 2a8c 1fbd 2253 24bd
000001a0: b4a8 a9bd 9749 d8bc 97c2 4f3d 2fa4 893d
000001b0: 8422 ef3c 4251 8e3c 8fc8 1f3d 70dd c13c
000001c0: d2e7 76bd 14e7 06bd c8ad 1a3d 5e4d 003c
000001d0: a586 c43c af3f 0d3d af1e e23c e9f3 4f3d
000001e0: 4679 d2bd 8718 7dbd 822a 57bc 5559 a7bc
000001f0: 265c e93c b203 48b9 1f52 c43c bb91 ccbd

action_model._continuous_distribution.log_sigma f4 [1, 2]
-0.06723293 -0.120479316
00000000: 6bb1 89bd dcbd f6bd

action_model._continuous_distribution.mu.weight f4 [2, 128]
-0.051120684 -0.039479006 -0.0069731376 0.030685682 0.009017986 -0.017203279 0.00010595379 -0.006595241
-0.019076657 0.010964014 -0.0028847237 0.017220503 0.0058732512 0.005206462 0.0041098357 0.024261579
-0.014949706 -0.07110213 0.0035438733 -0.020928416 -0.0027665738 0.019154942 -0.017676925 0.009327105
-0.014726916 -0.0104075875 -0.0014724114 -0.029566247 -0.023342958 0.020341488 0.0014368962 -0.0013662637
-0.00555058 0.026441155 -0.016182955 0.019423466 -0.0036610537 0.0309876 0.021991668 -0.067000225
-0.030628508 0.01897799 0.012632358 -0.013266739 -0.031201841 -0.005968126 -0.022808682 -0.0032127225
0.0050517414 0.01115994 -0.020579448 0.0098382225 0.014949598 -0.0011582043 -0.00174524 0.020967823
0.0033555431 -0.0038865646 0.024434187 0.0057047764 0.0010133241 0.016573288 -0.026366122 -0.016105393
-0.013143546 0.023151238 -0.0022387805 -0.0020916967 -0.012568522 -0.035999626 -0.0124306865 0.011885768
-0.01262042 0.0057747667 0.016954347 -0.013135416 0.0049040364 0.003826202 -0.0036494567 0.036225155
-0.032477897 0.007957942 -0.007824101 -0.007941268 -0.031679686 -0.048147526 0.009589225 0.04099789
-0.023780167 0.03817634 0.0054244823 0.015895205 0.019777184 0.016527167 0.0017792949 0.010625732
-0.002591875 0.0050073555 -0.006167238 -0.04080644 0.0053407773 -0.00066053943 0.005227583 -0.047937784
0.0012114199 0.026796352 0.000977558 -0.005641137 -0.010543165 -0.0033724546 -0.0051053273 0.0056805722
0.0129262395 -0.03215402 0.00018499793 0.00526168 0.011604202 -0.054813072 0.02762067 -0.017406868
0.006815692 -0.022001283 -0.015611676 0.01525867 0.010972187 -0.036129024 0.017327417 -0.002948117
-0.036250364 -0.044645216 -0.0011063197 0.017968204 0.0009211857 -0.038594175 -0.003344445 -0.016643444
-0.015612707 0.0022659402 0.0015333479 0.01161712 0.005761936 0.029530289 -0.00044728894 0.010888101
-0.013532981 -0.017096428 -7.966793e-05 -0.0068545197 -0.06863099 0.0032530867 -0.0017455568 0.008417497
-0.0136027355 0.0040918887 -0.097638346 -0.045988582 -0.02735173 0.024087988 0.031558037 -0.003873514
0.002681482 0.005436448 -0.020086171 0.010669463 0.053337958 -0.015238929 0.030276753 -0.026397146
0.04888766 0.018205311 -0.002398401 0.00426575 -0.0143043045 0.0046520554 0.029837383 5.5460856e-05
0.06072399 0.005308769 0.0043319715 0.020952627 -0.0015590158 0.008843538 -0.008857385 -0.032388728
-0.0011108747 0.029157544 0.015830403 -0.00011047439 0.0033360613 0.010733602 0.047962964 0.007038729
0.024048593 0.040858068 -0.0006474746 0.00066814857 -0.064139076 -0.015598471 -0.00043843454 -0.005397058
0.015988667 -0.0009107735 0.00928074 0.024310391 -0.022850633 0.00077162543 -0.00015378692 -0.005880797
-0.035015766 -0.06116296 -0.0025194506 0.047973234 -0.057358164 -0.046468694 0.012276045 0.017241819
-0.015241188 -0.031560283 -0.0026642042 -0.03708943 0.0073757772 0.0007977069 0.00011123382 0.010403377
-0.0004957766 0.008071198 -0.00035363834 -0.045202076 -0.0034835436 0.00669145 0.0039025112 -0.025220951
-0.02232583 0.0050790585 0.029491149 0.06564508 -0.018364212 -0.0030415207 0.027356958 0.0008031514
0.0029525706 -0.031665083 0.0034487245 -0.003968568 0.0044018226 0.021390006 0.04708523 0.02597537
-0.033035837 -0.04741667 -0.011122091 -0.005204105 0.013567758 -0.05022516 0.0066452795 -0.039365742
00000000: ec63 51bd bdb4 21bd eb7e e4bb 8a60 fb3c
00000010: 2dc0 133c e4ed 8cbc 8233 de38 e41c d8bb
00000020: a646 9cbc 68a2 333c a20d 3dbb 0312 8d3c
00000030: 6774 c03b f89a aa3b cdab 863b 38c0 c63c
00000040: 9def 74bc fe9d 91bd 5440 683b 1272 abbc
00000050: 684f 35bb d3ea 9c3c 33cf 90bc b7d0 183c
00000060: 2a49 71bc 9684 2abc eefd c0ba ea34 f2bc
00000070: bb39 bfbc 31a3 a63c 3c56 bc3a 3414 b3ba
00000080: a4e1 b5bb 1f9b d83c 1e92 84bc f61d 9f3c
00000090: 4aee 6fbb b5d9 fd3c df27 b43c 6a37 89bd
000000a0: a3e8 fabc bb77 9b3c f3f7 4e3c bd5c 59bc
000000b0: 019b ffbc 4590 c3bb 46d9 babc 8a8c 52bb
000000c0: 1489 a53b 2ed8 363c 3b96 a8bc 7f30 213c
000000d0: 29ef 743c e3ce 97ba 89c0 e4ba b6c4 ab3c
000000e0: ace8 5b3b bcb5 7ebb 342a c83c 22ef ba3b
000000f0: 84d1 843a b4c4 873c c4fd d7bc 75ef 83bc
00000100: 0758 57bc aaa7 bd3c 81b8 12bb d914 09bb
00000110: 34ec 4dbc 5874 13bd 14aa 4bbc 86bc 423c
00000120: e1c5 4ebc 413a bd3b d8e3 8a3c ee35 57bc
00000130: 0ab2 a03b 04c1 7a3b b92b 6fbb d460 143d
00000140: 8b07 05bd 0762 023c a830 00bc 181c 02bc
00000150: 8fc2 01bd 5736 45bd 201c 1d3c 67ed 273d
00000160: a0ce c2bc cb5e 1c3d dbbf b13b a936 823c
00000170: c303 a23c fb63 873c 3b37 e93a 8d17 2e3c
00000180: 72dc 29bb be14 a43b 8b16 cabb a724 27bd
00000190: b001 af3b 0d28 2dba 254c ab3b 695a 44bd
000001a0: 82c8 9e3a 0684 db3c 6721 803a 49d9 b8bb
000001b0: 3dbd 2cbc 6604 5dbb 974a a7bb 1824 ba3b
000001c0: 94c8 533c efb3 03bd 01fc 4139 2c6a ac3b
000001d0: 8d1f 3e3c ac83 60bd be44 e23c d998 8ebc
000001e0: 2b56 df3b 093c b4bc 1dc8 7fbc 80ff 793c
000001f0: b0c4 333c 07fc 13bd 3af2 8d3c 3235 41bb
00000200: 437b 14bd e7dd 36bd ee01 91ba 0e32 933c
00000210: ba7b 713a ed14 1ebd 7a2e 5bbb d557 88bc
00000220: 70cc 7fbc 2b80 143b 9efa c83a bc55 3e3c
00000230: 9fce bc3b 81e9 f13c 1b82 eab9 0164 323c
00000240: 70b9 5dbc cf0d 8cbc 6513 a7b8 e19b e0bb
00000250: 688e 8cbd bd31 553b 2bcb e4ba 8be9 093c
00000260: 02de 5ebc 4015 863b 9df6 c7bd 865e 3cbd
00000270: bc10 e0bc 2c54 c53c 0043 013d c8da 7dbb
00000280: cdbb 2f3b 3b24 b23b c18b a4bc f9ce 2e3c
00000290: e778 5a3d b3ac 79bc f406 f83c d43e d8bc
000002a0: 6d3e 483d 4e23 953c 7e2e 1dbb b4c7 8b3b
000002b0: 9a5c 6abc 4570 983b 876d f43c a49e 6838
000002c0: b8b9 783d 2ff5 ad3b 36f3 8d3b d8a4 ab3c
000002d0: e457 ccba 7de4 103c 911e 11bc 0baa 04bd
000002e0: c59a 91ba cddb ee3c c3ae 813c 7dae e7b8
000002f0: d2a1 5a3b fddb 2f3c d074 443d 23a5 e63b
00000300: 8e01 c53c ca5a 273d 49bb 29ba b126 2f3a
00000310: 595b 83bd bb90 7fbc b0dd e5b9 ced9 b0bb
00000320: aafa 823c fac0 6eba 3f0e 183c 9626 c73c
00000330: 4031 bbbc e846 4a3a dd41 21b9 b3b3 c0bb
00000340: b16c 0fbd 0386 7abd 5e1d 25bb 957f 443d
00000350: 65f0 6abd f555 3ebd 7721 493c b73e 8d3c
00000360: 2db6 79bc 5b45 01bd ee99 2ebb 16eb 17bd
00000370: 81b0 f13b 341d 513a 3446 e938 ed72 2a3c
00000380: 01f7 01ba 0f3d 043c 8968 b9b9 d025 39bd
00000390: 2a4c 64bb f343 db3b 46c1 7f3b 2b9c cebc
000003a0: a9e4 b6bc 3b6e a63b 6c97 f13c ed70 863d
000003b0: 8b70 96bc 4054 47bb b31b e03c 948a 523a
000003c0: ea7f 413b 3fb3 01bd ff03 623b c30a 82bb
000003d0: 2a3d 903b 183a af3c 71dc 403d 4dca d43c
000003e0: 9650 07bd fb37 42bd 6e39 36bc 3287 aabb
000003f0: 4d4b 5e3c e6b8 4dbd a5c0 d93b f93d 21bd

action_model._continuous_distribution.mu.bias f4 [2]
-0.00376543 0.091106355
00000000: 6fc5 76bb f895 ba3d

action_model._discrete_distribution.branches.0.weight f4 [1, 128]
0.0047382787 0.003741771 0.021615844 0.014333687 0.015518923 0.0090130055 -0.0009969093 0.0020160025
-0.011306561 0.004906248 -0.013978682 0.005518077 0.011682543 -0.0012618176 0.0026624305 -0.00015639066
-0.0015258169 -0.002398871 -0.0010095449 -0.005173539 -0.007474421 0.012135736 -0.01772406 -0.01953064
-0.016504942 -0.005260591 -0.0078035756 0.004216747 -0.004732376 0.00031481526 -0.0051206048 -0.010521144
0.0069718957 -0.004352213 0.0050855535 -0.0133054275 -0.0023367733 -0.012704727 0.002726483 -0.002494489
0.0018187411 0.008081438 -0.012703443 -0.0065999837 0.00092407095 -0.0044985074 0.014866518 0.0061245076
0.0072964206 -0.00041910805 0.010350704 0.0021163318 0.0048084236 0.001592123 -0.008353676 0.011443083
-0.024139207 0.0027034262 0.009788456 0.0019454573 -0.0055043316 -0.012022907 0.0011656481 -0.008287439
0.011609999 -0.0052845543 -0.0077137644 0.02184615 -0.016407816 -0.005437497 -0.0053354762 0.016101701
-0.0010071564 -0.0034063214 0.0073418627 0.009827425 -0.004662853 0.0030154858 -0.00068063196 0.0040912493
0.0060194447 -0.0069107125 -0.007291405 -0.011670738 -0.013663651 -0.006351333 -0.01027162 -0.010532197
0.0047339057 -0.0046229386 -0.006095657 -0.001383864 0.0023669142 -0.012811797 -0.0009264266 -0.010054646
0.005692157 -0.0061673056 0.0072521507 0.005895793 0.0101673035 0.0036060035 -0.008958983 -0.0009852241
-0.017394977 -0.006109035 0.0026044052 0.0014474465 0.005162296 0.0140547175 0.0034856908 -0.018061634
-0.0055558607 0.005181445 0.022752134 0.00716003 0.009847327 -0.016161991 0.0080950195 0.002375074
-0.002136609 -0.00038984112 0.0022294822 0.0117834145 -0.0036838911 0.01114523 -0.0044861166 0.0017972302
00000000: 9043 9b3b 8038 753b b613 b13c d7d7 6a3c
00000010: 1543 7e3c 49ab 133c baaa 82ba e91e 043b
00000020: 273f 39bc 97c4 a03b d806 65bc fcd0 b43b
00000030: 2368 3f3c 9363 a5ba 2c7c 2e3b ccfc 23b9
00000040: ebfd c7ba 6036 1dbb b552 84ba ca86 a9bb
00000050: fdeb f4bb f7d4 463c 0c32 91bc b9fe 9fbc
00000060: 5f35 87bc 0961 acbb 23b5 ffbb a32c 8a3b
00000070: 0c12 9bbb ca0d a539 bfca a7bb e060 2cbc
00000080: 8074 e43b 029d 8ebb b7a4 a63b 02ff 59bc
00000090: 8d24 19bb 7d27 50bc cbae 323b 957a 23bb
000000a0: d362 ee3a 0268 043c 1a22 50bc ad44 d8bb
000000b0: 5a3d 723a 3768 93bb b292 733c 18b0 c83b
000000c0: d016 ef3b bbbb dbb9 0096 293c 28b2 0a3b
000000d0: fb8f 9d3b c8ae d03a dbdd 08bc c57b 3b3c
000000e0: 96bf c5bc f72b 313b c35f 203c b7fe fe3a
000000f0: ae5d b4bb bafb 44bc a9c8 983a 0ac8 07bc
00000100: de37 3e3c 0e2a adbb bfc3 fcbb b2f6 b23c
00000110: af69 86bc 082d b2bb 38d5 aebb b7e7 833c
00000120: 9002 84ba 973c 5fbb 0294 f03b 3503 213c
00000130: d9ca 98bb 759f 453b 706c 32ba e30f 863b
00000140: c33e c53b 4273 e2bb bdec eebb a036 3fbc
00000150: 82dd 5fbc d81e d0bb 4c4a 28bc 3c8f 2cbc
00000160: e11e 9b3b 057c 97bb 14be c7bb c562 b5ba
00000170: 3b1e 1b3b 92e8 51bc 70db 72ba 3ebc 24bc
00000180: 4685 ba3b 1c17 cabb 73a3 ed3b 7f31 c13b
00000190: c394 263c b352 6c3b b3c8 12bc a322 81ba
000001a0: e97f 8ebc 4d2e c8bb abae 2a3b 3fb8 bd3a
000001b0: 7a28 a93b c245 663c 3070 643b fef5 93bc
000001c0: f00d b6bb 1cc9 a93b af62 ba3c af9e ea3b
000001d0: af56 213c 2766 84bc f9a0 043c 21a7 1b3b
000001e0: 5a06 0cbb 9763 ccb9 811c 123b 390f 413c
000001f0: 706d 71bb 7c9a 363c 4600 93bb 0a91 eb3a

exp_avg f4 [128, 7]
-6.368903e-06 -4.1838346e-09 3.325648e-05 3.3830915e-05 0.0 1.6713011e-05 9.870956e-06 4.3324435e-06
-1.1128823e-08 -3.6093792e-05 -4.577252e-05 0.0 -4.79842e-06 -2.7378623e-05 -8.267668e-06 -7.251115e-09
-1.3495515e-05 -5.0650087e-05 0.0 -1.53786e-05 -3.5152356e-05 -5.8594716e-05 1.1997183e-08 -6.0507085e-05
-6.82533e-05 0.0 -7.796996e-05 -4.136426e-05 0.00012196955 -1.4496732e-08 -5.121083e-06 -4.3686312e-05
0.0 7.272158e-05 5.0058294e-05 -0.00027932395 -1.4170057e-09 -0.00019227639 -2.2475939e-05 0.0
-0.00013673842 -0.00018207177 0.00014249652 3.469926e-09 6.510631e-05 2.3624953e-05 0.0 8.1214275e-05
8.517865e-05 -0.00021890573 -1.0620856e-09 -6.967426e-05 -2.894065e-05 0.0 -0.00010158219 -0.00010132209
-6.639008e-05 -1.0580687e-08 -8.1161015e-06 1.222249e-05 0.0 -1.976248e-05 -7.0471884e-05 -8.36713e-05
-1.0875956e-09 3.7748236e-05 2.340708e-05 0.0 -1.5047173e-05 -1.4832859e-05 -9.420351e-06 -9.400261e-09
3.106389e-05 2.3240868e-06 0.0 1.3516851e-05 -1.4816412e-05 3.842181e-05 -7.587713e-10 4.955074e-06
-3.418089e-05 0.0 1.8258046e-05 1.3849134e-05 8.917467e-05 2.0095727e-09 1.1519553e-05 4.4809744e-06
0.0 3.86601e-05 4.0302675e-05 3.253912e-05 1.01783035e-08 3.788344e-05 5.9754606e-05 0.0
-3.8870672e-05 -4.3898395e-05 -0.00032503533 -1.2655698e-09 -0.00012902974 6.735966e-05 0.0 -0.00016958649
-0.00027773893 -0.00025408625 -1.083072e-08 -5.6288587e-05 3.187582e-05 0.0 -0.00010102463 -0.0002154132
-5.958263e-05 -1.0050526e-09 3.8387803e-05 6.9360176e-05 0.0 -6.327717e-05 -0.0001320122 -6.534784e-06
9.739675e-09 -7.196449e-05 -3.2027187e-05 0.0 -2.7066035e-05 -1.9051546e-05 -5.743311e-05 6.0080243e-09
-0.00010275532 -6.1225015e-05 0.0 -4.9875227e-05 -5.59048e-05 -0.00037032837 -5.9570143e-10 -0.00014086903
3.850837e-05 0.0 -0.00016947112 -0.0002550122 -0.00029883132 5.212886e-09 -0.00014038624 4.928521e-05
0.0 -0.0001473168 -0.00023678549 1.7034681e-05 -9.317394e-09 -4.5672474e-05 -5.9296974e-05 0.0
-2.1135558e-05 -2.818037e-05 1.6395723e-05 1.2430712e-08 1.2391814e-05 1.2767959e-05 0.0 -3.99195e-05
-2.2923612e-05 -0.00031322736 -5.612302e-09 -0.00011398523 -1.2795771e-05 0.0 -0.00012131829 -0.0002251149
-5.66998e-06 -5.1456137e-09 -4.873509e-06 -1.2381849e-05 0.0 -1.5043512e-05 -3.3948087e-05 -0.00019381913
-3.1903338e-09 -0.00010556317 -5.7011533e-05 0.0 -9.1860085e-05 -9.770066e-05 9.631497e-05 2.4763596e-09
6.11542e-05 3.3722954e-05 0.0 5.8645448e-05 5.0514656e-05 -4.121253e-05 -6.1716887e-10 1.5695185e-05
5.5806413e-06 0.0 -1.3565287e-05 -1.16280535e-05 3.4890396e-05 4.407039e-09 7.0823176e-06 -8.763718e-06
0.0 1.2283418e-05 3.3683787e-05 -0.00017997985 7.021894e-09 -0.00011956647 9.0352505e-06 0.0
-0.00010980454 -0.00014251767 -0.0001459079 -2.26829e-08 -1.9260551e-05 -2.4566385e-05 0.0 -5.4056136e-06
-9.8119286e-05 -8.998355e-05 1.895728e-09 -3.6293102e-05 1.6049316e-05 0.0 -2.295201e-05 -5.2840212e-05
-1.9763653e-05 2.2464584e-09 7.0537308e-06 4.9605105e-06 0.0 -2.262846e-05 -3.267916e-05 -1.6020049e-05
8.465258e-09 1.894227e-05 6.705262e-06 0.0 -2.0665278e-05 -1.0729494e-05 -2.3509006e-05 -3.967746e-09
2.3992368e-05 -3.5477324e-06 0.0 4.4006376e-07 3.7746654e-06 -9.082686e-06 1.45664885e-08 -4.2779297e-06
2.2516724e-06 0.0 -3.84117e-05 -1.9099823e-05 -0.0001045953 -1.1468606e-09 2.1080796e-05 8.642484e-06
00000000: 76b4 d5b6 66c1 8fb1 e07c 0b38 abe5 0d38
00000010: 0000 0000 eb32 8c37 6f9b 2537 685f 9136
00000020: 1531 3fb2 6a63 17b8 defb 3fb8 0000 0000
00000030: 1d02 a1b6 25ab e5b7 5db5 0ab7 7b25 f9b1
00000040: cc6a 62b7 1e71 54b8 0000 0000 4b01 81b7
00000050: 8e70 13b8 99c3 75b8 2b1c 4e32 fdc8 7db8
00000060: 3623 8fb8 0000 0000 ce83 a3b8 897e 2db8
00000070: e7c9 ff38 4d0d 79b2 c5d5 abb6 d23b 37b8
00000080: 0000 0000 1a82 9838 aff5 5138 3a72 92b9
00000090: 75c0 c2b0 cd9d 49b9 b68a bcb7 0000 0000
000000a0: 7161 0fb9 85ea 3eb9 1e6b 1539 9573 6e31
000000b0: af89 8838 332e c637 0000 0000 9551 aa38
000000c0: f1a1 b238 0f8a 65b9 d1f8 91b0 151e 92b8
000000d0: 93c5 f2b7 0000 0000 8608 d5b8 e27c d4b8
000000e0: e73a 8bb8 5bc6 35b2 642a 08b7 320f 4d37
000000f0: 0000 0000 9ac7 a5b7 4eca 93b8 b078 afb8
00000100: 5e7a 95b0 dc53 1e38 525a c437 0000 0000
00000110: 1e73 7cb7 a5da 78b7 190c 1eb7 c97e 21b2
00000120: 994a 0238 82f7 1b36 0000 0000 6fc6 6237
00000130: 0194 78b7 1b27 2138 c991 50b0 c343 a636
00000140: 745d 0fb8 0000 0000 db28 9937 9459 6837
00000150: 4903 bb38 c718 0a31 1a44 4137 475b 9636
00000160: 0000 0000 f726 2238 ab0a 2938 9d7a 0838
00000170: a7dc 2e32 09e5 1e38 05a1 7a38 0000 0000
00000180: 1109 23b8 8b1f 38b8 8169 aab9 47f0 adb0
00000190: 284c 07b9 7143 8d38 0000 0000 07d3 31b9
000001a0: 7d9d 91b9 e136 85b9 0312 3ab2 6917 6cb8
000001b0: 67b2 0538 0000 0000 2fdd d3b8 8ae0 61b9
000001c0: 5de8 79b8 2522 8ab0 9702 2138 7675 9138
000001d0: 0000 0000 acb3 84b8 c16c 0ab9 5e45 dbb6
000001e0: 8b53 2732 a4eb 96b8 ee54 06b8 0000 0000
000001f0: de0b e3b7 e2d0 9fb7 55e4 70b8 246f ce31
00000200: 587e d7b8 ee65 80b8 0000 0000 1e31 51b8
00000210: 527b 6ab8 a228 c2b9 c3be 23b0 3eb6 13b9
00000220: 0c84 2138 0000 0000 0fb4 31b9 28b3 85b9
00000230: 76ac 9cb9 081d b331 a534 13b9 97b7 4e38
00000240: 0000 0000 0d79 1ab9 9f49 78b9 b3e5 8e37
00000250: 5512 20b2 7290 3fb8 a4b5 78b8 0000 0000
00000260: 444c b1b7 e264 ecb7 8c89 8937 d98e 5532
00000270: 70e6 4f37 f735 5637 0000 0000 3d6f 27b8
00000280: 154c c0b7 aa38 a4b9 55d6 c0b1 5b0b efb8
00000290: 6bad 56b7 0000 0000 436c feb8 d20c 6cb9
000002a0: c240 beb6 4ccd b0b1 2087 a3b6 a3bb 4fb7
000002b0: 0000 0000 6463 7cb7 7b63 0eb8 ed3b 4bb9
000002c0: f23c 5bb1 cc61 ddb8 ab1f 6fb8 0000 0000
000002d0: 02a5 c0b8 a4e4 ccb8 b5fc c938 942c 2a31
000002e0: e93f 8038 bf71 0d38 0000 0000 12fa 7538
000002f0: b3df 5338 9edb 2cb8 66a5 29b0 27a9 8337
00000300: 5841 bb36 0000 0000 7796 63b7 1c16 43b7
00000310: 4757 1238 ba6c 9731 a5a4 ed36 e207 13b7
00000320: 0000 0000 e114 4e37 b147 0d38 f9b8 3cb9
00000330: 3c45 f131 c3bf fab8 1b96 1737 0000 0000
00000340: dd46 e6b8 cc70 15b9 dbfe 18b9 39d8 c2b2
00000350: b891 a1b7 e913 ceb7 0000 0000 de61 b5b6
00000360: 64c5 cdb8 8db5 bcb8 0046 0231 6c39 18b8
00000370: a5a1 8637 0000 0000 1189 c0b7 bfa0 5db8
00000380: 1fca a5b7 1d60 1a31 16af ec36 7672 a636
00000390: 0000 0000 3fd2 bdb7 fb10 09b8 cb62 86b7
000003a0: 996e 1132 37e6 9e37 c3fd e036 0000 0000
000003b0: 595a adb7 d302 34b7 3535 c5b7 aa54 88b1
000003c0: 3843 c937 9415 6eb6 0000 0000 e741 ec34
000003d0: 4250 7d36 d761 18b7 1840 7a32 238b 8fb6
000003e0: 701b 1736 0000 0000 401c 21b8 8f38 a0b7
000003f0: 2d5a dbb8 929f 9db0 aad6 b037 30ff 1037

exp_avg_sq f4 [128, 7]
1.0421785e-07 8.321028e-10 3.8560046e-08 5.3209057e-08 0.0 5.2676395e-08 9.449609e-08 3.3983355e-07
6.658371e-11 1.4910897e-07 2.902197e-07 0.0 2.4701754e-07 1.5998972e-07 5.660706e-07 5.282334e-10
2.1604949e-07 3.615455e-07 0.0 3.0283687e-07 1.7614299e-07 1.634181e-06 1.0965929e-08 5.3177183e-07
7.2501723e-07 0.0 5.137096e-07 3.094753e-07 5.0638636e-07 5.5559474e-10 3.769151e-07 4.3907906e-07
0.0 4.6110128e-07 6.4021077e-07 1.8462491e-06 1.4531691e-09 2.0295934e-06 1.7657956e-06 0.0
2.6824473e-06 1.7398796e-06 2.6645273e-07 3.1924412e-09 1.8190066e-07 2.4579685e-07 0.0 1.9724203e-07
6.7371826e-07 6.217479e-07 3.5896095e-09 3.3447486e-07 4.2931174e-07 0.0 5.161062e-07 2.7750997e-07
1.9512576e-07 2.8513705e-10 2.0121561e-07 2.4790032e-07 0.0 2.3099862e-07 3.8049276e-07 4.3636075e-07
1.2519221e-09 1.8685867e-07 2.7308118e-07 0.0 3.116469e-07 2.3272052e-07 1.5286092e-07 5.036996e-10
1.1305798e-07 1.18588005e-07 0.0 1.591465e-07 1.7594783e-07 4.210326e-07 1.3394477e-08 5.8714795e-07
6.10169e-07 0.0 3.695295e-07 2.7590343e-06 3.1524743e-07 3.7310763e-09 1.4138256e-07 2.2202858e-07
0.0 1.7828751e-07 3.5948386e-07 2.8757913e-07 2.4375446e-10 4.33705e-07 3.6067996e-07 0.0
1.9245876e-07 2.1581477e-06 2.2965078e-06 1.5835772e-08 3.3299773e-06 2.7078133e-06 0.0 2.8923898e-06
8.40538e-06 1.1157213e-06 2.7740352e-09 1.3002311e-06 1.1708487e-06 0.0 1.3684087e-06 1.5628585e-06
3.9631408e-07 5.6296012e-09 6.312618e-07 5.268529e-07 0.0 3.1559242e-07 2.4223175e-06 1.1251097e-06
6.4958533e-10 7.632258e-07 8.7180143e-07 0.0 6.851523e-07 3.6372882e-07 1.5909847e-06 2.9656214e-10
6.1331815e-07 9.0651093e-07 0.0 9.746218e-07 5.8272605e-07 1.9917209e-06 6.2274863e-10 2.3125483e-06
1.9801162e-06 0.0 2.3367295e-06 4.1563076e-06 2.6379566e-06 1.5776637e-08 3.0291994e-06 2.6069433e-06
0.0 3.4494985e-06 4.437729e-06 4.4445952e-07 4.7514135e-09 1.2125868e-07 2.3941215e-07 0.0
2.2894066e-07 1.05006016e-07 1.364728e-07 3.7119956e-09 1.3717387e-07 1.3253803e-07 0.0 7.816094e-08
1.8779217e-07 2.641945e-06 2.7635329e-08 2.489877e-06 2.7582025e-06 0.0 2.8033353e-06 2.0773352e-06
5.777834e-07 7.693861e-09 4.393924e-07 5.7600613e-07 0.0 3.63614e-07 1.1378152e-06 8.735732e-07
3.19325e-09 3.674605e-07 5.129899e-07 0.0 6.071247e-07 2.126938e-07 2.6357904e-07 2.2432287e-10
1.922253e-07 1.902341e-07 0.0 2.9873027e-07 1.5144914e-07 1.052662e-07 2.3348268e-09 6.9091044e-08
1.09199554e-07 0.0 7.336209e-08 1.647705e-07 8.480422e-08 5.4518474e-09 7.265146e-08 9.550756e-08
0.0 6.18424e-08 3.328501e-07 9.0980427e-07 5.596752e-10 1.0978265e-06 8.968716e-07 0.0
1.2142983e-06 1.3069046e-06 7.174009e-07 2.0204127e-10 5.594132e-07 7.400674e-07 0.0 9.5021716e-07
3.1837706e-07 3.6299502e-07 4.7785115e-10 4.361892e-07 4.301176e-07 0.0 4.637297e-07 6.1504306e-07
1.0646048e-07 2.0504503e-09 8.032593e-08 1.00128595e-07 0.0 8.642701e-08 2.0503848e-07 1.2915436e-07
1.4760008e-10 1.0097094e-07 1.73005e-07 0.0 1.1329104e-07 4.78067e-07 1.3545157e-07 1.9686258e-11
9.2269644e-08 1.0557961e-07 0.0 8.369612e-08 2.0701347e-07 2.986575e-07 2.2721414e-08 3.3610232e-07
3.782058e-07 0.0 3.546789e-07 5.94714e-07 3.2362138e-07 5.444886e-10 2.4191775e-07 2.498878e-07
00000000: 5ece df33 07ba 6430 389d 2533 fa87 6433
00000010: 0000 0000 4f3e 6233 c6ed ca33 5e72 b634
00000020: 4c6b 922e c31a 2034 7ecf 9b34 0000 0000
00000030: d59d 8434 a4c9 2b34 13f4 1735 1f33 1130
00000040: 3bfb 6734 6f1a c234 0000 0000 9595 a234
00000050: d121 3d34 0856 db35 aa64 3c32 15bf 0e35
00000060: ce9e 4235 0000 0000 dbe5 0935 f625 a634
00000070: 9bee 0735 81b8 1830 d15a ca34 91ba eb34
00000080: 0000 0000 478d f734 f3da 2b35 a3cc f735
00000090: d8b8 c730 2634 0836 4600 ed35 0000 0000
000000a0: 1804 3436 cf85 e935 fc0c 8f34 0562 5b31
000000b0: 7950 4334 10f6 8334 0000 0000 7ac9 5334
000000c0: 91d9 3435 31e6 2635 14ad 7631 e091 b334
000000d0: 287c e634 0000 0000 8c8a 0a35 aefc 9434
000000e0: c383 5134 79c1 9c2f ba0d 5834 2917 8534
000000f0: 0000 0000 6b08 7834 8746 cc34 f744 ea34
00000100: 1810 ac30 52a3 4834 fe9b 9234 0000 0000
00000110: 6c50 a734 bbe1 7934 1722 2434 b574 0a30
00000120: 48ca f233 72aa fe33 0000 0000 dbe1 2a34
00000130: 2cec 3c34 480a e234 881d 6632 809c 1d35
00000140: 7fca 2335 0000 0000 bf63 c634 d927 3936
00000150: 473f a934 e532 8031 f1ce 1734 c066 6e34
00000160: 0000 0000 4c6f 3f34 16ff c034 9364 9a34
00000170: 6401 862f f6d7 e834 7aa3 c134 0000 0000
00000180: a9a6 4e34 b2d4 1036 b41d 1a36 3b07 8832
00000190: 9378 5f36 e1b7 3536 0000 0000 e11a 4236
000001a0: d504 0d37 e4bf 9535 58a1 3e31 9a83 ae35
000001b0: 0e26 9d35 0000 0000 2aaa b735 69c3 d135
000001c0: fec4 d434 7f6e c131 fb73 2935 0e6d 0d35
000001d0: 0000 0000 b16e a934 198f 2236 7a02 9735
000001e0: 818e 3230 7ae0 4c35 bd05 6a35 0000 0000
000001f0: 4feb 3735 8246 c334 d189 d535 6909 a32f
00000200: e7a2 2435 f556 7335 0000 0000 c0cf 8235
00000210: a16c 1c35 81a9 0536 0a2e 2b30 4731 1b36
00000220: 23e2 0436 0000 0000 b5d0 1c36 6976 8b36
00000230: c007 3136 3185 8732 4049 4b36 f2f2 2e36
00000240: 0000 0000 ef7d 6736 cde7 9436 0d9e ee34
00000250: e041 a331 5533 0234 8e88 8034 0000 0000
00000260: bbd2 7534 ab7f e133 5c89 1234 1e16 7f31
00000270: 114a 1334 c74f 0e34 0000 0000 6ed9 a733
00000280: eba3 4934 454c 3136 bb62 ed32 c317 2736
00000290: 8f19 3936 0000 0000 ef20 3c36 5968 0b36
000002a0: f918 1b35 f52d 0432 a2e5 eb34 d79e 1a35
000002b0: 0000 0000 ba36 c334 08b7 9835 7e7f 6a35
000002c0: 4070 5b31 6347 c534 66b4 0935 0000 0000
000002d0: 4bf9 2235 d460 6434 0782 8d34 46a5 762f
000002e0: 7d66 4e34 2743 4c34 0000 0000 2d61 a034
000002f0: 069e 2234 b50e e233 b572 2031 345f 9433
00000300: 1781 ea33 0000 0000 3c8b 9d33 c5eb 3034
00000310: 9d1d b633 f552 bb31 9004 9c33 d619 cd33
00000320: 0000 0000 38ce 8433 92b2 b234 4639 7435
00000330: a4d7 1930 0859 9335 8cc0 7035 0000 0000
00000340: f9fa a235 e668 af35 6a93 4035 9025 5e2f
00000350: 952a 1635 0ba9 4635 0000 0000 6d12 7f35
00000360: 69ed aa34 a8e1 c234 c959 0330 632d ea34
00000370: eaea e634 0000 0000 86f6 f834 7019 2535
00000380: 459f e433 e7e7 0c31 a67f ac33 4706 d733
00000390: 0000 0000 c099 b933 8c28 5c34 aead 0a34
000003a0: bb49 222f 5cd5 d833 41c3 3934 0000 0000
000003b0: 684a f333 8454 0035 a570 1134 8329 ad2d
000003c0: c625 c633 01bb e233 0000 0000 6ebc b333
000003d0: 6e47 5e34 2d57 a034 eb2c c332 8d71 b434
000003e0: 360c cb34 0000 0000 b26a be34 6fa4 1f35
000003f0: 2fbe ad34 fbaa 1530 ece0 8134 5128 8634

exp_avg f4 [128]
3.9511015e-05 -2.100313e-05 -3.1183008e-05 -7.077554e-05 1.4472376e-05 -0.000102956525 6.3358755e-05 -9.038822e-05
2.4915387e-05 5.4297057e-06 2.1080388e-05 -3.00019e-05 3.0258941e-05 8.025026e-05 -7.50522e-06 4.055683e-06
9.193539e-05 -2.3113967e-05 -7.519983e-05 -5.956458e-05 -3.1625754e-05 -3.6681475e-05 1.5418234e-05 -7.451496e-05
5.289357e-06 -0.00010231069 6.321011e-05 -1.35389555e-05 -1.5466741e-05 -5.536996e-05 -5.121532e-06 -1.8786859e-06
5.4893144e-06 -1.2832282e-05 -5.014741e-06 -1.4472225e-05 -1.7082979e-05 2.279684e-05 2.8186225e-05 -7.82947e-05
6.887003e-05 6.837329e-05 2.5133548e-05 -2.4157628e-06 1.1096566e-05 -6.702216e-05 -1.4892896e-05 -2.8782557e-05
8.9642135e-06 -2.7425684e-05 -5.1895304e-06 -3.24545e-05 -4.4360564e-05 -1.4792298e-06 1.132219e-05 4.3436998e-05
-0.000118476164 -1.6239965e-05 4.0920488e-05 -1.084324e-05 7.296278e-06 -4.0636354e-05 2.3274592e-05 3.97423e-06
-7.087273e-06 5.2211385e-06 5.924216e-06 -2.7516824e-06 2.2770388e-05 -1.0955547e-06 -1.8419821e-07 3.320461e-05
2.5638583e-06 1.7906072e-05 -7.596677e-05 3.1527834e-05 8.287781e-06 3.2111257e-05 -1.4487154e-05 3.1687254e-05
-2.0083458e-05 -7.6904535e-06 8.133188e-07 -5.8339487e-05 4.695046e-05 7.357267e-05 -1.1869841e-05 8.903479e-06
5.113173e-06 2.9718005e-05 2.5837113e-05 -2.4985922e-05 7.830719e-05 2.1325672e-05 1.3736141e-05 5.1440315e-06
7.083916e-05 4.3542557e-05 0.00011813617 4.990001e-05 9.301351e-06 -5.909586e-05 -4.284455e-05 7.324941e-06
-2.6724113e-06 -1.4133343e-05 3.7112216e-06 -1.2707658e-05 6.9628826e-05 3.0949057e-05 4.0634066e-05 -1.679634e-05
1.4159095e-05 2.9932428e-07 -7.555875e-05 3.3759003e-05 5.305163e-06 4.947383e-05 -1.112848e-05 -8.342695e-05
-0.00010023717 5.2938998e-05 3.1051204e-06 -1.6675418e-05 -1.5515647e-05 1.7785447e-05 -2.1879353e-06 4.2077745e-06
00000000: a1b8 2538 e12f b0b7 80ca 02b8 546d 94b8
00000010: 62ce 7237 5dea d7b8 79df 8438 ce8e bdb8
00000020: 6301 d137 d130 b636 cad5 b037 97ac fbb7
00000030: 95d4 fd37 084c a838 59d5 fbb6 0d16 8836
00000040: 70cd c038 dee4 c1b7 9ab4 9db8 fbd4 79b8
00000050: e5a5 04b8 6fda 19b8 6856 8137 ea44 9cb8
00000060: 3b7b b136 a28f d6b8 ab8f 8438 5f25 63b7
00000070: 93be 81b7 0b3d 68b8 a0d9 abb6 2827 fcb5
00000080: da30 b836 3b4a 57b7 4c44 a8b6 bccd 72b7
00000090: 6b4d 8fb7 d73b bf37 7571 ec37 2632 a4b8
000000a0: 516e 9038 a163 8f38 e2d5 d237 7d1e 22b6
000000b0: 632b 3a37 408e 8cb8 80dc 79b7 1272 f1b7
000000c0: 0165 1637 3510 e6b7 ba21 aeb6 c11f 08b8
000000d0: cb0f 3ab8 f389 c6b5 70f4 3d37 1f30 3638
000000e0: 6876 f8b8 0f3b 88b7 0aa2 2b38 5ceb 35b7
000000f0: 8dd2 f436 f470 2ab8 ce3d c337 605a 8536
00000100: 36cf edb6 3d31 af36 a1c8 c636 8ba9 38b6
00000110: 0903 bf37 f90a 93b5 05c8 45b4 2e45 0b38
00000120: c00e 2c36 ff34 9637 5950 9fb8 c13c 0438
00000130: c00b 0b37 33af 0638 da0d 73b7 eee7 0438
00000140: e678 a8b7 3f06 01b7 d852 5a35 8cb1 74b8
00000150: acec 4438 074b 9a38 9424 47b7 2760 1537
00000160: d291 ab36 ee4a f937 c7bc d837 dc98 d1b7
00000170: da38 a438 88e4 b237 4774 6637 e59a ac36
00000180: 7c8f 9438 77a1 3638 e0bf f738 ba4b 5138
00000190: 000d 1c37 b2dd 77b8 fcb3 33b8 c4c8 f536
000001a0: ad57 33b6 3f1e 6db7 4d0e 7936 fa32 55b7
000001b0: b105 9238 4ccf 0138 7f6e 2a38 dee5 8cb7
000001c0: da8c 6d37 d1b2 a034 4c75 9eb8 7498 0d38
000001d0: 0103 b236 1f82 4f38 75b4 3ab7 81f5 aeb8
000001e0: 6c36 d2b8 d10a 5e38 9061 5036 30e2 8bb7
000001f0: 9927 82b7 f531 9537 71d4 12b6 8230 8d36

exp_avg_sq f4 [128]
6.9987536e-08 2.6011324e-07 4.3089187e-07 8.5340656e-07 4.4390734e-07 1.8817442e-06 2.1875402e-07 4.4932906e-07
2.0540995e-07 2.9446497e-07 1.3395966e-07 4.206963e-07 2.1338533e-07 2.9632483e-07 2.420887e-06 1.1363138e-06
4.3526404e-07 8.3532535e-07 1.0970772e-06 2.0036541e-06 2.5408713e-06 2.631648e-07 1.1718838e-07 2.6183172e-06
4.73784e-07 5.930073e-07 2.0939783e-07 8.95559e-08 7.386688e-08 9.1608e-07 7.553597e-07 3.9835368e-07
1.0551507e-07 1.232797e-07 9.81105e-08 3.1098963e-07 2.4064502e-07 3.688736e-07 1.0745308e-07 2.0408493e-06
3.765482e-07 4.5348082e-07 2.1051363e-07 4.0347294e-07 2.5076082e-07 7.86473e-07 1.4968933e-07 4.16996e-08
6.2424624e-07 1.4445823e-06 9.2875204e-08 1.5694043e-07 1.3325871e-06 1.2901656e-07 2.3446437e-06 4.5805064e-07
5.0730597e-07 2.0206969e-07 3.245897e-07 3.4863965e-07 2.2663068e-07 4.349446e-07 4.135426e-07 3.503031e-07
7.213635e-08 2.630496e-07 7.606971e-08 9.741647e-08 6.5232655e-08 9.9095196e-08 6.3187414e-08 1.3179816e-07
7.991542e-08 6.7004635e-07 9.683158e-07 4.106649e-07 1.3912138e-07 1.9652853e-07 2.5395966e-08 4.0277848e-07
4.1031268e-07 1.8137405e-06 7.9080917e-07 3.0869296e-07 1.6794584e-07 4.4900364e-07 6.334229e-08 6.311691e-08
3.601764e-07 3.9638832e-07 2.498768e-07 1.2419181e-07 2.1171418e-07 3.1038928e-07 9.476757e-08 3.0782118e-08
3.0502662e-07 2.914896e-07 1.0751583e-06 7.842387e-07 1.0307565e-06 7.6964096e-07 5.6107215e-08 1.7953707e-07
9.868706e-08 2.2932822e-07 1.0314334e-07 6.325463e-07 6.1578373e-07 5.6953947e-08 1.6280777e-07 8.07643e-08
2.3285393e-06 5.8627307e-08 2.4313678e-07 2.0864744e-07 6.5070833e-07 2.5079171e-07 3.971833e-07 5.793757e-07
9.4640774e-07 6.293762e-07 8.1456825e-08 1.2112643e-07 2.0679005e-07 1.0399488e-06 2.9831395e-07 3.9498727e-07
00000000: 0e4c 9633 b1a5 8b34 5455 e734 a715 6535
00000010: 2952 ee34 3d90 fc35 a6e2 6a34 513b f134
00000020: a88e 5c34 f516 9e34 8dd6 0f34 0fdc e134
00000030: ea1e 6534 9316 9f34 8676 2236 7283 9835
00000040: 3cae e934 1f3b 6035 493f 9335 8476 0636
00000050: d683 2a36 1849 8d34 fea8 fb33 59b6 2f36
00000060: 615c fe34 272f 1f35 d6d6 6034 e051 c033
00000070: bfa0 9e33 8ae8 7535 ecc3 4a35 50dd d534
00000080: 8697 e233 de5e 0434 d1b0 d233 17f6 a634
00000090: 0032 8134 9a09 c634 f5c0 e633 86f5 0836
000000a0: 6428 ca34 ee75 f334 8c09 6234 e69c d834
000000b0: 4ea0 8634 031e 5335 4aba 2034 3219 3333
000000c0: e091 2735 78e3 c135 af72 c733 7583 2834
000000d0: 58db b235 cd87 0a34 ac58 1d36 00ea f534
000000e0: cd2d 0835 7ef8 5834 4543 ae34 ab2c bb34
000000f0: c457 7334 5582 e934 dd04 de34 4b11 bc34
00000100: 61e9 9a33 4339 8d34 c45b a333 4533 d133
00000110: 0816 8c33 29ce d433 a6b1 8733 6784 0d34
00000120: f79d ab33 3cdd 3335 14f7 8135 5b79 dc34
00000130: 6561 1534 5a05 5334 5226 da32 743d d834
00000140: f248 dc34 a66f f335 fe47 5435 70ba a534
00000150: 9a54 3434 970e f134 cb06 8833 e38a 8733
00000160: 445e c134 32cf d434 ce26 8634 9659 0534
00000170: 8d53 6334 94a3 a634 0683 cb33 4c35 0433
00000180: 8ac2 a334 077e 9c34 284e 9035 7984 5235
00000190: 8658 8a35 5399 4e35 89fa 7033 c6c6 4034
000001a0: c9ed d333 433d 7634 a77f dd33 40cc 2935
000001b0: 564c 2535 879d 7433 42d0 2e34 a570 ad33
000001c0: 0044 1c36 68cd 7b33 7788 8234 9208 6034
000001d0: 56ac 2e35 8da4 8634 753c d534 6586 1b35
000001e0: a50c 7e35 67f2 2835 5ded ae33 fb0e 0234
000001f0: 040a 5e34 5e94 8b35 f527 a034 a30e d434
