results/Gr/Gr/Gr-0.pt (torch, 159074 bytes, 21 tensors)

network_body.observation_encoder.processors.0.normalizer.running_mean f4 [12]
00000000: 0000 0000 0000 0000 0000 0000 0000 0000
00000010: 0000 0000 0000 0000 0000 0000 0000 0000
00000020: 0000 0000 0000 0000 0000 0000 0000 0000
0.0 0.0 0.0 0.0 0.0 0.0 0.0 0.0
0.0 0.0 0.0 0.0

network_body.observation_encoder.processors.0.normalizer.running_variance f4 [12]
00000000: 0000 803f 0000 803f 0000 803f 0000 803f
00000010: 0000 803f 0000 803f 0000 803f 0000 803f
00000020: 0000 803f 0000 803f 0000 803f 0000 803f
1.0 1.0 1.0 1.0 1.0 1.0 1.0 1.0
1.0 1.0 1.0 1.0

network_body.processors.0.normalizer.running_mean f4 [12]
00000000: 0000 0000 0000 0000 0000 0000 0000 0000
00000010: 0000 0000 0000 0000 0000 0000 0000 0000
00000020: 0000 0000 0000 0000 0000 0000 0000 0000
0.0 0.0 0.0 0.0 0.0 0.0 0.0 0.0
0.0 0.0 0.0 0.0

network_body.processors.0.normalizer.running_variance f4 [12]
00000000: 0000 803f 0000 803f 0000 803f 0000 803f
00000010: 0000 803f 0000 803f 0000 803f 0000 803f
00000020: 0000 803f 0000 803f 0000 803f 0000 803f
1.0 1.0 1.0 1.0 1.0 1.0 1.0 1.0
1.0 1.0 1.0 1.0

network_body._body_endoder.seq_layers.0.weight f4 [128, 12]
00000000: 6aec 1dbe e741 20bf 1f03 44be 8c4b 613d
00000010: 27b1 2b3d a5cd 5fbe 31ee 683d f6b4 503e
00000020: b418 883e 2f11 1c3f 545c bf3d b29f 23bb
00000030: 4972 babd e1a3 d7bd 5184 2c3e 5eff a6be
00000040: 0482 e93d 0157 cb3d 9456 29be b70b b83e
00000050: 4c45 3e3c 8118 c1be dc8a a1be ec44 743e
00000060: 15f7 6ebe 11ff 36be 689b e23e 123b b3bc
00000070: e508 56bd 4dc6 2bbd f3aa 29be d799 b63e
00000080: ef13 c8bd d2b4 a93e 4cfa f93e 5d89 1dbe
00000090: 168d 5a3e b058 0fbf b165 0f3e 3457 653d
000000a0: 958d 9cbd 6569 f93e e951 763d 31ef 023e
000000b0: 18ce 0bbe b063 833e 12fc 06be 899e e3be
000000c0: 3053 f7be 827e a7bd 90d9 20be 41b6 b03d
000000d0: 2354 e43d b384 eb3c 59a4 ac3d db09 f83e
000000e0: 55b1 d63c 8d89 263e d48e 28bc b4d4 b5be
000000f0: 0b7c 63bf 03ed 293d 5f12 f23d 3783 ae3e
00000100: 280f e4bd cf0a a13e ddcd 1dbe 00a3 863e
00000110: 22b8 5c3e ec2c 25be ba00 1e3e 0b99 36bf
00000120: 1062 513d 489c 06bf 1adf 7cbd afa3 01bf
00000130: 2923 abbe ce60 1c3e f40f 74bd f220 bc3d
00000140: cc0c 4c3e 2b9a fdbd 9200 d3be d4e4 8f3e
00000150: 135f 0bbf 8597 563e 4d71 803e bcfe 8fbd
00000160: 62b5 a4be 0425 a2be 4679 48be 23d1 8f3e
00000170: 1719 89be 0a50 263f 2934 3dbd df05 9abe
00000180: 3a8e cabd f1db e3be d243 a03e 1a92 043f
00000190: 98f7 34be 8443 2b3d e732 a63e 7bce 7f3e
000001a0: dea1 5a3e 2a8d 0c3e 57da 5a3d 678e 913e
000001b0: 4a86 953e cf35 97bc 5c5f d73c a1bb c53e
000001c0: e9ee d0be fad4 19be fdeb f3be 5dda 9bbe
000001d0: 0c91 37ba 2fa7 febe ef47 d8be 4f45 973e
000001e0: 53cd b33e e54a 85be 3ea7 4f3d 3f50 633e
000001f0: fa4c 383f bbf6 c0be 211d 183e 9de8 c23e
00000200: 6df8 083e 7115 02bf 227b 293e 25b8 443c
00000210: e7b5 bebd 45c7 69bd 33b0 743d c48a 17be
00000220: 25be eb3e a86d 90be ae76 f9bd e305 853d
00000230: b0c2 0bbe c3bb f0be 967e 8c3e 0b36 7abe
00000240: 265c 66bd af0a 96bd 56f7 e8bd 284f 45be
00000250: aa19 c2bd a95c 9d3c b772 cebe d27e f0be
00000260: 140d 7cbe 6e4a a43d 467a d4bc 6815 74bc
00000270: 96c4 81be 7b4a 833d 441a 9a3e 2842 06bf
00000280: b726 a03e 02c3 c43d 9875 453e a244 b13d
00000290: 24a0 a0be b5e3 dbbe 4413 f0bd 02de d7be
000002a0: f6d4 de3e 4c26 bfbc 6d55 58bd 70ee d0bd
000002b0: b844 4bbe 2725 9cbe 7253 e2bd 7c1f 54bd
000002c0: ef96 1ebe 0886 243e a36d 9c3c 132a fbbe
000002d0: cff7 473e 6962 c53e 294c b6bd b4b7 5c3e
000002e0: 5d7c bc3d b9f5 14bd da14 cb3e 1619 0e3d
000002f0: ffed 3bbe d658 bdbe 46e2 b13d a217 0b3d
00000300: 931b 543e 59b6 8d3b 39d1 0ebe 1b63 e4bd
00000310: 3f90 c73e 3832 81bd 8f2b b4bd 2fb0 4c3e
00000320: 798f 01be dee3 0abe 4bac bc3d 49e5 ddba
00000330: 3674 5dbc f647 48be 4876 a0be 57a7 0d3e
00000340: 4c67 a6be a000 37be 315b c1be 43b3 1f3e
00000350: 96a4 5cbe 848c a93d 4506 f73d 71dd 8cbd
00000360: f0bb 0fbe 32ac b1bc da26 babb 6760 a23e
00000370: fb46 593e 6dff 013e 28e1 073f 7dfd 803d
00000380: def2 ed3d fead b63d b318 98be 97d9 2cbf
00000390: b10f acbe 5a8a 45bd d72d 1d3e f27c d53d
000003a0: 1c67 83bc 5d20 c43e 3737 2e3e de63 d0bc
000003b0: b085 08be a378 c9be f62f 82be 0fd2 ddbe
000003c0: 43af 613d 851b 113e 4747 babd e602 a83e
000003d0: 7da3 a5be 172b 2c3d 69e2 e2bd 66e7 b7be
000003e0: b37d 7e3e 2564 163f e5d3 263e 0608 bc3e
000003f0: c5bd b53d ea4a f4bd 4558 b53e 638a 41be
-0.15422216 -0.6260056 -0.19141816 0.055003688 0.041916993 -0.21855791 0.056867782 0.20381531
0.26581347 0.6096372 0.09343782 -0.0024967012 -0.091038294 -0.10529304 0.1684735 -0.32616705
0.11401752 0.09928704 -0.16536933 0.35946438 0.011613201 -0.37714007 -0.31551254 0.23854417
-0.23336442 -0.17870738 0.4425919 -0.021878753 -0.052254576 -0.04193716 -0.16569118 0.35664245
-0.09769427 0.33145767 0.48823774 -0.15384431 0.21342883 -0.559947 0.14003636 0.055991367
-0.07644192 0.48713222 0.06013671 0.12786557 -0.13652837 0.25661993 -0.13182095 -0.4445689
-0.48305655 -0.08178426 -0.15707994 0.08628512 0.1114886 0.0287498 0.08429784 0.4844502
0.026207605 0.16263409 -0.010287959 -0.35513842 -0.8886115 0.041485798 0.1181991 0.34084484
-0.11135703 0.3145356 -0.15410562 0.26296234 0.21554616 -0.16130418 0.15429965 -0.71327275
0.05111891 -0.52582216 -0.061736204 -0.50640386 -0.33425263 0.15271303 -0.059585527 0.09185971
0.19926757 -0.12382921 -0.41211373 0.2810427 -0.54441947 0.20956238 0.25086442 -0.070310086
-0.32169634 -0.31668866 -0.19577512 0.28089246 -0.26776955 0.6496588 -0.046192322 -0.30082604
-0.09890409 -0.4450374 0.31301743 0.51785433 -0.17672575 0.041812435 0.3246071 0.2498111
0.2135081 0.13725725 0.05343088 0.28428957 0.29204017 -0.018458275 0.026290588 0.38619712
-0.40807274 -0.1502265 -0.47640982 -0.30440035 -0.00070025097 -0.49736926 -0.4224238 0.29545066
0.35117587 -0.26033702 0.050696604 0.2219858 0.71992457 -0.3768824 0.14854862 0.38068095
0.13376017 -0.50813967 0.16550878 0.012006794 -0.09312039 -0.057074804 0.05973835 -0.14799029
0.46043506 -0.2820866 -0.121808395 0.064952634 -0.13648486 -0.4701825 0.27440327 -0.24434678
-0.056240223 -0.073262565 -0.113753006 -0.19268477 -0.09477551 0.019209223 -0.40321895 -0.46971756
-0.24614364 0.08022009 -0.02593721 -0.014897682 -0.25345296 0.064106904 0.30098164 -0.52444696
0.31279537 0.09607507 0.1928314 0.08655669 -0.31372178 -0.42947164 -0.117224246 -0.42161566
0.4352185 -0.023333691 -0.052815843 -0.10201728 -0.19850433 -0.30497095 -0.11051072 -0.05178784
-0.15487264 0.16066754 0.019095248 -0.49055538 0.19528125 0.38551643 -0.08901245 0.21554452
0.09203408 -0.036367152 0.39664346 0.034691893 -0.18352507 -0.3698184 0.08685736 0.033958085
0.20713644 0.004324716 -0.13947 -0.11151715 0.3897724 -0.063084066 -0.08797371 0.19989084
-0.12652387 -0.13563487 0.0921255 -0.0016929294 -0.013516476 -0.19558701 -0.3134024 0.13833366
-0.32500684 -0.17871332 -0.37764886 0.15595727 -0.2154716 0.08278754 0.12061743 -0.06878174
-0.14036536 -0.021688554 -0.005680901 0.31714174 0.21218483 0.12695093 0.53077936 0.06298349
0.11618589 0.08919905 -0.29706344 -0.67519516 -0.33605722 -0.048227645 0.15349518 0.10424222
-0.016040377 0.3830594 0.1701325 -0.025438245 -0.13332248 -0.3934985 -0.25427216 -0.43324324
0.055098783 0.14170654 -0.09095626 0.3281471 -0.32351294 0.04203328 -0.110783406 -0.3591873
0.24852638 0.5874656 0.16291769 0.3672487 0.08874086 -0.11928351 0.35418907 -0.18900447

network_body._body_endoder.seq_layers.0.bias f4 [128]
00000000: 0000 0000 0000 0000 0000 0000 0000 0000
00000010: 0000 0000 0000 0000 0000 0000 0000 0000
00000020: 0000 0000 0000 0000 0000 0000 0000 0000
00000030: 0000 0000 0000 0000 0000 0000 0000 0000
00000040: 0000 0000 0000 0000 0000 0000 0000 0000
00000050: 0000 0000 0000 0000 0000 0000 0000 0000
00000060: 0000 0000 0000 0000 0000 0000 0000 0000
00000070: 0000 0000 0000 0000 0000 0000 0000 0000
00000080: 0000 0000 0000 0000 0000 0000 0000 0000
00000090: 0000 0000 0000 0000 0000 0000 0000 0000
000000a0: 0000 0000 0000 0000 0000 0000 0000 0000
000000b0: 0000 0000 0000 0000 0000 0000 0000 0000
000000c0: 0000 0000 0000 0000 0000 0000 0000 0000
000000d0: 0000 0000 0000 0000 0000 0000 0000 0000
000000e0: 0000 0000 0000 0000 0000 0000 0000 0000
000000f0: 0000 0000 0000 0000 0000 0000 0000 0000
00000100: 0000 0000 0000 0000 0000 0000 0000 0000
00000110: 0000 0000 0000 0000 0000 0000 0000 0000
00000120: 0000 0000 0000 0000 0000 0000 0000 0000
00000130: 0000 0000 0000 0000 0000 0000 0000 0000
00000140: 0000 0000 0000 0000 0000 0000 0000 0000
00000150: 0000 0000 0000 0000 0000 0000 0000 0000
00000160: 0000 0000 0000 0000 0000 0000 0000 0000
00000170: 0000 0000 0000 0000 0000 0000 0000 0000
00000180: 0000 0000 0000 0000 0000 0000 0000 0000
00000190: 0000 0000 0000 0000 0000 0000 0000 0000
000001a0: 0000 0000 0000 0000 0000 0000 0000 0000
000001b0: 0000 0000 0000 0000 0000 0000 0000 0000
000001c0: 0000 0000 0000 0000 0000 0000 0000 0000
000001d0: 0000 0000 0000 0000 0000 0000 0000 0000
000001e0: 0000 0000 0000 0000 0000 0000 0000 0000
000001f0: 0000 0000 0000 0000 0000 0000 0000 0000
0.0 0.0 0.0 0.0 0.0 0.0 0.0 0.0
0.0 0.0 0.0 0.0 0.0 0.0 0.0 0.0
0.0 0.0 0.0 0.0 0.0 0.0 0.0 0.0
0.0 0.0 0.0 0.0 0.0 0.0 0.0 0.0
0.0 0.0 0.0 0.0 0.0 0.0 0.0 0.0
0.0 0.0 0.0 0.0 0.0 0.0 0.0 0.0
0.0 0.0 0.0 0.0 0.0 0.0 0.0 0.0
0.0 0.0 0.0 0.0 0.0 0.0 0.0 0.0
0.0 0.0 0.0 0.0 0.0 0.0 0.0 0.0
0.0 0.0 0.0 0.0 0.0 0.0 0.0 0.0
0.0 0.0 0.0 0.0 0.0 0.0 0.0 0.0
0.0 0.0 0.0 0.0 0.0 0.0 0.0 0.0
0.0 0.0 0.0 0.0 0.0 0.0 0.0 0.0
0.0 0.0 0.0 0.0 0.0 0.0 0.0 0.0
0.0 0.0 0.0 0.0 0.0 0.0 0.0 0.0
0.0 0.0 0.0 0.0 0.0 0.0 0.0 0.0

network_body._body_endoder.seq_layers.2.weight f4 [128, 128]
00000000: cb17 d9bd 9ab7 d03d 8c71 2dbd 71cf 9a3c
00000010: a98f d53d e3c1 cb3d 9571 013e 1dba debd
00000020: 4a4e b53d 1922 e23c e9d0 1b3e 656c c03b
00000030: 9219 b3bc b95b 70bd 4ee9 16bd 7126 49bd
00000040: f75c c5bc 66a4 cb3d f4f1 673a 0882 60bd
00000050: 0f6c 433c 5503 95bd 34df e23b ed71 023b
00000060: 5b46 883d b682 cabc 48d9 fbbc 18b2 fd3d
00000070: dde9 353e e72e 283d 4c9f 35bd 5eb1 df3d
00000080: 0f82 f83d 50d1 6ebd a667 a5bd 80a7 18be
00000090: aeb8 273e 6f58 4ebe 9685 c3bc b430 4e3d
000000a0: 52e1 753c 7c72 91bc 127e 83bd 4845 043d
000000b0: 3b43 b73c 52a4 f0bd f2f7 43bc 8a0a 033c
000000c0: 8f52 5b3c 2c7e 573d 019f ed3d 6edb fb3b
000000d0: ad91 3a3d 6df4 b83d 6932 75be 66bb 053e
000000e0: 80b3 1dbe 9632 003d 7837 893d 0798 4e3d
000000f0: aeb8 86bd 1c5e d83d 261c ecbd c10d b43d
00000100: e1de 1e3e 8707 17be 56ae 77bd e3a7 1f3e
00000110: 8f7f 333d 30d5 39be d36c 053d cc91 093e
00000120: 91e2 46bd f553 8f3d 4c52 81bd beec 063e
00000130: d649 91bc ae94 babc 0215 49bb a9e1 2f3d
00000140: e537 79bb 627d 98bd c807 34be 36a9 b93c
00000150: 597d e93d 54ff 2c3d af41 3e3b a95f 263e
00000160: 2309 153c 8cf9 0c3d 9482 023d 5147 103e
00000170: 8088 b8bb 6490 8cbd 3d2d 953d 389e 23bd
00000180: 5b15 41bd e07e 953d 6a12 87bd 6f18 4f3e
00000190: b7a2 6abd 8eda c2bd a031 3ebb 0657 b33d
000001a0: 4501 01bc 73e9 b9bd b762 24bc 15bf 24be
000001b0: 9ee1 66bc 8f4d a03d e488 babd b7f8 7bbc
000001c0: 9ac4 28be c056 b9bc 300f e93c df38 92bc
000001d0: 5d83 cdbb 635d b8bd f5e4 57be 09cd 19be
000001e0: a31f 6f3c aac0 dcbc 184a cebd 03c6 b8bc
000001f0: 4cb4 50bb 48e2 4abe bdb7 bd3d 85f0 48bd
00000200: 40d6 45bd 3116 b3bc 1653 a1bd 5485 18bd
00000210: c5ba 91bd b4bd 9fbd 7bed 9bbc 62b4 edbd
00000220: 0699 e1bd 1b21 16be 8c77 383e ed7f 9c3d
00000230: d4ce 043d f69c a53d 9a09 dd3d 3e77 643e
00000240: 3090 533d 399b 26be 98d4 283d 71a9 cb3d
00000250: 2fc7 fc3c 71c7 05bd 3bcc 91ba 98c2 2f3d
00000260: f140 b33d 5d94 fabc 6c5d a63c 793a e03d
00000270: 3220 0e3e 886f e1bd e423 5cbd 92cd 423c
00000280: dba7 21bc bcda 79ba 5630 113e d1fa d83d
00000290: 9da6 1c3e 117d 08bd 5fb5 73bb 3fdf 3b3d
000002a0: 5c44 593d 2ec4 3d3e 2354 433c b8e0 26bb
000002b0: 4f1a 793b f24b d8bd 4eaf 99bd 31bc ea3d
000002c0: 2cd9 663b a97d 01be 7a95 1bbc fb87 01bd
000002d0: 9fd4 48be 8388 23bd d940 5a3d 806e b53c
000002e0: 3ff3 e73d 8383 2d3d 27ae 893d a9ad 60bd
000002f0: 18e8 2b3e 03a9 9a3c abdf b8bd b2d7 df3d
00000300: 96d1 81bd 67ad a73d 392a 373d 1c39 ec3c
00000310: 3e4d 693e d3fc 483e 9f78 efbd fc5c 1fbd
00000320: 9215 e8bd c719 4dbd 5cee 19be bd54 f6bd
00000330: e64e 01bd 07a7 e7bd b593 043e 27d6 a4bd
00000340: 20f9 1c3d 8ddd 1cbd 1115 cd3b dd06 c3bd
00000350: 2c91 d0bd ac6a 723d 5768 44be 2a98 b6bd
00000360: 4881 a63c 4612 c33d 7a57 d0bd b780 183d
00000370: d06e 923d 4f3b 9d3d fff4 abbd 91f2 153e
00000380: a1f0 3a3c 898a a7bd 599a 71bd d419 87bd
00000390: ba83 0c3a 903b 22bd 5b6b 943d 9658 833d
000003a0: fc1c 49be 82f9 5dbd 8205 623d f1fa 7e3d
000003b0: a27d a43d 7fc9 36be 889b be3d d90f 06bc
000003c0: b687 fa3d a8cb 6ebe ad69 673d a269 a0bd
000003d0: 25d2 54be 61b4 17be a84c 9fbd 63a8 0e3e
000003e0: b868 fabb 396d d33d 72e3 6e3d 5e60 253d
000003f0: 8b79 b1bd 6ab2 eb3c f012 efbc bef8 2c3d
-0.10600241 0.10191269 -0.042344615 0.018897744 0.104277916 0.0994909 0.12640984 -0.10875342
0.08852823 0.02760415 0.15216412 0.0058722966 -0.021862779 -0.058681224 -0.03684359 -0.049108926
-0.02409218 0.09943466 0.00088480045 -0.054811507 0.011927619 -0.07276026 0.0069235805 0.001990433
0.06654044 -0.024720531 -0.030743256 0.12387484 0.17764993 0.041060355 -0.04434137 0.10922502
0.12134182 -0.058305085 -0.0807641 -0.14907646 0.16379043 -0.20150922 -0.02386741 0.050339416
0.015007334 -0.017754786 -0.064205304 0.032292634 0.022370925 -0.117500916 -0.01196097 0.007998118
0.013386383 0.05261056 0.11602593 0.00768607 0.045549084 0.090309955 -0.23945011 0.13059768
-0.15400505 0.031298243 0.06700033 0.050437953 -0.065781936 0.10564825 -0.115288064 0.08791686
0.15514709 -0.14748965 -0.060468994 0.15591387 0.04382282 -0.18147731 0.032574486 0.13434523
-0.048555914 0.069984354 -0.06314525 0.13176247 -0.017735403 -0.022775974 -0.0030682688 0.042939816
-0.00380277 -0.0744579 -0.17581093 0.022663694 0.11400861 0.042235687 0.002903085 0.16247429
0.009096417 0.034417674 0.03186281 0.14089705 -0.0056315064 -0.06863478 0.07284019 -0.03994581
-0.047139507 0.0729959 -0.06595309 0.20224164 -0.057284083 -0.09514342 -0.0029021278 0.08756833
-0.007873838 -0.0907773 -0.010033301 -0.16088517 -0.014091877 0.07827293 -0.09108141 -0.015379122
-0.16481248 -0.022624373 0.028449625 -0.017849384 -0.0062717632 -0.09002187 -0.21083434 -0.15019621
0.014594945 -0.026947338 -0.10072726 -0.022555357 -0.0031845747 -0.19812882 0.09263561 -0.049057502
-0.048300028 -0.021861168 -0.078771755 -0.037236527 -0.071157016 -0.07799855 -0.019034138 -0.11606671
-0.11015515 -0.14661066 0.18014354 0.076415874 0.03242381 0.080865785 0.10792847 0.22311112
0.05165118 -0.1627015 0.04121837 0.09944428 0.030856697 -0.032660905 -0.0011123487 0.04291019
0.08752621 -0.030588323 0.020308219 0.10948653 0.13879469 -0.11007601 -0.053745165 0.011889832
-0.00986668 -0.000953119 0.14178595 0.105947144 0.15297933 -0.033322398 -0.0037186963 0.0458672
0.05304371 0.18531868 0.011921915 -0.0025463533 0.0038010066 -0.105613604 -0.0750414 0.11461676
0.003522466 -0.12645592 -0.009496087 -0.03162382 -0.19612359 -0.03992511 0.0532845 0.022147417
0.113256924 0.042361747 0.0672267 -0.054853115 0.16787755 0.01887942 -0.09027036 0.109298125
-0.063388035 0.08187371 0.044718 0.028835826 0.22783372 0.19627695 -0.116929285 -0.038907036
-0.11332239 -0.05007341 -0.15032333 -0.12027881 -0.031569384 -0.11311155 0.12946971 -0.08048659
0.03832352 -0.038297225 0.006258615 -0.095227934 -0.10183939 0.05918376 -0.19180427 -0.08915742
0.020325318 0.0952497 -0.10172935 0.037232127 0.07150042 0.07677328 -0.08396339 0.14643313
0.011409909 -0.0818072 -0.058985088 -0.06596723 0.0005360205 -0.039607584 0.07247039 0.06413381
-0.19639963 -0.054193027 0.055181034 0.062251035 0.08031775 -0.17850302 0.09307009 -0.008182489
0.12232916 -0.23319876 0.056497265 -0.07832648 -0.20783289 -0.14814903 -0.07778293 0.13931422
-0.007641878 0.10323567 0.058322378 0.040375106 -0.086657606 0.028771598 -0.029183835 0.042229407

network_body._body_endoder.seq_layers.2.bias f4 [128]
00000000: 0000 0000 0000 0000 0000 0000 0000 0000
00000010: 0000 0000 0000 0000 0000 0000 0000 0000
00000020: 0000 0000 0000 0000 0000 0000 0000 0000
00000030: 0000 0000 0000 0000 0000 0000 0000 0000
00000040: 0000 0000 0000 0000 0000 0000 0000 0000
00000050: 0000 0000 0000 0000 0000 0000 0000 0000
00000060: 0000 0000 0000 0000 0000 0000 0000 0000
00000070: 0000 0000 0000 0000 0000 0000 0000 0000
00000080: 0000 0000 0000 0000 0000 0000 0000 0000
00000090: 0000 0000 0000 0000 0000 0000 0000 0000
000000a0: 0000 0000 0000 0000 0000 0000 0000 0000
000000b0: 0000 0000 0000 0000 0000 0000 0000 0000
000000c0: 0000 0000 0000 0000 0000 0000 0000 0000
000000d0: 0000 0000 0000 0000 0000 0000 0000 0000
000000e0: 0000 0000 0000 0000 0000 0000 0000 0000
000000f0: 0000 0000 0000 0000 0000 0000 0000 0000
00000100: 0000 0000 0000 0000 0000 0000 0000 0000
00000110: 0000 0000 0000 0000 0000 0000 0000 0000
00000120: 0000 0000 0000 0000 0000 0000 0000 0000
00000130: 0000 0000 0000 0000 0000 0000 0000 0000
00000140: 0000 0000 0000 0000 0000 0000 0000 0000
00000150: 0000 0000 0000 0000 0000 0000 0000 0000
00000160: 0000 0000 0000 0000 0000 0000 0000 0000
00000170: 0000 0000 0000 0000 0000 0000 0000 0000
00000180: 0000 0000 0000 0000 0000 0000 0000 0000
00000190: 0000 0000 0000 0000 0000 0000 0000 0000
000001a0: 0000 0000 0000 0000 0000 0000 0000 0000
000001b0: 0000 0000 0000 0000 0000 0000 0000 0000
000001c0: 0000 0000 0000 0000 0000 0000 0000 0000
000001d0: 0000 0000 0000 0000 0000 0000 0000 0000
000001e0: 0000 0000 0000 0000 0000 0000 0000 0000
000001f0: 0000 0000 0000 0000 0000 0000 0000 0000
0.0 0.0 0.0 0.0 0.0 0.0 0.0 0.0
0.0 0.0 0.0 0.0 0.0 0.0 0.0 0.0
0.0 0.0 0.0 0.0 0.0 0.0 0.0 0.0
0.0 0.0 0.0 0.0 0.0 0.0 0.0 0.0
0.0 0.0 0.0 0.0 0.0 0.0 0.0 0.0
0.0 0.0 0.0 0.0 0.0 0.0 0.0 0.0
0.0 0.0 0.0 0.0 0.0 0.0 0.0 0.0
0.0 0.0 0.0 0.0 0.0 0.0 0.0 0.0
0.0 0.0 0.0 0.0 0.0 0.0 0.0 0.0
0.0 0.0 0.0 0.0 0.0 0.0 0.0 0.0
0.0 0.0 0.0 0.0 0.0 0.0 0.0 0.0
0.0 0.0 0.0 0.0 0.0 0.0 0.0 0.0
0.0 0.0 0.0 0.0 0.0 0.0 0.0 0.0
0.0 0.0 0.0 0.0 0.0 0.0 0.0 0.0
0.0 0.0 0.0 0.0 0.0 0.0 0.0 0.0
0.0 0.0 0.0 0.0 0.0 0.0 0.0 0.0

action_model._continuous_distribution.log_sigma f4 [1, 2]
00000000: 0000 0000 0000 0000
0.0 0.0

action_model._continuous_distribution.mu.weight f4 [2, 128]
00000000: 0768 1cbc 3d1d 25bb 0a2d e63c af69 353c
00000010: a85f 0bbb f162 0d3c 3310 c03c 83c8 853c
00000020: 52ce 5b3b 73f7 8c3c 6261 a13c eb77 903c
00000030: 89b9 923c 114a 843c f9a8 3bba 5037 123c
00000040: b3b9 c23a 1b3f 8f3c 4f58 a43b d7c3 953c
00000050: c3f6 80bc 94d4 0e3c 3fac a5bc ed85 3b3c
00000060: 1285 8dbc 87dc f1bb bf91 243d 77d0 fc3c
00000070: 2694 113d 0200 073d 6a79 c0bc bd3a 113c
00000080: 5751 583c 7033 b33c 37b1 a43c 600f b3bb
00000090: 6778 8a3c f374 56bd 23b8 ee3c d70d 443c
000000a0: 3ca2 85bc 109d 5b3c 644d c13a ad7e 41bb
000000b0: 4c4d aabc ee6d 49bd 5f36 55bb b789 673c
000000c0: 97ec 993b 9851 663a ac8d 353b 5447 ba3b
000000d0: da75 99ba 8f5b 693c eda2 8d3c 0ddf 6e3c
000000e0: 3b3e a7bc ce78 adbb 0bcf 4dbc d516 6f3c
000000f0: 62a5 eebc 4e96 a23c 7d7e 4abc 979f 8f3c
00000100: affd 21bc dfe7 003c 60d2 b83b 939d bdbb
00000110: 81ac 9a3c d802 e93b c630 a6bb 43de c4bb
00000120: 9af1 3bbc 3d0e 98bb 129d c03a d479 b2bb
00000130: 5b01 90bc 9d26 3b3c 1b3a 1a3c a021 bdbc
00000140: ab3c cdbc 941f a93b 8d1d 7dbc 76b6 14bc
00000150: 6198 8d3c 8390 acbc 6af7 8bbc 9317 16bb
00000160: 819d 09ba 3be2 eeba a312 0a3c a0a1 503a
00000170: 7560 0cbd f77b a6bc 8bf5 ebbb 9daf febb
00000180: f99e b73c 938a 3fbb 3513 093c b241 6d3c
00000190: 331c 93bb 9589 843c 22b0 793c 5775 8fbc
000001a0: 2089 8e3c 9f21 2f3b 93de 843b 6273 373d
000001b0: 231b 48bb 3f78 bf3c c8ab c23b 2d20 2c3d
000001c0: c4f4 a43c 3f60 493c 29d8 013c 8b11 c6bb
000001d0: 37d0 d1bc 4562 3c3c 5aa6 c53b 451c 8cbb
000001e0: 3a40 dfbc ea4e 113c a926 a13b 81be 013d
000001f0: 02c5 13bc a823 bbbc 0d11 24bc 2d52 403d
00000200: 6fcc 0a3c 13d7 1cbc c222 683c e37e 8dbc
00000210: be10 9f3a 6b8a babb 631e a43c 99a1 903b
00000220: cf4c 6fbb 5ac1 103d f9e1 033d 1f9c 453b
00000230: 9d43 0bbb 8f23 32bd f753 ffbc 0baa a03c
00000240: 90d6 5fbc 0bb0 443c bdca d7bb 7be1 a0bc
00000250: b7ac 193d aacf de3c 380c ea3a ed30 6fbb
00000260: 0faf 4dbb c01d 26bb b24d 98b9 d34a 0c38
00000270: e79d 7a3c 1360 b23b e0f1 01bb c4d7 93bc
00000280: 3b62 213c d9b8 453b 88f9 ac39 0a42 1b3c
00000290: ef2f b03b 4904 0dbc 6b00 943b 0a54 f83c
000002a0: 63e6 4a3c 5a77 d23c 88ac 17ba 3431 433c
000002b0: 4f49 7abc 2575 e5bc 9d02 723b 424a 9f3c
000002c0: 67bd 5f3b ae61 3a3c 52de 7abb d505 83bc
000002d0: 47f9 1ebc ffbd 77bc 9b1e 2d3c ffca d53c
000002e0: 3f36 3fbc cf1b e0bc 5395 3d3b fff8 27bd
000002f0: c5b7 d03b d32e a13c cf01 523c e707 433c
00000300: 33e1 013d 9c9f c23b c210 a63c 43c5 b13c
00000310: 4f36 30bc 2048 b43c 731b d23c 0f48 43bb
00000320: 3f30 2fba 676f f83c 57a1 8abb cd6b 56bc
00000330: fb6d 39bc 953b 263c bbcc 9f3c 3359 ca3c
00000340: 1695 13bd 8f39 98bb 2838 bc3b 5359 ce3c
00000350: ce5b 2abc 3382 73bb 1183 8dbc b030 173b
00000360: 053f a8bc 6064 9239 a979 a93c a31f 403c
00000370: 83cf c53c 50ab 4cbb 8bc8 243b 6fe7 c43c
00000380: a2ae 6e3c 1212 7f3a b950 87bc e7f3 8cbb
00000390: 678c 2cbc 7731 083d 092d 1bbc 9590 5bbc
000003a0: 1f29 b0ba c77b 2c3c 52a9 43bb 1d41 49bc
000003b0: 354c 013c a7d7 b0bb d55e f93c ff92 8cb9
000003c0: b317 2dbc 4c27 a63b 6719 d5bc 42fb 94bc
000003d0: bccd a63a 6520 8d3c 749e a03c b61e 123c
000003e0: 1223 133d 308f 85bc df7c 893c dc9f 0b3c
000003f0: ce88 843c 04cc 8e3c 330e 34bc 9423 0ebc
-0.009546286 -0.002519443 0.028097648 0.01107256 -0.0021266732 0.0086295465 0.023445224 0.016330963
0.0033539725 0.017207837 0.019699756 0.017635306 0.017910736 0.016148599 -0.0007158663 0.00892432
0.0014856368 0.017486146 0.00501541 0.01828186 -0.015742665 0.008717675 -0.020223735 0.011445505
-0.017275367 -0.0073810252 0.040178057 0.030861123 0.035541676 0.03295899 -0.023495395 0.008864102
0.013202987 0.021875113 0.020104034 -0.0054644793 0.016903115 -0.052357625 0.029140538 0.01196619
-0.016312711 0.013404146 0.0014747796 -0.0029524968 -0.020788811 -0.049177103 -0.0032533628 0.014131955
0.004697393 0.0008785962 0.0027702851 0.0056847725 -0.0011708096 0.014243021 0.017289603 0.014579547
-0.020415416 -0.005293942 -0.01256157 0.014592846 -0.029131595 0.019847061 -0.012359259 0.017532153
-0.009887143 0.007867782 0.005640313 -0.0057866066 0.018881084 0.0071109347 -0.005071732 -0.006007941
-0.0114711765 -0.004640369 0.0014695248 -0.005446652 -0.017578771 0.01142278 0.0094132675 -0.023087323
-0.025053343 0.005161235 -0.01544894 -0.009076705 0.017284574 -0.021065002 -0.01708575 -0.0022902235
-0.0005249605 -0.0018225381 0.008427295 0.00079586543 -0.034271676 -0.020322783 -0.007200902 -0.0077723996
0.022414671 -0.0029226884 0.008366396 0.014480995 -0.0044894456 0.016178885 0.015239747 -0.017512007
0.01739937 0.002672292 0.004054853 0.044787772 -0.0030533753 0.023372767 0.005940888 0.042022873
0.020136245 0.012291013 0.007925072 -0.0060445718 -0.02561198 0.011498039 0.0060317935 -0.004275831
-0.027252305 0.008868912 0.0049179387 0.03167582 -0.009019138 -0.02284415 -0.010013831 0.04695337
0.008471592 -0.009572762 0.014168443 -0.017272418 0.0012135727 -0.0056927702 0.02003402 0.004413795
-0.0036514287 0.035340644 0.032197926 0.003015287 -0.0021250017 -0.043490943 -0.031167967 0.019612333
-0.0136619955 0.012004863 -0.0065854476 -0.019638767 0.03751823 0.027198631 0.0017856425 -0.0036497668
-0.003138486 -0.0025347322 -0.00029049587 3.3448287e-05 0.015296436 0.005443582 -0.0019828007 -0.018047221
0.00985008 0.0030169992 0.00032992312 0.009476194 0.005376808 -0.008606979 0.0045166514 0.03031351
0.01238403 0.025691677 -0.0005785902 0.011913586 -0.015276267 -0.02800996 0.0036927827 0.019444589
0.0034139992 0.011375828 -0.0038279486 -0.015993992 -0.009702987 -0.015120982 0.010566379 0.026097773
-0.011670648 -0.02735701 0.0028928115 -0.041008946 0.0063695633 0.019675648 0.012817814 0.0119037395
0.031708907 0.005939437 0.020271663 0.021700507 -0.010755136 0.022007048 0.025647854 -0.002979759
-0.00066829094 0.030326558 -0.004230659 -0.013087225 -0.011317725 0.010146041 0.019506803 0.024700737
-0.03603085 -0.0046455334 0.005743999 0.025189077 -0.0103978645 -0.0037156462 -0.017274411 0.0023069791
-0.020537863 0.00027922075 0.020687895 0.011726293 0.0241468 -0.003123004 0.0025143947 0.024036137
0.014568003 0.0009730171 -0.016517984 -0.0043015364 -0.010531521 0.0332503 -0.009471186 -0.01340117
-0.0013439989 0.010527558 -0.0029855561 -0.012283591 0.007891704 -0.0053968015 0.030440727 -0.00026812401
-0.010564732 0.0050706025 -0.02601309 -0.018186215 0.0012726109 0.017227361 0.019606806 0.008918455
0.035922118 -0.016303629 0.016783176 0.008522 0.016178515 0.017431267 -0.0109897135 -0.008675475

action_model._continuous_distribution.mu.bias f4 [2]
00000000: 0000 0000 0000 0000
0.0 0.0

action_model._discrete_distribution.branches.0.weight f4 [1, 128]
00000000: e3f8 353b ff54 c0ba c79b 2cbc acc4 8d3c
00000010: 2f48 0fbb e3bd 80bb ad30 b93a 5a93 d43b
00000020: ae67 a13b f0c3 c0bb 10ae 19ba c382 513b
00000030: 83d7 ddbb cfd7 823c e0d0 3eb9 6f5c 533b
00000040: 33cd 9cbb 93ca bb3b b565 7ebc 2b82 083c
00000050: 931c a3bc ff99 0e37 8b50 a139 48a2 98bc
00000060: 9a8f 753b 1008 dbbb c937 153c ab4d 91bc
00000070: 4e33 b2bb bfe8 2cbc 9bda ce3b 4f30 853c
00000080: b499 9bbb 239c 4f3c 9052 0abc 0f4b 98bb
00000090: 949b 423c 8b15 11bb 7fbe 5e3c 770d 26bc
000000a0: 5c5c 21ba 82b2 da3b 742b 9cb9 b362 f0bb
000000b0: b583 84bb bffc 603c c099 17bb 1037 f43b
000000c0: 1363 9bbb 98b8 a03a c73b e1ba 2bff 63bc
000000d0: a778 463b 2803 573c 5e02 c23b 6b6b 44bc
000000e0: a896 07bc f0e9 a03b ffdf 6cbb 82fb 6e3b
000000f0: 43d0 2d3c 59c6 b9bb ba3e d6bc 1bc2 13bc
00000100: 8fe5 f03a db0b 243c bae1 1f3c 63f6 e0ba
00000110: 5f8b d4bb 22b1 5b3a 4c66 4abb 6620 03ba
00000120: 3b1f baba 1b78 8abb a20d 2ebc 137e 463b
00000130: 6586 0dbb a6de a7bb 126f 303c 5979 ab3a
00000140: 6f62 43bb 5ffd 313c 9f0c 83bb a0ac d2ba
00000150: c701 78bb f25c 273b 6a60 d03b efd5 ec3a
00000160: f734 5c3c e74c a3bb b562 54bc 40b4 51bb
00000170: a3ce 7ebc 6a41 00bb 2f4a 3f3c 92c3 4dbc
00000180: 478c 0ebc 278a 063b e7bd 8dba d110 043c
00000190: 0505 c0ba 278f 35b9 4b9b 53bc 59a5 ad3b
000001a0: 92fa 8039 bace 8039 aa01 903a 4a76 ccbb
000001b0: 7f25 aa3b 67ff bdba 0fba 883c fefe 17bc
000001c0: 5038 c8bb e3d9 763c daaa bf3b 96c7 bc3c
000001d0: 5269 b43c 9727 46ba 9c87 843b 2ac0 fc3a
000001e0: 1b8a 3d3b d92c 453c 3846 5438 0f72 0fbc
000001f0: 5368 64bc a309 033c 435b 3c3c ff7c 93bc
0.0027766756 -0.0014673768 -0.010535187 0.017305695 -0.0021863093 -0.0039288863 0.0014128886 0.0064872922
0.0049256897 -0.0058827326 -0.0005862424 0.003196881 -0.0067700758 0.015972046 -0.00018197624 0.003225114
-0.004785204 0.005730936 -0.0155271785 0.008331816 -0.019911086 8.499715e-06 0.00030768322 -0.01863207
0.0037469626 -0.0066843107 0.0091075385 -0.01773723 -0.005438245 -0.010553538 0.006312681 0.016258387
-0.0047485474 0.012671503 -0.008442536 -0.0046476196 0.011877913 -0.0022138085 0.0135952225 -0.010135046
-0.0006155425 0.006674112 -0.00029787014 -0.0073359846 -0.004044021 0.013732134 -0.0023132414 0.007452853
-0.004742035 0.0012262044 -0.0017183953 -0.013915817 0.0030284317 0.013123311 0.0059206923 -0.011988501
-0.008275665 0.0049107 -0.0036144254 0.0036465828 0.0106087355 -0.005669397 -0.026152957 -0.009018446
0.0018378961 0.010012592 0.009758407 -0.0017163273 -0.006486341 0.0008380582 -0.0030883728 -0.0005002081
-0.0014199981 -0.0042257435 -0.0106233675 0.0030287548 -0.0021594998 -0.0051229773 0.010768669 0.0013082429
-0.002981331 0.010863631 -0.0039993073 -0.0016073175 -0.0037842856 0.0025537577 0.0063591497 0.0018069128
0.013440362 -0.0049835327 -0.012962987 -0.0031998307 -0.015552196 -0.001957024 0.011675402 -0.012558835
-0.008700437 0.0020529123 -0.0010814042 0.00806065 -0.0014649933 -0.00017314834 -0.012915443 0.005299252
0.00024600752 0.00024568086 0.0010986824 -0.006239687 0.005192458 -0.0014495671 0.016690282 -0.0092771035
-0.0061102286 0.015066597 0.0058492245 0.023044389 0.022022877 -0.0007559 0.004044486 0.0019283344
0.0028921429 0.012034618 5.0610135e-05 -0.008755221 -0.013940888 0.007997903 0.011496368 -0.018003939

network_body.observation_encoder.processors.0.normalizer.running_mean f4 [12]
00000000: 0000 0000 0000 0000 0000 0000 0000 0000
00000010: 0000 0000 0000 0000 0000 0000 0000 0000
00000020: 0000 0000 0000 0000 0000 0000 0000 0000
0.0 0.0 0.0 0.0 0.0 0.0 0.0 0.0
0.0 0.0 0.0 0.0

network_body.observation_encoder.processors.0.normalizer.running_variance f4 [12]
00000000: 0000 803f 0000 803f 0000 803f 0000 803f
00000010: 0000 803f 0000 803f 0000 803f 0000 803f
00000020: 0000 803f 0000 803f 0000 803f 0000 803f
1.0 1.0 1.0 1.0 1.0 1.0 1.0 1.0
1.0 1.0 1.0 1.0

network_body.processors.0.normalizer.running_mean f4 [12]
00000000: 0000 0000 0000 0000 0000 0000 0000 0000
00000010: 0000 0000 0000 0000 0000 0000 0000 0000
00000020: 0000 0000 0000 0000 0000 0000 0000 0000
0.0 0.0 0.0 0.0 0.0 0.0 0.0 0.0
0.0 0.0 0.0 0.0

network_body.processors.0.normalizer.running_variance f4 [12]
00000000: 0000 803f 0000 803f 0000 803f 0000 803f
00000010: 0000 803f 0000 803f 0000 803f 0000 803f
00000020: 0000 803f 0000 803f 0000 803f 0000 803f
1.0 1.0 1.0 1.0 1.0 1.0 1.0 1.0
1.0 1.0 1.0 1.0

network_body._body_endoder.seq_layers.0.weight f4 [128, 12]
00000000: 1574 a1be 3042 bb3d b68a dd3d 6888 ff3d
00000010: d2a6 b63e f92b 0c3f 88ce 42be 4b08 6a3e
00000020: 75cb 423e 0704 4b3d 8358 59be 6b57 10be
00000030: a4cb f4be 5621 253e 67fe 20be 5034 03bf
00000040: 6d41 513d 79a9 a3be d340 ba3e 3e8f 4abe
00000050: 9698 34be 7a1e 77bd 3d42 9bbd 1d1f 6fbe
00000060: 95b2 843e c5af 72be 5afe 70be a416 a1bc
00000070: 088a 8dbe 46d0 d83c 84aa 13be 0b9f 05bf
00000080: 0d53 413d b031 cebd 4ae0 8dbe dd93 053e
00000090: 6472 b0bd e11d 173e 772d cfbd a53a 103d
000000a0: 5696 103e 3cb5 f7bd 3eb4 d73e f0e9 c83d
000000b0: ddd7 22be 2676 65be b99b 94bc 344b 823e
000000c0: f2fa dc3e 4c53 77be 340c e33d 600c 24be
000000d0: 1e2b 5cbe 30b4 acbe 6c6b 853e 3561 103f
000000e0: 778a 0e39 52c8 fa3d 104e e9bd 953e a03d
000000f0: 1e1d d5be b9c3 3d3f 32d6 5c3e 74cb babc
00000100: b80a 4bbf d1c8 ae3d b74d a3bd cf99 e7bd
00000110: 12a6 583d e39b 5fbd 56ed 0a3d 03af 00be
00000120: 6bc2 b13e f007 d7bd b27b 803d b1c4 b8bc
00000130: 5224 64bd aa8c 24be f18b c4be a91c 0d3e
00000140: 72e9 0e3e cefb 57bf f0e0 b4bd 824d d33e
00000150: 8cee be3c 2dff 173e 005c 59be b048 3c3d
00000160: 8c84 94be 4c3d 1e3b f714 e53d b31f 22bf
00000170: bf47 2e3e 3fc0 03be d365 55be 4e0d 38be
00000180: 5339 9abe c8dd 073e fb59 02bb 2c6e cebe
00000190: 80f1 cfbe 8f5a 23be edb3 303e eb77 06be
000001a0: 3e84 853d 2d1c 433f 1406 723e fa3f 7b3e
000001b0: 7ff2 c3bd 2f98 353e 78b3 b3be d80d 01be
000001c0: 8372 babd 6e78 e5be a202 aebe 0598 bcbe
000001d0: ac83 d0be a75d f0be ac0c a93e fc36 8b3e
000001e0: 102c 91bd 83ec c03d b614 1abd 62b8 7a3e
000001f0: 595f 97be fa16 ffbd 2992 5f3e 2f63 b1be
00000200: b7a7 0f3f 66a1 46be 70c8 9abe 0f4b 24be
00000210: d1a1 a63e c565 973e 2cb8 2e3e dca9 0ebe
00000220: 3adb 573e 7e2d 3ebe 1c10 a83e 9c74 50be
00000230: c964 c23d 1a4f 73be 128d a9be f79a 833d
00000240: f0fc c2bd cc9f e5be 22b2 1fbe 4c38 ba3e
00000250: 4c4a 383e d59d b83e 93fd 6a3e 2799 70bd
00000260: 03d0 08bf 1b78 0dbe 6cb3 a8be 6a57 57be
00000270: 1e91 013e 72dc 80bd 111f 83bd 99ee 49bd
00000280: 1755 843d 41c6 1c3e 10e0 66be fc60 0d3e
00000290: f1f6 cebb 2ee5 833d 9f2f 0c3d 867b 27bd
000002a0: d601 07bf d25b 3bbe 2695 bc3e f7b3 d1be
000002b0: 1cd6 d6be 0bb9 9f3e 2a53 b8be b626 b23d
000002c0: a1ee 363d c399 c03e 7733 7dbe 7ebd 25be
000002d0: cfee 653e d6b7 82be e241 e8be 0959 34bd
000002e0: e8a4 a5bd 81bb 20be ca91 d4be 9cd0 123e
000002f0: 3bcb d0bd a879 683e ae1c 983e a34a bebe
00000300: 82d6 cfbd a8b9 153e de9f d23e 3a20 5dbd
00000310: 1730 83be ffa6 a5be e479 77be 2f96 a33d
00000320: 4716 eabe 2b69 763e b532 b0bc 834e 573e
00000330: 1386 bfbc bd92 a4be 98a8 07be b827 1ebd
00000340: 53c4 ecbd 6f56 413c 9b77 503e 77c3 01be
00000350: 54f1 af3d ced8 ab3e 8724 f7bc 58fc 0e3c
00000360: d176 3d3e 9a71 fb3d 4de2 02be 9cd7 75bd
00000370: 042e fcbe a7df 81be ac1c bb3e 97c0 c9be
00000380: 8d9c c6bd 52b2 003e 351b 153d d061 15be
00000390: fb98 da3e 5d51 f5be e053 16bd 4bcc 66be
000003a0: 8994 bc3d 6e2f 15bd a64e 03bf 3853 9d3e
000003b0: 8af5 61be 647e 8b3e 5972 36bf 1816 e4be
000003c0: 132b 923e 9cd0 153f ca1e b3be 7383 353f
000003d0: 5435 923e b1b5 55bf 56c6 863e e5e5 9b3d
000003e0: d19d 55be 7cce 463e 392e bcbe b198 91be
000003f0: 9c2b 973e 03c2 883e 6e93 d3bd b533 003e
-0.31533876 0.09143484 0.10817473 0.12477189 0.3567415 0.54754597 -0.19024098 0.22854726
0.19022925 0.049564388 -0.21225171 -0.14095847 -0.47811615 0.16125998 -0.15722047 -0.512517
0.051087786 -0.31965235 0.36377582 -0.19781205 -0.17636332 -0.0603318 -0.07580993 -0.23351713
0.25917497 -0.23699863 -0.23534527 -0.019664116 -0.27644372 0.0264665 -0.14420515 -0.52195805
0.047198344 -0.10068071 -0.2771018 0.13044687 -0.08615568 0.14757492 -0.101160936 0.035212178
0.14119849 -0.120951146 0.421297 0.09810245 -0.15902658 -0.22408351 -0.01814066 0.25448
0.43160206 -0.24152869 0.11086312 -0.16020346 -0.21500823 -0.33731222 0.2605852 0.56398326
0.00013593757 0.12245239 -0.11391842 0.078244366 -0.41623777 0.74126774 0.21566084 -0.022802092
-0.7931323 0.085343964 -0.07973807 -0.113086335 0.052892752 -0.054592025 0.033917747 -0.12566762
0.34718642 -0.10499561 0.06273593 -0.022554727 -0.0556987 -0.16069284 -0.38388017 0.13780464
0.1395624 -0.843686 -0.08831966 0.4127007 0.023307107 0.14843436 -0.21226501 0.045967758
-0.29007375 0.0024145423 0.11185639 -0.6332962 0.17019556 -0.12866305 -0.20839624 -0.17973825
-0.3012186 0.13268197 -0.0019890058 -0.4031843 -0.40613937 -0.15952514 0.17256136 -0.13131683
0.06519364 0.7621487 0.23635131 0.24536124 -0.09567737 0.17733835 -0.3509786 -0.12602937
-0.091038726 -0.44818443 -0.33986384 -0.36834732 -0.40725458 -0.4694645 0.3301748 0.27190387
-0.070884824 0.09420111 -0.037617408 0.24484399 -0.29564932 -0.12455554 0.218331 -0.34645984
0.5611529 -0.19397506 -0.30231047 -0.16044258 0.3254533 0.29569831 0.17062443 -0.13931984
0.21079722 -0.18572041 0.3282479 -0.20356983 0.094918795 -0.23760644 -0.3311544 0.064260416
-0.095209 -0.44848478 -0.15595296 0.36371076 0.17997092 0.36057916 0.22948293 -0.058739807
-0.534424 -0.13815348 -0.32949388 -0.2102944 0.12653014 -0.062920466 -0.0640241 -0.04929981
0.06461542 0.15310003 -0.2254641 0.13806528 -0.006316059 0.06440197 0.034225103 -0.040889286
-0.52737176 -0.18296745 0.3683254 -0.40957615 -0.41960227 0.31195864 -0.3600095 0.0869879
0.044661168 0.3761731 -0.24726664 -0.16185567 0.2245438 -0.2553088 -0.45362765 -0.044030223
-0.08088094 -0.15696527 -0.41517478 0.1433739 -0.10195013 0.22702658 0.2970938 -0.37166318
-0.10148336 0.14621603 0.41137594 -0.05398581 -0.25622627 -0.3235397 -0.24167591 0.079876296
-0.4572012 0.24063556 -0.021508554 0.21026044 -0.023379361 -0.32143202 -0.13247907 -0.038612098
-0.115608834 0.0118003925 0.20358126 -0.1267222 0.085909516 0.33563846 -0.030168785 0.008727156
0.18502356 0.12277527 -0.1278164 -0.060020074 -0.49253857 -0.25365946 0.36545312 -0.39404747
-0.096978284 0.12568024 0.0364029 -0.14588094 0.4269484 -0.47913638 -0.036701083 -0.22538869
0.09208018 -0.036422186 -0.51291883 0.30727553 -0.22066322 0.27244866 -0.7126823 -0.44548106
0.28548488 0.5852144 -0.34984428 0.709037 0.2855631 -0.83480364 0.26323193 0.07612208
-0.20860983 0.19414705 -0.36754015 -0.28436807 0.2952546 0.2671052 -0.10330854 0.12519725

network_body._body_endoder.seq_layers.0.bias f4 [128]
00000000: 0000 0000 0000 0000 0000 0000 0000 0000
00000010: 0000 0000 0000 0000 0000 0000 0000 0000
00000020: 0000 0000 0000 0000 0000 0000 0000 0000
00000030: 0000 0000 0000 0000 0000 0000 0000 0000
00000040: 0000 0000 0000 0000 0000 0000 0000 0000
00000050: 0000 0000 0000 0000 0000 0000 0000 0000
00000060: 0000 0000 0000 0000 0000 0000 0000 0000
00000070: 0000 0000 0000 0000 0000 0000 0000 0000
00000080: 0000 0000 0000 0000 0000 0000 0000 0000
00000090: 0000 0000 0000 0000 0000 0000 0000 0000
000000a0: 0000 0000 0000 0000 0000 0000 0000 0000
000000b0: 0000 0000 0000 0000 0000 0000 0000 0000
000000c0: 0000 0000 0000 0000 0000 0000 0000 0000
000000d0: 0000 0000 0000 0000 0000 0000 0000 0000
000000e0: 0000 0000 0000 0000 0000 0000 0000 0000
000000f0: 0000 0000 0000 0000 0000 0000 0000 0000
00000100: 0000 0000 0000 0000 0000 0000 0000 0000
00000110: 0000 0000 0000 0000 0000 0000 0000 0000
00000120: 0000 0000 0000 0000 0000 0000 0000 0000
00000130: 0000 0000 0000 0000 0000 0000 0000 0000
00000140: 0000 0000 0000 0000 0000 0000 0000 0000
00000150: 0000 0000 0000 0000 0000 0000 0000 0000
00000160: 0000 0000 0000 0000 0000 0000 0000 0000
00000170: 0000 0000 0000 0000 0000 0000 0000 0000
00000180: 0000 0000 0000 0000 0000 0000 0000 0000
00000190: 0000 0000 0000 0000 0000 0000 0000 0000
000001a0: 0000 0000 0000 0000 0000 0000 0000 0000
000001b0: 0000 0000 0000 0000 0000 0000 0000 0000
000001c0: 0000 0000 0000 0000 0000 0000 0000 0000
000001d0: 0000 0000 0000 0000 0000 0000 0000 0000
000001e0: 0000 0000 0000 0000 0000 0000 0000 0000
000001f0: 0000 0000 0000 0000 0000 0000 0000 0000
0.0 0.0 0.0 0.0 0.0 0.0 0.0 0.0
0.0 0.0 0.0 0.0 0.0 0.0 0.0 0.0
0.0 0.0 0.0 0.0 0.0 0.0 0.0 0.0
0.0 0.0 0.0 0.0 0.0 0.0 0.0 0.0
0.0 0.0 0.0 0.0 0.0 0.0 0.0 0.0
0.0 0.0 0.0 0.0 0.0 0.0 0.0 0.0
0.0 0.0 0.0 0.0 0.0 0.0 0.0 0.0
0.0 0.0 0.0 0.0 0.0 0.0 0.0 0.0
0.0 0.0 0.0 0.0 0.0 0.0 0.0 0.0
0.0 0.0 0.0 0.0 0.0 0.0 0.0 0.0
0.0 0.0 0.0 0.0 0.0 0.0 0.0 0.0
0.0 0.0 0.0 0.0 0.0 0.0 0.0 0.0
0.0 0.0 0.0 0.0 0.0 0.0 0.0 0.0
0.0 0.0 0.0 0.0 0.0 0.0 0.0 0.0
0.0 0.0 0.0 0.0 0.0 0.0 0.0 0.0
0.0 0.0 0.0 0.0 0.0 0.0 0.0 0.0

network_body._body_endoder.seq_layers.2.weight f4 [128, 128]
00000000: 6600 cd3d 5090 cebd 5bad c83a 2ba1 133e
00000010: 4e23 89bd 754a cd3d 3be0 fb3a ee3c 16bd
00000020: 29c0 dcbc 7b38 ef3d dcf9 0c3e 8c38 e53c
00000030: 6f1d 25be 87fa e13c 8d02 59bd 90c7 ad3d
00000040: c54e e2bc 5c4b 9b3d 4bdd 17be 92da 8ebe
00000050: 572e 0cbc 016d 35bd 2caf 013d 1a7d 0ebd
00000060: 6146 393d e5ab 82bd 3428 d73d c832 f93c
00000070: 8c9b c63d 2865 d0bd 9af6 37bd 3abc 1f3d
00000080: dd27 933d a00f 833d d0e6 56bc 7907 b3bc
00000090: 3486 543d bb04 7e3d d0f9 71bd c483 16be
000000a0: 7739 04bd 7ed4 e33b 7f2a 203d 5462 603d
000000b0: c630 9dbc 7800 873d e379 073d 5897 2cbe
000000c0: a3a6 793c cb61 c1bc 2923 23bb 2f51 043e
000000d0: c8ba f0ba 3a34 d9b8 09bf 1ebe 3fe1 29bc
000000e0: 9f78 0fbc c1d0 9c3d e72e 7dbd 1bf2 5fbd
000000f0: d8c7 15bd c315 333d a4ac bb3c 553d a1bc
00000100: 0fc5 923d 581b aabc 824a 12bd 8fd0 4dbe
00000110: e1b1 5abe 2857 60ba 426c f6bd 556e f63c
00000120: 8c0f 06bd d472 b03d 48fb b33c 3ac3 e93c
00000130: 8884 363d b3c1 c33d 5202 0ebd af50 d3bc
00000140: df90 1c3c fe6c 363e b600 c53c 4482 823d
00000150: 2841 e7bd 012c 86bc b9cd c73d 1c8d 5dbd
00000160: a353 f63d 7a51 e23b 7925 17bd d31a d63c
00000170: 7047 703d 49cc f23d ee68 093b ee35 1a3d
00000180: e363 8ebd 1aa5 9e3c 94df a63d f138 8b3d
00000190: 0462 03be 0bc6 8f3d da2a aabd 592e 1abe
000001a0: a532 543d c6bc a4bd a13c 4a3c 95d2 6cbd
000001b0: 6296 8e3c 3f5a 39bd f71a 703d 01ce 26be
000001c0: 9c2a e2bc aefa 95bd b428 7abd 521b 3e3d
000001d0: f8b9 0a3d c6c8 8abb e8f3 83bb 740a 503d
000001e0: 8aa1 d4bc 4f10 2fbd f865 43bc 275f 393d
000001f0: 16f0 003d d39d 3a3c b638 c1bd ef63 923c
00000200: aa58 023e ff3a 54bc fd8d d2bd 67b3 9bbd
00000210: f599 3f3b 8f23 99bc 464e f63d 3fe7 9e3d
00000220: 2a63 a83b 57ab b53d 955a 70bd b8ea e7bd
00000230: 8404 0a3d 4a05 8b3d fc71 03bc 3561 1a3d
00000240: 7266 1a3d 820c e43b 6da1 95bd d717 babd
00000250: 4424 363d 683d 2c3e 5a5d 3a3d 4242 09be
00000260: 8309 463e b718 8abd a3d8 0abe db94 35bd
00000270: a31f 9d3d e59c cfbc 4f38 21bd 3901 c23d
00000280: e0b4 eebc d9ce c13d 5248 863c 0fa3 6dbd
00000290: 9759 9abc 7979 763e 4c69 59bd 3aa2 133e
000002a0: e6e9 5d3e 8c50 16bd 9ea1 a43b b588 d8bd
000002b0: fd14 cc3d 4094 a7bd 4410 693d 7535 0e3e
000002c0: 5394 bfbc 6392 0e3e 01f7 ebbd 23d7 9f3c
000002d0: 0489 15bd 9541 833c 4ba3 7ebd 241f e63c
000002e0: ce4f 2bbd e846 b2bd 47c5 92be 15d1 2e3e
000002f0: aa99 f13c 840a 65bd c56c 873d f2dc 79bd
00000300: 37dd 18ba 3f2c 013c cb58 84bd 6fdb 0d3e
00000310: fb78 053e 3821 57bd cafc fc3c a030 3d3e
00000320: 9381 623e 576f aabd 3314 acbb c3cb 91bd
00000330: 5f1d 36bc 721f babc b480 b5bd c3c6 8dbd
00000340: 18bd fa3c 81f0 86bc ad33 a43d 7832 cbbd
00000350: 56be c73d a7dd e2bc 2371 13bd e8cd 51bd
00000360: 99c7 063e 4dc9 413d 8fbc ad3c 0e11 80bc
00000370: 2920 9ebd 3ffa afba 5541 91bd e5d2 75bd
00000380: b667 833d 0fab b0bd 1b3e 15be b194 cbbb
00000390: 7275 ce3d a846 a43d 718c 0abe 464f 4a3d
000003a0: b488 f03c 01f2 b93d 0232 69bd 0c90 1fbe
000003b0: 033b d33d 74e6 fa3d ff4b ffbd 7886 803d
000003c0: 9f8d 183d 2551 4c3c b814 92bc b1de 4fbc
000003d0: 8564 083e 4738 7cbd 6bd3 593d 6fde 57bd
000003e0: b500 f9bc 4686 8abd 05c3 80bb f235 a1bd
000003f0: 8c12 233d 02af efbc 2674 36be 099f 86bd
0.100098416 -0.10086119 0.0015310453 0.1441695 -0.06696187 0.10023967 0.0019216606 -0.0366792
-0.026947098 0.11680695 0.13767189 0.027981065 -0.1612451 0.027585281 -0.05298095 0.08485329
-0.02762545 0.07582733 -0.1483051 -0.2790113 -0.00855597 -0.044293407 0.031661198 -0.034787275
0.045233134 -0.063804425 0.10505715 0.030419722 0.09697637 -0.10175544 -0.044912912 0.038997866
0.07185338 0.063994646 -0.013116553 -0.02185415 0.0518858 0.06201623 -0.05907613 -0.14698702
-0.032281365 0.0069528213 0.039103027 0.054781273 -0.019188296 0.06591886 0.033075225 -0.16854608
0.015237483 -0.023606202 -0.0024892783 0.12921594 -0.0018366212 -0.00010357094 -0.15502562 -0.010368644
-0.008756786 0.07657004 -0.061812308 -0.05467425 -0.03656754 0.043721925 0.02290947 -0.019682566
0.07166492 -0.020764992 -0.035715587 -0.2009909 -0.21356918 -0.0008557909 -0.12032367 0.030081907
-0.03272967 0.08615652 0.021970406 0.028535474 0.044559985 0.095584296 -0.03467018 -0.025795309
0.009556024 0.17815015 0.02404819 0.063725024 -0.112917244 -0.016378405 0.09756035 -0.05408965
0.12027671 0.0069066854 -0.03690097 0.026135838 0.058661878 0.118553706 0.0020967084 0.037649088
-0.06952646 0.019365836 0.08148113 0.0679797 -0.12830359 0.070201956 -0.083089545 -0.15056743
0.05180611 -0.08043818 0.012343557 -0.057818014 0.017405692 -0.04525208 0.058619466 -0.16289522
-0.027608208 -0.07323204 -0.061073974 0.046412773 0.03386876 -0.00423536 -0.0040268786 0.05079122
-0.025955934 -0.042740162 -0.011926167 0.04525676 0.031478964 0.011390167 -0.09434645 0.017869918
0.12729135 -0.012953519 -0.10280988 -0.07602578 0.0029236053 -0.018693713 0.12026648 0.077589504
0.0051387744 0.08870571 -0.058680136 -0.11324066 0.033695713 0.06788118 -0.008022781 0.03769036
0.037695356 0.006959499 -0.0730618 -0.09086578 0.04446818 0.168203 0.045499183 -0.13404182
0.19339566 -0.06742995 -0.13559203 -0.044331413 0.0767205 -0.025343368 -0.03936034 0.094728895
-0.029138982 0.09463281 0.016391907 -0.058016833 -0.018841548 0.24069776 -0.053078935 0.14417353
0.21671256 -0.03669791 0.005024149 -0.1057295 0.09964941 -0.08182573 0.056900278 0.1388758
-0.023386156 0.1392303 -0.11521722 0.019511765 -0.03650762 0.016022483 -0.062167447 0.02809102
-0.041824155 -0.087049305 -0.28666136 0.17071946 0.029492218 -0.05591823 0.06612543 -0.061001725
-0.00058313034 0.007884084 -0.064622484 0.13853239 0.13034432 -0.052521914 0.030882258 0.1847558
0.22119741 -0.08322018 -0.0052514314 -0.071189426 -0.011115401 -0.022720072 -0.08862439 -0.069226764
0.030607745 -0.016472103 0.08017669 -0.099217355 0.097531006 -0.027693583 -0.035996567 -0.051221758
0.13162078 0.047311116 0.021208076 -0.015633132 -0.07720978 -0.001342602 -0.07092539 -0.060015578
0.06416266 -0.08626377 -0.14574473 -0.0062127938 0.10080995 0.08021289 -0.13530137 0.049392007
0.02936206 0.09079362 -0.056932457 -0.15582293 0.1031399 0.12250987 -0.12465667 0.06275648
0.037244435 0.012470518 -0.017832145 -0.012687371 0.13319595 -0.061577108 0.05318014 -0.052702364
-0.030395845 -0.06763892 -0.003929498 -0.078716174 0.03981261 -0.029258255 -0.17817745 -0.06573302

network_body._body_endoder.seq_layers.2.bias f4 [128]
00000000: 0000 0000 0000 0000 0000 0000 0000 0000
00000010: 0000 0000 0000 0000 0000 0000 0000 0000
00000020: 0000 0000 0000 0000 0000 0000 0000 0000
00000030: 0000 0000 0000 0000 0000 0000 0000 0000
00000040: 0000 0000 0000 0000 0000 0000 0000 0000
00000050: 0000 0000 0000 0000 0000 0000 0000 0000
00000060: 0000 0000 0000 0000 0000 0000 0000 0000
00000070: 0000 0000 0000 0000 0000 0000 0000 0000
00000080: 0000 0000 0000 0000 0000 0000 0000 0000
00000090: 0000 0000 0000 0000 0000 0000 0000 0000
000000a0: 0000 0000 0000 0000 0000 0000 0000 0000
000000b0: 0000 0000 0000 0000 0000 0000 0000 0000
000000c0: 0000 0000 0000 0000 0000 0000 0000 0000
000000d0: 0000 0000 0000 0000 0000 0000 0000 0000
000000e0: 0000 0000 0000 0000 0000 0000 0000 0000
000000f0: 0000 0000 0000 0000 0000 0000 0000 0000
00000100: 0000 0000 0000 0000 0000 0000 0000 0000
00000110: 0000 0000 0000 0000 0000 0000 0000 0000
00000120: 0000 0000 0000 0000 0000 0000 0000 0000
00000130: 0000 0000 0000 0000 0000 0000 0000 0000
00000140: 0000 0000 0000 0000 0000 0000 0000 0000
00000150: 0000 0000 0000 0000 0000 0000 0000 0000
00000160: 0000 0000 0000 0000 0000 0000 0000 0000
00000170: 0000 0000 0000 0000 0000 0000 0000 0000
00000180: 0000 0000 0000 0000 0000 0000 0000 0000
00000190: 0000 0000 0000 0000 0000 0000 0000 0000
000001a0: 0000 0000 0000 0000 0000 0000 0000 0000
000001b0: 0000 0000 0000 0000 0000 0000 0000 0000
000001c0: 0000 0000 0000 0000 0000 0000 0000 0000
000001d0: 0000 0000 0000 0000 0000 0000 0000 0000
000001e0: 0000 0000 0000 0000 0000 0000 0000 0000
000001f0: 0000 0000 0000 0000 0000 0000 0000 0000
0.0 0.0 0.0 0.0 0.0 0.0 0.0 0.0
0.0 0.0 0.0 0.0 0.0 0.0 0.0 0.0
0.0 0.0 0.0 0.0 0.0 0.0 0.0 0.0
0.0 0.0 0.0 0.0 0.0 0.0 0.0 0.0
0.0 0.0 0.0 0.0 0.0 0.0 0.0 0.0
0.0 0.0 0.0 0.0 0.0 0.0 0.0 0.0
0.0 0.0 0.0 0.0 0.0 0.0 0.0 0.0
0.0 0.0 0.0 0.0 0.0 0.0 0.0 0.0
0.0 0.0 0.0 0.0 0.0 0.0 0.0 0.0
0.0 0.0 0.0 0.0 0.0 0.0 0.0 0.0
0.0 0.0 0.0 0.0 0.0 0.0 0.0 0.0
0.0 0.0 0.0 0.0 0.0 0.0 0.0 0.0
0.0 0.0 0.0 0.0 0.0 0.0 0.0 0.0
0.0 0.0 0.0 0.0 0.0 0.0 0.0 0.0
0.0 0.0 0.0 0.0 0.0 0.0 0.0 0.0
0.0 0.0 0.0 0.0 0.0 0.0 0.0 0.0

value_heads.value_heads.extrinsic.weight f4 [1, 128]
00000000: 6002 003c 997a 19be 4632 1e3e 2679 25be
00000010: a0dc 15be 9cb7 52bd f864 fb3d c8f5 0bbd
00000020: 7c65 a83d 04b2 143e 9025 663c 2cd5 57be
00000030: cc60 3a3e 9cfd 54be c955 e7bd 5406 8f3d
00000040: 5e0c 4dbe a490 483e 2a5c 50be 509c a6bd
00000050: c897 b43c 582c c23d 46b7 553e 9853 29be
00000060: 9c78 3ebd 6a82 2e3e ec6b 8bbd c8b3 cb3d
00000070: 40d8 07be 04e0 a13d 7ef7 383e d048 67bd
00000080: 9e14 49be 303e 1dbc 7708 3dbe fcec c23d
00000090: 80d0 89bb 4c8d 5abd 4828 9fbc f815 28bd
000000a0: 1a9f aebd 70ea 2b3d fcb0 a73d 6229 053e
000000b0: 0eff 313e d8a1 733d c87d b33d 3065 0d3e
000000c0: 2277 4b3e 1c68 9a3d 316a 4bbe a0b0 4dbe
000000d0: d8f2 0bbd 6c75 873d f02b ab3c 3093 683d
000000e0: b823 58be 8096 213e c4ab 05bd de50 06be
000000f0: 5c10 a5bd 803d 143d 6415 15bd a05d 023d
00000100: 085b ca3c ec8d 5abd 00f5 aa3c c0ec 18bd
00000110: a058 d2bc 8c45 01be 8c35 093e bce7 833d
00000120: aa6e b2bd bc68 d63d 707c e43c a885 3b3d
00000130: 0c71 593e e30a d6bd 5c82 1cbe 294e 41be
00000140: 451f dbbd 5697 523e b0f1 9bbc 9a22 44be
00000150: ce50 14be d4ec b63d 6cdd ec3d f863 3c3e
00000160: 0aa5 0e3e 7737 f9bd e815 963c 0067 95ba
00000170: 5aec 4abe d283 2abe 8a55 033e 2493 f03d
00000180: 3adc a9bd 2b95 bebd 54ca eb3d cefc 08be
00000190: 708d 343e 5036 1e3c 52e5 9dbd e0ad 1e3c
000001a0: b036 dd3d 00c6 87bb 40ec 72bc e992 f8bd
000001b0: f082 c63c 94f2 20be 9160 c7bd cc1f 3fbd
000001c0: 9a3f 043e d6b4 113e c6a0 c6bd b0cd 0f3c
000001d0: d6ee 4d3e a204 323e aabf 453e 2f23 53be
000001e0: 6013 c43d 1771 bdbd 561f 443e 2442 de3d
000001f0: 86fe 213e 6e1d 8ebd dce8 ba3d 9479 b03d
0.007813066 -0.14988174 0.15448865 -0.16159496 -0.14634943 -0.051444635 0.12275118 -0.034169942
0.082224816 0.14521033 0.014047042 -0.21077412 0.18200988 -0.2079987 -0.11295659 0.06983629
-0.20024249 0.19586426 -0.20347658 -0.08135283 0.022045031 0.09481114 0.20870695 -0.16535795
-0.04650174 0.17041937 -0.06807694 0.099464 -0.13266087 0.07904056 0.18063161 -0.056465924
-0.19636771 -0.009597346 -0.1846026 0.095178574 -0.0042057633 -0.053357407 -0.019428387 -0.041036576
-0.0852644 0.041971624 0.08188054 0.13004068 0.17382452 0.059480518 0.08764225 0.13808131
0.19869664 0.075393885 -0.19864728 -0.20086908 -0.03416714 0.06614193 0.020894974 0.056780994
-0.21107376 0.15780067 -0.03263451 -0.13116786 -0.08059761 0.036191463 -0.036397353 0.03182757
0.02470161 -0.053358003 0.020868778 -0.037335157 -0.025677025 -0.12624186 0.13399333 0.06440684
-0.08712514 0.10469195 0.027891368 0.04578176 0.2123453 -0.10451295 -0.15284103 -0.18877472
-0.106993236 0.20565543 -0.019036144 -0.19153824 -0.1448395 0.0893189 0.1156567 0.1839751
0.13930145 -0.12168782 0.018320993 -0.0011398494 -0.19816723 -0.16651848 0.128256 0.11746815
-0.08293958 -0.09305795 0.115132004 -0.13377687 0.17632079 0.009656504 -0.07709755 0.00968501
0.108014464 -0.0041434765 -0.014826834 -0.12137396 0.024232358 -0.15717536 -0.097352155 -0.046661183
0.12914887 0.1422914 -0.09698634 0.008777067 0.2011064 0.1738458 0.19311395 -0.2061889
0.09574008 -0.09250086 0.19152579 0.10852459 0.15819749 -0.06939207 0.09126446 0.08616939
