results/Roller5/Roller5.onnx (onnx, 82324 bytes, 10 tensors)

network_body.observation_encoder.processors.0.normalizer.running_mean f4 [12]
0.0 0.0 0.0 -0.029230446 -19.928946 0.14508738 -0.010399935 -3.2034886
16.066633 -0.039022647 0.017783519 3.7553463
00000000: 0000 0000 0000 0000 0000 0000 b074 efbc
00000010: 7b6e 9fc1 c991 143e 7d64 2abc f505 4dc0
00000020: 7788 8041 36d6 1fbd beae 913c 9857 7040

network_body._body_endoder.seq_layers.0.weight f4 [128, 12]
0.4203494 0.26912594 -0.08338674 0.010260382 0.6875525 0.65415454 0.19250491 -0.029486632
-0.4565888 -0.23023745 0.3079759 -0.17538434 -0.00840135 -0.040527776 -0.37061945 -0.4475833
-0.010732066 -0.29204124 0.35501853 0.109818906 0.30786613 -0.063794196 -0.14008236 0.15129101
0.5299989 0.02891173 0.14655758 0.30005595 -0.48991787 -0.068126 0.08291323 -0.0053340658
-0.044710014 0.22705363 -0.29035944 0.44561452 -0.078970574 -0.3376038 0.27006596 -0.12144871
-0.30769533 -0.32320762 0.20361379 -0.012596918 -0.13188502 0.2890544 0.5369716 0.4092089
-0.28705156 -0.061249223 0.2564599 0.2900438 0.33287475 -0.6048975 0.27704066 0.37471396
-0.5994302 0.30955985 0.1351548 -0.022415046 -0.28926614 -0.3345323 -0.22616431 0.5425158
0.20038499 -0.117767625 -0.08068026 0.0770093 -0.079219416 -0.17371687 0.07696714 -0.22766417
0.26601416 -0.48361203 -0.29401797 0.048609708 -0.15388262 0.3369919 0.17199567 -0.14241405
0.049564146 -0.013976765 0.098879464 -0.0914463 -0.076677345 0.2663325 0.4658962 0.3652388
-0.06684844 0.13176385 0.11618796 0.4320915 0.0068643126 0.019926682 -0.6486341 -0.22979055
0.13225289 -0.09581386 0.71001714 0.07440198 -0.17454517 0.026948262 -0.39971918 0.32678422
0.24302681 -0.16276142 -0.07741349 0.23070458 0.25880316 0.29422858 -0.53957105 0.15504542
-0.44961047 0.04384574 -0.49693817 -0.11460142 -0.06193315 0.29171377 0.13333337 0.11796227
-0.4534289 -0.17038426 0.29695174 0.6374599 -0.17665906 -0.16123834 -0.29395068 -0.08586037
0.116224974 0.27973884 -0.12737879 0.37690982 0.14444737 0.15488578 -0.16268787 0.038855683
0.018646665 -0.79072106 0.39868578 0.12087162 0.40008256 0.5136141 0.29916844 0.14676479
0.07216093 0.4359433 -0.33403534 -0.029639069 -0.11153133 -0.6093534 -0.032004796 -0.14230376
-0.2822386 0.10451629 -0.112286516 -0.21434484 0.06865296 0.22371596 0.32081133 0.045158084
0.18693909 -0.28057218 0.09240269 -0.3959694 -0.14116241 -0.22402771 0.29487076 -0.2667029
-0.41110137 -0.037412703 0.08887958 -0.31352174 0.40018064 -0.55177647 0.13729738 0.08998458
-0.28101754 0.60445225 -0.10942157 0.18307863 -0.4225573 -0.06814054 0.2906178 -0.5195504
-0.283101 0.49866506 -0.018598448 0.024276113 -0.35258493 -0.22158585 0.022428881 0.18935768
0.16261983 -0.15117687 -0.09933591 -0.4605388 0.24115087 0.10768536 0.14872909 0.55569255
0.24536645 -0.138159 -0.021377597 -0.6147234 -0.11278399 0.12675942 0.2329587 -0.37409508
-0.11221634 0.29010284 0.20723678 0.18295574 0.4583928 -0.2136787 -0.032130726 -0.39802873
-0.22933412 0.29400578 -0.45823497 0.22342448 -0.0068099024 0.114732206 0.21895227 0.30202937
-0.19660027 0.32227755 -0.5675265 0.41518563 0.24792898 0.09251549 0.42663708 -0.13120736
0.5591282 0.04272102 -0.12557828 0.4331919 0.0068784487 -0.17971759 0.35455695 -0.038164943
-0.1334625 0.1499391 0.23817708 -0.29882556 -0.063608415 -0.23199028 -0.38882592 0.14564754
-0.30522957 0.016852152 -0.29914537 0.24189539 0.47977936 0.09857143 -0.14357632 -0.35314637
00000000: 0938 d73e e0ca 893e abc6 aabd 291b 283c
00000010: 7103 303f ac76 273f 0220 453e f38d f1bc
00000020: 02c6 e9be 5ec3 6bbe 04af 9d3e f497 33be
00000030: d1a5 09bc 7400 26bd d5c1 bdbe a329 e5be
00000040: 8cd5 2fbc 6e86 95be fdc4 b53e bce8 e03d
00000050: a1a0 9d3e 88a6 82bd c071 0fbe 08ec 1a3e
00000060: 02ae 073f 4bd8 ec3c 3113 163e efa0 993e
00000070: 84d6 fabe a585 8bbd 69ce a93d 63c9 aebb
00000080: d921 37bd bf80 683e fea9 94be 9627 e43e
00000090: 53bb a1bd 68da acbe 1646 8a3e 1aba f8bd
000000a0: 3e8a 9dbe 787b a5be 2280 503e 4e63 4ebc
000000b0: de0c 07be f0fe 933e f976 093f d483 d13e
000000c0: 6cf8 92be 77e0 7abd b64e 833e 9f80 943e
000000d0: 8f6e aa3e 90da 1abf 46d8 8d3e 82da bf3e
000000e0: 4274 19bf a17e 9e3e 0566 0a3e c29f b7bc
000000f0: b11a 94be d147 abbe 9e97 67be 51e2 0a3f
00000100: b931 4d3e 2730 f1bd b13b a5bd 0db7 9d3d
00000110: ca3d a2bd d6e2 31be f3a0 9d3d cc20 69be
00000120: 0233 883e ff9b f7be 8689 96be f91a 473d
00000130: 6893 1dbe 348a ac3e a21f 303e fdd4 11be
00000140: c603 4b3d cdfe 64bc 5181 ca3d 3348 bbbd
00000150: 0309 9dbd bc5c 883e f289 ee3e 9400 bb3e
00000160: d6e7 88bd 1aed 063e f4f3 ed3d 193b dd3e
00000170: 07ee e03b 483d a33c e20c 26bf 374e 6bbe
00000180: 4d6d 073e 0f3a c4bd afc3 353f 1160 983d
00000190: f8bb 32be 9ac2 dc3c fea7 ccbe 4350 a73e
000001a0: 05dc 783e eeaa 26be f78a 9ebd d23d 6c3e
000001b0: d981 843e 21a5 963e 5421 0abf 3ac4 1e3e
000001c0: 5833 e6be 9797 333d ae6e febe 26b4 eabd
000001d0: 9dad 7dbd 825b 953e 8b88 083e 3496 f13d
000001e0: d527 e8be 3679 2ebe 0f0a 983e 9230 233f
000001f0: 1de6 34be aa1b 25be b480 96be 90d7 afbd
00000200: 5c07 ee3d ee39 8f3e 966f 02be 53fa c03e
00000210: 03ea 133e 619a 1e3e a697 26be 2327 1f3d
00000220: e4c0 983c b26c 4abf 8b20 cc3e 8a8b f73d
00000230: 9fd7 cc3e 377c 033f 9b2c 993e 8249 163e
00000240: 1cc9 933d f633 df3e ae06 abbe a2cd f2bc
00000250: 8a6a e4bd 96fe 1bbf 7617 03bd 14b8 11be
00000260: 9481 90be a30c d63d 79f6 e5bd 377d 5bbe
00000270: ec99 8c3d cc15 653e 6241 a43e aff7 383d
00000280: f66c 3f3e 28a7 8fbe 9f3d bd3d 80bc cabe
00000290: e18c 10be 8567 65be 4df9 963e 488d 88be
000002a0: e17b d2be 103e 19bd 7f06 b63d ec85 a0be
000002b0: 7ae4 cc3e 3941 0dbf af97 0c3e d649 b83d
000002c0: 88e1 8fbe 62bd 1a3f 6b18 e0bd f778 3b3e
000002d0: 6e59 d8be 448d 8bbd dbcb 943e 4101 05bf
000002e0: 9df2 90be 0751 ff3e c65b 98bc b3de c63c
000002f0: 0386 b4be 67e7 62be c6bc b73c fbe6 413e
00000300: d085 263e 1cce 1abe a070 cbbd becb ebbe
00000310: 41f0 763e 248a dc3d 704c 183e de41 0e3f
00000320: 5841 7b3e 8e79 0dbe 1220 afbc 835e 1dbf
00000330: 4bfb e6bd 39cd 013e ba8c 6e3e 6489 bfbe
00000340: aed1 e5bd 5c88 943e e135 543e c058 3b3e
00000350: 76b2 ea3e 97ce 5abe 829b 03bd 6cca cbbe
00000360: 90d6 6abe ed87 963e c69d eabe 63c9 643e
00000370: 9a25 dfbb b8f8 ea3d 0635 603e 98a3 9a3e
00000380: 9551 49be 9001 a53e 6b49 11bf 3693 d43e
00000390: 18e1 7d3e c378 bd3d 2d70 da3e 395b 06be
000003a0: 0723 0f3f 3cfc 2e3d 9897 00be 54cb dd3e
000003b0: 9c64 e13b e307 38be 7d88 b53e d852 1cbd
000003c0: 65aa 08be a389 193e b1e4 733e aaff 98be
000003d0: 2145 82bd dc8e 6dbe 3114 c7be a124 153e
000003e0: 0d47 9cbe 860d 8a3c 9529 99be 6db3 773e
000003f0: a4a5 f53e d1df c93d ac05 13be 9acf b4be

network_body._body_endoder.seq_layers.0.bias f4 [128]
0.0465399 0.01890498 -0.017983532 -0.0065906155 -0.001916993 0.02031587 0.018350568 -0.0017799042
-0.022847569 0.013271927 0.02749685 0.014446938 -0.029916031 -0.014028282 -0.019394353 0.036340836
0.026955947 0.009760256 -0.0082309935 -0.005672004 -0.02387882 0.026755318 0.0012836873 0.004999486
-0.005928914 0.002047347 0.0200523 -0.004369984 -0.0074204197 -0.01854406 0.006005044 -0.041779425
0.012317207 0.026400764 0.025661638 -0.01788837 0.0126118995 0.029488258 0.0015952463 0.0010494039
0.047001734 -0.030661622 -0.02877635 -0.005664757 -0.014645828 0.012921685 0.0040719835 0.01934593
0.0017184507 -0.037586648 -0.008602859 0.013908133 0.0145144155 0.010136672 -0.019037696 0.029708536
-0.01159244 0.020244122 0.02437299 -0.009934018 -0.012113903 -0.005084149 0.009073601 -0.004126033
0.050168436 0.010075649 -0.0057335687 0.017448494 -0.028543128 0.0020263796 -0.018093104 -0.0048078927
0.018784579 0.008334078 0.012689417 0.010025117 -0.008827798 -0.02196981 -0.023979051 -0.026398797
0.00084191584 0.008534337 0.014105083 0.024089126 0.0073763644 0.028607568 -0.020206457 -0.02791609
-0.055139646 -0.014288494 0.0085938545 0.011290786 -0.01261367 0.00863423 0.014287525 0.023272472
-0.023137186 -0.028951928 0.023782926 0.0045920988 0.0056908634 0.011447734 -0.00060917035 0.0049279393
0.025087083 0.014186413 0.0070863357 -0.04964363 0.023254935 -0.014979963 0.005529882 -0.0017776736
-0.020013954 0.0051412405 0.0047174157 -0.051624253 0.009376677 -0.019098038 0.0050094463 0.017915241
0.028175505 0.005950358 0.022908457 0.018073402 0.004848314 0.004490304 -0.010939034 0.009420692
00000000: 9fa0 3e3d 9ede 9a3c 3352 93bc 17f6 d7bb
00000010: 9c43 fbba 786d a63c ee53 963c ad4b e9ba
00000020: d32a bbbc 7f72 593c 1341 e13c dab2 6c3c
00000030: 7712 f5bc e1d6 65bc e8e0 9ebc 21da 143d
00000040: b8d2 dc3c 7be9 1f3c 4adb 06bc 38dc b9bb
00000050: 849d c3bc f82d db3c 6641 a83a bad2 a33b
00000060: 5647 c2bb c82c 063b b944 a43c 1532 8fbb
00000070: fe26 f3bb b6e9 97bc f6c5 c43b e720 2bbd
00000080: 1cce 493c 6a46 d83c 5b38 d23c a28a 92bc
00000090: 24a2 4e3c 5c91 f13c 9517 d13a 278c 893a
000000a0: e484 403d 152e fbbc 61bc ebbc 6d9f b9bb
000000b0: 0ef5 6fbc 7ab5 533c 466e 853b 5b7b 9e3c
000000c0: a33d e13a 75f4 19bd 02f3 0cbc f0de 633c
000000d0: dfcd 6d3c 4914 263c f1f4 9bbc 515f f33c
000000e0: 38ee 3dbc 00d7 a53c dda9 c73c 4bc2 22bc
000000f0: 6479 46bc ef98 a6bb 71a9 143c ac33 87bb
00000100: 6b7d 4d3d 5614 253c a9e0 bbbb 25f0 8e3c
00000110: 47d3 e9bc 02cd 043b fd37 94bc 878b 9dbb
00000120: 1ee2 993c a88b 083c 46e7 4f3c 6340 243c
00000130: 78a2 10bc 08fa b3bc b76f c4bc 4a42 d8bc
00000140: 04b4 5c3a 9bd3 0b3c 0219 673c 8f56 c53c
00000150: 6eb5 f13b 6b5a ea3c 0388 a5bc 49b0 e4bc
00000160: 1cda 61bd 4a1a 6abc 3dcd 0c3c fdfc 383c
00000170: 91a9 4ebc 9676 0d3c 3916 6a3c e9a5 be3c
00000180: 328a bdbc 982c edbc 69d4 c23c 5179 963b
00000190: 6c7a ba3b 478f 3b3c bbb0 1fba 8d7a a13b
000001a0: 6d83 cd3c 216e 683c 7e34 e83b 1e57 4bbd
000001b0: 2281 be3c 856e 75bc 0334 b53b d400 e9ba
000001c0: 4ef4 a3bc da77 a83b 8d94 9a3b f473 53bd
000001d0: a2a0 193c 7d73 9cbc 4826 a43b fcc2 923c
000001e0: 51d0 e63c 39fb c23b 84aa bb3c ac0e 943c
000001f0: 9bde 9e3b 6623 933b a239 33bc 3f59 1a3c

network_body._body_endoder.seq_layers.2.weight f4 [128, 128]
-0.04239101 -0.23169336 -0.108727776 0.034276944 0.23661429 -0.023653178 -0.047089107 -0.031160355
0.059389967 -0.015410686 0.0042503835 0.07971264 -0.032865286 0.058274817 -0.08251012 0.07558847
0.011863067 -0.040463936 0.098472185 0.0519361 0.014598064 0.105242595 -0.016991198 0.13501841
-0.05789539 -0.029897397 -0.003917193 -0.07267917 -0.179134 -0.08962558 0.09517097 0.011856104
0.02212785 -0.10038583 0.0448652 -0.09758428 0.06861973 0.046818413 0.0056010787 0.012732743
0.016396668 -0.12269061 -0.07269164 -0.21619989 -0.07471649 -0.008173562 0.015798338 -0.13161586
0.14037427 -0.17145741 0.15106128 0.051438946 0.1703025 -0.08402715 0.014233954 -0.11287473
-0.10356536 0.0573205 0.062374156 -0.0172827 0.16270223 0.10760052 -0.15572655 -0.08026632
-0.121715285 0.11630138 0.078086056 -0.04139932 -0.18489952 0.09706747 -0.034643363 0.0016880225
0.1174783 -0.059654724 0.06176393 0.14484173 0.037220757 0.12440868 -0.15178274 -0.019987922
-0.054130133 0.06323148 -0.18043329 0.011425119 0.013119763 0.1096097 -0.07393233 0.042053394
-0.008626863 -0.17998084 0.06984043 -0.1665796 0.07090397 -0.05809672 0.0093861 0.085629724
0.10984699 -0.19945385 0.012846991 -0.053891517 0.03388103 0.055285964 0.10838763 -0.118663795
-0.009141033 0.25263897 0.011871284 0.01656574 -0.09581283 -0.13165171 -0.17410953 0.006767766
-0.042268816 0.016310178 -0.033549238 0.034958873 0.07180691 -0.032609474 0.04339849 0.1005264
0.15356389 0.1494177 0.08461245 0.037148893 -0.0018690301 -0.05957002 0.1344211 -0.25902483
0.041971114 -0.005166805 -0.16005878 0.08593774 -0.0657878 0.097502925 -0.12946591 -0.047816157
-0.011709016 0.15047042 0.12132787 0.16602252 -0.06369721 -0.08450296 0.021490032 -0.025379902
0.10499381 -0.17218278 -0.09272694 -0.043566387 -0.003313436 -0.032916855 -0.05169341 -0.08641831
0.11634153 -0.047663663 -0.16273326 -0.081090406 0.052400168 0.15207386 -0.04892402 -0.04128295
-0.1524774 0.032989014 0.003034353 0.09238067 -0.052025814 -0.07866663 -0.11560682 0.104898445
-0.17825799 -0.028256314 0.027402328 0.015096576 0.10807792 -0.030999456 -0.017379437 0.05763544
-0.16793713 -0.022007069 -0.08429433 -0.025653444 -0.12074356 0.08980924 0.040942036 0.03273426
0.1307215 0.009299258 0.05168805 0.018459097 0.03009724 -0.056808613 -0.05764743 -0.079378925
0.043671105 0.07298806 -0.0704658 0.04339094 0.02036252 -0.13229533 -0.12117459 -0.02694187
0.05541546 0.03102316 0.07745717 0.22522323 0.110185996 -0.12641113 0.07878428 -0.022101462
-0.16502212 -0.06064315 0.066298805 -0.21564221 -0.10313092 0.07142764 -0.046967033 0.07440854
-0.016498402 0.19196388 0.091493875 -0.067654714 0.094497696 -0.14310397 -0.10852644 0.16377401
0.009736629 -0.026170686 -0.13803358 0.0039203814 0.10255142 -0.00083522167 0.0712212 -0.055355392
0.11918492 0.050462298 0.0371637 -0.00081600744 -0.079355925 0.040171884 -0.016168503 0.008871154
-0.092882775 -0.017014839 -0.06603607 -0.06811423 0.103999026 -0.03413334 -0.1459324 -0.16427326
-0.10388026 0.048197836 0.122660466 -0.06955792 0.037376426 0.02333481 0.008688269 0.05088169
00000000: 32a2 2dbd 0641 6dbe abac debd fb65 0c3d
00000010: 044b 723e 4fc4 c1bc 82e0 40bd 0044 ffbc
00000020: e542 733d 1a7d 7cbc cd46 8b3b 6140 a33d
00000030: c09d 06bd 93b1 6e3d 11fb a8bd 21ce 9a3d
00000040: 4f5d 423c 83bd 25bd c9ab c93d f3ba 543d
00000050: b82c 6f3c 6e89 d73d 2031 8bbc 4442 0a3e
00000060: b723 6dbd 63eb f4bc cc5b 80bb d1d8 94bd
00000070: e76e 37be 9e8d b7bd ffe8 c23d 1b40 423c
00000080: 7745 b53c 1697 cdbd 92c4 373d 44da c7bd
00000090: 8088 8c3d aac4 3f3d 4189 b73b ff9c 503c
000000a0: 4e52 863c 3745 fbbd 5bdf 94bd 8163 5dbe
000000b0: f604 99bd 67ea 05bc 846b 813c 4fc6 06be
000000c0: 46be 0f3e 8892 2fbe cfaf 1a3e a5b1 523d
000000d0: c763 2e3e 6d16 acbd 8835 693c de2a e7bd
000000e0: 131a d4bd e7c8 6a3d 0b7c 7f3d 7394 8dbc
000000f0: 6a9b 263e a95d dc3d c876 1fbe ab62 a4bd
00000100: dd45 f9bd 6b2f ee3d 95eb 9f3d 5592 29bd
00000110: 4d56 3dbe 4fcb c63d 33e6 0dbd a340 dd3a
00000120: 7798 f03d 8358 74bd 2dfc 7c3d 6451 143e
00000130: cb74 183d fac9 fe3d ef6c 1bbe b6bd a3bc
00000140: 8fb7 5dbd 827f 813d 81c3 38be 6c30 3b3c
00000150: 46f4 563c 0d7b e03d d569 97bd 2e40 2c3d
00000160: b057 0dbc e64c 38be 8008 8f3d d893 2abe
00000170: 1a36 913d d4f6 6dbd 28c8 193c a35e af3d
00000180: 75f7 e03d a13d 4cbe 307c 523c 5abd 5cbd
00000190: d6c6 0a3d 8973 623d 55fa dd3d 0106 f3bd
000001a0: 45c4 15bc e559 813e c67f 423c e0b4 873c
000001b0: 8439 c4bd b5cf 06be c549 32be 23c4 dd3b
000001c0: 1122 2dbd ec9c 853c ed6a 09bd 0931 0f3d
000001d0: 800f 933d 8391 05bd 9dc2 313d c9e0 cd3d
000001e0: da3f 1d3e f400 193e 4b49 ad3d 7029 183d
000001f0: 3efa f4ba b1ff 73bd afa5 093e e79e 84be
00000200: e7e9 2b3d 4d4e a9bb 73e6 23be 2000 b03d
00000210: c1bb 86bd 9daf c73d b692 04be e0da 43bd
00000220: 2cd7 3fbc eb14 1a3e bf7a f83d cf01 2a3e
00000230: af73 82bd e30f adbd dd0b b03c 83e9 cfbc
00000240: ff06 d73d af50 30be 9fe7 bdbd ab72 32bd
00000250: 3b26 59bb d3d3 06bd 78bc 53bd 15fc b0bd
00000260: 7844 ee3d f93a 43bd 8ca3 26be ba12 a6bd
00000270: 8fa1 563d 40b9 1b3e 8e64 48bd 5018 29bd
00000280: 0923 1cbe 7d1f 073d ffdb 463b 1432 bd3d
00000290: 0519 55bd f81b a1bd 45c3 ecbd ffd4 d63d
000002a0: 4389 36be c979 e7bc d97a e03c a157 773c
000002b0: f557 dd3d 92f2 fdbc 525f 8ebc 2413 6c3d
000002c0: b6f7 2bbe 2b48 b4bc 81a2 acbd 2c27 d2bc
000002d0: 6648 f7bd e8ed b73d d6b2 273d 5c14 063d
000002e0: dbdb 053e ea5b 183c d9b6 533d 8837 973c
000002f0: 7d8e f63c 26b0 68bd b61f 6cbd 6b91 a2bd
00000300: 79e0 323d c47a 953d 6050 90bd b3ba 313d
00000310: 4dcf a63c 6d78 07be 622a f8bd 32b5 dcbc
00000320: 52fb 623d 4824 fe3c dda1 9e3d eba0 663e
00000330: 32a9 e13d eb71 01be a759 a13d 200e b5bc
00000340: 8ffb 28be f464 78bd abc7 873d 50d1 5cbe
00000350: 4e36 d3bd a848 923d 8160 40bd 8163 983d
00000360: a827 87bc 2e92 443e 2461 bb3d 8e8e 8abd
00000370: 0288 c13d d989 12be 1c43 debd 60b4 273e
00000380: 6286 1f3c e863 d6bc ad58 0dbe 8b76 803b
00000390: 7b06 d23d c7f2 5aba 6cdc 913d 56bc 62bd
000003a0: 3917 f43d 8eb1 4e3d f738 183d 55e9 55ba
000003b0: 5c85 a2bd 468b 243d cf73 84bc 5158 113c
000003c0: 5339 bebd b462 8bbc eb3d 87bd 797f 8bbd
000003d0: 71fd d43d 67cf 0bbd 4e6f 15be 4037 28be
000003e0: 2cbf d4bd 186b 453d 6935 fb3d 6274 8ebd
000003f0: 0618 193d a528 bf3c 3e59 0e3c 5269 503d

network_body._body_endoder.seq_layers.2.bias f4 [128]
0.019257138 -0.008938118 0.027307771 0.016294021 0.024217993 0.0066737365 0.010345575 0.0055111893
-0.022960352 0.015700117 0.002386306 -0.0061308127 0.0021901862 -0.0040745055 0.00033807734 -0.0021436433
0.0107763 -0.0037017136 0.0021124166 -0.0019189583 -0.008119498 0.011085798 0.0024307347 0.010294335
0.028536756 0.007623113 0.0060926722 0.0017136164 -0.0048165494 0.0077902093 -0.0034505608 0.0042334115
0.008440615 0.016879901 0.026769262 0.012994785 0.005074032 0.008462283 0.0062827584 -0.000628906
0.01214994 -0.0021638193 0.0010308017 -0.00042630403 0.018120712 0.009509163 -0.008013043 -0.004547897
0.01991629 0.003949982 0.023640897 0.0063807727 0.011861509 0.00082838273 0.001407516 0.0022695921
0.0034351393 0.0072772778 0.018468795 -0.011111133 0.028096667 0.014779782 -0.004155125 0.013615762
0.018513681 0.0031317417 -0.0076658963 -0.00916818 0.009312624 0.0018447423 0.00042069814 -0.0134370895
-0.0044112937 0.017421398 0.026398798 -0.015548107 0.0050717914 0.012115496 0.0056523792 0.0017819335
-0.015601087 0.0092678685 -0.015396727 0.0105421 0.0009929838 0.012910619 -0.009261356 -0.015446033
-0.012511969 0.002864727 0.026833862 0.003782491 -0.0048397267 -0.008491769 0.015553783 0.005579186
-0.0010822571 0.013101239 -0.004440315 0.008848599 -0.0011735718 0.0041175624 0.0034277723 -0.010324647
0.013983635 -0.02102666 0.0108335875 -0.0044872146 -0.0027607912 0.029117962 0.0062528537 0.008093637
0.00077663094 -0.006456777 -0.007950835 0.0023815706 0.0027185578 0.03260339 0.0082997 0.0067368583
-0.002238973 0.017284729 -0.007607476 -0.0023529865 0.022046287 -0.0073876684 -0.0066682226 -0.0019190517
00000000: 25c1 9d3c 2f71 12bc 8cb4 df3c 0a7b 853c
00000010: d064 c63c 5caf da3b 7d80 293c 3597 b43b
00000020: 5917 bcbc 889d 803c 9263 1c3b fce4 c8bb
00000030: 3a89 0f3b 6e83 85bb f93f b139 5e7c 0cbb
00000040: 148f 303c 7398 72bb 7870 0a3b 8e85 fbba
00000050: a507 05bc 35a1 353c f64c 1f3b 92a9 283c
00000060: eac5 e93c 4fcb f93b 0aa5 c73b 6d9b e03a
00000070: 25d4 9dbb 0345 ff3b ce22 62bb 6eb8 8a3b
00000080: 814a 0a3c b847 8a3c 364b db3c 14e8 543c
00000090: 1144 a63b 63a5 0a3c 99df cd3b 2bdd 24ba
000000a0: 8b10 473c ddce 0dbb f71b 873a 8f81 dfb9
000000b0: e371 943c 52cc 1b3c 2349 03bc 8606 95bb
000000c0: 7d27 a33c da6e 813b 8eaa c13c cd15 d13b
000000d0: c656 423c d327 593a 667c b83a 70bd 143b
000000e0: 1320 613b 3b76 ee3b df4b 973c 780b 36bc
000000f0: fb2a e63c e626 723c b727 88bb a514 5f3c
00000100: 01aa 973c e83d 4d3b 3332 fbbb 2236 16bc
00000110: fa93 183c 48cb f13a 2691 dc39 3d27 5cbc
00000120: 9d8c 90bb 52b7 8e3c 4b42 d83c 7dbd 7ebc
00000130: 4531 a63b 1380 463c 9837 b93b c48f e93a
00000140: b49b 7fbc 42d8 173c 8e42 7cbc c6b8 2c3c
00000150: 0227 823a 1087 533c f1bc 17bc 5c11 7dbc
00000160: 00ff 4cbc 25be 3b3b b0d2 db3c abe3 773b
00000170: 9296 9ebb 1021 0bbc 4bd5 7e3c 9bd1 b63b
00000180: 86da 8dba 94a6 563c 1080 91bb b7f9 103c
00000190: 89d2 99ba 9eec 863b 7aa4 603b b528 29bc
000001a0: 9e1b 653c 1a40 acbc 5c7f 313c 7c09 93bb
000001b0: 64ee 34bb cb88 ee3c bde4 cc3b 2d9b 043c
000001c0: d296 4b3a 5f93 d3bb 3844 02bc 2014 1c3b
000001d0: d529 323b 228b 053d 77fb 073c ddc0 dc3b
000001e0: bcbb 12bb b498 8d3c 2248 f9bb 9034 1abb
000001f0: 6a9a b43c 4114 f2bb 1b81 dabb b188 fbba

action_model._continuous_distribution.log_sigma f4 [1, 2]
0.033184674 -4.7732625e-05
00000000: a7ec 073d 8434 48b8

action_model._continuous_distribution.mu.weight f4 [2, 128]
0.027714029 0.010377617 0.02591108 0.026497113 0.02355584 0.033566743 0.007829319 0.010045091
-0.0043682703 0.043587796 -0.054781284 -0.01677075 -0.027288234 -0.0011777492 0.013773174 0.03724303
0.030005498 -0.020934261 0.05663925 0.033245955 -0.020890232 0.053291485 -0.041355513 0.056706414
0.019410452 -0.04000249 -0.05114717 0.022956925 0.0003267888 0.056349855 0.038207546 0.019458687
-0.008618217 -0.038263302 -0.025778327 0.06589634 0.0024956758 -0.041141853 -0.041234672 -0.007265551
0.008866097 0.023082498 -0.016276587 0.030481774 0.031797342 -0.0689711 -0.0045459913 -0.032815266
-0.031070145 0.038220815 0.084783204 0.01609248 -0.037720583 0.045119077 0.014862658 0.028604195
0.030172735 -0.046225496 0.061557684 0.014082036 0.02020871 0.04353986 -0.0010177202 -0.014825528
-0.03274294 0.026335943 0.026252788 -0.03433016 0.0006165377 0.039585844 0.03910186 0.021730404
-0.025861774 0.062460944 0.0053807152 0.0044645574 -0.0025253422 -0.01390642 -0.019999605 -0.041699663
-0.014230827 0.0142793935 -0.002722995 0.048272353 -0.011441324 -0.07466374 0.03318803 -0.000713433
0.0014378707 0.029480895 0.03583052 0.011858912 0.0008286565 -0.018955883 0.077267975 -0.03728083
-0.046149667 0.014729805 -0.0249248 -0.040387366 -0.01802422 0.0008887477 -0.03045931 0.0190202
0.02507315 0.00035214509 -0.05244827 0.035200085 -0.03623006 0.06965183 -0.021716438 0.03766247
-0.021110311 0.023375861 -0.019285852 0.02490131 0.026906397 0.058072224 -0.076187335 0.03611046
0.008020295 0.005439983 0.02166664 -0.04596563 0.02908086 0.023206709 0.0026217147 -0.023525318
0.024914874 -0.02860325 0.057198774 0.03999891 0.049617298 0.005157211 0.025886437 0.021660322
-0.0022089896 0.0023481203 -0.022317363 -0.030124703 -0.02926625 -0.0464722 -0.03631619 -0.053708415
0.017778374 -0.033258274 -0.021221707 -0.061552476 -0.04652808 -0.014335261 -0.052586716 -0.013008223
0.07073895 0.016102616 0.0043328293 0.009911001 0.0146187255 -0.011583653 -0.022594854 -0.060764316
-0.05087638 0.035013877 0.04522835 -0.0044440175 0.020121785 0.021028427 -0.06906632 0.01895234
0.046764765 -0.0053134793 0.015995994 -0.033289187 0.025697468 -0.032194927 0.004037237 0.0028903966
0.050379787 -0.030759193 0.0033845901 0.018301195 -0.034779795 -0.06779184 0.010829971 -0.037759814
0.022014828 -0.043808267 0.0032390242 -0.011511587 0.051090233 0.011937103 0.005853317 0.033604164
-0.06325196 -0.02905745 -0.042398162 -0.013225754 0.028129844 -0.010314529 -0.037076134 -0.019042874
-0.021433128 0.041645277 0.066117525 -0.026778264 -0.08100808 0.04253195 0.028771657 -8.389006e-05
-0.019299392 0.011991966 -0.0075083035 -0.0051923413 0.0111802835 -0.027751323 -0.040315572 -0.000423096
-0.011806879 -0.0003066607 0.069825105 0.007358098 0.0018936715 0.0019816794 0.0036284365 -0.0107062245
-0.015522432 0.030372838 -0.0063402317 0.030801576 -0.05929048 -0.06710165 0.014350154 -0.023988944
0.0261278 -0.009107462 0.037949607 -0.025190381 -0.017753836 0.035066966 0.0104256375 0.003468393
0.029431725 -0.0272411 -0.0055862335 -0.060443465 -0.019223986 0.029451111 -0.009377252 -0.037924703
-0.042275596 0.055471476 -0.0111143235 0.0015855631 0.021722252 -0.009107717 0.006187037 -0.020369835
00000000: 8808 e33c e106 2a3c 7943 d43c 7910 d93c
00000010: 2df8 c03c 487d 093d 8b46 003c 2a94 243c
00000020: b523 8fbb 1e89 323d 5762 60bd d062 89bc
00000030: 938b dfbc b55e 9aba e1a8 613c 268c 183d
00000040: 17ce f53c 547e abbc 8ffe 673d e92c 083d
00000050: fe21 abbc 2c48 5a3d 6664 29bd fc44 683d
00000060: ab02 9f3c a7d9 23bd b27f 51bd 2910 bc3c
00000070: da54 ab39 1bcf 663d 847f 1c3d d367 9f3c
00000080: 6c33 0dbc fbb9 1cbd 122d d3bc a9f4 863d
00000090: 7e8e 233b 5c84 28bd b0e5 28bd dc13 eebb
000000a0: 1b43 113c 8217 bd3c 7a56 85bc eab4 f93c
000000b0: ee3d 023d b840 8dbd 8af6 94bb 4d69 06bd
000000c0: d186 febc 6e8d 1c3d d1a2 ad3d 60d4 833c
000000d0: e680 1abd c8ce 383d 8282 733c 5853 ea3c
000000e0: d02c f73c f256 3dbd e923 7c3d 57b8 663c
000000f0: bd8c a53c da56 323d 0665 85ba c5e6 72bc
00000100: 761d 06bd 7abe d73c 1610 d73c c89d 0cbd
00000110: 259f 213a c424 223d 4629 203d f603 b23c
00000120: 12dc d3bc 0cd7 7f3d b650 b03b 6c4b 923b
00000130: 3680 25bb c1d7 63bc 36d6 a3bc 44cd 2abd
00000140: 6a28 69bc 1ef4 693c 4674 32bb 3bb9 453d
00000150: 6474 3bbc 4ee9 98bd 2cf0 073d ae05 3bba
00000160: ef76 bc3a eb81 f13c 06c3 123d e24b 423c
00000170: 323a 593a 5e49 9bbc ac3e 9e3d c9b3 18bd
00000180: 6f07 3dbd 4855 713c 182f ccbc 396d 25bd
00000190: 87a7 93bc d9fa 683a ce85 f9bc 40d0 9b3c
000001a0: 3566 cd3c 1da0 b839 ffd3 56bd f72d 103d
000001b0: f965 14bd 9ea5 8e3d ace6 b1bc f643 1a3d
000001c0: 88ef acbc bc7e bf3c 5dfd 9dbc d5fd cb3c
000001d0: ce6a dc3c 24dd 6d3d 1b08 9cbd 90e8 133d
000001e0: 8e67 033c e341 b23b 3d7e b13c 7546 3cbd
000001f0: fc3a ee3c ff1b be3c 13d1 2b3b 2bb8 c0bc
00000200: 471a cc3c 5d51 eabc 4349 6a3d e6d5 233d
00000210: 823b 4b3d d2fd a83b cb0f d43c fd70 b13c
00000220: b2c4 10bb ece2 193b e7d2 b6bc 15c8 f6bc
00000230: c6bf efbc a259 3ebd 49c0 14bd 5bfd 5bbd
00000240: f4a3 913c d439 08bd 25d9 adbc 731e 7cbd
00000250: 3a94 3ebd 71de 6abc 2b65 57bd 7120 55bc
00000260: 95df 903d a2e9 833c 68fa 8d3b c061 223c
00000270: 6183 6f3c 5dc9 3dbc d818 b9bc 01e4 78bd
00000280: c063 50bd b66a 0f3d 5d41 393d 1f9f 91bb
00000290: 71d6 a43c cf43 ac3c a572 8dbd f041 9b3c
000002a0: 698c 3f3d b21c aebb 080a 833c 3e5a 08bd
000002b0: 7f83 d23c d4de 03bd cc4a 843b cf6c 3d3b
000002c0: 095b 4e3d b4fa fbbc 00d0 5d3b 63ec 953c
000002d0: 4275 0ebd 73d6 8abd 3170 313c 09aa 1abd
000002e0: 7158 b43c 4c70 33bd cf45 543b 189b 3cbc
000002f0: fe43 513d d793 433c 2fcd bf3b 85a4 093d
00000300: 3e8a 81bd e409 eebc b2a9 2dbd d5b0 58bc
00000310: 8f70 e63c 45fe 28bc 25dd 17bd cdff 9bbc
00000320: 8794 afbc 3d94 2a3d a068 873d 175e dbbc
00000330: 90e7 a5bd fb35 2e3d 8ab2 eb3c 22ee afb8
00000340: c219 9ebc f379 443c 3708 f6bb 8424 aabb
00000350: 822d 373c be56 e3bc f121 25bd fcd2 ddb9
00000360: a471 41bc 4dc7 a0b9 7700 8f3d 331c f13b
00000370: 1235 f83a 10df 013b 10cb 6d3b 2969 2fbc
00000380: cc51 7ebc 75d0 f83c b8c1 cfbb 9653 fc3c
00000390: 93da 72bd 976c 89bd e91c 6b3c 7684 c4bc
000003a0: f809 d63c 7737 15bc 0c71 1b3d 0f5c cebc
000003b0: 7e70 91bc 61a2 0f3d 4bd0 2a3c fb4d 633b
000003c0: cd1a f13c ba28 dfbc b90c b7bb 9193 77bd
000003d0: 9f7b 9dbc 7543 f13c 0ca3 19bc ef56 1bbd
000003e0: 2d29 2dbd 0f36 633d da18 36bc abd2 cf3a
000003f0: ddf2 b13c 8938 15bc a1bc ca3b a4de a6bc

action_model._continuous_distribution.mu.bias f4 [2]
0.00066083 0.010224346
00000000: 8d3b 2d3a 0484 273c

action_model._discrete_distribution.branches.0.weight f4 [1, 128]
0.0063486905 -0.005033377 0.008813119 0.00953306 0.0023722046 -0.0038761161 -0.011641768 0.011500914
-0.0010022036 0.007543432 -0.0065413713 -0.005120624 -0.0039718617 0.0065972977 -0.01502537 0.009834858
-0.009388245 0.004007697 -0.0067945546 0.0028125285 -0.002981586 0.013458552 0.006341246 0.0049605123
0.012605247 -0.004582777 -0.011179679 -0.0029450583 0.004234712 -0.004486389 -0.023470301 -0.0026028503
-0.01016886 -0.0011880294 -0.012237683 -0.0066965707 -0.0015216407 -0.001372471 0.006431666 -0.011033426
-0.014530117 0.00490005 0.0017029301 -0.0058095925 0.014165811 0.0031762258 0.0030360322 0.0069916146
-0.0046787295 -0.0023641852 0.0019280186 0.009985755 -0.004679071 -0.001220594 8.419076e-05 0.0053774454
0.01234723 0.0010892444 0.00717079 0.0146702025 -0.0066554556 -0.0024220913 0.010429164 -0.007940847
0.0056310664 -0.006013579 -0.00994413 0.020982338 0.0026083246 0.008289426 0.0018290939 0.006600816
-0.007740795 0.0005954734 -0.011463165 -0.005411371 0.005082547 0.0071956837 -0.0036171544 0.009506114
0.0046160268 -0.010115999 0.005621647 -0.00017298438 -0.013947628 -0.007272118 -0.0004603286 -0.014782562
0.020138538 0.0065499814 0.006021767 0.00095986034 -0.017278418 -0.011469666 -0.0048602186 -0.016275482
-0.025814772 -0.0011678621 -0.0013372233 -0.0014317165 0.01789604 -0.010180432 0.017582392 -0.0020274187
-0.00559968 -0.0057140216 -0.016137598 0.00032913953 -0.0070946463 0.0024395674 0.02173617 -0.0076014483
0.0063765617 -0.0037183703 -0.0112810945 0.005262723 0.013628143 0.016544681 0.002843179 9.183484e-06
0.0069668675 0.010055247 -0.0056853984 -0.0024875205 -0.014213097 0.0045138565 -0.0076128617 -0.008326393
00000000: ad08 d03b 07ef a4bb e664 103c 8d30 1c3c
00000010: fd76 1b3b 7006 7ebb 1dbd 3ebc 546e 3c3c
00000020: 5f5c 83ba e52e f73b 0059 d6bb e8ca a7bb
00000030: 6426 82bb 252e d83b f82c 76bc 6222 213c
00000040: 27d1 19bc 0053 833b dba4 debb 6652 383b
00000050: b666 43bb 4281 5c3c 3aca cf3b cb8b a23b
00000060: 3d86 4e3c 1f2b 96bb f92a 37bc e101 41bb
00000070: 57c3 8a3b 8f02 93bb ca44 c0bc 9594 2abb
00000080: 4a9b 26bc a7b7 9bba 9080 48bc e86e dbbb
00000090: ca71 c7ba 7ce4 b3ba bac0 d23b 8bc5 34bc
000000a0: ba0f 6ebc 9990 a03b da34 df3a 655e bebb
000000b0: b817 683c 3a28 503b 2bf8 463b ea19 e53b
000000c0: 0750 99bb 72f0 1abb 92b5 fc3a 4b9b 233c
000000d0: e452 99bb 57fc 9fba 928f b038 4835 b03b
000000e0: 094c 4a3c fac4 8e3a f2f8 ea3b 4a5b 703c
000000f0: 0216 dabb f3bb 1ebb 16df 2a3c 541a 02bc
00000100: cf84 b83b 8f0d c5bb b4ec 22bc 27e3 ab3c
00000110: 6df0 2a3b 5fd0 073c 35be ef3a a84b d83b
00000120: 7fa6 fdbb 8b19 1c3a 00d0 3bbc df51 b1bb
00000130: 7f8b a63b c5c9 eb3b c80d 6dbb 88bf 1b3c
00000140: 0a42 973b 93bd 25bc cb35 b83b 2463 35b9
00000150: 9884 64bc f24a eebb 4258 f1b9 8f32 72bc
00000160: 93f9 a43c 3aa1 d63b 3e52 c53b 239f 7b3a
00000170: 788b 8dbc 44eb 3bbc 7842 9fbb 2954 85bc
00000180: 8079 d3bc f312 99ba c545 afba 6fa8 bbba
00000190: b79a 923c d4cb 26bc f308 903c 71de 04bb
000001a0: 857d b7bb b03c bbbb ff32 84bc 5c90 ac39
000001b0: 357a e8bb 26e1 1f3b 0d10 b23c 9215 f9bb
000001c0: 7af2 d03b e7af 73bb 57d4 38bc ec72 ac3b
000001d0: 9348 5f3c b688 873c a154 3a3b c312 1a37
000001e0: 524a e43b c3be 243c 944c babb ab05 23bb
000001f0: 0dde 68bc f9e8 933b 5075 f9bb 6c6b 08bc

onnx::Div_70 f4 [12]
0.0062493896 0.0062493896 0.0062493896 2.4497013 0.124704316 2.4393258 1.8167939 1.4106858
1.7948612 2.4338708 2.440459 3.0162525
00000000: aec7 cc3b aec7 cc3b aec7 cc3b e8c7 1c40
00000010: fa64 ff3d ea1d 1c40 b48c e83f 5a91 b43f
00000020: 03be e53f 8ac4 1b40 7b30 1c40 480a 4140
