results/Manager2/Manager2/checkpoint.pt (torch, 451554 bytes, 47 tensors)

network_body.observation_encoder.processors.0.normalizer.running_mean f4 [7]
000000 42 b4 5a bd 00 00 00 00 41 62 48 be 3e 33 b7 3f
       -0.053394563 0.0 -0.19568731 1.4312513
000010 f1 81 82 bf db 13 c9 3e 86 40 61 3e
       -1.0195905 0.3927296 0.2199727

network_body.observation_encoder.processors.0.normalizer.running_variance f4 [7]
000000 6e ee 34 4b 00 00 80 3f 11 85 41 4b 86 8b 81 4c
       1.1857518e+07 1.0 1.2682513e+07 6.79189e+07
000010 ba a8 0b 40 3e ef 5a 4c 10 17 18 4a
       2.1821733 5.7392376e+07 2.491844e+06

network_body.processors.0.normalizer.running_mean f4 [7]
000000 42 b4 5a bd 00 00 00 00 41 62 48 be 3e 33 b7 3f
       -0.053394563 0.0 -0.19568731 1.4312513
000010 f1 81 82 bf db 13 c9 3e 86 40 61 3e
       -1.0195905 0.3927296 0.2199727

network_body.processors.0.normalizer.running_variance f4 [7]
000000 6e ee 34 4b 00 00 80 3f 11 85 41 4b 86 8b 81 4c
       1.1857518e+07 1.0 1.2682513e+07 6.79189e+07
000010 ba a8 0b 40 3e ef 5a 4c 10 17 18 4a
       2.1821733 5.7392376e+07 2.491844e+06

network_body._body_endoder.seq_layers.0.weight f4 [128, 7]
000000 6a f3 48 3e 66 76 dc 3e 8d 06 b1 3e 21 00 17 3d
       0.19624105 0.4305908 0.3457531 0.036865357
000010 b3 eb 2b bc a3 f6 91 bc 1a 22 93 be 3d 27 a4 3e
       -0.010493207 -0.0178178 -0.28736955 0.32061186
000020 2a 89 a8 bd f8 a3 ea 3e 35 43 fd be b3 b7 3f bc
       -0.08229287 0.45828223 -0.49465337 -0.011701512
000030 5d d0 36 be 6a 4f 7a 3e 63 8f 25 bf 96 23 c5 3e
       -0.17852922 0.24444357 -0.64671916 0.38503712
000040 07 d8 6a 3e 3f 5d 3c bd d4 3c 85 be 77 e9 5b bf
       0.2293397 -0.045987364 -0.2602297 -0.85903114
000050 cb b2 37 3f 91 26 f8 be b1 db d0 be e2 ae ef be
       0.7175719 -0.48466924 -0.4079261 -0.46813112
000060 72 8d 00 3f 49 55 be 3e b8 fb 90 3e 98 2d c3 3e
       0.5021583 0.37174442 0.28317046 0.38120723
000070 98 fd 06 3f 5c 35 59 3e 2d e3 0d bf fd a1 9a 3e
       0.52730703 0.21211761 -0.5542477 0.30201712
000080 d5 c1 c8 3d 60 42 60 be 98 bd f9 3d ed b2 a5 bf
       0.098025955 -0.2190032 0.12194365 -1.2945229
000090 95 04 cb 3e 25 26 5d 3f 65 31 e2 be c1 6c fb be
       0.39651933 0.8638633 -0.4417831 -0.4910641
0000a0 1f 6e 9a bc f5 72 9c be bd 4a 93 bc 7d 8d b1 3e
       -0.018851338 -0.30556455 -0.017979974 0.3467826
0000b0 3f bf 16 3f 9e 67 36 bf 98 3f 13 3e 0f d8 e5 bd
       0.5888557 -0.7125186 0.14379728 -0.112228505
0000c0 c4 bb d7 be b6 b4 24 be 48 b7 06 bf 93 b8 8e 3d
       -0.4213544 -0.16084561 -0.52623415 0.069687985
0000d0 cd 72 78 3d 0a 67 7c be ca 98 16 3f d2 d9 68 be
       0.060656358 -0.24648681 0.5882689 -0.22739342
0000e0 a6 53 3c 3e 61 b8 87 bc c7 73 36 3f 82 e2 11 3e
       0.18391284 -0.01656741 0.7127041 0.14246562
0000f0 76 4a af bd ae 77 bc bf 28 f5 08 bf 53 f4 05 bf
       -0.08559124 -1.4724023 -0.5349908 -0.52325934
000100 bf 8c 35 be b9 10 a3 3d ff 97 4c be 40 b1 d6 3e
       -0.17729472 0.07962174 -0.19979857 0.41932106
000110 15 b3 56 3e 78 70 e2 3e 13 b9 e6 3e 3a 0e d9 bd
       0.20966752 0.44226432 0.45063075 -0.105984166
000120 b3 17 f9 be 06 70 b9 be 8f 0e 59 3f 9b 0d e9 bc
       -0.48650894 -0.3621828 0.8478784 -0.02844887
000130 0f 23 82 3e 28 f9 61 be 1d a1 5e 3e 97 d2 4f bf
       0.25417373 -0.22067702 0.21741147 -0.8118071
000140 d9 07 be be 2c 51 b0 3e 60 a4 81 bd 17 97 9c bd
       -0.37115362 0.3443693 -0.0633018 -0.076460056
000150 85 2a 5c 3e 69 fb 4e be 62 49 c6 3e 26 25 38 be
       0.21500595 -0.20213093 0.38727862 -0.17982921
000160 9a 73 95 3c 72 04 1a 3f 65 42 12 3d f4 ce cf bd
       0.0182436 0.60163033 0.03570785 -0.10146895
000170 71 74 16 3e 77 fc 4b 3e c1 0e af be 6b 75 40 3e
       0.14692856 0.19920526 -0.34190944 0.18794791
000180 60 34 7a 3c 91 7d 44 3e a7 bf 47 be 2a e1 ae 3e
       0.015271276 0.19188525 -0.19506703 0.34156162
000190 98 9b 40 3b 7d 93 ea 3a 42 43 fd bd dd af 3f 3e
       0.0029389616 0.0017896738 -0.12366344 0.1871943
0001a0 87 89 53 3e 20 27 d8 be cc 02 06 3f f9 bd e0 3e
       0.20657931 -0.4221735 0.5234802 0.43894938
0001b0 4f 8b e4 be 7e b3 f2 bd 71 2e 73 3d 0e 03 00 bf
       -0.44637534 -0.11850642 0.05937046 -0.5000466
0001c0 bb 3a 87 3c b4 fd e9 be c6 3d ca 3e 31 c6 14 3f
       0.016507497 -0.45701373 0.39500254 0.58114916
0001d0 27 fe 1d 3f 4c 43 d1 be 48 fd 62 3e 2e 9d 02 bf
       0.6171593 -0.40871656 0.22166932 -0.5102109
0001e0 c4 08 4c 3f e6 99 a3 3e 83 43 17 bd 46 bd 3d bd
       0.79700875 0.31953353 -0.03692962 -0.046323083
0001f0 22 55 32 bf a9 5a 16 3f 38 1e 37 be 03 e8 81 be
       -0.6966115 0.58732086 -0.17882621 -0.25372323
000200 e1 e5 95 3e f4 da 19 3e 9a 8d f8 3c 5a 19 f4 be
       0.29276946 0.1502493 0.030340958 -0.47675592
000210 ef 2a 24 3f a7 0e 04 3f 88 47 9e be 52 f5 80 bf
       0.6412801 0.5158486 -0.3091395 -1.0074866
000220 a3 af eb be db 82 f2 3c ad c6 09 3f 98 f2 63 3d
       -0.46032438 0.029603412 0.5381878 0.055651277
000230 41 bf 1b 3e e1 e7 f0 bd 69 c1 fd 3e fc ec cc 3e
       0.15209676 -0.117629774 0.49561623 0.40024555
000240 f7 30 d6 bd 49 a8 2a 3e 14 a1 09 be 4b f2 82 3e
       -0.10458558 0.16665758 -0.13440353 0.2557548
000250 98 ca 1b 3e 27 9c 11 bf 6a 2a 54 3f 9e 1f b8 3d
       0.15214002 -0.56878895 0.8287722 0.089904055
000260 1b a2 5e bf 52 23 97 3d 55 a5 b6 3d 3a 39 09 3e
       -0.86966103 0.07379784 0.08918253 0.13400736
000270 cc ef 8c 3e 52 59 44 3e 92 47 0d bd f1 c3 6c 3e
       0.275267 0.19174698 -0.034492083 0.2312162
000280 39 e0 79 be e2 cc 99 3e ca 9b b2 3e 58 c2 d4 be
       -0.2440194 0.30039126 0.34884483 -0.41554523
000290 54 df c2 3e 01 1f e4 3e f9 ba 35 be 8c 10 7f be
       0.3806101 0.44554904 -0.17747106 -0.24908656
0002a0 54 22 86 be 4f ff cc be 5a 17 a7 3e 08 d0 a5 be
       -0.26198065 -0.40038535 0.32635003 -0.32385278
0002b0 ed 4a ca bc 7a bc 19 be 50 c9 36 3e c5 41 42 be
       -0.02469393 -0.15013304 0.17850232 -0.18970402
0002c0 83 6e ad be ab 15 08 bd e1 bd 88 bc f7 36 e4 3d
       -0.33873376 -0.03322379 -0.016692104 0.11143296
0002d0 f7 1a 9a 3e 2e 11 a8 3e 08 54 0c bf 59 e3 7d 3e
       0.30098698 0.32825607 -0.5481572 0.24793757
0002e0 97 5d 40 3e 1a 15 ca 3e 15 1a b0 3d 57 80 83 3e
       0.18785702 0.39469224 0.08598725 0.25683853
0002f0 8a 4f 2f be ba 42 4c be ed 00 54 be 52 9b bc bd
       -0.17120185 -0.19947329 -0.20703478 -0.092093125
000300 82 f7 8c 3e f0 49 54 be 8f b4 1a 3e 8a fa a8 3d
       0.27532583 -0.2073133 0.1510794 0.082509115
000310 11 9b d0 3d 88 7a cf bd 5c e6 97 bd 96 1b b2 bd
       0.101858266 -0.10130793 -0.074169844 -0.08696668
000320 9b 70 67 bc c6 db 5b 3d c4 e8 de bb 5e 5d 80 be
       -0.014125968 0.05367639 -0.00680265 -0.25071234
000330 1e 50 9f 3e b7 39 27 bf e7 d8 19 3d 3b 75 88 3e
       0.31115812 -0.6532244 0.03756037 0.2665194
000340 fe 0e 99 3e be 7d cb be a9 a9 12 3f ff 69 42 bf
       0.2989425 -0.3974437 0.5729013 -0.7594299
000350 94 31 d9 3e 6b 0e 94 3e 16 8e dd 3e 5e 67 57 3e
       0.42420638 0.2891725 0.43272465 0.21035525
000360 61 94 72 bd b5 d4 27 bf fb 22 4f 3e 5b 2e 4a 3e
       -0.059223536 -0.6555894 0.20228188 0.19744246
000370 31 43 32 3f e7 bd 99 be 97 a9 a2 3e 75 ac 06 be
       0.69633776 -0.30027696 0.31770012 -0.13151725
000380 74 02 3b be 42 82 62 bd e9 b1 ff be ee 9e 4c bd
       -0.18262655 -0.055300005 -0.49940422 -0.049956255
000390 ea 35 61 3f 29 df 71 3f 7b 88 a0 be cb 11 03 3f
       0.8797289 0.9448114 -0.31354126 0.51199025
0003a0 dc b2 5e 3e 66 2d 5f bd 58 af 42 3d fd f6 8b be
       0.21747917 -0.054486655 0.047530502 -0.27336875
0003b0 91 8b 62 be 1d d7 f4 be 03 98 95 3e 4d c0 83 3e
       -0.22123553 -0.47820368 0.29217538 0.2573265
0003c0 f2 58 ed 3c be 20 9e 3e 70 1b 6e be 59 91 5f bd
       0.028973076 0.30884355 -0.23252654 -0.054581974
0003d0 7b 4a c0 3d 32 f4 b0 bc 5e 9a a4 be 32 67 03 bf
       0.09389206 -0.021600816 -0.32149023 -0.5132934
0003e0 50 80 1a bf 5d d4 12 bf b3 6b 26 be 28 1b 39 be
       -0.6035204 -0.5735529 -0.16252021 -0.18076766
0003f0 a4 dd b3 bc ce 5c 60 3f 3a ed 17 bf d0 18 5f 3e
       -0.021956272 0.8764161 -0.59346354 0.21786809

network_body._body_endoder.seq_layers.0.bias f4 [128]
000000 65 31 c2 bd f7 cd 7d bc 34 42 77 3c 59 d6 9f bd
       -0.094820775 -0.015491 0.015091468 -0.078045554
000010 1f 5d 25 be 77 96 b1 bc fb 4e 62 bd c3 90 9d bb
       -0.16148804 -0.021678193 -0.055251103 -0.0048085167
000020 f6 42 24 bd 94 fe 15 bd e3 89 3a 3d 24 f0 7b 3d
       -0.04010292 -0.036619738 0.045541655 0.061508313
000030 37 3c c8 bd 1e 71 8e 3d ef c2 37 be da b7 b1 bd
       -0.0977711 0.06955169 -0.17945455 -0.08677645
000040 f6 e3 a6 3c 15 7a 95 3d 02 ee 1e 3c bf 34 79 3d
       0.020372372 0.07298676 0.0097003 0.06084132
000050 4d 8a 02 be 21 97 2c bd 94 54 27 be f8 f0 ec 3c
       -0.1274807 -0.042136315 -0.16340858 0.028923497
000060 92 40 71 3d 7a 6f 08 be 86 bd a2 bd 45 db 07 3d
       0.05889947 -0.13323775 -0.07946305 0.033168096
000070 77 da de bd 51 a7 d3 3c b3 27 50 be e5 26 a8 bd
       -0.108815126 0.025836619 -0.20327644 -0.082105435
000080 37 32 64 3d d4 64 44 be 14 17 21 be 51 29 e6 3b
       0.05571195 -0.19179088 -0.1573146 0.0070239683
000090 c0 3c cd 3c 89 be 2d bd 24 0c 79 3d db 46 36 bd
       0.025053382 -0.042418037 0.060802594 -0.044501167
0000a0 1d 7f 3a 3d 73 3f 6b bd 44 c9 26 be 86 eb 94 bd
       0.04553138 -0.057433557 -0.16287714 -0.07271485
0000b0 d3 2a 3e 3b e1 2d e4 bd eb ff 93 bc 5e e3 23 be
       0.0029017224 -0.11141563 -0.018066367 -0.16004702
0000c0 36 62 6c bc c4 2e fb bd ca b0 6e bd 5c 5b 93 3c
       -0.014427712 -0.12264779 -0.058274068 0.0179879
0000d0 e5 d2 f6 bd 23 4a 86 3c ef b4 84 be 67 8a 07 be
       -0.12051944 0.016392773 -0.2591929 -0.1323639
0000e0 ae f1 ff bd a0 80 f1 bd a7 ee 3b bd 2b 01 f7 3d
       -0.124972686 -0.117921114 -0.045881893 0.1206077
0000f0 ab 9e cc bd cf 16 c9 bc 96 54 c3 3d fd 8c 1d be
       -0.09991201 -0.024547009 0.09537618 -0.15385814
000100 6d 25 9f bd aa c3 b7 bb 8b f9 2b 3d 5b 0a aa 3d
       -0.0777081 -0.005608042 0.04198603 0.083027564
000110 8e 40 0a 3c ee 4e c5 3c 19 54 a0 3b d8 d0 07 be
       0.008438243 0.024085488 0.0048928377 -0.13263261
000120 ba d5 ab bd ca e8 ca bd 41 7c 1e be 44 20 1c be
       -0.083903745 -0.09907682 -0.15477087 -0.15246683
000130 2c d7 dc 3d 8f 5c c2 bc 0f d4 3a bc ca dd 20 bd
       0.10783228 -0.023725776 -0.011403098 -0.039274015
000140 df d9 92 bc bb b1 28 bd 67 ba a5 3d 64 b1 6a bd
       -0.017926155 -0.041185122 0.08092194 -0.05729808
000150 2f 53 f8 bd a4 4f ed bb ec f1 97 3c 9f 35 da bd
       -0.12125241 -0.00724216 0.018547975 -0.10654759
000160 8a 23 70 3d 89 b6 e6 bd be 3b 0f 3d fb 86 13 bd
       0.058627643 -0.112652846 0.034969084 -0.0360174
000170 ad d3 22 3d eb c8 9c bd 31 3c f0 bd b3 bf 9d 3c
       0.03975265 -0.076555096 -0.117302306 0.019256448
000180 ce 1e 84 bd 8f 36 ef bc 3d 5d ba 3d e8 16 60 bd
       -0.06451188 -0.02920082 0.09099815 -0.054709345
000190 94 4b b0 bd 3d 1b 3e be 6d 51 be 3a 5c 28 85 3d
       -0.086081654 -0.18565078 0.0014520116 0.065018386
0001a0 2d 15 1a be 64 84 19 3d 77 43 6a bc 91 54 cd bd
       -0.1504714 0.037479773 -0.014298311 -0.100258954
0001b0 96 9a ac bd b5 cb 87 bd dd 1f b8 bd d9 5b cc 3c
       -0.084279224 -0.06630651 -0.089904524 0.02494614
0001c0 6d d6 fc bc 1e 65 43 bd 7f c9 20 3c ba a7 cd bd
       -0.030863965 -0.047703855 0.009813665 -0.10041757
0001d0 c6 3a ac bd a1 fc 8d 3c 75 20 26 ba 44 d1 12 3d
       -0.08409648 0.017332377 -0.0006337234 0.035844103
0001e0 8c 63 24 bc 33 51 23 3d 1e be 39 be 7b 7b 0f be
       -0.010033499 0.03987236 -0.1813893 -0.14011948
0001f0 40 4c ca bd 90 98 1d bd 07 23 a7 3c e3 1d c1 bd
       -0.09877825 -0.038475573 0.020402445 -0.094295286

network_body._body_endoder.seq_layers.2.weight f4 [128, 128]
000000 80 45 2f 3d 10 7a aa 3d 1a 17 73 3d 2c b4 0a 3e
       0.04279089 0.08324063 0.059348203 0.13545293
000010 26 a5 c4 bc d1 92 a6 bc 2d fe 1b 3e 32 a3 93 bd
       -0.02400453 -0.02033368 0.15233679 -0.072088614
000020 6f c2 21 be 81 9f c7 3d ed 4a 59 3d 8d 6b 1a be
       -0.15796827 0.0974722 0.05304997 -0.1508009
000030 af e9 02 be 0a 49 b4 3c c5 59 c4 3b 2e b5 10 3d
       -0.12784456 0.022007484 0.0059921467 0.035329036
000040 ec 5e aa 3c 07 3d ce 3c 8a bd 5d 3d 3f 2c 09 3e
       0.020797215 0.025175584 0.054135837 0.13395785
000050 f4 1b 5b 3c e4 2e 09 be 2f a3 23 be 1e b7 0a be
       0.013373364 -0.13396794 -0.15980218 -0.13546416
000060 38 bf 88 3c f9 d1 23 3e 66 ba 20 bd b7 af 7e bd
       0.016692743 0.15998067 -0.039240263 -0.062179293
000070 68 fe 46 bd d3 b7 1e 3e ee e0 08 3d ae e9 a5 bd
       -0.048582464 0.15499811 0.033417635 -0.081012115
000080 ae f7 da 3d 70 16 0c be 51 2f 22 bc c6 92 c5 bb
       0.106917724 -0.13680434 -0.009898976 -0.0060294596
000090 db 0e fa bd 48 67 5e bd 81 91 fa bd 10 ae 03 be
       -0.12209865 -0.054297715 -0.12234784 -0.12859368
0000a0 0f 67 c5 3c ac e4 45 be f2 b1 de bc 76 c4 9a 3d
       0.024096994 -0.19325513 -0.02718446 0.07557003
0000b0 97 a9 b6 bd f8 04 66 3e 3a 6f 94 bd c4 d9 a2 bd
       -0.089190654 0.22462833 -0.07247777 -0.07951692
0000c0 f4 7e 2d 3d 92 6f d8 bc 2b ac 07 3d 71 5f 41 bd
       0.0423574 -0.026420388 0.033123177 -0.04721016
0000d0 35 5c 74 39 f0 20 30 be e8 1b 17 3c ae 0e 27 3d
       0.00023304003 -0.17200065 0.009222962 0.040785484
0000e0 5d 3c a5 3d 73 1d 9f 3d 28 4f c4 bd 21 2b d1 3d
       0.08068154 0.07769289 -0.0958541 0.10213304
0000f0 a3 8b 4e 3e 8d 0c 94 bd 7c 25 03 3d 4d 32 f1 bd
       0.20170455 -0.07228956 0.03201817 -0.11777172
000100 d5 31 02 bd 91 89 96 bd f3 9b 5e 3d 0b de 3c 3d
       -0.031785805 -0.073504575 0.054347944 0.046110194
000110 46 83 5d bd 84 06 9f bd a5 0f 6d 3e c1 33 30 be
       -0.05408027 -0.07764915 0.23150499 -0.17207243
000120 f1 90 fe bd dc 75 b9 bd f9 d8 2f 3e b2 0a f7 bc
       -0.12429989 -0.09055683 0.17172612 -0.030156467
000130 0b bb 8b bd 9f 05 bf bc 31 e5 34 bd 11 67 8f 3c
       -0.06822785 -0.02331811 -0.044163886 0.0175052
000140 5b 6b 46 3d 6d 45 8c bd f9 b2 96 3d c9 fe f7 3c
       0.048442226 -0.068491794 0.07358355 0.030272858
000150 05 de ba bc b0 e1 cd bc ef 62 9c 3d 48 7c 39 3d
       -0.022810945 -0.02513203 0.076360576 0.04528454
000160 63 69 d3 bc 4f f7 99 3d 07 38 4f 3e dd 2d a1 3d
       -0.025807088 0.075178735 0.20236216 0.07870076
000170 b3 a8 01 be af 73 94 3d 44 46 a6 bd f1 30 0c 3e
       -0.1266201 0.072486274 -0.08118871 0.13690545
000180 d5 ab 18 be 07 92 db 3d e4 f7 ec 3c 65 ef 0e bc
       -0.14909299 0.10721212 0.028926797 -0.008724068
000190 c0 1d 3d 3d f0 5c 33 bd 7b 22 b6 3d 25 7e 2a 3d
       0.04617095 -0.043789804 0.088932954 0.041624207
0001a0 61 ab 4b bd 24 40 67 bd 7a 92 46 3e d5 95 03 bd
       -0.049723987 -0.056457654 0.19391814 -0.032125313
0001b0 31 39 62 bc cf 68 f4 3d f3 c1 27 3d be eb f5 bc
       -0.013807581 0.11934053 0.04095645 -0.030019637
0001c0 33 a2 73 3d b7 27 12 3e d6 99 31 bc f1 44 d6 ba
       0.059480857 0.14272963 -0.0108399 -0.001634745
0001d0 f2 f7 a4 3d 31 6e a8 bd 78 a5 0b 3e 07 b4 05 be
       0.08055104 -0.08224142 0.1363734 -0.13056956
0001e0 74 c1 6d 3d 10 63 a7 bc 38 1b b8 bd 55 fc 75 bd
       0.05804582 -0.020432979 -0.089895666 -0.060055096
0001f0 23 c1 08 3e e9 0f a1 3d a4 27 72 3e e6 ff 5d ba
       0.13354926 0.07864363 0.23647934 -0.0008468613
000200 1c 11 9b bd 10 a4 10 be 88 25 30 bd ec 78 0a 3d
       -0.07571623 -0.14125085 -0.043004543 0.033806726
000210 fb 2f 9a bc 69 14 c4 3d 8e c7 54 be f3 2e d7 3b
       -0.018821707 0.095742054 -0.20779249 0.006566876
000220 55 5e 7f be ac e1 58 3d c6 6b a0 bd 62 58 ca b8
       -0.24938329 0.052949592 -0.07833056 -9.648573e-05
000230 99 42 ee bc 97 81 f2 bd c1 e4 19 3e 0e f9 a1 bd
       -0.02908449 -0.118411236 0.15028669 -0.079088315
000240 c3 f2 a8 3c b5 f6 a6 3d 8c f4 57 3d 41 fe 50 be
       0.02062357 0.081525244 0.052723452 -0.2040949
000250 de ad 2b 3d 58 c9 6b 3e e5 e1 85 3d 2d 75 e3 3b
       0.04191386 0.23026025 0.065372266 0.0069414587
000260 a9 3e 09 be 23 3a 1a 3e 3a e6 3c 3e c4 15 31 3e
       -0.13402809 0.1506124 0.184472 0.17293459
000270 37 bf c9 3d 98 66 6e bd 82 3f b4 3d 0b 60 3c 3e
       0.098509245 -0.05820331 0.08801176 0.18396012
000280 7b e0 45 bc 61 05 03 bd 44 37 22 3e 90 3d 85 be
       -0.012077446 -0.03198755 0.15841395 -0.2602353
000290 c9 c3 a8 3d d0 cc c3 bd 54 76 ae bd 9b 54 85 3c
       0.08240468 -0.09560549 -0.08518663 0.016275695
0002a0 82 84 a7 bd 31 1e e2 bd 22 6d af 3d dd 0c 7f 3a
       -0.08179571 -0.11040915 0.08565737 0.0009729395
0002b0 bd 8b 34 3d 71 a2 3f 3e fb 9f 8e bd 5c 38 d5 3d
       0.044078577 0.1871431 -0.069641076 0.1041114
0002c0 1c a0 a6 bb 5b d3 6a 3d ff e4 3e be cd f8 b8 3d
       -0.0050850045 0.05733047 -0.18642043 0.0903183
0002d0 b7 d2 ec 3d 37 58 16 bc ec 75 44 3d 58 97 9b bd
       0.11563628 -0.0091763055 0.04796402 -0.07597226
0002e0 6e 42 0d 3e 9a f2 7d 3d 20 c0 9f bd de ae 67 be
       0.13794872 0.06199894 -0.07800317 -0.226253
0002f0 33 8b 98 bc 14 00 04 bd 0a b5 4b be 75 80 25 bd
       -0.018621063 -0.032226637 -0.1989328 -0.04040571
000300 cd cf 2b be e2 b2 78 bd f5 17 30 be 92 c2 f9 3c
       -0.16778488 -0.06071747 -0.17196639 0.030488286
000310 ad bb 18 3d a7 68 da 3b cb cb 5f 3e 2b e9 59 3d
       0.037288357 0.0066653076 0.21855085 0.053200882
000320 76 cc ef bc ce e0 de 3d e3 52 5d 3d 79 64 47 3d
       -0.0292723 0.10882722 0.054034125 0.048679803
000330 0c 0f 77 be 0d fe 3e be 5f f6 27 3e 5a e6 2e be
       -0.24126834 -0.186516 0.16402577 -0.1708006
000340 4a b2 c1 bc fb 5d 1b bd ef d6 82 bd e9 16 85 bd
       -0.023644585 -0.037931424 -0.063886516 -0.064985104
000350 08 56 0a 3e 7e cb 12 bd 25 45 2d 3d bf a5 fa bd
       0.13509381 -0.035838597 0.04230227 -0.12238645
000360 15 93 48 3d 45 41 7e 3e f5 55 99 be b4 9f 3f 3d
       0.048968393 0.24829586 -0.29948393 0.046783164
000370 93 bf bf bd 6e 84 9c 3d 62 d5 71 bc f6 e0 2c 3d
       -0.09362712 0.076424465 -0.014760347 0.042206727
000380 14 22 1a be f8 9f c3 bd d5 ab 10 be 7a 51 61 3d
       -0.15052062 -0.09551996 -0.14128049 0.055009343
000390 ae ae 0e 3e 4a 47 f1 3d b7 b1 70 3d 9e 37 c3 be
       0.13933823 0.117811754 0.058763232 -0.3812837
0003a0 a7 e1 a2 bc ae dd 65 bc 10 f5 bc bd 02 4b a2 3d
       -0.01988299 -0.014029903 -0.092264295 0.07924463
0003b0 fe b3 22 bd 38 e5 f0 bd d3 4b 6e bd a6 86 a3 3b
       -0.039722435 -0.1176247 -0.05817778 0.0049904166
0003c0 46 49 46 be 89 01 f0 bd b5 4a ea bb fa cd 03 be
       -0.19363889 -0.11719043 -0.007150019 -0.12871543
0003d0 92 23 ca 3d ac e3 2b 3d 01 35 77 bc c4 d3 1a bc
       0.09870066 0.04196517 -0.015088321 -0.009449903
0003e0 83 b3 c4 3d b2 e3 27 3e 63 2a 50 bc 00 d4 84 bc
       0.09604552 0.16395453 -0.012705418 -0.01621437
0003f0 fd d8 f4 3d 79 82 64 3d b0 b2 1f 3e b0 fe d4 3d
       0.1195545 0.05578849 0.15595508 0.1040014

network_body._body_endoder.seq_layers.2.bias f4 [128]
000000 10 b1 94 bd 68 71 24 be dc 3a 53 3d f3 14 2d bd
       -0.072603345 -0.16058886 0.051569805 -0.042256307
000010 c6 cc 0a be bd 36 21 bd 30 18 dc 3d 21 d0 ac 3d
       -0.13554677 -0.039358843 0.10746801 0.08438135
000020 c4 5d a8 3d e5 4b 04 be 46 36 a7 bd 23 ea ec 3d
       0.082210094 -0.12919576 -0.08164649 0.115680955
000030 42 60 04 3d 53 75 a0 bd d1 5a 18 be 5d 03 b8 bd
       0.03231836 -0.07834878 -0.14878394 -0.089850165
000040 f4 85 12 be e3 c9 82 bc 27 84 cd 3d 85 b5 ae bd
       -0.14308912 -0.015965408 0.10034972 -0.08530716
000050 f3 69 f9 bd c5 84 be bd 4a 11 19 be 77 92 47 be
       -0.12178411 -0.093026675 -0.14948002 -0.19489466
000060 48 c6 b0 3d 92 6d ff 3c 8c fa c6 3d 66 be 23 3c
       0.08631569 0.031180177 0.09715757 0.009994125
000070 eb 16 1b 3d fe db bb 3d 48 33 10 be 51 c0 3f 3d
       0.037863653 0.091728196 -0.14082062 0.046814267
000080 21 20 72 3d 6c 24 1f 3e 4e a0 0f be c6 5f 00 be
       0.05911267 0.15541238 -0.14025995 -0.12536535
000090 7d 06 44 3d 61 8e 6e 3d fc 6e bf bb 7c 15 02 be
       0.04785775 0.05824125 -0.005842088 -0.12703508
0000a0 7c 7f 0b bd 11 4c de 3d 5b 2f 7e 3d 34 89 49 bd
       -0.034057125 0.10854352 0.06205688 -0.049203113
0000b0 c6 58 d3 bd 94 fe cc bd f9 19 cd 3d 80 af cc 3d
       -0.103196666 -0.100094944 0.100147195 0.099944115
0000c0 e9 a8 ac bd 6c ca 4a 3c 95 90 8f bd b1 7d 01 be
       -0.084306546 0.012377363 -0.07009999 -0.12645604
0000d0 a2 f9 ac bd ac 57 1e be ee f6 14 be 1e 8a cb 3c
       -0.08446051 -0.15463132 -0.14547321 0.024846133
0000e0 65 a6 ba bd 68 a3 b3 3d b3 a3 ef bd 2f 99 f1 bd
       -0.091137685 0.08771402 -0.11701145 -0.117967956
0000f0 1b 21 aa 3c 4d 4a 13 bd de b0 05 3e ad 40 01 bd
       0.020767739 -0.03595953 0.1305575 -0.03155582
000100 8c f4 c6 bd 8a 71 c2 38 73 29 15 3e 3c d7 2f bc
       -0.09714612 9.271789e-05 0.14566593 -0.010732468
000110 f9 54 04 3e 3d 4f 90 3d fb 9b a8 bd 12 0f c2 3d
       0.1292304 0.070463635 -0.08232876 0.09475531
000120 50 65 8a bd 47 34 af 3c 8d 88 7a 3d 44 ba ee bd
       -0.06757605 0.021387232 0.06116538 -0.11656621
000130 35 56 b8 bd ff 18 22 be 17 87 07 3e 09 e8 95 3d
       -0.09000818 -0.15829848 0.13235126 0.07319648
000140 bb 7f fc 3d 26 24 b6 3c 3f 09 34 3d f6 ee 94 bd
       0.1232905 0.022234034 0.04395413 -0.07272141
000150 86 e9 9c 3d 8b 71 f7 3d 8a e8 b8 bd b7 87 6a bd
       0.076617286 0.120822035 -0.09028728 -0.057258334
000160 22 70 06 3e 6a 45 d4 3d 61 c6 04 be 04 24 83 3d
       0.13128713 0.10364802 -0.129663 0.06403354
000170 ab d8 01 bd 48 4c b4 3d e2 da fb bd 1b 60 f6 3d
       -0.03170077 0.08803612 -0.12297608 0.120300494
000180 43 9c f2 3d 3b a2 9f bd ab 8f 07 3e 8c f5 21 be
       0.11846211 -0.07794615 0.13238399 -0.15816325
000190 0a f0 86 bd 79 d9 55 3c 93 59 8f bd 66 30 05 3e
       -0.065887526 0.013052338 -0.06999507 0.13006744
0001a0 7d 84 a8 3d bb 61 ac 3d b0 fc 0c bd 74 b8 c5 bb
       0.08228395 0.08417078 -0.03442067 -0.0060339514
0001b0 3b e4 9d 3c b6 73 bb 39 05 9a a5 3b 39 8d e5 bd
       0.019273868 0.0003575363 0.005053761 -0.11208577
0001c0 2d fd 29 3e 7c 90 f3 bd f0 5f eb 3d ef 0c 69 bc
       0.16600485 -0.118927926 0.11492908 -0.014224275
0001d0 c8 1d fc 3d 89 66 69 3e 74 72 fc bd 39 86 d3 3b
       0.12310368 0.2279302 -0.12326518 0.0064552096
0001e0 8b 30 be bd e0 0a 00 3e c5 08 ed bd 67 9b 9f 3b
       -0.092866026 0.12504148 -0.11573938 0.0048708203
0001f0 24 5a 0c 3e c4 f1 e5 bd 6b 1a be bd c3 b4 02 3e
       0.13706261 -0.11227754 -0.092823826 0.12764268

action_model._continuous_distribution.log_sigma f4 [1, 2]
000000 74 19 a8 be 5d 04 81 be
       -0.3283192 -0.2519864

action_model._continuous_distribution.mu.weight f4 [2, 128]
000000 01 51 b7 3c d8 fe b5 3c c3 72 b3 bc e2 86 ac 3d
       0.022377493 0.022216246 -0.021905309 0.08424164
000010 58 98 07 bc c4 82 58 bb c3 15 0f bc fc 1d 8f bd
       -0.008276068 -0.0033036927 -0.008733216 -0.06988141
000020 dd fc 8e bd 3a 62 9a bb ca 6c 2a 3d 1e f7 b8 3d
       -0.069818236 -0.0047114165 0.041607656 0.09031509
000030 e2 f5 7a bd 5a 55 b7 bc 46 87 8d 3d b1 ab 23 3d
       -0.06126965 -0.022379566 0.06910567 0.03995866
000040 36 6b 3a 3b c3 f5 7d 3d b8 d3 2e bb b3 58 03 bd
       0.002844525 0.062001955 -0.0026676487 -0.032067012
000050 56 c7 8e 3d 04 a0 3c 3d 32 34 a9 3c 4f 55 fb 3b
       0.06971614 0.04605104 0.020654771 0.0076700817
000060 19 a9 84 3c 9c 99 dc bd ab 95 2b bd 03 13 44 bc
       0.016193913 -0.10771486 -0.04189078 -0.011967423
000070 74 1e 16 3d aa 99 a8 bc 26 91 46 3d 54 c8 53 bd
       0.036650136 -0.020581085 0.048478268 -0.05170472
000080 bf 30 86 3d 3c ce 09 bd c3 ab 8f 3c a5 1e 83 3c
       0.06552266 -0.033643946 0.017537957 0.016005823
000090 3c 01 88 3d 37 7b 7b 3d c9 52 a3 bd 1b 51 57 3d
       0.066408604 0.061396804 -0.079747744 0.052567583
0000a0 f8 64 5b 3a 15 0c 0c 3c c7 de 9b bc 5a e0 69 3c
       0.00083692325 0.008547802 -0.019027127 0.014274681
0000b0 9e df 74 3d c1 d7 23 bd 16 82 05 3d 97 a5 b8 bd
       0.05978357 -0.04000068 0.032594763 -0.09015959
0000c0 b5 3a 68 bd 9c 6e 5d 3b f1 e2 53 bc 68 74 4c 3d
       -0.056696612 0.0033787852 -0.012932525 0.0499157
0000d0 52 0f 25 3c 6b ca 01 3d eb 64 1d 3b dc 7b 33 3c
       0.010074453 0.03168718 0.002401645 0.010954823
0000e0 6b 71 11 bd c6 91 4f 3b d2 d1 1a bc e9 be 17 3c
       -0.035508554 0.003167258 -0.009449439 0.009261825
0000f0 b7 64 eb 3d 87 68 a5 3d 06 64 0d bd 01 51 66 3c
       0.11493819 0.08076578 -0.034519218 0.014057399
000100 6e 32 e2 3c 58 23 b8 38 82 d8 0c 3c 37 e0 05 bd
       0.027611937 8.780387e-05 0.008596541 -0.03268453
000110 78 cf 18 bd 48 82 6c bd 92 c9 85 3d 6d cd 1a bd
       -0.037307233 -0.057741433 0.06532587 -0.037793566
000120 90 ec 6f bb c3 b9 29 bd 6e 54 91 3c 33 a0 4c bc
       -0.0036609508 -0.04143692 0.017740455 -0.012489366
000130 14 c9 eb 3b c6 d5 55 3c 48 9e 74 b9 94 96 32 3d
       0.0071956012 0.013051456 -0.00023328618 0.043600634
000140 bd 50 ea 3c bc af c1 3d df 9e 51 bd 4d 81 80 3c
       0.028602952 0.09457347 -0.051176902 0.015686655
000150 41 14 d2 3d c7 3d 65 bd ad 75 81 bb 6e 60 02 3c
       0.102577694 -0.05596712 -0.0039507956 0.007957561
000160 fd e0 01 3d 77 04 28 bd ab de 87 3d 88 a1 70 3d
       0.031708706 -0.041019883 0.066342674 0.0587478
000170 b8 81 0b 3c 22 4e 8c 3d 5f 2d a0 bc 48 07 21 bd
       0.008514814 0.0685084 -0.019552885 -0.039313585
000180 90 64 b5 bc 35 97 52 3b 89 9c 80 bd 33 fb d4 3c
       -0.022142678 0.0032133583 -0.06279857 0.025998687
000190 65 67 a4 3b aa f3 79 bd 63 53 33 bc fa ce c8 bc
       0.0050172084 -0.06102339 -0.010945174 -0.024512757
0001a0 84 a7 64 bd c1 a4 06 3c b0 d5 ca ba b7 49 14 3e
       -0.055823818 0.008217991 -0.0015475061 0.14481245
0001b0 37 2d 08 3c 00 ab 76 3d ee 8e 4f bb c6 07 b0 3c
       0.008311561 0.060221672 -0.0031670886 0.021488082
0001c0 16 03 b0 bd 0f ea 29 3d aa 87 d8 bc c2 dd a9 bd
       -0.085943386 0.04148298 -0.026431877 -0.0829425
0001d0 56 08 9b bd ce 55 90 bd 12 00 75 3a 22 c7 8e 3d
       -0.07569949 -0.07047616 0.0009346019 0.06971575
0001e0 6a fa 57 3d 6d d8 99 bd ac 2f 9f 3c 8d 9a 17 3b
       0.052729048 -0.07511983 0.019431911 0.002313289
0001f0 31 01 c9 bd 88 ec a6 3b 71 98 af 3c a3 c9 5c bd
       -0.0981468 0.0050941147 0.021434994 -0.053903233
000200 8d e4 3c 3b 15 f3 ea 3d c0 6d e7 bc 43 75 82 ba
       0.002882275 0.114721455 -0.028250575 -0.000995316
000210 2c 15 08 3d ad ba b4 bb 37 0a c4 bc d2 c7 3e bd
       0.033223316 -0.0055154175 -0.023930652 -0.046577282
000220 de ba 9a bb 5e ab 4b 3d 80 5c 02 3c e5 15 1e be
       -0.0047219833 0.049723975 0.007956624 -0.1543804
000230 2a 73 56 3c fc 92 40 3d a0 96 fd 3d 3a 52 3f 3c
       0.013088981 0.047015175 0.12382245 0.011677319
000240 dc 56 bc 3d 62 23 68 bc 5d ca ca bc c8 12 aa 3d
       0.091962546 -0.014168592 -0.024754697 0.083043635
000250 5f 19 6e 3d 6a 2a b2 3d 4d 27 cb 3d 1e ca 9b 3d
       0.058129665 0.08699496 0.099196054 0.0760691
000260 19 27 e0 bc 49 b2 35 3d 3f 4d 3a bc 19 76 66 bb
       -0.027362393 0.04435948 -0.011370956 -0.0035165607
000270 50 90 51 bd ad c6 19 bd a9 2e c0 3d 3e 8e 82 bc
       -0.051163018 -0.037542988 0.093839 -0.015936967
000280 c8 6e c5 bd 5d d4 1d be ed 03 b1 3d e7 7c 8c 3d
       -0.096402705 -0.15413041 0.08643327 0.06859761
000290 6c 1f 70 bd 0d 65 e7 bd 5c 57 5a 3d eb 7b 38 3d
       -0.058623716 -0.11298571 0.05330597 0.045040052
0002a0 95 32 25 bb 35 6f 3f bd f7 84 17 bd b4 99 8f 3b
       -0.0025207151 -0.046736915 -0.03699204 0.0043823365
0002b0 38 4e 3e 3d ae 7f c0 3d 15 85 86 bd c1 c1 0e bd
       0.046461314 0.09399353 -0.06568352 -0.034852747
0002c0 ef 22 7e 3d 2c 6c e5 bc 92 6c 02 3d 99 0f 96 3c
       0.062045034 -0.028005682 0.031841822 0.018317984
0002d0 91 bc ad 3d f4 f9 6b 3d 32 f2 ff 3c dd 5b 42 bc
       0.08483232 0.05761142 0.031243417 -0.011862722
0002e0 1e ba ad 3d 25 34 35 bd a8 e1 9c 3d 98 f5 84 3d
       0.08482765 -0.044239182 0.07660228 0.06492156
0002f0 7c 74 c7 bd 13 1d 80 bc 04 bd 24 bd 40 d1 e0 3b
       -0.097390145 -0.015638864 -0.04021932 0.006860882
000300 88 17 9b 3c 9f 38 c6 bc 4c 18 71 bd bd cc 04 3d
       0.018932119 -0.02419692 -0.058861062 0.032421816
000310 22 ef 5c bd e0 9f 3a 3c 5b e3 6a 3d 13 be 48 bd
       -0.053938992 0.011390656 0.05734573 -0.049009394
000320 75 e8 57 3c 05 07 02 3c 72 19 a5 bd 04 67 08 3d
       0.013177981 0.007936244 -0.08061494 0.03330137
000330 1c ae 29 3c 89 40 f2 3c 13 a5 8d bd 0a 50 09 bd
       0.010356452 0.029571788 -0.06916251 -0.033523597
000340 73 5a 9d bd d2 5e a8 bd 0a 77 02 3d 42 3d 33 3b
       -0.076832674 -0.082212105 0.031851806 0.0027349745
000350 8b 7e c2 bd ef c2 5f bd e4 80 43 3d 2c 8c 2a bc
       -0.094967924 -0.054629263 0.04773034 -0.010409396
000360 2a 5b d4 bd 84 ab 01 bd 95 b7 1b 3d 42 bd 48 bd
       -0.10368951 -0.03165771 0.038016874 -0.049008615
000370 9c b6 24 bc 0f 18 da bd b2 66 43 3d 52 dd 91 bd
       -0.010053303 -0.1064912 0.04770536 -0.071222916
000380 e6 f1 86 bd 7a ae 65 3d 5a 77 7f bd 6d 41 8a 3d
       -0.06589107 0.056074597 -0.062369682 0.0675076
000390 9d 6a 9d bb 0f 15 23 bc e3 54 e6 3b fd 77 c1 bc
       -0.004803969 -0.009953751 0.0070291623 -0.023616785
0003a0 fa 0b 20 bd 1a 92 e4 bd 64 82 e2 bb 7c d9 26 bd
       -0.03907392 -0.11160679 -0.0069125164 -0.040734753
0003b0 57 e3 5a bc b0 2b 1d bd 6a 81 95 bb ad 89 87 3d
       -0.013359866 -0.03837174 -0.0045625465 0.066180564
0003c0 32 a5 04 be a4 bc 88 3c 44 3e 1e bd f0 99 57 3d
       -0.12953642 0.016691513 -0.0386336 0.05263704
0003d0 81 53 94 bd 0e ca de bd f1 dd 08 3d 7b f2 cc bc
       -0.072424896 -0.108783826 0.033414785 -0.025017967
0003e0 11 73 5d 3d da 9d ac bd 9e 2d 6b 3c e8 a0 4d 39
       0.054064814 -0.08428545 0.014354138 0.00019610266
0003f0 32 c2 45 bd ff 7f 2f 3d fd df 06 3d bc cd ee bd
       -0.048280902 0.042846676 0.032928456 -0.116603345

action_model._continuous_distribution.mu.bias f4 [2]
000000 10 82 56 bd 11 90 aa bd
       -0.05237013 -0.0832826

action_model._discrete_distribution.branches.0.weight f4 [1, 128]
000000 57 b6 1d 3c c8 00 a6 3b 20 26 f2 39 e7 eb 07 bc
       0.009625993 0.005066011 0.00046186242 -0.00829599
000010 7e d7 2e 3c cb 27 56 bc 15 43 91 bc d7 ad 42 3c
       0.0106714945 -0.013071011 -0.017732183 0.011882267
000020 a3 99 39 3c f2 f6 8b bc 2d cc 8c 3a 1a 80 47 bc
       0.011328134 -0.017085526 0.0010742001 -0.012176538
000030 14 c6 14 bc 6e 56 82 bb 75 55 6d bc 7c d6 c3 bb
       -0.009080429 -0.0039775884 -0.014485707 -0.0059764963
000040 0b 48 93 3b 8c 75 a6 bb 41 78 ad 3c d0 5b e8 3a
       0.004494672 -0.0050799306 0.021175506 0.0017727558
000050 8a 2d 6b bc aa 32 05 bc 37 53 83 bb 57 65 6f 3b
       -0.014354119 -0.008129755 -0.0040077227 0.003652891
000060 af 79 94 ba 8c 15 2e ba 4d cc c7 bb 87 e2 f3 3b
       -0.0011327768 -0.0006640784 -0.0060973526 0.0074427756
000070 76 a2 3c bb 1c 32 13 bc 7b 4c 05 3c e7 c1 b9 3b
       -0.0028783358 -0.008984115 0.00813591 0.005668867
000080 7a d3 3f bb a3 e5 e2 3b 88 45 95 3a d0 ca 60 bc
       -0.0029270337 0.0069243475 0.001138852 -0.013720229
000090 0d 99 a4 3b 33 2e 0c 3b 26 f8 a2 3a 7b 41 13 3c
       0.005023128 0.0021389842 0.0012433573 0.00898778
0000a0 af f9 92 3b b6 1c 09 3c 12 a8 4f 3b 07 c1 92 3c
       0.004485331 0.008368662 0.003168587 0.017914308
0000b0 82 38 c6 bb 43 5c 36 bc 88 c8 25 bc 47 ac b0 3b
       -0.0060492167 -0.011130395 -0.010118611 0.005391631
0000c0 05 9b 06 3b 4f b8 06 bc db d9 33 3b ef 3a c8 ba
       0.0020539176 -0.0082226535 0.0027443084 -0.0015276353
0000d0 94 9d 09 bc 48 97 ff bb e4 6c a0 bc 3e 08 2d 3b
       -0.008399386 -0.0078000166 -0.019583173 0.0026402618
0000e0 ef d6 e0 39 f8 62 a5 b9 8a 85 50 bc 27 4a ca 3b
       0.00042884747 -0.0003154499 -0.012727151 0.0061733904
0000f0 c0 31 a8 bc 35 5a 29 3a 05 55 55 bb 75 1f 8f bb
       -0.020531535 0.000646028 -0.0032551896 -0.0043677636
000100 ab a0 00 3b 2f f2 86 3b 91 d0 b3 3b ba af ea bb
       0.0019627016 0.004118226 0.0054875095 -0.0071620615
000110 ed a0 c4 3b bf 1c 19 bc a0 20 8a bb b1 44 c4 b8
       0.006000629 -0.0093452325 -0.004215315 -9.358803e-05
000120 28 bc 34 3b 27 ee f2 bb 43 3a 76 3c 4c 6f 18 bc
       0.002757797 -0.007413644 0.015028539 -0.009303879
000130 f0 c0 cb ba 31 de 30 3b 6b 58 35 bb ef ce 07 b8
       -0.0015545171 0.0026987905 -0.002767111 -3.237923e-05
000140 cb 26 57 ba 11 5e 8c bb 62 6c 2b 3c df b1 28 bb
       -0.000820738 -0.0042836745 0.010462852 -0.0025740785
000150 90 39 77 bc 1f ce 60 bb 5b 3a 1d 3c 4f 74 d7 3b
       -0.015089408 -0.0034302545 0.009596433 0.0065751444
000160 73 3f 6e 3b 0a b1 4f 3a a0 b2 61 3c 5a 54 bd b9
       0.0036353737 0.0007922804 0.013775498 -0.00036111736
000170 2f e7 81 ba f9 d0 b1 bb e3 ab 11 bc 19 62 b4 3c
       -0.0009910817 -0.005426523 -0.008891079 0.022019433
000180 f3 51 8e 3c 72 7e f6 39 bd e1 ea 3a bf f9 c1 3b
       0.01737306 0.00047014985 0.0017920058 0.0059196646
000190 0c 3e 0f bb a7 4e 6f ba d5 5f 88 bc 2f 30 14 ba
       -0.0021857051 -0.00091288466 -0.016647259 -0.0005652932
0001a0 03 75 24 3b e7 99 17 ba c3 c4 9c ba 66 08 83 bc
       0.0025094158 -0.0005783126 -0.0011960495 -0.015995216
0001b0 6f 7f 6a 3b 0d 3c 4c bc 94 21 c1 3b 87 10 91 3b
       0.0035781523 -0.012465489 0.0058938954 0.004427019
0001c0 3c f4 a4 3b 82 cc 80 3c 88 99 0e bc bc ed 03 bc
       0.005033998 0.015722517 -0.008703597 -0.008052286
0001d0 ff ee 40 bc 36 e9 28 bc b0 1d b7 bb 37 20 d4 3b
       -0.011775731 -0.010309508 -0.005588256 0.006473567
0001e0 2a 95 54 3c 90 a0 84 bb eb 91 4a 3c 0f d5 45 3c
       0.012975017 -0.004047461 0.012363891 0.012074723
0001f0 f3 e3 52 bb 9b ea 03 3b 29 e8 17 bc cf 98 72 bc
       -0.0032179325 0.002012885 -0.00927166 -0.01480694

exp_avg f4 [128, 7]
000000 12 04 b2 39 00 00 00 00 00 49 93 38 1f be 94 39
       0.00033953838 0.0 7.0231035e-05 0.0002837041
000010 fd 76 08 38 c1 a4 06 39 52 26 97 39 1f 14 db 3a
       3.2535743e-05 0.00012840611 0.00028829515 0.001671437
000020 00 00 00 00 aa e5 91 b9 6a 0e cb 3a 20 96 75 b8
       0.0 -0.00027827668 0.0015491967 -5.8552367e-05
000030 58 7f 08 3a a9 b7 99 ba d3 a1 42 bb 00 00 00 00
       0.0005206964 -0.0011727709 -0.0029698506 0.0
000040 f3 c3 fd 37 c7 85 2d bb e5 29 9a 38 51 62 5d ba
       3.0251196e-05 -0.0026477443 7.351096e-05 -0.0008445131
000050 b9 d7 64 3a b0 ec 8b ba 00 00 00 00 f8 77 bb b9
       0.0008729655 -0.0010675397 0.0 -0.00035756803
000060 4c a6 6b ba c9 3e 9b 37 67 99 18 ba c5 8c 08 3a
       -0.0008989319 1.8506676e-05 -0.00058211986 0.00052089646
000070 ee 50 e7 38 00 00 00 00 9d 48 0d 39 0c 7c 87 38
       0.00011030013 0.0 0.00013473858 6.460407e-05
000080 6d 4a 08 b7 89 96 b0 38 3d 00 d3 38 78 05 49 bb
       -8.12356e-06 8.420373e-05 0.000100613084 -0.0030673426
000090 00 00 00 00 ba 59 35 ba 9b c1 23 bb db 4a ef 38
       0.0 -0.00069179724 -0.0024987224 0.00011410351
0000a0 ae 12 ab ba 6a e2 90 3a 8e 8c 01 3b 00 00 00 00
       -0.0013051832 0.0011053805 0.0019767615 0.0
0000b0 76 0d 96 3a d7 fd b5 3a 3c 3e fd b7 39 9a a6 3a
       0.0011448103 0.0013884854 -3.018893e-05 0.0012710757
0000c0 32 ce 10 3a 7d f1 02 ba 00 00 00 00 a1 74 c1 b8
       0.00055238896 -0.0004995091 0.0 -9.224681e-05
0000d0 e5 ae e6 b9 e8 de f2 37 eb b3 d0 b9 e2 0d d2 39
       -0.00043999325 2.8952447e-05 -0.000398069 0.00040064665
0000e0 95 9d ad 3a 00 00 00 00 52 d4 9d 3a 1c 57 75 3a
       0.0013245816 0.0 0.0012041426 0.00093589886
0000f0 30 0c b0 38 af cd 90 3a dc 3a 09 3b 4b 48 90 ba
       8.394604e-05 0.0011047627 0.0020939624 -0.0011007873
000100 00 00 00 00 1b a1 80 39 3f cf 89 ba a4 9c 2d 38
       0.0 0.00024534095 -0.0010514035 4.1392297e-05
000110 47 22 a1 b9 9d f5 22 3a 20 90 83 3a 00 00 00 00
       -0.00030733852 0.0006216409 0.001003746 0.0
000120 7f d9 8f 39 79 78 5d 3a b3 d9 bb b7 84 8f ea 39
       0.00027437133 0.0008448433 -2.2393511e-05 0.00044738885
000130 cc 3c 4a ba a6 2d 25 b9 00 00 00 00 53 5e 12 b9
       -0.0007714748 -0.00015752632 0.0 -0.00013958784
000140 5a b5 05 b9 63 f0 d2 36 88 50 bc b8 89 9f 85 38
       -0.00012751427 6.2864724e-06 -8.979539e-05 6.37165e-05
000150 48 c0 2b b9 00 00 00 00 72 c0 44 3a 16 4c 04 ba
       -0.00016379461 0.0 0.0007505483 -0.0005046738
000160 1e bd 61 38 60 05 9c 39 9a 4f 4c 3a 45 d5 d1 b9
       5.382031e-05 0.00029758643 0.0007793844 -0.00040022485
000170 00 00 00 00 30 a6 20 b9 47 25 58 b9 1a 7e cb 36
       0.0 -0.00015320699 -0.00020613252 6.0645516e-06
000180 f4 fa 67 b9 2e f5 5a b8 e2 5a 5f 39 00 00 00 00
       -0.00022123364 -5.220359e-05 0.00021300794 0.0
000190 70 08 bc 39 f5 f0 36 38 df c2 58 b6 59 8a f4 38
       0.0003586444 4.361659e-05 -3.2299938e-06 0.00011660596
0001a0 fa 77 9f 39 69 29 07 3a 00 00 00 00 2c 79 69 b9
       0.00030416233 0.0005156012 0.0 -0.00022265752
0001b0 d8 f9 1d 3a 4c e2 b3 37 a7 30 f9 b8 67 11 00 3a
       0.00060263043 2.144384e-05 -0.000118823074 0.00048854057
0001c0 8d 0d 4a ba 00 00 00 00 3e f2 c8 39 f6 39 5d ba
       -0.00077077077 0.0 0.00038327457 -0.0008439118
0001d0 e9 6e 51 38 08 14 f4 b7 4f 72 88 3a f8 2d 36 bb
       4.9932776e-05 -2.9096394e-05 0.0010410043 -0.0027798396
0001e0 00 00 00 00 fb b7 5c b8 3c 7a 1e bb 9e 1e 5d 38
       0.0 -5.2623433e-05 -0.0024181744 5.271902e-05
0001f0 58 ba 43 ba e1 2f 07 3a 49 cb b4 ba 00 00 00 00
       -0.0007466427 0.0005156976 -0.0013793494 0.0
000200 7c 21 af 37 c9 f1 a5 ba 2d 1e 19 38 c6 14 b6 b9
       2.0877218e-05 -0.0012660559 3.6506146e-05 -0.00034729223
000210 b6 57 20 3a 39 29 be 39 00 00 00 00 66 25 1a 38
       0.00061165856 0.00036270337 0.0 3.675129e-05
000220 14 c0 68 39 44 87 20 37 90 52 7c 39 93 86 8c ba
       0.00022196799 9.568237e-06 0.0002406335 -0.0010721259
000230 78 54 f7 b8 00 00 00 00 d8 2c 32 39 70 cb 31 b9
       -0.00011793611 0.0 0.00016992108 -0.00016955822
000240 b8 1c 48 38 e8 be 65 b5 5a f9 17 3a 04 72 1c ba
       4.7710462e-05 -8.5586953e-07 0.0005797349 -0.00059679174
000250 00 00 00 00 bc 98 0b ba 94 d4 c9 b9 11 3c 85 36
       0.0 -0.00053251884 -0.0003849609 3.9707015e-06
000260 68 79 e0 b9 93 f8 2b 39 40 ed da 38 00 00 00 00
       -0.00042815064 0.00016400432 0.00010439241 0.0
000270 70 07 ef 38 46 63 b3 35 2b cf 6d 37 fe d3 bd 38
       0.000113977934 1.3365432e-06 1.4174536e-05 9.051709e-05
000280 ed 69 94 39 0d a8 a9 b9 00 00 00 00 d6 62 d1 b9
       0.0002830768 -0.000323594 0.0 -0.00039937225
000290 d3 ad 4a b9 2f 95 ef 36 68 f1 9a b9 4c ba 4a b9
       -0.00019328976 7.1401223e-06 -0.0002955303 -0.00019333622
0002a0 b7 7f 43 ba 00 00 00 00 5d b4 10 37 dd 04 27 ba
       -0.00074576907 0.0 8.625063e-06 -0.0006371269
0002b0 ee e6 81 37 5a 2c 51 b9 e2 b0 88 39 43 5b aa 39
       1.5485533e-05 -0.00019948315 0.0002607173 0.00032492922
0002c0 00 00 00 00 55 51 68 39 cb f9 6c 39 5d 24 cf b6
       0.0 0.00022155543 0.00022599769 -6.173314e-06
0002d0 d1 52 51 b8 ac 01 9b 39 c4 8d 19 ba 00 00 00 00
       -4.9906612e-05 0.0002956515 -0.00058576115 0.0
0002e0 ad 2c 44 b9 81 e1 ae b9 38 3c c9 37 e2 5e bf b9
       -0.0001870866 -0.0003335588 2.3989109e-05 -0.00036501052
0002f0 83 50 5b 39 e5 c6 1a bb 00 00 00 00 32 7f 39 ba
       0.0002091546 -0.0023617086 0.0 -0.00070761435
000300 82 10 f6 ba c9 a6 a2 38 49 99 8b ba fe 97 11 3a
       -0.001877323 7.755828e-05 -0.0010650541 0.00055539596
000310 c7 83 e7 3a 00 00 00 00 f7 75 2d 3a 2f 76 bb 3a
       0.0017663174 0.0 0.00066170044 0.0014302189
000320 26 6e 42 b8 bd 4f 2c 3a dc c4 3b b8 13 ff c7 ba
       -4.6355788e-05 0.0006573161 -4.4767614e-05 -0.0015258513
000330 00 00 00 00 05 b0 a0 ba 51 ef 89 ba 9f 49 37 38
       0.0 -0.0012259489 -0.0010523592 4.3699165e-05
000340 02 a5 82 ba c5 6e 3a ba 57 cc db b8 00 00 00 00
       -0.0009967389 -0.0007111843 -0.00010480795 0.0
000350 2c 4e 08 b9 aa e8 3c b8 91 0d a5 37 c8 ce b5 b8
       -0.00012999092 -4.5039378e-05 1.967585e-05 -8.6692686e-05
000360 5f 8a be b8 25 0f 1d ba 00 00 00 00 60 40 17 b9
       -9.0856796e-05 -0.00059913314 0.0 -0.00014424464
000370 43 da e8 b9 aa 5c 2e 38 4a 78 ca b9 c1 77 db 39
       -0.00044413106 4.1571133e-05 -0.00038618065 0.0004186016
000380 55 35 ac ba 00 00 00 00 09 78 98 ba 74 83 7b ba
       -0.0013138453 0.0 -0.0011632453 -0.0009594478
000390 1c 86 29 38 57 10 89 ba ca 73 0e ba ce f1 18 3a
       4.041764e-05 -0.001045714 -0.0005434124 0.00058343716
0003a0 00 00 00 00 b8 d7 22 3a e1 94 d2 39 9b ca bf 36
       0.0 0.0006211954 0.00040165245 5.71583e-06
0003b0 2a 3c f6 39 a9 04 04 3a 1e 97 f4 38 00 00 00 00
       0.00046965602 0.0005036095 0.000116629744 0.0
0003c0 98 ce 03 b9 fe 9e 15 39 8d 03 49 37 f7 69 4d b8
       -0.00012570096 0.00014268977 1.198136e-05 -4.8974496e-05
0003d0 fe 1c b0 b8 48 2d 09 3b 00 00 00 00 0a cb 96 3a
       -8.397734e-05 0.002093153 0.0 0.0011504602
0003e0 33 99 c6 3a d7 fa 90 b8 88 ae 8f 3a be 11 03 3a
       0.0015151858 -6.913178e-05 0.0010962049 0.0004999897
0003f0 b1 c7 b5 ba 00 00 00 00 28 51 c3 ba 66 e2 6f ba
       -0.0013868717 0.0 -0.0014901506 -0.00091508625

exp_avg_sq f4 [128, 7]
000000 15 24 d9 36 00 00 00 00 b0 b4 d9 36 0f ff 2d 36
       6.4713045e-06 0.0 6.4881388e-06 2.5927473e-06
000010 7f 00 25 34 ee b2 89 36 40 2b c2 36 db 99 6f 37
       1.5367003e-07 4.1037483e-06 5.7866855e-06 1.4281332e-05
000020 00 00 00 00 7e b4 75 37 97 39 15 37 aa bf c3 34
       0.0 1.4645162e-05 8.894501e-06 3.6461034e-07
000030 3a ee 40 37 fc 50 0c 37 36 b8 c3 37 00 00 00 00
       1.1499558e-05 8.363506e-06 2.3331591e-05 0.0
000040 ca 3a bb 37 dc 4a 6e 37 33 0a 25 35 f2 e4 97 37
       2.2319513e-05 1.4203335e-05 6.148213e-07 1.8107214e-05
000050 a3 7e 29 37 4d 1b ab 36 00 00 00 00 36 aa 13 37
       1.010267e-05 5.0993754e-06 0.0 8.801513e-06
000060 7a 68 39 36 6c d3 05 34 15 7c d6 36 82 34 4e 36
       2.7627962e-06 1.2463505e-07 6.392142e-06 3.0726956e-06
000070 6b 04 5a 35 00 00 00 00 51 e7 6e 35 e9 6e 27 34
       8.121776e-07 0.0 8.899852e-07 1.5593436e-07
000080 18 c5 38 33 e6 a9 5f 35 43 cb 17 35 41 93 c2 37
       4.3020094e-08 8.332121e-07 5.654767e-07 2.3195173e-05
000090 00 00 00 00 68 47 c5 37 b2 09 89 37 1a 0a 49 35
       0.0 2.3517481e-05 1.6336187e-05 7.4893035e-07
0000a0 fc 13 43 37 1d 0d 73 37 bc 8d 4e 37 00 00 00 00
       1.1627559e-05 1.4486982e-05 1.2311557e-05 0.0
0000b0 0b 97 3d 37 b9 32 20 37 c4 18 8d 33 8b 78 a3 37
       1.1300445e-05 9.548553e-06 6.570329e-08 1.9487246e-05
0000c0 ce b9 6d 37 91 23 1f 36 00 00 00 00 a8 f5 ab 36
       1.4169562e-05 2.3713549e-06 0.0 5.1247953e-06
0000d0 1b 47 4c 36 f5 ab 41 34 6c 7c fe 36 c8 49 3c 36
       3.0439758e-06 1.8037083e-07 7.5842745e-06 2.805713e-06
0000e0 06 cd 26 39 00 00 00 00 58 87 19 39 b6 15 86 38
       0.00015907371 0.0 0.00014641637 6.393662e-05
0000f0 6f 83 73 36 eb 8b 25 39 6d 5f 14 39 69 cc 92 36
       3.6286326e-06 0.0001578775 0.00014149929 4.3749355e-06
000100 00 00 00 00 43 01 60 36 07 3f 5a 36 c7 c9 73 32
       0.0 3.3379335e-06 3.2521218e-06 1.41903405e-08
000110 0a e4 47 36 fe 71 e3 35 99 21 b8 37 00 00 00 00
       2.9786047e-06 1.6945994e-06 2.1950154e-05 0.0
000120 fb 97 c9 37 5c e3 b0 36 44 81 3c 34 e4 1a b0 37
       2.4031839e-05 5.271677e-06 1.7555891e-07 2.0993357e-05
000130 17 94 33 37 3a bc 87 35 00 00 00 00 ef cc 6f 35
       1.0703711e-05 1.0113065e-06 0.0 8.9332656e-07
000140 db c4 30 35 11 dc a2 32 fa 60 96 35 7a 4a 2c 35
       6.585157e-07 1.8959357e-08 1.1204095e-06 6.418337e-07
000150 d9 92 a9 36 00 00 00 00 88 21 19 37 d0 72 4a 36
       5.053688e-06 0.0 9.127318e-06 3.0167175e-06
000160 bd 1b b9 34 ff 75 9d 36 fd 08 66 36 f1 dd de 35
       3.4479118e-07 4.692701e-06 3.4277903e-06 1.6604882e-06
000170 00 00 00 00 18 04 9b 35 ba 8a 8a 35 c3 a9 64 32
       0.0 1.1549591e-06 1.0322176e-06 1.3309946e-08
000180 36 04 7f 35 16 f1 25 35 18 7b 10 36 00 00 00 00
       9.500103e-07 6.1818116e-07 2.1529322e-06 0.0
000190 11 43 32 36 2d 85 ba 35 24 92 0a 34 23 f4 22 36
       2.6563105e-06 1.3896839e-06 1.2905417e-07 2.4281987e-06
0001a0 32 0f 9a 35 d1 82 13 37 00 00 00 00 ab dc 18 37
       1.1478317e-06 8.792341e-06 0.0 9.111284e-06
0001b0 93 c7 ee 36 f4 c8 3d 34 10 fb 9d 36 1c 17 ba 36
       7.116186e-06 1.7675103e-07 4.708192e-06 5.5459222e-06
0001c0 7f 9e af 37 00 00 00 00 e5 da 7c 37 f1 b9 9b 36
       2.0935431e-05 0.0 1.5071336e-05 4.6410064e-06
0001d0 e8 f1 06 34 a9 be 63 37 6a b0 3f 37 dc 98 a0 37
       1.2567727e-07 1.3574646e-05 1.1425562e-05 1.9144667e-05
0001e0 00 00 00 00 21 ba 94 37 93 45 45 37 8e 97 f9 34
       0.0 1.7729648e-05 1.1758314e-05 4.6490135e-07
0001f0 64 aa 59 37 ec 0f 0e 37 13 8f c7 36 00 00 00 00
       1.297388e-05 8.467567e-06 5.947318e-06 0.0
000200 6f c6 c2 36 d9 91 5b 36 4f cb c0 33 ec 19 b7 36
       5.8047513e-06 3.2718438e-06 8.977678e-08 5.4568427e-06
000210 17 a0 51 36 7e 53 10 38 00 00 00 00 4e 5f 39 38
       3.1236611e-06 3.4410034e-05 0.0 4.4196197e-05
000220 ae b1 0f 37 7f 5f ce 35 ab b4 0a 38 82 3e 9c 37
       8.5648335e-06 1.5375989e-06 3.3070024e-05 1.8625757e-05
000230 69 e3 1b 37 00 00 00 00 db 90 18 37 65 42 28 36
       9.291668e-06 0.0 9.093633e-06 2.5072598e-06
000240 69 55 10 35 a6 63 a5 36 34 1f b0 36 7a 57 41 37
       5.376847e-07 4.928984e-06 5.2488413e-06 1.1524064e-05
000250 00 00 00 00 cc 40 8a 37 96 f1 44 36 e7 3e ec 34
       0.0 1.6481055e-05 2.9346897e-06 4.4004193e-07
000260 9c 3d 83 37 33 bd f0 36 ad 44 02 36 00 00 00 00
       1.5645106e-05 7.174583e-06 1.9411484e-06 0.0
000270 09 be 1e 36 a8 54 61 35 20 f1 83 33 10 d5 07 36
       2.365445e-06 8.394222e-07 6.144023e-08 2.0240586e-06
000280 a4 6e 97 35 66 18 80 36 00 00 00 00 fb 7a 86 36
       1.1282577e-06 3.8175376e-06 0.0 4.007828e-06
000290 51 24 41 35 1a ca 96 33 5a 22 6f 36 95 af 54 36
       7.195095e-07 7.0216814e-08 3.563377e-06 3.1692664e-06
0002a0 52 47 02 36 00 00 00 00 e4 ab f6 35 9d 36 b4 35
       1.9413023e-06 0.0 1.8378455e-06 1.342694e-06
0002b0 c2 84 8f 33 86 ae 22 36 05 18 73 35 71 b1 3f 36
       6.683105e-08 2.4241467e-06 9.055951e-07 2.8564502e-06
0002c0 00 00 00 00 cb 2c a5 36 d7 71 1b 36 51 c3 17 34
       0.0 4.922598e-06 2.3163063e-06 1.4134027e-07
0002d0 4c 71 c9 36 c0 f4 fa 35 78 7f 03 36 00 00 00 00
       6.0034563e-06 1.8697683e-06 1.9594718e-06 0.0
0002e0 a1 7e 40 36 85 fe ca 35 99 19 67 33 f4 76 69 36
       2.8683937e-06 1.5124248e-06 5.380716e-08 3.4788945e-06
0002f0 0a 01 c3 35 cb ca 77 37 00 00 00 00 3e d8 92 37
       1.4528935e-06 1.4769564e-05 0.0 1.7505252e-05
000300 96 2f 04 37 c7 4e 91 35 d7 c8 59 37 b4 c5 ff 36
       7.878893e-06 1.0826269e-06 1.298097e-05 7.622608e-06
000310 6a 9b 23 37 00 00 00 00 00 ad 5b 37 43 d1 9b 36
       9.751742e-06 0.0 1.3093697e-05 4.6437212e-06
000320 b4 ef d9 34 62 eb 2b 37 fd 32 e0 36 cc 96 97 36
       4.0593807e-07 1.0247199e-05 6.681656e-06 4.5177057e-06
000330 00 00 00 00 e2 8f 0e 37 44 de 0c 36 75 13 00 34
       0.0 8.49736e-06 2.0991001e-06 1.1928007e-07
000340 48 b9 b1 36 f6 67 95 36 34 8a 68 36 00 00 00 00
       5.2965806e-06 4.4526487e-06 3.4651139e-06 0.0
000350 fc f7 16 36 73 d4 0c 35 77 79 81 33 03 1b bd 35
       2.2496088e-06 5.246322e-07 6.029125e-08 1.4089459e-06
000360 07 10 db 35 37 6b 41 36 00 00 00 00 ee a9 90 36
       1.6321436e-06 2.8821648e-06 0.0 4.311317e-06
000370 89 18 43 36 07 17 c0 34 6b 29 ca 36 b5 c5 e9 35
       2.9071546e-06 3.5779541e-07 6.024891e-06 1.7417393e-06
000380 14 a2 d2 36 00 00 00 00 0d f1 18 37 e9 a4 93 36
       6.277356e-06 0.0 9.11603e-06 4.4001395e-06
000390 48 75 01 33 1e 16 1c 37 a5 ab 0d 37 8d 11 9d 36
       3.014182e-08 9.303474e-06 8.444219e-06 4.681008e-06
0003a0 00 00 00 00 1c ae f3 36 c4 bf ea 35 57 dc 0a 35
       0.0 7.2622333e-06 1.749017e-06 5.172964e-07
0003b0 37 4d d3 36 d0 db d6 36 0b d5 2e 35 00 00 00 00
       6.297279e-06 6.4032865e-06 6.513007e-07 0.0
0003c0 f6 59 4c 35 52 88 29 34 97 eb 38 33 f5 4f fe 34
       7.612683e-07 1.5788945e-07 4.3055106e-08 4.7369363e-07
0003d0 3e d3 0d 35 94 7c 35 37 00 00 00 00 28 be 54 37
       5.283399e-07 1.0817446e-05 0.0 1.2680459e-05
0003e0 eb 85 dd 36 03 07 df 34 62 c0 45 37 8e 6d f3 36
       6.6019034e-06 4.1542089e-07 1.1786908e-05 7.254718e-06
0003f0 91 98 17 37 00 00 00 00 f6 73 7f 37 54 8f 9e 36
       9.0358235e-06 0.0 1.5226184e-05 4.7254525e-06
