results/SimpleSam/SimpleSam/SimpleSam-41481.onnx (onnx, 87005 bytes, 10 tensors)

network_body.observation_encoder.processors.0.normalizer.running_mean f4 [21]
000000 46 61 12 3a 6c 8f 7a ac 38 00 c8 39 78 11 c2 3e
       0.0005583953 -3.5606752e-12 0.00038147136 0.37903953
000010 00 00 00 00 f2 ff c5 bd 03 07 87 c0 84 d3 80 bf
       0.0 -0.09667958 -4.219606 -1.006455
000020 56 e9 02 40 89 76 97 be fb 5e 43 3e ee fd fc 40
       2.0454917 -0.29582623 0.19079201 7.9059973
000030 57 a7 44 41 65 9f a0 3d c9 1b b2 38 b7 5b 99 3e
       12.290854 0.07842902 8.492877e-05 0.29952785
000040 c2 aa 0b 41 76 9f a0 bd c7 1b b2 b8 af 5b 99 be
       8.729189 -0.07842915 -8.492875e-05 -0.29952762
000050 49 98 06 41
       8.412179

network_body._body_endoder.seq_layers.0.weight f4 [128, 21]
000000 bc 11 04 be 40 64 8a be d2 69 d9 ba e8 82 97 3e
       -0.1289739 -0.2702961 -0.0016587323 0.2959206
000010 53 82 9c be 43 fc a9 be 28 33 52 3e 95 53 c8 3d
       -0.3056818 -0.33200273 0.20527327 0.09781567
000020 83 d5 16 be 2f da b3 3e 49 9e 64 bd 10 16 ae be
       -0.14729886 0.35127398 -0.055815015 -0.34001207
000030 a8 3a 37 bc 3f 7a 24 be e2 ed 95 3d d8 d5 cd be
       -0.011183418 -0.16062258 0.07320763 -0.40202212
000040 01 53 ef 3d d7 39 61 be 07 2d 08 3d 2b d0 ef bd
       0.116857536 -0.2199472 0.033246066 -0.11709627
000050 0f 9d 3f bd c0 04 67 3e 3e 25 7c 3d 7b 62 c2 3d
       -0.046780642 0.22560406 0.061558954 0.0949144
000060 aa ec 85 3c 23 d9 fe bd ca 46 03 bd 50 ee bd be
       0.016348202 -0.12443759 -0.03204993 -0.3709588
000070 75 1f a6 bd e3 a4 83 bd 4b 97 ef 3e b8 92 24 3f
       -0.08111469 -0.06427934 0.46795115 0.64286375
000080 85 7b bb 3e 1c e5 ce be ab 43 86 3c 6f 3d 14 3e
       0.36617675 -0.40409172 0.016389688 0.1447656
000090 54 c2 92 3c 9a fa 81 3e 8e ab 93 be 9b d3 39 be
       0.017914928 0.25386506 -0.28841823 -0.18147127
0000a0 b3 b4 58 3d d8 39 3c 3c b9 e8 59 be 05 8f 4c bd
       0.052906703 0.0114884 -0.21280183 -0.04994108
0000b0 74 d5 4b 3e c9 b9 5e bd 26 de c8 bd be 14 43 be
       0.19905645 -0.054376397 -0.098079965 -0.19050881
0000c0 c4 ee 5a be 3a c7 db 3d 21 2c 15 be b7 3b bb 3e
       -0.21380144 0.10731359 -0.14567615 0.36568996
0000d0 0d 2d 07 bf 76 60 91 3b da b2 15 3e 6b 52 1e be
       -0.5280312 0.004436548 0.14619008 -0.15461127
0000e0 c0 d6 17 3f 2a 31 a1 3e 46 cd 2e be 7c eb c6 bd
       0.5931206 0.31482822 -0.17070493 -0.09712884
0000f0 47 7b 9f 3e bd e6 cb bc ce 0c 06 be 00 ed b8 be
       0.3114874 -0.024890298 -0.13090822 -0.36118317
000100 61 ce 9e bd cc 93 a5 3e d9 c8 6a be a1 61 45 bd
       -0.077542074 0.32339323 -0.2292818 -0.04818881
000110 78 33 59 3e 54 18 84 bd 8c fb b1 3d 10 cb fd be
       0.2121104 -0.06449953 0.08690557 -0.49568987
000120 a6 cf b7 3e 82 d3 57 3d fc f6 1a 3e b1 2b 05 be
       0.3590061 0.052691944 0.1513328 -0.13004948
000130 9f 47 7c be 97 b5 ae 3d 1c 71 59 3e 90 e0 be be
       -0.24636696 0.08530729 0.21234554 -0.37280703
000140 fa 1e e4 3e a2 5c 0b be 24 62 b9 bc 16 80 63 ba
       0.44554883 -0.13609555 -0.022629805 -0.0008678449
000150 1f 09 b0 3e ca fe 2e bd b6 2b 05 be df 09 00 bd
       0.3438196 -0.042723455 -0.13004956 -0.031259414
000160 15 59 32 3e 3c 11 b5 3d 70 05 45 3e 56 9c ac 3b
       0.17416795 0.08841178 0.19240355 0.00526766
000170 08 fa f9 be f0 2e 23 be 7a 3c aa bd 51 1f 81 bd
       -0.4882357 -0.15935874 -0.08312316 -0.06304801
000180 a4 a5 94 bd f5 45 84 3e 8f c1 5d 3e 4b d6 d2 bc
       -0.07258156 0.25834623 0.21655868 -0.025736948
000190 09 11 27 3d a2 82 9c be 0f 16 35 3e 41 67 41 bd
       0.04078773 -0.30568415 0.17684196 -0.04721761
0001a0 c7 6e 81 3d fc 83 80 be 23 57 af 3e d6 ce e8 bd
       0.06319957 -0.25100696 0.34246168 -0.11367576
0001b0 fa 3c 06 3e 81 74 30 3e 84 dc 0c 3e 35 81 4d be
       0.13109198 0.17231943 0.13755995 -0.2006882
0001c0 1f 2d 15 3e 23 b5 49 3e d4 65 d3 3d 02 0d 81 3e
       0.14567994 0.19698004 0.103221565 0.25205237
0001d0 2a f0 80 be f8 75 6b be 03 ae 93 bd 96 5e 02 be
       -0.2518323 -0.2299422 -0.072109245 -0.12731394
0001e0 7d f6 4c 3e 8e a4 30 bd 4d a7 7b 3e 55 7d 92 be
       0.20015903 -0.04312568 0.24575539 -0.28611246
0001f0 8d 57 a7 be d7 f1 b1 3d 7a 89 48 bd 1e 26 50 bd
       -0.32683983 0.086887054 -0.048959233 -0.0508176
000200 25 0e 5d 3e 4b b3 96 bc 2d 04 8e bd 70 53 6c 3e
       0.21587427 -0.01839604 -0.0693439 0.23078704
000210 9f 5a 43 3e a1 b0 0b be 93 8c 56 be f5 4b 94 bb
       0.19077538 -0.13641597 -0.20952062 -0.0045256563
000220 25 96 ce bd dd 2c 3c 3b ca 62 d9 bc ab 04 50 3e
       -0.100872315 0.0028713264 -0.026536364 0.2031428
000230 ee 0f 18 3e eb 15 b5 3c a4 a0 4c be be a9 ae be
       0.14849827 0.022105178 -0.19983155 -0.34113878
000240 f2 9a 9d 3d e4 48 1b bd 8b 7b 06 3d 78 c3 49 3e
       0.07695569 -0.03791131 0.032832664 0.19703472
000250 40 3c 4c be 83 1d 05 3d 2c c7 3a be cd 6f 20 be
       -0.19944859 0.032498848 -0.1824004 -0.15667649
000260 62 7f 10 bd 52 89 4f be e0 8e c4 3e f7 30 dc 3d
       -0.03527773 -0.20267227 0.38390255 0.10751527
000270 bb 09 84 3e 85 f8 ca 3e 0d 51 2b bc 21 72 08 3e
       0.25788674 0.3964273 -0.010456336 0.13324787
000280 d3 1c 04 bd ee c5 36 be 6f 94 06 be 84 be 2d be
       -0.03225405 -0.17848942 -0.1314256 -0.16967207
000290 ba fc 33 3e 73 fe 39 3d 7d 3f 0e be 43 b3 a1 3e
       0.17576876 0.045408677 -0.13891406 0.31582078
0002a0 cc 36 6d 3e f3 98 e7 bc 19 92 10 3e 2f fd 0f be
       0.23165435 -0.028271174 0.14118232 -0.14061426
0002b0 0a 9c 97 be 1d 62 71 3d 03 f2 62 3e d5 1d d0 be
       -0.29611236 0.05893146 0.22162633 -0.4064776
0002c0 0d 69 0b 3e 45 2d 02 bf bc 03 8a be db b4 64 bd
       0.13614292 -0.50850326 -0.26955974 -0.05583654
0002d0 8f 2e 98 3e 3b a5 9f 3d 12 30 fa 3d 74 80 dc 3d
       0.2972302 0.07795187 0.122162 0.10766688
0002e0 60 6b b2 3d f2 93 99 3e ad 1f 30 3e 2b a6 1e 3e
       0.087118864 0.29995686 0.17199583 0.15493076
0002f0 ec cf 61 be c5 6a 4d be 89 8d cc 3e 40 6b fb 3e
       -0.22051972 -0.2006026 0.39951733 0.49105263
000300 7a 40 88 3c 0e 2e b1 be 13 59 62 be 48 f0 1d 3e
       0.016632307 -0.3460545 -0.22104292 0.15423691
000310 1f 75 9f be ab 64 e0 be 01 27 0e 3e da c4 c6 3e
       -0.31144044 -0.43826804 0.13882066 0.3882206
000320 c9 c3 cf 3e 1f 26 ab bd 7e 42 c9 bd ee 22 23 bc
       0.4057906 -0.083568804 -0.098271355 -0.009957058
000330 bf cb 24 be 59 74 a1 be 03 2f 16 be d7 22 0b be
       -0.16093348 -0.3153408 -0.14666371 -0.13587509
000340 c4 25 fe 3e b2 dc 82 3c d6 34 b4 3e d7 c3 c6 bc
       0.49638188 0.015974376 0.3519656 -0.024263306
000350 5d 97 00 3e 7c 71 6d 3e c6 c6 b1 bd 5d ff e2 bd
       0.1255774 0.23187822 -0.08680491 -0.11083863
000360 76 2b 09 3e c4 7e f4 3d 9a 9b 93 3e 54 92 cc 3e
       0.13395485 0.11938241 0.28829652 0.3995539
000370 9d e0 8a 3e c9 9a 5b be 37 d8 dc 3d ac ae 40 3d
       0.2712449 -0.21445765 0.10783427 0.04704158
000380 e6 c7 8b 3d 1a 6d 5c bd b0 2b 8e bc 24 c6 bd 3e
       0.06825237 -0.053814985 -0.017354816 0.37065232
000390 bb c1 a6 3b 17 e4 7d 3e 33 ec 4e 3d 84 f6 68 be
       0.0050890124 0.2479404 0.050518226 -0.22750288
0003a0 b1 bd a9 bc 64 dd c0 be ca b7 14 3e b6 59 0b be
       -0.020720335 -0.37668908 0.14523235 -0.13608441
0003b0 25 49 ab be 11 16 e0 be e3 f5 37 3e a7 b8 bd 3d
       -0.33454242 -0.43766835 0.17964892 0.09263735
0003c0 d0 17 c9 3d bc 32 97 3e bd da 82 bd 1a ec d5 bd
       0.09818995 0.29530895 -0.06389377 -0.104454234
0003d0 73 73 27 3d c3 32 44 be 3e 33 34 be 54 19 a5 be
       0.040881585 -0.19159989 -0.17597672 -0.32245886
0003e0 6d b7 aa bd 7a 3e 30 be 6b 5c 14 3e 93 63 82 bd
       -0.08335767 -0.17211333 0.1448838 -0.063666485
0003f0 e0 41 f3 bd a9 37 32 3d 95 a2 06 3d 55 7f 71 be
       -0.11877799 0.043510113 0.032869894 -0.2358373

network_body._body_endoder.seq_layers.0.bias f4 [128]
000000 bc 01 a8 3c de f6 9e 38 9c a4 4a 3b 69 b2 00 3d
       0.02050864 7.58001e-05 0.0030920869 0.031420145
000010 11 c0 b5 38 27 76 c2 3c f2 6a 9e 3b 54 0c 4f bd
       8.666528e-05 0.02373798 0.004834526 -0.050548866
000020 ad 26 ac bb 92 b0 c7 3a 6b 9e 87 3c 07 29 4b 3c
       -0.005253634 0.0015235117 0.016555032 0.012399918
000030 22 95 58 bc e1 62 4c 3b d0 18 89 bc ea 53 41 3c
       -0.01321915 0.0031186866 -0.016735464 0.011799792
000040 ec 0b ee 3c 35 c3 19 3c 6a a6 0b bd 9b e4 20 bb
       0.02905842 0.00938492 -0.03409425 -0.0024550322
000050 75 90 21 bc 76 3a ee 3c 13 e1 01 bd bb 55 92 3c
       -0.009861101 0.02908061 -0.031708788 0.017863145
000060 f5 e6 4c bb 0e e4 38 3b 2b 4d b7 3c c4 17 e8 3c
       -0.003126559 0.0028212103 0.022375664 0.028331645
000070 9b 34 35 bb bd 58 c5 bc b3 c9 29 3b 03 d0 74 3c
       -0.0027649764 -0.024090165 0.0025907576 0.014942172
000080 c4 aa 5e 3b d8 bd 55 bc 7a 4c 28 bc 2e 33 e3 bc
       0.0033976296 -0.013045751 -0.01027214 -0.027734365
000090 6e b1 99 3b 7b 88 4e bc 59 26 a6 3b 01 78 62 3c
       0.0046903407 -0.012605782 0.0050704894 0.0138225565
0000a0 85 80 23 bb 04 75 04 bc 37 dc d6 bc 77 8f 42 b9
       -0.002494843 -0.008084539 -0.026228053 -0.00018554727
0000b0 a5 b2 f8 3c ba d3 c3 bb 47 30 d8 3b 61 10 99 bc
       0.030358622 -0.0059761675 0.006597552 -0.018684568
0000c0 a2 32 f9 bc 9b d6 1a 3c fb ef 8c 3b 44 e6 2b bc
       -0.030419651 0.00945058 0.004301069 -0.010491911
0000d0 23 ac 4d bc 91 39 7f bc 64 c4 98 3c c9 09 ef bb
       -0.012553248 -0.01557769 0.018648334 -0.0072948677
0000e0 9b 42 21 3b 60 1c c2 bc 53 9e ad bb 31 5a bc 3c
       0.002460635 -0.02369517 -0.0052984147 0.022992225
0000f0 5c 96 0f bb fb 0b 0c bc 49 9d 47 3c 2e 1a b2 3c
       -0.002190969 -0.008547778 0.012183496 0.021741
000100 68 cc 8d bb ea 3f ca bb 81 ed 1a 3b 42 5b 0a 3c
       -0.0043273456 -0.00617217 0.0023640099 0.008444609
000110 7b 61 48 3b 7d b0 ac 3c a5 d2 a8 3c 2c ab b6 bc
       0.003057568 0.02108025 0.020608256 -0.022298418
000120 cd 00 58 3c f2 45 a3 bc f2 a0 31 bc e4 5b 0a bd
       0.013183785 -0.019930813 -0.010841595 -0.03377904
000130 7c 16 a4 bc ac ca 1d bc 60 bb bc bc 71 10 3e 3b
       -0.020030253 -0.00963084 -0.023038566 0.00290015
000140 8c 0c f3 3c 81 87 bb bb db a3 10 bd a2 d7 52 3d
       0.029669069 -0.0057229404 -0.035312515 0.051475175
000150 49 80 42 3b 3f 5a 8d 3d b2 14 e0 3b de 8d 83 3c
       0.0029678515 0.06901979 0.0068384046 0.016058858
000160 6d 61 8d bc e9 f9 08 3b a9 96 f4 bc ac 4c 57 bc
       -0.01725837 0.0020900911 -0.029856997 -0.013140839
000170 99 1d c8 bb 20 16 b5 bb ed 89 cb 3a eb 5f 07 3d
       -0.006107044 -0.005526319 0.0015528776 0.03305046
000180 63 3f e9 3c 30 f5 e1 3b e8 b5 90 ba a0 9e 65 bc
       0.028472608 0.0068956837 -0.001104054 -0.01401487
000190 17 23 0e 3c fa d0 83 bc fc 2a 24 bc 0a 37 7e bc
       0.008675358 -0.016090859 -0.010020014 -0.015516052
0001a0 4e d7 72 bd 95 00 07 bb 02 fa 4e bd ac c5 3c 3c
       -0.05928736 -0.0020599712 -0.050531395 0.011521738
0001b0 cf 5f 77 3b e2 00 0e bc a0 54 6d bb 93 b9 bf 3c
       0.0037746315 -0.008667203 -0.003621377 0.023403918
0001c0 22 cd ef 3b 3e 3a 57 bc 55 15 5b 3a 6c 01 6e 3b
       0.007318155 -0.013136445 0.0008357366 0.0036316765
0001d0 e0 d3 ff b9 f6 5e ac bb ca d0 58 3d 2a 75 9d bc
       -0.0004879525 -0.0052603437 0.05293349 -0.019220907
0001e0 b0 85 64 3c c8 6c b3 bc 87 43 3f bd 3f d5 5a 3b
       0.013947889 -0.021902457 -0.04669526 0.0033391265
0001f0 b3 60 09 bd 56 0f d2 3b 7b 75 a4 bc da f4 fa bc
       -0.033539485 0.0064105196 -0.02007555 -0.030634332

network_body._body_endoder.seq_layers.2.weight f4 [128, 128]
000000 87 93 8e bd bd ce 4a bd 9d 1d c1 3d e4 c8 78 3d
       -0.06961732 -0.049513567 0.094294764 0.06073846
000010 56 cf 20 bc 6c 70 f0 3c 36 1e ae 3d 64 3c 96 bc
       -0.009815058 0.029350482 0.08501856 -0.018339343
000020 ff 60 be 3d d4 cf 5d be 2f 97 9c bd b6 26 8f 3c
       0.09295844 -0.21661311 -0.076460235 0.017474514
000030 72 7d 05 bd 31 af 33 3e 94 74 23 3c 66 2b b8 3d
       -0.032590337 0.17547299 0.009976525 0.089926526
000040 8b 91 59 be bf e9 af 3d 5c d5 cd bd 91 c5 a8 3c
       -0.21246926 0.085895054 -0.10050461 0.02060202
000050 27 a0 94 3b be 39 39 3e c6 aa c9 3d 86 72 cb 3c
       0.004535693 0.18088433 0.098470256 0.024834882
000060 6e b3 f8 3d 4f 57 58 3c 5e c5 26 be f9 0d 55 bd
       0.121435985 0.01320441 -0.16286227 -0.05201528
000070 32 c3 8c bd 0f d8 e8 bd 20 2f cc bd 46 0c 55 bd
       -0.06873168 -0.11369335 -0.09969926 -0.052013658
000080 77 b5 3b 3c 64 02 5f 3b a4 d2 41 bd a1 d7 84 3d
       0.011456839 0.0034028525 -0.047320023 0.064864404
000090 62 13 30 bd 36 26 18 3e e4 c8 c6 3c 18 0b d7 3d
       -0.042987235 0.14858326 0.024265714 0.10500163
0000a0 b4 49 9b bb ef 3d ff bb 2b 48 db 3d 5f c5 bc 3d
       -0.0047390107 -0.0077893655 0.10707124 0.09217333
0000b0 59 39 23 be 7e 97 0f bd 03 79 5e bd d7 e9 1f bd
       -0.15939845 -0.035056584 -0.054314625 -0.039041366
0000c0 00 d1 c6 bc f6 8c 04 3b 2c 43 b9 3d 4f dc b5 3d
       -0.02426958 0.002022562 0.09046015 0.08879911
0000d0 ec 08 b1 3c 15 38 b5 3b d3 eb 4c 3b ea aa 95 3c
       0.0216107 0.005530367 0.0031268492 0.018269975
0000e0 23 2e 9c bd ee 24 14 3e 89 65 b4 3d 69 b1 83 be
       -0.076259874 0.14467213 0.08808429 -0.2572129
0000f0 2e 5b d0 bd d9 59 2b 3e f2 be e1 bd b6 25 f3 3d
       -0.10173641 0.16733493 -0.11022748 0.11872427
000100 83 09 8b bd a6 56 60 bb 6e d1 c8 bd 84 4c a2 bd
       -0.067889236 -0.0034231334 -0.098055705 -0.079247504
000110 66 7a ee 3b bb 7d 11 bd 18 98 16 3e 32 32 95 bd
       0.0072777746 -0.035520297 0.14706457 -0.072849646
000120 b5 0a 53 bc 0c f8 84 3c ea e5 29 be 98 33 3e 3d
       -0.012880971 0.01623156 -0.16591612 0.046435922
000130 9c 58 88 bd 0b 3a 84 bd a1 04 94 3d 42 40 f3 bd
       -0.06657526 -0.06456383 0.072274454 -0.118774906
000140 33 d5 19 bd 85 7a cd bd f0 6c e7 3d d3 14 83 bd
       -0.03755684 -0.10033134 0.11300075 -0.06400456
000150 a4 80 4a bd fc fa 1d be f0 d7 36 3c 3b cc 3d 3d
       -0.049439088 -0.15427774 0.011159882 0.046337347
000160 9b 67 2e bd e7 ed 9e bd 41 9a a3 bd 98 f0 d5 3c
       -0.042579275 -0.0776022 -0.07988406 0.0261157
000170 89 21 0b 3c 0a 5b 97 bd 97 ae 8b 3b 4d 5f 95 3d
       0.008491882 -0.07390411 0.004262756 0.07293568
000180 89 24 e6 bd 86 1a fb bd 33 6a 8a bd 43 ae 20 be
       -0.11237437 -0.12260918 -0.06758537 -0.15691476
000190 72 98 03 3e b9 21 ac 3c 9a 7f e9 3a 19 5b 23 3d
       0.12851122 0.021012174 0.0017814517 0.0398818
0001a0 ec 79 d9 3d f4 c0 a3 ba ba 47 49 bc db 44 96 bd
       0.10618958 -0.0012493418 -0.012285167 -0.07337352
0001b0 e1 76 88 3d f7 c0 a2 bd b9 c4 ef bd bd 22 df 3d
       0.06663299 -0.079469614 -0.11707444 0.10895298
0001c0 37 c9 de 3d 92 d3 4b bd da 4e f1 bd 7c 2d 71 bd
       0.108782224 -0.049762316 -0.11782618 -0.058881268
0001d0 c4 bc 66 bd a0 ff 18 be 9c 0a 9c bd 0a 43 93 3d
       -0.056332365 -0.14941263 -0.07619211 0.07190521
0001e0 f6 0b cc b9 fe 90 e4 3d 4e e4 4b bd 55 33 30 bd
       -0.00038918824 0.111604676 -0.049778275 -0.043017704
0001f0 f6 58 60 3d aa 31 bf bd b6 6a 93 3b dd f1 db 3d
       0.05477234 -0.093356445 0.004498805 0.10739491
000200 5b 73 31 be f3 d4 cc 3d 49 16 8b 3d 2c 9c 06 3e
       -0.17329161 0.10001554 0.0679136 0.13145512
000210 2b 90 e6 3d 7a f4 66 bd d1 2d e8 3d 85 66 1c 3e
       0.112579666 -0.056385495 0.11336864 0.15273483
000220 4a a1 54 bc 66 06 28 be d7 26 cf bc 65 b4 9f bc
       -0.012977907 -0.16408691 -0.025287075 -0.019495199
000230 6f e1 07 bc be 44 b1 bd 70 31 bd 3c 4d 8d 81 bd
       -0.008293494 -0.0865569 0.023094863 -0.06325779
000240 99 a9 95 bd 98 ac e0 bd cc b4 bc 3d 32 14 d7 3d
       -0.07307739 -0.1097042 0.09214172 0.10501899
000250 03 de 62 bc 5d f9 1f be d7 9c 68 3e 23 25 35 be
       -0.013846877 -0.15622468 0.2271608 -0.17689948
000260 b7 ed f6 bd 73 2e d5 3d 48 aa 8b bd 7d 0e 08 be
       -0.12057059 0.1040925 -0.06819588 -0.13286777
000270 8f b4 08 3e de 9b 95 bd dd 69 80 bb af 7f 1a 3e
       0.13350128 -0.0730512 -0.00391887 0.1508777
000280 d8 55 01 be 19 db 14 3e e5 00 e0 3c d9 20 85 be
       -0.12630403 0.14536704 0.027344177 -0.26001623
000290 8d 46 a2 3c 02 ac ab bd 0b 4c 03 3e 75 7f 91 3b
       0.019809032 -0.08382417 0.12821977 0.004440243
0002a0 38 0a 2a bd 96 94 cb 3d ea e0 da bd 3e 7e a7 3d
       -0.04151365 0.0994045 -0.1068743 0.08178376
0002b0 6a 95 94 3c 8d 97 f0 bd 3a 27 e6 3d 36 ab ac 3d
       0.018137652 -0.11747656 0.112379506 0.084310934
0002c0 75 dd 0f 3d bd 77 da 3d 80 2d 35 bd 2f 62 2b 3e
       0.035123307 0.106673695 -0.044232845 0.16736673
0002d0 c8 0a e2 3d ae 4b a9 bd 5c b3 fd bc 69 a3 93 3d
       0.110372126 -0.08266388 -0.030969314 0.072089024
0002e0 24 5d af 3d ef c2 09 be d1 f1 c0 3a 37 58 77 3c
       0.08562687 -0.13453268 0.0014720504 0.015096716
0002f0 15 79 ac 3d c3 d8 18 be 3c 15 6f 3c 8c 55 b6 bc
       0.08421532 -0.14926438 0.014592465 -0.022257589
000300 2d 8f fd 3d 5f 2e 4b 3d c3 e4 0a 3e d6 ec 34 be
       0.12380824 0.04960477 0.13563828 -0.1766847
000310 79 f5 72 bd 2d 0c 49 3e ac 6d 97 3b 17 c1 81 3d
       -0.059316132 0.19633551 0.004621228 0.06335657
000320 92 e9 45 bd f6 90 0d 3d a8 db ae bc 86 2e da bd
       -0.048318453 0.034562074 -0.021344975 -0.10653405
000330 1f 66 08 bd 6d fa 13 be e5 47 3a bd 34 b3 54 3d
       -0.033300515 -0.14450999 -0.04547872 0.051928714
000340 61 84 2c 3e cf 8b 9c bd ee 95 a6 bd 8c a7 4c bb
       0.16847374 -0.07643854 -0.081340656 -0.0031227795
000350 49 98 b1 3d b0 24 7a bc ce 0b 0b be 58 6e b6 3d
       0.08671624 -0.015267536 -0.13578722 0.08907765
000360 dc 3b 1a 3c ad 31 02 3d ac a4 6a bd fe 4c 94 3d
       0.009413686 0.031785656 -0.05728595 0.072412476
000370 20 f4 2c 3d 55 c6 22 bd a4 2f 4c 3d 06 52 6a 3d
       0.042225003 -0.039739925 0.04985012 0.05720713
000380 46 3c 04 be 96 80 81 be f8 22 38 bb 20 a0 f4 bd
       -0.12913617 -0.25293416 -0.0028097015 -0.11944604
000390 ea d0 46 be 26 ce 01 3d 64 37 c8 bd 09 02 86 3d
       -0.19415632 0.03169074 -0.0977619 0.06543357
0003a0 35 84 ac bd 02 5a b4 bd d1 e1 85 3d b5 3b 07 3c
       -0.08423654 -0.0880623 0.06537212 0.008253981
0003b0 33 e9 1e be b8 c2 c6 bd f8 45 99 bd 0a 44 5d 3d
       -0.15518646 -0.097051084 -0.074840486 0.054019965
0003c0 fe c1 d0 3c e3 43 c1 bb 12 88 3f 3c 2a 4c 02 be
       0.025483128 -0.0058979853 0.0116901565 -0.12724367
0003d0 7a 18 1b 3e 73 d2 35 3e e8 12 7b 3c 60 97 89 bd
       0.15146056 0.17756061 0.015324332 -0.067183256
0003e0 e6 5d 97 bd ed 8b 1b 3e 21 04 c4 3d a2 d5 bc bd
       -0.073909566 0.15190096 0.095711 -0.09220435
0003f0 fc df b8 3c fc dd 6e 3d 25 00 e4 3d 2f 4f cc bc
       0.022567742 0.05831717 0.1113284 -0.024940101

network_body._body_endoder.seq_layers.2.bias f4 [128]
000000 d0 a2 8b bb 04 2a 39 bc 81 df 41 3c 86 64 7c bc
       -0.004261352 -0.011301521 0.011833073 -0.015404826
000010 6a 2a 5f 3b ef 39 8f 3c f0 fd 45 3c 6d 00 b1 3a
       0.003405238 0.01748368 0.012084469 0.0013504155
000020 a8 53 96 3c 9c 3c b4 3b 2e 02 b6 bb 4e 81 63 b8
       0.018350437 0.0055003893 -0.005554459 -5.4241442e-05
000030 f4 14 4b ba a7 6e 91 bc 43 61 8c 3b 5e b6 1a 3b
       -0.00077469577 -0.017752958 0.0042840554 0.0023607234
000040 01 32 c6 3a 66 e2 5f ba ff 94 cd 3a eb c2 78 bc
       0.0015121103 -0.0008540511 0.0015684663 -0.015183191
000050 d6 30 65 bc ff ae 21 bc 2d 53 f2 bb b5 da 97 3a
       -0.013988694 -0.0098683825 -0.007395169 0.0011585566
000060 4e 8f 89 3b ff 60 76 bc 3a e5 5b bc a6 8f dd 3a
       0.0041979915 -0.015037774 -0.013421351 0.0016903772
000070 18 ac 42 bc 5e 9a d1 3c 53 3a f0 bb a9 f7 e9 3c
       -0.011881851 0.025586303 -0.0073311715 0.028560476
000080 9d a7 4c bb a0 17 28 bc f2 4f 1c 3c 6e ba 4a 3c
       -0.0031227835 -0.010259539 0.009540545 0.01237355
000090 ca 20 9c bc 54 91 5a 3b f9 21 21 3b ff ec ca 3a
       -0.019058604 0.0033350782 0.00245869 0.0015482007
0000a0 50 6f fc bb da cf 7b 3d 83 54 14 3c d7 ed a3 3c
       -0.007703699 0.06147752 0.009053352 0.020010872
0000b0 3c 29 32 bb 56 ae c8 3c 5b 4a 54 bc 4b 17 da 3b
       -0.0027185222 0.024497192 -0.012957181 0.006655609
0000c0 85 29 03 3c e7 60 e2 bb fb a8 dc 3b 23 4f 84 3a
       0.0080055045 -0.0069085243 0.006734011 0.0010094385
0000d0 8e 17 bb ba 67 c2 c8 3b 26 30 15 bc 8e 7d d2 bb
       -0.0014273988 0.00612669 -0.009105718 -0.0064236587
0000e0 2f 7d fd 3b c6 92 e3 3b f7 f9 69 3c ac 9f 11 3c
       0.0077358703 0.006944987 0.014280788 0.008888166
0000f0 88 78 86 bb f4 8c fd bb ec e8 16 bc a7 f0 83 3c
       -0.004103724 -0.00773775 -0.009210806 0.016105963
000100 c7 8a 7d bc 04 d1 f0 bc 14 a6 16 bc 49 06 58 bc
       -0.015474982 -0.029396541 -0.00919487 -0.013185092
000110 f3 78 9b bc 67 9d 3e 3b c7 ab cd 3c d1 6b a2 bc
       -0.018978572 0.0029085518 0.025106324 -0.019826801
000120 e5 71 af 3b 76 9d c6 bc e5 c6 9c bb ff 62 bc bb
       0.0053541535 -0.024245005 -0.0047844523 -0.005749106
000130 d5 7c 93 3c 8f 9d 46 3b fd 6c 3d bb 8a 48 81 3c
       0.01800386 0.0030306315 -0.0028904073 0.01578166
000140 ba 6e 50 3b a3 64 59 3b 8c be 7f 3b 28 2d 0b 3d
       0.003180428 0.0033171556 0.0039023487 0.03397861
000150 fe 53 ec 3c b8 cb a8 bb ff 70 91 ba 91 9a e6 3c
       0.028848644 -0.0051512383 -0.0011096298 0.028149875
000160 2d 66 dd bb 27 71 65 3a 31 71 97 bb 88 1f fc 3c
       -0.006756565 0.0008752518 -0.0046216478 0.030776754
000170 fc c6 82 bc c0 1c 45 35 5c 73 85 3c 33 3a 54 3c
       -0.015964024 7.3430056e-07 0.01629036 0.012953329
000180 dc d3 5a ba 35 90 4c bd ad dc 86 3b 3f 89 8a bb
       -0.00083476095 -0.049942214 0.004115662 -0.004227787
000190 0b 0d 5c bc ea fb 16 bc ee ea 8e 3c 9d b1 42 bc
       -0.013430844 -0.009215334 0.017446008 -0.011883167
0001a0 4d 58 6a 3b 54 5a b2 3b e0 9a 22 3b df 4f ae 3c
       0.0035758198 0.005442897 0.002481155 0.02127832
0001b0 af e7 f5 bb 4a fa 6b bb e3 50 0b bb d0 70 d9 3b
       -0.0075044255 -0.0036007338 -0.002125793 0.0066357628
0001c0 d5 3c 51 bb aa cb ff 3b 19 ba 59 3c 09 35 1d 3c
       -0.0031927128 0.007806261 0.013288998 0.009595164
0001d0 a6 28 1e 3c 99 ce b8 39 ce a2 1d bc b3 92 6c bc
       0.009653246 0.00035249142 -0.009621335 -0.014439273
0001e0 0a 7e b1 3a d8 e5 5b bb fc 4e 59 3c be 23 e6 bb
       0.0013541591 -0.0033553746 0.01326346 -0.007023304
0001f0 49 5b bb 3c 0a 45 28 bc a5 cc 88 3c f8 0a d2 3b
       0.022870677 -0.010270366 0.016699145 0.006409999

action_model._continuous_distribution.log_sigma f4 [1, 2]
000000 c2 98 03 bd fb d9 a2 3b
       -0.032128103 0.004969833

action_model._continuous_distribution.mu.weight f4 [2, 128]
000000 6f d1 f1 3c e1 7e bd bc be 1e 0c bc 54 74 96 bb
       0.029518811 -0.02313179 -0.008552251 -0.004591504
000010 2c 85 49 bd a9 9f e5 3c cc 7f 77 3d 16 b2 1b bb
       -0.04919927 0.028030233 0.06042461 -0.002375727
000020 73 16 2c 3c 23 19 e4 bc 84 bb c7 bc 28 7f bd bc
       0.010503399 -0.027844017 -0.024381407 -0.023131922
000030 cb fb a9 3c 96 78 b9 bb b5 82 49 3d 4a dc ac bc
       0.020749947 -0.005660127 0.049196918 -0.021101136
000040 f0 5e 19 bd 10 af ec bc 9c 6c b8 3b 43 eb 90 3c
       -0.037444055 -0.02889207 0.0056281816 0.017690307
000050 b0 47 03 bd d5 f8 90 3a ec 68 52 bb 56 21 be bc
       -0.03205079 0.0011060486 -0.0032105995 -0.023209255
000060 42 01 9a bb 69 9d a4 bb 13 c8 9e bb 4d e8 23 3b
       -0.004699857 -0.0050236476 -0.004845628 0.0025010288
000070 76 b8 d8 bc 62 40 95 3d 12 6d 00 bd c7 0d e3 3c
       -0.026455145 0.07287671 -0.031354018 0.02771653
000080 24 f5 04 bd 3f 3b d6 3c bb 02 84 3c d3 47 30 3d
       -0.032460347 0.026151298 0.016114583 0.043037247
000090 f9 04 10 bd 56 90 bf bb 75 0a cb bc 34 b8 09 3c
       -0.035160992 -0.0058460636 -0.02478526 0.008405734
0000a0 6a d2 b1 bc ae 94 69 3c 06 bd a2 3c 7e f6 1e 3d
       -0.021706779 0.014256639 0.019865524 0.038809292
0000b0 de 7b 68 bb 41 32 28 3d 6d d0 d7 bc d4 7e d1 3c
       -0.0035474221 0.04106355 -0.026344502 0.025573172
0000c0 03 fa ef bb af a5 13 bd 9d 83 2e 3c d3 ca 12 3d
       -0.007323505 -0.03604668 0.010651496 0.03583796
0000d0 de 15 35 3b 9a a1 1d bc ca 05 ce 3b fb 3c 8c 3a
       0.0027631442 -0.009621048 0.006287311 0.0010699326
0000e0 d0 56 e3 3c 35 75 09 bd 0c 9f 3a 3d b2 e0 36 3d
       0.027751356 -0.033559043 0.045561835 0.04464788
0000f0 f3 a4 e9 bc fd bc f8 bb b5 19 81 bc a2 d1 05 3d
       -0.028521037 -0.0075908885 -0.015759328 0.032670625
000100 f8 ff 38 bc 81 91 bb bb 2e 48 ea 3b 4b 96 0a 3d
       -0.011291496 -0.0057241325 0.007149718 0.033834737
000110 f0 92 d0 3b d5 4f b6 3c 9c b7 13 3d 8c f9 c2 bc
       0.0063651726 0.022254864 0.036063775 -0.023800634
000120 58 66 dd bc 4d 52 63 3b cc 97 49 bc e1 8f 66 bc
       -0.02702634 0.0034686506 -0.012304258 -0.014072389
000130 90 22 dd 3b 44 83 81 bc 69 6f 56 3c 79 17 e2 bb
       0.006748505 -0.015809663 0.013088086 -0.006899771
000140 c7 9b 84 bb 39 36 38 3d d4 a6 9d bd 80 62 a4 3d
       -0.0040468904 0.044973586 -0.076978356 0.080266
000150 b8 4a a1 3d 4e 1a 16 bd 64 8d 2c bc 48 49 23 3d
       0.078755796 -0.03664618 -0.010531757 0.03986481
000160 dd 23 31 3c ec 9c 7b bd 3b 3d 57 bc d6 ba 14 3d
       0.010811773 -0.06142895 -0.013137157 0.036310993
000170 f1 b4 57 bb 63 9b 27 bc 24 5b 1b bd c6 33 05 bb
       -0.0032914246 -0.010229918 -0.037928715 -0.0020325049
000180 30 ad 85 bc 46 7e 41 bc 36 dc b3 bc 29 1e 0f bc
       -0.016317934 -0.011809891 -0.02195559 -0.008735218
000190 c1 4d fb bc 0c 36 7c 3b 98 0a 95 3d 04 c0 42 3c
       -0.030676724 0.0038484363 0.07277411 0.0118866
0001a0 10 bb 28 3b af c3 fd 3b 99 0a 1f bd 63 6e 21 3d
       0.0025746264 0.0077442746 -0.038828466 0.039411914
0001b0 83 48 c2 bc 6d 9e 7a bd 79 a7 39 3d f6 a1 2f 3c
       -0.023716217 -0.061186243 0.04532573 0.010719767
0001c0 ae d0 10 bc 11 b2 05 3d d1 68 6b bd ce 14 ed bc
       -0.008838816 0.03264052 -0.057473008 -0.028940585
0001d0 aa 0e 5e bc 7e d0 1a bd e4 c9 7f bc bb dd 9a bb
       -0.013553301 -0.03779649 -0.015612099 -0.0047261394
0001e0 94 64 2a 3d 18 3c b2 3c 4a 0f f9 bb e0 ba 88 3c
       0.041599825 0.02175717 -0.0076006996 0.016690671
0001f0 1b df 35 bb 57 a2 3e ba 4e af 34 3d 19 2e 92 3c
       -0.002775139 -0.00072721153 0.044112496 0.017844247
000200 97 10 5f 3c d1 f0 ec 3b bd 7c 08 3d f9 95 04 bc
       0.013614795 0.007230856 0.033322085 -0.008092397
000210 fd 4e 56 bd 49 78 91 bd 72 07 94 3c a2 4c 57 bd
       -0.052321423 -0.07103021 0.018069956 -0.052563317
000220 70 98 91 bd 82 93 91 bd a1 ea bc 3c fd 13 4c bd
       -0.07109153 -0.07108213 0.023061099 -0.04982375
000230 df d7 b2 3c c4 3e b6 3b 36 96 75 3c 0b 25 6a bb
       0.021831451 0.0055616815 0.014989426 -0.0035727646
000240 87 da 6f 3c 25 98 e5 3b 0c d6 5b 3c c7 b4 d6 3b
       0.014639503 0.0070066624 0.013417732 0.006552312
000250 1c 8a 9f 3c ab 72 ef bb f7 92 0d bb 49 83 ba bb
       0.019475035 -0.0073073707 -0.002160249 -0.00569192
000260 f3 a1 0c 3d 9f 62 a5 3b 96 e8 8b 3c 33 65 91 bd
       0.034334134 0.005047157 0.017078679 -0.0709938
000270 a7 d0 ca bc 7f 78 0f 3b dc 01 97 3c 96 54 61 bd
       -0.024757696 0.002189189 0.018433504 -0.055012308
000280 f4 7e 3a bb 7e bf 53 3c a0 02 f5 3b 77 38 a4 3b
       -0.0028457018 0.012924073 0.0074771196 0.005011614
000290 8e 1f b6 3b c8 ad 2b 3d d2 37 f6 3a 58 63 08 3d
       0.005557961 0.041913778 0.0018784946 0.033297867
0002a0 21 b4 c8 3b 93 03 1a bd 0e 66 d1 3c 92 7f 18 bd
       0.0061249887 -0.037601065 0.025561359 -0.037231036
0002b0 83 3a d1 bc 09 d5 0a bd e1 1d 08 ba 99 52 f5 3c
       -0.025540596 -0.033894572 -0.00051924406 0.029946612
0002c0 25 13 49 bd 6f ff ee 3c b4 3e 8e 3c 82 b4 1d bc
       -0.049090523 0.029174535 0.017363884 -0.009625556
0002d0 6f d5 04 bd e0 ac 25 3d ff c0 11 3c 46 82 b9 3b
       -0.03243011 0.04044807 0.0088961115 0.0056612818
0002e0 af 24 1b 3d a3 b5 e4 bb 2b f9 a3 bc fb eb ed 3c
       0.03787678 -0.0069796606 -0.020016273 0.029043188
0002f0 f4 79 59 bc 99 78 21 3c 78 13 94 3b a4 0e b4 bc
       -0.013273705 0.009855413 0.0045189224 -0.021979637
000300 0a ee cf 3b b1 1c 41 3b dd 16 86 3c b9 5f 95 3c
       0.006345515 0.0029466564 0.016368324 0.01823412
000310 31 89 0d bc 6c ad 22 3d b4 ba a7 bd bb 66 e1 b9
       -0.008638666 0.03971617 -0.08189908 -0.00042991884
000320 72 dc f0 bc 13 d8 07 3c a2 85 c6 3c 30 fa fd bc
       -0.029401992 0.008291262 0.024233643 -0.031003088
000330 75 a6 00 bd b9 de 27 3d e8 d7 fc 3b eb 4e 46 bd
       -0.031408746 0.04098389 0.0077161677 -0.048415106
000340 04 af 74 3d 2c 86 45 3d 25 ac 2d bd fb 63 1c 3d
       0.05973722 0.04822366 -0.042400498 0.038181286
000350 cc c8 80 bc 1f 66 11 3d 56 e8 2d bd 99 f5 e1 bc
       -0.015720747 0.03549778 -0.0424579 -0.02758293
000360 94 0e 00 3b c9 c0 b9 3c 06 f2 00 3c 91 9a 49 bc
       0.001953994 0.022674935 0.007870203 -0.012304918
000370 0c 26 01 3c d8 53 fe 3b 9a 72 55 3c f7 24 3d bd
       0.007882606 0.00776146 0.013027811 -0.04617783
000380 37 4d 8d bc 49 06 42 3c 75 30 50 3d dc b8 a1 3c
       -0.017248733 0.011842319 0.050827462 0.019741468
000390 6b 6d 21 bb d0 4c 5e 3c fd 23 b2 bb 73 0e b4 3c
       -0.0024631869 0.013568118 -0.005436419 0.021979546
0003a0 ac 8d bf 3c ca bc 1b bd 4c 78 39 3c 49 8b 56 3d
       0.023382984 -0.03802184 0.011320185 0.052378926
0003b0 0f 92 8e 3c 57 31 d6 bc f7 fc 03 bd 6c 36 08 bd
       0.01740363 -0.026146574 -0.032223668 -0.033255026
0003c0 c5 39 4f 3c 1c 1c 14 bd 46 6b 84 3b e5 f3 2f bd
       0.012648051 -0.03615962 0.0040411083 -0.042957205
0003d0 aa 13 e4 bc a9 34 1a 3d 1f 66 a1 3b d8 e9 04 ba
       -0.027841408 0.037647877 0.004925504 -0.0005070246
0003e0 09 71 08 3c d6 5c 9a 3c ed 4a 5a bd 83 31 09 bb
       0.008327731 0.018843096 -0.05329411 -0.0020934052
0003f0 1c dd 9b bd 59 80 e4 3c d4 75 5a 3c f6 36 8f bc
       -0.07610533 0.027893232 0.0133337565 -0.017482262

action_model._continuous_distribution.mu.bias f4 [2]
000000 4e b5 15 bb 67 29 3c 3b
       -0.0022843662 0.00287112

action_model._discrete_distribution.branches.0.weight f4 [1, 128]
000000 db d7 a3 bc 67 59 d4 bb b1 68 c6 39 db 11 02 bc
       -0.020000389 -0.006480384 0.00037843504 -0.007938827
000010 77 33 69 3c e1 eb 15 bc f0 cd a1 39 04 4a 83 3c
       0.014233462 -0.009150476 0.00030861748 0.016026504
000020 3c 32 3f 3c 27 d1 56 3c 96 44 a1 bb 72 2c 50 bc
       0.011669692 0.013111389 -0.004921506 -0.012705909
000030 bb 8a ad 37 4a 47 60 3b ca b0 73 bc 33 6b 54 bc
       2.0687809e-05 0.003422218 -0.014873693 -0.012965011
000040 d2 34 48 38 46 31 08 bc e2 73 ce ba ed e0 bc bb
       4.773291e-05 -0.008312529 -0.0015751089 -0.005764118
000050 bb 98 40 bc 1b 4d 30 3a 0d fb af 3c 4a 59 59 3b
       -0.011755164 0.0006725357 0.021482015 0.0033164793
000060 02 a0 22 bc 5a 24 94 bb eb 47 f0 ba 7d 89 90 3c
       -0.009925844 -0.004520935 -0.001833198 0.017643685
000070 e0 46 48 3b 95 31 03 bb 1b 3c c7 3a 8b ef 90 bb
       0.0030559823 -0.0020018567 0.0015200408 -0.004423087
000080 f3 53 00 3b 88 44 ae 3b f3 d8 6a 3c 35 b6 32 3b
       0.0019581288 0.005318228 0.014333951 0.0027269248
000090 95 3c e5 bb cb 73 9d 3c 5c 10 b5 3b f0 04 15 3c
       -0.0069957473 0.019220253 0.005525632 0.0090954155
0000a0 45 ee 68 3c 28 3a 82 bc c2 0d ad 3b 60 58 62 3b
       0.014216964 -0.015896872 0.005281181 0.003453754
0000b0 92 87 5d 3b 89 8c c3 bb a6 5a 08 bc f5 76 03 ba
       0.003380273 -0.005967681 -0.0083223935 -0.00050149794
0000c0 ce f5 06 3b 45 79 a6 bb 3e 50 89 3c eb 3c f4 bb
       0.0020593288 -0.0050803744 0.016761895 -0.007453551
0000d0 9f b1 ce bb 53 28 8e 3c 4c cc a9 3b 59 56 b3 bb
       -0.006307795 0.017353212 0.005181825 -0.00547294
0000e0 0f 4a 4c bc 37 64 7b 3c 87 b7 10 bc a5 23 93 bb
       -0.012468829 0.015343717 -0.008832819 -0.004490333
0000f0 f5 d6 5e 3a 37 07 e8 bb 77 1d c2 3b ff 69 bb bb
       0.0008500659 -0.007080938 0.0059239226 -0.005719423
000100 b5 07 47 3b 40 7c cf 3b bb 3c 9e bc 2f 95 3b 3b
       0.0030369584 0.0063319504 -0.019316068 0.0028622856
000110 1b 4b 54 bc 8e 8d 87 bb b5 e4 6f 3c 8b 3c 2d 3c
       -0.01295736 -0.0041367477 0.01464193 0.010573517
000120 e0 35 17 3b cd c5 67 bc db 75 08 bc 3c 34 34 3a
       0.0023072883 -0.0141462805 -0.00832888 0.00068742386
000130 17 d3 c8 bb 41 13 b1 3b 3b c0 e6 3a b1 6f 91 3a
       -0.0061286795 0.0054039066 0.0017604897 0.0011095909
000140 d2 ab 39 bb 3b 0f 74 bc db a6 ae bb b7 f7 2d 3c
       -0.0028331173 -0.014896209 -0.0053299493 0.010618142
000150 79 5c 98 ba 78 50 df 3a 7f ad ce 3a fa 20 a4 bb
       -0.0011624239 0.0017037531 0.0015768259 -0.005008814
000160 6f 51 31 3b 73 4e 41 3b 98 f5 77 bc b3 fb 23 3b
       0.0027056595 0.0029496222 -0.015134238 0.002502185
000170 9a be ec bb 0f 9d d7 bb 1b 68 6c 3c a4 b6 b4 3a
       -0.00722487 -0.006580002 0.014429118 0.0013787341
000180 c9 fc b2 bc 85 00 0e 3b 20 ec 49 3c b5 fb db 3a
       -0.021849053 0.002166779 0.012324363 0.0016783389
000190 eb 08 fa bb 86 0e 89 bc fa 54 7e 3c 8d a2 57 3a
       -0.0076304576 -0.016730558 0.01552319 0.0008225821
0001a0 bb d2 f0 3b 3a ae b7 3c 9d 31 43 3c 55 43 57 bb
       0.00734934 0.022421945 0.011913684 -0.003284653
0001b0 cc 17 85 bc 87 46 0e 3c 7f 6a cd 3b 8e 67 90 bc
       -0.016246699 0.008683807 0.006268799 -0.017627504
0001c0 92 a8 4f 3b 65 6e 0f bc 67 8c 37 3c b5 07 56 bb
       0.003168617 -0.008754347 0.011202908 -0.0032658402
0001d0 d4 a4 9f bb 00 22 9d bb 94 2e 2e bb 37 9c e8 3a
       -0.004871944 -0.004795313 -0.0026578056 0.0017746751
0001e0 ef d6 0e bc 34 ff 17 bc 12 a2 8e b8 44 e7 a8 bb
       -0.008718236 -0.009277154 -6.8012756e-05 -0.005154522
0001f0 c5 47 1c 3c df 46 8d bc 79 5d c1 3a 45 e8 2b 3b
       0.009538596 -0.017245708 0.0014752588 0.0026230973

onnx::Div_70 f4 [21]
000000 b6 0a 90 3f 57 62 e9 3b 9c d1 95 3f 84 e5 8a 40
       1.1253269 0.0071223187 1.1704593 4.340517
000010 fd e2 a0 3b bc 7c 89 40 35 ae 04 41 53 bf d1 3d
       0.0049098716 4.2964764 8.292531 0.1024157
000020 5f a4 0e 41 72 81 16 40 f5 13 1c 40 89 f7 50 40
       8.91513 2.3516507 2.438718 3.2651083
000030 b4 bf 0c 41 c5 d7 1a 41 9c 8c a6 3c e9 c4 11 41
       8.7968025 9.677678 0.02033072 9.110574
000040 01 72 20 41 9c bf 1c 41 42 ba 8e 3c 36 71 09 41
       10.027833 9.79678 0.017422799 8.590139
000050 03 47 1f 41
       9.954837
