results/Pellet/Pellet/Pellet-7236.pt (torch, 485679 bytes, 47 tensors)

network_body.observation_encoder.processors.0.normalizer.running_mean f4 [18]
000000 0e a0 11 3b b5 3b a4 ba 5c 82 2b bb 02 3e af bf
       0.0022220644 -0.0012530001 -0.002617023 -1.3690798
000010 45 00 aa c2 89 74 ce 3f 66 3e 8f 3e 47 b4 ae c2
       -85.00053 1.6129314 0.27977294 -87.352104
000020 f8 cf 83 41 4c 94 ba 3d a8 b6 bc 3b bc 95 c4 41
       16.476547 0.09110317 0.005759079 24.573112
000030 c2 dd 91 bf 05 9f cd c2 c8 bf 8e bf bf 7c bb 3f
       -1.13958 -102.810585 -1.1152277 1.4647444
000040 0b 94 d0 c2 f1 b6 ef 3f
       -104.28915 1.8727704

network_body.observation_encoder.processors.0.normalizer.running_variance f4 [18]
000000 1f 3e 17 46 6a d1 7c 45 95 1a c2 45 d5 c6 42 4a
       9679.53 4045.0884 6211.3228 3.1912212e+06
000010 80 3e 1a 4e 30 85 1e 4a f5 97 7d 49 5d 1e 5e 4c
       6.469468e+08 2.597196e+06 1.0387193e+06 5.822706e+07
000020 c9 92 73 49 57 dc 42 47 f3 b5 3c 47 af 41 0c 49
       997676.56 49884.34 48309.95 574490.94
000030 16 b7 87 49 52 63 5d 4c 3c ec 72 49 d5 c3 65 49
       1.1117788e+06 5.803553e+07 995011.75 941117.3
000040 bd d7 5e 4c 3f 34 6c 49
       5.8416884e+07 967491.94

network_body.processors.0.normalizer.running_mean f4 [18]
000000 0e a0 11 3b b5 3b a4 ba 5c 82 2b bb 02 3e af bf
       0.0022220644 -0.0012530001 -0.002617023 -1.3690798
000010 45 00 aa c2 89 74 ce 3f 66 3e 8f 3e 47 b4 ae c2
       -85.00053 1.6129314 0.27977294 -87.352104
000020 f8 cf 83 41 4c 94 ba 3d a8 b6 bc 3b bc 95 c4 41
       16.476547 0.09110317 0.005759079 24.573112
000030 c2 dd 91 bf 05 9f cd c2 c8 bf 8e bf bf 7c bb 3f
       -1.13958 -102.810585 -1.1152277 1.4647444
000040 0b 94 d0 c2 f1 b6 ef 3f
       -104.28915 1.8727704

network_body.processors.0.normalizer.running_variance f4 [18]
000000 1f 3e 17 46 6a d1 7c 45 95 1a c2 45 d5 c6 42 4a
       9679.53 4045.0884 6211.3228 3.1912212e+06
000010 80 3e 1a 4e 30 85 1e 4a f5 97 7d 49 5d 1e 5e 4c
       6.469468e+08 2.597196e+06 1.0387193e+06 5.822706e+07
000020 c9 92 73 49 57 dc 42 47 f3 b5 3c 47 af 41 0c 49
       997676.56 49884.34 48309.95 574490.94
000030 16 b7 87 49 52 63 5d 4c 3c ec 72 49 d5 c3 65 49
       1.1117788e+06 5.803553e+07 995011.75 941117.3
000040 bd d7 5e 4c 3f 34 6c 49
       5.8416884e+07 967491.94

network_body._body_endoder.seq_layers.0.weight f4 [128, 18]
000000 64 ea 11 be b6 b8 65 be c0 56 3b 3e 22 bc 8c be
       -0.14249569 -0.22433743 0.18294811 -0.27487284
000010 66 ee 90 3e 71 4d 0f be 2a c7 b9 3e 66 ec 88 3d
       0.28306884 -0.13994385 0.36284763 0.066857144
000020 61 2e 93 be 21 2a 89 3e 43 e8 8f be 73 41 1e 3e
       -0.28746322 0.26789954 -0.2810689 0.15454654
000030 bf 12 74 3e 4b 21 5e bc 54 1c 83 3e 63 8d aa 3e
       0.23835276 -0.013557742 0.2560755 0.33310995
000040 71 19 ec 3d e3 61 9e bd 3a cd 40 3d 19 bd 6e bd
       0.1152829 -0.07733514 0.04707072 -0.058285806
000050 a1 ed 55 be 65 2b c1 bd c5 dd d2 bd 42 ee ca 3c
       -0.2089143 -0.09432105 -0.102962054 0.024771813
000060 0a 6a 71 bd 90 e7 98 3d 24 3c 88 bd 11 08 83 bd
       -0.058939017 0.07466042 -0.06652096 -0.06398023
000070 ce 63 e3 3e 46 cc 03 bf 61 b9 44 bd d4 a9 d0 be
       0.44412082 -0.5148357 -0.048028354 -0.4075457
000080 eb c9 53 3e 8c 9d c0 bd 94 b0 e7 3d b3 e0 60 be
       0.20682494 -0.0940505 0.113129765 -0.21960716
000090 7b 87 18 be 60 57 3a 3b f4 52 f8 3e 68 1c a1 bc
       -0.14895432 0.0028433427 0.48500788 -0.019666865
0000a0 fb a6 a7 bd 42 49 96 3e d1 dd b9 bc 04 33 05 bf
       -0.08186146 0.29352766 -0.022688778 -0.5203097
0000b0 cb 25 4a 3e 78 87 19 3e dc d8 8d bd 02 01 99 be
       0.1974098 0.14993083 -0.06926128 -0.2988358
0000c0 e9 40 7b be e4 56 d6 bd 1f 66 06 bd 27 74 8c bd
       -0.2453648 -0.10465792 -0.032812234 -0.06858092
0000d0 3f cc b0 bd ac 70 81 be 92 03 d2 3d b5 96 46 3e
       -0.08632707 -0.25281274 0.10254587 0.19393428
0000e0 3d 0a f9 3e 5c 07 90 3e dd c2 68 be b9 bf 2c be
       0.48640624 0.28130615 -0.22730584 -0.16870011
0000f0 e0 a1 04 3f fd eb b0 3d 7d 75 d6 bd ad e8 c1 3b
       0.518095 0.08638761 -0.10471628 0.0059176297
000100 bb 0c a9 3e 7f 10 30 3d bd 9f b8 3d 29 91 47 3e
       0.33017525 0.042984482 0.09014843 0.19488968
000110 e0 ad 60 be 35 d5 0e 3e d4 ee a2 be fb 99 d3 bc
       -0.21941328 0.1394852 -0.31822836 -0.02583026
000120 c4 ee 47 3e 4e 81 41 bd ef eb b9 bc 7f 06 a9 bc
       0.19524676 -0.047242455 -0.02269551 -0.02063298
000130 7d a8 93 3e d3 86 5d 3d 0b eb 16 bf df 25 ab bc
       0.28839484 0.054083657 -0.589524 -0.020892082
000140 cd db fb 3e 18 9c e7 bc f5 aa 03 bf b4 a8 64 be
       0.49191132 -0.028272673 -0.51432735 -0.2232998
000150 29 f5 12 bd 3c 09 83 be 5f cd 1c be 80 4d 47 be
       -0.035878334 -0.25592983 -0.15312718 -0.19463158
000160 28 0c 90 3e 15 2d 0a be d9 2d 1a 3c ea 54 6a bc
       0.28134274 -0.1349376 0.009410345 -0.014302472
000170 78 a9 fc bd 92 00 52 be 78 bc d7 bd f6 78 9b be
       -0.12337011 -0.2050803 -0.105339944 -0.30365723
000180 27 bf 26 be 3c 57 2b be e6 17 04 3d 4f 48 8c 3e
       -0.16283856 -0.16732496 0.032249354 0.27398917
000190 83 01 53 be 90 73 32 3e 9f ee 47 be 13 91 83 bd
       -0.20606045 0.17426896 -0.1952462 -0.06424155
0001a0 ab d7 5a bd 8e 2e 5d 3e e8 f7 5b bd 0e a3 05 3d
       -0.053428333 0.2159979 -0.05370322 0.032626204
0001b0 e3 af 43 3c 4d dc 5c 3d bc c8 88 be 3d 0c 10 be
       0.01194379 0.053921033 -0.26715648 -0.14067169
0001c0 f1 73 0a 3f db 0c 26 bd ff e2 d8 3d ad 93 0f 3f
       0.5408316 -0.040539604 0.10590171 0.5608471
0001d0 c1 56 ad 3e 44 2d df 3e 66 43 61 3e 08 9c b1 be
       0.3385525 0.43589222 0.21998367 -0.34689355
0001e0 7e 03 84 3e dd ac 36 be 37 63 a1 bd 84 b7 15 bd
       0.25783914 -0.1783938 -0.07880252 -0.036551967
0001f0 23 52 77 3e 04 80 55 3e 17 d6 1c be 03 96 a5 bd
       0.24152426 0.20849615 -0.15316044 -0.08085253
000200 44 2d 0c bd 05 96 ac 3d 13 64 41 3e 2b 24 29 3e
       -0.034222856 0.084270515 0.18885832 0.16517703
000210 63 36 48 bd 42 37 04 3e 2b 18 ad bd 9a 32 02 3d
       -0.048879992 0.12911704 -0.08451875 0.03178654
000220 03 02 5e bd 58 20 cf 3d 98 b0 84 be c0 1c 9a 3e
       -0.054201137 0.10113591 -0.2591598 0.3010006
000230 cb 84 bb be 69 6b 36 bd 71 06 a7 bc 4f de 26 be
       -0.3662475 -0.044536028 -0.020388814 -0.16295741
000240 1f 34 e9 3d 1f 20 20 3e 96 64 04 bf ff 97 d7 be
       0.113868944 0.15637253 -0.5171598 -0.4210815
000250 d4 f4 7d bb 6f cd f1 3e da fe b3 bd c3 62 80 3d
       -0.0038750665 0.47227046 -0.087888435 0.06268837
000260 5e ce d2 3e d7 3e 1e 3d 23 b8 34 be 42 25 bb bd
       0.4117307 0.038634147 -0.17648368 -0.09137966
000270 2f bd 73 be ab f2 27 3d 51 23 cf 3d a4 34 9a bd
       -0.23802637 0.04100291 0.10114158 -0.07529572
000280 5c e7 24 be 23 97 75 3e 53 c0 d0 3e c1 b7 74 3e
       -0.16103882 0.23983435 0.40771732 0.23898222
000290 9d 7b ea bd ef 7f 20 be b0 5f 27 3d 10 80 92 3e
       -0.114493586 -0.15673803 0.04086274 0.2861333
0002a0 24 f4 f8 bd f8 ad eb 3c 1a 6b 7f bd 87 dd 5c be
       -0.12155941 0.028769478 -0.062358 -0.21568881
0002b0 1a 02 01 3d 3f 54 e2 3e 3c 9d bd bc c3 ec 87 3e
       0.031496145 0.442049 -0.023146264 0.26547822
0002c0 38 75 97 be 1d 81 88 3e 65 bc 90 be 6e 95 b0 be
       -0.29581618 0.26661006 -0.28268734 -0.34489006
0002d0 ac 15 90 be 2c 19 1e 3d d4 06 e0 bc 12 37 60 3e
       -0.28141534 0.038598225 -0.027347006 0.21896008
0002e0 62 6b c6 be 95 7f e3 bd cc 7f ca 3d 11 de 5b bd
       -0.38753802 -0.11108319 0.098876566 -0.053678576
0002f0 39 e1 24 3f 59 63 16 3d 0e 9c a5 be d1 db d9 bd
       0.6440616 0.03671584 -0.32345623 -0.1063763
000300 0e 61 59 bc 5d 7a b8 bb 44 db 9e 3d 97 da 91 3d
       -0.013267769 -0.005629821 0.07756665 0.07121771
000310 54 ef aa 3e b7 98 28 bd b2 dd a8 3d dd 78 d8 3d
       0.33385718 -0.041161265 0.0824541 0.10569928
000320 4b fc 1e 3e 23 80 e6 bd 53 1e 8b 3e 70 ca 4e 3d
       0.1552593 -0.11254909 0.27171573 0.05048603
000330 ac 18 98 3e 8e bf c5 3e bd 82 a0 bd 9b e0 b1 3e
       0.29706323 0.38622707 -0.07837436 0.34741673
000340 38 e5 12 bd 0c f6 05 3c 5c 63 b3 3e 9a cd b8 be
       -0.03586313 0.008176338 0.35036743 -0.36094362
000350 0d 7c 24 3e 62 0a 87 3e 63 d7 28 3d 33 e0 83 be
       0.16062947 0.2637511 0.041221034 -0.25756988
000360 8f 19 3e 3e f5 67 0f be 3b 8e 0e 3d 3c b1 ca 3d
       0.18564437 -0.140045 0.03480361 0.09897086
000370 80 b1 c1 bd 54 99 07 3e b9 30 f8 3d 6b c4 2f 3b
       -0.094576836 0.13242084 0.12118668 0.0026819955
000380 57 30 9a be 49 f6 06 3e f4 20 bb bc bb 85 8f be
       -0.30115005 0.13179888 -0.022842862 -0.28031716
000390 cd 42 b5 3e eb 77 cb bd 42 cb 32 be 98 53 aa 3d
       0.35402527 -0.09934982 -0.17460349 0.083167255
0003a0 8a ac 94 be bb ab 91 3e ba 56 41 3e 9c ae 3a 3d
       -0.29037887 0.28451332 0.1888074 0.045576677
0003b0 2b 1a 87 bb 93 0e b7 bd a2 c1 44 be da 6c 2b 3e
       -0.0041229925 -0.08938327 -0.1921449 0.16740742
0003c0 ad 65 b6 3d 82 7d 42 3e 42 69 3b 3e 1a 95 dd bd
       0.08906112 0.1899319 0.18301871 -0.108194545
0003d0 3c 07 93 3c fb bf 7e 3d ab 87 95 be c4 3e 24 3e
       0.017947786 0.062194806 -0.2920507 0.16039568
0003e0 7c cc a5 3d 95 af 2b be 05 d0 56 bd 6d 4a 1e bf
       0.08095643 -0.16766198 -0.052444477 -0.61832315
0003f0 14 d7 e4 3d 1c bf 7d be 6d fa f0 bc 71 92 08 3e
       0.111738354 -0.24779934 -0.029416287 0.13337113

network_body._body_endoder.seq_layers.0.bias f4 [128]
000000 f0 37 0e 3b 64 4f cd 3a c2 dd 91 3b 6c 09 db 3a
       0.0021700822 0.0015663919 0.0044514844 0.0016711182
000010 ba 07 f4 3a 3d b4 cb bb ec b4 c9 3b 41 7e 88 bb
       0.0018618025 -0.0062165544 0.006155601 -0.0041654413
000020 bd 0f d9 ba bb 03 dd bb 30 b5 62 bb b6 f4 0c 3b
       -0.0016560477 -0.0067448295 -0.003459286 0.0021508164
000030 ec f6 5f 3c 4f a3 9c 3b 22 2a 01 bc 22 49 f8 3b
       0.013669711 0.00478021 -0.00788358 0.0075770775
000040 b5 d7 09 3a 8a ae 74 37 e3 eb 0d bc 9c d5 10 bb
       0.0005258278 1.4584171e-05 -0.008662197 -0.0022099977
000050 54 d5 d8 bb 79 96 09 3a f9 61 2c bc cc 2f d5 39
       -0.0066172276 0.00052485574 -0.010521405 0.00040662137
000060 d7 9a 0b 3a 90 2a 74 bb 64 6c fe 3b e3 f3 6b 3b
       0.0005325502 -0.0037256815 0.007764386 0.0036003522
000070 ce 83 0c 3a 4a f2 50 bb 2f 4a b3 3b f5 52 0f 3c
       0.00053602166 -0.0031882697 0.00547149 0.008747806
000080 bf 95 92 3b 61 36 a7 3a d9 90 42 bc 33 f5 e7 b7
       0.0044734175 0.0012757295 -0.011875355 -2.7651526e-05
000090 d7 52 99 b9 77 a4 ee ba 95 95 95 b9 e8 84 2b bc
       -0.00029244155 -0.0018206973 -0.00028530942 -0.010468699
0000a0 dd b3 3a 3b d8 97 43 3b 6c 2b 0c bb 96 ae 7a 3a
       0.0028488555 0.0029845145 -0.0021388186 0.00095627585
0000b0 ef 90 6f bb 54 ac c6 bb 9d dc b6 3b 7a 7a 20 bb
       -0.0036554893 -0.0060630236 0.0055804984 -0.0024487064
0000c0 e4 93 35 3c 79 2e c1 3a 55 5c e0 3b 39 67 dc bb
       0.011082623 0.0014738581 0.0068469443 -0.0067261723
0000d0 e8 64 54 3b 97 30 0a ba 02 f5 9a bb ae 9d 1c bb
       0.0032408778 -0.00052715227 -0.0047289142 -0.0023897695
0000e0 fe 3f b0 bb 66 30 10 bc 32 49 a5 ba 9b 7c 8a 3b
       -0.005378722 -0.008800602 -0.0012610315 0.00422628
0000f0 e0 43 c5 3b 20 5c 80 bb 0e 02 77 bb 73 f7 aa bb
       0.006020054 -0.003917232 -0.0037690434 -0.0052174865
000100 e7 49 8a bb d1 6f 95 bb 25 46 83 3b 76 7e 9d bb
       -0.0042202356 -0.0045604487 0.0040061646 -0.004806335
000110 52 e2 84 3b c8 fc 1f 3c 21 d6 42 3c 3d 30 18 3b
       0.0040553 0.009764858 0.011891873 0.0023222112
000120 32 25 db 3b 17 db 9f 3b b9 5b b5 bb 30 7a 65 39
       0.0066877836 0.0048784125 -0.005534616 0.0002188466
000130 b4 aa 61 ba 74 08 5a ba 68 72 19 bb 8a 55 2a bc
       -0.00086085056 -0.00083172997 -0.0023414139 -0.010396371
000140 69 bf 8d 39 75 bc 05 3c 20 d9 74 3a b5 6a 21 3b
       0.00027036227 0.008162607 0.00093402155 0.0024630253
000150 2d 3b a7 3b 1a 76 e8 bb 64 62 c1 bb 00 0e 92 3a
       0.00510349 -0.007094157 -0.0059016217 0.0011143088
000160 3c 9e a4 3b c2 05 53 3a 48 9d 4b 3c fd 2d c7 ba
       0.005023746 0.0008049869 0.0124276355 -0.0015196201
000170 8c b2 63 bb 28 fe 0c 3a 03 49 9d 3b 04 6e 1c bb
       -0.0034743873 0.00053784484 0.0047999634 -0.0023869285
000180 f6 b5 6d 3b a5 4b 43 3b 65 28 42 3b f2 5f 74 38
       0.0036271787 0.0029799726 0.0029626128 5.826349e-05
000190 85 61 98 bb eb cb e2 bb 62 e4 63 3b d0 03 c3 bb
       -0.004650297 -0.0069212816 0.0034773578 -0.005951382
0001a0 93 49 25 bc 6e f4 a4 3b bd 29 d2 bb a2 e7 f8 3b
       -0.010088342 0.005034021 -0.006413667 0.007595972
0001b0 c0 79 41 bb 99 82 4e 3b 94 be 87 bb b0 89 94 39
       -0.0029522032 0.0031510948 -0.0041425917 0.00028331345
0001c0 f3 18 2d 3a 12 1e cf ba 79 23 1b bb 2c df f4 bb
       0.0006603144 -0.0015801808 -0.0023672266 -0.007472893
0001d0 c3 ca cd bb 65 38 b9 bb d0 7e 23 3c 74 b5 03 3a
       -0.0062802746 -0.0056524747 0.009978965 0.0005024292
0001e0 7b 0a 7d bb d5 bd c3 3a bc 2e 4a bb 0e 12 08 3c
       -0.0038610983 0.0014933894 -0.003085061 0.008305086
0001f0 d3 77 18 bc b3 70 32 3a 3a 09 a9 bb 73 6e 39 bb
       -0.009305912 0.00068069546 -0.0051585706 -0.0028294593

network_body._body_endoder.seq_layers.2.weight f4 [128, 128]
000000 9f ea 0f bd 22 e3 10 3e ce 60 ce 3d 41 0d 6a 3c
       -0.03513586 0.14149144 0.10077058 0.014285387
000010 db eb ae 3c 09 b9 47 bd dd 97 a5 ba 61 6a bb bd
       0.021352699 -0.048760448 -0.001263376 -0.091511495
000020 39 89 5c 3d 1a df 00 3d 5b a7 d1 3d a2 e5 7d 3e
       0.053841803 0.031462766 0.10236999 0.24794629
000030 52 69 5c 3d bb df 7e bc b4 05 d4 bc b1 38 8c bd
       0.05381138 -0.015556271 -0.025881626 -0.068467505
000040 e8 30 f5 3d 04 03 b6 3d 25 c1 27 3b 50 81 d1 bb
       0.11972219 0.08887294 0.00255973 -0.006393589
000050 64 d8 27 be 81 02 b9 bb fc f5 ec 3b 81 dd ab bb
       -0.1639114 -0.0056460504 0.007231472 -0.005244911
000060 0d 44 bb 3d aa 6b 88 bd 1b 52 42 3d 1e 9a d0 3d
       0.09143839 -0.0666116 0.047441583 0.101856455
000070 3c ea f8 3a bc 3e a8 3d f5 7c 60 3c 00 72 9b bd
       0.0018990706 0.08215091 0.013701667 -0.07590103
000080 4b fb a1 ba 15 0d 16 3e cf 46 11 3e f5 db 63 bc
       -0.0012358216 0.14653428 0.14187168 -0.013907422
000090 2e 66 eb 3c a5 01 e2 bd 03 a3 e6 3d da 54 a3 3d
       0.028735247 -0.1103547 0.11261561 0.079751685
0000a0 d3 77 eb bd cb 86 3c bd 2e 15 1e 3e 67 8e b1 bd
       -0.11497464 -0.046026986 0.15437767 -0.08669739
0000b0 db ae ca bd 3a 2f 39 3d ac df 03 be 9b c0 fe 3c
       -0.09896632 0.045211054 -0.12878293 0.0310977
0000c0 6a 89 0f be 9d 24 f6 bc 13 bc d8 bd 5c 73 90 bb
       -0.14017263 -0.030046755 -0.10582747 -0.004408283
0000d0 10 88 5c bd 5b c5 ac bd 69 c3 38 3c a8 52 63 bb
       -0.053840697 -0.0843608 0.011277058 -0.0034686718
0000e0 51 9e f3 bd 90 1c 30 be b3 39 0a be 71 01 19 3d
       -0.11895431 -0.17198396 -0.13498573 0.03735489
0000f0 7f 17 1a 3d df f2 dc bd f7 d8 2f 3d 6b 68 22 be
       0.037620064 -0.107885115 0.042931523 -0.15860145
000100 dc cc 83 3d b3 db 09 3c ba 28 58 bc 4b 1d 53 bc
       0.06435558 0.008414197 -0.013193304 -0.012885402
000110 93 bf 72 be 64 fb 14 3e 93 db c0 bc 13 21 2c 3d
       -0.23705892 0.14549023 -0.023542201 0.04202373
000120 58 65 ec bd 25 32 81 3b 8d 1d 42 bc a8 72 cd 3d
       -0.11542767 0.0039427453 -0.011847866 0.100316346
000130 69 37 57 3e 26 15 75 3c 0d 4f fc 3d be 77 31 3d
       0.21017231 0.014958655 0.12319765 0.043327086
000140 34 81 c5 bc 17 c4 d2 3d 03 a8 1f 3b ce 15 51 3e
       -0.02410946 0.102913074 0.0024361617 0.20418474
000150 97 e5 9f bd 20 34 77 bd 9c f4 1d 3c 25 8d 00 3d
       -0.07807463 -0.060352445 0.009640839 0.031384606
000160 f3 52 e2 3c 74 31 37 be fc 60 ad bc 6e 5b 82 bd
       0.027627444 -0.17889959 -0.02116441 -0.06365095
000170 df 3e b1 bd 60 92 4f 3c 22 66 5d bb 78 c3 8b 3d
       -0.0865457 0.012669176 -0.00337828 0.06824392
000180 09 7c b7 3c 75 9e 8e 3d b9 5c de 3d 4f 36 ea 3c
       0.022398012 0.06963817 0.10857529 0.02859035
000190 46 61 24 3e 23 28 e4 3d 02 c0 07 3e 22 f7 f2 bd
       0.16052732 0.11140468 0.13256839 -0.11863543
0001a0 81 8d e5 bc 93 4c 7b bd d0 d5 4b 3d f3 3e bc bb
       -0.028021576 -0.061352324 0.049764454 -0.005744809
0001b0 90 b8 b3 bd 00 5c 1d 3e c6 80 31 3d 57 77 83 bd
       -0.08775437 0.15367126 0.0433357 -0.06419247
0001c0 10 9f 8d 3d 38 55 fa 3c 69 0a 97 3d 4f 35 b5 3b
       0.069151044 0.030558214 0.073750325 0.0055300365
0001d0 8f 5e 9c 3d 2d 96 ee bc 75 e5 36 bd 85 92 4c bc
       0.07635223 -0.029124344 -0.04465242 -0.012486105
0001e0 db a6 af 3c ed 4c d6 3d 0f d8 0e 3e 73 60 51 be
       0.021441868 0.10463891 0.13949607 -0.20446949
0001f0 20 56 a1 3d 18 b8 14 be 53 fe 3d be 9c 10 38 3e
       0.07877755 -0.14523351 -0.18554048 0.17975086
000200 a9 0d ff 3d 59 a6 6a bd 9e ab c8 bb 8e 9c 14 3d
       0.12453777 -0.057287548 -0.006123974 0.036282115
000210 ae 96 04 3e 19 14 33 3d 75 f4 54 bd f4 61 5b bd
       0.12948105 0.04372034 -0.051990945 -0.053560212
000220 1e 84 8e 3c 24 eb 21 3e 56 9f 80 3c 47 44 45 3e
       0.017396983 0.15812355 0.015700977 0.19264327
000230 c4 4b ef bd 87 ca 9e bc 77 3f 62 be a9 1a 01 3c
       -0.11684373 -0.019383682 -0.22094522 0.007879891
000240 fc 68 b4 bd 94 dc 02 3c 24 0f dc bd 68 b1 86 3d
       -0.08809087 0.00798716 -0.10745075 0.06576806
000250 44 f3 86 bc c9 91 ab bc ad f5 b6 bd 8a b1 06 3c
       -0.01647342 -0.02094354 -0.08933578 0.00822104
000260 59 bd a5 3d 4b ca 8e be a6 42 27 be 08 2c c0 bd
       0.08092756 -0.27888712 -0.16334018 -0.09383398
000270 36 2a d8 3b 67 10 3f bc 03 4b 87 bd 41 22 03 3e
       0.006596829 -0.0116616255 -0.06606104 0.12806036
000280 55 13 0a be 15 f2 45 3d 43 c1 1f 3d 7d 75 7b 3d
       -0.13483937 0.04832657 0.039002668 0.061391342
000290 4f 3f 41 bd c8 48 dd 3d 90 76 37 3d a5 e4 9b 3d
       -0.047179516 0.108048975 0.044790804 0.0761197
0002a0 c4 83 b8 bc a1 c0 ee bc dc ea 44 bd 11 92 71 3d
       -0.022523768 -0.029144587 -0.04807554 0.05897719
0002b0 03 c6 f3 3d 53 35 80 bd 5d 8a 80 3d 75 bf 1b be
       0.11903002 -0.06260171 0.06276391 -0.15209754
0002c0 9d 71 75 3b eb 6a 83 bc f7 24 0d bd 26 08 1a 3e
       0.0037451752 -0.016042193 -0.03445908 0.15042171
0002d0 83 c6 94 bd 0a 12 2b 3d 21 d5 8f 3d 23 2b 5b bd
       -0.072644256 0.04176525 0.07023073 -0.053507935
0002e0 7c c4 d9 3d 19 f5 f5 bc 64 91 0b 3d b8 70 13 be
       0.106331795 -0.030024098 0.034074202 -0.14398468
0002f0 bc 51 1e 3e 33 dc dc 3b cf c0 df bd f5 b2 37 bd
       0.15460867 0.006740117 -0.10925447 -0.0448484
000300 bd 72 1f 3d a5 12 01 3e 61 3b 9b bd 17 da 41 3c
       0.038927782 0.12604769 -0.07579685 0.011831782
000310 c1 d7 d2 3b 53 72 df bd d1 bc d6 bc 4d 22 5c 3d
       0.0064344113 -0.109104775 -0.026213082 0.05374365
000320 a2 8e 15 3c 49 5f 0b be 3b cd 59 3d a8 79 30 bd
       0.009128245 -0.13610567 0.05317424 -0.04308477
000330 93 a8 14 be de 7f 76 bc b1 71 51 be 2b 05 66 3d
       -0.14517431 -0.015045134 -0.20453526 0.056157272
000340 5b 93 eb bd 3e f1 bf bb 6e 2c cc bb 12 8f 8f bd
       -0.11502715 -0.0058576157 -0.0062308824 -0.0700971
000350 af 81 50 3d be a0 25 3c 8f fc bb bd 4d a4 f1 3b
       0.050904926 0.010109125 -0.09179031 0.0073743225
000360 06 66 dd 3c 1f 52 93 3d da 92 9e 3c 54 85 f4 3d
       0.027026188 0.07193398 0.019357134 0.11939493
000370 70 09 a1 3d ff 86 14 be b6 34 89 3d 57 21 00 3d
       0.07863128 -0.14504622 0.06699507 0.031281795
000380 bd 72 3f be ed 19 12 3e 3a c4 0c 3e 60 e0 b5 3b
       -0.18696113 0.14267702 0.1374673 0.005550429
000390 25 77 4a 3d 1a f4 ae 3d 16 0d 11 be dd d5 1a be
       0.04943003 0.085426524 -0.14165148 -0.15120645
0003a0 7a 0f 1b 3c 33 af ea 3c 77 9f a4 bd c7 b5 19 bc
       0.009464139 0.028647995 -0.08038228 -0.009381718
0003b0 4b 4e 09 3c cf 30 9d 3d 80 c8 01 bb f8 d2 33 bd
       0.008380483 0.07675325 -0.0019803345 -0.043902367
0003c0 3c 4f e8 3c 51 1b 98 3d 0b 47 96 bd bb ae 90 bd
       0.028358094 0.07427085 -0.07337769 -0.07064577
0003d0 3b ee ef bd 2e 6e bc bd 08 66 d3 3d 68 7a b5 3c
       -0.11715361 -0.092007026 0.10322195 0.022153094
0003e0 72 57 43 3c ad 41 56 bd d1 0e 3b be 7b 3c 67 bd
       0.011922704 -0.052308727 -0.18267371 -0.056454163
0003f0 6c 67 db 3d e5 a4 79 bc b0 72 c2 3a 93 bc 31 bc
       0.107130855 -0.015237068 0.0014835205 -0.010848182

network_body._body_endoder.seq_layers.2.bias f4 [128]
000000 47 b0 1e bc 2d fa 11 bb a9 7e 23 bb 22 2c fb ba
       -0.0096855825 -0.002227436 -0.0024947322 -0.0019162933
000010 ef 2c d2 bb 4a c8 a7 bb a3 3f 4f ba dd 11 0c 3c
       -0.006414048 -0.005120312 -0.0007905906 0.008549181
000020 01 1d cb 3a a6 bf 48 3a 57 8f 3c bb 49 60 53 3b
       0.0015496315 0.00076579524 -0.002877196 0.0032253435
000030 9c dc 55 bc be 42 81 bb a8 35 94 3b 7b b9 fa 3a
       -0.013053086 -0.003944724 0.004522998 0.0019128764
000040 26 28 d5 3b eb b8 35 bb 7d ef 4d 3b bb c1 91 3b
       0.00650503 -0.0027728628 0.0031423264 0.0044481433
000050 e4 aa 27 39 9a 3a 7b bb b7 b2 bd 3b 55 e5 3e 3b
       0.00015990023 -0.003833449 0.0057891267 0.0029128392
000060 ae 42 cb 37 60 64 63 bb 5e a3 b4 b9 df 69 08 39
       2.4230536e-05 -0.003469728 -0.00034453993 0.00013009411
000070 26 32 81 bb 3b 74 ca bb f2 a5 c9 ba cf 66 14 ba
       -0.0039427457 -0.0061784065 -0.0015384539 -0.00056610716
000080 8a cd 4d 3a d9 7d c8 ba 6a 00 0d 3b 87 29 b8 39
       0.0007850757 -0.0015296295 0.002151514 0.00035126155
000090 e3 b9 f8 39 4f eb 27 3b 36 01 01 3c b1 87 25 bb
       0.00047440742 0.0025622433 0.007873824 -0.002525788
0000a0 47 92 12 bb e8 71 51 bb b4 8c d3 3b 17 b7 19 bb
       -0.002236502 -0.0031958763 0.006455982 -0.0023455077
0000b0 9e a3 b1 3a 19 0e 30 3b 12 99 28 bb f2 b8 83 ba
       0.001355279 0.0026863872 -0.0025726003 -0.0010049625
0000c0 9f 88 ce bb 76 de 48 bb 74 81 92 3b be 2b 37 bb
       -0.0063029076 -0.0030650175 0.0044709984 -0.0027949656
0000d0 da 40 76 bb 92 5b ad bb b1 17 1d bb 25 44 b9 ba
       -0.0037575276 -0.005290457 -0.002397042 -0.0014134689
0000e0 59 3a 53 bb f4 68 b4 3a 02 a9 d0 39 1e d4 4e bb
       -0.0032230823 0.0013764189 0.00039798772 -0.0031559537
0000f0 00 e6 b2 3b ff 86 9b bb 62 74 e6 3b cf a2 b0 bb
       0.005459547 -0.0047463174 0.007032917 -0.005390502
000100 25 06 7f bb b5 f8 aa 3a 7f 72 35 b9 9a bb 6f ba
       -0.0038913575 0.0013044091 -0.00017304158 -0.0009145081
000110 0d 30 9d 3b b4 e5 8c bb 90 e5 80 bb 15 1e 95 bb
       0.004796988 -0.0042998437 -0.003933616 -0.004550705
000120 d3 20 e2 38 b9 a7 51 3b 23 18 ca 3a 6c f9 e1 39
       0.00010782634 0.003199084 0.001541857 0.00043101178
000130 83 81 d7 3b c5 f5 5a ba a3 60 18 bb 28 71 57 3b
       0.0065767183 -0.00083526626 -0.002325096 0.0032873843
000140 a9 6a 40 3b c2 9d 94 bb d1 8a a1 3b ba 2f e6 ba
       0.002936045 -0.0045354078 0.0049298783 -0.0017561831
000150 e1 5a a7 3b 89 08 7c 3b b4 52 e7 3a 86 9a d4 3a
       0.005107269 0.0038457236 0.0017648549 0.0016220368
000160 52 22 2d bb b0 03 b6 3b be f0 8a 3b 78 c3 e8 b8
       -0.0026418162 0.005554639 0.0042401245 -0.00011099031
000170 e4 aa c8 39 35 10 ea 3a d8 2b ae bb c4 0a 72 3a
       0.00038274296 0.0017857613 -0.005315285 0.00092331716
000180 75 9a 59 bb f6 67 bb bb 00 90 ca 33 9a 5c 2c bb
       -0.0033203636 -0.00571918 9.4325515e-08 -0.0026300312
000190 9b 3c 6c 3b cd 0d da 3b ec d4 20 ba 32 a0 28 3c
       0.0036046866 0.006654477 -0.00061352435 0.0102921
0001a0 a9 2d 70 3b 6e 5c 08 bc b7 89 a2 ba 2a 5f d9 3b
       0.003664831 -0.008322818 -0.0012400661 0.006633659
0001b0 6c 67 99 3a 15 12 45 bb 4e 78 b9 3b 4b f0 26 3b
       0.0011703796 -0.0030070592 0.0056600934 0.0025472816
0001c0 00 42 88 bb f6 b9 8a bb e6 07 0a bb 2e 3e a1 ba
       -0.0041582584 -0.004233594 -0.0021061837 -0.0012301856
0001d0 98 0f dc bb 3b fa 07 3b 45 36 a9 ba ee 60 37 bb
       -0.006715726 0.0020748514 -0.001290985 -0.0027981359
0001e0 16 70 8f 3a 7b 38 29 bb 1d 3d d4 3a 5a 8a a7 ba
       0.0010943438 -0.0025821018 0.001619253 -0.0012782321
0001f0 1a 58 b1 ba f8 6a 45 bb 3c dd c9 39 0c 61 27 3c
       -0.0013530285 -0.0030123573 0.0003850254 0.010216009

action_model._continuous_distribution.log_sigma f4 [1, 2]
000000 a9 53 21 3c 3a 21 2f bc
       0.009846606 -0.010689074

action_model._continuous_distribution.mu.weight f4 [2, 128]
000000 b8 bc d8 3a f6 40 1f bc b3 69 95 bc bb 91 32 bb
       0.0016535735 -0.009720078 -0.018238878 -0.0027247507
000010 f2 dd e6 3a 97 0e 32 bd 82 37 c3 3b 10 63 db 3c
       0.0017613752 -0.043470945 0.005957545 0.026780635
000020 9c a2 16 3c 94 dd 50 3c f7 56 00 bd f7 9c 1f 3d
       0.0091940425 0.012748141 -0.031332936 0.038968053
000030 26 f7 95 39 58 88 1c bc a2 1b 06 3d af 7c 9b 3c
       0.00028603635 -0.009553991 0.032741196 0.018980352
000040 fa 69 23 bc 84 86 0e bc f4 3b 52 3c 1d 2e f5 bb
       -0.009973997 -0.008699063 0.012831677 -0.007482304
000050 b7 8b b8 3a 67 45 63 bb 0c 4d 02 ba 9c 02 ea 3b
       0.0014079724 -0.0034678818 -0.00049705873 0.0071414243
000060 56 16 9f bc e5 b3 f0 3a e0 5f 68 ba c2 f1 de bc
       -0.01941983 0.001836416 -0.0008864384 -0.027214888
000070 07 e7 39 bc fe f8 13 3c ec d3 4c 3c 96 59 a4 bc
       -0.011346585 0.009031532 0.012501698 -0.02006225
000080 de b6 d6 3c 92 1c 2a bc 6f 4f b5 3c 5b 7b fc 3c
       0.026210245 -0.010382788 0.022132603 0.03082054
000090 1f f3 e1 3b cb f7 40 bc fe bf b4 3c a5 b4 38 bb
       0.0068954374 -0.011777828 0.022064205 -0.0028183844
0000a0 fb a4 51 bb 42 ca 02 bd fc 6f 37 bc 5d 82 38 bc
       -0.0031989205 -0.03193117 -0.011196133 -0.01126155
0000b0 8b 6b d4 bc 87 e6 8d 3c 29 d9 35 3d 07 cc 17 3d
       -0.025930187 0.017321838 0.044396553 0.03705981
0000c0 a8 c1 c9 bb 38 a7 b0 bc 10 b7 ad 3c c1 6a e4 bc
       -0.006157119 -0.021564111 0.021205455 -0.027882935
0000d0 95 d2 ac bc 94 54 6d bb 4b 45 64 bb 2b 10 0c bd
       -0.021096507 -0.0036213743 -0.003483134 -0.034195106
0000e0 90 21 44 bb 98 2c fb 3b 0f 65 67 3c 99 9a 1e bc
       -0.0029927231 0.007665228 0.014123215 -0.009680414
0000f0 31 39 f4 bb 17 fe 3b 3a 8d 8e ed 3b 41 01 2b bc
       -0.007453107 0.0007171346 0.0072496594 -0.010437311
000100 89 65 87 ba e9 ed 8a bb cc 98 db bb ed 9b 34 bc
       -0.0010329942 -0.004239787 -0.0067015644 -0.011023504
000110 91 4b 9c 3c f0 3e 91 bc a5 02 9f bc d5 c7 e4 bc
       0.019079002 -0.017730206 -0.01941044 -0.027927319
000120 3a 77 c6 bc 5b 80 0f 3c ba 76 29 3c f8 7a 36 bd
       -0.024226774 0.00875863 0.010343248 -0.044550866
000130 e3 06 40 bc 32 96 33 39 e1 19 88 3c fd ac 9a 3c
       -0.011720392 0.00017126722 0.016613903 0.018881315
000140 12 53 c6 bc c7 9e f2 3b b4 c7 f5 3c 93 36 c8 bc
       -0.024209533 0.0074041816 0.030002452 -0.024440086
000150 02 bb d3 3c 3b 23 61 bb 8d 95 d1 ba b0 95 a8 3a
       0.025846008 -0.0034353274 -0.0015990004 0.0012861993
000160 5b fe ab bb d0 bc 68 3c eb ee d5 bc 58 ce a5 3c
       -0.0052488274 0.014205173 -0.026114902 0.020239994
000170 93 d2 1f bc 3b 88 88 3c fb 71 7f bc 0b 3b f1 3b
       -0.009754795 0.016666522 -0.01559114 0.007361775
000180 80 b2 06 bd 0c 1c 41 3c 84 be 47 bc ac 86 d3 bc
       -0.032885075 0.011786472 -0.012191419 -0.025821052
000190 54 86 85 3b 7e 27 ff 3c a7 d0 c9 bb fc 74 a4 3c
       0.004074851 0.031146761 -0.0061589065 0.020075314
0001a0 9e 43 87 3c 9a 8b 17 bd 68 6c 91 3b 91 b1 20 3d
       0.016511735 -0.03699837 0.004437972 0.03923184
0001b0 f1 96 2b bd 88 bc 35 b7 50 bd b6 3a b3 f8 5b 3c
       -0.041891996 -1.0832337e-05 0.0013941918 0.013425994
0001c0 48 4d 8c bc 0f 80 a9 bb 35 f2 c6 bc 51 be 58 bc
       -0.017126694 -0.0051727365 -0.024285415 -0.013228969
0001d0 08 08 c4 bc b7 fb be 3c d4 47 80 bc d9 d8 c0 bc
       -0.02392961 0.023313386 -0.01565925 -0.023540901
0001e0 c9 2c 82 3c 57 c9 d6 bb 63 90 4f bc 17 4a 10 3c
       0.015890496 -0.0065547633 -0.012668702 0.008806727
0001f0 cf 81 6d bc b4 ae 75 bc ce 99 fb 39 da 9c e1 3c
       -0.014496281 -0.014995266 0.00047989044 0.027540613
000200 48 11 ca ba 7e af ac bc 53 3b ef bc bf ec f1 3b
       -0.0015416527 -0.021079775 -0.029203093 0.0073829587
000210 c2 c0 de 39 e8 90 92 3c b0 79 3c 3c 2c 3f 55 3c
       0.00042486755 0.017891362 0.011503622 0.01301555
000220 e1 f1 df bc ed 4f 40 bb 64 3f c2 bc 5a f4 d1 3c
       -0.027337017 -0.0029344514 -0.023711868 0.025629211
000230 c9 ff a0 bb eb b7 2b 3b f3 a7 9c bc 9f 52 a5 3c
       -0.0049133045 0.0026202153 -0.019123053 0.020180998
000240 2b c4 4d bd f4 37 f0 3b 75 7c 38 3d a5 86 06 bd
       -0.05023591 0.007330889 0.045040566 -0.03284325
000250 56 72 a7 3b a0 36 8d 3c 5c 6b 50 bc 47 a6 02 bb
       0.0051100655 0.017237961 -0.012720909 -0.0019935535
000260 ea bc b4 bc 7f fa 16 3c 2b 7e 15 3b 49 9b 9a 3c
       -0.022062737 0.009214996 0.0022810798 0.018872874
000270 d4 7d f2 bb a2 f5 b6 3c 93 b6 aa bb 4a 12 08 3d
       -0.007400254 0.022333924 -0.005209753 0.033220567
000280 16 57 76 bc 74 d6 13 bd 16 6a 29 bd 08 02 a4 ba
       -0.015035411 -0.03609319 -0.041360937 -0.0012512812
000290 76 20 e5 bc cf bf 25 bd b6 7d 6d 3b 00 5d ae bc
       -0.02796958 -0.040466126 0.003623826 -0.02128458
0002a0 ac ae 0e 3b 2b 32 6c 3b c9 cd 8a bc eb ce c2 bb
       0.0021771593 0.0036040645 -0.01694383 -0.0059450767
0002b0 02 7b d5 3c e2 d0 99 ba 58 75 ab 3c 10 66 87 3c
       0.026059631 -0.0011735226 0.020929977 0.01652816
0002c0 24 9f 24 3b db bf cd 3b 01 6e 76 3c 64 48 b5 3c
       0.002511927 0.0062789745 0.015040875 0.022129245
0002d0 f8 a1 72 bc 65 12 06 3d bc 11 1e bc 6f 64 8c bc
       -0.014809124 0.032732386 -0.009647783 -0.017137734
0002e0 6c 2e 3e bc 9f 2f 96 ba 05 b8 bd 3c 81 92 30 bc
       -0.0116077475 -0.0011458284 0.023159036 -0.010777117
0002f0 83 3e 28 bd 3c d3 12 b8 57 9f 9c bc 7c 51 4c 3c
       -0.04107524 -3.500584e-05 -0.019118948 0.012470599
000300 32 41 98 bb 71 33 9a bc 0a 59 ac bc ae b4 bb ba
       -0.0046464438 -0.018823357 -0.02103855 -0.0014320815
000310 ad ed 4f 3c 75 51 7f bc e5 55 dd bb af 6e 19 bc
       0.012690944 -0.015583386 -0.006754624 -0.009364768
000320 03 7b f4 3c b5 b3 05 bd ce 56 35 bb 10 5d 6b bc
       0.029843813 -0.032642085 -0.0027670148 -0.01436545
000330 b2 e1 4b bc 56 e1 50 bc d7 bc a2 3b a2 f0 f7 bc
       -0.012443947 -0.012749037 0.004966359 -0.03026611
000340 f0 c2 03 bd f2 10 e8 bc 92 6a ec bc 8f af ef bc
       -0.03216833 -0.028328393 -0.02885941 -0.029258518
000350 4e 1d 8d 3c fe db 02 bd 57 8d af 3c 71 4f 7b bc
       0.017225888 -0.031948082 0.0214297 -0.0153387645
000360 cd 8b 16 bb 20 a4 89 bc d3 27 e4 3c 03 cb 32 bc
       -0.0022971511 -0.016801894 0.02785102 -0.01091266
000370 ff 41 da 3a 32 bd 5c bb 34 24 f4 3b 66 f9 6f bc
       0.0016651748 -0.0033682105 0.007450605 -0.014646864
000380 1d 83 3c 3d 1b e1 a7 3c 7e 15 bf 3a 3f a8 b8 3a
       0.046023477 0.02049308 0.0014578549 0.0014088227
000390 75 c8 c8 3c b9 a2 c7 bc b6 d6 fe 3b 61 0c b0 bc
       0.024509648 -0.024369584 0.0077770604 -0.021490278
0003a0 55 d0 38 bc 9e ee 5d bc 63 fb b1 bc f5 15 4e bc
       -0.011280139 -0.01354566 -0.021726316 -0.012578477
0003b0 e6 fe dd bc 9c f1 d9 3c a4 4c c6 bc 95 8c 9c 3a
       -0.027099084 0.026604466 -0.024206467 0.0011943752
0003c0 fc f5 84 3c d2 c2 c2 bc d9 10 25 bb 54 9b b6 3c
       0.016230576 -0.023774538 -0.0025187044 0.022290863
0003d0 d1 04 0e ba 6d a4 83 bc 06 77 4b bc 97 d5 0d 3d
       -0.0005417588 -0.016069615 -0.012418514 0.034627523
0003e0 e6 39 c4 3c 4a 55 d3 bb 91 68 ec 3a e8 94 a2 3c
       0.02395339 -0.0064493762 0.0018036534 0.019846395
0003f0 3f 67 90 bc 5b a3 b4 3c 16 71 27 bc bc 90 64 3c
       -0.017627357 0.02205055 -0.010219833 0.013950523

action_model._continuous_distribution.mu.bias f4 [2]
000000 e9 57 5a 3b 3f 6c 47 ba
       0.0033316559 -0.00076073775

action_model._discrete_distribution.branches.0.weight f4 [1, 128]
000000 68 2b d4 bb 97 07 64 3c 87 3c 2f bc 85 b0 fe 3b
       -0.006474901 0.013917825 -0.010695583 0.0077725076
000010 e3 d7 86 3b 7b d0 f7 bb 7a d6 df b9 40 bc 29 bc
       0.004115091 -0.0075626946 -0.00042693672 -0.010359824
000020 e8 c9 da bb 02 1d 43 3c f3 2d 23 3b 0d e4 4b bc
       -0.006676901 0.0119087715 0.0024899214 -0.012444508
000030 85 65 66 3c 7f 8c b4 3a f4 b3 87 3c 7b 8a d4 b9
       0.01406229 0.0013774781 0.0165653 -0.00040538967
000040 6f be c3 bb b3 18 d6 bc 45 3d 61 ba 8b c6 32 bb
       -0.005973629 -0.026134824 -0.0008592199 -0.0027278985
000050 ba 83 8a 3c 9b 8d 1c 3c b7 ee 06 bc e3 43 46 ba
       0.016908515 0.009555246 -0.008235625 -0.00075632165
000060 a9 c3 bd bb e3 c2 83 3a 7b 17 5a bb 41 32 cb 3c
       -0.005791147 0.0010052588 -0.0033278156 0.024804236
000070 fe c6 47 bc d8 dd 5b bb d7 9b 90 bc c3 01 a0 bb
       -0.0121934395 -0.0033548977 -0.017652435 -0.0048830225
000080 69 9d 9c bb 12 86 22 3c 54 6f 2c bc da af 6b bc
       -0.004779507 0.00991966 -0.01052459 -0.014385188
000090 8b f4 95 ba 53 52 7c bb 2a f4 db 3b db 63 07 bc
       -0.0011440677 -0.0038501217 0.0067124562 -0.0082635535
0000a0 ed 11 e9 3b ca 85 e3 3c bf a0 90 3c 67 1d c0 3b
       0.0071127326 0.027773757 0.017654775 0.00586288
0000b0 e2 fd 78 bc 8b 17 29 bc ff 17 2c 3c a7 16 88 bc
       -0.015197249 -0.0103205545 0.010503768 -0.016612364
0000c0 63 cd d5 ba f8 68 8d b9 68 34 64 39 58 ce 75 bb
       -0.001631182 -0.00026971824 0.00021763297 -0.0037507024
0000d0 98 6f 57 3b 5e 81 a3 3b 6b 59 d7 3b b3 49 da ba
       0.0032872912 0.004989787 0.0065719387 -0.0016654044
0000e0 b0 0a ea bb a1 29 1f 3c f2 61 58 3c 3d 31 8e 3b
       -0.0071423873 0.009714515 0.013206946 0.0043393658
0000f0 10 9c 1f bc df 82 10 3c 45 7f df bb b5 d5 d3 ba
       -0.009741798 0.008820265 -0.0068205916 -0.0016161712
000100 87 07 cc bb ed 3a 1d 3a f3 8e 15 bc c7 7c a8 bb
       -0.0062264833 0.00059978553 -0.00912832 -0.0051418277
000110 77 31 3e bb 41 22 30 bc bb 1c 0e 3b 19 3d 3d 3c
       -0.0029021183 -0.010750354 0.0021684605 0.011550211
000120 55 f5 a4 bb 12 d3 f0 ba b8 cc 64 bb 96 81 9b bb
       -0.0050341287 -0.0018373451 -0.003491206 -0.0047456725
000130 1a 17 1e 39 da a9 ed b8 21 93 39 bc f3 f2 4e 3b
       0.0001507666 -0.00011332678 -0.011326582 0.0031577914
000140 42 12 57 3c 90 de 5b 3b 15 3c ca bb 7f 9b ec 3b
       0.013126912 0.0033549406 -0.006171713 0.007220685
000150 43 27 ff 3b cb 6c 06 bc ab 14 04 bc 47 10 1b 3b
       0.007786663 -0.008204649 -0.008061568 0.0023660825
000160 cf 01 03 bc f8 5b d1 39 67 20 a7 3a 22 ff 8e 3b
       -0.007996037 0.00039932108 0.0012750746 0.0043639103
000170 86 35 a6 ba 88 eb b0 3b 78 68 fe bb 3b 63 ee ba
       -0.0012680746 0.0053991713 -0.0077639185 -0.0018187532
000180 0f 49 17 bc 96 4d a4 bb cb fe c3 ba 72 e1 9f 3b
       -0.009233727 -0.005014132 -0.0014953254 0.00487917
000190 9f 01 8e bb ba e8 45 bc 02 40 08 3c c0 99 6c bc
       -0.0043336893 -0.012079412 0.008316042 -0.014440954
0001a0 8b c6 83 bb 0b ea 5e 3b 08 ef bb 3b d1 0c 97 3a
       -0.004021471 0.0034014012 0.005735282 0.0011524205
0001b0 a3 ba 2e 3b 8e 96 49 3b 4a 3d 5a bb 0a a7 f6 3a
       0.0026661537 0.0030759904 -0.0033300691 0.0018818092
0001c0 39 4b 21 3b e6 6f 80 39 59 e3 2f bb 8e 19 96 bb
       0.0024611487 0.00024497433 -0.002683839 -0.004580683
0001d0 bc d2 a2 bc e2 10 e7 3b ad f2 c8 bb 3b 19 c4 3b
       -0.019875877 0.007051573 -0.006132445 0.005984453
0001e0 f3 ef 10 3c 83 2c b4 bb eb 2e ab ba 5b f4 df 3b
       0.008846271 -0.0054984703 -0.0013060247 0.0068345494
0001f0 52 3b 83 bb 1b 47 37 3b a5 10 3e bc 7b a2 a3 bb
       -0.0040048743 0.0027965966 -0.011600648 -0.0049937344

exp_avg f4 [128, 18]
000000 5f 14 91 b8 f9 f4 43 38 a4 77 08 38 7d af 0f 38
       -6.917933e-05 4.671977e-05 3.253635e-05 3.4257293e-05
000010 77 b5 d4 b7 2d 1c 30 38 1f 59 f0 b7 5e ff b3 b8
       -2.535687e-05 4.198791e-05 -2.865173e-05 -8.582951e-05
000020 58 ff 81 38 62 67 0f 38 24 1f e6 b8 af 24 33 b8
       6.198761e-05 3.419014e-05 -0.00010973055 -4.271109e-05
000030 ad f0 63 38 8c 31 dd b8 5c c1 4a 38 91 1c 48 38
       5.4345164e-05 -0.0001054733 4.8340633e-05 4.771032e-05
000040 0e 7e 58 b8 4a a0 b0 38 3e b9 89 36 08 01 14 38
       -5.161581e-05 8.42219e-05 4.104483e-06 3.528691e-05
000050 08 a0 64 b8 8a 49 20 b8 f6 15 5a 37 e1 37 38 b8
       -5.4508477e-05 -3.821546e-05 1.2998926e-05 -4.392106e-05
000060 b5 a2 05 38 71 9a 01 38 24 9d ab b7 5d 17 25 38
       3.1861204e-05 3.089983e-05 -2.0457963e-05 3.9360824e-05
000070 f4 4e 6b 36 21 a5 14 38 88 89 87 38 99 5a 08 b8
       3.5063686e-06 3.5439738e-05 6.462919e-05 -3.2509302e-05
000080 ee ba 88 36 90 c4 e5 b6 89 6a fc b7 db 55 31 38
       4.0748773e-06 -6.8476147e-06 -3.009035e-05 4.2280048e-05
000090 2a db ed 38 70 64 c6 b8 db 11 6f b8 db da ae 37
       0.00011341863 -9.460084e-05 -5.699867e-05 2.0844329e-05
0000a0 33 36 8f b7 14 49 9b 35 a8 14 a1 b6 b8 c0 25 b8
       -1.7072167e-05 1.1569668e-06 -4.8005786e-06 -3.951855e-05
0000b0 7f 9a 29 37 f5 49 31 37 b2 21 02 37 39 10 38 b8
       1.0109156e-05 1.0567242e-05 7.756449e-06 -4.3884127e-05
0000c0 a1 60 3e b8 9d 1f fe 37 8c 8e f2 37 bf 21 8e b8
       -4.5389523e-05 3.029388e-05 2.8915027e-05 -6.777373e-05
0000d0 ca 7e 0c 38 84 93 49 38 40 0e f2 37 41 70 6d 39
       3.3496683e-05 4.805952e-05 2.8855284e-05 0.00022643899
0000e0 5e af 5d 38 e7 a6 91 b7 36 53 d8 37 23 dd 1f b4
       5.285383e-05 -1.7363067e-05 2.5787955e-05 -1.4888478e-07
0000f0 6a ff c1 38 da 75 b7 38 58 11 bd b8 2c 6e de 37
       9.250532e-05 8.7480716e-05 -9.015453e-05 2.6515765e-05
000100 fa 4a 4b b8 4b d9 9f 38 99 e2 13 b9 35 35 f0 b8
       -4.84688e-05 7.622185e-05 -0.00014103427 -0.000114540024
000110 d0 f8 e5 b7 f7 4b 55 37 4d 7a c7 b8 2a 6a 5f b8
       -2.741479e-05 1.2713476e-05 -9.51184e-05 -5.3266216e-05
000120 7d f1 99 b7 5b 2c 57 b8 cf ac 59 b8 fa 36 85 37
       -1.8351473e-05 -5.1301304e-05 -5.1897772e-05 1.5880436e-05
000130 94 60 e2 b6 1e 71 10 b8 e2 f8 89 b8 d6 56 14 38
       -6.746568e-06 -3.4437624e-05 -6.579027e-05 3.5366822e-05
000140 a0 e2 3d 38 8d eb 8c b7 12 a5 a8 38 eb f9 d2 b7
       4.5272172e-05 -1.6798987e-05 8.041611e-05 -2.5150328e-05
000150 8c e3 7f b8 26 12 8d 38 03 24 b8 37 b8 03 22 38
       -6.1008657e-05 6.726784e-05 2.1951279e-05 3.8627273e-05
000160 ab 63 81 38 b0 6a 65 38 e7 29 33 b7 ab 79 79 b8
       6.169764e-05 5.4697215e-05 -1.0678988e-05 -5.947954e-05
000170 bf 0d 04 37 a9 61 54 37 d6 0d 6c b7 f8 a8 11 37
       7.871014e-06 1.2658923e-05 -1.4069918e-05 8.682015e-06
000180 ec 19 54 b8 28 3e 04 b8 f2 19 89 38 45 b9 bd b8
       -5.056888e-05 -3.152914e-05 6.537502e-05 -9.0467314e-05
000190 ff 23 94 b7 17 9e cf b7 e7 ae 1b 38 b9 35 ba 37
       -1.7659737e-05 -2.474994e-05 3.711777e-05 2.2197944e-05
0001a0 6c a9 13 38 05 0c 37 b7 af 0d 15 38 11 e4 e7 37
       3.5205318e-05 -1.09104485e-05 3.5537112e-05 2.7643548e-05
0001b0 07 db 01 b8 2a ca 44 38 33 61 01 38 3c ee 8b 38
       -3.095998e-05 4.691832e-05 3.084652e-05 6.672411e-05
0001c0 69 e1 b7 b7 4f c5 6c b8 53 05 96 38 45 e8 f7 b8
       -2.1920265e-05 -5.6450543e-05 7.153549e-05 -0.000118211414
0001d0 b7 19 00 38 37 c3 ca b7 36 16 2e b8 9c 46 5a b7
       3.0541527e-05 -2.417118e-05 -4.150552e-05 -1.3010253e-05
0001e0 69 66 57 b8 40 43 f9 b8 1d e0 ba 38 a0 fd 43 39
       -5.135537e-05 -0.000118857715 8.9109155e-05 0.00018691132
0001f0 26 3d 24 b9 49 45 0e 39 0b f2 94 38 8e 73 43 38
       -0.00015663038 0.00013567986 7.102274e-05 4.659924e-05
000200 83 53 2a 39 b4 84 90 38 8c a9 e9 b7 95 2d 3c 37
       0.00016243574 6.891173e-05 -2.7854716e-05 1.1216286e-05
000210 21 0b f9 38 cc b2 f2 b6 84 73 8e 38 0c 3c 03 b9
       0.00011875318 -7.2329767e-06 6.792604e-05 -0.00012515503
000220 37 73 63 b8 c2 83 4b b8 f7 55 3a b8 5f e3 ae b8
       -5.422832e-05 -4.852168e-05 -4.4425917e-05 -8.339318e-05
000230 74 1d 96 38 07 07 f3 37 67 3c da 36 7c 76 b5 b7
       7.1580434e-05 2.897113e-05 6.503938e-06 -2.1632055e-05
000240 55 22 23 b9 b0 25 8c b8 58 5b 31 37 e0 49 d4 38
       -0.00015557681 -6.68274e-05 1.057129e-05 0.00010122708
000250 12 2f dd b7 4e e8 c6 37 0b 33 23 b9 b7 21 b5 b8
       -2.6367172e-05 2.3711615e-05 -0.00015563906 -8.6370324e-05
000260 f5 cd 25 38 95 b4 66 b8 c3 06 33 b8 bb a9 09 b8
       3.9530878e-05 -5.5004453e-05 -4.2683223e-05 -3.282142e-05
000270 e5 cc 54 b7 20 67 8d b7 94 e5 f2 38 eb 21 03 39
       -1.268389e-05 -1.6856531e-05 0.000115822215 0.00012505769
000280 04 da d6 37 2b 31 dc 38 d5 c6 50 38 92 bc 85 b8
       2.561231e-05 0.00010499576 4.977624e-05 -6.377058e-05
000290 7c 4d c8 37 a8 3e 13 b8 f9 42 55 38 8f ca 96 b3
       2.387794e-05 -3.5105884e-05 5.084553e-05 -7.0217645e-08
0002a0 99 df 41 38 fb 6b c9 b6 e3 d3 89 b7 56 22 81 39
       4.6223027e-05 -6.0028374e-06 -1.643034e-05 0.0002463038
0002b0 0d 04 92 38 27 7e b5 38 6b 4a ac 38 64 48 37 b6
       6.962577e-05 8.65425e-05 8.2154605e-05 -2.7311262e-06
0002c0 78 3f f6 b8 d0 b4 66 b8 c9 e7 19 b9 c3 68 d3 b8
       -0.00011742016 -5.5004668e-05 -0.00014677564 -0.000100807774
0002d0 ca cb cd b8 49 10 23 b8 8f db 1a b9 09 18 b3 b7
       -9.8131204e-05 -3.8877395e-05 -0.00014768376 -2.1349655e-05
0002e0 be 61 53 b6 2c e9 a4 b7 9c a2 6e b8 cf 59 0c b8
       -3.1498344e-06 -1.9658903e-05 -5.6895064e-05 -3.3462242e-05
0002f0 c5 8b 28 37 05 d4 af 37 2d ae 8d 38 19 52 2e 37
       1.0046123e-05 2.0960355e-05 6.755847e-05 1.0390323e-05
000300 43 56 9e b7 53 56 a0 b7 80 b5 83 38 f0 81 31 38
       -1.8875236e-05 -1.9113684e-05 6.280374e-05 4.2321102e-05
000310 57 67 e9 b7 8c f2 13 39 51 72 3c b9 b6 d5 d0 b9
       -2.7823886e-05 0.00014109368 -0.00017971663 -0.0003983208
000320 13 1e 2b b9 89 48 87 36 d1 23 8f b8 e7 e5 0c b7
       -0.00016319034 4.0317577e-06 -6.825443e-05 -8.398179e-06
000330 a1 78 7f b9 84 a7 8b b9 96 c6 eb 38 e5 53 23 b8
       -0.00024363633 -0.00026636955 0.00011242663 -3.894036e-05
000340 da 60 06 39 b1 36 e5 b8 cb 2c 53 39 19 02 15 39
       0.00012815316 -0.00010929758 0.00020139215 0.00014210529
000350 1e c5 10 b7 3a 8c ba b8 e4 43 be 38 fd b4 c9 38
       -8.628964e-06 -8.8952904e-05 9.0725516e-05 9.6181386e-05
000360 fc 63 e6 37 13 40 d7 b6 c4 69 19 37 2e e0 23 b7
       2.7464695e-05 -6.4149585e-06 9.144136e-06 -9.767753e-06
000370 3b e5 19 b6 10 a0 98 35 16 39 4e 36 55 8b 8c 37
       -2.2932206e-06 1.1371467e-06 3.072962e-06 1.6754182e-05
000380 7f e4 04 37 b7 b3 92 b7 f0 cf b9 36 09 93 a3 37
       7.921014e-06 -1.7488243e-05 5.5376368e-06 1.9499583e-05
000390 13 86 39 b8 55 10 11 38 02 7b 82 b7 2c d0 9e b7
       -4.4232303e-05 3.4585904e-05 -1.5554488e-05 -1.8932005e-05
0003a0 b2 5b 3e 38 b8 68 07 b8 d0 70 4f b9 04 3a 2a b9
       4.5384928e-05 -3.2284035e-05 -0.00019783084 -0.00016234076
0003b0 91 fb b4 b8 ec b8 ab 37 4e 4f b9 b7 1a 9c 99 37
       -8.629927e-05 2.04709e-05 -2.2090648e-05 1.8311712e-05
0003c0 76 d9 7c b9 eb c3 10 b9 3d d1 38 38 c0 6e 77 39
       -0.00024113603 -0.00013805895 4.4063887e-05 0.00023597013
0003d0 59 01 88 38 be 93 89 b8 75 76 3d 39 8a e4 39 b8
       6.4852364e-05 -6.560188e-05 0.00018068573 -4.432028e-05
0003e0 f6 bf 28 36 ae c3 28 b8 8b 24 15 b8 52 80 74 38
       2.5145687e-06 -4.0236562e-05 -3.55584e-05 5.829364e-05
0003f0 2e bb 0c 38 d6 af 5e b9 93 10 30 37 28 7d 59 37
       3.3552926e-05 -0.00021237074 1.04942765e-05 1.2963348e-05

exp_avg_sq f4 [128, 18]
000000 62 17 f0 33 ae 59 83 33 bf 86 a9 33 cf 35 5c 33
       1.1180124e-07 6.1164755e-08 7.894186e-08 5.127168e-08
000010 9d 80 e8 32 c3 6d 5e 33 df 3a 99 33 1c b9 c0 33
       2.7066841e-08 5.178823e-08 7.135326e-08 8.974368e-08
000020 b8 28 c2 33 18 bf cb 33 b1 21 a5 33 4a 47 bf 33
       9.041236e-08 9.487684e-08 7.68954e-08 8.907098e-08
000030 cb 53 9e 33 e2 bc 93 33 b7 91 cb 33 d3 41 b0 33
       7.37269e-08 6.8795785e-08 9.4794295e-08 8.207612e-08
000040 35 d5 b3 33 50 ea 9a 33 eb 77 4a 33 35 89 2e 33
       8.374119e-08 7.213805e-08 4.7140855e-08 4.063732e-08
000050 84 99 3f 33 3e 29 fe 32 20 88 90 33 81 0d 6f 33
       4.4610275e-08 2.9588247e-08 6.7302835e-08 5.5658806e-08
000060 1f ea 11 33 08 50 85 33 9a b5 1f 33 50 b9 35 33
       3.3973375e-08 6.207853e-08 3.7185238e-08 4.2310887e-08
000070 18 a5 3f 33 12 c9 0a 33 5c 00 2f 33 68 24 8e 33
       4.4620805e-08 3.23135e-08 4.074569e-08 6.6190125e-08
000080 fa e0 2d 33 cd c8 20 33 ea 09 8b 33 96 f1 0e 33
       4.0484316e-08 3.743553e-08 6.474495e-08 3.3281673e-08
000090 22 24 08 34 b1 4d b9 33 2f 74 00 34 a8 93 4a 34
       1.2679132e-07 8.628866e-08 1.1963196e-07 1.8866433e-07
0000a0 99 ef 28 35 0c ca 0f 35 27 c4 eb 33 f3 06 ad 34
       6.293354e-07 5.356567e-07 1.097872e-07 3.2228817e-07
0000b0 ff bb c3 33 26 56 f5 33 d5 b5 0d 34 d2 95 c9 33
       9.1145914e-08 1.1424372e-07 1.3197798e-07 9.387044e-08
0000c0 e1 c5 e9 33 62 e2 93 34 c5 4b 14 34 ab a3 25 34
       1.0885902e-07 2.75456e-07 1.3811139e-07 1.5426365e-07
0000d0 fe c9 a7 34 62 d4 de 33 47 39 14 33 2f 1a aa 33
       3.1253143e-07 1.0376313e-07 3.451103e-08 7.921005e-08
0000e0 31 df 00 33 f9 25 fd 32 62 43 bf 32 f4 22 eb 32
       3.0005314e-08 2.9470344e-08 2.2265969e-08 2.7373495e-08
0000f0 c6 95 48 33 2c cf 7f 33 84 d4 41 33 99 77 4c 33
       4.6702347e-08 5.9560236e-08 4.5129596e-08 4.7606225e-08
000100 e4 43 2d 33 3a 9a 1c 33 86 ad 2d 33 e4 81 86 33
       4.0341448e-08 3.646185e-08 4.043752e-08 6.263488e-08
000110 40 d1 40 33 19 7b eb 32 60 89 b1 33 93 9d 00 33
       4.4893795e-08 2.7413579e-08 8.267193e-08 2.9945635e-08
000120 02 bb 11 33 7d af 4a 32 0e a2 0b 33 90 5d a3 32
       3.3930526e-08 1.1797849e-08 3.2510847e-08 1.9018245e-08
000130 f5 87 20 33 63 8b 0c 33 2b cf df 32 03 99 19 33
       3.7376555e-08 3.272306e-08 2.6054826e-08 3.5762252e-08
000140 af 12 c8 32 a5 cc db 32 98 f7 cf 32 9e 93 d6 32
       2.329156e-08 2.5588017e-08 2.4210564e-08 2.4980007e-08
000150 79 fa f3 32 93 fe 0c 33 a1 50 fb 32 0e a2 f2 32
       2.8402825e-08 3.2827824e-08 2.9256912e-08 2.8246202e-08
000160 44 52 01 33 f0 b3 d2 32 b0 a7 fc 32 6e d8 db 32
       3.0109973e-08 2.4529044e-08 2.9412917e-08 2.5593376e-08
000170 6a 3f dc 32 9c 95 03 33 7b c3 8d 33 b6 59 8b 33
       2.5640208e-08 3.0636883e-08 6.601382e-08 6.48901e-08
000180 d1 d9 04 33 fb 5e b4 33 9d a4 f0 32 0d bb 1c 33
       3.0931748e-08 8.39918e-08 2.8014535e-08 3.6491702e-08
000190 3f 85 13 33 96 9e fc 32 6a b0 f6 32 e4 a1 9f 33
       3.434729e-08 2.9408778e-08 2.8718393e-08 7.433462e-08
0001a0 ec ab 16 33 14 4c 14 33 a4 e7 a6 33 4d 0d d7 32
       3.508096e-08 3.4528128e-08 7.7721126e-08 2.5035343e-08
0001b0 92 c0 91 33 6c 4e 1f 33 1c de 9a 33 5e 15 1d 33
       6.787117e-08 3.7091397e-08 7.211585e-08 3.6573844e-08
0001c0 94 78 ca 32 8f 34 f8 32 4a 5e 3c 33 5c ed 5f 33
       2.3570728e-08 2.88949e-08 4.3857916e-08 5.213711e-08
0001d0 6a d2 82 33 f3 12 61 33 07 53 93 33 0c dc 6d 33
       6.091871e-08 5.240413e-08 6.8603235e-08 5.5380994e-08
0001e0 85 78 78 33 fd d7 67 33 59 af 99 33 12 9a 60 33
       5.785161e-08 5.398032e-08 7.156513e-08 5.229419e-08
0001f0 98 4b 64 33 2a e8 4a 33 a0 86 9b 33 5d 73 3f 33
       5.315414e-08 4.7242942e-08 7.242238e-08 4.4575575e-08
000200 ac 13 a5 33 1d 00 71 33 ee 4a a0 33 60 ec ab 33
       7.6869895e-08 5.6112288e-08 7.46421e-08 8.0058044e-08
000210 e0 b3 98 33 41 b9 a3 33 8f 64 8b 33 4c 68 a0 33
       7.1107706e-08 7.6239765e-08 6.4909834e-08 7.469552e-08
000220 71 e8 94 33 4e d6 9f 33 d3 42 8f 33 17 d7 6d 33
       6.934068e-08 7.442996e-08 6.671112e-08 5.5376486e-08
000230 59 8d 96 33 9b 47 a0 33 db 01 99 33 36 8d 4c 33
       7.01063e-08 7.4636056e-08 7.124955e-08 4.7625882e-08
000240 ab 2b 9a 33 48 54 32 33 e0 fd a0 33 98 14 76 33
       7.179127e-08 4.1520508e-08 7.49676e-08 5.729507e-08
000250 55 a3 28 34 07 b9 12 34 63 35 6e 33 4c 31 db 33
       1.5705639e-07 1.3664622e-07 5.5462248e-08 1.0206949e-07
000260 40 1d 59 33 8a 7f 75 33 83 84 a0 33 6d 60 37 33
       5.0550852e-08 5.7159504e-08 7.474684e-08 4.2695707e-08
000270 8a 75 7a 33 da 56 a8 33 30 af 9c 33 13 c9 91 33
       5.8314562e-08 7.838908e-08 7.2961825e-08 6.788664e-08
000280 0f 9a eb 33 db bb 2f 33 4d e4 ba 33 19 ac 58 34
       1.0971063e-07 4.0916216e-08 8.7028276e-08 2.0179176e-07
000290 18 38 95 33 d8 cd e3 33 4c fb 95 34 2a fa 98 34
       6.9485566e-08 1.0607954e-07 2.7936255e-07 2.8494225e-07
0002a0 a4 61 de 33 ad 74 22 34 c1 b7 05 34 bf f5 05 34
       1.0355441e-07 1.5129872e-07 1.245344e-07 1.2475992e-07
0002b0 7a 18 f5 33 a9 c1 b1 33 b2 27 eb 33 8a 2e 27 34
       1.1413154e-07 8.2774314e-08 1.0950261e-07 1.5570018e-07
0002c0 37 ae c6 33 66 98 be 33 39 19 7c 34 87 41 7a 33
       9.251783e-08 8.8752856e-08 2.3478505e-07 5.8267258e-08
0002d0 4b b7 e2 32 4c 63 e5 31 56 23 f7 32 3e 0d de 32
       2.6393215e-08 6.676066e-09 2.8770653e-08 2.5850223e-08
0002e0 8a 5b 2e 32 31 ec 88 32 5f 6d b7 32 9f 49 b3 32
       1.0148947e-08 1.5939891e-08 2.135374e-08 2.0871822e-08
0002f0 0c e5 04 33 b1 25 9b 32 af ff 8b 32 1c 71 c5 32
       3.0941962e-08 1.8061515e-08 1.6298001e-08 2.2985255e-08
000300 26 b9 ba 32 6a b1 a5 32 ca 95 14 33 3c f2 a0 32
       2.1737446e-08 1.9289207e-08 3.4595168e-08 1.8736607e-08
000310 80 59 9f 32 c2 fe ba 32 0d 0d 40 34 4a 9c 4b 34
       1.8550736e-08 2.17691e-08 1.7886141e-07 1.8962706e-07
000320 7c 28 48 34 c8 ba 34 34 aa 76 bf 33 00 bd fd 33
       1.864118e-07 1.6831757e-07 8.9157155e-08 1.18156095e-07
000330 00 08 2c 34 00 5f 24 34 19 99 70 34 5a 54 36 34
       1.6021659e-07 1.5308251e-07 2.2407438e-07 1.6980758e-07
000340 44 8e 26 34 a2 7a 26 34 8b b3 10 34 9e cd 5f 34
       1.551171e-07 1.5504568e-07 1.3476362e-07 2.0843297e-07
000350 08 09 37 34 a9 2e 18 34 e1 c0 32 34 07 58 12 34
       1.7046489e-07 1.4173078e-07 1.6647711e-07 1.3629334e-07
000360 6a 5a 32 32 96 df 56 32 38 b6 1a 32 40 9b c9 32
       1.0381521e-08 1.2507277e-08 9.0054115e-09 2.347008e-08
000370 7e 47 8c 33 1c cb 55 33 9a f3 40 32 21 d9 f5 32
       6.5322624e-08 4.9777654e-08 1.12312595e-08 2.8620493e-08
000380 14 00 41 32 06 95 4c 32 d6 96 67 32 6d 9f ee 31
       1.1234096e-08 1.1908247e-08 1.3480266e-08 6.9448363e-09
000390 16 b1 2d 32 d3 f6 c2 32 14 72 4b 32 e6 bf 5d 32
       1.011019e-08 2.2696815e-08 1.18420935e-08 1.2907526e-08
0003a0 16 c0 f0 32 03 19 1e 32 63 94 38 34 10 f9 a3 33
       2.8027028e-08 9.202497e-09 1.7190318e-07 7.635583e-08
0003b0 a1 56 1a 34 20 8e 9c 33 4f f8 10 34 a8 1a 1b 34
       1.4373883e-07 7.2901685e-08 1.3501379e-07 1.4445197e-07
0003c0 64 01 16 34 78 bb 13 34 cd bb fe 33 da 6e 09 34
       1.3970345e-07 1.3758643e-07 1.18619575e-07 1.2799447e-07
0003d0 75 d5 f2 33 03 9d 12 34 13 2d 10 34 cc 60 00 34
       1.1307831e-07 1.365443e-07 1.3427443e-07 1.1956143e-07
0003e0 0d 1c f8 33 8c 70 1c 34 1e c6 05 34 78 3b e0 33
       1.1553502e-07 1.4569576e-07 1.2458665e-07 1.044163e-07
0003f0 a7 81 d1 32 01 3b ae 33 50 80 b4 32 a1 5c a6 33
       2.4389761e-08 8.113239e-08 2.1013108e-08 7.7468265e-08
