results/Ten3/Ten3/Ten3-499906.pt (torch, 581423 bytes, 47 tensors)

network_body.observation_encoder.processors.0.normalizer.running_mean f4 [49]
00000000: bbbe 7eb9 0c75 89b7 6af8 1f3b 4c67 923e
00000010: 0000 0000 78e6 6dbe eea1 61bf 731e 81bf
00000020: be2b 0d3f d68d 3cbd 31e6 3d3d 9d38 e040
00000030: c614 5641 86c7 84bc 70bb 88b9 9fc1 73bd
00000040: 2031 9e40 f2af b43d 77b8 85b9 22ab a23e
00000050: a8dc a940 5daa 59bd 1ea8 7ab9 0845 263d
00000060: 641b a740 435a c23d 6d34 88b9 0e04 843d
00000070: 630d ac40 9fb7 51bc 45cc 80b9 b32c cd3d
00000080: 1d47 a540 fb88 693d 8862 82b9 95ff e83d
00000090: a4a5 aa40 5c0c dfbd 039d c53a 3929 7dbe
000000a0: 4674 9f40 e22f 91bb 973d 8339 4fe9 f5bd
000000b0: b055 9d40 6d44 49bd 2586 82b9 f091 79be
000000c0: be86 a740
-0.0002429438 -1.6386177e-05 0.002440954 0.28594434 0.0 -0.23232448 -0.8813771 -1.0087417
0.5514487 -0.046033703 0.046362106 7.006911 13.380072 -0.016208421 -0.00026079593 -0.059510823
4.9434967 0.088226214 -0.00025505174 0.3177119 5.3081856 -0.053140987 -0.00023904486 0.040593177
5.2220936 0.09489872 -0.00025979002 0.06446086 5.376634 -0.012800126 -0.00024566255 0.10018291
5.164931 0.0570154 -0.00024868944 0.113768734 5.33272 -0.10891029 0.00150767 -0.24722756
4.9829435 -0.004430757 0.00025032155 -0.12007391 4.91671 -0.04913752 -0.00024895478 -0.24372077
5.235198

network_body.observation_encoder.processors.0.normalizer.running_variance f4 [49]
00000000: e74d d04a 590f 7845 db32 1a4b a433 6d4b
00000010: 0000 803f d20f 5c4b 16d2 5a4a a437 8645
00000020: 02e1 614b 6927 8c49 197f 7549 cc41 4e4a
00000030: 9287 124c a349 9c4a 4d3a f742 9676 ad4b
00000040: 40b0 6e4b 9a2b b04a 0d75 fd42 8eda d14b
00000050: b6d8 924b 4e6a ba4a 2242 fb42 6b9f b94b
00000060: 7f3c 804b 5aed b74a c83d f942 2deb cd4b
00000070: 76b2 8d4b c153 b64a 77dd f742 6bda b44b
00000080: 2676 794b c21e b54a 6e29 f942 baee cc4b
00000090: 42d0 8d4b a3f7 9b4a 0fb5 5844 86ac ad4b
000000a0: ac80 6c4b 1e77 a84a 408c a843 5854 a94b
000000b0: b89b 6e4b 311c b34a 90e8 fd42 8b5e c14b
000000c0: 75da 854b
6.8257155e+06 3968.9592 1.0105563e+07 1.5545252e+07 1.0 1.442197e+07 3.5851575e+06 4294.955
1.4803202e+07 1.1481411e+06 1.00555356e+06 3.379315e+06 3.841185e+07 5.1212335e+06 123.61387 2.2736172e+07
1.5642688e+07 5.772749e+06 126.728615 2.7505948e+07 1.9247468e+07 6.108455e+06 125.629166 2.4329942e+07
1.680819e+07 6.026925e+06 124.62067 2.699017e+07 1.8572524e+07 5.9744965e+06 123.93255 2.370479e+07
1.634871e+07 5.934945e+06 124.58092 2.6860916e+07 1.858778e+07 5.1107375e+06 866.82904 2.2763788e+07
1.5499436e+07 5.520271e+06 337.0957 2.2194352e+07 1.5637432e+07 5.8690805e+06 126.95422 2.5345302e+07
1.7544426e+07

network_body.processors.0.normalizer.running_mean f4 [49]
00000000: bbbe 7eb9 0c75 89b7 6af8 1f3b 4c67 923e
00000010: 0000 0000 78e6 6dbe eea1 61bf 731e 81bf
00000020: be2b 0d3f d68d 3cbd 31e6 3d3d 9d38 e040
00000030: c614 5641 86c7 84bc 70bb 88b9 9fc1 73bd
00000040: 2031 9e40 f2af b43d 77b8 85b9 22ab a23e
00000050: a8dc a940 5daa 59bd 1ea8 7ab9 0845 263d
00000060: 641b a740 435a c23d 6d34 88b9 0e04 843d
00000070: 630d ac40 9fb7 51bc 45cc 80b9 b32c cd3d
00000080: 1d47 a540 fb88 693d 8862 82b9 95ff e83d
00000090: a4a5 aa40 5c0c dfbd 039d c53a 3929 7dbe
000000a0: 4674 9f40 e22f 91bb 973d 8339 4fe9 f5bd
000000b0: b055 9d40 6d44 49bd 2586 82b9 f091 79be
000000c0: be86 a740
-0.0002429438 -1.6386177e-05 0.002440954 0.28594434 0.0 -0.23232448 -0.8813771 -1.0087417
0.5514487 -0.046033703 0.046362106 7.006911 13.380072 -0.016208421 -0.00026079593 -0.059510823
4.9434967 0.088226214 -0.00025505174 0.3177119 5.3081856 -0.053140987 -0.00023904486 0.040593177
5.2220936 0.09489872 -0.00025979002 0.06446086 5.376634 -0.012800126 -0.00024566255 0.10018291
5.164931 0.0570154 -0.00024868944 0.113768734 5.33272 -0.10891029 0.00150767 -0.24722756
4.9829435 -0.004430757 0.00025032155 -0.12007391 4.91671 -0.04913752 -0.00024895478 -0.24372077
5.235198

network_body.processors.0.normalizer.running_variance f4 [49]
00000000: e74d d04a 590f 7845 db32 1a4b a433 6d4b
00000010: 0000 803f d20f 5c4b 16d2 5a4a a437 8645
00000020: 02e1 614b 6927 8c49 197f 7549 cc41 4e4a
00000030: 9287 124c a349 9c4a 4d3a f742 9676 ad4b
00000040: 40b0 6e4b 9a2b b04a 0d75 fd42 8eda d14b
00000050: b6d8 924b 4e6a ba4a 2242 fb42 6b9f b94b
00000060: 7f3c 804b 5aed b74a c83d f942 2deb cd4b
00000070: 76b2 8d4b c153 b64a 77dd f742 6bda b44b
00000080: 2676 794b c21e b54a 6e29 f942 baee cc4b
00000090: 42d0 8d4b a3f7 9b4a 0fb5 5844 86ac ad4b
000000a0: ac80 6c4b 1e77 a84a 408c a843 5854 a94b
000000b0: b89b 6e4b 311c b34a 90e8 fd42 8b5e c14b
000000c0: 75da 854b
6.8257155e+06 3968.9592 1.0105563e+07 1.5545252e+07 1.0 1.442197e+07 3.5851575e+06 4294.955
1.4803202e+07 1.1481411e+06 1.00555356e+06 3.379315e+06 3.841185e+07 5.1212335e+06 123.61387 2.2736172e+07
1.5642688e+07 5.772749e+06 126.728615 2.7505948e+07 1.9247468e+07 6.108455e+06 125.629166 2.4329942e+07
1.680819e+07 6.026925e+06 124.62067 2.699017e+07 1.8572524e+07 5.9744965e+06 123.93255 2.370479e+07
1.634871e+07 5.934945e+06 124.58092 2.6860916e+07 1.858778e+07 5.1107375e+06 866.82904 2.2763788e+07
1.5499436e+07 5.520271e+06 337.0957 2.2194352e+07 1.5637432e+07 5.8690805e+06 126.95422 2.5345302e+07
1.7544426e+07

network_body._body_endoder.seq_layers.0.weight f4 [128, 49]
00000000: 22fa 5ebe 5a5e bcbe cfe2 153e 5c7c 21bd
00000010: b093 88be e2ed 703e b5dd 2f3e dbec 15be
00000020: 190a b5bd 2125 bc3e 5a99 76be 6693 1cbd
00000030: ad15 dfbd b128 9cbd 67da 723e 8868 d13d
00000040: 0a87 a63d 2600 af3d 694c a33e 31e8 a93e
00000050: ebfc 82bd 3494 0b3e 3bda 56be 4bad b63d
00000060: 37ba 75bd 78d0 9fbd 5bbe 8f3c c0c4 9fbe
00000070: 4a48 d6bd 8511 153e dbe4 243d 6a72 933c
00000080: 0eac db3c 6d3b ea3d 32c6 41bd f157 5cbe
00000090: 5e8a 10be caca 323e 9c1e 45be 36c4 90bd
000000a0: a2e5 933d 9e33 8e3d 2182 37be 8f2b f7bb
000000b0: 5ab1 693d 6456 143e 5427 523c bd8d f43d
000000c0: c715 5c3b c92f 943c 0f75 61be d8fe e5bc
000000d0: 6177 48be da41 3ebe 1217 98be c048 613d
000000e0: 6702 353e e2cf 5c3e fcc5 d53c 0816 893d
000000f0: bb0c 57be 5446 5e3d c12a d5bc 04c6 39bd
00000100: f7c9 d63c ad29 d33c 683c f4bd 612c 1c3d
00000110: 23f4 06ba 52b7 0cbe 533a 27be fe90 733d
00000120: 321f 4dbd 0b2e b7bd 894e 82bd e66e a83d
00000130: 56f8 9fbd a2ef dcbc 1eb7 b73d 4256 143d
00000140: a9a3 3c3c 19b5 5a3e fbfe 123d b2d8 54bd
00000150: c389 2ebd ea0e 2d3e 8b56 6d3e 611b 893e
00000160: ca5d 483e 11eb 363d e5db 8c3d df9a 99bd
00000170: b53b 01bc a633 debd 1c72 33be f159 55bd
00000180: 94ef bebd 8735 ebbd be62 f23e e3e6 fe3d
00000190: ba2a aabd 6392 eb3e e439 ce3d a15a 1f3e
000001a0: 0b26 5fbe 919f 833e ed8d febd 0fb4 e4bb
000001b0: 098c 8d3e cef0 8d3d 2035 8bbd 613e 80bd
000001c0: 60e1 9c3e 261a 783c 05d1 f9bd 805b 4dbe
000001d0: 73af 333e 777b 7c3d 7540 17be b061 b33d
000001e0: 2477 873e b774 95bd 2394 7b3e fad6 09be
000001f0: c8de b73d 7dec 893c feee 0bbb f8de 80be
00000200: 73a7 d73d ddd0 fc3d 0ae0 993d 67d8 7a3e
00000210: 1ad6 ccbd 477b 8ebb 59b5 c0bc 8d3a 81be
00000220: 7816 233e 71f0 1abe f16b ddbd 8f86 153c
00000230: a63f 78bd 96e4 77bd ac52 df3d f8c5 853e
00000240: 4e2e 46be d64a 2bbc 30ce d7bd 28e1 adbb
00000250: de8a 003e 5cc7 c33d 0d60 803d 1ce4 d6bd
00000260: 7a60 78bd f478 9d3e 217f 8cbd b12c c2bd
00000270: bc02 9c3e fa18 103e af2e a93d 08ec 9e3c
00000280: b870 82bc 5f49 7ebd 0b60 c03d b331 dabc
00000290: 1c95 11bd 03a0 543b 2227 a23d 027e 6e3e
000002a0: c7a6 06bd 3963 253e c820 863c 4f5b 85be
000002b0: fd42 7e3e f7bc bd3d c03f 00bd 7a84 ec3d
000002c0: eb0c b83d 16eb b5ba 992b 30be 44aa b53d
000002d0: 223f 723e 4a55 81be 3ee3 32be f639 0b3e
000002e0: 6cac a0be 7c2c 013e d44b bebd 307f 773e
000002f0: 2724 913d 03c8 a1be 9a55 843b 9e1d ebbd
00000300: 9a9b a6be bc20 8a3e c2c5 963e c38e d33d
00000310: f2a5 b93e 888d 413e 92c8 333e 3bb5 39be
00000320: 271d 1e3d 9fad 12bd 03cf 453d df44 c4bd
00000330: 5f31 62bd a546 b23e df37 673e d7e2 10be
00000340: 639a 6b3e 7342 babd 5b12 0f3d 62e9 d23d
00000350: e028 9bbb b700 64be 9629 983c 7308 8dbd
00000360: 99bb dd3c 767d c0bd 700b 503d 9111 f53d
00000370: ed82 b9bd b250 3abd fc33 91be a245 8c3e
00000380: 5117 4c3d 50bd cc3c 3cb6 b3bd fdad c0bd
00000390: ad3b 993d dad3 db3d da5d 543e 2ce9 233d
000003a0: cfbb df3d a1c3 ce3d 8285 963d 6f09 a93c
000003b0: ef7c 45be bdcd 2e3e 2e88 36be 473e 74be
000003c0: a546 4b3e 31c2 44be 1bbb df3d ca59 9e3d
000003d0: dae0 4b3d 7dea 8abd f2bc 243e cc1b 703c
000003e0: a658 c43d a2ab 9e3d b240 dd3c 8463 893e
000003f0: f7fb 283e 2019 0bbe 8251 233e 4488 983d
-0.21775106 -0.36790735 0.14637302 -0.03942524 -0.26675177 0.23528245 0.17174418 -0.14641134
-0.088398166 0.36747077 -0.24081936 -0.038226508 -0.10892806 -0.07624949 0.23716126 0.10225016
0.081312254 0.0854495 0.31894234 0.3318496 -0.063958965 0.13630754 -0.20981686 0.08919772
-0.05999204 -0.07803434 0.017546823 -0.31204796 -0.10463007 0.14557464 0.040257316 0.017998893
0.02681544 0.11437116 -0.047308154 -0.21517922 -0.14115283 0.1746017 -0.19249958 -0.07068674
0.07221533 0.06943439 -0.17920734 -0.0075430344 0.0570539 0.1448608 0.012826759 0.11941097
0.0033582316 0.018089192 -0.2201731 -0.02807562 -0.1957679 -0.18579808 -0.297051 0.05500102
0.17676698 0.21563676 0.026095383 0.06693655 -0.2100095 0.05426629 -0.026021363 -0.045354858
0.026219351 0.025776708 -0.11925584 0.03812826 -0.00051480735 -0.13741806 -0.16330843 0.059464447
-0.05007858 -0.08944329 -0.06362636 0.08224277 -0.07811038 -0.026969735 0.08970474 0.036215074
0.011513629 0.21358146 0.0358877 -0.05196447 -0.04261185 0.1690022 0.23177545 0.267787
0.19567028 0.04465777 0.06877879 -0.075002424 -0.00788777 -0.10849695 -0.17523998 -0.052087728
-0.0932304 -0.11484819 0.4734096 0.12446382 -0.08308931 0.46010122 0.100696355 0.15561916
-0.21791856 0.25707677 -0.12429414 -0.0069794725 0.276459 0.069306955 -0.06797242 -0.06261898
0.30640697 0.015142953 -0.121980704 -0.20054436 0.17547397 0.061641183 -0.14770682 0.08758867
0.26458085 -0.07297652 0.24568228 -0.13460913 0.08978039 0.0168364 -0.0021352167 -0.25170112
0.10529985 0.12344525 0.07513435 0.24496613 -0.10001774 -0.004348192 -0.023523973 -0.25239983
0.1592654 -0.15130784 -0.10811604 0.00912632 -0.060607575 -0.06052073 0.1090444 0.261276
-0.19353601 -0.010454854 -0.10537374 -0.0053063817 0.12552974 0.09559509 0.0626832 -0.10492727
-0.060638882 0.30756342 -0.068601854 -0.094811805 0.30470836 0.14072028 0.08260857 0.019399658
-0.01592289 -0.06208169 0.09393319 -0.026635027 -0.035542592 0.0032444007 0.0791762 0.23290256
-0.032873895 0.16151132 0.016373053 -0.26046225 0.24830242 0.09264558 -0.031310797 0.115487054
0.08986839 -0.0013879265 -0.17204131 0.08870366 0.23656896 -0.25260383 -0.17469499 0.13596329
-0.31381547 0.12614626 -0.09291807 0.24169612 0.07086974 -0.3159791 0.004038525 -0.114802584
-0.3254059 0.269781 0.29447752 0.10329964 0.3625942 0.18901646 0.1755698 -0.1813554
0.03860202 -0.03581011 0.048293125 -0.095834486 -0.055222865 0.34819523 0.22579907 -0.14149033
0.23008113 -0.090947054 0.034929615 0.102984205 -0.0047350973 -0.22265898 0.018574517 -0.06886377
0.027066993 -0.0939893 0.050792158 0.11966241 -0.09058175 -0.045487113 -0.28359973 0.27396876
0.049826924 0.024992615 -0.08774993 -0.09408186 0.074820854 0.10733767 0.20738927 0.040017292
0.109244935 0.10095907 0.07349683 0.020634381 -0.1928594 0.1707067 -0.17825386 -0.23851882
0.19851168 -0.19214703 0.109243594 0.0773197 0.049774982 -0.06783006 0.16087702 0.014655065
0.09587221 0.0774758 0.027008388 0.26833737 0.16502367 -0.13583803 0.15949062 0.074478656

network_body._body_endoder.seq_layers.0.bias f4 [128]
00000000: 4153 b7bc 8f19 943c 0370 9cbc ed15 c83c
00000010: 323f 283b b802 043d e30a 17bd 378f 293d
00000020: 3639 83bb cfb7 a2bc a8d5 4fbd a78e 56bd
00000030: 2dfd 3bbc 8528 d5bc eaf0 14bc 19ac 5cbd
00000040: 1421 263d e075 b8bc 5049 88bd 0f6c 6c3c
00000050: 97ae 003b 43f1 76bd b359 bebc 1151 54bd
00000060: 5fa9 b5bd 9a7c 62bb 5e5d e43c 409d 1bbd
00000070: 7486 ffbc d844 0fbd 2ca5 25bd eb68 13bc
00000080: 49eb 2abd e170 3abd e97a f7bc 5659 3a39
00000090: 4fb9 753c c59d 3bbd 6421 31bd 542c d63c
000000a0: ff3f 36bd 6310 a03b 1d73 c73b 358f 693d
000000b0: 2fab 303d 9b67 34bd ee86 073b 7d72 4bbc
000000c0: 10e2 00bd a7db c4bc 3427 abbc 341c da3b
000000d0: b390 34bd f87d 893b 550e 693d a015 8cbd
000000e0: 717a bbbc d668 c9bc bf58 08bd a17d fcbc
000000f0: 2066 99bc 0f62 b7bd 6906 c83c 7ce7 14bd
00000100: 5f7a c8bb d23b afbc 24b7 54bc 6b78 173d
00000110: 06b2 213d ea57 7fbc 3eff 14bd 6454 12bd
00000120: dc1a c73c acb4 1ebc 6d5b 8abc 7452 583d
00000130: 4f4f 1abd e7ca 81bd af66 12ba ed82 8c3c
00000140: b5b5 c3bc c7a9 373d dd7b 04bd 93f5 0ebc
00000150: f0a5 3fbc f868 863b e347 b03a 378b 49bd
00000160: b46f f93b c332 163d c27a dcbc 5d16 3bbd
00000170: 3589 e7bc f637 7bbc d8b4 a7bc 6117 a53a
00000180: 2d98 96b9 308a 9ebc 4810 69bd 1dbc 943c
00000190: a29f 9fbd 9983 e9bc 0c2c 4ebd 0087 c1bd
000001a0: 8335 8b3c fa85 a63c 01c2 b6bc 0721 54bb
000001b0: ac1b 92bc b4e5 3bbd a520 19bd a8fc 5ebd
000001c0: 41ca 0cbd 07e6 42bc 2a03 17bc 83cd 193d
000001d0: 4db6 33bb f12f 8cbd 5aa3 8cbc 6abe 86bd
000001e0: 7aba cc3a 7878 81bd cf2b 31bd fb3f 67bb
000001f0: 7eea 8fbc 21da e5bc bec4 10bd 25a4 85bd
-0.022378566 0.018078594 -0.01909638 0.024424518 0.0025672433 0.032229155 -0.036875617 0.041396346
-0.004004623 -0.019863037 -0.050740868 -0.052382138 -0.011473936 -0.026020298 -0.0090906415 -0.053875063
0.04055889 -0.022517145 -0.06654608 0.01443006 0.0019635314 -0.06028868 -0.023236131 -0.051835123
-0.088701956 -0.0034559132 0.027876552 -0.037991762 -0.031192042 -0.034977764 -0.040440723 -0.008997182
-0.04172829 -0.045517806 -0.030209975 0.00017771623 0.014997794 -0.045804758 -0.043244734 0.026144184
-0.044494625 0.004884766 0.0060867206 0.05702134 0.043132003 -0.04404412 0.002067979 -0.012417433
-0.03146559 -0.02403052 -0.020892717 0.006656194 -0.04408331 0.004195925 0.056898434 -0.06840062
-0.022885533 -0.024586122 -0.03328776 -0.030821623 -0.018725455 -0.0895425 0.02441712 -0.036353573
-0.0061181034 -0.02139083 -0.012983117 0.036980074 0.039476417 -0.015584925 -0.03637623 -0.035725012
0.0243048 -0.00968663 -0.016889298 0.05281301 -0.03767329 -0.06337529 -0.0005584759 0.017152274
-0.023890356 0.044839647 -0.032344688 -0.008725542 -0.011697277 0.0041018687 0.0013449158 -0.04920503
0.007612193 0.036669504 -0.026914004 -0.045675624 -0.028263668 -0.015333166 -0.020471975 0.0012595468
-0.0002872361 -0.019353002 -0.056900293 0.018156106 -0.077941194 -0.028505133 -0.050334975 -0.09449577
0.01699329 0.020327557 -0.022309305 -0.0032368319 -0.01783546 -0.04587336 -0.037384648 -0.05444017
-0.03437257 -0.011895663 -0.009217063 0.037549507 -0.0027421892 -0.068450816 -0.017167736 -0.06579287
0.0015619539 -0.06321806 -0.04325467 -0.0035285938 -0.01756787 -0.028058114 -0.035343878 -0.06525449

network_body._body_endoder.seq_layers.2.weight f4 [128, 128]
00000000: 9f3e 8d3d 325b f4bd 3a9b 823d 853f fe3d
00000010: 6bd7 69bd 042d 89bd 23b6 09be d474 a9bc
00000020: 6c17 173d b745 bfbd 2675 6a3a 5357 d3bd
00000030: 838c 033e 1c55 943d 2a8e c7bd ce9e 3139
00000040: 920f 10bd cb60 92bc 47d6 d23d 6220 4abd
00000050: 9a4d 8a3d db46 76bd 4bd8 17be 15bd 08be
00000060: fbb0 96bd 8b4c cd3c 495f 7fbd accd 86bd
00000070: cba9 b2bc 1722 903d 685e f13c 1ae6 cd3d
00000080: d849 363d 021e ce3d e760 a5bd 6150 94bc
00000090: 93e2 303b 7e9c 073e 84b1 163b d6ea 7fbd
000000a0: f75a 113e 8678 823d bbf6 c53d b72f 1ebd
000000b0: 1495 1dbe 8311 103e c98a 563d 3250 64bd
000000c0: 976a f63d 1337 fdbc cdc1 823c 8bd0 dabc
000000d0: ff05 403c 0c82 d5bd c355 8d3c b6f4 1e3d
000000e0: 2cbe 50bd 9579 463d 9d77 99bc b9d6 85be
000000f0: ee69 283e d90b 0d3d 7d35 f5bd e51e 053e
00000100: c0bd 29bb 1318 05bd 967e 1dbe 062a aebd
00000110: 3908 35bc 2022 9b3d 0604 2d3c 3672 913b
00000120: 08ff 64bd 680c 3dbe 74be 97bc 6eb1 25be
00000130: 3d3c f6bc 6bb2 67bd a1f8 043d 854c 463d
00000140: 9f1a 12bd 913c 313e 4e9e 94bd 0e94 0d3d
00000150: af5d 8bbc ddca ccbd 770a 45be d94a c3bd
00000160: 72db e83c dc66 283d 9751 12be 9440 92bc
00000170: 6231 75bd 1e2f d3bd f04d 0cbd 59fc 9f3c
00000180: 14b7 99bd 7a33 75bc af91 293e 024a 433d
00000190: 631e 83bc c0ea 3ebe 0861 dfbb 00b9 313d
000001a0: fe8e 293e ee64 79bd 0f80 233e 361f d4bd
000001b0: 35a9 00be 2c13 933d b8ae 7b3d 802d 4ebd
000001c0: df6b debd 6775 fabb 27f1 cdbc 8698 56bd
000001d0: 1989 07bd 3191 2b3d 5dc1 aa3c db19 cbbc
000001e0: d329 0e3e 42a7 743d 2662 fdbd cd35 b53c
000001f0: 4743 743e f62f 52bd 468d fd3d 37f5 053d
00000200: 7d73 37bd ac63 713d a42f 4cbd 3bf1 08be
00000210: 1fd3 263d 7c72 513d 1dc9 b13d be37 02be
00000220: 7dd1 b93d 6e5c 403e b502 06be a3a5 0bbd
00000230: 70de eeba 2695 a7bd 62b2 883d cf76 bc3d
00000240: fb37 a43d d828 bfbb 8153 77bd bbb4 4cbd
00000250: 5bd7 9cbd 783e 803c 9795 bdbd 2b5c 693d
00000260: 987e 3d3d 0cae a3bc 76e1 33bd 2d63 fd3c
00000270: 11fa eabd 5ffa e8bc 0027 bfbd 1bae b4bd
00000280: 070a 41bd 5983 3fbe 7c5b b53c b2ee 3abe
00000290: 4b81 213c 6699 883d 18e6 f3bd 95d2 f8bc
000002a0: e471 573e 46f9 78bd 4845 52be 2927 34bd
000002b0: 1341 dc3c e209 46bb 2039 9ebc 5e2c f33c
000002c0: f3cd ebbd 578c b0bd 0d1f e3bd b2b2 963e
000002d0: e2b6 673d 0d68 e6bd b691 3ebe 25d7 313d
000002e0: 37ba 82bd 7bdd acbd 8204 963d da07 18be
000002f0: 7ae3 943c 60e0 e33d af83 113b a417 f0bd
00000300: 68e0 b43d a82e 323e efca 14be 7ca9 a0be
00000310: b167 ae3c c4c4 ff39 c4c9 f0bb 37ef 553d
00000320: 8ece 8f3d e070 21be 81a6 b2bd 3a1b bfbb
00000330: 7160 613d 751d dabc a3b8 093d 3c4a 263e
00000340: ec39 83be 230d a33d 81d8 4f3d 9973 d43d
00000350: e734 423e f447 d1bd d563 a53b 1ccb e23d
00000360: 3ef9 13bd f118 46be 447c c53d 69d7 ba3d
00000370: b6d8 25be a4b8 ea3d 8449 bd3d 7b8c efbb
00000380: 86a5 51bc 9c36 bf3d dcc0 a93d be08 8bbd
00000390: 6e4f 433b aaa8 9fbc 559c de3c 3e1a d83d
000003a0: d9b4 e03c f83e 533d 10c8 09bc 5ab5 91bb
000003b0: e3af 993d 6486 97bc 0a84 263e 60fe a9bd
000003c0: 6cd1 903c ff23 503c eb9a c4bd 5d00 57bd
000003d0: d053 913c 96f4 7b3d b01f cf3c 4974 83bc
000003e0: 1605 02bd 8860 e93d a082 e93d 2100 debd
000003f0: fb39 c9bb bbbc 00bd e42d d03d 49e3 313e
0.0689671 -0.119314566 0.06377263 0.12414459 -0.057090204 -0.06698039 -0.13448386 -0.02068559
0.03688757 -0.09339469 0.0008943848 -0.1031939 0.1284657 0.07242796 -0.097439125 0.00016939195
-0.0351711 -0.01786842 0.102947764 -0.04934729 0.067530826 -0.060126167 -0.14828603 -0.13353379
-0.07357975 0.025060913 -0.06234673 -0.065821975 -0.02180948 0.07037752 0.029463962 0.10053654
0.044504017 0.10064317 -0.08075123 -0.018104734 0.0026990518 0.13243291 0.002299399 -0.062479816
0.14194857 0.06370644 0.09666201 -0.038619723 -0.153889 0.1406918 0.05237845 -0.055740543
0.12032049 -0.03091005 0.015961552 -0.02671077 0.01172018 -0.10425195 0.017252808 0.038807593
-0.050962612 0.048455793 -0.018733794 -0.26140383 0.16446659 0.034435127 -0.11973093 0.13000067
-0.0025900453 -0.032493662 -0.1538032 -0.08504109 -0.011049324 0.07574868 0.010560041 0.004438664
-0.05590728 -0.18461764 -0.018523432 -0.16180965 -0.03005802 -0.056566637 0.032463674 0.04841282
-0.03566992 0.1730826 -0.07256757 0.034565024 -0.017012445 -0.099996306 -0.19242273 -0.095357604
0.028424952 0.04111372 -0.14288937 -0.017853059 -0.05986155 -0.10311721 -0.034254014 0.019529508
-0.075056225 -0.014965886 0.1655948 0.047678 -0.0160057 -0.18644238 -0.006816987 0.04338932
0.16558453 -0.06088727 0.15966819 -0.103575155 -0.12564547 0.07181391 0.06144592 -0.05033636
-0.108604185 -0.00764339 -0.025139404 -0.05239155 -0.03308973 0.041886512 0.020844156 -0.024792602
0.13883142 0.059729822 -0.12372236 0.02212038 0.2385379 -0.05131527 0.123804614 0.03270456
-0.044787873 0.058932945 -0.04985012 -0.13373272 0.040728685 0.05113457 0.086809374 -0.12716576
0.0907316 0.18785259 -0.1308697 -0.03409351 -0.001822425 -0.08182745 0.06674649 0.092023484
0.0801849 -0.0058337264 -0.06038237 -0.049977046 -0.07658263 0.015654787 -0.092570476 0.056972664
0.046263307 -0.019980453 -0.04391619 0.03093108 -0.11473478 -0.028439699 -0.093336105 -0.088222705
-0.047128703 -0.18702449 0.02213835 -0.18255118 0.009857486 0.066698834 -0.11909121 -0.03037385
0.2103954 -0.0607846 -0.20534241 -0.04398266 0.026886499 -0.0030218293 -0.019314349 0.029684242
-0.11513891 -0.08620518 -0.11089907 0.2943321 0.056570895 -0.11250315 -0.18610272 0.04341807
-0.06383174 -0.084406815 0.073250785 -0.14846745 0.018174876 0.111267805 0.0022203734 -0.11723259
0.088318646 0.1740061 -0.14530538 -0.31379306 0.021289678 0.00048783992 -0.007348271 0.052230086
0.07021819 -0.15765715 -0.08723164 -0.005832103 0.055023614 -0.026625374 0.03362335 0.16239256
-0.25630128 0.0796149 0.050743584 0.10373611 0.18965493 -0.10218802 0.0050473013 0.11073896
-0.036126368 -0.19345452 0.096428424 0.091231175 -0.1619595 0.11460999 0.092425376 -0.0073104477
-0.0127958115 0.09336588 0.08288738 -0.06788777 0.0029801982 -0.019489605 0.027174154 0.1055188
0.027429985 0.051573724 -0.008409515 -0.0044466676 0.07504251 -0.0184967 0.16261306 -0.08300471
0.017677985 0.012703895 -0.09599861 -0.05249058 0.01774016 0.061512552 0.025283664 -0.01604666
-0.03174313 0.11395365 0.11401868 -0.10839868 -0.006140945 -0.031429987 0.10165003 0.17371859

network_body._body_endoder.seq_layers.2.bias f4 [128]
00000000: 7022 ffbc 4983 eabb 1e4f 16bd ab26 1cbb
00000010: ec03 e1bc daea 34bd b202 acbc e522 23bd
00000020: cb9f 71bc 8bd7 86bd 1dd7 89bd 9a6d 033d
00000030: 3df6 833b 93b3 16bd 77b6 4cbd d7eb 53bc
00000040: 4f57 39bd b8fe 2abd 85b4 43bd 8f92 a4bc
00000050: aada 5ebd 2a31 f23b 49f6 00bd d02f d4bc
00000060: c4f7 4dbd a577 dcbc 2337 79bb 5954 adbc
00000070: 5fbf e1bc 50ed 003d 1658 153c 9159 24bc
00000080: fc06 473c 3aee 16bb 7c7c debc 6d28 fbbc
00000090: f27d 6abd 13bc e8bc 0d93 42bc aa20 de3c
000000a0: 89ae 86bc b9c6 14bc 041e a8bc 189e a9bc
000000b0: f411 79bc 7760 12bd 551c 01bd df7d 943b
000000c0: 74fd 47bb 5e7e 3d3c 9d22 843c aae2 00bb
000000d0: bafc 53bd 650a 3dbd ef43 28bd 0167 1cbc
000000e0: c450 40bd ad49 89bc 6b1f 27bd 5e70 efbb
000000f0: 8fbe 25bd 765c 0ebd ec8d 90bc 0bc9 7cbd
00000100: 4059 02bd 203d 31bd 8068 4f3b de7a 57bd
00000110: f89f acbc 1541 04bb aa64 25bc b9be 503d
00000120: abe1 a13b 1467 0ebc ed95 1f3c 70ec f1bc
00000130: a73f e63c 77bb bbb9 eccf 1e3c 9043 9cbd
00000140: 771e 5b3b 8f95 97bb 3d40 5a3c 9ce0 14bb
00000150: 3ca7 a7bc 0136 06bd b0e2 60bb b19d cb3b
00000160: 5253 d1bb 0f76 b13b 4303 05bd dc00 0ebd
00000170: edd7 1d3c 66b2 d4bc bdac 20bd 6fd0 88bc
00000180: 7cb6 ddba eb76 f4bc 7816 fdbc 2f75 c6bc
00000190: bfbd 3b3c a65d 3a3c 63da 32bc 6999 b0bd
000001a0: 5ce7 5fbd a85a 83bc 533c 2ebc 1da8 a83c
000001b0: 0ada 1abd e837 f73c 110e a13c e97a b2bc
000001c0: 25fc 9dbb 66fa e5bb 7c1f 5ebd 8f6b b8bc
000001d0: ce8c e63a 1a5b bbbc c357 613c 0033 973c
000001e0: 6659 35bc 5233 f03b db5e 4ebd 9923 e6bc
000001f0: 548f c1bc 25c4 58bc da48 883c 987e 18bd
-0.03114435 -0.0071567637 -0.036696546 -0.002382676 -0.02746769 -0.044169284 -0.020997379 -0.0398282
-0.01474757 -0.0658408 -0.06730483 0.032086946 0.0040271566 -0.03679235 -0.0499787 -0.012934647
-0.04524928 -0.041746825 -0.04777958 -0.020089416 -0.054407753 0.0073911147 -0.031484876 -0.025901705
-0.050285116 -0.02691252 -0.0038027249 -0.021158384 -0.027557073 0.03147632 0.00911524 -0.01003112
0.012147661 -0.0023030178 -0.027158968 -0.030658925 -0.057249017 -0.028409993 -0.01187588 0.027115185
-0.016440647 -0.009080582 -0.020522125 -0.020705268 -0.015202034 -0.035736527 -0.03152116 0.0045316066
-0.003051606 0.011565773 0.016129786 -0.0019666352 -0.05175469 -0.04615249 -0.04108041 -0.009546042
-0.046952024 -0.016758764 -0.040801447 -0.0073070964 -0.040464934 -0.034756146 -0.017645799 -0.061715167
-0.031823397 -0.043271184 0.003164798 -0.05260741 -0.021072373 -0.0020180393 -0.010094801 0.050963137
0.004940232 -0.008691568 0.009740335 -0.029531687 0.028106524 -0.00035807092 0.009693127 -0.07630074
0.0033434907 -0.004625983 0.01332098 -0.0022716885 -0.020465486 -0.032766346 -0.0034314804 0.0062138666
-0.0063881064 0.005415685 -0.032473814 -0.03466879 0.009634 -0.025963973 -0.039227236 -0.016700951
-0.0016915346 -0.02984186 -0.030894503 -0.0242258 0.011458813 0.011374867 -0.010916325 -0.08623011
-0.054664 -0.01603444 -0.0106345 0.020587975 -0.037805595 0.030178025 0.019660028 -0.021787124
-0.0048213177 -0.007018375 -0.054229245 -0.022512225 0.001758957 -0.022870589 0.013753834 0.018456936
-0.0110686775 0.0073303366 -0.05038343 -0.028093146 -0.023627914 -0.013230358 0.0166363 -0.037230104

action_model._continuous_distribution.log_sigma f4 [1, 2]
00000000: e083 1abe 89e4 acbe
-0.15089369 -0.33768108

action_model._continuous_distribution.mu.weight f4 [2, 128]
00000000: 8ce9 483c fe0e f9bc 50ce 223d 018e 86bc
00000010: 977f 9fbc 6238 323c ee2c 4a3d 59d8 853d
00000020: e0a7 23ba ebc0 3f3d d1fb 6f3d 7502 09bd
00000030: 966e 8bbd 4fc6 0c3d fd3e 73bc 033e 173d
00000040: 77c5 b33c be97 273c aba4 213c 66ae 083c
00000050: 0fa3 803c dcd8 10bd 468b 8139 1069 453d
00000060: 3c7d 313d 7fca 8a3d 8004 c9bc 9af5 8d3a
00000070: 30b3 1eba 5398 85bd fda1 40bc 990e 3abd
00000080: 8c64 b5bd 967f 5c3d 0a76 653d 5504 943d
00000090: 9442 be3d 04b6 8ebc 2efb c43d 29b7 c7bc
000000a0: d480 a0bc f809 f6bc 08ac ea3c 6b57 0d3d
000000b0: 342b 9f39 5d07 343d c1be 753c 034b 4dbc
000000c0: 882a 1ebd 4404 b7bc 8d9f c03d 7c63 033d
000000d0: ef9c 40bc 593e 853d 289d 513d 705a afbb
000000e0: 2615 e239 ab85 a63d 4d30 9abb 978a d8bc
000000f0: 507a a63d 22ee 963d f88e af3d f1c1 6e3c
00000100: 77f8 d33c 72fe 673c 5376 c13d 6784 50ba
00000110: 6fb6 29bc c05c 0b3c d69e 0abd 0d66 34bd
00000120: 3971 c3bc e55a 49bc 259f c1bc f059 5a3b
00000130: f94e c0bc 3b23 e8bc 9bb4 2bbd 9506 b73c
00000140: 575e da3b 9a88 b73c cf2a 493c 8502 44bc
00000150: 4faa 9c3d 1ff2 073b 1f81 843c 826e b6bc
00000160: ee07 743c 5ef5 21bd b47b 313d b7cb ad3d
00000170: ab5e 1bbd 44ac 9dbb 0e11 0c3d 646c 563d
00000180: 90aa 543c 8427 efbb 0d00 bfbb a272 11bd
00000190: e676 8d3c 532c fcbc 41d6 63bc 5337 323c
000001a0: 8e20 9f3c 23e2 3fbd 26fc 993d 6c98 8dbc
000001b0: 35b5 6b3d 5a71 94bd f20b e6bc a7ba ccbc
000001c0: 7e81 d13a 2e34 ea3a b0e7 123d 521e 543d
000001d0: ebd3 403c 6675 423d 5e26 9dbc 9b25 8fbd
000001e0: d83e dc3c 1bd5 233c 6574 593d b043 0b3c
000001f0: efaf d7bb 57b2 c43d f684 8dbd 2b5b 9dbc
00000200: db46 aebc 3c13 f53c 480f 783d cef9 ca3c
00000210: 672d 443d c3c6 243b db11 dd3d ddaa 9c3d
00000220: dad8 d5bc 9277 563c 10e3 4c3c b556 1b3c
00000230: 2567 733b 7574 993c 6bec 323d ec5c 26bd
00000240: 731e da3c 399e 003d 47c3 3b3d a87c 86bc
00000250: eb3d 073c 3d76 ad3c 91f2 a6bc a5be 19bd
00000260: 2616 a13c c7ea 703c 608c e73c 4e37 63bb
00000270: 56b9 a93b a10e e13a ea69 53ba 7399 203c
00000280: 3ada 003c 9b50 a4bd 30e6 39bd ab65 a4bb
00000290: 3e8b b53c 04ff 223d 66f2 523c 968a b43b
000002a0: ba98 b93c acd8 e63c a9f9 09bd 718b afbc
000002b0: c03c 3b3d 1f9f 7bbc d1ce 623d 450c b6bc
000002c0: ead3 013d fedc 18bd bfb4 63bd 2401 30bd
000002d0: b5e1 00bc 1a32 e23c 01bc c23c 1132 183d
000002e0: 5eac a1bc 9a3d a53c 0282 7b3c 2ca0 933d
000002f0: 7f63 543d de5e d73c a633 dc3c 6db0 c63b
00000300: 2a10 8b3c 65cb 1abb 9bed 77bd c3f9 39bc
00000310: 5544 933a aa04 18bd d6c3 40bc 466f a2bd
00000320: b455 e6bb 6bb6 473a 49ec 2dbd 4c97 c13b
00000330: 92e6 04bd 5376 c1bc 5d5e f23a 8d7c c13c
00000340: b52d 63bc 81b2 31bc 08cb 103d c3b7 1a3d
00000350: 3316 4fbc 3599 bcbb ea36 13bb bfb7 43bd
00000360: 5465 863d 45ff b33b 3b13 a63b 3233 1dbc
00000370: 97c8 8dbd 8a45 17bd 7dd0 3d3c 4203 ab3d
00000380: a5be 0f3d 182d 2f3c 0329 a83b 72e9 023d
00000390: 7f65 cbbc 0a89 aabb 225b 523b f281 18bb
000003a0: 40f6 dd3c d910 c23c e138 f63c e163 e03c
000003b0: 6905 8ebc 896c 03bc ffb2 ccbc fc8d 243c
000003c0: 67bc 04b9 abff ae3c 9675 be3c 5eb4 063c
000003d0: 9393 6ebc 9501 9d3c 8b19 84bd 08f2 513d
000003e0: ae1b 6a3d c4c5 b1bd 5fdb be3c 56e2 843b
000003f0: 3c28 ac3d 14d3 f6bb c83f 343c 613d d0bb
0.012262713 -0.030402657 0.039747536 -0.016425135 -0.01947002 0.0108777005 0.049359255 0.06535406
-0.0006242972 0.04681484 0.05858976 -0.03344961 -0.06808202 0.03436881 -0.014846561 0.036924373
0.021944745 0.010229049 0.00986592 0.008342361 0.015702752 -0.035363063 0.00024708564 0.0481959
0.043332323 0.06776904 -0.024538279 0.0010830641 -0.00060539227 -0.06523194 -0.011757371 -0.045424078
-0.088570684 0.053832613 0.056020774 0.07227389 0.092900425 -0.017420776 0.09618221 -0.02437933
-0.01959268 -0.03003405 0.028646484 0.034507196 0.00030359032 0.043952335 0.014999093 -0.012530091
-0.03861478 -0.022340901 0.09405432 0.032077298 -0.011756166 0.065060325 0.051175267 -0.005351357
0.00043121836 0.08130964 -0.004705465 -0.026433272 0.08128798 0.07369639 0.08572191 0.014572606
0.025875313 0.014159786 0.09446397 -0.00079543 -0.010358437 0.008506 -0.033842884 -0.044042636
-0.0238577 -0.012289737 -0.023635456 0.0033317767 -0.023475157 -0.028337112 -0.041920286 0.022342006
0.006664078 0.022404004 0.012278273 -0.011963491 0.07649671 0.002074368 0.016174851 -0.022269491
0.014894469 -0.03954064 0.043330863 0.08486121 -0.03793208 -0.0048117954 0.034195952 0.052349463
0.012980118 -0.007298412 -0.0058288635 -0.035509713 0.01726861 -0.030782854 -0.013906063 0.010877448
0.019424703 -0.04684652 0.075187966 -0.017284594 0.05754586 -0.072481826 -0.028081868 -0.024991347
0.0015984026 0.0017868334 0.035865486 0.05178673 0.011769275 0.04747524 -0.019183334 -0.069895945
0.026885435 0.009999539 0.053089518 0.008500025 -0.006582252 0.09604328 -0.06910126 -0.019208511
-0.02127402 0.029916398 0.06056145 0.02477732 0.04789486 0.0025142885 0.10794421 0.07649777
-0.02610438 0.013090031 0.012505308 0.009481122 0.0037140336 0.018732289 0.043682497 -0.04061596
0.026625847 0.031400893 0.045840528 -0.016416863 0.0082545085 0.021174544 -0.020379337 -0.03753533
0.019663882 0.014704413 0.028265178 -0.0034670415 0.0051795645 0.0017170497 -0.00080647937 0.00980221
0.007864529 -0.08023187 -0.04538554 -0.0050170026 0.022161122 0.039793983 0.012875175 0.005509685
0.022655834 0.02817949 -0.03368536 -0.021428796 0.045712233 -0.015357762 0.055373017 -0.022222647
0.031696238 -0.03732013 -0.055592295 -0.042969838 -0.007866313 0.02761178 0.023771288 0.037157122
-0.019735511 0.020170975 0.0153508205 0.07208285 0.0518527 0.026290353 0.026880097 0.006063512
0.016975481 -0.0023619768 -0.060529333 -0.011351052 0.0011235574 -0.037113823 -0.011765441 -0.0793138
-0.0070292596 0.000761843 -0.042461667 0.0059079286 -0.03244645 -0.023615992 0.0018491257 0.02361896
-0.013865878 -0.010845781 0.035349876 0.037772905 -0.01263957 -0.0057555684 -0.0022463151 -0.047782656
0.065622956 0.005493077 0.0050682104 -0.009594725 -0.06923025 -0.036931552 0.011585352 0.08350231
0.035093922 0.0106919035 0.005131842 0.031960912 -0.02482867 -0.0052043246 0.0032097776 -0.0023270813
0.02709496 0.023689674 0.030056419 0.027391376 -0.017336564 -0.008021482 -0.024987696 0.010043617
-0.00012658686 0.021362146 0.023249429 0.008221714 -0.014561552 0.019165793 -0.064501844 0.05125621
0.057155304 -0.08680299 0.023297964 0.0040553017 0.084061116 -0.0075324867 0.011001535 -0.006354973

action_model._continuous_distribution.mu.bias f4 [2]
00000000: 2751 11bd 1fa8 e1bb
-0.035477784 -0.0068864967

action_model._discrete_distribution.branches.0.weight f4 [1, 128]
00000000: 8b58 5bbc 72ad 36bb f7cc 2e3b ecd9 aabb
00000010: e38d 2d3c 734b 6fbc cdbc dd3b 2da0 d5bb
00000020: 80b3 60bc f81a f63b c3ab 8d3c a7b9 82bb
00000030: a816 e5ba eaa8 273b 9f35 23bc 15c5 e23b
00000040: e37c 1a3c 4b62 48bc 78a2 5e3a b7fa 0a3c
00000050: 1ea3 25bc 000b 79ba fe56 923b 992d 093c
00000060: 80c8 abb9 c491 af3c f69a 94bb f512 7ebb
00000070: f400 213c 3e3d 14bc 3b95 5cbb c968 333c
00000080: 7b8b 5e3c bd03 6cbc 1a04 edbb 578d 26bc
00000090: b11f 8b3b 8e07 3039 be40 babb eef2 2f3c
000000a0: 3dc6 8d3a 2260 53ba a303 49bc dc8e c4bc
000000b0: 423f c2bb 6a7d 82bc 7ad3 493c 9c99 29bb
000000c0: 3afc 89bc 87dc 30bc f201 cebb 03f2 383c
000000d0: 6be1 fabb 7fc2 28ba 4f15 a7ba d7cd b03b
000000e0: 086b 9c3b ff6f e1bb f517 453c c286 11bc
000000f0: 7789 9b3b 9f2a 1ebb bc36 a4bb 2825 903b
00000100: e253 7bbc d863 08bc bb81 88ba 428f 573c
00000110: 9c5f 073c a7b5 8d3c 2066 c83a 27ab c0bb
00000120: 02b8 ae3b cbd9 f03b bb5e 223b abd1 24bc
00000130: b333 f0bb 2206 553a 4e82 17bb b87d 7ebc
00000140: b30a 203c 9eb7 163c c119 3dbc 50e4 60bb
00000150: 2ba7 31bc dfe6 303c 9562 d83b 6e8b ba3b
00000160: f750 b9bb 4b79 a2bb e1b3 2c3c d479 463c
00000170: 8652 b1bb be96 84bb 3022 02bc 2592 893b
00000180: b7d0 473c ca9a d9bb 601f ef3b bb65 b939
00000190: b589 c4bb 900e 24bb 5aa9 023c ccab 8fbb
000001a0: 43ca 1cbc aa8b 91b8 8f41 05bc e62e 88ba
000001b0: e0ad d53b 8d14 c63b bb45 703c b871 bc3b
000001c0: 0755 7dbc aa5a 283c 3b89 75bc c203 813c
000001d0: e763 a23c 63b6 e3bb 7211 62bb 15a6 7abc
000001e0: 8381 b73b a76e 5c3b 8fd3 80bc 83fe cabb
000001f0: 855b 48bb 5f9b 7c3c 785b a03b 5720 eb39
-0.0133878095 -0.0027874378 0.0026672462 -0.0052139666 0.01059291 -0.014605391 0.0067668916 -0.0065193386
-0.013714671 0.007510539 0.017293816 -0.0039894166 -0.0017478066 0.0025582858 -0.009961515 0.0069204667
0.009429189 -0.012230466 0.00084928377 0.008482627 -0.010109691 -0.00095002353 0.0044659367 0.008372688
-0.00032765046 0.021431811 -0.0045350743 -0.0038768623 0.009826887 -0.009047804 -0.0033658284 0.010950276
0.013583059 -0.014405188 -0.007233155 -0.010165534 0.0042457213 0.00016787482 -0.0056839874 0.010739071
0.0010816526 -0.0008063336 -0.0122689335 -0.023993902 -0.005927951 -0.015928943 0.012318486 -0.0025878912
-0.016843904 -0.010794765 -0.006286853 0.011288169 -0.0076562664 -0.00064376736 -0.0012747439 0.005395632
0.0047735013 -0.006879806 0.012029638 -0.008882226 0.0047466117 -0.002413429 -0.0050114077 0.0043989606
-0.015339823 -0.008324586 -0.0010414639 0.013156714 0.008262541 0.017298533 0.0015289225 -0.005879778
0.005331994 0.0073501817 0.0024775702 -0.010059754 -0.007330382 0.0008126219 -0.002311844 -0.015532903
0.009768176 0.009199051 -0.011541785 -0.0034315772 -0.010843079 0.010797231 0.006603549 0.005692891
-0.0056554037 -0.004958307 0.010540933 0.012114007 -0.005411449 -0.00404629 -0.007942721 0.00419833
0.012195758 -0.0066407667 0.0072974414 0.00035361745 -0.0059978613 -0.0025033094 0.007974947 -0.0043844935
-0.009569707 -6.940153e-05 -0.008133306 -0.0010389953 0.0065209717 0.0060449303 0.014665063 0.005750861
-0.015462167 0.010275522 -0.014986332 0.015748862 0.019823028 -0.0069492324 -0.0034495261 -0.015298386
0.005600156 0.003363529 -0.015725879 -0.006194891 -0.0030572128 0.015417903 0.0048937164 0.00044846788

exp_avg f4 [128, 49]
00000000: 3109 0fba 61ec 1c33 b187 6eb9 7cd0 0f39
00000010: 0000 0000 96cb bc39 fb6c 01b9 bd52 ae39
00000020: ae97 6438 3148 7a3a 6b1b 2a3a 62ad 2837
00000030: 931f e5b9 9985 5c39 c0ec 5b36 80a6 3bb7
00000040: 14f5 45b9 942a 93b8 2a6c 5436 eb3d 2cb9
00000050: 24fe 31b7 28b9 9339 9ff6 4736 400c 9a38
00000060: 6de6 3db9 ddfc bc38 7806 5a36 0a98 a339
00000070: 5299 ffb9 eaf8 e638 d1c4 4e36 f6bd 4cb9
00000080: 9c04 f537 2e75 f939 06e7 5036 ebc8 4a39
00000090: a046 7a37 838a 4b39 84d2 efb6 3feb ec38
000000a0: 7a25 0b39 5adb fd38 2683 ffb5 9370 c7b8
000000b0: 474f 29b6 f4f3 c138 5529 4f36 6c59 99b7
000000c0: ff50 14b9 de11 2db8 1f67 7931 f665 ac39
000000d0: bce6 9db8 0000 0000 76b3 ef34 0f4b 6a39
000000e0: 1dbf e2ba 7e1a 8839 00f7 1fb5 5774 3d38
000000f0: 3761 e4b8 d08f 51b7 3c1d 4ab9 3aa6 b534
00000100: 28f5 90b9 6471 7c39 bf4a 94b8 3c76 af34
00000110: b2d9 e136 d07d 8838 697c 01b9 0b32 a534
00000120: ac3d 52b9 d9af 0439 2dff 7c38 ac68 b434
00000130: b7c7 3e39 7940 83b9 b8b1 d3b8 a7a0 ab34
00000140: e554 ddb8 25a1 de38 7ee6 2bb9 7290 ac34
00000150: 5ea1 4eb9 fe93 1538 229b f5b7 0f2b 46b5
00000160: f47e abb8 89ae 3fb8 6255 4938 c9a4 52b4
00000170: f8d4 9db8 b4bf 7037 daab 7bb8 0920 ab34
00000180: cb4e 0a38 3cba 0c38 6930 b0b9 a540 4c33
00000190: 0845 39ba 4c71 b939 0000 0000 0346 18b9
000001a0: e92a 62b9 0446 943b 5d7e 05ba 2f3d c539
000001b0: 7f3a 68ba 621d 3bb9 7ba2 7eba dc1e 7839
000001c0: a6c0 8e36 6f05 cc39 1211 29ba 4a30 1839
000001d0: ebe1 8936 c07e 0a39 bb04 bcb9 6bc0 ae39
000001e0: 71cb 8136 677a 5d39 9c7e 01ba ffae 8738
000001f0: ea7c 8d36 349b 6a3a c272 91ba df22 9f39
00000200: 4522 8636 e7fd 0a38 c986 67b9 b553 0039
00000210: ef98 8736 cb91 a839 74b4 9cb9 ab87 e7b8
00000220: a6ab 1bb7 492c 8937 7513 62b9 23a5 41b9
00000230: 33d9 25b6 a026 9d39 d18d beb9 693a 8838
00000240: a377 8636 ee97 14b9 29d5 1fb9 c815 6e3a
00000250: e040 9e33 3e86 953a 0095 6339 0000 0000
00000260: 552b 8738 3d3b 3c3a 529a 7fba dae8 b739
00000270: cf87 42ba f359 b3b9 86ce 0138 a4b0 aeb9
00000280: 5879 cbb9 1fb9 df36 e739 c5b9 70e3 d739
00000290: d5fa e1b9 4a17 d836 2263 dfb8 2711 f2b8
000002a0: c07a e1b9 786a cb36 dcd6 b4b9 5c91 5f39
000002b0: 655a a4b9 2d13 de36 84bb 9cb9 1a12 1d39
000002c0: 4c97 08ba 8598 d236 3cc7 9bb8 08e4 60b8
000002d0: b1ea 36ba 8282 d436 732c 03ba a36d f6b8
000002e0: 7053 8fb9 a33e 74b7 1575 27b9 73c5 a3b9
000002f0: 9b2d cfb8 4f03 82b6 b8a8 c4b8 86b1 bbb8
00000300: 3d09 a9b9 20bd d236 5d07 5038 3532 bfb8
00000310: aa06 cf39 384b 5834 b9f1 c73a 4507 143a
00000320: 0000 0000 66eb 783a 70d4 7f3a 423f b2b9
00000330: 952c 673a 4221 003a 0c55 313a ba1f 3238
00000340: 8a01 9cba 3455 94b9 737e 9837 d5ec 60ba
00000350: 74ca 6bb7 cbea 12ba a24a 9337 f076 d1b9
00000360: f7e6 d8b9 a296 3bb9 d3a6 8a37 a532 20ba
00000370: 6e5f 9ab9 d4d3 a0b9 624d 9737 871c a9b9
00000380: bf54 31ba 14b7 21ba db79 8f37 3158 2cba
00000390: 71da 80b9 b953 b5b9 b5d9 9037 b9d9 39ba
000003a0: 4101 adb9 8855 48b7 3370 26b8 9168 87b9
000003b0: ab6f 38ba 1395 d638 343c 31b7 7bf5 c7b9
000003c0: b0e4 0eba fc08 95b9 aca4 8f37 f101 b9b8
000003d0: 7fcc 18ba 1b69 333a f807 fb31 30cc 103a
000003e0: 2d45 9cb8 0000 0000 e20e 7fb6 ba5f d039
000003f0: fe58 a5ba 51d0 4a39 80d5 e2b8 3d14 41b9
-0.0005456387 3.6536566e-08 -0.00022747998 0.00013715209 0.0 0.00036009838 -0.00012342997 0.0003324951
5.45007e-05 0.00095475005 0.0006489071 1.0053949e-05 -0.00043701808 0.00021030604 3.277135e-06 -1.1184835e-05
-0.00018878683 -7.017437e-05 3.1653422e-06 -0.00016426264 -1.0609194e-05 0.00028175977 2.9796863e-06 7.345574e-05
-0.00018110285 9.011638e-05 3.2488297e-06 0.0003120306 -0.00048751623 0.000110136185 3.0810954e-06 -0.00019525722
2.9208422e-05 0.00047580287 3.1128889e-06 0.00019339069 1.4917605e-05 0.00019411188 -7.1472623e-06 0.00011297175
0.00013270034 0.000121048375 -1.903715e-06 -9.510028e-05 -2.5229108e-06 9.248397e-05 3.0869462e-06 -1.8280662e-05
-0.00014144553 -4.1263054e-05 3.6292886e-09 0.00032882363 -7.529321e-05 0.0 4.4647794e-07 0.0002234394
-0.0017299388 0.0002595968 -5.959155e-07 4.516946e-05 -0.00010889995 -1.2490855e-05 -0.00019275112 3.3834823e-07
-0.00027648476 0.00024074834 -7.0711125e-05 3.2682317e-07 6.7308656e-06 6.50842e-05 -0.00012348745 3.0770056e-07
-0.00020050135 0.0001265401 6.0319133e-05 3.3603771e-07 0.00018194212 -0.00025034303 -0.00010094367 3.1968122e-07
-0.00010553914 0.000106158004 -0.00016393696 3.2142594e-07 -0.00019705805 3.5662197e-05 -2.9278515e-05 -7.3823406e-07
-8.177562e-05 -4.5700497e-05 4.8001653e-05 -1.9617723e-07 -7.526012e-05 1.4349749e-05 -6.0003113e-05 3.187454e-07
3.2975146e-05 3.3552045e-05 -0.00033605404 4.7556245e-08 -0.00070674764 0.00035370362 0.0 -0.00014521931
-0.00021569025 0.004524948 -0.0005092377 0.00037620353 -0.0008858814 -0.00017844656 -0.00097135425 0.00023662619
4.254357e-06 0.0003891396 -0.0006449382 0.00014513839 4.1092185e-06 0.00013207924 -0.0003586168 0.0003333123
3.8681833e-06 0.00021121801 -0.0004939826 6.469897e-05 4.2166694e-06 0.00089495187 -0.0011096823 0.00030352824
3.9975007e-06 3.313823e-05 -0.00022080088 0.00012238215 4.0411173e-06 0.0003215208 -0.00029889087 -0.000110402085
-9.278685e-06 1.6352295e-05 -0.00021560288 -0.00018467433 -2.4713343e-06 0.0002997415 -0.00036345285 6.495865e-05
4.0074387e-06 -0.00014170978 -0.0001524283 0.0009082225 7.369249e-08 0.0011407805 0.00021703914 0.0
6.445373e-05 0.0007180458 -0.00097504735 0.00035077968 -0.000742075 -0.00034208558 3.0948337e-05 -0.00033319474
-0.00038809585 6.667469e-06 -0.0003761791 0.0004117745 -0.0004310223 6.440013e-06 -0.000106519336 -0.00011542654
-0.000430068 6.062266e-06 -0.00034492358 0.00021321088 -0.00031347867 6.618348e-06 -0.0002989435 0.0001497943
-0.0005210533 6.2762433e-06 -7.428086e-05 -5.3618132e-05 -0.0006977721 6.3332855e-06 -0.0005003877 -0.000117506155
-0.0002733725 -1.4558117e-05 -0.00015969978 -0.00031236894 -9.879024e-05 -3.874687e-06 -9.3774346e-05 -8.949921e-05
-0.00032241075 6.2805047e-06 4.9597922e-05 -9.1169415e-05 0.00039487082 2.0143932e-07 0.0015254534 0.0005646835
0.0 0.00094955263 0.00097591337 -0.00033997936 0.0008818594 0.00048877683 0.0006764687 4.2468055e-05
-0.0011902314 -0.0002829224 1.8178695e-05 -0.00085802126 -1.4054229e-05 -0.0005604445 1.755852e-05 -0.00039952202
-0.00041370813 -0.00017889825 1.6528566e-05 -0.0006111062 -0.0002944427 -0.00030675402 1.8036637e-05 -0.00032255446
-0.00067646423 -0.00061689434 1.7103672e-05 -0.0006574421 -0.00024576814 -0.00034585388 1.7267515e-05 -0.0007089633
-0.00032998066 -1.1940843e-05 -3.9681978e-05 -0.00025827115 -0.0007035683 0.000102320824 -1.0564039e-05 -0.00038139135
-0.0005450947 -0.00028426189 1.712361e-05 -8.821849e-05 -0.0005828812 0.000684397 7.3059674e-09 0.00055235904
-7.451545e-05 0.0 -3.8006624e-06 0.00039744173 -0.0012615023 0.00019341825 -0.00010816287 -0.00018413454

exp_avg_sq f4 [128, 49]
00000000: b603 1136 609d ff34 315b 0b36 81ae ad35
00000010: 0000 0000 ff84 d135 6aeb 0436 7e6f 3636
00000020: 1a20 9b35 28c4 c136 387f 8236 b8c5 a135
00000030: 9db3 4936 4cee 4b35 5306 2535 119b 2035
00000040: d6c9 3235 7418 3835 51f0 7334 7f95 d734
00000050: 39a5 4435 8d81 2535 caf1 c334 188a e934
00000060: da06 5235 357b 2235 4e34 ac34 b57c 7235
00000070: 0bac ba35 53e4 8d35 aebe 9c34 4ae4 5835
00000080: b9c8 a035 4429 af35 b464 6732 0f65 af35
00000090: dc8d cd35 b412 a935 6ba4 ff34 6d8b b335
000000a0: 09b7 0536 9de2 8f35 43a3 0433 7b28 6d35
000000b0: 186a bc35 35b2 a535 26f9 d934 b2f4 1d35
000000c0: d22e 9d35 e07e 8d35 ce53 6535 3c28 a035
000000d0: 4e2e 2535 0000 0000 d79f 0835 d2d3 4735
000000e0: e937 5937 efe4 a734 01d3 1136 82e6 3435
000000f0: 52cf 5d35 e48b 0536 63ed 7234 c751 a835
00000100: fd6e 1934 0132 d834 3c2b 7334 2288 1634
00000110: fd72 bb33 fef7 f334 d22e 4634 9ac1 8835
00000120: 221b cb33 04dc 0435 2781 4834 2ce9 eb34
00000130: 7b0a 8134 df12 2835 8cd7 e134 36d2 5735
00000140: 2434 da34 4005 5335 049a dd34 28bc ab31
00000150: 8fb5 ad34 f2dc 3635 352d f834 4ea1 f335
00000160: 6f8f 9a34 00d9 3d35 98f7 c434 f7c9 dd32
00000170: 8fda 7234 fd54 2b35 1ace c734 327f 8b35
00000180: 2f7d 3734 4ad6 1835 9c3d 0837 d6c0 9a35
00000190: 06fa 3537 0d51 b636 0000 0000 ad18 ad36
000001a0: b7d5 8736 1a82 eb38 c5b4 4636 3269 cd37
000001b0: 5ae4 2737 139b e936 c4ac 9737 c253 0a36
000001c0: fced 9336 46d6 2836 75b0 ae36 aef1 0f36
000001d0: 9558 8f35 e276 0036 6247 b836 39f1 0336
000001e0: f16e 9336 c8d7 2336 6bc4 c936 e868 1836
000001f0: 1d7e 1136 6887 cb36 7b2e 1037 5a93 0136
00000200: 0618 fe35 5956 2336 5c51 b936 f680 1336
00000210: dab3 9233 86c0 9536 356c f336 35c8 0436
00000220: 6f58 2736 be8f f336 1411 2d37 1a3a 1536
00000230: a75d 6834 1024 7a36 b6ce e936 ae48 0036
00000240: 8aa7 4636 9f0a 1b36 f5d8 c336 cc0b 7536
00000250: b6be 5d35 45a9 7836 7814 2b36 0000 0000
00000260: c839 1f36 b057 1c36 cb4a b836 4d13 f935
00000270: 74fc 2237 2078 7836 7277 1736 aea1 b936
00000280: 8e69 7f35 a7ea ba36 17cd e535 ae15 0d36
00000290: 0688 ab35 cf65 6c34 adb5 bf35 3ae7 0c36
000002a0: 3f9a 8435 5527 bc36 bd0d ac35 b6d4 0c36
000002b0: b417 9335 0644 fb34 8612 5c36 cf01 7a36
000002c0: 4bf4 8035 b24b a236 98da 1636 f13b 3b36
000002d0: 7bcc 9635 9daf fb32 4ad4 0a36 9ea9 2c36
000002e0: 1de5 5935 957b c235 577f 6d36 6c56 9736
000002f0: 1e85 6f35 fef3 0533 b389 8135 eb37 f435
00000300: 5e41 7d35 75f6 b436 52d1 aa35 daa3 1736
00000310: df21 8a36 9d89 2d35 d389 6536 b15a 1a36
00000320: 0000 0000 c4cf 1236 b8ec 7236 6424 9c35
00000330: 2961 e535 1880 2637 4eb7 6636 89dc 2536
00000340: 40d7 a936 e121 8635 c0c1 6f36 e486 ad35
00000350: a124 d035 b177 d035 4f4d 9934 720f 9b35
00000360: 0a0b ce35 6f54 9b35 9c20 7636 0b4f 9135
00000370: 2349 ce35 098d ab35 9d04 4233 4831 b435
00000380: 3ee9 ff35 4f94 d735 af0d 6436 e132 2936
00000390: e3b6 4036 306f c535 f6d8 4733 d709 2136
000003a0: a8fd 3836 c1be b235 de78 cf35 d312 f235
000003b0: 8396 3336 525e bb35 18a0 0033 3a20 da35
000003c0: a07b 1136 f42d cd35 75dd 6136 ffbe 9f35
000003d0: 33f8 f535 97ad 0436 567e 9d33 e579 0336
000003e0: 6a54 0a36 0000 0000 7fdd b635 7d90 e735
000003f0: b3d3 8636 bc79 3335 927c 8136 1113 d835
2.1608844e-06 4.7611957e-07 2.0765694e-06 1.2940292e-06 0.0 1.561042e-06 1.9806562e-06 2.718501e-06
1.1557743e-06 5.774684e-06 3.889112e-06 1.2052978e-06 3.0055883e-06 7.597016e-07 6.1476493e-07 5.9830296e-07
6.660388e-07 6.8580925e-07 2.2718565e-07 4.0155643e-07 7.325612e-07 6.165581e-07 3.6497505e-07 4.3500108e-07
7.8241067e-07 6.052899e-07 3.2075553e-07 9.03335e-07 1.3908151e-06 1.057177e-06 2.9196002e-07 8.0798475e-07
1.1979347e-06 1.3050526e-06 1.3468867e-08 1.3067928e-06 1.5314977e-06 1.2596925e-06 4.761708e-07 1.3377118e-06
1.9925085e-06 1.0720283e-06 3.088213e-08 8.8348287e-07 1.4037969e-06 1.2345323e-06 4.060068e-07 5.8843136e-07
1.1711038e-06 1.0542244e-06 8.54311e-07 1.1932639e-06 6.153467e-07 0.0 5.0896546e-07 7.4441516e-07
1.29472255e-05 3.1272745e-07 2.1729504e-06 6.739066e-07 8.2630606e-07 1.9899971e-06 2.2624367e-07 1.2540776e-06
1.4289613e-07 4.0269518e-07 2.2646867e-07 1.4019363e-07 8.728782e-08 4.5442715e-07 1.845722e-07 1.0189135e-06
9.4578596e-08 4.9493997e-07 1.8673437e-07 4.3941816e-07 2.4035748e-07 6.261234e-07 4.2066347e-07 8.039964e-07
4.0643602e-07 7.8611265e-07 4.127652e-07 4.998146e-09 3.2355862e-07 6.81218e-07 4.6226492e-07 1.8151857e-06
2.8789097e-07 7.0723763e-07 3.6687993e-07 2.5819629e-08 2.2617517e-07 6.382614e-07 3.7216597e-07 1.0393326e-06
1.7088745e-07 5.6936244e-07 8.120576e-06 1.1530017e-06 1.0846654e-05 5.433458e-06 0.0 5.1586744e-06
4.048193e-06 0.000112299065 2.960952e-06 2.448689e-05 1.0007143e-05 6.961994e-06 1.8081053e-05 2.0612356e-06
4.4086464e-06 2.5158674e-06 5.2061464e-06 2.1449337e-06 1.0680111e-06 1.9142685e-06 5.4919374e-06 1.9660931e-06
4.3938567e-06 2.4414494e-06 6.013133e-06 2.2710828e-06 2.1680091e-06 6.065635e-06 8.593891e-06 1.9308268e-06
1.8931466e-06 2.4339154e-06 5.522901e-06 2.1979772e-06 6.8313696e-08 4.4629587e-06 7.2545613e-06 1.9786069e-06
2.4936414e-06 7.258698e-06 1.031558e-05 2.223655e-06 2.1640754e-07 3.7273894e-06 6.9680054e-06 1.9115791e-06
2.960182e-06 2.3102982e-06 5.83671e-06 3.6514712e-06 8.2606437e-07 3.7053408e-06 2.54929e-06 0.0
2.372648e-06 2.3296852e-06 5.4923344e-06 1.8557563e-06 9.714731e-06 3.7024802e-06 2.257028e-06 5.5322516e-06
9.5148505e-07 5.570549e-06 1.7121519e-06 2.1023257e-06 1.2780081e-06 2.201625e-07 1.4283484e-06 2.0996217e-06
9.879658e-07 5.6074155e-06 1.2818997e-06 2.098544e-06 1.0959252e-06 4.6801887e-07 3.2793337e-06 3.7253956e-06
9.607842e-07 4.8367883e-06 2.247898e-06 2.7900062e-06 1.1235383e-06 2.9300105e-08 2.068717e-06 2.5728727e-06
8.1172203e-07 1.4490093e-06 3.5389874e-06 4.5102115e-06 8.922815e-07 3.1188385e-08 9.651325e-07 1.8195691e-06
9.4344966e-07 5.3931094e-06 1.2726907e-06 2.2596128e-06 4.1166636e-06 6.4647776e-07 3.4203883e-06 2.3000578e-06
0.0 2.187663e-06 3.6198599e-06 1.1633497e-06 1.7090107e-06 9.924195e-06 3.4379368e-06 2.4715284e-06
5.061651e-06 9.993638e-07 3.5726553e-06 1.2928763e-06 1.5507868e-06 1.5532042e-06 2.855472e-07 1.1552895e-06
1.5351409e-06 1.1572973e-06 3.6675838e-06 1.0826346e-06 1.5369482e-06 1.278154e-06 4.517334e-08 1.3425388e-06
1.9066863e-06 1.6061912e-06 3.3982612e-06 2.5212578e-06 2.8716684e-06 1.4710004e-06 4.6530623e-08 2.3996597e-06
2.7565784e-06 1.331755e-06 1.5457879e-06 1.8035884e-06 2.6760688e-06 1.3960037e-06 2.9947927e-08 1.6251645e-06
2.1678643e-06 1.5287064e-06 3.3656518e-06 1.190201e-06 1.8326158e-06 1.9770575e-06 7.3338626e-08 1.9591473e-06
2.0612738e-06 0.0 1.362452e-06 1.7252893e-06 4.0181562e-06 6.6859843e-07 3.8590015e-06 1.6098803e-06
