results/Group16/Group16/Group16-36237.pt (torch, 495049 bytes, 47 tensors)

network_body.observation_encoder.processors.0.normalizer.running_mean f4 [21]
0	0x39fcc0fe	0.00048208976
1	0xac4fd873	-2.9536623e-12
2	0x392798f4	0.0001598334
3	0x3e5893e5	0.21150167
4	0x00000000	0.0
5	0xbec9bd73	-0.3940235
6	0xc014d689	-2.3255942
7	0xbf810221	-1.0078775
8	0x40004cf6	2.0046973
9	0xbde318aa	-0.11088689
10	0x3e3c8137	0.18408667
11	0x40f52163	7.6603255
12	0x41497ce2	12.592989
13	0x3dd9f755	0.10642878
14	0xb72f05a6	-1.0432128e-05
15	0x3d9f96f1	0.07792462
16	0x4129cb40	10.612122
17	0xbdd9f764	-0.10642889
18	0x372f0535	1.0432025e-05
19	0xbd9f96f2	-0.077924624
20	0x4129320f	10.574721

network_body.observation_encoder.processors.0.normalizer.running_variance f4 [21]
0	0x4725666f	42342.434
1	0x3fc84788	1.564683
2	0x47593395	55603.582
3	0x4908b48f	559944.94
4	0x3f800000	1.0
5	0x490ea461	584262.06
6	0x49c11789	1.5818091e+06
7	0x43a92b5f	338.33884
8	0x49ee0984	1.9500005e+06
9	0x48473321	203980.52
10	0x483cb222	193224.53
11	0x48ec023f	483345.97
12	0x4a2ede5b	2.8650468e+06
13	0x4a1a485c	2.527767e+06
14	0x41495b4d	12.58479
15	0x4a6bd9c9	3.8641782e+06
16	0x4a0d164f	2.3115718e+06
17	0x4a32cadc	2.929335e+06
18	0x4151160e	13.067884
19	0x4a6b5756	3.8558295e+06
20	0x4a26d704	2.733505e+06

network_body.processors.0.normalizer.running_mean f4 [21]
0	0x39fcc0fe	0.00048208976
1	0xac4fd873	-2.9536623e-12
2	0x392798f4	0.0001598334
3	0x3e5893e5	0.21150167
4	0x00000000	0.0
5	0xbec9bd73	-0.3940235
6	0xc014d689	-2.3255942
7	0xbf810221	-1.0078775
8	0x40004cf6	2.0046973
9	0xbde318aa	-0.11088689
10	0x3e3c8137	0.18408667
11	0x40f52163	7.6603255
12	0x41497ce2	12.592989
13	0x3dd9f755	0.10642878
14	0xb72f05a6	-1.0432128e-05
15	0x3d9f96f1	0.07792462
16	0x4129cb40	10.612122
17	0xbdd9f764	-0.10642889
18	0x372f0535	1.0432025e-05
19	0xbd9f96f2	-0.077924624
20	0x4129320f	10.574721

network_body.processors.0.normalizer.running_variance f4 [21]
0	0x4725666f	42342.434
1	0x3fc84788	1.564683
2	0x47593395	55603.582
3	0x4908b48f	559944.94
4	0x3f800000	1.0
5	0x490ea461	584262.06
6	0x49c11789	1.5818091e+06
7	0x43a92b5f	338.33884
8	0x49ee0984	1.9500005e+06
9	0x48473321	203980.52
10	0x483cb222	193224.53
11	0x48ec023f	483345.97
12	0x4a2ede5b	2.8650468e+06
13	0x4a1a485c	2.527767e+06
14	0x41495b4d	12.58479
15	0x4a6bd9c9	3.8641782e+06
16	0x4a0d164f	2.3115718e+06
17	0x4a32cadc	2.929335e+06
18	0x4151160e	13.067884
19	0x4a6b5756	3.8558295e+06
20	0x4a26d704	2.733505e+06

network_body._body_endoder.seq_layers.0.weight f4 [128, 21]
0	0xbc1269d7	-0.008936367
1	0x3e33d40c	0.17561358
2	0xbcd823c4	-0.026384242
3	0x3e521f7e	0.20519826
4	0x3d22a40c	0.03970723
5	0x3dfc2f7e	0.12313746
6	0x3e8c4531	0.2739654
7	0x3da398f0	0.07988155
8	0x3e3e2f6c	0.18572778
9	0x3e06db02	0.13169482
10	0xbb6cf241	-0.0036155137
11	0x3e2fd605	0.17171486
12	0x3dd298e0	0.10283065
13	0xbe25be2d	-0.16185828
14	0xbd934118	-0.0719015
15	0x3d751472	0.05983395
16	0xbe0db63c	-0.13839048
17	0xbdceab58	-0.10091275
18	0xbcbb5bed	-0.022870982
19	0xbe74047f	-0.2382984
20	0x3e80489c	0.25055397
21	0x3e0db58e	0.13838789
22	0xbe1204e9	-0.14259686
23	0xbe42bbfd	-0.19017024
24	0xbd3ac7b0	-0.045600593
25	0xbea20d4b	-0.31650767
26	0xbe67d5b2	-0.22640112
27	0x3da1a65a	0.07893057
28	0x3dba4545	0.09095243
29	0x3e5d492d	0.21609946
30	0x3e249b58	0.16074884
31	0x3eb09a14	0.34492552
32	0xbc738098	-0.014862202
33	0xbdf7f0e7	-0.12106495
34	0x3ea4d49e	0.32193464
35	0xbe929bc4	-0.28634465
36	0x3d874e92	0.06606783
37	0x3e83bbf7	0.25729343
38	0xbe173f44	-0.14770228
39	0xbe7d1de0	-0.24718428
40	0xbecf63d8	-0.40505862
41	0xbe4a2c8e	-0.19743559
42	0x3dcfc064	0.101441175
43	0x3e28fa57	0.16501747
44	0xbe74d505	-0.23909386
45	0xbb06b5c9	-0.002055513
46	0xbe9c8584	-0.30570614
47	0x3ebbabfe	0.36654657
48	0x3e05221c	0.13001293
49	0xbe10795a	-0.14108792
50	0x3e0b8d5a	0.1362814
51	0x3e9db88c	0.3080486
52	0x3dc224d7	0.09479683
53	0x3d8e3728	0.06944114
54	0xbdd9d0ce	-0.106355295
55	0xbdbe1c29	-0.09282715
56	0x3d9533e3	0.07285287
57	0x3e53e00a	0.20690933
58	0x3d8bfeff	0.06835746
59	0x3c62abdf	0.013834923
60	0x3e2037d9	0.15646304
61	0x3d9c7c2a	0.0764087
62	0x3ca6fa6d	0.020383084
63	0xbe4b99d5	-0.19882901
64	0xbedb4ec2	-0.42833525
65	0x3e978965	0.2959701
66	0x3f278155	0.6543172
67	0x3e3aca94	0.1824134
68	0x3e0de585	0.13857086
69	0xbdcace13	-0.09902587
70	0x3d025d30	0.03182715
71	0x3c3a8f49	0.011386701
72	0x3c8c67b4	0.017139293
73	0x3e4d9dc3	0.20079713
74	0xbe2aefb6	-0.16693005
75	0x3e8d2b2e	0.27572006
76	0xbdc3f430	-0.095680594
77	0xbe9226f3	-0.2854534
78	0xbdf28398	-0.11841506
79	0xbe9f1399	-0.3106964
80	0x3e251ef2	0.16125086
81	0xbe957b57	-0.29195663
82	0x3d96e9c0	0.07368803
83	0x3e0224c4	0.12709337
84	0x3ee798c0	0.45233727
85	0xbe66a093	-0.22522192
86	0x3e40821e	0.18799636
87	0x3e855dba	0.2604807
88	0x3d938bc4	0.072043926
89	0xbe0dee8f	-0.13860534
90	0xbc60c130	-0.0137179345
91	0x3e2b31c7	0.16718207
92	0x3bc3961f	0.0059688236
93	0x3e6537dc	0.2238459
94	0x3e14ba3e	0.14524171
95	0xbe0c8dab	-0.13725917
96	0x3dfd18fc	0.12358281
97	0x3db845b7	0.08997672
98	0xbe583078	-0.2111224
99	0x3e359d5a	0.17735806
100	0xbc63a99e	-0.01389542
101	0xbe243e50	-0.16039395
102	0xbed00183	-0.40626153
103	0x3d98b95a	0.07457228
104	0x3e7a88ba	0.2446622
105	0xbe9e97b4	-0.30975115
106	0xbe3e8dea	-0.18608823
107	0xbe18624e	-0.1488125
108	0xbd4e97e1	-0.05043781
109	0xbe1f5064	-0.1555801
110	0xbe122138	-0.14270484
111	0xbe85198d	-0.25996056
112	0xbed23627	-0.4105694
113	0x3df3e060	0.119080305
114	0xbce5e724	-0.028064318
115	0xbdd37554	-0.10325113
116	0x3ea06f13	0.31334743
117	0x3e129e19	0.14318122
118	0xbe173c9f	-0.14769219
119	0xbe317b82	-0.1733227
120	0xbe5fbf4e	-0.2185032
121	0x3d99093c	0.074724644
122	0xbe0f7900	-0.14011002
123	0xbe5852b6	-0.21125302
124	0x3e971f76	0.2951619
125	0xbbcd6457	-0.006268065
126	0x3e627a75	0.22117026
127	0x3b371c0f	0.0027940308
128	0xbe5a8f26	-0.2134367
129	0x3e883fea	0.26611263
130	0xbe3fad4d	-0.18718453
131	0xbeef773f	-0.46770665
132	0xbda6eec4	-0.0815101
133	0xbe9aa070	-0.3020053
134	0xbc809f4e	-0.015700962
135	0xbe1699a0	-0.14707041
136	0x3dbc3ae9	0.09190924
137	0x3d9fd40b	0.07804116
138	0xbd75d595	-0.06001814
139	0xbee7b3e8	-0.45254445
140	0xbcd2499e	-0.025669869
141	0xbe3a199e	-0.18173835
142	0x3e4273f5	0.18989547
143	0x3e9f4490	0.31106997
144	0x3d620e9f	0.055189725
145	0x3d9affc3	0.07568314
146	0xbe73d062	-0.2380996
147	0xbe29858b	-0.16554849
148	0x3cb30d85	0.021857033
149	0x3baf9b24	0.0053590704
150	0xbe3f4cf0	-0.18681693
151	0x3ef5fb31	0.48043206
152	0x3ee5e63a	0.4490221
153	0xbe0a6347	-0.13514434
154	0xbe240dc8	-0.16020882
155	0xbe9743c9	-0.29543903
156	0x3df9c514	0.12195793
157	0x3e564e79	0.20928372
158	0xbc71519c	-0.01472893
159	0xbe93a23d	-0.28834715
160	0xbeb6fd50	-0.35740137
161	0x3d5e8c07	0.05433276
162	0x3d4de599	0.05026779
163	0x3dd27734	0.102766424
164	0x3d014289	0.031557593
165	0xbea25341	-0.31704143
166	0x3d5b2331	0.053500358
167	0xbda1ecab	-0.07906469
168	0xbe71a04c	-0.23596305
169	0x3d2246eb	0.039618414
170	0xbe65fe0f	-0.22460197
171	0xbe28d58b	-0.1648771
172	0x3d7d7fb9	0.061889384
173	0xbd543912	-0.05181224
174	0xbe2ac3c3	-0.1667624
175	0x3e8d50f0	0.27600813
176	0x3cf6f87e	0.030147787
177	0xbde4bffb	-0.1116943
178	0xbd514e59	-0.05110011
179	0xbdd3f811	-0.10350049
180	0xbd49727c	-0.049181446
181	0x3e108076	0.14111504
182	0x3b4e8374	0.0031511458
183	0xbe729148	-0.23688233
184	0x3dd9ddb4	0.1063799
185	0xbe7f09e2	-0.24906114
186	0x3e913e37	0.2836778
187	0xbe116bc8	-0.14201272
188	0xbd807f10	-0.06274235
189	0x3e1ccd13	0.15312605
190	0x3de56029	0.11199982
191	0x3eadff68	0.33983922
192	0x3d8d6d1e	0.06905578
193	0xbe3eb131	-0.1862228
194	0x3e3b0690	0.18264222
195	0x3e8578d8	0.2606876
196	0xbec31ca1	-0.3810778
197	0xbe636206	-0.22205362
198	0xbe5602df	-0.20899533
199	0xbc4fc469	-0.012681105
200	0xbe926f3d	-0.28600493
201	0xbd9b1b8c	-0.075736135
202	0xbea5a971	-0.32355836
203	0xbd90fdf5	-0.070796885
204	0x3e85f9fb	0.26167282
205	0xbe3d9ab8	-0.18516052
206	0x3d24fa90	0.040278018
207	0xbd9fec31	-0.07808722
208	0xbebc3dc5	-0.36765876
209	0xbdbcaeb4	-0.092130095
210	0xbe6f6ea4	-0.2338205
211	0x3c352250	0.011055544
212	0x3de9bdd3	0.11413159
213	0x3c9a7e3e	0.018859025
214	0xbe3214b7	-0.17390715
215	0x3cf34aae	0.029698696
216	0x3e95ce06	0.29258746
217	0x3eada74a	0.33916694
218	0x3dfb75b2	0.12278308
219	0xbe289f58	-0.16467035
220	0xbe1aa72a	-0.1510283
221	0x3e928010	0.2861333
222	0x3e577b7c	0.210432
223	0x3c2bb69a	0.010480547
224	0x3d10fce8	0.03539744
225	0x3ef2d0e0	0.47424984
226	0x3df8a9da	0.121417716
227	0xbe12f085	-0.14349563
228	0xbc80321a	-0.01564889
229	0xbe6fc34e	-0.23414347
230	0x3def7fba	0.11694284
231	0x3dac3bbb	0.0840983
232	0xbb17f646	-0.0023187562
233	0x3e75bfa8	0.23998892
234	0x3dfc3ab4	0.12315884
235	0x3eb897f4	0.3605343
236	0x3e1d4522	0.15358403
237	0xbd9b592f	-0.0758537
238	0xbdd8f96b	-0.10594448
239	0xbd8128f1	-0.06306637
240	0x3ebb7cf4	0.3661877
241	0xbf17d16e	-0.5930394
242	0x3cf6007f	0.030029533
243	0x3eaeb436	0.34121865
244	0xbd96cbc4	-0.07363084
245	0xbd9ddb65	-0.07707862
246	0x3add252f	0.0016872043
247	0x3e4ea4ed	0.20180102
248	0xbe29c0fd	-0.16577525
249	0xbecbdb08	-0.39815545
250	0x3dcb0bcb	0.09914359
251	0x3e02078b	0.1269819
252	0xbe5bda6b	-0.21470039
253	0x3e9246ac	0.28569543
254	0x3e17904e	0.14801142
255	0x3b78111e	0.0037852

network_body._body_endoder.seq_layers.0.bias f4 [128]
0	0xbca847da	-0.020542074
1	0xbc6d815a	-0.014496172
2	0x3c3173e8	0.010830857
3	0x3c6051e0	0.0136913955
4	0x3cc44d15	0.023962537
5	0xbca888c9	-0.020573037
6	0x3bbc5b1d	0.0057481662
7	0xbbb084a8	-0.0053869076
8	0xbb3b711f	-0.002860136
9	0x3b93a09b	0.0045052296
10	0x3cae5f21	0.021285595
11	0xbd17fe13	-0.03710754
12	0x3cd24982	0.025669817
13	0x3b16cfde	0.0023012082
14	0x3b185492	0.0023243767
15	0x3b0cbf9b	0.002147651
16	0xbcc5d0f5	-0.02414749
17	0x3b31bd94	0.0027121054
18	0xbb07f4a5	-0.0020745185
19	0xbcab4853	-0.02090851
20	0xbb4ca3f7	-0.003122566
21	0x3cc728dd	0.024311477
22	0xbbc499c1	-0.005999774
23	0xbcbbdfb3	-0.022933817
24	0xbcfd52ab	-0.030923208
25	0x3c89f2ef	0.016839473
26	0xbbe93f64	-0.0071181525
27	0xbc41286f	-0.011789425
28	0xbc5bddbe	-0.013419567
29	0x3b4f1596	0.003159856
30	0x3b51cfd8	0.0032014754
31	0x3ca3cd9f	0.019995509
32	0xbca7ecc1	-0.020498635
33	0x3cbf8b71	0.02338192
34	0xbc848989	-0.016178863
35	0xbce6e878	-0.028187022
36	0xbbf2cf45	-0.0074099624
37	0xbc669a84	-0.014074925
38	0x3b228d96	0.002480363
39	0xbb94ace4	-0.0045372117
40	0xbcd9ea50	-0.026600987
41	0xbc317838	-0.010831885
42	0xbc0fd050	-0.008777693
43	0x3b177133	0.0023108243
44	0x3c7c55c8	0.015401311
45	0xbcfa5628	-0.03055866
46	0x3bf75646	0.0075481264
47	0xbc4995e5	-0.012303804
48	0x3c8a38dd	0.016872818
49	0x3cbc5c3c	0.0229932
50	0xbb985b5f	-0.004649564
51	0xbba25762	-0.0049542645
52	0x3cd671b2	0.026177261
53	0xbc4c2e0a	-0.012462148
54	0x3d06dad3	0.03292353
55	0x3bbef878	0.0058279596
56	0xbcf143d0	-0.02945128
57	0x3c954769	0.018222528
58	0x3aac5262	0.0013147111
59	0x3c8e58df	0.017376361
60	0xbc7b33cf	-0.015332176
61	0x3c9646fc	0.018344395
62	0x3c0e0d28	0.008670129
63	0xbc4c5844	-0.012472216
64	0xbb56d2a5	-0.0032779363
65	0xbc5aa971	-0.013346062
66	0x3a44c93d	0.00075067935
67	0xbba1e421	-0.004940525
68	0x3d1b8f56	0.037978493
69	0x3c0bb8a0	0.008527905
70	0xbc2bc045	-0.010482852
71	0x3c3e5904	0.011617903
72	0xbcd9b7b1	-0.026576849
73	0xbcda89fb	-0.026677122
74	0x3c17e219	0.0092702145
75	0x3be47c9d	0.006972863
76	0x3ba27053	0.0049572377
77	0xba47aa69	-0.00076166407
78	0x3c871b24	0.016492434
79	0x3adbf5a3	0.001678158
80	0x3c606f0f	0.013698353
81	0xbc54de29	-0.01299242
82	0xbc5036e1	-0.012708397
83	0x3cb1c223	0.021699017
84	0x3aa1c05e	0.0012340655
85	0xbcbfb2e0	-0.023400724
86	0x3c94d7da	0.018169332
87	0x3cfed320	0.031106532
88	0xbc17c8a7	-0.009264148
89	0x3c3df784	0.011594657
90	0xbca660cf	-0.020309834
91	0x3c165ac4	0.009176914
92	0xbb506b08	-0.0031802077
93	0xbc4ff9b6	-0.012693813
94	0xbc45412a	-0.012039462
95	0x3b8d614d	0.0043145777
96	0xbc84069f	-0.016116438
97	0x3cc5c136	0.024139982
98	0x3bcbff24	0.0062254835
99	0xbc623b31	-0.013808058
100	0xbbd040a6	-0.006355363
101	0x3caa806a	0.020813186
102	0x3c7f5e14	0.015586395
103	0x3d2b86ba	0.041876532
104	0x3b0131a4	0.0019713426
105	0x3af1852c	0.0018426529
106	0x3bb41806	0.005496028
107	0xbca73c15	-0.020414392
108	0x3c9b07fa	0.018924702
109	0xbc519941	-0.012792886
110	0x3b0d0c40	0.0021522194
111	0xbd3bcd92	-0.045850344
112	0x3c89371c	0.016749911
113	0xbd0c3c97	-0.03423747
114	0xb9b76731	-0.00034981364
115	0xbce0719f	-0.027397929
116	0xbc9507ad	-0.018192137
117	0x3c0d2f33	0.00861721
118	0xbc41dcc6	-0.011832422
119	0xbccac39c	-0.024751477
120	0x3b00a915	0.001963203
121	0x3ca7dbaf	0.020490495
122	0x3cbab912	0.022793327
123	0x3c811336	0.01575623
124	0x3c886a3c	0.016652219
125	0xbd012ab1	-0.031534854
126	0x3c29b11d	0.0103571685
127	0x3c929570	0.017893523

network_body._body_endoder.seq_layers.2.weight f4 [128, 128]
0	0xbe304bca	-0.17216411
1	0xbd9c861c	-0.07642767
2	0x3d26c1ea	0.040712275
3	0xbe3291be	-0.17438409
4	0x3de0c904	0.10975841
5	0x3de7126e	0.11282812
6	0x3ac842f9	0.0015278748
7	0x3c42b42e	0.0118837785
8	0x3c86b901	0.016445639
9	0xbbdede27	-0.006801385
10	0xbd1e2f43	-0.03861929
11	0x3d07fc25	0.03319945
12	0xbe0cc553	-0.13747148
13	0x3cd458ef	0.025921313
14	0x3de880c3	0.11352684
15	0x3da5e9cf	0.08101236
16	0xbdd1c5a4	-0.10242775
17	0x3daea944	0.085283786
18	0x3e0f0b62	0.13969186
19	0xbd861649	-0.06547219
20	0x3e339257	0.17536293
21	0x3d8d6054	0.06903139
22	0xbd8f8eae	-0.07009636
23	0x3d7a8dfd	0.061170567
24	0x3d5c1d8d	0.05373912
25	0xbddc202d	-0.107483245
26	0x3d6d72e5	0.0579709
27	0xbcd063fe	-0.025438305
28	0x3aa15c44	0.0012310822
29	0x3d21ef45	0.039534826
30	0x3dee41ac	0.1163362
31	0x3d0964e8	0.033543497
32	0xbd8f74b8	-0.07004684
33	0x3d8d4c4c	0.06899318
34	0x3d985f11	0.074400075
35	0x3d5d7a0d	0.054071475
36	0x3d8f5926	0.069994256
37	0x3dfa848a	0.12232311
38	0x3d8aec35	0.06783334
39	0xbe131809	-0.14364637
40	0x3cfb7015	0.030693093
41	0xbccc5e6a	-0.024947364
42	0x3d3dfec7	0.046385553
43	0xbe0329e5	-0.1280895
44	0x3b507b9c	0.0031811958
45	0xbc808fd5	-0.015693584
46	0x3d831f52	0.06402458
47	0xbd74c294	-0.059755877
48	0xbd4df431	-0.050281707
49	0x3e0473e6	0.12934837
50	0xbcc4b104	-0.024010189
51	0xbdab86b1	-0.083753
52	0x3e08d256	0.13361487
53	0x3d7828d6	0.06058582
54	0x3e051382	0.12995723
55	0x3e177d62	0.14793923
56	0xbcaf3dc8	-0.021391764
57	0x3d174f1d	0.036940683
58	0xbce5cbc0	-0.028051257
59	0x3e01221f	0.12610672
60	0x3e27924e	0.16364405
61	0xbcb162d7	-0.021653576
62	0x3e1b97f2	0.15194681
63	0x3e07064e	0.13185999
64	0x3d5889fc	0.052865967
65	0x3d4465c1	0.047948603
66	0x3cd6c215	0.026215592
67	0xbd150076	-0.036377393
68	0x3d00b6e3	0.031424414
69	0x3d94a411	0.07257856
70	0xbb27cc81	-0.0025604072
71	0xbe125e7c	-0.14293855
72	0xbc079cc5	-0.008277123
73	0x3d80812e	0.06274639
74	0x3e4e0779	0.20120038
75	0xbba0d574	-0.004908258
76	0xbc074ddd	-0.00825831
77	0x3e1f8afb	0.1558036
78	0x3ce1a697	0.027545257
79	0x3e1c207b	0.15246765
80	0x3da23cac	0.079217285
81	0xbd767f31	-0.060179893
82	0xbd1e95f1	-0.038717214
83	0x3de46fbb	0.111541234
84	0xbdaebea7	-0.08532458
85	0xbcafab70	-0.021444052
86	0x3d4bcb98	0.04975471
87	0x3e38844a	0.18019214
88	0x3db01ade	0.085988745
89	0x3e3f4014	0.18676788
90	0x3d96f6e3	0.07371309
91	0xbd22c7c3	-0.03974129
92	0xbdcfa546	-0.10138945
93	0xb77187aa	-1.4396306e-05
94	0xbac94a52	-0.0015357232
95	0xbd462cf8	-0.04838273
96	0x3d82c3f1	0.06385029
97	0x3dc56ac7	0.09639507
98	0x3d5a1c01	0.053249363
99	0xbe45f290	-0.19330812
100	0xbcaa0f4f	-0.020759253
101	0x3d4f50e7	0.050614264
102	0xbd0ecde4	-0.03486432
103	0x3de8fdb7	0.11376517
104	0xbd8a8d4a	-0.0676523
105	0x3d7e7c2c	0.06213014
106	0xbd97d7b1	-0.07414187
107	0x3de0a9e2	0.109699026
108	0x3e14169d	0.14461751
109	0x3d221525	0.039570946
110	0xbd2149f7	-0.03937718
111	0xbde02136	-0.109438345
112	0xbd17c527	-0.037053254
113	0x3d3f8d51	0.04676563
114	0xbc8b4dba	-0.017004836
115	0x3def450c	0.116830915
116	0x3cf8e4ea	0.030382592
117	0xbcbc2ab7	-0.022969587
118	0x3db35374	0.08756152
119	0x3ddea61e	0.10871528
120	0x3d08b2aa	0.033373512
121	0x3e137df0	0.1440351
122	0xbdd5fe7f	-0.10448932
123	0x3d812b32	0.06307067
124	0x3dda38c3	0.10655358
125	0x3e002f04	0.12517935
126	0x3c86232d	0.016374195
127	0x3e0e6691	0.13906313
128	0x3d40aa71	0.047037546
129	0x3e3a6886	0.18203935
130	0x3c677d84	0.014129046
131	0xbdea0f69	-0.114287205
132	0xbb135087	-0.0022478418
133	0x3c19704f	0.009365155
134	0xbda6c33a	-0.08142705
135	0x3dac3693	0.08408847
136	0x3e12734f	0.14301799
137	0x3e13c3a4	0.144301
138	0xbcbaa51d	-0.02278381
139	0xbd78b946	-0.060723566
140	0x3d8b7355	0.06809107
141	0xbdc0d5e0	-0.094157934
142	0x3dbdbf23	0.09264972
143	0xbcf38550	-0.029726654
144	0x3d364d53	0.044507336
145	0xbcaf9245	-0.021432051
146	0x3db673fa	0.089088395
147	0xbd83dc00	-0.06438446
148	0x3cfff603	0.031245237
149	0xbd575cc8	-0.052578717
150	0x3e377c9e	0.17918631
151	0x3cd6701d	0.026176507
152	0xbc3dcddb	-0.011584724
153	0xbdaa5f6e	-0.08318983
154	0x3ceaaa70	0.028645724
155	0x3d24cf9b	0.04023705
156	0xbdb0319a	-0.08603211
157	0x3cb86fa6	0.022514176
158	0xbcb9c4f5	-0.022676924
159	0xbd95e806	-0.073196456
160	0x3dd08d9b	0.10183259
161	0xbe3d708a	-0.18499961
162	0x3e4e1cb9	0.20128144
163	0xbdc591d6	-0.096469566
164	0x3e0783ad	0.13233824
165	0x3dbb5cf9	0.091485925
166	0xbd42089e	-0.0473715
167	0x3cbeea6f	0.023305146
168	0xbda85340	-0.08219004
169	0xbe5ac37e	-0.21363637
170	0xbb0185b5	-0.0019763533
171	0x3cf5d955	0.030010859
172	0x3cd2dc81	0.02573991
173	0x3e0a5ce1	0.13511993
174	0xbd417130	-0.047227085
175	0x3cfa16de	0.030528482
176	0xbe1693cb	-0.14704816
177	0xbdc52cfc	-0.09627721
178	0x3c69ecf0	0.014277682
179	0xbc63d3c6	-0.013905471
180	0x3d4a8391	0.049441878
181	0x3c1ca178	0.0095599815
182	0x3d686ec4	0.05674626
183	0x3d537ed6	0.051634632
184	0xbcea1cb4	-0.02857814
185	0xbdd54288	-0.104130805
186	0xbd3fdcbc	-0.046841368
187	0x3d3cc39f	0.046084996
188	0x3dcedea7	0.10101061
189	0x3e255a9b	0.16147844
190	0x3dcb2065	0.09918288
191	0xbcd7d31e	-0.026345786
192	0x3e2729e8	0.1632458
193	0xbd400fc2	-0.046890028
194	0xbd2d29fc	-0.042276368
195	0x3e0495fe	0.12947842
196	0xbe13d368	-0.14436114
197	0xbd687f64	-0.056762114
198	0xbd88dc26	-0.06682615
199	0x3d6038ce	0.054741673
200	0x3e4b98e8	0.19882548
201	0x3d4a9af7	0.049464192
202	0x3e3be3dd	0.18348642
203	0x3d2eef05	0.042708416
204	0x3c081ba1	0.0083073685
205	0x3d685435	0.05672093
206	0xbbcad0d2	-0.006189444
207	0xbd23ab68	-0.039958388
208	0xbcfab8e4	-0.03060574
209	0xbc2e216d	-0.0106280865
210	0x3d620290	0.055178225
211	0xbe28c274	-0.16480428
212	0xbddcf337	-0.10788577
213	0xbd0aae9a	-0.03385792
214	0xbb573353	-0.0032836988
215	0xbd7928a7	-0.060829785
216	0x3db60918	0.08888453
217	0xbd9eed3f	-0.07760095
218	0x3e37e1f4	0.17957288
219	0xbdacc402	-0.08435823
220	0xbcc1acfa	-0.023642052
221	0x3d1cfd8a	0.03832773
222	0x3dfbb57e	0.12290476
223	0xbd888fd2	-0.066680565
224	0x3d7c7657	0.061636295
225	0xbd62076d	-0.055182863
226	0xbe284a16	-0.16434512
227	0x3db0a3e2	0.08625008
228	0xbde26a47	-0.11055427
229	0xbd56f161	-0.05247629
230	0x3de35b10	0.11101353
231	0x3d7d35f3	0.061819028
232	0x3d8bb1de	0.06821035
233	0x3ce937c4	0.028468974
234	0x3e189b86	0.14903077
235	0x3d34222e	0.04397791
236	0x3d818e02	0.06325914
237	0xbdf74b6c	-0.120749325
238	0xbdddad92	-0.108241215
239	0x3db965a8	0.090525925
240	0xbe18c132	-0.14917448
241	0xbe085df5	-0.13317092
242	0x3d74de1a	0.059782125
243	0xbe315426	-0.17317256
244	0xb984023f	-0.00025178675
245	0x3e1eb300	0.1549797
246	0x3cd61ec5	0.026137719
247	0x3d3a213c	0.04544185
248	0x3c0ad632	0.00847392
249	0xbe151064	-0.14557034
250	0xbc3e24e8	-0.011605479
251	0x3d4ac805	0.04950716
252	0xbcc1d67e	-0.023661848
253	0x3dc59cbe	0.09649037
254	0x3d5ded5e	0.05418145
255	0xbe32181e	-0.17392012

network_body._body_endoder.seq_layers.2.bias f4 [128]
0	0x3c61f088	0.013790257
1	0xbce86913	-0.028370416
2	0xbc439e6f	-0.011939629
3	0xbab193c9	-0.0013548072
4	0xbc538e70	-0.012912378
5	0x3b9e68e0	0.0048342794
6	0xbcc5a903	-0.024128443
7	0x3c9a87bf	0.018863557
8	0x3c345acf	0.011007979
9	0xbca22609	-0.019793527
10	0xbca32bf2	-0.019918416
11	0xbcec96f7	-0.02888058
12	0x3c901f52	0.01759306
13	0xbb86fca2	-0.0041194716
14	0xbc9e4c60	-0.019323528
15	0xbcb08ccd	-0.021551514
16	0xbbab28f9	-0.00522339
17	0xbcb16eaa	-0.021659214
18	0x3b245f1a	0.00250811
19	0xbce90279	-0.028443562
20	0xbbc21685	-0.0059230947
21	0x3bfb9f7b	0.0076789237
22	0x3bc6a460	0.0060620755
23	0x3c7bb136	0.015362075
24	0x3c98dca3	0.018659895
25	0xbcfb125c	-0.030648403
26	0xbc69c76c	-0.014268737
27	0xbccb42ae	-0.024812069
28	0xbd042347	-0.032260206
29	0x3c5a5975	0.013326992
30	0xbb46938c	-0.0030300347
31	0xbc4e7040	-0.012600005
32	0xbb07e106	-0.002073349
33	0xbc4167aa	-0.011804501
34	0x3c1f16a5	0.009709989
35	0x3bdf7606	0.0068194894
36	0x3c2a153c	0.010381039
37	0xbc0b44b8	-0.008500271
38	0xbc9a0222	-0.018799845
39	0xbb417708	-0.002952041
40	0x3898131b	7.2514835e-05
41	0x3b7c5d85	0.003850789
42	0xbc2484e2	-0.010041447
43	0x3c4ac420	0.012375861
44	0xbca057de	-0.019573148
45	0x3bf74633	0.00754621
46	0xbc74c139	-0.014938646
47	0x3c08608e	0.008323802
48	0x3c82a947	0.015949858
49	0x3c35fe79	0.011108034
50	0xba5ce6f1	-0.0008426747
51	0xbc881b29	-0.016614513
52	0x3c7e066b	0.01550446
53	0xbc3a8ecf	-0.011386587
54	0x3aaedbd9	0.0013340666
55	0xbcebef1c	-0.02880054
56	0x3bed9070	0.0072498843
57	0xbc1fdfc2	-0.009757938
58	0xbc855c06	-0.016279232
59	0x3b4f730e	0.0031654271
60	0xbcfce03d	-0.030868644
61	0xbd249418	-0.040180296
62	0x3c4c73fa	0.012478823
63	0x3c481268	0.01221142
64	0xbcbb989e	-0.022899922
65	0xbcc26146	-0.023728024
66	0x3b6abbca	0.0035817497
67	0xbaa499bd	-0.0012558025
68	0xb9024f92	-0.00012427408
69	0xbcecc37b	-0.028901806
70	0xbc95db6f	-0.01829311
71	0xbc750a93	-0.014956134
72	0x3c0f09cb	0.008730362
73	0x3caa5fa8	0.020797566
74	0xbc08f7d1	-0.008359865
75	0x3ca89d40	0.020582795
76	0x3c520a21	0.012819798
77	0xbc239179	-0.009983414
78	0xbcb6eb27	-0.022328926
79	0xbc9a3bcd	-0.018827343
80	0x3be2757e	0.006910979
81	0x3cd2d59a	0.025736619
82	0xbcf7716e	-0.030205455
83	0xbb4f6828	-0.0031647775
84	0xbcb4a9be	-0.022053596
85	0x3cae6e30	0.021292776
86	0x3c84c417	0.016206784
87	0xbc747024	-0.0149193145
88	0x3c87cd67	0.016577436
89	0xbccd3f01	-0.025054457
90	0x3be46953	0.0069705634
91	0x3c8c0fd4	0.017097391
92	0xbc3bd9e2	-0.0114655215
93	0xbccbacdc	-0.0248627
94	0xbc992fc6	-0.018699538
95	0xbca130d2	-0.0196766
96	0xbc45988c	-0.012060296
97	0x3cbc575f	0.02299088
98	0xbc4921fe	-0.012276171
99	0xbca40202	-0.020020489
100	0x3cef39a2	0.029202286
101	0xbcb26edf	-0.021781383
102	0x3b8a093b	0.004212526
103	0xbbf4204e	-0.00745014
104	0xbbd42fa9	-0.006475408
105	0x3c2a7099	0.010402822
106	0xbcd85c32	-0.02641115
107	0xbcecb66f	-0.028895585
108	0x3c1dd3e7	0.009633041
109	0xbc738ef0	-0.014865622
110	0xbcbbcdbe	-0.022925254
111	0xbcf99098	-0.030464455
112	0x3c2f6481	0.010705114
113	0xbc3215ff	-0.010869502
114	0xbce9ad2e	-0.028524961
115	0x3c69369e	0.014234213
116	0xbcc956f8	-0.024577603
117	0xbbdcfda0	-0.0067441016
118	0xbc87290c	-0.016499065
119	0x3cd74894	0.026279725
120	0x3ba2b9e6	0.0049660085
121	0x3d12500b	0.035720866
122	0x3cfcad84	0.030844457
123	0xbba4b135	-0.0050260075
124	0xbc11adea	-0.008891562
125	0xbc28adea	-0.010295371
126	0xbac8573f	-0.001528479
127	0xbba8d01b	-0.005151761

action_model._continuous_distribution.log_sigma f4 [1, 2]
0	0x3c0bae3e	0.008525429
1	0xbd59ba76	-0.05315634

action_model._continuous_distribution.mu.weight f4 [2, 128]
0	0xbc9c7e06	-0.019103061
1	0x3ca98639	0.020693885
2	0x3b89f3f8	0.0042099915
3	0x3cf83ba1	0.03030187
4	0x3d07005e	0.032959335
5	0x3b495bd5	0.0030724902
6	0x3c76f7ff	0.015073775
7	0xbd08e885	-0.033424873
8	0xbce277bf	-0.02764499
9	0x3c58ed3c	0.013240155
10	0x3d1bc5ee	0.038030557
11	0x3ce4489e	0.027866658
12	0xbcc9bd8a	-0.024626512
13	0x3ca3d790	0.02000025
14	0x3d4d917e	0.05018758
15	0x3a3ddd41	0.0007242747
16	0x3bf1767a	0.00736886
17	0x3b9730cd	0.004613972
18	0xbc446fca	-0.011989543
19	0x3c546d7f	0.012965559
20	0xbbc52a40	-0.0060169995
21	0x3ce66fac	0.028129421
22	0xbcaa24f0	-0.020769566
23	0xbb465edc	-0.0030268943
24	0xbcb130f4	-0.021629788
25	0x3c5a98de	0.01334211
26	0xbbe192c1	-0.0068839495
27	0x3cf81192	0.030281816
28	0x3cc8de56	0.02452008
29	0xbc927623	-0.017878598
30	0x3cd767fe	0.026294705
31	0x3bf48fa8	0.007463414
32	0xbbd3cb2c	-0.006463429
33	0x3d8d7a56	0.06908099
34	0xbcbaad88	-0.022787824
35	0xba4181a4	-0.00073816837
36	0xbcd19747	-0.02558483
37	0x3c927d52	0.017882023
38	0x3d4015ad	0.04689567
39	0xbc2df420	-0.010617286
40	0x3b8eaaf4	0.0043538753
41	0xbd0b2769	-0.03397313
42	0x3c6c5842	0.014425339
43	0x3d16826c	0.036745474
44	0x3c8cb8d0	0.01717797
45	0xbc0892ef	-0.008335813
46	0x3d3f4c09	0.046703372
47	0xbc13228e	-0.008980406
48	0xbcf64011	-0.030059846
49	0x3c8fdc36	0.01756106
50	0xbc2d9b11	-0.010596053
51	0x3cc2ccc7	0.023779286
52	0xbd13ced8	-0.036085933
53	0x3d07bc30	0.033138454
54	0x3c16dca4	0.009207878
55	0x3c62fe67	0.0138546
56	0xbcc64ddf	-0.024207054
57	0x3d10dd23	0.035367142
58	0x3ca19b4b	0.01972737
59	0xbc46167c	-0.012090322
60	0x3c4778cd	0.012174797
61	0x3b3f9486	0.0029232814
62	0xbcf1db11	-0.029523404
63	0xbcf5d93b	-0.03001081
64	0x3cd41705	0.025889883
65	0x3bdc61a5	0.0067255073
66	0xbabec87a	-0.0014555596
67	0x3b6ca6a0	0.0036110058
68	0xbc446d0c	-0.011988889
69	0x3c0ac9c1	0.008470953
70	0x3c8b70f4	0.017021634
71	0xbbdb1ad0	-0.006686546
72	0xba8c4e96	-0.0010704573
73	0xbd5fe324	-0.054659978
74	0x3c928eac	0.017890297
75	0xbd548e1f	-0.05189335
76	0xbc7c2825	-0.015390431
77	0x3ce31fcc	0.027725123
78	0x3ce7b773	0.028285718
79	0x3c0884a3	0.008332404
80	0xba1ae49f	-0.0005908701
81	0xbbbddf28	-0.0057944246
82	0x3c528fec	0.012851696
83	0xbaf1619e	-0.0018415933
84	0x3c15a566	0.009133672
85	0xbd076d96	-0.033063494
86	0xbcbb9506	-0.022898208
87	0x3d2936ae	0.041311912
88	0xbca501b1	-0.020142408
89	0x3ab594fa	0.0013853603
90	0xbc6c44a5	-0.014420663
91	0xbcd93ab8	-0.026517257
92	0x3bf5eeef	0.0075052897
93	0x3cdc4022	0.02688605
94	0x3beffc45	0.007323774
95	0x3d166cff	0.03672504
96	0x3cab2407	0.020891203
97	0xbce82795	-0.028339187
98	0x3d075cfe	0.03304767
99	0xbaff379b	-0.0019471528
100	0xbd4adfa6	-0.049529694
101	0x3d103f38	0.03521654
102	0xbbadf33a	-0.005308536
103	0x3a67a796	0.0008836923
104	0xba65e60d	-0.0008769937
105	0xbd08f4d1	-0.0334366
106	0x3c8ee245	0.017441878
107	0x3c8b4ea5	0.017005274
108	0xbbf4b9bc	-0.0074684303
109	0x3c2dda19	0.010611081
110	0xbc398e0b	-0.01132537
111	0x3c783301	0.015148879
112	0xbc88ec6d	-0.0167143
113	0x3c2e956a	0.01065574
114	0x3c7071ab	0.014675538
115	0xbcd764f9	-0.026293265
116	0xb996edf1	-0.0002878751
117	0x3c886fb1	0.016654821
118	0x3d051e31	0.032499496
119	0xbd108649	-0.035284314
120	0xbbe66afc	-0.0070317965
121	0xbd34bc05	-0.044124622
122	0xbd7f8c90	-0.06238991
123	0x3c62064f	0.013795449
124	0x3c2ce0a5	0.010551606
125	0x3c83cad0	0.01608792
126	0x3cb532c0	0.022118926
127	0x3b4a076e	0.0030827182
128	0xbc48ce5d	-0.012256232
129	0x3bb743a4	0.00559278
130	0x3c16ad75	0.009196629
131	0x3d100cdd	0.035168517
132	0x3d12f8a1	0.035881642
133	0x3d3031bb	0.043016177
134	0x3d111c41	0.035427336
135	0x3cf3f486	0.029779684
136	0x3cb13d5c	0.021635704
137	0xbc7858c7	-0.015157885
138	0x3ced27a0	0.028949559
139	0x3b1f3d45	0.0024297994
140	0x395c9129	0.00021034911
141	0x3d3b2d0f	0.045697268
142	0x3c91e0d4	0.017807402
143	0x3bdb70cd	0.0066967965
144	0xbc608761	-0.013704152
145	0x3c8996dc	0.016795568
146	0x3d33287e	0.04373979
147	0x3c13159b	0.008977319
148	0x3cd055c1	0.025431516
149	0xbba17f71	-0.0049285223
150	0x3b570aab	0.0032812755
151	0x39a69409	0.00031772282
152	0xbc987431	-0.018610092
153	0x3b42dd7b	0.0029734063
154	0x3c300816	0.010744115
155	0xbcc53d82	-0.02407718
156	0x3ae10eba	0.0017170527
157	0xbc407109	-0.0117457
158	0x3c96d368	0.018411353
159	0x3d00aba7	0.0314137
160	0x3c7566d3	0.0149781285
161	0x3aa874b5	0.0012852164
162	0x3bf4fde5	0.0074765556
163	0x3d0cddcb	0.034391206
164	0x3d0c888c	0.03430991
165	0xbc7421e3	-0.014900657
166	0xbb63d1c5	-0.0034762484
167	0x39f8af00	0.0004743263
168	0xbcc8ee42	-0.024527673
169	0xbc372847	-0.011179036
170	0xbcfbc70b	-0.03073456
171	0x3d3b6e68	0.04575959
172	0xb9a807cc	-0.00032049266
173	0xbd0586bb	-0.032599192
174	0xbb9dab93	-0.004811713
175	0x3d0af996	0.03392943
176	0x3b55152a	0.0032513835
177	0x3d350fd6	0.044204555
178	0xbcf81ea8	-0.030288056
179	0x3a6650f8	0.0008785869
180	0x3d1540fe	0.036438935
181	0x3d2359fa	0.03988073
182	0xbcd743dc	-0.026277475
183	0x3b315c43	0.002706305
184	0x3b81fd90	0.0039669946
185	0xbca53efe	-0.020171639
186	0xbc0931af	-0.008373662
187	0x3c871367	0.016488744
188	0xbc3f485a	-0.011674965
189	0x3c9444b8	0.018099174
190	0xbd34a41e	-0.044101827
191	0xbc1b3015	-0.009471913
192	0xbcc4dd69	-0.024031358
193	0xbbf75db6	-0.007549013
194	0x3d280e73	0.041029405
195	0x3cb16b54	0.021657623
196	0x3cb2361d	0.021754319
197	0xbb95642f	-0.004559062
198	0x3c74e6c4	0.014947597
199	0x3be11cd0	0.00686989
200	0xbae8102d	-0.0017705016
201	0xbcce670c	-0.025195621
202	0xbd837df7	-0.0642051
203	0x3d145c53	0.03622086
204	0xbbf9d332	-0.0076240534
205	0xbd186263	-0.037203204
206	0x3c569878	0.013097875
207	0xbc01ff43	-0.007934394
208	0x3cad06bd	0.021121377
209	0xbc69fea9	-0.014281907
210	0xbb8f74e0	-0.0043779463
211	0x3ccb491e	0.024815138
212	0xbd0054bc	-0.03133081
213	0x3d339834	0.043846324
214	0x3b063a7d	0.002048164
215	0xbcb1f703	-0.02172423
216	0x3d0052d3	0.031328987
217	0xbb8540ba	-0.004066554
218	0x3cb77b67	0.02239771
219	0x3bef7f80	0.0073089004
220	0xbd233158	-0.03984198
221	0xbcedfe68	-0.029051974
222	0xbcc79c76	-0.024366599
223	0xbcc8dcbc	-0.024519317
224	0x3cf42af3	0.029805636
225	0x3b17f473	0.0023186475
226	0xbcb61244	-0.022225507
227	0x3c6c2b73	0.014414656
228	0xbcd47cae	-0.025938358
229	0x3bbe8631	0.0058143367
230	0xbb8a19af	-0.0042144875
231	0xbd5e9c69	-0.054348383
232	0x3cffdfb3	0.031234598
233	0x3bb8ce04	0.0056397934
234	0xbb280063	-0.0025634996
235	0xbbc483c2	-0.005997152
236	0x3d29b7bd	0.041434992
237	0x3ca429de	0.020039495
238	0xbc07cf73	-0.008289206
239	0x3c63940c	0.013890278
240	0x3c9ed1de	0.019387182
241	0x3cb5fec6	0.022216212
242	0x3b3e832f	0.002906989
243	0xbc1736ba	-0.009229356
244	0xbb6d9372	-0.0036251214
245	0x3ca3bef4	0.019988514
246	0x3c432136	0.011909774
247	0x3cf629f0	0.030049294
248	0xbc474c23	-0.0121641485
249	0x3c54e02a	0.012992898
250	0xbc398f3b	-0.011325653
251	0xbc08fdc7	-0.0083612865
252	0x3cab89d9	0.020939754
253	0x3d4b689a	0.049660303
254	0x3c2a876a	0.010408262
255	0xbbd33a93	-0.0064461916

action_model._continuous_distribution.mu.bias f4 [2]
0	0xbcbb69fd	-0.022877688
1	0x3ad53b16	0.0016268219

action_model._discrete_distribution.branches.0.weight f4 [1, 128]
0	0x3b635e8b	0.0034693803
1	0x3cf07f2f	0.02935752
2	0xbc2ccdda	-0.010547126
3	0x3b4aef9b	0.003096557
4	0xbb56e545	-0.0032790464
5	0xbc301724	-0.010747705
6	0xbcbd98b5	-0.023144105
7	0xbb213a7c	-0.002460151
8	0xbbec86dd	-0.0072182254
9	0xbb4142ea	-0.0029489347
10	0x3c552f48	0.013011761
11	0xbbcb6a5f	-0.006207749
12	0x3c6059c3	0.013693276
13	0x3c178c97	0.009249828
14	0xbba6d7e4	-0.005091654
15	0xba62117f	-0.0008623823
16	0xbb9941ca	-0.004677032
17	0xba5940b7	-0.00082875363
18	0xbb656b42	-0.0035006558
19	0x3c100db6	0.008792331
20	0x3a2f413c	0.0006685441
21	0x3b8095f5	0.0039241263
22	0xbacc150f	-0.0015570241
23	0xbbabf720	-0.0052479655
24	0xbc26b813	-0.010175723
25	0xbbc5555c	-0.0060221385
26	0x3b0b70bb	0.002127691
27	0xbc09036c	-0.008362632
28	0xbc14f9c5	-0.009092753
29	0xbb94f163	-0.004545377
30	0xbba9f9aa	-0.005187233
31	0x3c9268ef	0.017872302
32	0xbb8d9df2	-0.004321807
33	0x3ac0f674	0.0014721886
34	0xbb0a033f	-0.0021059064
35	0x3ca434bc	0.020044677
36	0xbc221454	-0.009892542
37	0x3aae0242	0.0013275819
38	0x3baf037b	0.005340991
39	0x3c8c10f6	0.017097931
40	0xbc0efdcb	-0.008727501
41	0x3b9c37bc	0.0047673862
42	0xbc8041c2	-0.015656356
43	0x3c28c68b	0.010301243
44	0x3a9e776c	0.0012090034
45	0x3a1d665a	0.0006004326
46	0xbbad17b5	-0.005282367
47	0xbc72240d	-0.014779103
48	0x3b97252f	0.004612587
49	0x3ae7cc35	0.001768476
50	0x38e85d80	0.00011080038
51	0xbcaa40ef	-0.020782916
52	0xbb9a451b	-0.004707945
53	0x3bd95bb8	0.006633248
54	0xbba1e5ac	-0.004940709
55	0xbc882a5b	-0.01662176
56	0xb9ea761f	-0.00044719965
57	0xbbf628ca	-0.0075121867
58	0x3c0660fe	0.008201836
59	0xb93e3799	-0.00018140524
60	0x3b2e71cf	0.0026618128
61	0xbb210835	-0.0024571542
62	0x3c225abe	0.00990933
63	0xbc000457	-0.007813535
64	0xbb242fe8	-0.0025052968
65	0xb9385053	-0.0001757753
66	0xbb7cd845	-0.0038581055
67	0xbb1f90bf	-0.002434775
68	0x3b183c9f	0.0023229492
69	0x3c179d0f	0.009253754
70	0xbb9fe3b7	-0.0048794406
71	0x3aae45a6	0.0013295903
72	0xbc216de7	-0.009852863
73	0x3c0db5eb	0.00864933
74	0xbc3ff4a6	-0.011716044
75	0xbbd19a37	-0.0063965577
76	0x3b87a923	0.0041400357
77	0x3c59ba50	0.013289049
78	0x3c198dc3	0.0093721775
79	0xbbbe19e0	-0.0058014244
80	0x3c942d77	0.018088086
81	0x3baad9fc	0.005213974
82	0x3b3b713f	0.0028601435
83	0xbb234a1b	-0.0024915996
84	0xbc1e329d	-0.009655622
85	0x3a87d09f	0.0010361857
86	0xbb74b9fa	-0.0037342296
87	0xbbed3d20	-0.0072399527
88	0x3b60c50d	0.003429714
89	0x3b73f112	0.0037222547
90	0xbbe4a7db	-0.0069780177
91	0x3bab7bc7	0.0052332613
92	0xbae9e61b	-0.0017845066
93	0xbb0699ea	-0.0020538517
94	0x3c3131ff	0.010815143
95	0x3b146746	0.0022644564
96	0xbb89bc70	-0.0042033717
97	0xbc091bb7	-0.008368424
98	0x3bc06eaa	0.005872567
99	0x3b130abf	0.0022436825
100	0xba9fb42a	-0.001218443
101	0xbc74eaf5	-0.014948596
102	0xbb335259	-0.0027362315
103	0xba2bbb0b	-0.0006551004
104	0xbab6b94b	-0.001394072
105	0x3aa5d9ce	0.0012653412
106	0xbaaa78d3	-0.0013005979
107	0xbc38ffab	-0.011291425
108	0xbb5d33c0	-0.003375277
109	0xbba29b4c	-0.0049623605
110	0x3b959506	0.004564884
111	0x3c19ad83	0.009379747
112	0xbc15319b	-0.009106065
113	0x3b5eb368	0.0033981446
114	0xbc1bfc0f	-0.009520545
115	0xbb797138	-0.0038061868
116	0x3bcc6b46	0.006238374
117	0x3bacb75e	0.0052708825
118	0xbba264a2	-0.004955844
119	0x3bb559dc	0.0055343937
120	0x3b758b10	0.003746692
121	0x3bcdfa1d	0.0062859193
122	0x3aa5a223	0.0012636821
123	0x3ccfa843	0.025348788
124	0xbc4548e2	-0.012041302
125	0x3c6136d0	0.0137459785
126	0x3b95e5df	0.004574522
127	0xbbce41ef	-0.006294481

exp_avg f4 [128, 21]
0	0xb84f23b8	-4.938591e-05
1	0x27d57afc	5.9252716e-15
2	0xb80ecab2	-3.4044213e-05
3	0x373fef83	1.1440253e-05
4	0x00000000	0.0
5	0xb79acfdf	-1.8455028e-05
6	0xb80fba7c	-3.4267534e-05
7	0xb81dfe11	-3.7668335e-05
8	0xb7a94865	-2.0180081e-05
9	0xb7fb4b97	-2.9956731e-05
10	0x3885a490	6.372586e-05
11	0x38768e1c	5.878332e-05
12	0x38360f9d	4.3406722e-05
13	0xb6f28b3b	-7.2283706e-06
14	0x31991a2c	4.4558615e-09
15	0x3798efeb	1.8231533e-05
16	0xb793bd09	-1.7611792e-05
17	0x37b51263	2.1585443e-05
18	0xb1963ec2	-4.3727093e-09
19	0x37805622	1.5298898e-05
20	0xb7c53c01	-2.3512172e-05
21	0xb915017f	-0.00014210305
22	0x28dddee6	2.4632596e-14
23	0xb7e1443c	-2.6853864e-05
24	0x37ea34e6	2.7919607e-05
25	0x00000000	0.0
26	0xb89a74a1	-7.365016e-05
27	0xb8797fcb	-5.9485243e-05
28	0xb7ba656e	-2.222016e-05
29	0xb7bca307	-2.2487262e-05
30	0x3819a051	3.662735e-05
31	0xb7dd9f45	-2.6419419e-05
32	0xb8819d87	-6.180541e-05
33	0x3907f755	0.00012966742
34	0x3793d1c8	1.7621453e-05
35	0x32a9aab6	1.975182e-08
36	0x37b97f64	2.211304e-05
37	0xb87c8c9a	-6.0212427e-05
38	0x381ac425	3.6899135e-05
39	0xb2a68021	-1.938321e-08
40	0x37c630cb	2.362616e-05
41	0xb867b431	-5.5242508e-05
42	0xb8b9ea33	-8.8651104e-05
43	0x29ebf496	1.0478525e-13
44	0x383d7ea3	4.517905e-05
45	0x378af60b	1.6565455e-05
46	0x00000000	0.0
47	0xb72e3abb	-1.0384882e-05
48	0xb8215a45	-3.846946e-05
49	0x376fc2ab	1.4290835e-05
50	0xb8770b3d	-5.8899856e-05
51	0x393c2601	0.00017943235
52	0xb8bb780d	-8.939216e-05
53	0xb8651289	-5.4615117e-05
54	0x392bffcd	0.00016403124
55	0x37dbc001	2.6196243e-05
56	0x3206728d	7.825872e-09
57	0x371c1372	9.302852e-06
58	0x368f5350	4.271431e-06
59	0x385e61d2	5.3020027e-05
60	0xb203f2aa	-7.680379e-09
61	0x37fa2e93	2.982401e-05
62	0x3527614a	6.235392e-07
63	0x392542d7	0.00015760526
64	0xa9c4b5e4	-8.7357015e-14
65	0x38ccc9fa	9.765099e-05
66	0xb95fddc0	-0.00021349546
67	0x00000000	0.0
68	0x38c04da5	9.169736e-05
69	0x396ff292	0.0002288318
70	0x38c4fba3	9.392879e-05
71	0x3975ddf9	0.00023447712
72	0xb9abae01	-0.00032745305
73	0xb8975517	-7.21609e-05
74	0x39c8aa0f	0.00038273676
75	0xba1dd047	-0.00060201104
76	0x376390bb	1.3563952e-05
77	0xb43029e7	-1.6406521e-07
78	0xb86d4c15	-5.657606e-05
79	0x399ff81f	0.00030511708
80	0xb86fb578	-5.7151046e-05
81	0x342ce008	1.610025e-07
82	0xb9032598	-0.00012507138
83	0x39890633	0.00026135295
84	0x38f3da34	0.000116277864
85	0xa94ffe76	-4.6183943e-14
86	0xb6cf0c7c	-6.170534e-06
87	0x38672814	5.5112017e-05
88	0x00000000	0.0
89	0x374c8165	1.2189475e-05
90	0x3812b567	3.4978057e-05
91	0x36a4bb94	4.909418e-06
92	0xb709aa59	-8.2054985e-06
93	0xb860acf6	-5.3566844e-05
94	0x39494bb3	0.00019197054
95	0x3819fe5e	3.671494e-05
96	0xb8f3239f	-0.00011593778
97	0x36ab4dd4	5.1052575e-06
98	0x32e948ba	2.7157842e-08
99	0xb835650f	-4.324788e-05
100	0xb8e0e5ce	-0.00010723957
101	0xb7174c8e	-9.018126e-06
102	0xb2e4ed10	-2.6650497e-08
103	0x36b1c89b	5.2983646e-06
104	0xb882afb2	-6.231609e-05
105	0xb864f8f7	-5.4591303e-05
106	0x2930f880	3.929539e-14
107	0xb6b5a1bb	-5.4130483e-06
108	0x38955359	7.1203984e-05
109	0x00000000	0.0
110	0xb7fca676	-3.0118255e-05
111	0xb8b26303	-8.506144e-05
112	0xb6e4c138	-6.817423e-06
113	0x37f2085a	2.8852537e-05
114	0xb9433056	-0.00018614656
115	0x391e2cd2	0.00015084751
116	0x3919a920	0.00014654221
117	0x38845335	6.309749e-05
118	0x37b1ffbd	2.1219132e-05
119	0x3300f5ae	3.0025767e-08
120	0xb7dbcfd8	-2.620362e-05
121	0xb864ad5e	-5.4520897e-05
122	0x378022e7	1.5275042e-05
123	0xb2fd1acb	-2.946526e-08
124	0xb720bc00	-9.580515e-06
125	0xb89b5c0d	-7.408122e-05
126	0x38450cb9	4.698031e-05
127	0xa7420b32	-2.6928977e-15
128	0x3786ea87	1.6083255e-05
129	0xb83f8f0b	-4.5671168e-05
130	0x00000000	0.0
131	0x375f1d1b	1.3298612e-05
132	0x37037c71	7.837182e-06
133	0xb6e9eaed	-6.97129e-06
134	0x36a2d6e3	4.8529923e-06
135	0xb8a60ca2	-7.91785e-05
136	0x37b3f50c	2.1452572e-05
137	0x387e4c91	6.0629627e-05
138	0xb815cc61	-3.571471e-05
139	0x370ee105	8.516251e-06
140	0x32894466	1.5980003e-08
141	0xb7dc44aa	-2.6258018e-05
142	0xb8832e9f	-6.2552506e-05
143	0xb74df0a8	-1.2274984e-05
144	0xb286b437	-1.5681605e-08
145	0xb79413a3	-1.7652119e-05
146	0xb801f2f7	-3.0982275e-05
147	0xb85f510f	-5.3242835e-05
148	0x28b14567	1.9681046e-14
149	0x397d72e1	0.00024170756
150	0xb8f8aad8	-0.00011857384
151	0x00000000	0.0
152	0x369e49e0	4.717367e-06
153	0xb80761fc	-3.2277763e-05
154	0xb806a307	-3.209992e-05
155	0x393171ef	0.00016922479
156	0xb9590a43	-0.00020698555
157	0xb93ccf37	-0.0001800627
158	0xb7dea29b	-2.6540181e-05
159	0x37940a5c	1.7647799e-05
160	0xb6567201	-3.1954844e-06
161	0xb30c002e	-3.2596454e-08
162	0xb8969233	-7.179789e-05
163	0x380ccb6f	3.3568063e-05
164	0xb7080d1f	-8.109287e-06
165	0x330962f3	3.1987792e-08
166	0xb922c9d0	-0.00015524705
167	0x37d2890b	2.5097766e-05
168	0xb90b6a67	-0.00013295711
169	0x28ba93a0	2.071417e-14
170	0x393a2a28	0.00017754047
171	0xb8df7915	-0.00010656022
172	0x00000000	0.0
173	0xb88c99f2	-6.704395e-05
174	0x37104ea1	8.601376e-06
175	0x381678d2	3.587531e-05
176	0x36b2d4f9	5.3296067e-06
177	0x39a03daf	0.00030563536
178	0xb8da7d1e	-0.00010418355
179	0xb9846984	-0.00025255617
180	0x38df58f8	0.0001065004
181	0x3814a4bf	3.543938e-05
182	0x321046f4	8.398036e-09
183	0xb78ca318	-1.6765247e-05
184	0x36554491	3.1779384e-06
185	0x37e2e8c6	2.7049693e-05
186	0xb20d96a5	-8.241533e-09
187	0xb7c7846f	-2.3784318e-05
188	0xb7a733f6	-1.9932148e-05
189	0x39b31271	0.0003415528
190	0xa9b5d054	-8.074154e-14
191	0xb96c9e95	-0.0002256579
192	0xb8a79090	-7.9901074e-05
193	0x00000000	0.0
194	0x3873b818	5.8107165e-05
195	0x3929efb1	0.00016206388
196	0x3762523f	1.3489799e-05
197	0x38a2b343	7.758152e-05
198	0xb996da7b	-0.0002877301
199	0x37e1d352	2.6920494e-05
200	0x3933a03c	0.00017130462
201	0xb9c58a9c	-0.0003767804
202	0xb8e80f55	-0.00011065478
203	0xb31195a9	-3.389656e-08
204	0x37e418cb	2.7191263e-05
205	0x3829d393	4.0489784e-05
206	0xb8f9cab9	-0.00011911005
207	0x330ede64	3.3264214e-08
208	0xb75c816d	-1.3143156e-05
209	0x38f2af5f	0.00011572125
210	0xb73f38e1	-1.139773e-05
211	0x28e1efa4	2.5083946e-14
212	0xb8a0e2d0	-7.671642e-05
213	0x379c8c2f	1.8661927e-05
214	0x00000000	0.0
215	0x3718b9b7	9.103146e-06
216	0xb88f87dd	-6.844078e-05
217	0xb7c605de	-2.3606171e-05
218	0xb68eb020	-4.2524334e-06
219	0xb8ede826	-0.00011344282
220	0x391d762d	0.0001501671
221	0x391c8084	0.00014925195
222	0xb82df0e1	-4.147075e-05
223	0xb7108dd0	-8.616087e-06
224	0x32acc6fd	2.0113925e-08
225	0x35c8212b	1.4910814e-06
226	0xb8c9d97d	-9.624937e-05
227	0xb7c8ba6b	-2.3928666e-05
228	0xb2a98d39	-1.973841e-08
229	0xb838a797	-4.40251e-05
230	0xb87aa385	-5.9756934e-05
231	0x37020145	7.748899e-06
232	0xa80930e3	-7.615628e-15
233	0xb8960b99	-7.1547176e-05
234	0xb827fe48	-4.005272e-05
235	0x00000000	0.0
236	0xb43858b9	-1.7168612e-07
237	0x376c9af3	1.4102773e-05
238	0x36cb9144	6.0667826e-06
239	0xb8005a21	-3.0601517e-05
240	0x384bb868	4.8570713e-05
241	0xb8263d51	-3.963459e-05
242	0x359b5312	1.1572577e-06
243	0x3727987b	9.989478e-06
244	0xb801d694	-3.0955838e-05
245	0xb2381c7d	-1.0716687e-08
246	0x386669d1	5.4934822e-05
247	0x38376591	4.372519e-05
248	0xb63789ef	-2.7349413e-06
249	0x3234ac9d	1.0516627e-08
250	0x3785fd1a	1.5972695e-05
251	0x37a37ed1	1.9490168e-05
252	0x38337f03	4.2795215e-05
253	0x289b21b2	1.722307e-14
254	0x386c6e16	5.636931e-05
255	0xb82acf3a	-4.0724153e-05

exp_avg_sq f4 [128, 21]
0	0x338d3a52	6.5764326e-08
1	0x305317a8	7.679497e-10
2	0x338f9dfb	6.687693e-08
3	0x3395e25b	6.979527e-08
4	0x00000000	0.0
5	0x33639634	5.2989165e-08
6	0x33cd8bcc	9.571485e-08
7	0x3355d33c	4.9785044e-08
8	0x33b79299	8.5482675e-08
9	0x337f40b9	5.943068e-08
10	0x3380510a	5.9752054e-08
11	0x33abdb94	8.002749e-08
12	0x33d8fa42	1.01038054e-07
13	0x3371940c	5.6246833e-08
14	0x30c16835	1.4072216e-09
15	0x33814cdb	6.0210105e-08
16	0x33d0490f	9.699044e-08
17	0x33b66392	8.493147e-08
18	0x30625432	8.233797e-10
19	0x339028a3	6.712914e-08
20	0x33c15a3f	9.0036785e-08
21	0x33f092eb	1.1202595e-07
22	0x31d8edb4	6.313451e-09
23	0x343e5d30	1.772903e-07
24	0x3410ac84	1.3473806e-07
25	0x00000000	0.0
26	0x33bd0b18	8.803016e-08
27	0x34d1e862	3.9098364e-07
28	0x33e568dd	1.0682718e-07
29	0x35075001	5.040784e-07
30	0x34275807	1.5585111e-07
31	0x3424e240	1.5356e-07
32	0x34010b17	1.2018096e-07
33	0x348665d4	2.5033535e-07
34	0x3475c9f1	2.2890869e-07
35	0x3216f75c	8.787392e-09
36	0x34bd6454	3.5276992e-07
37	0x34d15cd3	3.8996822e-07
38	0x34ba6a26	3.4722433e-07
39	0x32118c1b	8.471967e-09
40	0x34e33de3	4.2327073e-07
41	0x35037e00	4.8984657e-07
42	0x349fd2a0	2.9769308e-07
43	0x31464429	2.8851537e-09
44	0x34c1e7a3	3.611759e-07
45	0x3496916d	2.8045488e-07
46	0x00000000	0.0
47	0x34ab3c9d	3.1895334e-07
48	0x347d9a66	2.3618631e-07
49	0x32799bce	1.45291335e-08
50	0x349e2011	2.9453125e-07
51	0x34abf9f4	3.2033097e-07
52	0x3489511b	2.557725e-07
53	0x34aba125	3.196848e-07
54	0x34b010c6	3.279476e-07
55	0x34268050	1.5506635e-07
56	0x31b3ac14	5.2291487e-09
57	0x344efb8d	1.9276759e-07
58	0x3493dfa0	2.7543592e-07
59	0x345eb5a6	2.0741444e-07
60	0x3161bb8a	3.2848413e-09
61	0x346c1a4f	2.1988784e-07
62	0x3479bf6d	2.3259572e-07
63	0x35847fd5	9.87197e-07
64	0x32c05077	2.2388333e-08
65	0x35bf1149	1.423564e-06
66	0x35be63a2	1.41851e-06
67	0x00000000	0.0
68	0x35997b8d	1.1435346e-06
69	0x355f126e	8.310079e-07
70	0x33c873d7	9.334297e-08
71	0x355ad812	8.152575e-07
72	0x35b775e4	1.3668873e-06
73	0x3599d454	1.1461184e-06
74	0x35b58d46	1.3526667e-06
75	0x3602a7ef	1.946926e-06
76	0x34a97bc0	3.1568743e-07
77	0x32a939bc	1.9700444e-08
78	0x34ecfe7a	4.4143582e-07
79	0x3576e3bd	9.1973544e-07
80	0x34ae0780	3.2415483e-07
81	0x32054062	7.756258e-09
82	0x35248958	6.129462e-07
83	0x354ef5fc	7.7098935e-07
84	0x352f0ac6	6.520826e-07
85	0x32f3a2d8	2.8362976e-08
86	0x353dfb51	7.07737e-07
87	0x353f1de4	7.119654e-07
88	0x00000000	0.0
89	0x3511a40e	5.425544e-07
90	0x35598986	8.103892e-07
91	0x343887e1	1.7185768e-07
92	0x35678e85	8.62616e-07
93	0x35309d4d	6.579401e-07
94	0x351479c8	5.531151e-07
95	0x3526feb6	6.221047e-07
96	0x3575b86a	9.153797e-07
97	0x34f48c8f	4.5550811e-07
98	0x33008c75	2.9930067e-08
99	0x351e3afc	5.894542e-07
100	0x35679a88	8.627908e-07
101	0x353c65cf	7.018361e-07
102	0x316fc75c	3.48924e-09
103	0x353566cc	6.7577344e-07
104	0x356186b0	8.401503e-07
105	0x34674444	2.1538386e-07
106	0x2fdb1f5d	3.9858153e-10
107	0x34911ca2	2.7029188e-07
108	0x34599275	2.026298e-07
109	0x00000000	0.0
110	0x34569c36	1.9987132e-07
111	0x34b4cb48	3.367552e-07
112	0x318be022	4.0709134e-09
113	0x34c6d22a	3.7033288e-07
114	0x348f9fdd	2.6752141e-07
115	0x34768d95	2.2962043e-07
116	0x349e11fd	2.9442882e-07
117	0x34c1198a	3.5967633e-07
118	0x34324b2a	1.6604886e-07
119	0x2fd4787d	3.8648187e-10
120	0x344cd639	1.9076914e-07
121	0x3470283e	2.2366382e-07
122	0x346d0f57	2.2077926e-07
123	0x30746b02	8.891875e-10
124	0x3493138c	2.7395106e-07
125	0x348a8b7d	2.5805994e-07
126	0x33d5aa1a	9.949527e-08
127	0x31a63ac9	4.837919e-09
128	0x33c9db69	9.399702e-08
129	0x33c9acf9	9.3912554e-08
130	0x00000000	0.0
131	0x339d9229	7.3374686e-08
132	0x33b90c31	8.6169514e-08
133	0x31512719	3.0435727e-09
134	0x3399059a	7.1256366e-08
135	0x33bb80fb	8.7313275e-08
136	0x339db124	7.343104e-08
137	0x33b44848	8.395051e-08
138	0x33ffd9b1	1.1913961e-07
139	0x33774007	5.75674e-08
140	0x3183cf66	3.8361803e-09
141	0x3359231a	5.0556174e-08
142	0x3385c5d2	6.2292784e-08
143	0x3372cf43	5.653352e-08
144	0x30f170ec	1.7567152e-09
145	0x3389fa17	6.425051e-08
146	0x33828c5e	6.0791294e-08
147	0x3494ad7a	2.769337e-07
148	0x31a59b69	4.8198e-09
149	0x34c709e3	3.7073832e-07
150	0x3480d5d0	2.3997427e-07
151	0x00000000	0.0
152	0x346c51ac	2.2008925e-07
153	0x34222d00	1.5103797e-07
154	0x332d947a	4.041474e-08
155	0x349da6c0	2.9364855e-07
156	0x348bae1c	2.601745e-07
157	0x349fd248	2.9769058e-07
158	0x34a0a79d	2.9924277e-07
159	0x348f6a3b	2.6713118e-07
160	0x33ed73e6	1.1057254e-07
161	0x322d5b7d	1.0090727e-08
162	0x3417772b	1.4106324e-07
163	0x345988df	2.0259493e-07
164	0x33ebdf90	1.0983706e-07
165	0x3203245c	7.633471e-09
166	0x3449f1fa	1.8807614e-07
167	0x34280359	1.5647437e-07
168	0x348028f1	2.3871647e-07
169	0x31233e9f	2.3755218e-09
170	0x34aef4a8	3.2588036e-07
171	0x3485c628	2.4917358e-07
172	0x00000000	0.0
173	0x344d4860	1.9118443e-07
174	0x346864d7	2.1643369e-07
175	0x346ba09e	2.1944513e-07
176	0x34984df5	2.8368927e-07
177	0x349abc75	2.8821856e-07
178	0x3486d297	2.511267e-07
179	0x349d0704	2.9248633e-07
180	0x34ba8f33	3.474939e-07
181	0x3405b847	1.245363e-07
182	0x31f50259	7.1307054e-09
183	0x3435be16	1.6926091e-07
184	0x347bf71b	2.3466093e-07
185	0x341472ed	1.3825384e-07
186	0x32289730	9.813263e-09
187	0x3458e1ed	2.0198759e-07
188	0x3475cc94	2.2891828e-07
189	0x354f608b	7.7254e-07
190	0x31b70320	5.3263562e-09
191	0x358beddf	1.0425537e-06
192	0x356c1099	8.7941004e-07
193	0x00000000	0.0
194	0x35457f15	7.357315e-07
195	0x35089402	5.087933e-07
196	0x32a4ac2f	1.9170413e-08
197	0x34dfdb91	4.1696742e-07
198	0x3587a87c	1.0107319e-06
199	0x354571a1	7.355357e-07
200	0x35566687	7.987041e-07
201	0x35877940	1.0093572e-06
202	0x34867224	2.5042493e-07
203	0x31ca0aa2	5.8801826e-09
204	0x34b54d9b	3.3770343e-07
205	0x3526d505	6.2149803e-07
206	0x3480a013	2.3958327e-07
207	0x313ababe	2.7172713e-09
208	0x34ec4cdd	4.401435e-07
209	0x350e4958	5.300585e-07
210	0x33c7683a	9.285618e-08
211	0x2fa5c351	3.0152106e-10
212	0x341c17ff	1.4537362e-07
213	0x33cdc242	9.581392e-08
214	0x00000000	0.0
215	0x33a7a38e	7.806294e-08
216	0x3403512c	1.2229856e-07
217	0x333219f8	4.1467473e-08
218	0x34381b09	1.714617e-07
219	0x34261e7b	1.5471043e-07
220	0x340c997c	1.3094353e-07
221	0x3426a54a	1.5520087e-07
222	0x344a4faf	1.8841705e-07
223	0x338a0ea5	6.4287896e-08
224	0x308121e3	9.395617e-10
225	0x33cdd07d	9.58398e-08
226	0x33fd3b7e	1.1792052e-07
227	0x33ba8451	8.685368e-08
228	0x30566e6b	7.800966e-10
229	0x33d6bc5e	9.999415e-08
230	0x33f347b8	1.1328615e-07
231	0x3425e6bb	1.5450762e-07
232	0x31940576	4.3079877e-09
233	0x3437ed9e	1.7129648e-07
234	0x343b22b6	1.742836e-07
235	0x00000000	0.0
236	0x340141ca	1.2037995e-07
237	0x346942a8	2.1724065e-07
238	0x32332426	1.04273905e-08
239	0x345b0888	2.0399068e-07
240	0x343258e3	1.6609879e-07
241	0x3425528a	1.539685e-07
242	0x343657c2	1.6981997e-07
243	0x348afc66	2.5888147e-07
244	0x340a609f	1.2887402e-07
245	0x31d07432	6.0668066e-09
246	0x3423a2fd	1.5239853e-07
247	0x345ef80e	2.0765603e-07
248	0x344761a5	1.8568842e-07
249	0x31d07108	6.066447e-09
250	0x3421d168	1.5070475e-07
251	0x344df061	1.9179562e-07
252	0x33af967b	8.176445e-08
253	0x31827917	3.7972643e-09
254	0x340c45a2	1.3063848e-07
255	0x33aa5815	7.932264e-08
