results/explode/Satan/Satan-892513.onnx (onnx, 81804 bytes, 10 tensors)

network_body.observation_encoder.processors.0.normalizer.running_mean f4 [11]
00000000: e4e7 56c1 1c56 b63c 075a 00c1 9036 66c1
00000010: 2024 c7c0 47e9 0dc1 8960 603e fcc1 5c3e
00000020: 0000 0000 0000 0000 0000 0000
-13.431614 0.022257857 -8.021979 -14.388321 -6.22316 -8.869452 0.21911825 0.21558374
0.0 0.0 0.0

network_body._body_endoder.seq_layers.0.weight f4 [128, 11]
00000000: aebc d63e 4207 193e a068 6d3e 5345 0bbe
00000010: 2b49 63be a6ef b7bc f4c2 53be 1270 8cbe
00000020: 4447 863d 7e3d 8dbe 571f 5f3f 2c29 283e
00000030: f8d4 363e d2b3 8c3e 87e8 97be 54b0 d4bc
00000040: 2377 0dbe 87cb 13be 5917 19be 165c 5a3e
00000050: ed9a be3e f2d8 f7bd 6d6a e1be 2eba 8e3c
00000060: 40f1 2ebe 1126 973e 9682 d43e 856b 073e
00000070: 272f 34bd cc65 b43d 870e 50be 8bda 4fbd
00000080: 64f6 bf3e 4726 db3e 33cb 07bf 5db9 c23d
00000090: 6cb6 07bf 0c3a 9f3e d846 613e e6eb 4abe
000000a0: a623 aa3e e5bf 17bf 4d19 883e 0175 3ebe
000000b0: 5ef7 41be 261d 39be 2815 11bf 886d 0c3e
000000c0: b9c4 04bf 60a3 0a3f ee47 813e 1492 10bf
000000d0: 4753 a93e 2fca 473e 4939 573e 7fb2 d53e
000000e0: 4b14 7fbe f82c b2be 21d9 0f3d 155b 723c
000000f0: 0fab 6a3e f84c 003e 7662 0b3f 75eb 4d3d
00000100: d4f3 99be 9e63 013f 30d9 7cbe fc6c 7f3e
00000110: 7ec1 a2bd 9c87 093f d5fe 223e cd72 ab3d
00000120: 09f1 0f3d 5f20 99bd 42f1 ee3c a0af 10bd
00000130: e8e8 803d cdc8 0a3e 8dde 09bf 4e37 85bd
00000140: 0cbd 48bf e59f d13e 8d50 d73d 1eaa 203e
00000150: 6929 343e a5c3 d73e cd2d 263e 63ad 8f3c
00000160: b109 e6bd 0236 973e ff93 0fbe 9c64 10be
00000170: 64a8 1b3e 33d2 a93e ec1a d3bd 3072 9dbd
00000180: e51d c7be 5aa3 9e3c 06c2 f4bd 9351 5abe
00000190: 590c ccbd ad69 fd3d c0cd 8d3e f09b 513e
000001a0: a441 973e 34b7 093e 1469 7e3e 3376 aebe
000001b0: bd6b 91bd 6728 0b3e 6eac 843e f08a b8bd
000001c0: 7d0d 9cbd bf28 13be 9705 c93e cb3f 833e
000001d0: 1a2f 803e 4baa 9abd 5f87 5fbf ffb8 1a3f
000001e0: d6d2 2d3e 90c4 693e 6f2b 53be bb2a c6be
000001f0: d571 12be faef fbbd ba4e 4bbf a902 60be
00000200: 5651 423a 8cb7 b6bd c218 34bd 646a c6be
00000210: 819f 2d3e 6a54 a73e 0fac 953d da27 adbd
00000220: ff58 edbd 731a 81be 40b8 433e 8474 a3be
00000230: 42b1 4ebd a32f 19bf c81a 42be ca26 a6be
00000240: b3e3 343e a29d 853e d366 6ebe bac4 ea3d
00000250: 2c00 8dbe 8c56 b13e ff37 9e3e 50a0 6f3e
00000260: a92c 753f a5f2 dbbe c0e5 df3e 1052 31be
00000270: 7ede dbbe ba1e 85be 2d9d 1cbe 2a9b babd
00000280: 4636 273e 2460 1f3c 27a9 df3e fe0f 813e
00000290: 8305 13bd 3caf aa3d 26cb 973d 37fd 2bbf
000002a0: c2ec 78be 572d 0abe f5ba 2e3f a2e9 23bf
000002b0: 9079 92be cb30 6b3e 9c85 9ebd 876e e23e
000002c0: 4f06 99bc ac83 8bbe dab3 383f 3cf1 95be
000002d0: b276 363d 45a5 e8be 677f 67be 84c4 b93e
000002e0: 8389 163f 7aeb 85be f781 8d3d 1e43 24be
000002f0: aab3 adbd b817 d9bc cb59 50bd de0d dcbe
00000300: 1a16 94be 1d36 cd3d 6174 54be ae53 4bbe
00000310: a824 83bc cbdd a6be f372 d03c e038 0d3e
00000320: 3660 093e 8d60 453e af5e 11bd 5bec 0cbf
00000330: 5ebc e13e aa17 9fbe 976b 80be 9e6f 18be
00000340: 823e 73be 41b3 2dbe 94ef 0f3f 5ee1 4bbe
00000350: 0473 fc3e 022f a83e 0497 9cbe c8e7 283e
00000360: 651d 4fbc 45fb 2a3d 80a2 823d d4c0 213e
00000370: b46b 343e 5dce 9a3d 221b e13d 7ab0 03be
00000380: 5473 0cbe 2976 20bf b4d9 4cbf 1a8e 6fbe
00000390: 151a d63e 0401 fdbe 1158 81be 7259 053f
000003a0: 83f8 d7be a38e 203f b361 b3bd d44a 04bd
000003b0: de67 a2be a945 dcbe 7ee0 89bd 841b 1cbf
000003c0: cf02 d4be ec10 353e b38e 46be 4c02 0b3f
000003d0: ebe3 bf3e 4723 a33e d0ca ffbe d5c7 b8bd
000003e0: db38 e1bd 2d76 c7be 46fc 023e 41e1 2cbe
000003f0: b7b0 d0bd 5cdc 143e eea9 8f3e 77d4 c53e
0.41940826 0.14944175 0.23184443 -0.13600664 -0.2219588 -0.02245314 -0.20679837 -0.27429253
0.065565616 -0.27585977 0.87157196 0.16421956 0.17854679 0.27480942 -0.29669592 -0.025962986
-0.13814978 -0.14433108 -0.14950313 0.2132419 0.37227574 -0.12101926 -0.4402651 0.017422762
-0.17084217 0.2952123 0.4150588 0.13224609 -0.04399028 0.08808479 -0.20318042 -0.05074553
0.3749267 0.4280264 -0.5304443 0.095080115 -0.5301273 0.31098974 0.21999681 -0.1981655
0.33230323 -0.5927718 0.26581803 -0.18599321 -0.1894202 -0.18077525 -0.56672907 0.13713658
-0.51862675 0.5415554 0.2525019 -0.564729 0.33071348 0.1951072 0.21017946 0.41737744
-0.24910085 -0.34799933 0.03511918 0.014792223 0.22916816 0.12529361 0.54447114 0.050273377
-0.3006884 0.5054263 -0.24692225 0.24943918 -0.07947062 0.5372255 0.15917523 0.08371506
0.03514198 -0.074768774 0.029167775 -0.03532374 0.06294423 0.13553162 -0.5385521 -0.06504689
-0.7841346 0.40942302 0.10513411 0.15689895 0.17593922 0.42141452 0.16228409 0.017538732
-0.11232317 0.29533392 -0.140213 -0.1410088 0.15200955 0.33168182 -0.10307869 -0.07687795
-0.38889995 0.019365001 -0.119510695 -0.2132018 -0.09963293 0.12373672 0.27696037 0.20469642
0.29542267 0.13448793 0.24844772 -0.34074554 -0.071006276 0.13589631 0.25912803 -0.09010875
-0.0761976 -0.14371012 0.39262077 0.25634608 0.25035936 -0.07552012 -0.87315935 0.6043853
0.16974959 0.22828889 -0.20622037 -0.38704476 -0.14301236 -0.12301631 -0.79417 -0.21876015
0.00074126327 -0.089217275 -0.043968923 -0.38753045 0.16955377 0.3268159 0.07308208 -0.08454867
-0.1158924 -0.25215492 0.19113255 -0.31924832 -0.050462015 -0.5983831 -0.18955529 -0.3245147
0.17664985 0.26096827 -0.23281412 0.11463304 -0.27539194 0.34636343 0.30902097 0.23400998
0.9577127 -0.4295856 0.43729973 -0.1731646 -0.42943186 -0.26000005 -0.15294333 -0.091116264
0.16329297 0.009727512 0.4368374 0.25207514 -0.03589393 0.083342046 0.07411794 -0.6718325
-0.24309066 -0.13493858 0.68254024 -0.6402837 -0.2860837 0.22967832 -0.07740328 0.4422495
-0.018679766 -0.27248895 0.7214943 -0.2928561 0.04454679 -0.4543859 -0.22607194 0.36282742
0.58803576 -0.26156217 0.069095545 -0.16041228 -0.08481534 -0.026500568 -0.050866883 -0.4297933
-0.28923112 0.10020087 -0.2074752 -0.1985614 -0.01600869 -0.3259109 0.025445437 0.13791227
0.13415608 0.19275112 -0.035490688 -0.5504815 0.44089025 -0.31072742 -0.25082085 -0.14886329
-0.23754314 -0.16962911 0.5622494 -0.1991019 0.493065 0.32848364 -0.30583966 0.16494668
-0.012641286 0.041743536 0.06378651 0.15796214 0.1761921 0.07558892 0.10991503 -0.12860289
-0.13715869 -0.626803 -0.8001969 -0.23394051 0.41816774 -0.49414837 -0.25262502 0.5208961
-0.42181787 0.62717646 -0.08758869 -0.032297924 -0.3171987 -0.43021896 -0.067322716 -0.60979486
-0.41408393 0.17682236 -0.19390373 0.5430038 0.37478575 0.31862852 -0.4995942 -0.0902249
-0.109971724 -0.38957348 0.12791547 -0.16882803 -0.10189956 0.14537185 0.28059334 0.3863866

network_body._body_endoder.seq_layers.0.bias f4 [128]
00000000: 08d3 943c a917 da3d a09e db3c 6c21 173d
00000010: 4e1a 04bd 559e a9bc 13b5 93bb 76b6 093d
00000020: 4899 a5bd 31ce 0dbd 5b22 e73c 05d6 cebd
00000030: 07fa b53d cc01 373d 2a47 693c 3114 ab3b
00000040: 6abf fd3d fe27 00bd 8e2f b23d 9913 cdbc
00000050: b639 09be f93a b93d 255d 2abc caf6 9f3d
00000060: d3bc 153b fe31 4bbd 72af 713c 1e40 a8bd
00000070: dd37 3ebd dfd0 41bc f024 0cbe 8df1 eabc
00000080: 58f3 133d c8ab 1fbc e1df b4bb 2f56 ed3a
00000090: 7102 44bd dfc6 943b a27a c03d e0c3 a13d
000000a0: 8bf4 7dbd 64dd aabd 0859 a0bd 1c08 8dbd
000000b0: 5a31 93bd 6881 9fbd d46c 9ebc 17fc 8e3d
000000c0: c473 20bc 32d3 0dbe ca37 35bd 7b84 d1bc
000000d0: fabf 343d 671e ecbd d3b4 b03c ff0e ac3d
000000e0: fa00 0abd cf63 e5bd 37c2 a93c 97a6 a3bd
000000f0: a86d 533d c3be 80bd 9bcf 21bd 9829 6a3b
00000100: fe12 3d3d e1a0 31b9 3983 32bd 3e53 c4bd
00000110: 0ac7 8abd a95d ba3d 64df 6fbd 8344 f53a
00000120: 9253 293c e3fe a7bc 8bc9 e4bb 82d1 9b3c
00000130: 98b4 8ebd dc39 273d 1a05 9dbd 5e65 a0bc
00000140: 757a d8bd 88de 053e b787 31be 96ed 2bbd
00000150: d7c0 e0bd b215 7cbd 085e d5bd 0d3f 0e3e
00000160: dae9 04bc bb87 d6bd 224b ac3d 12fc abbc
00000170: c9c9 3abc 88e5 873d 3e96 753d 20a3 903d
00000180: a489 0e3e 9eef 273c dbcb 9bbd 9ce7 cfbd
00000190: 83a1 05be 6a07 f33c 1ad2 6e3c 8310 c0bd
000001a0: 480c 81bd 861a a73d 7b70 73bd 54de 24bd
000001b0: 4df4 1cbe 2a97 81bd 1775 5dbd 0906 c73c
000001c0: f579 e03c 5819 8cbd f897 4b3d 3449 fd3d
000001d0: 754b 4abd 2537 113d d641 433d 0d00 59bc
000001e0: a84a d43d 13e3 16bd 04e8 05be f58f 6bbe
000001f0: 75bf 40bd 4244 393d 2457 703d e216 4dbd
0.018167034 0.10649044 0.026809037 0.036897108 -0.03225165 -0.020705381 -0.0045076697 0.033621274
-0.08085877 -0.034620468 0.028214624 -0.10099415 0.088855796 0.044679448 0.014238158 0.005220913
0.12390025 -0.03128814 0.087004766 -0.025033759 -0.13400921 0.09044451 -0.010398184 0.07810743
0.0022848144 -0.049608223 0.014751302 -0.082153544 -0.046439994 -0.011829584 -0.13685966 -0.028679634
0.036120743 -0.009745546 -0.0055198525 0.001810735 -0.04785389 0.004540309 0.0939839 0.07898688
-0.062000792 -0.08343008 -0.07829481 -0.06886312 -0.071871474 -0.07788354 -0.019339003 0.06981676
-0.009793226 -0.13850096 -0.044242658 -0.025575867 0.044128396 -0.11529236 0.021570599 0.08401298
-0.033692338 -0.112006776 0.020722492 -0.07990759 0.05161825 -0.06286385 -0.03950463 0.0035730358
0.04616069 -0.00016939967 -0.043582175 -0.0958619 -0.06776245 0.090998955 -0.05856265 0.0018712435
0.010334866 -0.020507282 -0.0069820336 0.0190208 -0.06968039 0.040826663 -0.07666989 -0.019579586
-0.10570232 0.1307317 -0.17336927 -0.041974626 -0.10974281 -0.061544128 -0.10418326 0.1389124
-0.008112395 -0.10475107 0.08412768 -0.02099422 -0.011400648 0.066355765 0.059957735 0.070623636
0.13919693 0.01025 -0.07607242 -0.10151598 -0.13049893 0.029666621 0.014576459 -0.09378149
-0.063011706 0.08159356 -0.05943344 -0.04025109 -0.15327568 -0.063276604 -0.054066744 0.02429487
0.027401904 -0.068407714 0.049705476 0.12367478 -0.049388368 0.03545298 0.047670208 -0.013244641
0.10365802 -0.03683765 -0.13076788 -0.23004134 -0.047057588 0.04523111 0.058676854 -0.05007065

network_body._body_endoder.seq_layers.2.weight f4 [128, 128]
00000000: e006 89bd dde8 0f3e f322 32bb fb4d a13d
00000010: 8d7b 833d 5080 bdbd 1540 4abe 40d2 47be
00000020: 6700 04bd 8572 8cbd 84d4 0dbe 3340 c43d
00000030: 5cbf aebc 9aa4 1b3a 0613 873e 00d8 c03d
00000040: 9b40 3dbe 1cff 2b3e 686f e4bd 5949 5cbe
00000050: 0dfe 40be b030 cdbd 0990 323e 29d0 853d
00000060: f9ca 623d e07e cb3c 9b28 0d3d 09f9 fa3c
00000070: e1ea 16be d182 e23d 8891 9f3d 1e8d 11bc
00000080: 3d70 313d 0310 6d3d 9030 a4bd 9284 8f3d
00000090: b7fc c43d 3c17 e23c 1409 a7bd 85c3 093c
000000a0: d222 b6bc cd05 74bb 3085 883d 8b99 883d
000000b0: c61b 1e3c ff54 223e 9530 cebc 1889 e2bc
000000c0: f4e4 163d d244 97bd 9111 ac3d 55ad 3c3e
000000d0: 7576 b6bc dc8d d6bd 0c31 093e c29c f5bd
000000e0: 6e1a cf3d 50d7 9d3d 2b25 013d a822 543a
000000f0: ae98 12be 2c3c a93d 677a 24be 0d10 163e
00000100: b638 ebbd 95c9 d2bd 6946 b73d 9a0d 8d3d
00000110: 8102 323e 898b 7ebd a534 5e3d 3499 b9bd
00000120: 972d 203a 6d4a e1bc d5c6 2bbe f7f7 43bd
00000130: 3f14 8b3d 98b2 1fbe 73a3 a5bc f172 c2bd
00000140: 1314 433d 2de5 143d 96b6 c93c 7e4f 923d
00000150: c76b c73d ae82 67be 1523 f539 e55a bebd
00000160: 853d 753d 31a4 04bb 2113 babd d005 f7bd
00000170: 27ce 68bd 5530 afbd ae62 57bc c6c0 883d
00000180: 2324 b8bd 251b 07be 297f 93bd 70c4 83bc
00000190: 130d dbbc cedf e93d 2d28 b13d 6cbc 0cbe
000001a0: 52fb 153e c1df 8abd 011b 93bc 1143 303d
000001b0: 210b 223a 2127 133d 6760 a5bd 5d2c 82bd
000001c0: 5b7f 8dbd 7e37 783d cb4b 77bb 69ae 923b
000001d0: 89d0 33bd 6fc8 dabd e84d 143e feb5 0fbe
000001e0: e031 913d dda3 a0bc 97c0 b3bd 2c7d 3d3d
000001f0: caf8 b5bd ba3d e63d ae21 acbb b6b9 913d
00000200: 6a23 15bd a2e6 a0bd 6a15 983e ed54 2fbd
00000210: 2ff5 7d3e df5d e13d ce69 f23d 6238 37be
00000220: a728 ab3d bedc ba3d e6b4 77bc 84f7 39be
00000230: 123c 35be 80cb 9dbd f16b 4d3d 5581 383e
00000240: e85f d3bd 4aeb d03c 089e 033c a222 f23c
00000250: 5f8f d9bd c452 e0be 075c 993d aee0 33be
00000260: 3782 b63d 28ef cabc 1c55 a0bd 0616 143e
00000270: be7c 8fbd 27aa 493e ffb8 86bd c186 eabd
00000280: 80dd 1fbe 5220 62bd 9e12 09be ea56 7ebe
00000290: 369b bebc 3d7c 793d fc06 bf3e bc11 c6bd
000002a0: 77cc a0bc 7bb6 e3bc 2500 883d 34ba 9cbd
000002b0: f710 093e 7069 533e 5d61 17be 5167 c2bd
000002c0: 7e0e c83d 60cd e33a 8500 04be 9d97 a83d
000002d0: 8967 203e da30 74bb 41bf aebd 7695 cabe
000002e0: 3d60 ab3d 26b9 f7bc 6493 08bd 942b 4fbe
000002f0: 8b29 b0bd 8032 0f3e 47a1 053e f02d a7bc
00000300: 3f78 d43b 049f 553c 82d6 833c b3c4 31bd
00000310: 6a09 123e 0860 033e c6dd 45bd 7de6 aebd
00000320: 1b95 81bd 556e c6bc ef23 d13d d535 adbd
00000330: 6afb 5a3e d49f 883e ff83 42bd e5d4 1bbe
00000340: 4cd9 a13d e723 04be b084 b1bb a3db f33c
00000350: 11cc 833e 50ff c33b 6a53 063e b302 d0be
00000360: 5ae4 9ebd f17e 093d 4659 cd3d 793a adbd
00000370: c331 9ebd c397 26be aca1 8fbd fe32 20be
00000380: 6cda 8bbe d491 8cbd 2f2f 96bd 39b3 673c
00000390: a3ba e03d 68fd 8b3c 1647 6b3d 7cee ccbc
000003a0: c2f3 2f3a 2cf5 1bbe 448e a5bc b03b 11be
000003b0: 8c8a 03bd bd03 bf3d 782f a43c f29b fcbd
000003c0: 33e8 0c3c 6689 083e 9839 e53d 7150 fcbe
000003d0: d184 923d 31b1 4bbe 4936 44be 07a7 2a3e
000003e0: 82aa d4be c689 e7bc c72b 243c 749b b73d
000003f0: 244f ac3b 3f28 a83c 1349 f6bd 81d3 893d
-0.066907644 0.14053674 -0.0027181476 0.07876202 0.0642005 -0.09252989 -0.19751008 -0.19513798
-0.032226946 -0.0685778 -0.138506 0.095825575 -0.021331482 0.00059373083 0.263817 0.09416199
-0.18481676 0.16796535 -0.111540616 -0.21512355 -0.18846913 -0.10019052 0.17437758 0.06533844
0.05536935 0.024840772 0.034462553 0.030636327 -0.14738037 0.110601075 0.0779143 -0.008883743
0.04331993 0.057876598 -0.08017075 0.07007708 0.09618514 0.02759897 -0.081560284 0.008408432
-0.0222334 -0.0037234903 0.066660285 0.06669911 0.009650176 0.15852736 -0.02516965 -0.027653262
0.03683944 -0.07386173 0.08401788 0.18425496 -0.022273282 -0.10476276 0.13397616 -0.1199279
0.10112463 0.07707083 0.031529587 0.00080923224 -0.14316055 0.0826343 -0.16062318 0.1465456
-0.11485426 -0.10292355 0.089489765 0.0688736 0.17383768 -0.06214479 0.054249424 -0.09062424
0.0006110309 -0.02750131 -0.16775067 -0.0478439 0.06790971 -0.15595472 -0.02021954 -0.094945796
0.047626566 0.03635137 0.024623197 0.07144068 0.09737354 -0.22608444 0.0004675618 -0.092946805
0.059873123 -0.0020239467 -0.0908568 -0.120616555 -0.056837227 -0.085541405 -0.013146086 0.066773936
-0.089912675 -0.13193949 -0.07201988 -0.01608488 -0.026739633 0.114196405 0.08650241 -0.13743752
0.14646652 -0.06780959 -0.017957212 0.04303271 0.0006181468 0.035925988 -0.08075028 -0.06356118
-0.06909057 0.060599796 -0.0037734385 0.0044763577 -0.043900046 -0.10682761 0.14482844 -0.14034268
0.07089591 -0.019609386 -0.08776968 0.04626195 -0.088853434 0.11242242 -0.0052530384 0.071155
-0.036410727 -0.0785649 0.29703838 -0.0428056 0.24800561 0.110042326 0.11836587 -0.17892602
0.08357363 0.091241345 -0.015118813 -0.18160826 -0.17698696 -0.0770483 0.05015177 0.18018086
-0.10321027 0.02550282 0.008033283 0.02955753 -0.10623049 -0.43813145 0.07488256 -0.17566177
0.08911555 -0.024772242 -0.07828733 0.14461526 -0.070062146 0.19693814 -0.06578254 -0.114514835
-0.1561184 -0.055206604 -0.13386008 -0.24837843 -0.02326737 0.0609095 0.37310016 -0.09671351
-0.019628746 -0.027796974 0.066406526 -0.07652703 0.13385378 0.2064569 -0.14783235 -0.09492362
0.09768389 0.0017379932 -0.12890823 0.08232043 0.15664496 -0.0037260563 -0.085325725 -0.39567155
0.08367965 -0.030239653 -0.033343688 -0.20231467 -0.08601674 0.13984108 0.13049804 -0.020407647
0.006484061 0.013038401 0.016093496 -0.043400478 0.14261404 0.12829602 -0.048307203 -0.08540056
-0.06327268 -0.024222532 0.10211932 -0.08457533 0.2138497 0.2668444 -0.047489163 -0.15217932
0.07902774 -0.1290432 -0.005417429 0.029767817 0.25741628 0.0059813634 0.13117757 -0.4062706
-0.07758398 0.033568326 0.10026793 -0.084584184 -0.07724335 -0.1626883 -0.07013258 -0.15644452
-0.2731508 -0.06863752 -0.07333218 0.014141851 0.10973098 0.017088607 0.05744084 -0.025016062
0.0006712043 -0.15230244 -0.02020944 -0.14182925 -0.03211455 0.09326885 0.020042166 -0.12334432
0.0086002825 0.13333663 0.11192626 -0.49280122 0.07154239 -0.19891812 -0.19161333 0.16665278
-0.41536337 -0.028263938 0.010020203 0.08965197 0.0052584577 0.020527003 -0.120256566 0.06729794

network_body._body_endoder.seq_layers.2.bias f4 [128]
00000000: b7f1 e0bc 4c95 44bd 47ff 81bd 3b93 d0bb
00000010: e1f5 4c3d 1ae0 f4bd 7edd 073d 4ebb 33bd
00000020: 8147 6dbc 4fc3 c93c 0994 11bc 01a6 443d
00000030: f670 64bd 8313 babb e706 633d b138 22bd
00000040: 7945 b13b 741f c8bd a10b 93bd ceed 4d3d
00000050: 1e95 31bd a959 8ebc 47da dd3d 0de5 243d
00000060: 8c72 5ebd 5397 dd3d 9021 1bbc 7388 d8bc
00000070: ed31 4a3d 35eb 19bd eb39 ae3d 4355 7e3d
00000080: 37d4 fbbc 4bc5 d2bd 4686 8d3d ef0f a7bc
00000090: c2ce 493b 453a 5b3d 38fc 4abd 1c2b 263d
000000a0: 97eb 773b 7936 88bd b3bd 93bd d70f 64bd
000000b0: 9e76 07bd 05af 0e3d 9ee5 c73c 16aa 923d
000000c0: 6473 203d fdaa e93c 9831 30bb 5fff 903c
000000d0: 472f 433c 753c fdbc 4476 973c 100e 82bd
000000e0: 0f98 25bc 360a 9e3d f400 b93d f9ca 433d
000000f0: 68a6 01bd 176f ddbd 4f87 0bbd a1a7 aa3d
00000100: 37a4 04bd 6dc9 e63d 74cf 3ebd ab64 6b3d
00000110: 3381 913d 9c72 303d 496c 643d 0120 30bd
00000120: 81cb 19bd 0bb2 1f3d 151a 86bd 22fb 7d3d
00000130: 39a9 10bd 93b9 af3b 1a09 0d3d 5517 8cbd
00000140: 4e9f dbbd 4366 943d 0d86 a8bc 45f1 483d
00000150: 5c09 4abd 3c8c afbd cabb 6d3d 3f5c 16bb
00000160: 8c52 dfbc a02e 36bb c782 b03c 0b20 ddbd
00000170: a6ee a4bd 1117 a8bd e6b6 c43d a8b4 8e3b
00000180: 680a 01bd 6786 a7bc 2d4d a83c c3db ccbd
00000190: 95de 763b a8d9 d7bc abd9 063d 4b5d ef3c
000001a0: 1913 a1bd f48a 183d e295 a2bc d2d6 63bd
000001b0: bf50 9e3d 1259 49bd 0d15 bd3d 6035 eb3c
000001c0: 7d58 c4bd d7f0 2f3d adfc b73c edcd 17bd
000001d0: de3d 73bd d87f 78bc 717e 243d d3b9 d63c
000001e0: 6c89 993d 84a9 59bd c706 2cbd 5af6 c5bd
000001f0: 5f77 9f3d f6e8 543d c080 913d 443e 29bd
-0.027459009 -0.047993943 -0.063475184 -0.0063652075 0.050039176 -0.119568065 0.033170216 -0.0438798
-0.01448238 0.024629263 -0.008885392 0.048009876 -0.05577179 -0.0056785955 0.055426504 -0.039604846
0.005409893 -0.09771624 -0.071799524 0.050275616 -0.0433551 -0.017376738 0.10832649 0.040257502
-0.05430846 0.108198784 -0.009468451 -0.026432252 0.04936402 -0.037577827 0.08507141 0.06209303
-0.03074084 -0.10291537 0.06910376 -0.02039334 0.0030793403 0.053522367 -0.04955694 0.040568456
0.0037829631 -0.06651015 -0.07213917 -0.05567917 -0.033072107 0.03483488 0.024401482 0.071613476
0.039172545 0.028523916 -0.002688503 0.017699895 0.011913127 -0.030912617 0.01848901 -0.063503385
-0.010107054 0.07716791 0.09033385 0.04780099 -0.031652838 -0.10812204 -0.034064587 0.08332754
-0.03238317 0.11268888 -0.04658456 0.05746905 0.07104721 0.04307805 0.05576733 -0.04299927
-0.037547592 0.038988154 -0.065479435 0.062007077 -0.035317633 0.0053626983 0.034432508 -0.06840388
-0.10723744 0.072460674 -0.020571733 0.049058218 -0.049325332 -0.085716695 0.058040418 -0.0022943167
-0.027261041 -0.0027798787 0.021546734 -0.10797127 -0.08053331 -0.082075246 0.096051976 0.004355032
-0.031504065 -0.02044983 0.020544613 -0.10002854 0.003766929 -0.026348904 0.032922428 0.02921929
-0.07864971 0.03724189 -0.01984686 -0.05562479 0.07730245 -0.04915721 0.09232531 0.028711975
-0.0958719 0.042954292 0.022459352 -0.03706162 -0.059385173 -0.015167199 0.040159646 0.026211655
0.07496914 -0.05314018 -0.04199865 -0.096661285 0.0778644 0.05197998 0.07104635 -0.041319147

action_model._continuous_distribution.log_sigma f4 [1, 2]
00000000: 290e 22bf 946a 12bf
-0.63302857 -0.57193875

action_model._continuous_distribution.mu.weight f4 [2, 128]
00000000: 04c6 a43a f3e7 03be 21cb f9bd a9ca b53b
00000010: 450b d83d 5da7 a2bd 2a8e 013e c5c6 a4bd
00000020: 2c55 3ebd e2bf b43d 44b4 d43c 4859 eabd
00000030: 464e 78bd 99b5 933c bdb2 1e39 704d 8d3d
00000040: 3cb4 31be 8100 a9bc 42a6 98bb e663 1dbc
00000050: 5cea dfbd 0845 2ebe cf04 e43b 2f88 1ebe
00000060: 5e41 aabd fea7 1a3e 3c35 2bbb b20d 183c
00000070: 31ac 1abe ab5f b13c 012b afbd 9dc3 afbd
00000080: 1246 14be e9ff 46bd e7f7 ec3d ca7a 29bd
00000090: 8f0f f6bd 3735 283e e8f2 e43c b17c 1e3d
000000a0: 0a2c 9bbd 2efa 483d 3ac0 bebb 594f 303d
000000b0: 5733 dcbd bcac a3bd 7f38 d4bd b10a a83b
000000c0: 43bf 56bb 0fba 553d 61f2 eebc 687e 25bd
000000d0: f703 17bd 6ba3 be3d 6226 0abe bb83 00be
000000e0: 681b 493d fc1d 83bd 6385 e2bd 3309 403d
000000f0: 03b6 613d 3576 a8bd c19f 45be a8a5 b73d
00000100: 5a8e 853b d73b 26bd 3d83 dfbd afc1 e6bd
00000110: 7ef6 7dbc 6892 48bd a57a 26bc f75e 003d
00000120: ceb0 043d 19dc 653b c5ce 43bd 1732 83bd
00000130: 08b3 21bc b46e 1cbe dca6 8e3d a669 56bd
00000140: d9f9 97bb 5bc8 0abe ba1e 3bbb 768d 8ebc
00000150: 87c2 bbbd 4440 b3bd 7af9 8a3c f4e3 e2bd
00000160: 6795 e6bd 4087 9b3d 4650 413b 818a 99bb
00000170: fd46 afbd f0bb 9ebd a3f5 b8bc 8da6 363e
00000180: 9f10 953c cccd 073d c3c4 8d3d 613b 0d3d
00000190: dd81 e03c 6063 d63b d6ba 523d 17a6 ce3d
000001a0: 15fd 55bb 1bba 8dbd 97bc 07bd 8e16 e93c
000001b0: caac cabd 87cc 5fbc 7e0d 1d3b 7092 0d3e
000001c0: 6a40 1bbd 79de d0bc 708c 47bb a9ed 48bd
000001d0: d1fb 0dbe 7ab7 5c3d 72bf b5bd 04a7 7e3b
000001e0: 25d2 0e3e 9dcc a6bd 740e f43d 2acd d5bd
000001f0: 8cee 26bd 3279 35be d3c9 483d 389a e4bd
00000200: 0e6d 3dbb 0bf4 59be cd5a c3bd bdd1 08ba
00000210: 807f 02be d293 37bd a72b 41be 349b 3abe
00000220: 0859 c43c 1f82 1ebe 9ade 1d3d 008d bf3d
00000230: 5c18 393d 239b a9bc 9fa0 dabb 17e8 1ebd
00000240: 8350 a73d 17f2 02bd 299b c2bd 8847 a73b
00000250: 8183 8abd f821 833b 01c7 8fbb c23a 8a3d
00000260: 3395 5abd e9de 4bbd 3357 d03c a1a3 c4bc
00000270: 77a0 ce3d afe6 a6bc fc6b ad3d b600 863d
00000280: bdd1 bcbc 5313 07be 741a 973c 047a 97bc
00000290: 1305 a93d 17a5 53be d153 f3bd 8f0b 243d
000002a0: 4189 c83d fd14 76bd 994b 14bd 0eb1 d0bd
000002b0: 30dc 2fbe 7e1c d53d ac37 b73d 629b 3c3c
000002c0: 2da2 833c b8b7 4cbd 7c18 c43c 3c74 a83c
000002d0: dece 023e c566 05be 0aaa 0fbd bc33 9bbd
000002e0: 810e 58bd 7eee ea3d 89e1 3a3e 0272 203d
000002f0: 57f6 b0bd 264c 89bd 65a1 2cbe 8a87 993d
00000300: a4fc 73bc 6616 013e d24c e33c 7a90 be3d
00000310: c534 26bc 3b1c cc3d c973 d4bb 753f f4bb
00000320: 8c77 68ba 172c c3bb c66b 07bd e6c8 b03d
00000330: ba9d 79bc 1ac8 6a3d 5f7c e0bd ad1d 4abd
00000340: b26e 97bd b1fd 0e3e 7964 a13b 00e0 cd3d
00000350: a4b6 5cbe de2f e1bd 4792 8638 70fa 8c3d
00000360: a4b6 373d fc03 29be cac2 8d3c 77a1 d5bd
00000370: 570f b3bd 814f d6bd 41a6 e83d 0897 13be
00000380: fcf7 42bd a0ce 45be d0e9 d0bd 56cd e03c
00000390: eafc 193d 670d d6bd d048 013c 8088 07bd
000003a0: 2a0c ad3b d175 013d ceb9 54bc 401c bbbd
000003b0: fa02 c13d c75d 0dbe 6700 543c 3dd7 6dbd
000003c0: 9838 07be fa57 533d 4cbc 1dbb c2a9 2fbe
000003d0: 6091 09be 70f6 babd cdcc 1f3e 5975 103c
000003e0: 9a21 583d d14c e7bc 54dd 6fbd b8c4 a2bd
000003f0: 58c4 093d ce03 0e3e e506 0c3d 0afa cabc
0.001257122 -0.1288145 -0.12196947 0.0055478406 0.105490245 -0.07942078 0.12651888 -0.08045725
-0.046467945 0.08825661 0.025964864 -0.1144281 -0.060621522 0.018030928 0.0001513464 0.06899536
-0.1735391 -0.020630123 -0.0046584914 -0.009606337 -0.109333724 -0.17018521 0.006958581 -0.15481637
-0.08313249 0.15103146 -0.002612426 0.009280609 -0.15104748 0.021652063 -0.08553124 -0.08582232
-0.14479855 -0.0485839 0.11570721 -0.041376866 -0.12014686 0.1642655 0.027947858 0.038693134
-0.07576759 0.049066715 -0.005821255 0.04304442 -0.1075198 -0.07991931 -0.10362338 0.0051282276
-0.003276781 0.052179392 -0.02916831 -0.040403754 -0.036869016 0.09308513 -0.13491204 -0.12550251
0.049098402 -0.064022034 -0.11060598 0.046883773 0.05510522 -0.08225671 -0.19299223 0.08967143
0.0040758075 -0.04058441 -0.109137036 -0.11267411 -0.015500663 -0.04896775 -0.010161077 0.031340566
0.032395177 0.0035073815 -0.047804613 -0.06406038 -0.0098693445 -0.15276605 0.0696542 -0.052346848
-0.0046379385 -0.13552992 -0.002855225 -0.017401438 -0.091679625 -0.08752492 0.016964663 -0.11078635
-0.11258965 0.07594156 0.002949731 -0.0046857004 -0.08558462 -0.0775069 -0.022578066 0.17836972
0.018196402 0.033155248 0.06922295 0.034480456 0.027405674 0.006542608 0.051447712 0.10090273
-0.003265207 -0.069202624 -0.033138838 0.028453138 -0.09896238 -0.013659603 0.002396434 0.13825393
-0.037903227 -0.025496708 -0.0030448698 -0.049054775 -0.13865592 0.053885914 -0.08874406 0.0038856873
0.13947351 -0.08144496 0.11916819 -0.104395226 -0.04075484 -0.17722014 0.0490206 -0.111622274
-0.0028904113 -0.21284501 -0.09538803 -0.0005219242 -0.1274395 -0.044818707 -0.18864308 -0.18223268
0.023968235 -0.15479325 0.038542368 0.093530655 0.045189247 -0.020703858 -0.0066719796 -0.038795557
0.08169653 -0.031969156 -0.09502251 0.0051049627 -0.06763364 0.004001852 -0.004387737 0.067494884
-0.053364944 -0.04977313 0.025432205 -0.024003806 0.100892 -0.02037367 0.08467862 0.06543104
-0.02304923 -0.13190965 0.018445231 -0.018490799 0.08252921 -0.20668446 -0.11881221 0.040050086
0.09791804 -0.06007861 -0.036204908 -0.101900205 -0.17173839 0.10405825 0.089461654 0.0115116555
0.016068542 -0.049979895 0.023937456 0.020563237 0.12774226 -0.13027485 -0.03507427 -0.07578227
-0.052748207 0.1147127 0.18250097 0.039171226 -0.086407356 -0.06703977 -0.16858442 0.07496555
-0.014891777 0.126062 0.027746592 0.093049005 -0.010144417 0.09966322 -0.006483529 -0.0074538537
-0.00088679115 -0.0059561837 -0.033061765 0.08632068 -0.015235359 0.057319738 -0.10961222 -0.049344707
-0.0739416 0.13963963 0.0049253074 0.1005249 -0.21554047 -0.10995458 6.416864e-05 0.06883705
0.044851914 -0.16505426 0.017304797 -0.104311876 -0.0874316 -0.10464383 0.113598354 -0.14413083
-0.047599778 -0.19317102 -0.10200846 0.027441662 0.037594713 -0.10451775 0.007890895 -0.03308916
0.005280991 0.0316065 -0.012983752 -0.09136248 0.09424396 -0.13805304 0.012939549 -0.058066595
-0.13205183 0.051597573 -0.0024068533 -0.17154601 -0.13434362 -0.091290355 0.15605469 0.00881704
0.05276642 -0.028234871 -0.058560684 -0.079476774 0.033634514 0.13868639 0.034186263 -0.024777431

action_model._continuous_distribution.mu.bias f4 [2]
00000000: dd2a 313d fed2 a03d
0.04325377 0.078527436

action_model._discrete_distribution.branches.0.weight f4 [1, 128]
00000000: 3fe6 2fbc 4853 23b8 5fcb 0d3c 90c4 80ba
00000010: e08e b4bb 9b47 febb 4800 7e3c d3f0 1b3c
00000020: 22c1 9b3b 522c 52bc 5704 7bbb bfca 903b
00000030: 9304 22bb 1f99 413b 3ec5 3e3c 0beb abbb
00000040: f110 98bb b55d 553c a7a1 35bc ea14 dbbb
00000050: 4f17 c73b 7e42 a43c 13f6 8c3c 0440 0b3b
00000060: c68c a9bb f3a3 853b 0b41 9f3b efb1 c8bb
00000070: 2173 4039 c398 df3a 09a1 14bc 4f07 b4bb
00000080: a253 d73b abe0 cdbb f797 b43b 1270 233b
00000090: 3e42 4bbc 47cb 233c 1be6 0e3c 5b87 0cba
000000a0: db46 a7bb 2f52 0b3b 182b fcbc 9d1e 06bc
000000b0: 0425 003c 3b50 ad3b 6fe8 853a 772d 28bc
000000c0: 0a79 4fbc 8b2b a5ba 97dd 27ba 3ab7 073c
000000d0: bb71 b7ba 0b61 2f3b 320a 463b 07a6 563c
000000e0: f71e 363b 0767 2bbc c2c4 553c 6d5d af3b
000000f0: 6bf7 1abc d82d 8d3a d3f8 ed3a dd77 743c
00000100: 4b2c 863c a45c 01bc 4f69 313c 0b2d b139
00000110: 5705 b1bb 9929 bebb efa3 9d3b 825e d13b
00000120: 5533 a53b db1c 3dba 38f8 693c 2a34 c9bb
00000130: bb46 b9bb 72bf 7cbb 8df2 d7bc 4cde 15bb
00000140: f703 01bc e886 7d3b 83b7 e4bb f378 d63b
00000150: 7abb 12bb 477d dcbb 1bc0 743c 2c9b a73b
00000160: b75d c7ba a9d8 c73c fd3c d4bb 4c17 9bbc
00000170: 6920 0ebb 2a0e a03b bb4c dabb 3989 cbbb
00000180: 980c 8539 1b31 a1bc 604d 933c e410 193c
00000190: 1352 6ebb 8b30 553c 01de 083b 0f02 eb3b
000001a0: 5e97 99bb 93a1 66bb d999 8dba abbf fb3b
000001b0: 127b b4bb 5321 ca3b a2b7 dbbb ee84 0dbc
000001c0: b09f 6cbb 505c 843c 2f24 f23a 3099 f6bb
000001d0: 3376 c33c cb6f 8a3c 3fae 263c e727 fa3b
000001e0: dfbe ab3b ad2d f63b 4985 c13b 9879 c63b
000001f0: 4525 93ba d399 59ba 05e6 213c a7d2 5f3b
-0.010736047 -3.893979e-05 0.0086544445 -0.0009824205 -0.005510196 -0.007760001 0.015502997 0.009517866
0.004753248 -0.01282795 -0.0038302147 0.0044187005 -0.0024721965 0.002954073 0.011643706 -0.005246525
-0.0046406914 0.01302283 -0.011085904 -0.0066858428 0.0060757766 0.020051237 0.017207181 0.0021247873
-0.005174252 0.004078382 0.0048600486 -0.006124727 0.00018353436 0.0017059076 -0.009071597 -0.0054940353
0.006571249 -0.006282886 0.0055112797 0.0024938625 -0.01240593 0.009997196 0.008721854 -0.00053607457
-0.005104882 0.0021258702 -0.030782267 -0.00818601 0.007821325 0.005289105 0.0010216365 -0.010264746
-0.012663135 -0.0012601478 -0.0006403564 0.008283431 -0.0013995686 0.0026760723 0.003021848 0.013101107
0.0027789453 -0.010461575 0.013047399 0.0053517134 -0.009458403 0.0010771109 0.001815582 0.014921156
0.016378542 -0.007895622 0.01082833 0.0003379363 -0.005402248 -0.0058032987 0.004810802 0.00638944
0.0050415196 -0.00072140776 0.014280371 -0.0061402516 -0.0056541837 -0.0038566259 -0.026360774 -0.0022868095
-0.00787448 0.0038685147 -0.006979884 0.00654518 -0.0022389577 -0.0067288014 0.01493838 0.0051149335
-0.0015210424 0.024395304 -0.006476997 -0.018932007 -0.0021686798 0.004884501 -0.006661979 -0.0062114266
0.0002537712 -0.019676736 0.017981231 0.009342406 -0.0036364838 0.013012062 0.0020884278 0.0071718763
-0.004687234 -0.003519152 -0.0010803296 0.0076827607 -0.005507835 0.0061685233 -0.0067052403 -0.00863765
-0.0036105923 0.0161573 0.0018473918 -0.0075255856 0.023860073 0.01689901 0.010173379 0.0076341513
0.0052412595 0.007512769 0.0059057814 0.0060569756 -0.0011226317 -0.00083008147 0.009881501 0.0034152658

onnx::Div_70 f4 [11]
00000000: 2fba 8740 ce38 923d 621a 8840 1e17 9740
00000010: b518 ab3d fde0 9340 6a5f a43f bce5 bc3f
00000020: 80bd 8a3a 80bd 8a3a 80bd 8a3a
4.2414775 0.07139741 4.2532206 4.721572 0.08354322 4.6212144 1.2841618 1.4757609
0.001058504 0.001058504 0.001058504
