results/Pellet3/Pellet3/checkpoint.pt (torch, 485602 bytes, 47 tensors)

network_body.observation_encoder.processors.0.normalizer.running_mean f4 [18]
00000000: 267f f03c a691 7fbc 150a c83c 04e8 c5c0
00000010: ec7c c3c3 e485 c93f 8551 14c0 a7f5 02c0
00000020: aed5 7541 af08 a6be 376c f8bc 9492 fd40
00000030: 984a 1cc0 4efe 91c1 16e6 44bf 0559 1bc0
00000040: baf1 91c1 0f84 33bf
0.029357504 -0.01559869 0.02441887 -6.184572 -390.97595 1.5743985 -2.3174756 -2.0462434
15.364668 -0.324285 -0.030325038 7.924143 -2.4420528 -18.249172 -0.76913583 -2.4273083
-18.24303 -0.7012338

network_body.observation_encoder.processors.0.normalizer.running_variance f4 [18]
00000000: b757 0948 a7d4 8546 8a19 fa47 a5f2 f74c
00000010: 5d7f 2f53 991a 204c 2664 094b 698e be49
00000020: de24 624a 24df 3749 41dd 2149 40a5 9e49
00000030: d5a6 094b dce2 bd49 ba69 5e4a 6921 094b
00000040: 624e bf49 a7d4 654a
140638.86 17130.326 128051.08 1.2999607e+08 7.537561e+11 4.1970276e+07 9.00407e+06 1.5610371e+06
3.7051435e+06 753138.25 662996.06 1.299624e+06 9.021141e+06 1.5555475e+06 3.6440145e+06 8.986985e+06
1.5671802e+06 3.7655458e+06

network_body.processors.0.normalizer.running_mean f4 [18]
00000000: 267f f03c a691 7fbc 150a c83c 04e8 c5c0
00000010: ec7c c3c3 e485 c93f 8551 14c0 a7f5 02c0
00000020: aed5 7541 af08 a6be 376c f8bc 9492 fd40
00000030: 984a 1cc0 4efe 91c1 16e6 44bf 0559 1bc0
00000040: baf1 91c1 0f84 33bf
0.029357504 -0.01559869 0.02441887 -6.184572 -390.97595 1.5743985 -2.3174756 -2.0462434
15.364668 -0.324285 -0.030325038 7.924143 -2.4420528 -18.249172 -0.76913583 -2.4273083
-18.24303 -0.7012338

network_body.processors.0.normalizer.running_variance f4 [18]
00000000: b757 0948 a7d4 8546 8a19 fa47 a5f2 f74c
00000010: 5d7f 2f53 991a 204c 2664 094b 698e be49
00000020: de24 624a 24df 3749 41dd 2149 40a5 9e49
00000030: d5a6 094b dce2 bd49 ba69 5e4a 6921 094b
00000040: 624e bf49 a7d4 654a
140638.86 17130.326 128051.08 1.2999607e+08 7.537561e+11 4.1970276e+07 9.00407e+06 1.5610371e+06
3.7051435e+06 753138.25 662996.06 1.299624e+06 9.021141e+06 1.5555475e+06 3.6440145e+06 8.986985e+06
1.5671802e+06 3.7655458e+06

network_body._body_endoder.seq_layers.0.weight f4 [128, 18]
00000000: 9e5b 04be e1be a3be 70b6 833e d2e6 a63e
00000010: 97aa cabd 9d14 01bf 9687 99bd e224 b93c
00000020: d97d 1e3d 8367 ccbc 383d a2be 121d 7f3e
00000030: bae0 e7bc 6025 6c3d e695 633e 57fd bb3e
00000040: 8955 c8be c00a 9abc c45d 503d 8824 973d
00000050: 2d44 853e 85a2 a2bb bd19 e0bd 4970 64bd
00000060: 6a50 e2bd 53db 8dbd 867b 003e d68d 7b3d
00000070: 2fb9 443e 5213 e4bd 6257 02be 13d6 783d
00000080: 48a4 b23d c5a6 913c 1d7f a13e 7dcd 6a3b
00000090: 5e9c cd3e c042 a0bd ba1e 2b3e b2aa f9bd
000000a0: 30dc f53d 2675 d43e c00b ac3e b1ce 72bc
000000b0: 810a 533e 46b1 9cbe 7ede 03be ad38 60be
000000c0: 3973 c63d 7b3d 82be cfa1 df3e aca0 94bd
000000d0: fb8b e53c 2422 4cbd 4281 2dbd 956d 913d
000000e0: 26d0 033f 5e95 903d d128 1a3e 2294 3ebe
000000f0: df7b 153c 3701 9a3e 3d4c 963e 5234 d8be
00000100: 0d76 ae3d 255b 7dbe 2ec9 88be 2120 18be
00000110: a4d1 dc3d a1cc 613e 2e23 733e 7615 2339
00000120: 0746 813d 2bd0 953e 68cd 9c3d aa67 d43e
00000130: 78dc b5be 22b3 83be 6f83 8abe f8e4 c7bd
00000140: 722c 1bbe dbfd 1fbd 3e84 9b3e 9e60 45be
00000150: 9397 0c3f 1e7d 86be f810 d1be 895f 2fbe
00000160: c01d 283c 9dc4 8f3e 6049 943c 8a04 a83c
00000170: 25ec 923e 6c68 f8be 9171 6b3e 1562 803e
00000180: 9310 d9bd d243 49be 61c9 973e 39e8 283d
00000190: c5aa 9a3b 8e59 c6bd 5174 8dbd 7fbf d13e
000001a0: 5007 3b3e 3bfb ffbd 44ec 7ebe 69ad 983a
000001b0: 58d5 973c 56c2 5cbe 563f 17bd 2f87 9fbc
000001c0: 68f1 b9be d582 8f3d 9652 a13e a1db 113e
000001d0: da5d 1a3c 8cc4 f0be db88 503e 8075 3b3e
000001e0: 4303 69be 91cd 323e f3ed 1ebe 6ee6 513e
000001f0: 1867 1cbd eb76 1c3e 6f5d 03be 7409 fb3e
00000200: f40a d23d 38ab aebe 1b0d 2f3d 9d52 5e3e
00000210: 9bbc 88bd 8a9e 6a3e 2786 813e ff47 6fbd
00000220: 98f4 ae3d 6fad 42bd 6a27 633e 9ab2 bd3e
00000230: 4b17 783d c19a d1bd 519f 0dbe b683 bebd
00000240: 2de0 0abf fee8 6bbc f398 863d 6f27 973e
00000250: 4c49 343f 7afc d4be 3b6a 8abe e53c 223d
00000260: dcff 3a3e 32bc 2d3e 2321 2d3e e0fd 2abe
00000270: bdeb d73d b753 aabd 6cfc a9bd 5fd6 c23d
00000280: d5af 58be 0d1d 763e 7a70 d9be 6a5e 0ebd
00000290: a212 4ebe a4c3 a2bd 0237 663e 5bae 9b3e
000002a0: 087b 3c3d 7482 84be 7f15 8ebd 4057 5e3b
000002b0: 449c 43bd 177f 4bbb fbb8 a33c 529b 69bd
000002c0: e817 553e 37f1 4e3e 8397 f4bd 16fd 49be
000002d0: 70b5 afbd 3ad0 8dbe 7ba5 d53d d7b3 9dbd
000002e0: 5d8d e5bd 5b08 b4bd 6d31 e13e 6ff8 743e
000002f0: d561 4f3e 6885 64be 0e37 bcbd 3e30 08be
00000300: 8525 be3e 911d 93be 78a0 d33e bd0a b3be
00000310: 70b9 773d 71cf 75be 7b3e 56be b163 513e
00000320: 12da 003d 455d d73e b0b5 a9bd b4bc f8bd
00000330: 92c4 d2bc 6a39 753e 06b4 033f 6688 5fbe
00000340: d2cb 0f3e 651c 2c3e 3d41 773e b98a b6bd
00000350: a898 d8be 4d32 573d 3fdc 8cbe 2299 8c3e
00000360: 4e1e 8e3e c715 6abe 5cac cfbd 4ab9 61be
00000370: 3439 4fbd c1b8 d13e 4c06 083f 23e8 963e
00000380: 9c4b be3e 36c4 9a3e d0b8 7f3e 4a40 0abe
00000390: 534d 5d3c 6961 b93d 22dd 8bbe 9493 2fbd
000003a0: 78d5 9dbd 2d0d 6a3e 4f8b e1bd 777b 263d
000003b0: 805d 44be 9b6f 9b3d a3cd 8d3e c49d 92be
000003c0: cb1e 713e a22c fbbd ddbf 253e 921c 6f3d
000003d0: 2ec1 7abd d759 17be ae57 c83e ac39 663e
000003e0: 6a38 e03e 35d6 75be f613 f53d fe91 39be
000003f0: 8c33 bcbc d81b a63d f13f a63d 8079 e23e
-0.12925574 -0.31981567 0.25725126 0.32597977 -0.09895819 -0.5042208 -0.07496564 0.022600595
0.038694236 -0.024951702 -0.3168733 0.24913433 -0.0283054 0.05765283 0.2222515 0.3671672
-0.39127758 -0.018803954 0.050870672 0.07380015 0.26028576 -0.0049632215 -0.10942409 -0.055771146
-0.11050494 -0.069265984 0.1254712 0.061414562 0.19211267 -0.111364976 -0.12728646 0.060751032
0.087227404 0.017779717 0.31542292 0.0035828047 0.4015836 -0.078252316 0.1671094 -0.12190761
0.12004888 0.41495627 0.33602715 -0.014819787 0.20609476 -0.30604 -0.12877843 -0.2189662
0.09689946 -0.2543753 0.43678138 -0.07257208 0.02802085 -0.049837247 -0.042359598 0.07100979
0.51489484 0.070597395 0.15054633 -0.18611196 0.009123771 0.30079052 0.2935504 -0.42227417
0.0851861 -0.247418 -0.26715988 -0.14856006 0.10782173 0.22050716 0.23743889 0.00015552886
0.06312185 0.29260382 0.07656366 0.4148534 -0.35519767 -0.25722605 -0.270534 -0.09760469
-0.15153673 -0.039060455 0.3037433 -0.19275138 0.54918784 -0.26267332 -0.4083326 -0.17126288
0.010260999 0.28079692 0.018101394 0.020509977 0.2869579 -0.48517168 0.22992541 0.2507483
-0.105988644 -0.19654778 0.29645827 0.04123709 0.0047200643 -0.0968505 -0.06906951 0.40966412
0.18264508 -0.1249909 -0.24894816 0.001164836 0.018534347 -0.21558508 -0.036925636 -0.01947364
-0.3631699 0.07007376 0.3150832 0.14243938 0.00942179 -0.47024953 0.20364706 0.18306541
-0.2275515 0.1746123 -0.15520458 0.20498058 -0.038184255 0.15279739 -0.12828611 0.4903065
0.102559954 -0.34115005 0.042737108 0.21711202 -0.06676599 0.2291204 0.25297663 -0.05841827
0.08542746 -0.04752868 0.22183004 0.37050325 0.06056909 -0.10234595 -0.13830306 -0.093024656
-0.54248315 -0.014398811 0.065721415 0.29522273 0.7042434 -0.41598874 -0.27034172 0.039608855
0.18261665 0.16966322 0.16907172 -0.16698408 0.105430104 -0.083167486 -0.08300099 0.09513544
-0.21160825 0.2403452 -0.42468625 -0.03475801 -0.20124295 -0.07947472 0.22481921 0.3040646
0.04601577 -0.25880778 -0.06937694 0.0033926517 -0.04775645 -0.0031051093 0.019985666 -0.05703289
0.20809901 0.20209204 -0.11942961 -0.19725451 -0.08579528 -0.27697927 0.104319535 -0.07700317
-0.112086035 -0.08790656 0.4398302 0.23922895 0.20252164 -0.22316515 -0.09190188 -0.13299653
0.37138 -0.28733495 0.41333365 -0.3496913 0.06047958 -0.24004914 -0.20922272 0.20448186
0.031457968 0.42063347 -0.08286607 -0.12145367 -0.025728498 0.23947683 0.5144657 -0.21829376
0.14042595 0.16807707 0.2414598 -0.08913178 -0.42303967 0.052538205 -0.27511784 0.2746058
0.27757496 -0.2285987 -0.10140297 -0.22043338 -0.050591663 0.4096127 0.5313461 0.2947398
0.3716706 0.30227822 0.24972844 -0.13501087 0.013507205 0.09051783 -0.27317148 -0.04286535
-0.077067316 0.22856589 -0.11012899 0.04064509 -0.19176292 0.075896464 0.2769595 -0.2863599
0.23546903 -0.122643724 0.16186471 0.058376856 -0.061219387 -0.14780365 0.39129394 0.22482938
0.4379304 -0.24007495 0.11966698 -0.18122098 -0.022973798 0.081107795 0.081176646 0.44233322

network_body._body_endoder.seq_layers.0.bias f4 [128]
00000000: fb90 0c3d a233 b5ba 8a9d a73c 2141 e9bb
00000010: 1d4e 92bc a398 20ba 84fe fbbc 92b7 e33b
00000020: be15 1b3b 8b71 5d3d 5e32 423c d16f cbbc
00000030: cbd0 7f3c d9b5 9fbb 030c 083c 7760 7bbb
00000040: 936a 7ebb 93cd 2cbd 2d78 13bd ccf9 603b
00000050: 49e5 9a3b 4642 013c a7bd 843c 997f 43bd
00000060: 190e 13bc 7936 c2bc e9e7 3d3c 47a8 7ebc
00000070: 5f1f 523c abf4 a03a 20d5 08ba 85fb 48ba
00000080: 917f 783c 7708 8cbc 6779 1fbd 8c62 293c
00000090: e85b 103d 9999 fb3c 4151 bdbc 0351 c2bc
000000a0: 0ce5 fa3b 0267 1aba 1dc4 ceb8 77f8 09bc
000000b0: 4fcb 1cbd f886 27bc 8487 cf3b 6847 943a
000000c0: 6d59 d33a 95bc a1bc b89e 71bb d489 3d3c
000000d0: 3b65 0dbd 41f1 4f3c c549 cbba e62d 403c
000000e0: c981 cdbc 2e82 183b e404 87bb 338f e7bb
000000f0: 6174 893c d55e 86bc de22 8ebb 2fc6 7f3c
00000100: 1f25 113d e48e 2ab9 4cc6 d3bc 1e23 7a3c
00000110: 5ebb 333b 6519 d13c 0856 27bd 5699 cebb
00000120: 89f2 e1bc a322 d43c 92ab 8c3b 4019 bfbb
00000130: 1aec abbc 0e33 5bbc f45b 973a c675 85bc
00000140: d3fe b33a 6aa9 693c a16d a63a f6df 65bd
00000150: f74f f93c de20 c13c 44a8 71bc 9d46 46bd
00000160: 41df 213c 4081 4d3d 9ca5 813c 4c7d 1ebd
00000170: f366 883c 20e0 18bd be55 f4bb 40da 25bc
00000180: e323 753c 246d 113d d692 b9bb 31ce d03c
00000190: 9c72 7e3b c28b 2cbc df85 023c 3cd3 e23c
000001a0: 614b babc 2c00 783b a76b 6d3c 29ef 85bc
000001b0: 65a1 053d 6281 04bc bbaa ad3b 7644 503b
000001c0: 0cf7 ea3c 70c9 61bb 954b 91bd bb7e 813c
000001d0: 7bd2 e1bc 3efc 6e3b 6c68 03bc 67b8 353d
000001e0: 1242 36bd 6ab1 49bd c7e9 eebb 8c6d d0bc
000001f0: b2d2 07bc 0232 833c cb55 dbbc 4b21 54bc
0.03431795 -0.0013824592 0.020460863 -0.0071183597 -0.017859513 -0.000612626 -0.030761011 0.0069493735
0.0023664082 0.05406336 0.011852829 -0.024833592 0.015613745 -0.004873973 0.008303645 -0.0038357058
-0.0038820847 -0.04218824 -0.03600328 0.0034328578 0.00472704 0.007889336 0.016203715 -0.04772911
-0.008975529 -0.023707615 0.011590936 -0.01554305 0.012824862 0.0012279948 -0.00052197464 -0.0007666874
0.015167133 -0.01709388 -0.038934138 0.010338437 0.0352439 0.03071289 -0.023110034 -0.02372027
0.007656699 -0.0005889983 -9.8593744e-05 -0.008421055 -0.038279828 -0.01022505 0.0063332934 0.0011312785
0.0016124673 -0.019743243 -0.0036868285 0.011568505 -0.03452037 0.012691797 -0.0015509656 0.011729693
-0.0250863 0.0023270953 -0.004120456 -0.007066631 0.016779127 -0.016402641 -0.0043376526 0.0156112155
0.035435792 -0.00016265694 -0.025851391 0.015267162 0.0027424912 0.025524804 -0.04085353 -0.0063049
-0.02758147 0.025895422 0.0042929137 -0.0058318675 -0.020986605 -0.013378872 0.001154779 -0.01629151
0.001373256 0.014261583 0.0012697467 -0.05612179 0.030433638 0.023575243 -0.01474959 -0.048407186
0.009879888 0.05017209 0.015826039 -0.03869371 0.016650653 -0.037323117 -0.0074565103 -0.010122836
0.014962169 0.035504475 -0.005663256 0.025488945 0.0038825637 -0.010531368 0.007966488 0.027688615
-0.022741022 0.00378419 0.014490998 -0.016349392 0.03262462 -0.008087488 0.0052998937 0.0031779087
0.028682254 -0.0034452341 -0.07094494 0.0158075 -0.027566185 0.0036466266 -0.008020502 0.044365313
-0.044496603 -0.04924146 -0.007291052 -0.025442861 -0.00828998 0.016015057 -0.026774308 -0.012947391

network_body._body_endoder.seq_layers.2.weight f4 [128, 128]
00000000: ce45 4abe b39e b0bd 0261 20bc 7f55 c0bd
00000010: c586 b03c 6d34 84bd 17ce b9bd e5ee fb3d
00000020: 74cf eebc 51ae 9d3d 34b0 6abc bf72 e0bd
00000030: 2ae4 9e3d ab35 f33d 0129 463e e1a6 d7bd
00000040: 1fb4 20be a1b5 94bd 5d95 8abd 62bc e73d
00000050: 9066 7b3d b56b 4abe 0ae9 163e c5b0 c73d
00000060: 5248 8d3c ea4c c13d ae74 dfbd 145d 33bd
00000070: f518 37be 81b1 4c3d 0ebf 5e3d 3340 3fbb
00000080: f079 1f3d 1be6 0bbd f2e5 c23d 6b34 bfbd
00000090: fd4c 353e 149c d43d 0e99 babd 5479 f3bd
000000a0: 386e f43d 7ebc fbbc 0c66 f8bc 5d49 553e
000000b0: 9e5e 5ebd 6e97 273e e88c c13c f1d2 5c3d
000000c0: dd43 b1bd ec01 a7bc f6ad 323d b306 1bbe
000000d0: 7687 0b3d d368 54bc a726 a33d ffe1 5d3d
000000e0: 9eac 83be a4fd 0a3d 2aea 35bd 2aa1 50bd
000000f0: 0986 103e 944c 0bbe 59e9 ddbd 590a 333e
00000100: 6175 a8bd 650d b33d c8ab 9dbd 68d5 fa3d
00000110: 7d23 33bc f2ab 903d 02af 31bd 7313 cd3d
00000120: a1a8 81bd f8ff e23b 70e0 bd3c 01d7 45be
00000130: e5f2 8e3d 2da1 02be b7a6 5f3c 51c6 f63d
00000140: 5640 723e 2d23 5cbd a363 033e 31d1 fcbd
00000150: 7a1d bd3d 5f31 143d ffde 05bd ab95 16be
00000160: fc3f 903e 9ac1 ccbd 31f9 293a b74b e9bd
00000170: 241e bdbc 8aad 9dbd a7d8 b03d ce36 24bd
00000180: 7a57 26be 40f6 f63d 6981 15bc 1286 e93d
00000190: c8a9 9a3d 021e d4bc b2d7 ac3d f973 b7bd
000001a0: b597 173e 171b 80bd 4ba7 0cbe fb25 d3bc
000001b0: f0fe 1dbe 4dd3 ca3d a682 cebd 3a48 b7bd
000001c0: bc74 fc3d 1350 6ebd 8879 6cbd 4957 dcbd
000001d0: 2de0 ef3d 79b2 4fbe 14cf fb3a 286d c73c
000001e0: 138c 2a3c 436c 603d 6a5f 46be 6959 a9bc
000001f0: 45ec e53d 54b2 e33d 959e e039 d9a0 143e
00000200: 1e6b a83c 64bb 99bd d243 23bd 7b12 283c
00000210: b7b5 4e3e ceda 3ebc f702 a2bd 130a eb3d
00000220: 01b3 96bd 9182 3ebb 586a d5bc 5926 04be
00000230: bb86 a13c 5a57 eebd a303 ebbb fc97 5cbd
00000240: 26f2 50bd 970d 5cbd 66aa 523d 8b86 39be
00000250: 8b22 ad3d 219c c83b b75a cabd 35ce eb3d
00000260: c3bc abbd 2ca1 2cbc 70b1 edbd 46fa f1bd
00000270: aefb 0e3e dc51 2ebc cbcb 5ebe 95f3 813d
00000280: 27e6 513d 5ee5 5dbd 2e6f a6bc db65 403e
00000290: 875d 843e 21f1 1bbd 403e b93d a35e 393e
000002a0: 4649 3d3b 95c5 f43d b40f 60bd c067 063d
000002b0: d957 57be 6e4f 47bc 406e 853d 379d 58be
000002c0: c0e1 a53d 048d c7bd babb c13d fc7f 0d3e
000002d0: 50d6 e23d 611a 82bd 69f5 47bd c3b7 ebbd
000002e0: 0765 8ebd be2b 4ebb 1725 2e3a 6f94 9fbd
000002f0: 74d1 6b3d ca9e 3cbd ddd0 993d fe1a f73d
00000300: 9a99 843d 29ad 2dbe c2d8 b4bc 8888 a6bc
00000310: 0fbb 4f3d 942d fcbc b127 b03d 4ed9 103d
00000320: 1c59 ccbd 2542 14bd 70f4 7dbd 4699 30be
00000330: 7e19 3fbc 3306 a73d 81a8 cfbd 584f 26be
00000340: 583a 933d 2fe0 f43d aa58 143d b3f0 82bd
00000350: 09eb fabc 0803 59be 09cc 4a3e ef91 34bd
00000360: 213e 86bc 8637 96be e587 5f3c 4581 c43c
00000370: e103 293d 74d9 23bd 654a ba3b a814 36bd
00000380: d7a3 42be efd2 6e3d 1c9a 2fbe 175b 233e
00000390: ea69 06bd e7ac 223e eab3 883d b5e7 243e
000003a0: 8cbc 5b3c 989a 253d cb7e 8a3d 1ece 7dbc
000003b0: de0f 0e3e 0b48 0abe bf9e aa3d 1923 cbbd
000003c0: a482 13bd 9665 073e c58a 5b3c 59d3 bdbd
000003d0: 1f63 3abd ce8a 503d 773a 133d 89c0 21bd
000003e0: 5691 28be d6fd 07bd 4975 2ebe 0004 2c3e
000003f0: 8c0f 1ebd a080 013e 25b2 163d eb44 eb3d
-0.19753191 -0.086240195 -0.009788753 -0.09391307 0.021548638 -0.06455312 -0.09072512 0.12301425
-0.029151656 0.07699264 -0.014324237 -0.10959386 0.077583626 0.11875471 0.19351579 -0.105298765
-0.1569371 -0.072612055 -0.0676677 0.11315228 0.061377108 -0.1976765 0.14737335 0.09750513
0.0172464 0.09438498 -0.10910927 -0.043789938 -0.17880614 0.04997397 0.054381423 -0.0029182553
0.038934648 -0.034154993 0.09516515 -0.0933617 0.1770515 0.10381332 -0.09111224 -0.11888376
0.11935085 -0.030729529 -0.030322097 0.20828767 -0.054289453 0.1636636 0.02362676 0.053912107
-0.08655522 -0.020386659 0.043622933 -0.15139274 0.034064732 -0.012964445 0.07966357 0.054170605
-0.25717634 0.033933297 -0.04441277 -0.050934948 0.1411363 -0.13603431 -0.10835523 0.17484416
-0.08225513 0.08742789 -0.0769878 0.12247735 -0.010933754 0.07064046 -0.04337979 0.10013475
-0.063309915 0.0069274865 0.02317831 -0.19320299 0.06979922 -0.12756796 0.013650588 0.120495446
0.23657355 -0.053744484 0.12830977 -0.123445876 0.09234138 0.036179896 -0.03268337 -0.14705531
0.28173816 -0.09997864 0.0006483971 -0.113913946 -0.023085661 -0.076991156 0.08635073 -0.04009133
-0.16244307 0.12058687 -0.009125092 0.11402525 0.075519145 -0.025893215 0.08439578 -0.08957667
0.14803965 -0.06255167 -0.13735692 -0.025774946 -0.15429282 0.09903584 -0.10083513 -0.08949323
0.12326953 -0.058181833 -0.05773309 -0.10758836 0.1171268 -0.20282926 0.0019211494 0.024344042
0.010409373 0.054790746 -0.19372335 -0.020672517 0.112267055 0.11117998 0.00042842762 0.14514484
0.02055889 -0.07506445 -0.0398596 0.010258312 0.20186506 -0.011648847 -0.07910722 0.11476531
-0.07358361 -0.0029069523 -0.026051685 -0.12905253 0.019717565 -0.11637755 -0.0071720644 -0.05385588
-0.05101218 -0.053723898 0.051432036 -0.1811773 0.08453854 0.0061221276 -0.09880584 0.1151394
-0.08385613 -0.010536473 -0.11606109 -0.11815314 0.13963196 -0.010639634 -0.21757428 0.06345288
0.05124488 -0.05417382 -0.020316686 0.18788855 0.25852606 -0.038071755 0.09045076 0.18102507
0.0028882786 0.11951748 -0.054702476 0.032813787 -0.21029605 -0.012164934 0.06515169 -0.21153723
0.08099699 -0.097436935 0.09459634 0.13818353 0.11076033 -0.063526876 -0.048818026 -0.11509659
-0.06952863 -0.0031459178 0.00066431 -0.07791983 0.057572797 -0.04604987 0.07510541 0.12065695
0.0647461 -0.16960587 -0.022076014 -0.020328775 0.050715502 -0.030783452 0.086013205 0.035363488
-0.09977934 -0.036195893 -0.062000692 -0.17245969 -0.011663793 0.08155479 -0.101395614 -0.16241205
0.071888626 0.11956822 0.03621737 -0.06393566 -0.030629652 -0.21192563 0.19804396 -0.044084486
-0.016387047 -0.29339236 0.01364324 0.023987422 0.041263465 -0.0400023 0.005685138 -0.044453293
-0.19007812 0.05830663 -0.17148632 0.15952717 -0.03281585 0.1588627 0.06674941 0.16104014
0.013411652 0.040430635 0.06762465 -0.015491037 0.1387324 -0.13504045 0.0833106 -0.09918804
-0.03601326 0.13222346 0.013399784 -0.09268827 -0.045504685 0.050913624 0.03594443 -0.039490256
-0.16461691 -0.03320106 -0.17036928 0.16798401 -0.038589045 0.12646723 0.036790986 0.114877544

network_body._body_endoder.seq_layers.2.bias f4 [128]
00000000: 2a61 873c 2fdd 403d fb88 1d3d 4c6a 1a3c
00000010: 4bfe db3c be13 c5ba d6e1 763a 0629 45bb
00000020: e825 9f3b f5f0 38bc e4ae c83b b29a 973c
00000030: 4a68 15bc ce22 373d 1315 91bb a3c7 d53b
00000040: 8669 64bc 99fb 063d 96d7 043b 1229 4b3b
00000050: a780 13bc b1d9 3fbb fc10 43bb d880 f33c
00000060: a454 00bb 5920 053d 20fc c43c ff1f 2e3c
00000070: b6b6 203d 6b41 803c 7e42 fcbb 1373 a3bc
00000080: e119 c63a ebf6 1bbc 82ef febb 62fa 4e3c
00000090: 5249 333c 0068 0b3c 7ce3 f1bb b372 c43b
000000a0: 13c7 98bc 2b8f 1a3a aea0 d2bb 03e7 9eba
000000b0: 19ae 963b 42d8 b23b d129 e63c 1b64 2e3b
000000c0: bd10 e93b da7e 50bc 43d1 4fbd 9d7d 6b3c
000000d0: 2f4c 4d3b 08b6 bd39 8810 873b 9742 383a
000000e0: 7c89 e5bc 87be 6c3b f6d5 e8b9 74e2 003c
000000f0: 80b2 c63c 2f6b 213d 20a0 b53b f751 253d
00000100: bcf8 083b 673a 063d 0646 f6bb d379 0ebd
00000110: 4ba1 b1bc 7d9e 9e3c 93d9 9bbc da56 aabb
00000120: b43d d83a 2133 393c 378e 7b3c dfcc 11bc
00000130: 0c8e df3b 5bed 30b9 1824 8ab9 76e1 b53c
00000140: a04c d23b 44fb 1cbc 9595 733d e632 773a
00000150: 80c0 01bd 15c7 8ebc ddfa 843c 2482 b1b9
00000160: 5242 a93c ffc2 cbbb 3755 3b3c c18d 17bc
00000170: 6484 85bc 4d3e 1dbc 49ed 913c 0042 1e3b
00000180: 079f 1c3c 03e7 22bb eb81 85bc 4014 93bc
00000190: 2035 58bb 379a b6bb b4e0 83bc 09e0 943b
000001a0: fbb9 0ebc 6f4b b23c ddc2 58bc af1e 53bb
000001b0: de03 7cbb b813 ff3b 5014 313c 2b9d 0b38
000001c0: a6a6 293d 434e 8fbc 02b6 04bc bac8 443d
000001d0: d57e fd3b 3fc0 15bd e0ae f5ba 7d54 263d
000001e0: cd39 85bb a814 9fbc 4d02 9c3c 3afd c5bc
000001f0: cf5f de3b 450c a5bc 5d41 a83c 19f7 533c
0.016525824 0.047085937 0.038460713 0.009424757 0.026854655 -0.0015035791 0.00094178075 -0.0030084266
0.0048568137 -0.011287917 0.006124364 0.018506382 -0.009119103 0.044710927 -0.004427561 0.0065240427
-0.013941174 0.032954786 0.00202701 0.0030999822 -0.009002841 -0.0029274041 -0.0029764762 0.029724523
-0.00195817 0.032501552 0.024046004 0.010627746 0.039236747 0.015656194 -0.007698356 -0.019952333
0.0015113914 -0.009519319 -0.0077800164 0.012632938 0.010942774 0.008508682 -0.0073818546 0.0059951185
-0.018649613 0.00058959675 -0.006427846 -0.001212329 0.004598391 0.005457909 0.028096111 0.002660996
0.007112591 -0.012725556 -0.050736677 0.01437321 0.0031325927 0.00036184513 0.0041218437 0.00070289656
-0.02801966 0.0036124305 -0.00044409902 0.007866491 0.024255037 0.03940886 0.00554277 0.04036137
0.002090021 0.03277054 -0.0075156717 -0.03478415 -0.021683356 0.019362682 -0.019024646 -0.005198342
0.0016497881 0.011303694 0.015353731 -0.008898943 0.006822353 -0.0001687309 -0.00026348303 0.022202235
0.006417826 -0.009581391 0.059468824 0.00094298867 -0.031677723 -0.017428914 0.016232902 -0.00033857033
0.020661507 -0.0062183137 0.011433891 -0.009250105 -0.01629848 -0.009597373 0.017813342 0.0024148226
0.009559399 -0.0024856932 -0.016297301 -0.017953992 -0.003299065 -0.005572583 -0.016098358 0.0045433086
-0.008711333 0.021764485 -0.013230053 -0.0032214334 -0.0038454453 0.007784333 0.0108080655 3.3286557e-05
0.041418694 -0.017493373 -0.008100035 0.04804299 0.007736067 -0.036560293 -0.0018744133 0.040607918
-0.0040657283 -0.01941903 0.019044066 -0.0241686 0.0067863236 -0.020147452 0.02053898 0.012937331

action_model._continuous_distribution.log_sigma f4 [1, 2]
00000000: c8d5 28be 35fa 13be
-0.16487801 -0.14450915

action_model._continuous_distribution.mu.weight f4 [2, 128]
00000000: 10bb 813c 07e3 ad3d eb9c 8b3d f70f 7dbd
00000010: ee91 643d 29a5 bc3c cb29 ee3b d352 e13c
00000020: d35e 193d a46d 9e3a 83ae 66bd 93d7 113d
00000030: 7d45 3bbd 8c8a 923d 0649 fdbc 32fe 293c
00000040: fb47 09bd 5aac 773d f561 eebc 3962 0ebd
00000050: 5553 f53c 8013 bf3c 9db1 fdbb bcf2 3fbd
00000060: 7836 44bd f4eb e23b f8b7 b6bc 0cea e33c
00000070: 9209 f13c d999 25bd 8e47 ff3c 59be 2cbc
00000080: 5cf2 2ebd 1a29 d23c 3ceb f4bc a37a 73bd
00000090: 72ff 523c 27fa b8bd a92d 03bd c807 483d
000000a0: cf30 04bb 8aaf 893c c062 ccbc 11f7 8abc
000000b0: ced7 463d 0600 8ebd ee00 0b3d ee4b 413d
000000c0: a7cc 2a3d 5eef c8bc b6c8 b23b 910a 78bd
000000d0: cc0c 06bd 340c aa3c 8ea5 483d e3a5 fcba
000000e0: a312 dcbc b8a8 9d3c f7de ecbc 520f f8ba
000000f0: 42e2 c838 d984 813d 9c57 42bd 9455 953a
00000100: 785f b5bd cb0d 71bd e096 2f3c d45d 8d3b
00000110: 2ada 04bd fd2b 8d3d 54df 5e3c 9322 0d3d
00000120: a075 723c 80a3 863d 65fb 86bd dccc af3c
00000130: 202c 0ebd 9fa8 033d 5297 99bc 4e84 4d38
00000140: 1b60 553b 496d dfbc 260f 293d 5bbe 3a3d
00000150: b42d d639 8451 8dbc 9e45 02bd 1a81 163d
00000160: 75e8 993d 91f9 dbbc 244f 3f3c ad03 33bb
00000170: 9b5b bebc c95f 233d ef8f 1abd 1460 373c
00000180: 4871 c23c 9b8a e73c 4756 e1bb 36f7 7b3c
00000190: 3e00 4a3d 3de8 6dbb 7787 8cbc d5d5 40bd
000001a0: 02a8 91bc 13bd 6ebc 06ae 01bc 0640 92bd
000001b0: 8d6a 073d 3d27 babc 9100 c63b ddbf 28bd
000001c0: 8025 373c b97e dbbc 42bb 85ba 0db5 63bb
000001d0: 8b75 313c 1062 603c f03d 12bd 9be8 afbd
000001e0: e371 b5bb 4c25 4a3b cd6c 5dbd 5ddb ad3b
000001f0: 18b8 a13c fd3b b3bc d5cf b83d 04ec 3c3d
00000200: 00d5 6c3d b84d ae3d 177e 1abd dcd3 853c
00000210: 591e 8b3d c731 4d3d 6773 1c3d a62b 1dbd
00000220: 36a0 02bd 8a24 9bbc 4d47 bb3b 3bfe b1bd
00000230: 31fe 8e3c 9d17 34bd e3b4 b0bc 246d 0e3d
00000240: 6517 063c 6671 ff3c c1b8 25bd 54e0 8a3c
00000250: f1be d1ba 342f 03bd 6733 3dbd 62c5 643d
00000260: 4554 6dbd 6d7c b5bd ee60 a23d 913b 053c
00000270: ac2f a73d b40f 503d 6aeb dabb 8197 9f3b
00000280: ba3d e8bc 7020 adbb 0bd7 31bd d1de 563c
00000290: 11b5 4cbd 5c07 423d 1499 36bc 6f04 8bbc
000002a0: 1bcc c83b b1c0 22bc df4e efbc 0d65 89bc
000002b0: 4d27 54bd b571 66bd c2c2 4f3d f8d7 20bc
000002c0: 2375 3c3d 95e5 5bbc c85e 22bc eb83 863c
000002d0: f71f 5b3d 47eb 0c3d f45b 3a3d 959b 53bd
000002e0: 2459 a5b7 9934 3ebd 2c05 a9bc 0c73 51bd
000002f0: 9ded 1d3d 40cb e33a 255a 2b3c a4a2 6f3d
00000300: 347e 183c 32be ac3d dfc3 38bd 7863 673c
00000310: 05c9 253c 5d9b c43c 2c75 ecbc eb1b f43c
00000320: a0f7 6bbd 72a8 fd3a 0b43 48bc 81ed ddbc
00000330: 5482 88bd 5f70 4abc dc82 cb3c 287e 2c3d
00000340: cb80 4a3d 2d7f 88bc f3b4 a0bd 34c8 ac3c
00000350: f04b fabc 97a2 b6bc 718c 423d 4287 bdbc
00000360: 1c8b d43c 1407 27bd 1ce5 7a3d bd73 10bd
00000370: 3cd6 85bc dc98 1ebc 5e70 7cbd 2d14 87bd
00000380: 8212 163d ea2e 7cbd 1284 f5bc 13fe c23c
00000390: 7e01 dcbb c4c6 03bd bb5e 58bb 3c94 7d3c
000003a0: 2d6f e93c 3c31 5e3d cd61 9f3c f20e 123c
000003b0: 9c49 9bbc 4836 56bd 504d ddbc 58e1 8dbc
000003c0: e215 1c3e 8496 7ebb 911d f33a 86f4 913d
000003d0: 06bd be3d 5744 b9bc 4de6 c33c 96a5 213d
000003e0: 80b4 633c 0ff5 45bc 3a97 133d d49f 38bb
000003f0: 4d92 25bd 7195 69bb 19af 05bb e4fc a1bc
0.015836269 0.08490568 0.06817039 -0.061782803 0.055803232 0.023027973 0.0072681657 0.027505314
0.037443947 0.0012087119 -0.05631877 0.03560598 -0.045720566 0.07155332 -0.03091861 0.010375546
-0.03351591 0.0604671 -0.029099444 -0.03476164 0.029946962 0.023324728 -0.0077421204 -0.04686235
-0.047903508 0.0069251005 -0.02230452 0.027821563 0.029423509 -0.040429924 0.03116205 -0.010543429
-0.0427116 0.025654364 -0.029897325 -0.059443127 0.012878286 -0.09032088 -0.032025967 0.048835546
-0.0020170694 0.016807336 -0.024949431 -0.016963514 0.04854565 -0.06933598 0.033936433 0.047191553
0.041699078 -0.024528202 0.0054560555 -0.060556952 -0.032727048 0.020757772 0.04898601 -0.0019275512
-0.026864355 0.01924549 -0.028914912 -0.0018925464 9.578887e-05 0.06324167 -0.047446832 0.0011393302
-0.088561 -0.058851045 0.010717124 0.0043141637 -0.03243462 0.06893156 0.01360305 0.0344568
0.014798552 0.06574154 -0.065909185 0.02145999 -0.03471005 0.03214323 -0.018748913 4.8999027e-05
0.0032558504 -0.02727379 0.041274212 0.045591693 0.00040851312 -0.017250784 -0.031804673 0.036744215
0.07515041 -0.026852401 0.011676583 -0.0027315423 -0.02323704 0.03988627 -0.037734922 0.01119234
0.023735657 0.028264334 -0.00687674 0.015378764 0.049316637 -0.0036301755 -0.017154438 -0.047078926
-0.017780308 -0.014571446 -0.007915026 -0.07141118 0.0330606 -0.022723788 0.006042548 -0.0411986
0.011178374 -0.026793825 -0.0010202902 -0.0034745366 0.010831247 0.013695255 -0.0357036 -0.08589288
-0.005537258 0.0030844985 -0.05405884 0.005305691 0.019741103 -0.02187919 0.09024016 0.04612352
0.05782032 0.085109174 -0.037717905 0.016336374 0.06792898 0.0500963 0.038195994 -0.038371705
-0.03189107 -0.018938322 0.005715287 -0.08691069 0.017455192 -0.043967832 -0.021570629 0.034772053
0.008184289 0.031182002 -0.0404594 0.016952671 -0.001600234 -0.03202744 -0.0461916 0.0558523
-0.057941694 -0.08861623 0.07928644 0.0081318775 0.081633896 0.050796226 -0.0066808956 0.0048703556
-0.028349746 -0.005283408 -0.04341797 0.013114647 -0.049977366 0.0473703 -0.011144895 -0.016969888
0.006127847 -0.0099336365 -0.029212413 -0.016771818 -0.051795293 -0.056260783 0.050722845 -0.009817116
0.046010148 -0.013421436 -0.009910293 0.016420325 0.05349728 0.034404065 0.04549785 -0.051662046
-1.9711042e-05 -0.04643688 -0.020632349 -0.051135108 0.038556684 0.0017379299 0.010458504 0.058504716
0.009307433 0.084347144 -0.045108672 0.014122836 0.010118728 0.023999864 -0.028864466 0.029798469
-0.0576092 0.0019352569 -0.012223016 -0.02709079 -0.06665483 -0.012355893 0.024842672 0.0421125
0.049439233 -0.016662205 -0.07847013 0.021091558 -0.030553788 -0.022294326 0.047497217 -0.023135785
0.025945239 -0.040778235 0.061253652 -0.035266627 -0.016337506 -0.009679999 -0.0616306 -0.06595645
0.036638744 -0.06156818 -0.029970203 0.023802793 -0.006714045 -0.03217198 -0.0033015448 0.015477236
0.028495396 0.054246172 0.019455815 0.008914696 -0.018955998 -0.05229786 -0.027014405 -0.017319366
0.15242723 -0.0038847039 0.001854824 0.07126717 0.09313397 -0.022615595 0.023913527 0.039464556
0.013898015 -0.012082352 0.036032893 -0.0028171437 -0.040422726 -0.0035642053 -0.0020398556 -0.019773908

action_model._continuous_distribution.mu.bias f4 [2]
00000000: 059f a439 efa1 f83a
0.00031398996 0.0018969158

action_model._discrete_distribution.branches.0.weight f4 [1, 128]
00000000: 7b11 90bc abec 77bc 2ec7 8f3a 6b01 bdba
00000010: 0c83 adb9 5a3a 2dbc 6dd5 5e3a e748 083c
00000020: e29d 21bc 2b26 84ba d379 dbb9 40cc f8bb
00000030: 2f88 6a3c 7d1d 383b 2f4c 453c 8fbb 33bb
00000040: 1770 a73c 0284 cc3b e70c ac3c 3796 9e3c
00000050: cbc2 3a3c 1e5d 3dbc bf70 153c 6711 133c
00000060: 3a08 353c e3a8 77bc e315 bf3b 6be4 1a3b
00000070: 711e a0bc 7f52 8ebc 0f7b f13b 0708 a23b
00000080: abb3 87b9 728c fc3b 8107 cabb 443b 083a
00000090: 8239 e33a 1897 d73b 559d a63c 8ad3 0ebc
000000a0: 0f22 e83a b3e9 2a3c 2f85 9a3a 7c11 a8ba
000000b0: 32b6 843b e7ce 57bc 88ca 7f3b 037f 89bc
000000c0: c7e6 8339 22e6 263a 332c fbb9 c4cd 373c
000000d0: b830 8abc 0507 d0bb f607 953c 771c 2d3c
000000e0: 235a dd3b 1cbc bf3a fb0e b9bb 53ff dabb
000000f0: 607b 803b bf8f 6d3a 801d 233c c2c4 29bc
00000100: 5f93 8abb 6591 78bb 1d0d 4b3b 8296 fdbb
00000110: 8885 ffbb b948 babb d3a1 193c 9315 593c
00000120: 58ef 7bbc 421e 843b f0f8 103c ab7f cbbb
00000130: 858f 2d3c 3b28 0c3c f7e2 3cbc 63cd 36bc
00000140: 7e36 923b b066 533c fa08 e23b 3e2a 0b3c
00000150: d5ee 09bc eb19 c13b d8c1 d7bb d46f 893c
00000160: 33f2 febb 8bd7 bf3b e3b8 0f3b 5214 f939
00000170: 67dc cdbb 0b4c 8ebc af2e 793b e24f 8d3a
00000180: 6ee7 b93b a71d f9bb 7744 8b3a a055 5c3c
00000190: 625c 203c 6ac6 c23a 1ff9 c3b9 c3e0 23bc
000001a0: 1763 e7bb 89b1 1b3c 25d8 e63b 1338 bf3b
000001b0: 3adc c8ba cf37 22bb c425 133a 57ac 6fbc
000001c0: 75f4 48ba 892d aebb 39aa c0ba c6ce b539
000001d0: 7f5e a83b ab8e 92bc fb51 5c3c e8bc 593c
000001e0: 8140 973b f4c4 963b 72b4 86bc b8a1 4139
000001f0: 301d 28bc beaf b53b 3398 f2bb 104b 68bc
-0.01758646 -0.01513211 0.0010969394 -0.0014419978 -0.0003309477 -0.010572994 0.0008500431 0.0083181625
-0.009864302 -0.0010082176 -0.000418617 -0.007592708 0.014314695 0.0028093748 0.012042089 -0.0027425026
0.02043919 0.0062413225 0.021002246 0.019358737 0.011398981 -0.011557845 0.009121119 0.008976317
0.011049325 -0.015115949 0.0058314665 0.0023634683 -0.019545766 -0.017373322 0.007369406 0.0049448046
-0.0002588307 0.007707172 -0.0061654453 0.00051968195 0.0017335864 0.006579291 0.020338694 -0.008717427
0.0017710346 0.010431695 0.0011788959 -0.0012822594 0.0040500397 -0.013171888 0.003903063 -0.016784197
0.0002515821 0.000636669 -0.00047907382 0.011218492 -0.016868934 -0.006348493 0.018192273 0.010565869
0.00675513 0.0014628205 -0.0056475378 -0.006683269 0.0039209574 0.00090622524 0.009955764 -0.010361852
-0.004228994 -0.0037928459 0.0030983158 -0.007738889 -0.0077979006 -0.0056849387 0.009376961 0.013249773
-0.015376888 0.0040319273 0.008848414 -0.0062102876 0.0105933 0.008554514 -0.011528722 -0.011157366
0.0044620624 0.012902901 0.0068980427 0.008493958 -0.008418758 0.0058929822 -0.0065843873 0.016776957
-0.0077803372 0.005854552 0.002193027 0.0004750812 -0.0062823775 -0.017370244 0.003802221 0.0010781253
0.0056733405 -0.007602412 0.0010625263 0.013448149 0.009787651 0.0014860157 -0.00037378908 -0.010002318
-0.007061373 0.009502777 0.0070448094 0.005835542 -0.0015324422 -0.0024752503 0.00056132325 -0.014628491
-0.00076658215 -0.005315487 -0.0014699168 0.00034677068 0.005138218 -0.017890295 0.01344728 0.013289668
0.0046158438 0.0046011154 -0.016443465 0.00018466159 -0.010260865 0.0055446317 -0.0074033975 -0.014178053

exp_avg f4 [128, 18]
00000000: f5fe c5b9 5121 c6b9 831e 3a39 ab42 b939
00000010: a07a f639 cb1a 8fb9 6ddc 6038 bb7a 5aba
00000020: 39a0 4bb9 76e3 2c39 d0e2 bfb9 fc4e a5b7
00000030: badc 1639 9c7e 56ba 489f a5b9 0b1c 9539
00000040: 9968 38ba eecc 24b9 7ceb 9bb9 2b78 0739
00000050: f1bf f8b7 1379 82b9 195e 9c38 d1eb 5039
00000060: 675b f6b9 ef7c a039 4266 c539 2c2d cdb9
00000070: 383b 1c3a cdb9 bd38 83db 24ba ed3a 9839
00000080: 5565 093a bbfb 05ba 6344 3f39 2a73 3f39
00000090: c020 8ab9 8433 0bba 2c5f a4b9 7d6f 413b
000000a0: ae20 493b a07a 4abb 453d ad3a 523d 8eba
000000b0: 735f d1ba c76a e03a 0392 12bb cc7f 7c3a
000000c0: 1ccd 723a bb93 68ba 359c 9eba 55ef d83a
000000d0: e80e 8bba f550 09bb a4cc 5fba 51c1 ac39
000000e0: 308a ba39 13f4 0fba d967 c1b9 ea52 1a3a
000000f0: 772d 18ba ad96 9b39 0128 323a 46d9 c837
00000100: 8387 cfb8 9995 2139 c800 91b9 7a14 3e39
00000110: 0e58 8f39 a8a5 cab9 4bd4 9739 26df 053a
00000120: 8333 87b9 1261 fd39 6944 d038 6331 5bb9
00000130: ac3d 0d38 6e86 5f39 15de 3ab9 9231 1eb9
00000140: bdaa 7338 bf62 5338 7aa6 a339 6eaa 32b9
00000150: 4a05 40b8 484e d1b8 bf06 2838 a02c 84b8
00000160: 2197 2ab9 97d3 3538 e36d acb9 8519 d138
00000170: 03d9 7738 0da9 c239 bc94 db39 865e e1b9
00000180: bdb5 d036 fdc3 52b7 a75f 5fb8 9746 0339
00000190: a3f4 b7b9 3711 c939 08ce 72b8 36b5 13b8
000001a0: 2e08 47b8 a465 9838 4b6a 0cb8 d934 64b9
000001b0: be2e 7db9 a819 2cb9 48ee 38b9 65a3 1a3a
000001c0: 0739 513a 99ea 39ba a19d 26b9 497d e839
000001d0: af1c dab8 a55e 2bb9 5ca6 b839 3612 2539
000001e0: 5854 b0b9 1f8a ea39 503b 8039 b21e d737
000001f0: 1eef 9c39 e4f1 0fba 771a 11ba 15ad bcb7
00000200: 9694 a839 6987 783a a1ad 353a d8f3 40ba
00000210: bf81 253a 6fc1 e539 29d9 f9b9 8505 2d3a
00000220: 22bb 68ba 7bd2 7e39 ce6c 6a3a 44fb 9839
00000230: f616 71ba 211a 673a ab7e da39 ad85 21ba
00000240: b53c 94b8 e3a2 b237 1439 3038 33dc 80b9
00000250: 68f7 9db8 9936 6239 6bcf 08b9 b0e3 40ba
00000260: 45b8 a439 208c 46b9 4598 b339 b2b2 b5b8
00000270: 3b40 42b9 9f7f 31ba 4796 7139 74ec 96b8
00000280: 2557 53ba adc5 3839 65f0 aa38 3592 11ba
00000290: 50ab b4b8 8f70 b639 3092 8838 e761 4ab9
000002a0: 9ede 2c3a dfa2 02ba 270a 4cba 6717 283a
000002b0: 051f 29ba cd9f a537 3c78 9b39 6c3f 62b9
000002c0: 6969 45b9 8d5c 533a 9c2f 46b9 1816 dfb9
000002d0: e295 65ba b2d7 1939 78dc 5039 37cf 893a
000002e0: fb11 953a 6fb8 95ba f30b 9c39 2fb4 66ba
000002f0: fe5f 51b9 90a8 363a 57da 9fba e85d 843a
00000300: 08b6 b139 10a2 6aba 1669 f0b9 3a87 3d3a
00000310: 98b5 84ba 49fc 16ba 29d8 a5b9 0720 5d39
00000320: efc3 8239 92ba 9ab9 cc7d e6b6 fe0d aa39
00000330: e7a3 a8b9 9540 dfb9 46a7 8339 0129 a4b9
00000340: 435b 153a 8312 30b9 cdc3 adb9 a3a2 b0b9
00000350: aabc 5d39 c67c 9738 6153 e9b9 0d36 e336
00000360: 5e5a 8dba 4579 2939 69ed 413a 8292 8f3a
00000370: 205a 8b3a 76ec 8eba 288c be39 62d8 37ba
00000380: de30 27b9 4510 d839 9e96 baba 2143 333a
00000390: e488 f039 0863 53ba 8df5 31ba 1560 853a
000003a0: 7809 62ba 861d 30ba 0230 dcb9 f08b 48b8
000003b0: cedb 4cb9 db0b 2838 3b72 b338 597b 6139
000003c0: 7781 0f39 f043 4f3a 2ff7 d8b6 5af1 9b39
000003d0: 4417 2c38 397e 9c38 d92e f438 d294 3e3a
000003e0: 7041 71b7 640e 5439 f17b 503a 9751 33b8
000003f0: aac8 533a cab2 d039 61b7 a2b9 c7ad 2cbb
-0.00037764726 -0.00037790326 0.00017749709 0.0003533562 0.0004701214 -0.00027295048 5.361105e-05 -0.00083343283
-0.00019419276 0.00016487934 -0.00036599347 -1.9706313e-05 0.00014387342 -0.00081823184 -0.00031589926 0.00028440388
-0.0007034629 -0.00015716601 -0.00029739353 0.0001291937 -2.9653283e-05 -0.0002488574 7.456187e-05 0.00019924274
-0.00046988876 0.0003061066 0.00037650956 -0.00039134303 0.0005959752 9.0468304e-05 -0.00062888133 0.00029035602
0.0005241235 -0.0005111058 0.00018240655 0.00018258081 -0.00026345812 -0.00053101056 -0.00031351426 0.0029515915
0.0030689645 -0.0030895844 0.0013217112 -0.0010852015 -0.0015973881 0.0017121666 -0.0022364862 0.00096320803
0.0009262131 -0.0008872111 -0.0012100997 0.0016550819 -0.0010609301 -0.0020952795 -0.0008537269 0.00032950428
0.00035579642 -0.0005491387 -0.000368892 0.0005886989 -0.00058051146 0.00029676166 0.0006796122 2.3943034e-05
-9.89577e-05 0.00015409886 -0.00027657137 0.0001812744 0.0002734069 -0.00038651866 0.00028959135 0.0005106799
-0.00025787586 0.00048328243 9.930955e-05 -0.00020903866 3.3674456e-05 0.00021317016 -0.00017821074 -0.0001508652
5.8094727e-05 5.0398285e-05 0.00031213817 -0.00017038893 -4.5781293e-05 -9.9804776e-05 4.0060604e-05 -6.3025625e-05
-0.00016268763 4.335082e-05 -0.00032888268 9.97065e-05 5.9091497e-05 0.00037128516 0.0004188175 -0.0004298577
6.22004e-06 -1.25626075e-05 -5.3256426e-05 0.0001251943 -0.00035086749 0.00038350534 -5.7889178e-05 -3.5216297e-05
-4.7452915e-05 7.266857e-05 -3.3477594e-05 -0.00021763462 -0.00024145373 -0.00016412756 -0.00017636374 0.00058989815
0.0007981215 -0.0007092148 -0.00015889715 0.00044343833 -0.00010400393 -0.00016343089 0.00035219162 0.0001574241
-0.00033632177 0.00044734866 0.00024458254 2.564429e-05 0.00029932795 -0.00054910616 -0.00055352546 -2.2491944e-05
0.00032154162 0.0009480627 0.0006930475 -0.00073605543 0.0006313584 0.00043822403 -0.00047654778 0.0006600249
-0.00088779826 0.00024301738 0.0008942605 0.00029178907 -0.0009196842 0.0008815844 0.00041674575 -0.0006161582
-7.0684975e-05 2.1295104e-05 4.2014828e-05 -0.00024578124 -7.5324264e-05 0.00021573379 -0.0001304724 -0.0007358147
0.0003141781 -0.00018934952 0.0003425499 -8.664037e-05 -0.0001852521 -0.0006771031 0.00023039534 -7.1966e-05
-0.0008061997 0.00017621247 8.151009e-05 -0.00055530976 -8.614978e-05 0.00034797608 6.512215e-05 -0.00019300693
0.0006594452 -0.0004983376 -0.0007783495 0.00064121786 -0.00064514606 1.9743946e-05 0.00029653485 -0.00021576666
-0.00018826652 0.00080628024 -0.00018900487 -0.00042550336 -0.0008757991 0.0001467157 0.00019918557 0.0010514025
0.0011373156 -0.0011422763 0.00029763542 -0.0008800653 -0.00019967553 0.0006967867 -0.0012195808 0.0010098787
0.00033895695 -0.0008950541 -0.00045854662 0.0007229928 -0.001012492 -0.00057596393 -0.00031632304 0.00021088134
0.00024941514 -0.00029512175 -6.869179e-06 0.00032435352 -0.00032165574 -0.00042581992 0.00025110896 -0.00031311068
0.0005697498 -0.00016791564 -0.00033143014 -0.0003369051 0.00021146485 7.223482e-05 -0.00044503345 6.7714195e-06
-0.0010784378 0.00016162272 0.00073977426 0.0010953697 0.0010631718 -0.0010904211 0.0003634405 -0.00070131395
-0.00015944566 0.00041210852 -0.0014235561 0.0006838311 0.0004587836 -0.0008063768 -0.0006788604 0.0010175729
-0.0008622627 -0.00067182665 -0.00041997439 -4.7814043e-05 -0.0001953684 4.0065363e-05 8.556662e-05 0.00021503623
0.00013685772 0.0007906547 -6.4660776e-06 0.00029743725 4.1029663e-05 7.4621705e-05 0.00011643553 0.0007270101
-1.4379955e-05 0.00020223256 0.0007953039 -4.2752912e-05 0.00080789125 0.0003980606 -0.00031035676 -0.0026348697

exp_avg_sq f4 [128, 18]
00000000: 1e2b 6837 5b5e 9837 a7c2 6437 94ef 8337
00000010: 36de b537 6435 0438 6643 a237 eaf8 b736
00000020: 4edd 0538 46e0 9137 8ad1 8d37 5c04 9a37
00000030: 98de b137 1965 d236 8cc2 0e38 7f67 be37
00000040: 21d2 bf36 c385 fb37 2616 d935 f048 e335
00000050: 03e7 b035 b4d8 3537 d26a 1d37 a827 2837
00000060: afa8 1437 e9e4 0c36 682d 0737 76a0 4b36
00000070: d832 ec35 6b3f c535 02c4 2837 a5a4 1436
00000080: 768e 1737 8033 2737 2906 1c36 6b38 1537
00000090: e493 4a37 6e48 8737 ebe9 2a37 8a3e b538
000000a0: b938 9d38 c1b9 b038 6bb6 8338 102c ca36
000000b0: 9e04 9538 1229 1638 9b49 8637 5677 3637
000000c0: 4a91 8138 5b8f e036 22cc 9738 5368 9238
000000d0: 0208 d536 ee4a 9c38 320d 2f36 c91c 9836
000000e0: 26d6 2936 5ea6 6d37 eba8 2f37 9e0c 6237
000000f0: ee79 6237 1669 9f36 8b25 6e37 95f0 d136
00000100: ab61 6c36 00bf 3e36 a20d 6137 8ebc 9f36
00000110: b51a 6737 f7c8 5e37 4fb8 9636 1e5f 4737
00000120: aae9 7e35 7436 a235 7b27 4e35 a20f 3736
00000130: 135f 8036 0d39 8936 e5eb 0736 3afb ce34
00000140: 838c 4a36 a5c5 cb35 0688 d835 df7d 8135
00000150: 911d 9e35 c564 c034 559e 0236 ab58 1736
00000160: e143 c534 9a30 6336 f2ee c735 768e ea35
00000170: fc32 b835 d4a5 2c37 ab60 0037 04fb 1b37
00000180: d624 1437 081b a935 6782 1337 8678 9036
00000190: c31e 0236 7d6f ba35 d602 1937 850e bb35
000001a0: 497d 0e37 c258 1937 b85e a435 ad18 0837
000001b0: 7eed 5535 1dd8 8235 cbea 6b35 6c26 e536
000001c0: 307d 0037 19d1 e936 6a90 2836 5f48 5235
000001d0: 38b1 6136 fb8f df35 bf03 a335 ccfa 7335
000001e0: 3034 7836 0097 6335 3a38 9a36 1208 7536
000001f0: 0948 6135 83b9 a736 9a5a 8335 2d4e ea35
00000200: 8c8a 5f35 a908 bb36 0b4f 9f36 a0da ae36
00000210: ccf7 ac36 9449 6236 3ef4 a836 29b4 1136
00000220: 3af8 b235 87cf 8235 4fd3 b436 a109 6636
00000230: 5200 b636 615d b736 76aa 4a36 c6a9 b236
00000240: 4a8e a736 5955 fb36 1331 9036 cf99 cf36
00000250: 0a76 4c35 ca71 bc36 6797 1f37 06c0 9c36
00000260: c3cd 3b37 1593 b436 497d a636 6252 a236
00000270: 35d3 1d37 60f9 9936 ba67 5337 775e 3937
00000280: 8453 9536 a5a6 1537 4dc2 dc36 e543 0837
00000290: 33ee cf36 c784 7b37 7c37 ff36 4b1a 7f37
000002a0: 7620 5b37 f2f8 2136 929e 8237 514d 1537
000002b0: 9766 de36 1cd4 df36 a52e 7137 c200 2a36
000002c0: 4b48 9f37 8a9d 7537 545f 2236 3824 6e37
000002d0: ad06 8836 22dd c436 86ff 8236 905c f937
000002e0: aa35 f437 24ce fc37 971d a437 5128 b636
000002f0: 31b7 bd37 200a 4c37 8ccd d136 d27f 8f36
00000300: 9356 a937 5ddc cb36 2f6e d337 f995 b637
00000310: 9395 c836 e8da ce37 79e2 2736 868f aa36
00000320: c072 1236 3070 ee36 df24 8e36 70de da36
00000330: 1d0c 0137 37dc fc35 0720 1d37 d5b4 8c36
00000340: 2bce 5236 36fb 3736 7cf4 dd36 c9a1 f235
00000350: d205 0c37 b93a 1737 4ea9 da35 f087 1237
00000360: 0738 8236 ee40 d736 743d 7136 8155 9037
00000370: 2b07 7337 9c24 9037 c7e2 7437 4082 1337
00000380: 54c3 8537 2637 f336 a919 b236 68b2 7736
00000390: 2bfc 7b37 9f7d 2437 d041 9237 bf47 8837
000003a0: b184 1a37 9283 9137 9e21 a036 2adb fc36
000003b0: 8b4a 9a36 420d ac36 d05e ba35 018d c036
000003c0: 1c10 bc36 617c 4137 b635 ec36 1406 cf36
000003d0: f53d bc36 b2f8 9836 3843 d936 fd7e 4137
000003e0: 89b1 0937 7127 da36 5359 4937 21d8 e536
000003f0: 44c7 9736 0c3e c436 2c14 8036 c953 0d38
1.3838317e-05 1.816375e-05 1.363518e-05 1.572798e-05 2.1680356e-05 3.1520976e-05 1.934329e-05 5.4828024e-06
3.1915777e-05 1.7389782e-05 1.6906084e-05 1.836026e-05 2.1203698e-05 6.270257e-06 3.4036624e-05 2.269796e-05
5.716706e-06 2.998382e-05 1.6174206e-06 1.6934046e-06 1.3180255e-06 1.0838896e-05 9.3828e-06 1.00228135e-05
8.860762e-06 2.099487e-06 8.057199e-06 3.0342758e-06 1.7598168e-06 1.4696101e-06 1.0059217e-05 2.2149554e-06
9.033471e-06 9.9659665e-06 2.3249397e-06 8.894228e-06 1.2074572e-05 1.6126982e-05 1.0187253e-05 8.6424014e-05
7.496909e-05 8.426933e-05 6.280545e-05 6.0251987e-06 7.105734e-05 3.5801037e-05 1.600832e-05 1.087583e-05
6.1782615e-05 6.692409e-06 7.238264e-05 6.9812544e-05 6.348827e-06 7.4526164e-05 2.6084713e-06 4.533304e-06
2.5307613e-06 1.4165036e-05 1.0470142e-05 1.3473587e-05 1.3499039e-05 4.750803e-06 1.4194647e-05 6.256693e-06
3.522359e-06 2.8423383e-06 1.3414219e-05 4.76052e-06 1.3774891e-05 1.3279022e-05 4.4918047e-06 1.18834705e-05
9.49624e-07 1.2085789e-06 7.679843e-07 2.7278224e-06 3.8257654e-06 4.0895598e-06 2.0253876e-06 3.8553281e-07
3.0182134e-06 1.5182201e-06 1.6132842e-06 9.647882e-07 1.1780522e-06 3.5836106e-07 1.946367e-06 2.2552365e-06
3.6743498e-07 3.3853926e-06 1.4896198e-06 1.747582e-06 1.3723907e-06 1.0290609e-05 7.651902e-06 9.297164e-06
8.830064e-06 1.2599348e-06 8.792244e-06 4.305565e-06 1.9389415e-06 1.3890527e-06 9.120171e-06 1.3936811e-06
8.49303e-06 9.140176e-06 1.2246519e-06 8.111977e-06 7.969428e-07 9.748652e-07 8.788599e-07 6.8292047e-06
7.658542e-06 6.9682833e-06 2.511801e-06 7.833641e-07 3.3630768e-06 1.6656699e-06 1.2145537e-06 9.088951e-07
3.6985257e-06 8.4783824e-07 4.5961033e-06 3.6512542e-06 8.3923857e-07 4.9985842e-06 9.786629e-07 1.7457111e-06
8.3275586e-07 5.5740425e-06 4.747771e-06 5.2110554e-06 5.154847e-06 3.3719452e-06 5.0352237e-06 2.171155e-06
1.3334277e-06 9.746153e-07 5.3890176e-06 3.4278276e-06 5.42406e-06 5.4646957e-06 3.0199567e-06 5.3245776e-06
4.9935525e-06 7.4903187e-06 4.2972474e-06 6.1869864e-06 7.616769e-07 5.6160834e-06 9.51239e-06 4.6715168e-06
1.1193976e-05 5.3815406e-06 4.9617706e-06 4.837567e-06 9.407105e-06 4.5887864e-06 1.2600731e-05 1.1048854e-05
4.4502685e-06 8.919892e-06 6.5791305e-06 8.12204e-06 6.196811e-06 1.49916805e-05 7.6060514e-06 1.5205306e-05
1.3060975e-05 2.4135775e-06 1.5571048e-05 8.899094e-06 6.6280586e-06 6.6706107e-06 1.437558e-05 2.5332415e-06
1.8987941e-05 1.4639818e-05 2.419537e-06 1.4194338e-05 4.053893e-06 5.8669984e-06 3.9040488e-06 2.9726216e-05
2.9112056e-05 3.0136733e-05 1.9564102e-05 5.428716e-06 2.261586e-05 1.2161705e-05 6.252614e-06 4.2766123e-06
2.0186684e-05 6.075525e-06 2.5204468e-05 2.1765927e-05 5.977877e-06 2.465905e-05 2.5016764e-06 5.083103e-06
2.1822489e-06 7.106013e-06 4.236222e-06 6.5228014e-06 7.6918195e-06 1.8839554e-06 9.365386e-06 4.1933768e-06
3.1412444e-06 2.741535e-06 6.614775e-06 1.8077491e-06 8.346005e-06 9.013974e-06 1.629154e-06 8.733929e-06
3.8808244e-06 6.415058e-06 3.594757e-06 1.7205954e-05 1.4485598e-05 1.7183185e-05 1.4596334e-05 8.792209e-06
1.5945792e-05 7.2483845e-06 5.3078006e-06 3.6909714e-06 1.5019478e-05 9.80441e-06 1.7435203e-05 1.6245873e-05
9.21001e-06 1.7346614e-05 4.772285e-06 7.5356993e-06 4.5982356e-06 5.127543e-06 1.3885674e-06 5.738461e-06
5.604712e-06 1.1532656e-05 7.039601e-06 6.1697883e-06 5.6100494e-06 4.558905e-06 6.4749293e-06 1.1533263e-05
8.207172e-06 6.501498e-06 1.2001331e-05 6.8498925e-06 4.5233483e-06 5.8484784e-06 3.8170456e-06 3.369505e-05

exp_avg f4 [128]
00000000: 9fea a4b9 a04f 9039 66e6 d1ba d2e2 0b39
00000010: 1776 1939 f211 56b9 bd06 d0b7 bf7e 52b9
00000020: 4d45 8f38 951e 4cb9 a2f5 50ba 752c 5639
00000030: 9f82 46ba 5373 ad39 9594 913a 564f 61b8
00000040: 9c93 6738 9d6e d839 51cb 6538 7787 a2b8
00000050: d488 8738 4f94 da39 140f b1b9 dca5 f538
00000060: f47c 89b8 51c1 103a ac96 183a 2422 4b3a
00000070: 12a8 f438 dc8d 7f38 336a 7cba c089 4538
00000080: a150 a939 2bf6 7238 327a b7b8 ce01 70ba
00000090: 5800 5439 c101 c3b9 861d 8db9 741d 54b9
000000a0: 9472 52ba 7ab7 c139 2a84 ae37 1827 24b9
000000b0: ff10 deb8 fd79 37b9 e291 5cba b590 0239
000000c0: 9872 62ba 0ac1 d139 3ee8 b137 0888 f138
000000d0: b22d ae39 f418 d738 e1a4 7238 8f07 5e38
000000e0: d5a5 1d38 ba84 8038 8580 0039 74f3 e039
000000f0: a50a f7b9 9584 92b8 7af2 1c38 540b 9e38
00000100: bbb1 5eba 8fba 2bba 95af d738 bcae dd38
00000110: 14a9 feb9 4b4b 26b9 db9a 11ba d766 08b8
00000120: ffc0 133a 5a4b 8bba 9d1d 48b9 a400 ea39
00000130: 1a4f 9539 afa9 85b7 a5c7 323a 3bba 50b8
00000140: 7575 6db9 fde9 6cba f9c0 85b9 4ef0 8eb9
00000150: 7f43 18ba f96a 8cb8 3687 a838 a2bc 5e39
00000160: 4448 6db9 df52 b3b9 1851 e1b9 2e35 bb39
00000170: cdfd 9e39 33a6 42b9 37de 2739 4168 a8b8
00000180: 2144 723a 2a7d ce38 a505 8e39 3857 e1b9
00000190: d751 74b9 5f8d 0f39 968f f2b9 53ec 7d39
000001a0: 31be 6539 f278 c839 541d dab7 ccd9 b339
000001b0: 845b e3b9 30a5 1738 6a3c a1b9 493f 33b8
000001c0: a2eb 4bba 602f a539 e16f 8239 cede a939
000001d0: ea76 0339 0d60 7539 fdce 5ab8 07ab f9ba
000001e0: 499c a839 747e 7ab6 5e1d 21b9 72f6 61b8
000001f0: 2ee9 4fb9 8079 48ba 912e 0339 e06e f4b9
-0.00031455324 0.00027525146 -0.0016014099 0.0001334057 0.00014635209 -0.00020415316 -2.479867e-05 -0.00020074377
6.83168e-05 -0.00019466349 -0.00079711725 0.00020425192 -0.00075725646 0.00033083055 0.0011106903 -5.3718068e-05
5.5212164e-05 0.00041281144 5.4787208e-05 -7.749994e-05 6.462788e-05 0.000416907 -0.00033771305 0.00011713404
-6.5559434e-05 0.00055219705 0.00058207917 0.0007748923 0.00011666132 6.0928855e-05 -0.0009628862 4.709675e-05
0.00032294265 5.7926558e-05 -8.748881e-05 -0.00091555424 0.00020218024 -0.00037194605 -0.00026915612 -0.00020228868
-0.0008027938 0.0003694853 2.080396e-05 -0.00015654822 -0.00010588951 -0.00017497684 -0.0008414072 0.00012451674
-0.00086382916 0.00040007412 2.120819e-05 0.00011517113 0.00033221912 0.00010256647 5.785085e-05 5.2935964e-05
3.758616e-05 6.128238e-05 0.00012254909 0.00042905996 -0.00047119442 -6.986518e-05 3.7419122e-05 7.536137e-05
-0.0008495112 -0.0006550932 0.000102847036 0.00010570648 -0.00048572628 -0.00015859042 -0.00055543863 -3.2520704e-05
0.00056363636 -0.0010627315 -0.00019084518 0.00044632435 0.0002847843 -1.593385e-05 0.00068199105 -4.9764505e-05
-0.00022645837 -0.00090375525 -0.00025511513 -0.00027263392 -0.00058083975 -6.6956454e-05 8.036049e-05 0.00021241841
-0.00022629002 -0.00034203284 -0.00042975764 0.0003570704 0.00030325205 -0.00018563196 0.00016009143 -8.030283e-05
0.00092417194 9.846159e-05 0.00027088556 -0.00042980327 -0.00023300141 0.00013690208 -0.00046264817 0.00024215998
0.00021909994 0.00038237084 -2.6001282e-05 0.00034303812 -0.00043364998 3.615505e-05 -0.00030753325 -4.2735865e-05
-0.00077789475 0.0003150655 0.00024878889 0.00032400194 0.00012537432 0.00023400802 -5.2168023e-05 -0.0019048163
0.000321599 -3.7326508e-06 -0.00015365097 -5.38737e-05 -0.00019827925 -0.00076474994 0.00012510481 -0.00046621915
