results/Pellet2/Pellet/Pellet-45873.pt (torch, 485756 bytes, 47 tensors)

network_body.observation_encoder.processors.0.normalizer.running_mean f4 [18]
0	0x3a359e7c	0.0006928218
1	0x3ac099c2	0.0014694261
2	0x3a1b12ff	0.00059156114
3	0x41023e9d	8.140286
4	0xc3d9d1a9	-435.63797
5	0xc0cbdad9	-6.370465
6	0xbf91676d	-1.1359688
7	0xbf9a9bd3	-1.2078804
8	0x417630e4	15.386936
9	0xbdf3a029	-0.118957825
10	0xbc95e540	-0.018297791
11	0x41ac6f76	21.554424
12	0xbf9a84c8	-1.2071772
13	0xc18b542b	-17.416098
14	0xbf2883df	-0.6582622
15	0xbfa64b20	-1.2991676
16	0xc18b3114	-17.398964
17	0xbf4463fc	-0.76715064

network_body.observation_encoder.processors.0.normalizer.running_variance f4 [18]
0	0x4774fb81	62715.504
1	0x4540a3ba	3082.233
2	0x47703432	61492.195
3	0x4dd2b669	4.4189622e+08
4	0x51f9c937	1.34102835e+11
5	0x4d4a9cb6	2.1245424e+08
6	0x4ab00a9f	5.7685275e+06
7	0x493b48c2	767116.1
8	0x4aa96ab8	5.551452e+06
9	0x4880381f	262592.97
10	0x48874d8c	277100.38
11	0x4a72ff33	3.9812608e+06
12	0x4aac822d	5.6527585e+06
13	0x4938f87f	757639.94
14	0x4aae267d	5.7065585e+06
15	0x4ab39183	5.8840975e+06
16	0x493dbe1f	777185.94
17	0x4aa4a918	5.395596e+06

network_body.processors.0.normalizer.running_mean f4 [18]
0	0x3a359e7c	0.0006928218
1	0x3ac099c2	0.0014694261
2	0x3a1b12ff	0.00059156114
3	0x41023e9d	8.140286
4	0xc3d9d1a9	-435.63797
5	0xc0cbdad9	-6.370465
6	0xbf91676d	-1.1359688
7	0xbf9a9bd3	-1.2078804
8	0x417630e4	15.386936
9	0xbdf3a029	-0.118957825
10	0xbc95e540	-0.018297791
11	0x41ac6f76	21.554424
12	0xbf9a84c8	-1.2071772
13	0xc18b542b	-17.416098
14	0xbf2883df	-0.6582622
15	0xbfa64b20	-1.2991676
16	0xc18b3114	-17.398964
17	0xbf4463fc	-0.76715064

network_body.processors.0.normalizer.running_variance f4 [18]
0	0x4774fb81	62715.504
1	0x4540a3ba	3082.233
2	0x47703432	61492.195
3	0x4dd2b669	4.4189622e+08
4	0x51f9c937	1.34102835e+11
5	0x4d4a9cb6	2.1245424e+08
6	0x4ab00a9f	5.7685275e+06
7	0x493b48c2	767116.1
8	0x4aa96ab8	5.551452e+06
9	0x4880381f	262592.97
10	0x48874d8c	277100.38
11	0x4a72ff33	3.9812608e+06
12	0x4aac822d	5.6527585e+06
13	0x4938f87f	757639.94
14	0x4aae267d	5.7065585e+06
15	0x4ab39183	5.8840975e+06
16	0x493dbe1f	777185.94
17	0x4aa4a918	5.395596e+06

network_body._body_endoder.seq_layers.0.weight f4 [128, 18]
0	0x3e34b18b	0.17645852
1	0xbda577dd	-0.08079503
2	0x3e003e78	0.1252383
3	0xbd07f9ef	-0.03319734
4	0x3ef8e63b	0.48613152
5	0xbe02ec2f	-0.1278541
6	0xbd82cab2	-0.06386317
7	0x3c2cd7c1	0.010549487
8	0xbdbb5333	-0.09146728
9	0xbd8c5280	-0.06851673
10	0x3d55c922	0.05219377
11	0x3e92630c	0.28591192
12	0x3e8213ef	0.25405833
13	0x3d9a0ce7	0.07521992
14	0xbe224a35	-0.1584862
15	0xbea571a3	-0.3231326
16	0x3e5a812c	0.21338338
17	0x3b0a0bb1	0.0021064098
18	0xbe79b3fb	-0.24385063
19	0xbdbe6103	-0.09295847
20	0x3d7121dc	0.05887018
21	0x3e8699c0	0.26289177
22	0xbdc20f70	-0.09475601
23	0xbefb08bf	-0.4903011
24	0xbe7d9a3d	-0.24765868
25	0x3ec5b3c4	0.38613713
26	0x3cdb231a	0.026750136
27	0x3e2a1ccb	0.16612546
28	0x3e6ec2bf	0.23316477
29	0x3c1f4e2f	0.00972323
30	0x3ee9a4f4	0.45633662
31	0xbe9cb5f6	-0.30607575
32	0x3f1bdc74	0.6088326
33	0x3e05e806	0.13076791
34	0x3ea27b61	0.31734756
35	0xbe1d8ad3	-0.15384988
36	0xbe861f4e	-0.2619576
37	0x3c1dfc6b	0.009642701
38	0x3ed77dad	0.4208807
39	0xbeee6748	-0.46563172
40	0xbe3f687e	-0.18692204
41	0xbccb602a	-0.024826128
42	0x3e9e6b6d	0.30941334
43	0x3d6af9c3	0.057367098
44	0xbe932749	-0.2874091
45	0xbd814824	-0.06312588
46	0x3dfea241	0.12433291
47	0xbe6d0ff1	-0.23150612
48	0x3cf3d1a6	0.029763054
49	0xbc231a2a	-0.0099549685
50	0xbe845f24	-0.25853837
51	0x3e6efbf0	0.23338294
52	0xbda15b2f	-0.0787872
53	0x3e20a77b	0.15688889
54	0x3dae8ead	0.08523307
55	0x3e026be0	0.12736464
56	0xbe370b30	-0.17875361
57	0x3ea53974	0.32270396
58	0xbe31e740	-0.17373371
59	0x3e032550	0.12807202
60	0x3e4a0e6f	0.19732068
61	0xbe2ecee9	-0.17071117
62	0xbef3965e	-0.4757566
63	0xbe1c8335	-0.15284427
64	0xbed0f840	-0.408144
65	0x3e8ff696	0.28117818
66	0xbe385ab7	-0.18003355
67	0x3c6d103d	0.014469204
68	0x3d6d764c	0.057974145
69	0x3da199bd	0.078906514
70	0x3ece5dd1	0.4030595
71	0xbe83fe11	-0.25779775
72	0x3c52f8bd	0.012876687
73	0xbbe1c1a6	-0.00688954
74	0x3eb742c5	0.3579313
75	0x3ec331ad	0.38123837
76	0x3e484a4a	0.19559589
77	0xbe78280c	-0.24234027
78	0xbdb5f227	-0.088840775
79	0x3ec34621	0.38139442
80	0x3e13e898	0.14444196
81	0x3cac5ce5	0.02104039
82	0x3eb94ad0	0.3618989
83	0xbd646ed5	-0.05576976
84	0xbc6c9ff3	-0.014442432
85	0x3d92aa9b	0.07161447
86	0x3e322f1d	0.17400785
87	0x3eb2147f	0.34781262
88	0x3e5a103f	0.2129526
89	0xbdb90dba	-0.09035821
90	0xbe7a4bf6	-0.2444304
91	0x3d939383	0.0720587
92	0x3e148e66	0.14507446
93	0xbe8520a9	-0.2600148
94	0x3e99f037	0.30066082
95	0xbd37dee7	-0.04489031
96	0x3cd4cdb8	0.025977
97	0xbe2d61ba	-0.16931811
98	0x3d99fbe7	0.0751875
99	0x3dc30bbd	0.09523723
100	0x3e193034	0.14959794
101	0x3e226c42	0.1586161
102	0xbe97af83	-0.29626092
103	0x3ea0856d	0.31351796
104	0xbea1e522	-0.31620127
105	0x3edadb72	0.42745548
106	0xbe222778	-0.15835369
107	0x3e1a7fb4	0.15087777
108	0x3e343f9f	0.17602395
109	0xbeb1bc1d	-0.34713832
110	0x3c3737dd	0.011182752
111	0xbe72c503	-0.23707967
112	0xbde20152	-0.11035408
113	0x3e43a40c	0.19105548
114	0x3e5b4607	0.21413432
115	0x3d7a97b2	0.061179824
116	0x3e22d7fa	0.15902701
117	0x3e2dd6f3	0.16976528
118	0x3ef27a87	0.47359106
119	0x3e04382f	0.12912057
120	0xbe25405a	-0.1613783
121	0xbe97a4ff	-0.2961807
122	0x3e95994d	0.29218522
123	0xbd0d01eb	-0.034425657
124	0xbf2b6041	-0.66943747
125	0x3e89fd83	0.26951227
126	0x3f4307d9	0.7618385
127	0x3e87470c	0.26421392
128	0xbe1c34d1	-0.15254523
129	0xbde83d2a	-0.11339791
130	0xbe9c79f3	-0.3056179
131	0x3edb2ec0	0.42809105
132	0x3e102a5f	0.14078663
133	0xbe1a768e	-0.15084288
134	0xbd60696c	-0.054788038
135	0x3d849770	0.06474197
136	0xbe1ec69c	-0.15505451
137	0x3d6272a3	0.055285107
138	0x3e0f8348	0.14014924
139	0x3dc50628	0.09620315
140	0xbdd98ba8	-0.106223404
141	0xbe0a5658	-0.135095
142	0x3e8c7340	0.2743168
143	0xbd994d2c	-0.074854225
144	0x3e8880d0	0.26660776
145	0x3efce220	0.4939127
146	0x3e1e899e	0.15482184
147	0x3c34578e	0.011007203
148	0x3e397baa	0.1811358
149	0x3d54f629	0.05199257
150	0x3dad66de	0.08466886
151	0x3e5ba638	0.21450126
152	0x3de2206d	0.11041341
153	0x3d60e0da	0.054901935
154	0x3eeaa793	0.45830974
155	0xbe501d0f	-0.20323585
156	0xbedc959a	-0.43082887
157	0x3e664c1f	0.22489975
158	0xbbc92593	-0.0061385124
159	0xbe505d36	-0.20348057
160	0xbe1a16a7	-0.15047704
161	0x3e31b79e	0.173552
162	0x3ec6dbea	0.38839656
163	0x3ed6ec64	0.41977227
164	0xbe516c48	-0.20451462
165	0xbe031d2c	-0.12804097
166	0xbe35c21d	-0.1774983
167	0xbe710689	-0.23537649
168	0x3f00405c	0.50098205
169	0xbe54d49e	-0.20784232
170	0x3e146ef6	0.14495453
171	0x3ea2f1ee	0.31825203
172	0xbe3189d4	-0.17337734
173	0x3e1ab359	0.15107478
174	0x3ec107f3	0.37701377
175	0x3e9bb405	0.30410782
176	0xbaf70ce5	-0.0018848447
177	0x3ddc803c	0.10766646
178	0x3c9cdc44	0.019148
179	0xb9f1cd58	-0.00046120095
180	0xbd9c7f4a	-0.07641466
181	0xbdad83ab	-0.08472379
182	0xbef36cd6	-0.47543973
183	0x3e6ee300	0.23328781
184	0x3dd75c2a	0.10515626
185	0xbe978ac3	-0.29598054
186	0xba98025d	-0.0011597384
187	0x3db3b137	0.087740354
188	0xbd8c36ff	-0.06846427
189	0x3e6c8b5a	0.23100033
190	0x3eb9a096	0.3625533
191	0x3d413187	0.047166374
192	0x3daeb1ee	0.08530031
193	0xbdefb6f8	-0.117048204
194	0xbdbd376b	-0.09239086
195	0xbe157f30	-0.145993
196	0x3ea0a550	0.31376123
197	0x3f238a75	0.63883144
198	0xbe70e30b	-0.2352411
199	0xbeff4073	-0.49853858
200	0x3e6d2192	0.23157337
201	0xbbdc6201	-0.00672555
202	0xbe97a3ae	-0.29617065
203	0x3e1f4857	0.15554939
204	0xbe07e4ce	-0.13270876
205	0x3eb63301	0.35585788
206	0xbe1d314c	-0.15350837
207	0xbe220336	-0.15821537
208	0x3ca90147	0.020630492
209	0x3dcc8c8d	0.099877454
210	0xbf2eb2ce	-0.68241584
211	0xbea215d6	-0.31657284
212	0xbe1c367b	-0.15255158
213	0x3de0c8b2	0.109757796
214	0xbbc0f376	-0.005888398
215	0x3e5c3c9d	0.21507497
216	0x3ebf999d	0.37421885
217	0xbe0f6173	-0.14002018
218	0xbdc63284	-0.09677604
219	0xbf0cd1d3	-0.55007666
220	0x3ea58ef5	0.3233563
221	0xbebcf300	-0.36904144
222	0x3c80d80b	0.015728017
223	0x3d842b17	0.06453531
224	0x3e423758	0.18966424
225	0xbe59fe02	-0.21288303
226	0xbcec7c0e	-0.028867748
227	0x3d926aa2	0.07149245
228	0x3dd261e4	0.102725774
229	0xbe69d68c	-0.2283575
230	0xbec642cd	-0.3872284
231	0x3e58d483	0.21174817
232	0x3ec6b2e3	0.38808355
233	0x3e57835f	0.21046208
234	0xbde52b19	-0.11189861
235	0xbdd4515f	-0.10367083
236	0x3ebb1529	0.3653958
237	0xbecbd77f	-0.39812848
238	0xbe728ae4	-0.23685795
239	0x3e932cfe	0.28745264
240	0xbe7e12c7	-0.2481185
241	0x3e217906	0.15768823
242	0xbeb71b54	-0.35763037
243	0xbdb1da2e	-0.086841926
244	0xbec05ec3	-0.37572297
245	0x3ec995b1	0.39372018
246	0xbe19fbcc	-0.15037459
247	0x3e0fbd03	0.14036946
248	0x3e66a445	0.22523601
249	0xbc8f4c3a	-0.017492402
250	0x3e7648a7	0.24051152
251	0x3ec4840c	0.38381994
252	0x3eb02f90	0.34411287
253	0x3e65db49	0.22446932
254	0xbdfb4092	-0.12268175
255	0x3e31f832	0.17379835

network_body._body_endoder.seq_layers.0.bias f4 [128]
0	0xbbef494c	-0.007302439
1	0xbce7f082	-0.028312925
2	0xbc4fdfd6	-0.012687644
3	0x3c22d1a8	0.009937681
4	0xbcbf5ced	-0.02335974
5	0xbb889a35	-0.0041687735
6	0xbc695dbd	-0.01424354
7	0xbc923dae	-0.017851677
8	0xbcd168a2	-0.025562588
9	0xbcc349d8	-0.023838922
10	0x3bf4ef79	0.0074748364
11	0xbbadbe1d	-0.0053022043
12	0xbbeee219	-0.0072901365
13	0x3d00fb5f	0.031489726
14	0x3c46c880	0.012132764
15	0x3ceb3c7b	0.028715363
16	0x3b61f3a0	0.0034477487
17	0x3c3b402d	0.011428875
18	0xbbe09300	-0.0068534613
19	0x3c9d25bd	0.019183034
20	0x3b90c93c	0.0044185203
21	0xbc59f4ca	-0.013302991
22	0x3cd6c4b8	0.02621685
23	0x3b79aae9	0.0038096255
24	0xbcbe03e0	-0.023195207
25	0xbbc25213	-0.005930194
26	0xbcadc479	-0.02121185
27	0x3ca55b8a	0.02018525
28	0xbd20bd0a	-0.03924278
29	0xbca2193f	-0.019787429
30	0x3bc56cc4	0.0060249288
31	0xbba86540	-0.005139023
32	0x3c4242a2	0.011856707
33	0x3d317159	0.043320987
34	0xbb42bb19	-0.002971357
35	0x3c0f90dd	0.008762565
36	0xbbfb08a6	-0.007660943
37	0x3ad2220b	0.0016031874
38	0x3cc9346d	0.024561131
39	0xba327b05	-0.00068084925
40	0x3cee3f1d	0.02908283
41	0xb8488a66	-4.781261e-05
42	0xbca14039	-0.019683944
43	0x3d1a7941	0.037713293
44	0x3caee76c	0.021350585
45	0x3bc1ae75	0.0059106895
46	0x3c376391	0.011193172
47	0x3ba48804	0.005021097
48	0xbbcf7407	-0.00633097
49	0xb90a7d81	-0.0001320746
50	0x3bd69807	0.006548885
51	0x3c5aa74e	0.013345553
52	0x3b9d3832	0.004797959
53	0xbc209660	-0.009801477
54	0x3b4edf77	0.00315663
55	0x3ced3302	0.028954986
56	0xbad0aa8e	-0.001591997
57	0x3cacc1a0	0.021088421
58	0x3d22e69d	0.03977071
59	0xbc13b249	-0.009014674
60	0xbb141a8e	-0.0022598836
61	0xbbf9ef4c	-0.0076274034
62	0xbc03bce2	-0.008040639
63	0xbc1b08c5	-0.00946254
64	0xbc7a05d6	-0.01526018
65	0x3cb7ffa9	0.022460775
66	0x3ba879b7	0.0051414627
67	0x3b27e09d	0.0025616058
68	0xbc742741	-0.014901937
69	0x3c3579cb	0.011076401
70	0x3c766da2	0.015040787
71	0xbb1cd62b	-0.0023931365
72	0x3cbafd8c	0.022825979
73	0x3cb75121	0.022377552
74	0x3d054e74	0.03254552
75	0xbcab2a7b	-0.02089428
76	0x3bf9c341	0.007622153
77	0xbd06cb47	-0.032908704
78	0xba854fb8	-0.0010170853
79	0xbbb866de	-0.005627497
80	0xbcdabd39	-0.026701557
81	0xbb44beca	-0.0030020946
82	0xbcdd59a7	-0.027020289
83	0x3b8ff5ce	0.004393316
84	0xbcc8635d	-0.024461443
85	0xbc1cadbb	-0.009562905
86	0x3c879dbf	0.016554711
87	0xbaf1520c	-0.0018411293
88	0xbc5aaf64	-0.01334748
89	0x3c309d5f	0.010779708
90	0x3c393b0a	0.01130558
91	0xbc077ab0	-0.008268997
92	0xbd502d10	-0.050824225
93	0xbc614c95	-0.013751169
94	0xbc0a0ba3	-0.008425626
95	0xbc8ed67f	-0.017436264
96	0xbba76391	-0.005108305
97	0xbb2ddb45	-0.00265284
98	0xbc7c3b6a	-0.015395025
99	0xbcd6d844	-0.02622617
100	0xbbf83885	-0.007575097
101	0x3c1ad361	0.009449811
102	0xbb4a7e7c	-0.0030898144
103	0xbbd349a2	-0.0064479867
104	0xbc96ec41	-0.018423202
105	0x3c77882a	0.015108148
106	0x3bffa845	0.0078020417
107	0x3c786809	0.015161523
108	0xbbe8b0b6	-0.0071011437
109	0x3b8a4394	0.0042194817
110	0xbca06853	-0.019580996
111	0xbd04a516	-0.032384
112	0xbce6d39c	-0.028177075
113	0x3c44c99d	0.012010959
114	0x3b3b9656	0.0028623543
115	0xbbaf47a6	-0.0053491173
116	0xbb82e891	-0.003995009
117	0x3ce981c5	0.028504262
118	0xbb94c44c	-0.004540002
119	0x3c3f7f0d	0.011688006
120	0xbc784cfe	-0.015155075
121	0xbd161285	-0.036638755
122	0x3c5f0a62	0.013613315
123	0xbca38b28	-0.019963816
124	0x3cddb252	0.027062569
125	0x3c5abbea	0.013350466
126	0xbaa9cae2	-0.001295414
127	0xbc99c65e	-0.018771347

network_body._body_endoder.seq_layers.2.weight f4 [128, 128]
0	0x3e22cc0b	0.15898149
1	0x39f8955c	0.00047413527
2	0xbc9d66e7	-0.019214107
3	0x3c80675c	0.015674286
4	0x3cdc58ed	0.026897872
5	0x3e1509b8	0.14554489
6	0xbe08c929	-0.13357987
7	0xbd965bdd	-0.0734174
8	0xbc5db861	-0.013532729
9	0x39cae6c4	0.00038700376
10	0x3d452edd	0.048140395
11	0x3be30a92	0.0069287503
12	0x3d108c59	0.035290096
13	0x3cd5b1bd	0.026085729
14	0x3d1cb980	0.038262844
15	0xbd546dd2	-0.051862545
16	0xbe634a47	-0.22196303
17	0x3d2f57ba	0.042808272
18	0x3b1d03f6	0.002395866
19	0x3d300210	0.042970717
20	0x3d5bc27d	0.053652275
21	0x3e05881e	0.13040206
22	0x3d1c167a	0.038107373
23	0xbc8574ff	-0.01629114
24	0x3cb551b6	0.02213369
25	0xbd517746	-0.05113914
26	0xbda47f66	-0.08032112
27	0xbda27b88	-0.07933718
28	0x3d54f20a	0.05198864
29	0xbced403d	-0.028961295
30	0xbd04b317	-0.032397356
31	0x3a6bdfd5	0.0008997892
32	0xbddd1495	-0.10794941
33	0x3dba0a43	0.090839885
34	0xbd0c9836	-0.034324847
35	0xbe13099f	-0.14359139
36	0x3c5c0e09	0.013431081
37	0xbd0df22c	-0.03465478
38	0xbe8e40dd	-0.27783862
39	0x3df001a1	0.11719061
40	0x3c76f9cb	0.015074204
41	0x3d565f59	0.052337024
42	0xbd62922d	-0.055315185
43	0x3cf403cd	0.029786969
44	0x3e208fec	0.15679902
45	0xbd85341c	-0.0650408
46	0xbd1f8424	-0.03894438
47	0xbe582a5e	-0.21109912
48	0x3d8c1ebc	0.068417996
49	0xbd6996e7	-0.057028677
50	0xbdd37866	-0.103256986
51	0xbdcb0fd0	-0.09915125
52	0xbcf7652c	-0.03019961
53	0x3e05eaa6	0.13077793
54	0x3d74913d	0.059708823
55	0xbde2517a	-0.11050697
56	0xbe18c713	-0.14919691
57	0x3e4d70fc	0.20062631
58	0xbdc6c91c	-0.09706327
59	0xbe0724cd	-0.13197632
60	0x3cc9a55f	0.024614988
61	0xbc87398e	-0.016506936
62	0xbd1fbe5c	-0.0389999
63	0xbcb038f2	-0.021511529
64	0x3d1298ec	0.03579037
65	0xbe42ef4c	-0.19036597
66	0xbbd2bdd8	-0.0064313225
67	0x3e03b861	0.12863304
68	0xbe397169	-0.18109669
69	0xbe0c9ea6	-0.13732395
70	0xbc3cbdd0	-0.011519864
71	0x3da2b0f5	0.07943908
72	0xbe60bc0d	-0.21946736
73	0xbc54e43b	-0.0129938675
74	0x3cf3e0aa	0.029770214
75	0xbdda037e	-0.10645197
76	0xbddc2ffd	-0.107513405
77	0x3d9fa8f3	0.077958964
78	0xbdc58d83	-0.09646132
79	0x3d5caa7e	0.05387353
80	0xbd39d0e2	-0.04536522
81	0x3d9783e9	0.07398207
82	0x3d8e4eee	0.069486484
83	0xbe144002	-0.14477542
84	0xbe0d0db9	-0.13774766
85	0xbe37d4e9	-0.17952313
86	0xbe290d39	-0.1650895
87	0xbd2e4a28	-0.04255119
88	0x3d55749e	0.052113168
89	0xbddefabd	-0.10887668
90	0x3d73d502	0.059529312
91	0xb9ffa3a4	-0.00048759312
92	0xbd847f2f	-0.06469571
93	0x3dbdead2	0.09273304
94	0x3e2b10ac	0.16705579
95	0xbdfe03c9	-0.12403066
96	0x3cd0420e	0.025422122
97	0x3dd1e465	0.10248641
98	0x3c35610e	0.011070503
99	0xbcb98db6	-0.02265058
100	0xbc8f4be7	-0.017492248
101	0xbd3b4e0a	-0.04572872
102	0xbc456e98	-0.012050293
103	0xbe0c1fee	-0.13684055
104	0x3d01a715	0.031653482
105	0x3dd37d78	0.10326666
106	0xbbc49279	-0.005998906
107	0x3d5da128	0.05410877
108	0xbd0de90b	-0.034646075
109	0xbe4f686f	-0.20254682
110	0x3db6e5e3	0.08930566
111	0x3cf0758f	0.029352931
112	0xbd2e30ea	-0.042527117
113	0x3e2f21b4	0.171027
114	0xbdb594d7	-0.088662796
115	0xbc62910f	-0.01382853
116	0xbe26e474	-0.16298085
117	0xbe45eb55	-0.19328053
118	0x3e8080ab	0.25098166
119	0xbb6e62a7	-0.003637472
120	0xbd0bd61f	-0.03413975
121	0xbe0ad477	-0.13557611
122	0xbd053fc0	-0.0325315
123	0xbdb570a6	-0.088593766
124	0x3dc1199b	0.09428712
125	0xbdc77f05	-0.09741024
126	0xbe58158f	-0.21101974
127	0x3e2f8abb	0.17142765
128	0x3d0de9e5	0.034646887
129	0xbe10a35c	-0.14124817
130	0x3da94c37	0.0826649
131	0xbccd605f	-0.025070367
132	0x3a7ceec7	0.00096486177
133	0x3d011f68	0.031524092
134	0xbde4d7cf	-0.11173975
135	0x3db2475a	0.087050155
136	0xbd97e3a4	-0.07416466
137	0x3e352266	0.17688903
138	0xbd9370c2	-0.07199241
139	0x3d815b71	0.06316269
140	0x3d5bdf50	0.053679764
141	0x3d06c2d5	0.03290065
142	0xbcbf373a	-0.023341764
143	0xbd6d0ece	-0.057875447
144	0xbdd2f59a	-0.10300751
145	0xbdb11839	-0.08647198
146	0xbd912d05	-0.07088665
147	0x3d26f9a7	0.04076543
148	0x3db82fd2	0.08993496
149	0xbcceb0e2	-0.025230829
150	0xbc0042a6	-0.00782839
151	0xbd1d506c	-0.038406774
152	0xbd66a9eb	-0.05631439
153	0x3da92623	0.08259227
154	0xbca21386	-0.0197847
155	0x3e0043aa	0.12525812
156	0x3da41d23	0.0801337
157	0xbd9ae8b9	-0.075639196
158	0x3c3f9726	0.011693751
159	0xbe273f4f	-0.16332744
160	0x3c6d202d	0.014473003
161	0x3d914abf	0.07094335
162	0x3c892bdc	0.016744547
163	0xbcaea06b	-0.021316728
164	0x3cd4c7aa	0.025974113
165	0x3e2c3d3e	0.16820237
166	0x3ced3067	0.028953744
167	0x3d9d2cfb	0.07674595
168	0xbccb323e	-0.02480423
169	0x3b5cfd89	0.0033720455
170	0xbd3bc58a	-0.045842685
171	0xbd365ad3	-0.04452021
172	0xbe2412c3	-0.16022782
173	0xbe37024f	-0.17871974
174	0xbcb710ce	-0.02234688
175	0x3cbee773	0.023303723
176	0x3e14da15	0.14536317
177	0xbd94b5fe	-0.07261275
178	0x3d966781	0.073439606
179	0x3c9288ea	0.017887551
180	0xbdd5f82f	-0.10447728
181	0x3d8a012a	0.06738503
182	0xbe43c99e	-0.1911988
183	0xbc68f8be	-0.014219461
184	0xbd53e6a6	-0.051733635
185	0x3d3fde8f	0.046843108
186	0xbc0484a7	-0.008088267
187	0x3de63f62	0.11242558
188	0x3daafa65	0.0834854
189	0xbdeb8fcf	-0.11502039
190	0xbe0396ba	-0.12850466
191	0xbe021360	-0.12702703
192	0xbcfcd591	-0.030863555
193	0x3d4919c5	0.04909684
194	0x3ca2f23f	0.019890903
195	0xbd29cdbb	-0.041455965
196	0xbcb1f86a	-0.021724898
197	0xbe4f83b9	-0.20265092
198	0xbd01b6fb	-0.031668644
199	0xbd6c6a07	-0.057718303
200	0xbb6dda02	-0.0036293273
201	0xbdb0c9cc	-0.0863224
202	0xbd87fedb	-0.06640407
203	0xbe1d124c	-0.15339011
204	0xbc948ffd	-0.018135065
205	0xbd5ac9c5	-0.05341508
206	0x3debedab	0.11519941
207	0xbd5bd728	-0.053671986
208	0x3db716b7	0.089398794
209	0x3d863292	0.06552614
210	0x3d402ad4	0.046915844
211	0x3e5c1c0c	0.21495074
212	0x3d1a21a9	0.037629757
213	0xbe088197	-0.13330685
214	0x3c902bc7	0.017599
215	0x3db1a010	0.086731076
216	0x3e08c995	0.13358147
217	0xbbf67d2c	-0.007522246
218	0xbcb8a9be	-0.022541877
219	0xbda9608b	-0.08270367
220	0x3ca71a2e	0.020398226
221	0xbd19f2b5	-0.03758498
222	0x3d7e8455	0.06213792
223	0x3b39e9ba	0.0028368072
224	0x3c90dff5	0.017684916
225	0x3d8859f6	0.06657784
226	0x3dce00ab	0.10058721
227	0xbe0500f9	-0.12988652
228	0x3dc44fc3	0.09585526
229	0xbc903fb8	-0.017608508
230	0x3dcbbe37	0.0994839
231	0xbd7f6f4f	-0.06236201
232	0x3b9f7355	0.0048660436
233	0x397c0e12	0.00024037834
234	0xbd254cf7	-0.040356603
235	0x3cf7eb07	0.030263437
236	0x3d161c85	0.036648292
237	0xbe109200	-0.14118195
238	0x3dab1df7	0.08355325
239	0xbca05bb0	-0.01957497
240	0x3d37d156	0.044877373
241	0x3ccd0e0c	0.025031112
242	0x3d5301da	0.051515438
243	0x3d75df31	0.060027305
244	0x3b4fa37f	0.0031683145
245	0xbdeb205b	-0.11480781
246	0x3dcc4189	0.09973437
247	0xbd2a0021	-0.04150403
248	0x3e5941f0	0.2121656
249	0xbe83e0a0	-0.25757313
250	0x3ca8fe19	0.020628976
251	0x3dfdce89	0.12392909
252	0x3da89c78	0.08232969
253	0xbb2d653d	-0.0026458048
254	0xbe041675	-0.12899192
255	0xbda9924d	-0.08279858

network_body._body_endoder.seq_layers.2.bias f4 [128]
0	0x3c520111	0.012817637
1	0xbcd1f1a4	-0.025627919
2	0xbc770094	-0.015075821
3	0x3cd66178	0.026169524
4	0x3b24134c	0.0025035916
5	0xb9afcd10	-0.00033531385
6	0xbc020206	-0.007935053
7	0xbd096636	-0.03354474
8	0xbc473c59	-0.012160384
9	0xbca51b27	-0.020154549
10	0x3c8602ef	0.01635882
11	0x3cd54ecd	0.026038552
12	0xbc701a65	-0.01465473
13	0x3ca35561	0.019938173
14	0xbc668ace	-0.01407118
15	0x3b80c987	0.003930274
16	0xbca9c6d9	-0.0207247
17	0x3c845206	0.016152393
18	0xba9e3d02	-0.0012072625
19	0x3b6ea949	0.003641682
20	0x3cd051ee	0.025429692
21	0x3c3624bd	0.0111171575
22	0xbd019341	-0.031634573
23	0xbc424e6a	-0.011859516
24	0x3c79204f	0.015205457
25	0x3b469428	0.003030071
26	0x3b89a258	0.004200261
27	0xbcfa7f0e	-0.030578163
28	0x39b75e42	0.00034974708
29	0x3cc320db	0.023819378
30	0xbbc000b8	-0.0058594607
31	0xbcbca4cc	-0.0230278
32	0x3c30ec3a	0.010798508
33	0xbc372e13	-0.011180419
34	0x3c865ae5	0.016400764
35	0xbc16567d	-0.009175894
36	0x3c8d7037	0.017265422
37	0xbb43a8b3	-0.0029855191
38	0x3cec8800	0.028873444
39	0xbc663359	-0.014050328
40	0xbabc3cbe	-0.0014361364
41	0xbca8f1c3	-0.020623093
42	0xbc55f98a	-0.013059983
43	0x3d15cef0	0.036574304
44	0xbbb0d073	-0.005395943
45	0xbc374097	-0.011184833
46	0xbc8be713	-0.017077958
47	0xbb664796	-0.0035137883
48	0xbb0cbda5	-0.0021475342
49	0x3b8e7c9b	0.00434835
50	0xbc92ab50	-0.017903954
51	0xbac739c7	-0.0015199714
52	0x3bc9f742	0.0061635086
53	0x3c8c7815	0.017147103
54	0x3cbcc2a6	0.023042034
55	0x3cd0d53b	0.025492301
56	0x3bbf450a	0.0058370875
57	0xbce79a3d	-0.028271789
58	0xbcfb4576	-0.03067277
59	0x3d34c4c4	0.044132963
60	0x3c3fefdd	0.011714903
61	0x3d14f2ba	0.036364295
62	0xbc9012b0	-0.017587036
63	0x3a2669b7	0.000634815
64	0xbcdeeff6	-0.027214032
65	0xbc38acd7	-0.011271677
66	0xbba42710	-0.0050095394
67	0x3c96ce45	0.018408904
68	0xbb266351	-0.0025388787
69	0xba91e930	-0.0011132117
70	0xbbf87d96	-0.0075833304
71	0x3c88a445	0.016679892
72	0x3c5b093c	0.013368901
73	0x3b14b1fd	0.0022689097
74	0xbc17d4af	-0.009267016
75	0x3c716ec1	0.014735878
76	0x3b1a6daa	0.00235639
77	0x3bfa52c2	0.00763926
78	0x398dacab	0.00027022263
79	0xbbf83f2c	-0.00757589
80	0xbcbbaf93	-0.022910869
81	0x3c41e2d7	0.011833868
82	0xbd062cef	-0.032757696
83	0xbba34fe4	-0.004983889
84	0xbcde98cb	-0.027172467
85	0xbd050ac6	-0.032480977
86	0x3c15380d	0.009107602
87	0xbcb977c4	-0.022640117
88	0x3c23fd5e	0.010009138
89	0x3cbf46fb	0.023349276
90	0x3c7052df	0.0146681955
91	0xbc41dbde	-0.011832206
92	0x3c27f3ea	0.010251025
93	0x3c84ac00	0.016195297
94	0xbca86c55	-0.02055947
95	0x3c8ba598	0.017046735
96	0xbce2da3c	-0.027691953
97	0xbc149a5d	-0.009070006
98	0x3c83cc7d	0.016088719
99	0x3c2d9d1e	0.010596542
100	0xbce9f80a	-0.028560657
101	0xbc9de8c3	-0.019276028
102	0x3b94d0aa	0.0045414763
103	0xbbcd99f3	-0.0062744557
104	0xbd062b62	-0.032756217
105	0xbc9d53f1	-0.019205065
106	0xbb0b703e	-0.0021276618
107	0xbbe1dea2	-0.006892995
108	0x3c9dfd67	0.01928587
109	0xbc866c9f	-0.016409216
110	0x3c3715f0	0.011174664
111	0x3ca07252	0.019585762
112	0xbcabfcc2	-0.020994548
113	0xbc9e0793	-0.019290721
114	0xbd0ff13a	-0.03514216
115	0xbadd2c7d	-0.001687422
116	0xbcb51ecf	-0.022109417
117	0x3d143968	0.03618756
118	0xb986115e	-0.0002557141
119	0x3cb00d60	0.021490753
120	0xbc9bee7b	-0.019034615
121	0xbbae71ec	-0.005323639
122	0x3ca27f27	0.019836022
123	0xbc0aff1e	-0.008483676
124	0x3bf2504e	0.007394827
125	0xbcbaeea7	-0.022818876
126	0xbd1ece30	-0.038770854
127	0xbc82bfaa	-0.015960533

action_model._continuous_distribution.log_sigma f4 [1, 2]
0	0xbdb3f2b5	-0.08786527
1	0xbcd526cf	-0.026019482

action_model._continuous_distribution.mu.weight f4 [2, 128]
0	0xbd468442	-0.048465975
1	0xbbbfc738	-0.005852606
2	0x3cf7e100	0.030258656
3	0xbd78c6e8	-0.060736567
4	0xbd12d8ea	-0.035851397
5	0xbb9ebccf	-0.004844285
6	0xbc3bb58b	-0.011456857
7	0x3caf3c72	0.021391127
8	0x3bb2da28	0.005458135
9	0x3d305368	0.043048292
10	0xbcabfd04	-0.02099467
11	0xbd0ca92b	-0.03434102
12	0x3b74c35d	0.003734789
13	0xbd066c4b	-0.03281812
14	0x3bf6e96c	0.0075351503
15	0x3bfe3e78	0.0077589117
16	0x3c6f620d	0.0146107795
17	0xbcb70c0c	-0.022344612
18	0x3aaba54f	0.001309553
19	0xbc757518	-0.014981531
20	0x3bcca96d	0.006245783
21	0xbd2f8b96	-0.04285773
22	0x3ce77b7b	0.028257122
23	0x3cdb7325	0.026788304
24	0x39ca9d55	0.00038645664
25	0xbd189975	-0.037255723
26	0xbd3184c0	-0.04333949
27	0x3c3a99a4	0.01138917
28	0xbc976a23	-0.018483227
29	0x3b23c3a8	0.0024988446
30	0x3b0348ac	0.002003233
31	0x3cc5d7e5	0.024150798
32	0x3a1a656d	0.00058897474
33	0xbcd03dd7	-0.025420113
34	0xbcc9228f	-0.024552612
35	0x3c7acb81	0.015307308
36	0xbd86dead	-0.06585441
37	0xbb85a060	-0.004077956
38	0xbd7c6275	-0.061617333
39	0x3d1afa7b	0.037836533
40	0xbb74f2d2	-0.0037376177
41	0x3ca04442	0.019563798
42	0x3cee539c	0.029092602
43	0xbcf3cc26	-0.029760431
44	0x3b5adeff	0.0033397076
45	0x3d3aa7bc	0.04557012
46	0x3cf20556	0.02954356
47	0x3b13f947	0.0022579
48	0xbbcbc7a5	-0.006218868
49	0xbc420e93	-0.011844295
50	0x3cc4f09c	0.024040513
51	0xbd08d743	-0.033408415
52	0xbce8afaf	-0.028404085
53	0xbd863be4	-0.06554392
54	0xbcc47ea1	-0.023986163
55	0xbca4eeea	-0.020133454
56	0xbbdfe058	-0.006832164
57	0x38e3fa96	0.00010870879
58	0x3c958d62	0.018255893
59	0xbbf14d74	-0.0073639695
60	0xbc7ca8f8	-0.015421145
61	0xbc263000	-0.01014328
62	0x3c192cf9	0.009349101
63	0xbc1936ba	-0.009351427
64	0x3b1b4865	0.0023694274
65	0x3c106461	0.008812995
66	0x3cb62c7d	0.02223801
67	0xbccbc596	-0.02487449
68	0xbc844274	-0.016144969
69	0xbd4407c6	-0.047858976
70	0x3c54ea4d	0.012995315
71	0xbc45d9cb	-0.012075852
72	0x3caf86f8	0.021426663
73	0xbcd47c6c	-0.025938235
74	0xbaf105c8	-0.0018388564
75	0xbb9ca933	-0.0047809123
76	0x3bbe913d	0.0058156536
77	0xbd0fdb0a	-0.035121
78	0x3b69fc28	0.0035703275
79	0xbc43736b	-0.011929373
80	0x3c2c81bf	0.010528981
81	0xbd1c6230	-0.038179576
82	0x3cbfb7f4	0.023403145
83	0x3ce3f55f	0.027826963
84	0x3a23d252	0.0006249297
85	0x3bcd8e30	0.0062730536
86	0xbc3b212e	-0.011421485
87	0x3baf1fba	0.0053443583
88	0xbc896211	-0.016770395
89	0xbcbcede3	-0.023062652
90	0xbd1b6fac	-0.037948295
91	0xbc753981	-0.014967323
92	0xbb77d01e	-0.0037813256
93	0xbd5aa2df	-0.053377982
94	0x3d1ec5fc	0.03876303
95	0x3c57a7b5	0.013162543
96	0x3aa9d125	0.0012956007
97	0x3bd65ad4	0.0065415893
98	0xbb7591db	-0.003747097
99	0x3c35c7d6	0.011095008
100	0x3ceb6d2c	0.02873858
101	0x3d16f449	0.036854062
102	0xbcd087a0	-0.025455296
103	0x3d2585ef	0.040410932
104	0x3b5e997c	0.0033965996
105	0x3bf715c7	0.007540438
106	0xbbdfba71	-0.0068276455
107	0x3cb08e90	0.021552354
108	0xbc1c0eac	-0.009524982
109	0x3d16c407	0.03680804
110	0xbd18836d	-0.037234712
111	0xbc3ef113	-0.011654156
112	0x3c2eac4b	0.010661195
113	0x3c3782e5	0.011200641
114	0x3c90b289	0.017663257
115	0xbc172b3e	-0.009226618
116	0x3cd811a2	0.026375595
117	0xbd273f8d	-0.04083209
118	0xbc3dcf13	-0.011585015
119	0xbb9bb118	-0.004751336
120	0x3c017971	0.007902489
121	0xbd2e7950	-0.04259616
122	0xbc7c718c	-0.015407931
123	0xbc121fd2	-0.008918719
124	0x3a89886a	0.0010492925
125	0x3c85702f	0.016288845
126	0x3c04c9e0	0.008104771
127	0x3d6a0a55	0.05713876
128	0x3bbdd604	0.005793335
129	0x3a89a29e	0.0010500734
130	0xbb26c532	-0.0025447127
131	0xbc65f497	-0.014035366
132	0xba6c45f9	-0.0009013112
133	0x3d038eb5	0.032118518
134	0xb6e61260	-6.8566733e-06
135	0xbd187924	-0.037224904
136	0xbbe87924	-0.007094519
137	0xbcef48f0	-0.029209584
138	0xbd359185	-0.04432823
139	0xbc7584e1	-0.014985294
140	0x3c04324b	0.008068631
141	0x3c609f89	0.013709911
142	0xbcd3a13a	-0.025833715
143	0x3c9d0101	0.019165518
144	0x3c41e2d2	0.011833863
145	0x3b8020cc	0.0039101597
146	0xbc11b299	-0.008892679
147	0x3bf41481	0.0074487333
148	0x3ca0e4c9	0.019640343
149	0x3c69a722	0.014261039
150	0xbc271639	-0.010198169
151	0x3ce81e81	0.028334858
152	0x3bf70d3e	0.0075394204
153	0xbd866783	-0.06562712
154	0xbc1168e6	-0.008875107
155	0x3c07f324	0.008297715
156	0x3ba83584	0.0051333327
157	0x3cc0d042	0.023536805
158	0x3cae9c49	0.021314757
159	0xbc1771d0	-0.009243444
160	0x3d14f318	0.036364645
161	0xbaa7072a	-0.0012743224
162	0x3d140c0b	0.036144298
163	0x3d32dbdd	0.04366671
164	0xbcbbef38	-0.022941217
165	0x3c944264	0.018098064
166	0xbca3898c	-0.019963048
167	0xbb6bd665	-0.0035985943
168	0x3c606885	0.013696794
169	0xbd0e43aa	-0.0347325
170	0x3b9cf2d0	0.0047896877
171	0x3d0254b1	0.03181905
172	0xbce3fcb0	-0.027830452
173	0x3cca8b28	0.024724558
174	0xbceef62d	-0.02917012
175	0x3c42bcbe	0.01188582
176	0xbcd991c1	-0.026558759
177	0xb9c74ba0	-0.00038012583
178	0xb6c6a2a0	-5.919792e-06
179	0xbcf11169	-0.029427247
180	0xbbbd401b	-0.0057754642
181	0x3c448e8b	0.0119968755
182	0x3d2546c4	0.04035069
183	0x3d00cfb4	0.03144808
184	0x3bfefdc1	0.0077817147
185	0xbca932c6	-0.020654093
186	0xbb8d5016	-0.0043125255
187	0x3d544c48	0.05183056
188	0x3cb73044	0.022361882
189	0x3db1d433	0.08683052
190	0x39274ec2	0.000159557
191	0x3a8dba7c	0.0010813023
192	0xbc2d8dfb	-0.010592933
193	0xbccd06fd	-0.025027746
194	0x3d214d26	0.039380215
195	0x3c12b733	0.008954811
196	0xbb416498	-0.0029509421
197	0xbd538a82	-0.051645763
198	0x3c0c4c1f	0.008563071
199	0x3c85dcc1	0.016340615
200	0x3b7871f8	0.0037909728
201	0xbbcdd361	-0.006281302
202	0x3c8c2158	0.017105743
203	0xbd2caf89	-0.04215959
204	0x3c0b5b66	0.008505678
205	0xbcb0a1c0	-0.021561503
206	0x3b74add3	0.0037335053
207	0xbbed9601	-0.007250548
208	0x3c0860cc	0.008323859
209	0x3ce96918	0.028492495
210	0xbc0c5dd6	-0.008567294
211	0x3cacb38f	0.021081714
212	0xbc2f7bf9	-0.01071071
213	0xbc95aedc	-0.018271856
214	0x3c841ef4	0.01612804
215	0xbcb9393f	-0.022610305
216	0x3d16a9a9	0.036782894
217	0xb7827c0a	-1.5554968e-05
218	0xbbf4b16f	-0.007467441
219	0xbc8075e5	-0.015681216
220	0xbacb42eb	-0.0015507614
221	0x3b5833bf	0.0032989827
222	0xbaacb6d4	-0.0013177046
223	0x3d88bf78	0.06677145
224	0xbbda48d9	-0.006661516
225	0xbca6ffc5	-0.020385632
226	0xbc91f4f6	-0.017817002
227	0x3d114608	0.035467178
228	0xbc83911a	-0.0160604
229	0xbc58198e	-0.013189686
230	0xbc5ee665	-0.013604735
231	0x3b821139	0.0039693383
232	0xbc542e12	-0.012950437
233	0x3c3abb9d	0.01139727
234	0xbd4a8163	-0.0494398
235	0x3c0fa012	0.008766191
236	0x3cbc927b	0.023019066
237	0x3c1a164f	0.009404733
238	0xbcb38390	-0.02191332
239	0x3cffe788	0.031238332
240	0xbcae4b77	-0.021276219
241	0xbcfa3713	-0.03054384
242	0x3b757906	0.0037456169
243	0x3caa08df	0.020756183
244	0xbcb3661d	-0.021899277
245	0x3c6876fd	0.014188525
246	0x39b36878	0.00034219376
247	0x3d564999	0.052316282
248	0x3bf246a2	0.007393674
249	0xbd0246f2	-0.03180594
250	0x3d201e20	0.03909123
251	0xbb6c1804	-0.0036025057
252	0x3cb690b2	0.022285793
253	0xbc742160	-0.014900535
254	0xbcab1bb8	-0.02088724
255	0x3c0b8ec7	0.0085179275

action_model._continuous_distribution.mu.bias f4 [2]
0	0xbc8de080	-0.017318964
1	0x3c76a26f	0.015053376

action_model._discrete_distribution.branches.0.weight f4 [1, 128]
0	0xbad95153	-0.0016580023
1	0xbad8bc4a	-0.0016535607
2	0x3c53aef5	0.012920131
3	0x3b82c60f	0.0039908956
4	0x3c20cda6	0.009814655
5	0xbb8f01b2	-0.004364216
6	0x3c114ca5	0.008868371
7	0xba27f79c	-0.0006407441
8	0xbb752ff8	-0.0037412625
9	0x3c6fd6f2	0.014638649
10	0xbc193d26	-0.009352958
11	0x3c2b0c5c	0.010439958
12	0x3c0a6e00	0.008449078
13	0x3b11c27f	0.0022241173
14	0xbc71b9c8	-0.014753766
15	0x39742727	0.00023284239
16	0xbceeea43	-0.029164439
17	0x3c18808f	0.0093079945
18	0x3b25dbb6	0.002530796
19	0x3aa1cbba	0.001234404
20	0x3a8ee723	0.0010902624
21	0x3b387cd4	0.0028150575
22	0x3bfe66f2	0.007763737
23	0xbbfc01ad	-0.0076906295
24	0x3c43ea21	0.011957676
25	0x3b82a8b5	0.0039873966
26	0x3c8559e7	0.01627822
27	0xbae8f2f5	-0.0017772602
28	0xbc4bb2f7	-0.012432805
29	0x3bb596e7	0.0055416706
30	0x3c95fc0c	0.018308662
31	0xba7863ed	-0.00094753393
32	0x3b96be07	0.0046002897
33	0x3c44b849	0.012006828
34	0xbb1497fc	-0.0022673598
35	0xb99d15fa	-0.00029961747
36	0x3b84c827	0.0040521803
37	0x3a141092	0.0005648221
38	0xbb2a167b	-0.002595334
39	0x3b8aa975	0.0042316266
40	0x3a99ef74	0.0011744336
41	0x3b3cc41e	0.0028803418
42	0xbc4fffab	-0.012695233
43	0xbb9cf946	-0.004790458
44	0xba167cb5	-0.00057406287
45	0xbbaac83f	-0.0052118595
46	0xbc298659	-0.010346972
47	0x3c7be80f	0.015375151
48	0x3b0136d9	0.001971653
49	0x3a6474ff	0.00087149435
50	0x3b9ca04b	0.0047798506
51	0x3bad655d	0.0052916245
52	0xbbfed5ef	-0.0077769677
53	0xbbacc9ec	-0.0052730944
54	0x3bb1d1c7	0.0054266187
55	0x3c1948d3	0.009355742
56	0x3c6bdd0a	0.014395962
57	0x3ba659c4	0.005076619
58	0x3be22aea	0.0069020884
59	0x3bf33e03	0.007423164
60	0xbc7ae14d	-0.015312505
61	0xbad8fe33	-0.001655525
62	0x3b2497ac	0.0025114818
63	0x3b6f65c3	0.003652916
64	0xbbc40665	-0.0059822076
65	0x3a842fb1	0.0010085014
66	0xbc6c3055	-0.01441582
67	0xbb8ac4b2	-0.0042348737
68	0xbbbbdaf0	-0.0057328865
69	0x3c693f25	0.014236246
70	0xbc39a81e	-0.011331586
71	0x3bda1933	0.006655836
72	0x3bbbe64b	0.00573424
73	0xbbc04fab	-0.005868872
74	0xbc073581	-0.008252502
75	0x3c20059b	0.009766961
76	0xbba8519e	-0.0051366827
77	0x3c1408e0	0.009035319
78	0xbb9b9602	-0.004748107
79	0xb8a930c7	-8.0676335e-05
80	0x3b8701d0	0.004120089
81	0x3bf1d343	0.0073799207
82	0xbb2b1c3c	-0.0026109358
83	0xbcdf95ad	-0.02729305
84	0x3c24cd6e	0.010058744
85	0x3b8e63e7	0.0043454054
86	0xbbb71460	-0.0055871457
87	0xbc0f538c	-0.0087479465
88	0xbad5dcb2	-0.0016316383
89	0x3c61fe4b	0.013793538
90	0x3b084f6e	0.0020799297
91	0xbc0a145b	-0.008427705
92	0xbc042650	-0.008065775
93	0x3c4d7210	0.012539402
94	0xbc6f7d90	-0.014617339
95	0x3c2b38ef	0.010450586
96	0xba9eaaa6	-0.00121053
97	0xbb83e7cf	-0.0040254365
98	0x3c72584d	0.01479156
99	0xba18633f	-0.00058131287
100	0xba392e72	-0.0007064111
101	0x3b53608d	0.0032253594
102	0x3be60a33	0.007020259
103	0xbbf136bf	-0.0073612626
104	0xbbd661b0	-0.006542407
105	0xba718e2b	-0.0009214605
106	0x3c09eccc	0.008418273
107	0x3bb69393	0.0055717914
108	0xbac7920d	-0.0015226022
109	0x3bbc1b8e	0.0057405895
110	0x3becd51b	0.0072275526
111	0xbc2c6285	-0.010521536
112	0x3b94c199	0.00453968
113	0x3b6952f2	0.0035602418
114	0xbba64b31	-0.0050748815
115	0x3a51d3b3	0.0008004263
116	0xbb23e01c	-0.0025005406
117	0xbb4c25ff	-0.0031150577
118	0xbc0627c7	-0.008188195
119	0x3c2d988f	0.010595455
120	0x3c8592df	0.016305385
121	0xbb6c8058	-0.003608724
122	0xbbbb7c4f	-0.005721606
123	0xbc155047	-0.009113378
124	0xbbcf00bb	-0.0063172258
125	0x3a0d3753	0.0005386967
126	0x3b008068	0.0019607786
127	0x39a39953	0.00031204018

exp_avg f4 [128, 18]
0	0xb8c76e93	-9.5096555e-05
1	0xb904ae36	-0.000126534
2	0x381cd036	3.738721e-05
3	0xb75ef1b3	-1.3288506e-05
4	0x37c9bdd0	2.4049456e-05
5	0x3789e225	1.643698e-05
6	0xb81f5c26	-3.7994374e-05
7	0x39635ecb	0.0002168372
8	0xb91423c5	-0.00014127705
9	0xb88db62e	-6.7573375e-05
10	0xb824514a	-3.9176353e-05
11	0xb8d901e1	-0.00010347716
12	0xb8c64d29	-9.455748e-05
13	0x3979d236	0.000238248
14	0xb72b6cd5	-1.0217734e-05
15	0xb8960e56	-7.155228e-05
16	0x39484c4f	0.00019101913
17	0xb9092c1f	-0.00013081775
18	0xb849f129	-4.8146732e-05
19	0xb9f21fbe	-0.00046181487
20	0xb96c2ad2	-0.00022522666
21	0xb795aae2	-1.7841758e-05
22	0x386a3281	5.5836983e-05
23	0x38850e4e	6.344599e-05
24	0xb91a8e74	-0.00014739652
25	0x39ab8943	0.0003271793
26	0x38b364f7	8.554191e-05
27	0x3818c3ff	3.642216e-05
28	0x38749aeb	5.8318412e-05
29	0xb78bbfaa	-1.6659342e-05
30	0xb85ac482	-5.2158262e-05
31	0x3a0672ea	0.0005128818
32	0x39b78515	0.00035003634
33	0x393fed1d	0.00018303511
34	0x39ead80f	0.00044792934
35	0xb998c5e5	-0.00029139142
36	0xb95193ea	-0.00019986895
37	0xb8b5da7f	-8.6714506e-05
38	0xb8973b5a	-7.211296e-05
39	0xb6cc721e	-6.0929588e-06
40	0x36f2bb69	7.2339794e-06
41	0xb5a06cac	-1.1952557e-06
42	0x388c9757	6.7039095e-05
43	0x39fe244a	0.00048473693
44	0xb95df484	-0.00021167292
45	0x37aaf66d	2.038033e-05
46	0x37d0f779	2.491077e-05
47	0xb90a7236	-0.00013203252
48	0xb8394340	-4.417007e-05
49	0x3a090b38	0.0005227807
50	0x397fff0e	0.0002441371
51	0x37eafed3	2.8013636e-05
52	0x3a063708	0.00051198946
53	0xb902f4b0	-0.0001248892
54	0x397b0a11	0.00023940975
55	0x39ea8dc2	0.00044737576
56	0xb81c6c31	-3.729406e-05
57	0x379084d4	1.722799e-05
58	0xb8861865	-6.394162e-05
59	0xb81a6a1a	-3.6815276e-05
60	0x39550414	0.00020314782
61	0xb9fd035e	-0.0004825843
62	0xb9219980	-0.0001541134
63	0xb8d8696c	-0.00010319319
64	0x393e4b3b	0.00018147838
65	0x3993d35b	0.00028195497
66	0x38d981c2	0.000103715356
67	0xba24c399	-0.000628525
68	0xb9e94b6f	-0.00044497426
69	0xb8dfe299	-0.00010675676
70	0xba07b163	-0.0005176274
71	0x3a1d3b8a	0.0005997947
72	0xb7d27c37	-2.5091793e-05
73	0xb9a8530f	-0.0003210534
74	0xb9762773	-0.00023475084
75	0xb6d170a5	-6.241799e-06
76	0x37b836a7	2.1959959e-05
77	0x37a00fac	1.9080784e-05
78	0xb8f6b995	-0.000117647614
79	0x39a91d76	0.00032256142
80	0x38035e9e	3.1320953e-05
81	0x3780b84e	1.5344613e-05
82	0xb70dfbff	-8.462927e-06
83	0xb860658a	-5.3500327e-05
84	0xb88c5bf6	-6.692849e-05
85	0x39e8fa50	0.00044436986
86	0x39c3227f	0.00037219
87	0x3874644a	5.8267535e-05
88	0x39d771b9	0.00041092726
89	0xb908c0d0	-0.00013041799
90	0xb79010e2	-1.7174e-05
91	0xb936ad9c	-0.00017421547
92	0xb98cb8f6	-0.00026840687
93	0x3535790c	6.76039e-07
94	0x370e88e1	8.495729e-06
95	0xb6a3f338	-4.886093e-06
96	0xb8e75147	-0.000110300774
97	0x390316c8	0.0001250162
98	0xb8a4580b	-7.836529e-05
99	0x3908c44b	0.00013043096
100	0xb8bfa35e	-9.138019e-05
101	0x382ccbeb	4.119791e-05
102	0xb729d5ef	-1.0122995e-05
103	0x396df07a	0.00022691666
104	0x3961fb91	0.00021551388
105	0x37a893a8	2.0095918e-05
106	0x39607a65	0.000214079
107	0xb89c66c4	-7.457801e-05
108	0x3684687d	3.9460706e-06
109	0x37905ac7	1.720841e-05
110	0x37811626	1.5388312e-05
111	0xb76103c1	-1.3411919e-05
112	0x37200368	9.537536e-06
113	0x37aaf4af	2.0379519e-05
114	0x39512fda	0.0001994962
115	0x38eb6977	0.000112253176
116	0xb8c65c1d	-9.458533e-05
117	0xb96765f2	-0.00022067854
118	0x3881edab	6.1954684e-05
119	0x38c94a76	9.598296e-05
120	0x382f577f	4.180474e-05
121	0x38525078	5.0142844e-05
122	0xb8727c40	-5.7813013e-05
123	0x38a09cd5	7.658607e-05
124	0x387b2201	5.9874732e-05
125	0xb8b8154e	-8.777772e-05
126	0xb7838d87	-1.568232e-05
127	0xb9353e2b	-0.00017284665
128	0xb619e9da	-2.2934896e-06
129	0x3602e6aa	1.9505774e-06
130	0x37901acc	1.7178616e-05
131	0x3615733a	2.22698e-06
132	0xb922e1d7	-0.00015533656
133	0x397f7ba4	0.00024364755
134	0x39aabf37	0.00032567393
135	0x3903feab	0.00012588005
136	0xb8d1f446	-0.00010011396
137	0xb82dd9ab	-4.1449133e-05
138	0xb6857e5f	-3.9784204e-06
139	0x39a5d55d	0.0003163022
140	0x3962ff0a	0.00021648049
141	0x390e7b66	0.00013588145
142	0x3998ee93	0.0002916945
143	0xb94b6e86	-0.00019400762
144	0xb8064137	-3.2008826e-05
145	0xb92b893a	-0.00016358952
146	0xb77df66d	-1.5137351e-05
147	0xb72c0ca7	-1.0254945e-05
148	0x37e73be5	2.7565236e-05
149	0x37a19682	1.9262781e-05
150	0xb820e75b	-3.836244e-05
151	0x39ae4795	0.000332412
152	0x37f891bd	2.9631768e-05
153	0xb8321723	-4.2460055e-05
154	0x387ac4c1	5.9787886e-05
155	0xb8edc877	-0.0001133838
156	0xb8ef231b	-0.00011402947
157	0x39bc32fe	0.00035896146
158	0x392408f1	0.0001564359
159	0xb4a532e9	-3.0770687e-07
160	0x39ab0b60	0.00032624137
161	0xb8ee1cc7	-0.000113540846
162	0xb807e459	-3.2399174e-05
163	0x37daf9f5	2.610402e-05
164	0x38e76b7f	0.00011034961
165	0xb5276fa3	-6.23748e-07
166	0x36b63a63	5.43082e-06
167	0x36d2152e	6.2609533e-06
168	0xb8be35f0	-9.069953e-05
169	0x387bd3fd	6.0040493e-05
170	0x391358d0	0.00014052098
171	0x383533d3	4.3202028e-05
172	0xb8633a01	-5.4175038e-05
173	0xb8af5a33	-8.361451e-05
174	0x3714803d	8.851345e-06
175	0x389c6fdf	7.459497e-05
176	0xb86c4290	-5.6328776e-05
177	0x3897e683	7.243177e-05
178	0x3879ce96	5.9558624e-05
179	0xb905078c	-0.0001268668
180	0x3867e7bf	5.5290522e-05
181	0x39488913	0.0001912455
182	0x38906f83	6.887226e-05
183	0xb619e53b	-2.2932206e-06
184	0xb80e82de	-3.3977318e-05
185	0xb6dbe421	-6.5532663e-06
186	0x3882c6d8	6.2359206e-05
187	0xb9209cfe	-0.00015317273
188	0x38635755	5.420235e-05
189	0xb84d13b5	-4.8894162e-05
190	0xb8a48102	-7.844159e-05
191	0x393e15e5	0.00018127968
192	0x38704e3e	5.7293328e-05
193	0xb9a2bf0e	-0.00031041395
194	0xb9495876	-0.00019201808
195	0xb81856f6	-3.6320613e-05
196	0xb9415687	-0.00018438148
197	0x390d0a5f	0.00013450671
198	0x37eb3d0c	2.804261e-05
199	0x388db7f7	6.75767e-05
200	0xb872578f	-5.777884e-05
201	0x379b5722	1.8518014e-05
202	0xb75afb8c	-1.305238e-05
203	0xb7d5a9c7	-2.5470637e-05
204	0xb75f190d	-1.3297668e-05
205	0xb94296c1	-0.00018557442
206	0x3802e6e3	3.1209445e-05
207	0x388c683a	6.695134e-05
208	0xb76d8dc6	-1.415931e-05
209	0x38a48e47	7.8466306e-05
210	0x386436a1	5.4410313e-05
211	0xb959947f	-0.00020750052
212	0x3829a34d	4.0444826e-05
213	0xb843ed91	-4.6712874e-05
214	0xb9201d1d	-0.00015269635
215	0x39379883	0.00017509055
216	0x36336c04	2.6735952e-06
217	0x388f5878	6.83525e-05
218	0x37bcb0f7	2.2493752e-05
219	0xb683f8d0	-3.93307e-06
220	0xb6083891	-2.0298505e-06
221	0xb700b60b	-7.67178e-06
222	0x3898a8a5	7.279337e-05
223	0xb8d38498	-0.000100859615
224	0xb8b2876c	-8.512926e-05
225	0xb66dbfef	-3.5427472e-06
226	0xb8061b32	-3.1973417e-05
227	0x38535c92	5.0392533e-05
228	0x37a4fc33	1.9667763e-05
229	0xb927a33b	-0.00015987169
230	0xb8d5b122	-0.00010189625
231	0xb812afa1	-3.497268e-05
232	0xb8d41feb	-0.00010114893
233	0x3904bbf7	0.00012658523
234	0x3939024d	0.00017643832
235	0xb687fa92	-4.0524837e-06
236	0xb907fc0e	-0.00012968501
237	0x3784201a	1.5750575e-05
238	0xb780ad7f	-1.533958e-05
239	0xb7d52e27	-2.541307e-05
240	0xb892f76a	-7.007907e-05
241	0xb93422e1	-0.00017179131
242	0x389f533d	7.597215e-05
243	0x38057ff0	3.1828822e-05
244	0xb93071ad	-0.00016827015
245	0xb75a6674	-1.3017667e-05
246	0x387604b8	5.8655365e-05
247	0xb8c2aee7	-9.283219e-05
248	0x38930c95	7.01185e-05
249	0xb7baf51f	-2.2287071e-05
250	0xb903d4eb	-0.00012572452
251	0x373acc24	1.1133994e-05
252	0x3893c0a7	7.0453905e-05
253	0xb8728d4b	-5.7828885e-05
254	0xb89eb6b8	-7.568061e-05
255	0x375900ce	1.2934395e-05

exp_avg_sq f4 [128, 18]
0	0x3489ff27	2.5703886e-07
1	0x34a9786b	3.156632e-07
2	0x34a555f4	3.0796184e-07
3	0x342a8de1	1.5884099e-07
4	0x331a42a6	3.5916536e-08
5	0x3440c7b0	1.795404e-07
6	0x34968070	2.8033128e-07
7	0x3538453e	6.86461e-07
8	0x34831b45	2.4420493e-07
9	0x348264e7	2.4287803e-07
10	0x34819c92	2.4142042e-07
11	0x349b0ce8	2.888039e-07
12	0x348e8d96	2.6552578e-07
13	0x3545a42c	7.362712e-07
14	0x348db0da	2.6391973e-07
15	0x34830660	2.440529e-07
16	0x3539c708	6.92075e-07
17	0x34a31e08	3.0382967e-07
18	0x34df3afb	4.15799e-07
19	0x3520da19	5.992202e-07
20	0x34b2369e	3.3194823e-07
21	0x352ba7b2	6.3946493e-07
22	0x3447cc5d	1.8607666e-07
23	0x352ed78f	6.513373e-07
24	0x34bcbaef	3.515374e-07
25	0x35004b4a	4.7793276e-07
26	0x34d48b1e	3.9589298e-07
27	0x34bdc7db	3.5349407e-07
28	0x34c1ace6	3.6074852e-07
29	0x34d45d74	3.9556073e-07
30	0x34b69d61	3.401465e-07
31	0x34ee0920	4.4337594e-07
32	0x34ac3e2d	3.2082735e-07
33	0x34a5177b	3.075073e-07
34	0x3500987d	4.7905615e-07
35	0x34c76b04	3.7144503e-07
36	0x34b2c82f	3.3300736e-07
37	0x34d90d51	4.042909e-07
38	0x34a2f07c	3.0349827e-07
39	0x333a3514	4.3354774e-08
40	0x34075542	1.2603871e-07
41	0x3368b6d9	5.418301e-08
42	0x349bda05	2.902963e-07
43	0x34db9be0	4.0905343e-07
44	0x34a1993f	3.0100088e-07
45	0x34a42ba1	3.0579125e-07
46	0x34973270	2.816264e-07
47	0x34a80dd3	3.1302497e-07
48	0x34a1eb73	3.01599e-07
49	0x34d38fd3	3.9406459e-07
50	0x348fc18b	2.6776647e-07
51	0x34af8549	3.2693268e-07
52	0x34d60c67	3.986963e-07
53	0x349e77d1	2.951697e-07
54	0x35696741	8.694952e-07
55	0x35670bd4	8.607142e-07
56	0x35662f6c	8.5750685e-07
57	0x3572028d	9.0155737e-07
58	0x34f5c1ff	4.5775957e-07
59	0x357b58c4	9.363396e-07
60	0x35757ead	9.145395e-07
61	0x359c9a1c	1.1667757e-06
62	0x358030f3	9.550989e-07
63	0x35459ba4	7.3614706e-07
64	0x354f8696	7.730936e-07
65	0x355bf92e	8.194646e-07
66	0x35340fa0	6.707796e-07
67	0x35870852	1.0060705e-06
68	0x354adf77	7.557605e-07
69	0x354139bf	7.1982134e-07
70	0x35952c59	1.1114272e-06
71	0x3581454a	9.631415e-07
72	0x348b507c	2.5949328e-07
73	0x352e7273	6.4986597e-07
74	0x34aeb14b	3.2539023e-07
75	0x34d3a168	3.941925e-07
76	0x33d89a26	1.0086323e-07
77	0x34da2bea	4.0637616e-07
78	0x34829861	2.4325257e-07
79	0x350a7f4d	5.1594253e-07
80	0x34be24d4	3.5417054e-07
81	0x349ea5b7	2.9550367e-07
82	0x34a689bd	3.1020127e-07
83	0x349bfb74	2.9053956e-07
84	0x349cf0d3	2.9232487e-07
85	0x34fa23dc	4.659222e-07
86	0x349885cd	2.840956e-07
87	0x3490fe28	2.7007013e-07
88	0x34f6293a	4.5851067e-07
89	0x349f2c75	2.9648405e-07
90	0x358c4b39	1.0452706e-06
91	0x35d6c850	1.6002541e-06
92	0x3590bbee	1.0783531e-06
93	0x33a23803	7.553901e-08
94	0x33b95063	8.629356e-08
95	0x33fa1a9b	1.1646372e-07
96	0x357f543c	9.511748e-07
97	0x355c7cd3	8.213803e-07
98	0x35960782	1.1178056e-06
99	0x35801890	9.543892e-07
100	0x357213a5	9.018061e-07
101	0x3583f400	9.831274e-07
102	0x355ac2cd	8.14948e-07
103	0x35456dae	7.3547824e-07
104	0x35640a8e	8.495198e-07
105	0x359691f1	1.1218345e-06
106	0x354565b2	7.3536205e-07
107	0x35610f61	8.384141e-07
108	0x347b1878	2.3385098e-07
109	0x348210c0	2.4226574e-07
110	0x34710957	2.2448272e-07
111	0x333c66c6	4.3865633e-08
112	0x338f535f	6.6741215e-08
113	0x33596666	5.061738e-08
114	0x34674283	2.1537748e-07
115	0x33ce3008	9.601359e-08
116	0x34743811	2.2744668e-07
117	0x347211ed	2.2544528e-07
118	0x3464f559	2.1323412e-07
119	0x348440db	2.4634105e-07
120	0x34554c30	1.9864888e-07
121	0x338d5cf7	6.5827344e-08
122	0x3466c9a2	2.1493773e-07
123	0x346dc03f	2.2142284e-07
124	0x33ca5221	9.421297e-08
125	0x344d91ef	1.9145203e-07
126	0x34e0d33f	4.1876953e-07
127	0x349dd943	2.9401608e-07
128	0x34a0f10c	2.9977707e-07
129	0x3310466d	3.3591665e-08
130	0x34038fae	1.2252596e-07
131	0x331e941f	3.6921957e-08
132	0x34d53869	3.9715385e-07
133	0x34ec0f47	4.396954e-07
134	0x34aff8ec	3.2777405e-07
135	0x3488874d	2.5430418e-07
136	0x3487d81a	2.5302944e-07
137	0x34a424a8	3.057405e-07
138	0x348f091c	2.6642454e-07
139	0x34eae908	4.375545e-07
140	0x3499f7e4	2.8678835e-07
141	0x3492dc5a	2.7354946e-07
142	0x34e4fb3f	4.2651115e-07
143	0x34ad6b8f	3.230202e-07
144	0x342d6223	1.6147582e-07
145	0x3477551b	2.3034629e-07
146	0x3436caf2	1.7023902e-07
147	0x331e90ee	3.6919054e-08
148	0x3333ec01	4.189133e-08
149	0x333c6445	4.3863356e-08
150	0x34241f4e	1.5285079e-07
151	0x3490f634	2.7001226e-07
152	0x342f4ed4	1.6326823e-07
153	0x342a32e4	1.5850998e-07
154	0x34599df4	2.0267163e-07
155	0x34332469	1.668392e-07
156	0x344a6a79	1.885145e-07
157	0x348a369c	2.5744237e-07
158	0x342b9c83	1.5982555e-07
159	0x342c545a	1.6049435e-07
160	0x3480cc6c	2.3990594e-07
161	0x34414635	1.8000067e-07
162	0x33e13a3a	1.048797e-07
163	0x3410ce93	1.3486196e-07
164	0x33f735a1	1.1511589e-07
165	0x340b4a93	1.2972514e-07
166	0x33b82614	8.575094e-08
167	0x340d4bd0	1.3159229e-07
168	0x33f9ec25	1.16379205e-07
169	0x33e87695	1.0824912e-07
170	0x33f11737	1.122666e-07
171	0x33c4f4a3	9.1714604e-08
172	0x33e83641	1.08132106e-07
173	0x33dbf6ce	1.0242876e-07
174	0x33b8ef4a	8.611694e-08
175	0x33b5fd75	8.474573e-08
176	0x33c2dbe4	9.073827e-08
177	0x33a9ee13	7.912981e-08
178	0x33d54ee9	9.932939e-08
179	0x33d8935d	1.0085089e-07
180	0x34e54e5d	4.271159e-07
181	0x34f6c116	4.596156e-07
182	0x34e22a7c	4.2126692e-07
183	0x352f8464	6.5385234e-07
184	0x3466afe7	2.1484412e-07
185	0x353146a5	6.604044e-07
186	0x34e2380c	4.213656e-07
187	0x350a9e01	5.163893e-07
188	0x34c52675	3.672209e-07
189	0x34c154f4	3.6010863e-07
190	0x34dc3bac	4.102161e-07
191	0x34e1bbf2	4.2046264e-07
192	0x34cb2eb6	3.7845683e-07
193	0x3500f7c0	4.804424e-07
194	0x34aaf9ba	3.1846668e-07
195	0x34c91f72	3.7462047e-07
196	0x350e4de9	5.3012496e-07
197	0x3503d8a7	4.9116574e-07
198	0x346dd3df	2.2149423e-07
199	0x347d1e21	2.3573422e-07
200	0x34852d4c	2.4806138e-07
201	0x3422c355	1.5158487e-07
202	0x34c863a5	3.7325404e-07
203	0x343ebb81	1.7763342e-07
204	0x34820b87	2.4222774e-07
205	0x341d5217	1.4651629e-07
206	0x344d4e21	1.9120536e-07
207	0x34508e28	1.9423226e-07
208	0x3458c322	2.0187557e-07
209	0x345fb5e9	2.0834672e-07
210	0x343ea6ae	1.7755767e-07
211	0x341ff2f6	1.4896418e-07
212	0x34295180	1.5769001e-07
213	0x3453f384	1.9739497e-07
214	0x34389c8f	1.7193291e-07
215	0x347350f7	2.2660593e-07
216	0x33d733b8	1.0021125e-07
217	0x341d2395	1.4634709e-07
218	0x33e5b9b9	1.0697426e-07
219	0x33425d5f	4.5254065e-08
220	0x32a0050d	1.8628748e-08
221	0x333c04d2	4.3776545e-08
222	0x33d61e05	9.970612e-08
223	0x340567c3	1.2424339e-07
224	0x33ec5108	1.1004346e-07
225	0x33cddbc3	9.586031e-08
226	0x33e85fcc	1.0820767e-07
227	0x33de55c9	1.0353285e-07
228	0x33c389b0	9.10544e-08
229	0x34012014	1.2025731e-07
230	0x33acebc6	8.052261e-08
231	0x33c89e2e	9.3419985e-08
232	0x34047330	1.2335363e-07
233	0x33e41aef	1.06219765e-07
234	0x343cc46b	1.7580321e-07
235	0x34f431de	4.5484825e-07
236	0x3476e3f2	2.2993461e-07
237	0x33405c3e	4.4787377e-08
238	0x33c9c816	9.396187e-08
239	0x336a1942	5.4505342e-08
240	0x34368d55	1.7001487e-07
241	0x34b80a33	3.4280092e-07
242	0x347b2fd4	2.3393596e-07
243	0x3453bf3c	1.9720477e-07
244	0x34384637	1.716188e-07
245	0x3458dd9e	2.0197191e-07
246	0x34306508	1.6428032e-07
247	0x34b0d2df	3.2935984e-07
248	0x344ce5dc	1.9082603e-07
249	0x34545a0c	1.9776797e-07
250	0x349b47ea	2.8923324e-07
251	0x3481597a	2.4093225e-07
252	0x33f45501	1.13775975e-07
253	0x3454b399	1.9809376e-07
254	0x340da9e7	1.3193458e-07
255	0x344a1273	1.8819428e-07
