results/Separation/Separation/Separation-5504.onnx (onnx, 82324 bytes, 10 tensors)

network_body.observation_encoder.processors.0.normalizer.running_mean f4 [12]
0	0xbb8f5b83	-0.0043749227
1	0x3a8a7993	0.0010564796
2	0xbb61850b	-0.0034411575
3	0xbda370ad	-0.079804756
4	0xc19f6936	-19.926373
5	0xbd8c45f5	-0.06849281
6	0x3efae090	0.48999453
7	0xc055635c	-3.3341894
8	0x41830e05	16.381845
9	0x3db3696a	0.087603405
10	0x3dc60cd6	0.09670417
11	0x4058a639	3.3851454

network_body._body_endoder.seq_layers.0.weight f4 [128, 12]
0	0xbda5e1f8	-0.08099741
1	0x3f08afa3	0.53393
2	0x3eb2a486	0.34891146
3	0xbea1f30c	-0.31630743
4	0xbd7c1bba	-0.06154988
5	0xbd269a9a	-0.040674783
6	0xbdcc7209	-0.09982688
7	0xbd75e9f7	-0.06003758
8	0xbe844e61	-0.25841048
9	0x3c896481	0.016771557
10	0xbc877130	-0.016533464
11	0xbe7d0c73	-0.2471178
12	0xbefda7f5	-0.49542204
13	0xbc681bda	-0.014166797
14	0xbe68b219	-0.22724189
15	0xbe8627f2	-0.2620235
16	0x3da14ff9	0.07876582
17	0x3d94cec0	0.07265997
18	0x3db92fd0	0.09042323
19	0xbed37203	-0.41297922
20	0x3f01780c	0.505738
21	0xbd741a4f	-0.059595402
22	0x3e18854a	0.14894596
23	0x3d7392ba	0.0594661
24	0x3e0d18bd	0.13778968
25	0x3e222373	0.15833835
26	0x3e4e628a	0.20154777
27	0xbe1b3b8e	-0.15159437
28	0xbf12ea54	-0.57388806
29	0xbf561fb4	-0.83642125
30	0x3ec7ddb6	0.3903634
31	0x3dfdeb41	0.12398387
32	0x3f20920d	0.62722856
33	0x3dbb9aed	0.09160409
34	0x3e2c7b74	0.16843969
35	0xbe1af2ba	-0.15131655
36	0x3ec160e8	0.37769246
37	0xbc80b7f4	-0.015712716
38	0x3d1b5497	0.037922468
39	0xbf47a14a	-0.7798048
40	0x3d492275	0.049105126
41	0xbea0ac9f	-0.313817
42	0x3de88a19	0.11354465
43	0x3e346e18	0.17620122
44	0x3f092976	0.5357889
45	0xbd78d5cb	-0.060750764
46	0x3e1e7f0e	0.15478155
47	0x3dc4dec8	0.09612805
48	0x3e636aa8	0.22208655
49	0x3e7734bb	0.24141209
50	0x3d5959af	0.053064045
51	0xbe79dc5a	-0.24400464
52	0x3e389b97	0.18028103
53	0xbe58d9b6	-0.211768
54	0x3d75d7f2	0.060020395
55	0xbe557b30	-0.20847774
56	0x3d55c553	0.052190136
57	0x3ea20970	0.31647825
58	0x3edd6ce5	0.43247142
59	0x3f08f0e9	0.534926
60	0x3bbcef25	0.005765813
61	0xbf364aa9	-0.7120767
62	0xbe8221f3	-0.25416526
63	0xbe6d5bb4	-0.23179513
64	0xbba107ef	-0.004914276
65	0xbda2caef	-0.07948863
66	0x3e063e5a	0.13109723
67	0x3d31f2c4	0.04344441
68	0x3d194428	0.037418514
69	0xbe8bd860	-0.2731352
70	0x3e966486	0.29373568
71	0x3e1a0666	0.15041503
72	0x3dd87f17	0.105711155
73	0x3dde5dd7	0.10857742
74	0x3d4ef440	0.050525904
75	0x3e328bea	0.17436185
76	0x3e1d3b2c	0.15354604
77	0x3e99d7f2	0.30047566
78	0x3da174ec	0.07883629
79	0xbda0df3b	-0.07855078
80	0x3d308fcf	0.043105897
81	0x3d62e2f4	0.05539222
82	0xbe98c22a	-0.29835635
83	0x3f0569f2	0.52114785
84	0xbe85e92a	-0.26154453
85	0x3e7c5ec2	0.24645522
86	0x3ec5bda4	0.38621247
87	0xbd224cc7	-0.039624
88	0xbea00fd6	-0.31262082
89	0x3c09c4a9	0.008408704
90	0x3dbb83d1	0.09156001
91	0xbd96db39	-0.07366032
92	0xbc9faa49	-0.019490378
93	0x3ee2156f	0.44156978
94	0xbf03ac0b	-0.5143439
95	0xbe9956a8	-0.29948926
96	0xbeb01a1f	-0.3439493
97	0x3e893de8	0.26805043
98	0xbe8ee84c	-0.27911603
99	0xbe38e1c6	-0.18054876
100	0x3eb1d03a	0.34729177
101	0x3f2c892c	0.6739681
102	0x3e94ec38	0.2908647
103	0xbf14b781	-0.58092505
104	0x3f139917	0.5765547
105	0xbdf39a9b	-0.11894723
106	0xbd41e84f	-0.047340687
107	0xbe62a6f7	-0.22134005
108	0x3d8b9b46	0.068167254
109	0x3da03987	0.078234725
110	0x3ea3466b	0.31889662
111	0xbc1fb656	-0.009748062
112	0x3b52b22b	0.0032149653
113	0xbebf6bd4	-0.37386954
114	0x3d005bdb	0.0313376
115	0xbceec888	-0.029148355
116	0xbe18958a	-0.14900795
117	0x3e2e883d	0.17044158
118	0x3eba5cf4	0.36399043
119	0xbe8b1bed	-0.27169743
120	0x3e06f266	0.13178405
121	0xbe49be37	-0.19701467
122	0xbd0ea9d4	-0.03482993
123	0x3d80277d	0.06257532
124	0xbe66116d	-0.22467585
125	0xbf1a8243	-0.60355014
126	0xbeb739df	-0.3578634
127	0x3ec5e722	0.38652903
128	0xbc881155	-0.016609827
129	0xbe40fd41	-0.18846609
130	0x3e5bc9bd	0.21463676
131	0xbdbbdb17	-0.091726474
132	0x3d8cf0b4	0.06881848
133	0xbd487c87	-0.048946884
134	0x3bed3323	0.007238762
135	0x3c65e954	0.014032681
136	0x3ec653bd	0.38735762
137	0xbe21a678	-0.15786159
138	0x3e4c5008	0.19952404
139	0xbe81abe8	-0.25326467
140	0xbd8954a0	-0.06705594
141	0x3ea78d84	0.32725155
142	0x3f063047	0.52417415
143	0x3e30257d	0.172018
144	0xbe2af7a5	-0.16696031
145	0xbe9038d8	-0.28168368
146	0x3eb4453c	0.35209072
147	0xbe0f07bd	-0.13967796
148	0xbedfe47c	-0.43729007
149	0xbec30bae	-0.38094848
150	0x3e5fa206	0.21839151
151	0x3e9769b4	0.29572833
152	0xbdba3836	-0.09092753
153	0xbdda36ae	-0.106549606
154	0xbe17ff8f	-0.14843582
155	0xbdee5ef5	-0.11639205
156	0xbdaed16d	-0.085360385
157	0xbe932931	-0.28742364
158	0x3eebf914	0.4608847
159	0x3dfda400	0.12384796
160	0x3e902724	0.28154862
161	0xbf0bc860	-0.54602623
162	0xbd9bf010	-0.07614148
163	0x3d5e88e8	0.054329783
164	0x3bcd5f74	0.0062674824
165	0x3e4044d5	0.18776257
166	0x3ec2617f	0.3796501
167	0xbdb919ba	-0.0903811
168	0xbde06246	-0.10956244
169	0x3df06af7	0.11739152
170	0x3ee98bc9	0.4561446
171	0xbe577d20	-0.21043825
172	0xbedac9b7	-0.4273202
173	0xbe50052b	-0.20314471
174	0x3de10042	0.10986377
175	0x3db901cf	0.09033548
176	0xbd374dc8	-0.044751912
177	0xbe010d0b	-0.12602632
178	0x3eee90f9	0.4659498
179	0xbbd9e474	-0.006649548
180	0x3e3e6aec	0.18595475
181	0xbe7d8609	-0.24758162
182	0xbe99304e	-0.29919666
183	0x3e2e5b6f	0.17027067
184	0x3dff822e	0.12476002
185	0x3d7ed5b0	0.062215507
186	0xbea2306b	-0.31677565
187	0xbdaab989	-0.08336169
188	0xbe5b16c0	-0.21395397
189	0xbecde5ec	-0.4021448
190	0x3e58fb95	0.21189721
191	0x3e3e6a24	0.18595177
192	0x3e850014	0.25976622
193	0x3eea2fe5	0.45739666
194	0x3dab03ac	0.0835031
195	0x3e4684e8	0.19386637
196	0x3dc6de7c	0.09710404
197	0xbe8ea8ed	-0.27863255
198	0xbdf211b7	-0.11819785
199	0x3ec211a9	0.379041
200	0xbee8aeb0	-0.45445776
201	0x3f003f8b	0.5009696
202	0x3cb66420	0.02226454
203	0x3f0ce2a7	0.55033344
204	0xbe14239e	-0.14466712
205	0x3ede1aed	0.43379918
206	0x3d325403	0.04353715
207	0xbf19eb77	-0.60124916
208	0x3d92076b	0.07130321
209	0xbc8a482c	-0.016880117
210	0x3d6a4d67	0.057202723
211	0xbe7eec79	-0.24894895
212	0x3dbceb65	0.092245854
213	0x3c92f9e3	0.01794142
214	0x3e1aa446	0.15101728
215	0xbdd9d985	-0.10637192
216	0xbf1e3bdc	-0.6181009
217	0x3d10bbe4	0.035335436
218	0x3ef6dea8	0.48216748
219	0x3db667f0	0.08906543
220	0x3e17507b	0.14776795
221	0xbe33a260	-0.1754241
222	0xbdf4e19f	-0.11957096
223	0x3d98cf4c	0.07461414
224	0x3ec0ea33	0.3767868
225	0xbe11d587	-0.1424161
226	0xbe86b426	-0.26309317
227	0xbdd7ea3e	-0.10542725
228	0x3e06fabb	0.13181584
229	0x3c166e07	0.009181506
230	0xbd59dff9	-0.053192113
231	0x3e4c8b61	0.19975044
232	0x3e6beaa8	0.23038733
233	0xbe95df9d	-0.29272166
234	0x3e031259	0.12799968
235	0x3c795ec2	0.015220346
236	0xbe4ebfc1	-0.20190336
237	0x3d39b37e	0.045337193
238	0x3e150a8a	0.14554802
239	0x3e405000	0.18780518
240	0xbe55cfd1	-0.20880057
241	0x3ecdb389	0.40176037
242	0x3ea2324f	0.31679007
243	0x3dd4632d	0.10370479
244	0x3e0a29ee	0.13492557
245	0xbd0ce3b1	-0.03439683
246	0xbeace904	-0.33771527
247	0x3e2f4e85	0.17119797
248	0xbe23b0c4	-0.159854
249	0x3d4ba417	0.049717035
250	0xbd3b6348	-0.04574898
251	0xbcfa5b16	-0.030561011
252	0xbe4caacd	-0.1998703
253	0x3c84d349	0.01621403
254	0xbf091e60	-0.53561974
255	0x3ea74593	0.32670268

network_body._body_endoder.seq_layers.0.bias f4 [128]
0	0xbb4b6021	-0.003103264
1	0x3becf207	0.0072310003
2	0xbb761acb	-0.003755259
3	0xb9577137	-0.00020546174
4	0x39513da7	0.0001995476
5	0x3ba6bd37	0.005088474
6	0x3a301398	0.0006716787
7	0xbb34b0c0	-0.0027571172
8	0xbb982258	-0.004642766
9	0xba8f0e25	-0.001091425
10	0xbb974b07	-0.0046170983
11	0x3bf66b57	0.00752012
12	0xbbb7f181	-0.0056135063
13	0x3b8f8d70	0.0043808743
14	0x3acfc9bc	0.0015852968
15	0x3c330071	0.010925398
16	0x3bb62f54	0.005559841
17	0xbbcd2879	-0.006260928
18	0x3a7477bf	0.0009325705
19	0x3b151e85	0.0022753787
20	0x3b96e3e0	0.0046048015
21	0xbb4af1bc	-0.0030966839
22	0x3c1a9c30	0.009436652
23	0xbc125b42	-0.00893289
24	0x3b6c3568	0.0036042575
25	0x3b559268	0.0032588486
26	0x3a78a8e4	0.0009485616
27	0x3bed59d6	0.0072433753
28	0x3b668d44	0.0035179416
29	0x3b116117	0.0022183114
30	0x3c43a52b	0.011941235
31	0x3afb47bb	0.0019171158
32	0x3bb9d1cd	0.005670762
33	0xba8d2e60	-0.0010771267
34	0x3c41c706	0.011827236
35	0x3c324ddf	0.010882824
36	0xbb7b6618	-0.0038360413
37	0x3bf37cb4	0.0074306373
38	0x3ab47d78	0.0013770303
39	0x3bf18c42	0.0073714564
40	0x3c4db0da	0.012554372
41	0x3b546923	0.00324113
42	0x3b589ab8	0.0033051204
43	0x3bb2f48c	0.005461281
44	0x3b067cc0	0.0020521134
45	0x3b50fcc1	0.0031888934
46	0xb9aa2593	-0.00032452922
47	0x3b81c3bd	0.0039601014
48	0xbb37a16d	-0.0028019801
49	0xbbca4221	-0.006172434
50	0x3b1c63c8	0.0023863185
51	0x3c1741e4	0.009232018
52	0x3bea2742	0.007145793
53	0xbbb17f2f	-0.005416773
54	0x3b164805	0.002293111
55	0x3bb5ccbf	0.0055480893
56	0x3bb9616b	0.005657365
57	0xbba4a38f	-0.0050243805
58	0xbb09a93f	-0.002100542
59	0x3be156b4	0.006876791
60	0x3b9f3d8f	0.0048596333
61	0xbba2ad06	-0.0049644737
62	0x3973b117	0.00023240257
63	0xb71d63a8	-9.381132e-06
64	0xbbe76b06	-0.0070623187
65	0xb943fad7	-0.00018690094
66	0x3b8fcdec	0.0043885615
67	0x3c0173ed	0.007901174
68	0xbbadacf3	-0.005300158
69	0xba92550f	-0.0011164265
70	0xb7670d80	-1.3771816e-05
71	0xb9754c62	-0.00023393476
72	0x3b38607a	0.0028133676
73	0x3be1d061	0.006891296
74	0xbc26ade7	-0.0101732975
75	0x3b7e5957	0.0038810575
76	0xbbcc8b3d	-0.0062421844
77	0x3ba00384	0.0048832316
78	0xbbfd1de1	-0.007724509
79	0xbb8b1bce	-0.004245258
80	0xbb46af90	-0.0030317046
81	0xbb6c9113	-0.0036097213
82	0x3c36a6b0	0.01114814
83	0xbb73a912	-0.0037179631
84	0x3ad89a71	0.0016525519
85	0xbb58e317	-0.003309434
86	0x3c1da781	0.009622456
87	0xbb1227e2	-0.0022301604
88	0xbbb6c833	-0.005578065
89	0xbb808556	-0.003922145
90	0xbab96018	-0.0014143018
91	0xbbf58529	-0.0074926806
92	0xb917f3c8	-0.00014491298
93	0xbbc4f4b5	-0.0060106167
94	0x3c440dd7	0.01196619
95	0x3b6a1c33	0.0035722374
96	0x3c1eb04b	0.009685586
97	0x3c0fcf7e	0.008777497
98	0x3bad6c64	0.005292462
99	0xbb20df0d	-0.002454701
100	0xbb83e0c6	-0.004024598
101	0xbc3b162e	-0.011418862
102	0xbb3ef3b1	-0.002913695
103	0x3c1da8a7	0.009622729
104	0xbb926795	-0.0044679143
105	0xbb624101	-0.0034523609
106	0x3bbbe623	0.0057342215
107	0x3b0e7a08	0.0021740217
108	0x39080bda	0.00012974386
109	0x3b5325d6	0.0032218597
110	0xbb81e160	-0.0039636344
111	0xbaf06ede	-0.0018343588
112	0xba841e82	-0.0010079893
113	0xbc381c27	-0.011237181
114	0x3b1bfcf8	0.0023801904
115	0xbc3a489a	-0.011369849
116	0x3a9396d6	0.0011260163
117	0x3bf30c1b	0.0074172146
118	0xb9c039a0	-0.00036664028
119	0x3becab19	0.007222545
120	0xbbba5092	-0.0056858743
121	0xbb3aa9fc	-0.0028482666
122	0x3ba0ea2a	0.004910727
123	0xbb1690c1	-0.0022974464
124	0xb98e9e48	-0.0002720228
125	0x3b974c6d	0.004617265
126	0xb9bd21bf	-0.00036074032
127	0xbaa6c62e	-0.0012723857

network_body._body_endoder.seq_layers.2.weight f4 [128, 128]
0	0x3cfe3ce9	0.031034904
1	0x3d19f6c7	0.03758886
2	0xbd8459df	-0.06462454
3	0x3d0d7919	0.034539316
4	0xbc6dec01	-0.0145216
5	0x3d8ba677	0.0681886
6	0x3d29be35	0.04144116
7	0xbcc1f859	-0.023677992
8	0x3da3ec0e	0.08004008
9	0x3c9d1618	0.019175574
10	0xbd3f9902	-0.04677678
11	0x3d34388a	0.043999232
12	0xbcefd26a	-0.029275138
13	0xbdb37d95	-0.08764187
14	0x3da609e4	0.08107355
15	0x3d9c2fb9	0.0762629
16	0xbdcf6a98	-0.10127753
17	0x3d7655cb	0.060140412
18	0xbdf6480a	-0.12025459
19	0x3d40ee49	0.047102246
20	0x3b27e26d	0.0025617138
21	0x3d826804	0.06367496
22	0x3d8962d9	0.06708307
23	0x3c110718	0.008851789
24	0xbdfc098a	-0.12306507
25	0xbc82ccd3	-0.015966808
26	0xbd28f314	-0.041247442
27	0xbdb88a9b	-0.09010812
28	0xbc8e54b0	-0.017374367
29	0xbd1e5146	-0.038651727
30	0x3d6758fc	0.056481346
31	0x3d0d67c9	0.034522805
32	0xbd7d8ff6	-0.06190487
33	0x3cb47cfe	0.022032257
34	0x3d3b865f	0.045782443
35	0xbe347a46	-0.17624769
36	0xbdd8ee12	-0.10592283
37	0xbd470749	-0.048590932
38	0xbd0433c2	-0.032275923
39	0xbe421aab	-0.18955486
40	0x3d3ec272	0.046572156
41	0x3d399017	0.04530343
42	0x3d2c98f6	0.042138062
43	0xbd85a5ab	-0.06525739
44	0xbe4db3a3	-0.20088057
45	0x3ddd1775	0.1079549
46	0xbdf30915	-0.11866967
47	0x3e3cccd2	0.18437508
48	0x3cce6afd	0.0251975
49	0xbe341d8a	-0.17589393
50	0xbe332ace	-0.17496797
51	0x3d8788b8	0.06617874
52	0xbe1d20f2	-0.15344599
53	0xbc9ae96e	-0.018910136
54	0xbdf93026	-0.12167387
55	0xbd6c2bc5	-0.05765893
56	0x3bf8bd92	0.007590958
57	0x3d489215	0.04896744
58	0xbc55b3ed	-0.013043386
59	0x3e31e27f	0.17371558
60	0xbda63661	-0.08115841
61	0xbcc84c4b	-0.024450442
62	0xbd60b8a4	-0.054863587
63	0xbe1eb8e8	-0.15500224
64	0x3cf92a0e	0.030415561
65	0xbc9e553b	-0.01932775
66	0xbd6020f8	-0.05471894
67	0xbda1dfbf	-0.07904004
68	0xbe01d937	-0.12680517
69	0xbbe4f741	-0.006987483
70	0x3d3c8071	0.04602093
71	0xbd6b4335	-0.05743714
72	0x3d9be576	0.076121256
73	0xbc849c0e	-0.016187694
74	0x3da7d078	0.08194059
75	0x3d720d49	0.0590947
76	0xbd00d7fa	-0.03145597
77	0xbccca360	-0.024980247
78	0x3ab282d5	0.0013619313
79	0x3d2217d6	0.039573513
80	0x3c60d55c	0.013722744
81	0xbe090d6e	-0.1338403
82	0x3d5532fd	0.05205058
83	0xbd9813a6	-0.07425623
84	0x3d83db7d	0.064383484
85	0xbd2f13b8	-0.042743415
86	0xbdadc5d7	-0.084850006
87	0xbdab4d06	-0.083643004
88	0xbd7fbdc6	-0.06243684
89	0x3d83b5c8	0.064311564
90	0x3d2e0c1d	0.04249202
91	0x3d703528	0.058644444
92	0x3d8244ec	0.06360802
93	0x3c05e5df	0.008172481
94	0xbda0a0b4	-0.07843152
95	0xbc98094b	-0.018559119
96	0xbe032252	-0.12806061
97	0x3d472349	0.048617635
98	0x3e103b79	0.14085187
99	0xbd586929	-0.052834664
100	0xbd81f28a	-0.06345089
101	0xbbafb1d0	-0.005361773
102	0xbd2fc7d8	-0.042915195
103	0x3ce10d4e	0.027472164
104	0x3db0721a	0.08615513
105	0xbdb9be73	-0.090695284
106	0x3e24ca93	0.16092901
107	0xbde13b63	-0.10997655
108	0xbdd7e5be	-0.10541867
109	0x3e598685	0.21242721
110	0xbd0060eb	-0.03134243
111	0xbe122cbe	-0.1427488
112	0xbe258943	-0.16165642
113	0xbce54aea	-0.027989823
114	0x3dcbfe95	0.09960667
115	0x3c9d9b75	0.019239167
116	0x3da1765c	0.078839034
117	0x3cad476d	0.021152223
118	0x3dcb19a0	0.09916997
119	0x3de32cf5	0.11092559
120	0xbdd3226f	-0.10309302
121	0xbcc45d9e	-0.023970421
122	0x3d179c59	0.03701434
123	0xbe68b4cb	-0.22725217
124	0xbc20a8a4	-0.009805832
125	0xbd6d25a5	-0.05789723
126	0x3e0dcc12	0.13847378
127	0xbbcbb282	-0.006216348
128	0xbcfc9592	-0.03083304
129	0x3e42ac0e	0.19010946
130	0x3d61bd08	0.055111915
131	0x3d811f31	0.063047774
132	0x3df1e266	0.1181076
133	0x3d2cee3a	0.042219378
134	0x3d89d885	0.06730751
135	0xbde5cd1a	-0.11220761
136	0xbcc75550	-0.024332672
137	0x3cacfab6	0.021115642
138	0xbcd22fff	-0.025657652
139	0xbd890ee7	-0.066922955
140	0x3db7efb7	0.08981269
141	0x3d15840b	0.03650288
142	0x3dd86bea	0.10567458
143	0xbdcbefaa	-0.09957822
144	0xbd186279	-0.037203286
145	0x3e9e8748	0.30962586
146	0x3cefb9d3	0.029263413
147	0x3df1f59e	0.11814426
148	0x3d9f2e0f	0.07772457
149	0x3d2a5d40	0.041592836
150	0x3e2414a7	0.16023503
151	0xbbf040b0	-0.00733193
152	0xbd98d002	-0.07461549
153	0xbc90b99b	-0.017666629
154	0x3d7b69fb	0.061380368
155	0x3dd70eda	0.105008796
156	0xbc495315	-0.012287875
157	0xbdc48ffc	-0.09597775
158	0x3cf0851b	0.029360345
159	0xbcf145f2	-0.029452298
160	0xbd8f00b9	-0.0698256
161	0x3e26e432	0.16297987
162	0x3d3d029f	0.046145078
163	0xbd94c00f	-0.07263195
164	0x3c148841	0.009065689
165	0x3c92c2b9	0.017915117
166	0xbc8de0e7	-0.017319156
167	0xbd82591a	-0.06364651
168	0xbd9c29c8	-0.07625157
169	0x3d66d561	0.056355838
170	0xbdb13548	-0.08652741
171	0x3c8269a1	0.015919508
172	0x3e31220a	0.17298141
173	0x3d0cbf8c	0.03436236
174	0xbd684c1d	-0.056713212
175	0x3cedb428	0.02901657
176	0xbd2c3536	-0.042042933
177	0x3cc23088	0.023704782
178	0xbdfc2e52	-0.123135224
179	0xbc64e6a0	-0.013971001
180	0xbc9e90a6	-0.019356083
181	0xbdd2b0e2	-0.10287644
182	0xbd0adf9f	-0.033904668
183	0xbda81017	-0.08206194
184	0xbd867075	-0.06564418
185	0x3d86c6c2	0.06580879
186	0x3dcd9d8e	0.10039817
187	0x3e5e24fc	0.21693796
188	0xbe1141fe	-0.1418533
189	0x3d1d5bed	0.038417745
190	0xbd9c25d1	-0.076244004
191	0xbde47edb	-0.11157008
192	0xbd89dd4c	-0.06731662
193	0xbd879ea2	-0.06622054
194	0x3d81690e	0.06318866
195	0x3bbba7d7	0.005726795
196	0x3d9ead0a	0.07747848
197	0xbcf0e984	-0.029408224
198	0xbd93131f	-0.071813814
199	0x3d1a69be	0.0376985
200	0xbd3e0ac9	-0.046397004
201	0xbd9e834d	-0.077398874
202	0xbdeab690	-0.11460602
203	0x3dd24ae9	0.10268194
204	0x3e222d45	0.15837581
205	0x3e4410eb	0.19147079
206	0xbd8ecd68	-0.06972772
207	0x3e18ef02	0.14934924
208	0x3ca87385	0.020562897
209	0x3e41d71b	0.18929712
210	0xbce40d41	-0.027838351
211	0xbdc7ec28	-0.0976184
212	0xbc892ca8	-0.016744927
213	0xbd6dd63d	-0.05806564
214	0xbd8a815a	-0.06762953
215	0xbd2ada83	-0.041712295
216	0x3e0d7623	0.13814597
217	0x3b94d6da	0.004542214
218	0xbe06fc43	-0.13182168
219	0x3c848428	0.016176298
220	0x3d9fee6d	0.07809148
221	0x3e10d957	0.14145409
222	0xbd3265fa	-0.043554284
223	0xbd3e7c0a	-0.04650501
224	0x3b0d8798	0.0021595713
225	0x3de7940d	0.11307535
226	0x3d1cbba8	0.0382649
227	0x3ca95566	0.020670604
228	0x3cb1f7cc	0.021724604
229	0xbdd37dd3	-0.103267334
230	0x3d0a2518	0.03372678
231	0xbc3369ba	-0.0109505
232	0xbd724f77	-0.059157815
233	0xbe0dbd09	-0.13841642
234	0xbdb4d813	-0.088302754
235	0xbe8fb68e	-0.28068966
236	0xbd69fda6	-0.057126664
237	0x3ce38d25	0.027777264
238	0xbd724787	-0.059150245
239	0x3d9f6c96	0.07784383
240	0xbda1a7b3	-0.07893314
241	0xbe19fbc4	-0.15037447
242	0xbdd8e9b0	-0.10591447
243	0xbdd6c2f7	-0.10486405
244	0x3d1d08e3	0.038338553
245	0xbcace999	-0.021107482
246	0x3d03b80a	0.032157935
247	0xbe4ef086	-0.2020894
248	0xbcbb8433	-0.022890186
249	0x3d71e48f	0.05905586
250	0xbdc220a1	-0.0947888
251	0x3d3e9096	0.046524607
252	0x3cdcdcd8	0.026960775
253	0xbd5800d9	-0.052735183
254	0x3c8bef71	0.017081948
255	0x3dad9262	0.08475186

network_body._body_endoder.seq_layers.2.bias f4 [128]
0	0xbc1b7a41	-0.009489597
1	0x3a4db178	0.00078465743
2	0xbc072238	-0.0082479045
3	0x3ba1ad59	0.0049339947
4	0x39fc1e13	0.00048087593
5	0xbc4b4bf2	-0.0124082435
6	0x3bf7ad85	0.007558527
7	0x3c324053	0.010879594
8	0xbb7e3c10	-0.0038793124
9	0xb76e9f0e	-1.4222938e-05
10	0x3b614840	0.003437534
11	0xbba82d26	-0.0051323352
12	0x3b980114	0.0046388004
13	0xbb800d06	-0.0039078025
14	0xbb4b38d0	-0.0031009205
15	0x3baccbc5	0.0052733147
16	0x3c188d21	0.0093109915
17	0x3b7a763b	0.0038217444
18	0x3bfeb253	0.0077727227
19	0x3c03f6da	0.0080544595
20	0xbbd7dab9	-0.006587353
21	0xbc177462	-0.009244056
22	0xba3b838e	-0.0007153087
23	0x3b84a878	0.0040484034
24	0xbc157a4f	-0.009123399
25	0xba9f6b8d	-0.001216279
26	0xbbe5cb4c	-0.0070127603
27	0x3a868541	0.0010263101
28	0x3b4719cf	0.0030380373
29	0xbbe2d3b7	-0.006922211
30	0xbb846322	-0.004040138
31	0x3b287b34	0.00257082
32	0xba856693	-0.0010177664
33	0x3a532837	0.0008055004
34	0x3b4c0dad	0.003113608
35	0xbb928d6f	-0.0044724266
36	0x3c4b711c	0.012417104
37	0x3c02085c	0.007936563
38	0xbbd27deb	-0.006423702
39	0x3aac169c	0.0013129297
40	0x3bf10f89	0.0073565883
41	0xbb7ed938	-0.0038886797
42	0x3bdf4333	0.0068134307
43	0x3a013c18	0.0004929914
44	0x39fb7c6d	0.00047967155
45	0x3b6edcf5	0.0036447619
46	0xbbd0e641	-0.0063751047
47	0x3a9f0d0f	0.0012134629
48	0xbaecfaed	-0.0018080153
49	0xbb0959cb	-0.0020958062
50	0x3abb6128	0.0014295923
51	0x3c31026a	0.010803798
52	0xbb37d750	-0.002805192
53	0xbb8f3e5f	-0.004371449
54	0xbc25dba0	-0.010123163
55	0xbb201fc0	-0.0024432987
56	0xba878ae8	-0.001034108
57	0xbb9d8b31	-0.0048078527
58	0x3a7992ca	0.00095204695
59	0x3c083375	0.00831305
60	0xbb6614fd	-0.0035107725
61	0x3bedaf06	0.0072535304
62	0xbbf5bd58	-0.007499378
63	0x3c007206	0.007839685
64	0xbb75c8b7	-0.0037503669
65	0x3b999dc0	0.0046879947
66	0x3b9497f5	0.0045347163
67	0xbb46fe15	-0.0030363847
68	0x3c06372e	0.008191867
69	0xba579819	-0.00082242634
70	0xbb2e19a3	-0.0026565574
71	0xbb13b25d	-0.0022536733
72	0xbba1d91c	-0.0049392115
73	0x3b60dbb1	0.0034310634
74	0xb8ebc29d	-0.00011241923
75	0x3bca7246	0.0061781732
76	0xbb889c16	-0.0041689975
77	0xbb6c1775	-0.0036024724
78	0xbb96dc83	-0.0046039238
79	0x3c2a739a	0.010403538
80	0x3b72a1c4	0.003702269
81	0xbb4f5686	-0.0031637265
82	0x3bddbd64	0.006766962
83	0x3bdaa220	0.006672159
84	0xbbd838b2	-0.0065985555
85	0xbb247137	-0.0025091895
86	0x3b9fdffc	0.004878996
87	0x3baa38c8	0.005194757
88	0xbb94de0a	-0.0045430707
89	0xbaa06824	-0.0012238068
90	0x3a95c8d1	0.0011427646
91	0xbbb47397	-0.0055069434
92	0x3c2c8fff	0.010532378
93	0xbbafc8d2	-0.005364516
94	0x3b819454	0.0039544497
95	0xbba49c23	-0.0050234958
96	0x3bfe5565	0.0077616447
97	0x3a547e41	0.00081059715
98	0xbbf9d5ad	-0.007624349
99	0xbbe12076	-0.0068703247
100	0xbc2c9f59	-0.010536038
101	0x3c0030cf	0.007824137
102	0xbb0c5c75	-0.0021417413
103	0xbbad1d1c	-0.005283011
104	0xbb82f3af	-0.0039963345
105	0xbbc68fdd	-0.0060596303
106	0x3bfb0c7a	0.0076613994
107	0xba21596c	-0.00061549875
108	0x3bd415b2	0.006472313
109	0xbbde84f4	-0.0067907516
110	0xbc0e9b20	-0.008703977
111	0xbc055353	-0.008137542
112	0xb9979474	-0.0002891157
113	0x3b8520a2	0.004062728
114	0xbb2ba52a	-0.0026190975
115	0xbb60970b	-0.0034269716
116	0xba94722e	-0.0011325532
117	0xba8dfe1b	-0.0010833176
118	0x3bb68783	0.0055703535
119	0xbc0dc738	-0.0086534545
120	0x3be4ca1a	0.0069821
121	0x3b999a94	0.0046876166
122	0x3b51e4b3	0.0032027184
123	0xbad6532f	-0.0016351695
124	0xbc164200	-0.009171009
125	0xbbddaddc	-0.0067651104
126	0x3beeb8a5	0.007285195
127	0x3bd0f67f	0.006377041

action_model._continuous_distribution.log_sigma f4 [1, 2]
0	0x3c3591cf	0.011082127
1	0xbb0a8010	-0.002113346

action_model._continuous_distribution.mu.weight f4 [2, 128]
0	0xbbb53cf6	-0.0055309488
1	0xbc180463	-0.00927839
2	0xbc314fe4	-0.01082227
3	0xbb721199	-0.0036936759
4	0x3cd2e352	0.02574316
5	0x39feb525	0.00048581618
6	0x3d42aa60	0.047525764
7	0x3ccf6876	0.025318366
8	0xbc968594	-0.018374242
9	0xbcb5b20d	-0.022179628
10	0x3c5a49f7	0.013323299
11	0x3cbcfd86	0.023070108
12	0xbae77b34	-0.0017660619
13	0xbc8d5fc3	-0.017257577
14	0x3ce05e0f	0.0273886
15	0xbb3d7bcf	-0.0028912907
16	0xba11e13b	-0.0005564873
17	0x3ca14251	0.019684942
18	0xbc2a285a	-0.010385597
19	0x3c96c6c5	0.018405328
20	0xbc19f969	-0.009397843
21	0xbb2168af	-0.0024629047
22	0x3c0e3796	0.008680245
23	0x3abc95f1	0.0014387948
24	0xbc2abe0b	-0.010421286
25	0x3c7f368b	0.015576969
26	0xbcfd2cc8	-0.030905142
27	0x3cd35af3	0.025800204
28	0x3cbdb7df	0.023158966
29	0x3c490da6	0.01227132
30	0xbb1ce7e0	-0.002394192
31	0xbb327826	-0.0027232259
32	0xb9cc2a4a	-0.0003894142
33	0xbbd6bbdf	-0.0065531577
34	0x3b996331	0.004681014
35	0x3c104300	0.008805037
36	0x3cf040d6	0.029327791
37	0x3cdcb01a	0.02693944
38	0xbb82fbd7	-0.003997307
39	0x3a8863a0	0.0010405667
40	0x3c79915b	0.015232409
41	0x3ce3c13b	0.0278021
42	0x3cbfb688	0.023402467
43	0xbcf5e60f	-0.030016927
44	0x3d0b0fcd	0.033950616
45	0x3c248725	0.010041987
46	0xbba677bf	-0.005080193
47	0xbca496a3	-0.02009136
48	0xbcb07a91	-0.02154282
49	0x3c92b516	0.017908614
50	0xbb98feb3	-0.0046690344
51	0x3cb20cd3	0.02173463
52	0x3b0e2263	0.0021687977
53	0xbc0c0312	-0.008545654
54	0xbb98bfb5	-0.004661525
55	0xbb60898a	-0.0034261667
56	0x3bd63717	0.006537329
57	0xbcc99a8e	-0.02460983
58	0xbcf99815	-0.030468026
59	0x3b5e5a09	0.0033928177
60	0x3cb296ea	0.021800477
61	0x3c0f1571	0.008733139
62	0xbc907cc0	-0.01763761
63	0xbbdbdf4f	-0.00670997
64	0xbd1c4c9b	-0.038158994
65	0xbb7e19fe	-0.0038772817
66	0xbc9f45c9	-0.019442456
67	0xbd864c1f	-0.06557488
68	0x3ca5354b	0.020167014
69	0xbcc51dbe	-0.024062034
70	0xbd0c7f3f	-0.03430104
71	0x3cca5967	0.024700833
72	0x3bfb1175	0.007661993
73	0x3b524b27	0.0032088251
74	0x3c66d1d0	0.014088109
75	0xbb5c3370	-0.0033599995
76	0xbd477530	-0.048695743
77	0x3b7de42c	0.0038740737
78	0xbcf6ce87	-0.030127777
79	0x3bcf2190	0.0063211396
80	0x3cd726b8	0.02626358
81	0x3d13a91a	0.03604994
82	0x3b99700d	0.004682547
83	0xbb36312a	-0.00278003
84	0xbb12dc52	-0.0022409153
85	0x3ce3651a	0.02775817
86	0x3b42e79e	0.0029740105
87	0xbc8e590d	-0.017376447
88	0xbc8f16e0	-0.017466962
89	0xbd55d2fe	-0.05220317
90	0x3d105645	0.035238523
91	0xbb438f38	-0.0029840004
92	0x3bba4583	0.005684556
93	0x3bb656af	0.0055645327
94	0x3c9774a0	0.018488228
95	0x3c4f00c6	0.012634462
96	0x3ca01f37	0.019546134
97	0x3d243c91	0.040096823
98	0x3be24458	0.00690512
99	0xbd080bea	-0.033214487
100	0xbb9b6997	-0.004742812
101	0xbc89cd57	-0.016821546
102	0xbcccef8f	-0.025016574
103	0xbc814af1	-0.015782805
104	0xbce359db	-0.027752807
105	0xbcdadab2	-0.02671561
106	0x3c8be404	0.0170765
107	0xbcc41b72	-0.023938868
108	0x3ca21b68	0.019788459
109	0xbca39197	-0.019966884
110	0xbb111bf9	-0.0022141917
111	0xbd1562a4	-0.036471024
112	0xbc99a8ca	-0.018757243
113	0x3c82c7be	0.015964385
114	0x3c6ea28d	0.014565122
115	0xbcf16a75	-0.029469708
116	0xbc7eeba1	-0.015559108
117	0xbc9f91e7	-0.019478751
118	0x3b140aa0	0.002258934
119	0xbb7600a6	-0.0037537008
120	0x3b5cd4f3	0.0033696264
121	0x3acea8c9	0.0015766855
122	0x3c8a48b7	0.016880376
123	0x3c23db60	0.010001034
124	0xbc91a5cd	-0.017779255
125	0xbb6b5cbf	-0.0035913435
126	0x3c00d841	0.007864059
127	0x3c04e56a	0.008111337
128	0xbc2f1af1	-0.010687576
129	0x3a091884	0.00052297884
130	0xbc6d129f	-0.014469772
131	0x3cfa3cd7	0.030546589
132	0xbacb4137	-0.0015507106
133	0xbd09590c	-0.033532187
134	0x3c872adb	0.016499927
135	0x3c7a781d	0.015287426
136	0xbc83b0b0	-0.016075462
137	0xb990ea60	-0.00027640443
138	0x3b06cab1	0.002056759
139	0xbcd778b2	-0.02630267
140	0x3c0e1543	0.008672061
141	0xbc79c5be	-0.015244899
142	0xbc4b658f	-0.01241435
143	0x3d05cd5d	0.032666553
144	0x3c99aad0	0.018758208
145	0x3cbf328e	0.023339536
146	0x3c7e6651	0.015527324
147	0x3cb5ef62	0.022208873
148	0xbb9be811	-0.004757889
149	0xbc1d43bf	-0.009598671
150	0xbc2bcbb4	-0.010485578
151	0x3cd4838a	0.025941629
152	0xbd17bd3f	-0.037045714
153	0xbbf3a8c7	-0.0074358913
154	0xbb853b0c	-0.004065877
155	0xbc01e783	-0.007928732
156	0xbb8d38b0	-0.004309736
157	0xbc8acf72	-0.01694462
158	0xbd048697	-0.032354917
159	0x3c063f54	0.00819381
160	0xbbab6607	-0.0052306685
161	0x3a18d614	0.000583024
162	0x3b935a47	0.004496846
163	0xbbdfbb8c	-0.0068277773
164	0x3c0403fc	0.008057591
165	0x3c9a6848	0.018848553
166	0xbca782a6	-0.02044804
167	0xbaa2c474	-0.0012418167
168	0x3c497c71	0.012297736
169	0xbcda0e59	-0.02661817
170	0x3c342aa8	0.010996498
171	0x3c46573c	0.012105759
172	0x3b9821a3	0.0046426817
173	0x3ae97355	0.0017810861
174	0xbcc23ec6	-0.023711573
175	0x3c4c3bff	0.012465476
176	0xbba787b6	-0.0051126136
177	0xbc5e82dc	-0.013581004
178	0xb938d018	-0.00017625128
179	0x3cb64c2b	0.022253117
180	0x3b978b6b	0.004624774
181	0xbae3f979	-0.0017393074
182	0xbc277aca	-0.010222146
183	0xbc8efa00	-0.017453194
184	0xbac06e78	-0.001468136
185	0xbc95c101	-0.018280508
186	0x3cead4ea	0.028665978
187	0x3cd73f56	0.026275318
188	0xbd05fde5	-0.032712836
189	0x3c7d39b8	0.015455656
190	0xbcc138f5	-0.02358673
191	0x3ced8867	0.028995706
192	0xbc625363	-0.013813826
193	0x3cdad5a5	0.026713202
194	0x3ce90183	0.028443104
195	0xbcebe36c	-0.028794967
196	0x3ca73984	0.020413168
197	0x3c7c552b	0.015401165
198	0x3c8e2129	0.017349796
199	0xbbbdbc48	-0.005790267
200	0xba919eb6	-0.0011109922
201	0xbcca98f2	-0.024731133
202	0xbc964e83	-0.018347984
203	0x3c52c103	0.0128634
204	0xbb0376e2	-0.0020059873
205	0xbc9440d1	-0.018097313
206	0xbccaab33	-0.024739837
207	0x3cd8b9b7	0.026455743
208	0x3bb66ebd	0.0055674003
209	0xbc917e37	-0.01776038
210	0x3be2d072	0.0069218213
211	0x3c62c0c6	0.013839906
212	0xbc976854	-0.018482365
213	0xbb1344c4	-0.0022471407
214	0x3befa54e	0.007313407
215	0x3cce10f4	0.025154568
216	0xbc33f14b	-0.010982822
217	0xbc8f60f2	-0.017502282
218	0x3a5b6c21	0.00083702995
219	0xbc6643e7	-0.014054275
220	0x3d07d384	0.0331607
221	0xbcb42dcb	-0.021994492
222	0x3c70871c	0.01468065
223	0xbc592589	-0.013253578
224	0x3b866637	0.0041015404
225	0xb834581e	-4.299741e-05
226	0xbce8a059	-0.028396772
227	0x3a800847	0.0009768092
228	0xbcc01253	-0.023446238
229	0x3cb019b2	0.021496627
230	0x3b932bca	0.004491304
231	0x3b454934	0.0030103447
232	0xbb6336b1	-0.003467005
233	0xbd09ec8f	-0.033672865
234	0x3c4f16b0	0.012639686
235	0x3b308ce4	0.0026939446
236	0x3c94000c	0.018066429
237	0xbbbc5159	-0.005747002
238	0xbd273cec	-0.040829584
239	0xbcce040f	-0.02514842
240	0x3bbf230c	0.0058330353
241	0x399dae45	0.00030075214
242	0xbc48e541	-0.01226169
243	0xbb638768	-0.003471816
244	0x3be9fde0	0.00714086
245	0xbbe95d85	-0.007121744
246	0x3c3f6285	0.011681204
247	0x3a28a64e	0.0006433473
248	0x3cee53cc	0.029092692
249	0x3cb486cb	0.02203693
250	0x3bf67c64	0.0075221527
251	0xbc3191ea	-0.010838011
252	0xbc82a15b	-0.01594608
253	0xbc1b59c1	-0.009481848
254	0x3c8163bb	0.015794626
255	0x3c27b323	0.010235581

action_model._continuous_distribution.mu.bias f4 [2]
0	0x3b51d8dd	0.003202013
1	0x3bf464de	0.0074583134

action_model._discrete_distribution.branches.0.weight f4 [1, 128]
0	0xbab57bd7	-0.0013846111
1	0xbbf2040d	-0.007385737
2	0x3c81d759	0.015849756
3	0xbb6c9e95	-0.0036105264
4	0xbc13f32b	-0.009030144
5	0x3c4c21f5	0.012459268
6	0xbb041f9e	-0.0020160447
7	0x3be7789b	0.007063938
8	0xbc60512f	-0.013691231
9	0x3bb480ad	0.0055085034
10	0x3c20fdf2	0.00982617
11	0xbba0ac40	-0.0049033463
12	0x3bc466e9	0.005993713
13	0x3c0aa7c0	0.008462846
14	0x3bc00376	0.0058597876
15	0xbbd13ceb	-0.006385436
16	0x3c02560f	0.007955088
17	0xbc1572d1	-0.009121613
18	0xbc03dfcb	-0.008048962
19	0x3c6763ef	0.014122947
20	0xbc704563	-0.014664981
21	0xbb08e6b6	-0.0020889468
22	0x3a95d2ec	0.0011430657
23	0x3bf4241d	0.007450594
24	0x3c19f9bc	0.00939792
25	0x3bb3559e	0.005472853
26	0x3c26b3b7	0.010174683
27	0x3b42fe0c	0.0029753475
28	0xbc9a1e87	-0.018813385
29	0x3ba09d3c	0.0049015563
30	0xbc087b27	-0.008330143
31	0xbbd861da	-0.0066034617
32	0x3b615295	0.0034381498
33	0xbc552b57	-0.013010821
34	0xb92a88ab	-0.00016263376
35	0xbc018adb	-0.007906641
36	0x3bc33060	0.0059566945
37	0x3c946bcb	0.018117806
38	0xbc789233	-0.015171575
39	0xbcbf4e53	-0.023352778
40	0x3bfd5fa3	0.007732348
41	0x3c1bd89b	0.009512092
42	0x3a11c1e4	0.0005560203
43	0xbc203f6e	-0.009780748
44	0xbb6c75ba	-0.0036080913
45	0x3c1d21be	0.009590564
46	0xbac18d4f	-0.0014766845
47	0xbba0dfe6	-0.0049095033
48	0xbb9608ae	-0.0045786714
49	0xbbf34ff3	-0.007425302
50	0xbc0f93b0	-0.008763239
51	0x3c047e5e	0.008086769
52	0xbbe2ae9a	-0.006917787
53	0xbbc04dd8	-0.0058686547
54	0x3b972fe3	0.004613863
55	0xbad58f4a	-0.0016293314
56	0x3c018bca	0.0079068635
57	0x3a8bcbb9	0.0010665572
58	0x3c8b5710	0.017009288
59	0x3b832804	0.004002573
60	0xbb82f72b	-0.00399675
61	0xbc7fa28a	-0.015602717
62	0xbc16a984	-0.009195689
63	0x3c1cd6ff	0.009572743
64	0xbc4cb3bc	-0.012494024
65	0x3cae2ff6	0.021263104
66	0xbb18d147	-0.0023318098
67	0x3c643ea2	0.013930948
68	0xbba58933	-0.005051756
69	0xb4a2c327	-3.0316843e-07
70	0xbc67ef1a	-0.014156127
71	0xbb9b1ed9	-0.004733902
72	0xba42f742	-0.0007437357
73	0xbc471fdb	-0.012153591
74	0xbb06dceb	-0.0020578455
75	0xbba3dcee	-0.005000702
76	0xbbc3a9d3	-0.0059711724
77	0x3c1a1d0f	0.009406342
78	0xba125b17	-0.00055830315
79	0x3c1657b5	0.009176184
80	0xbb974bfc	-0.0046172123
81	0x3ada3f80	0.0016651005
82	0xbc88807f	-0.016662834
83	0x3c31671f	0.010827809
84	0xbc0cce0f	-0.00859405
85	0xbc12d25b	-0.008961285
86	0xbb37253b	-0.0027945775
87	0xbaa11991	-0.0012290945
88	0x3bd6c3bb	0.0065540946
89	0xbbe7ed87	-0.007077876
90	0x3b3dce7b	0.0028962183
91	0x3a6e7158	0.0009095869
92	0xbc20880f	-0.009798064
93	0xbbc102f7	-0.005890246
94	0xbaac7210	-0.0013156552
95	0xbc323ae5	-0.010878299
96	0x3c859c9b	0.016310027
97	0xbab90683	-0.001411632
98	0xbb007904	-0.001960338
99	0x3b8e11d7	0.004335623
100	0xbb277ea1	-0.0025557654
101	0xbc3be3db	-0.011467899
102	0x3bc2170d	0.005923158
103	0xbc74253d	-0.014901456
104	0x3a37e64e	0.0007015214
105	0xbb8ad15b	-0.004236383
106	0xb95e09af	-0.00021175177
107	0xbb8867c2	-0.0041627595
108	0xbb4c97f7	-0.0031218508
109	0x3b86f7df	0.004118904
110	0xbc2a0913	-0.01037814
111	0x3b75caba	0.0037504868
112	0xbc1a6757	-0.009424052
113	0x3cb644eb	0.02224966
114	0xbc058f26	-0.008151805
115	0xbc5b2192	-0.013374703
116	0xbbca7184	-0.006178083
117	0x3b1f9f7c	0.0024356535
118	0xbbd0c5a3	-0.0063712164
119	0x3c9b8bae	0.018987503
120	0x3b394fc3	0.0028276301
121	0x3b8640f7	0.0040971
122	0xbb617d92	-0.003440712
123	0x3bee9600	0.007281065
124	0xbc0e5636	-0.0086875465
125	0x3bbb5e58	0.0057180338
126	0xbc1d72f7	-0.009609929
127	0xbc298d3f	-0.010348617

onnx::Div_70 f4 [12]
0	0x3f8bccf6	1.0921924
1	0x3d367d74	0.044553235
2	0x3f93668c	1.151567
3	0x4030fe12	2.7655072
4	0x3e89b0da	0.2689274
5	0x40327e05	2.7889416
6	0x3ffecdd4	1.9906564
7	0x3e8a5c6e	0.27023643
8	0x40168746	2.3520064
9	0x401d4065	2.4570553
10	0x401dd32d	2.4660141
11	0x3f9f0da4	1.2426038
