results/Cheese/Cheese/Cheese-101274.pt (torch, 485833 bytes, 47 tensors)

network_body.observation_encoder.processors.0.normalizer.running_mean f4 [18]
00000000: f3bb 26bd 7dd1 82bb 4e40 073d 3c70 863d
00000010: e046 9fc1 d329 4abe 20a9 6abc 5435 77bd
00000020: dcfb b43a 6846 d0bd 149e 6f3c 66fb 4540
00000030: d7e0 e2bb e849 a2c1 faa2 23be 5815 eebb
00000040: 0110 a1c1 ee38 95be
-0.040706586 -0.003992258 0.03302031 0.06564376 -19.909607 -0.19742517 -0.014322549 -0.060353592
0.001380797 -0.10169679 0.014625091 3.0934691 -0.0069237757 -20.286087 -0.1598014 -0.007265728
-20.132814 -0.29144996

network_body.observation_encoder.processors.0.normalizer.running_variance f4 [18]
00000000: 05cc fe47 dae4 7c44 695c 0248 5354 0949
00000010: a30e d445 4ed8 3449 c61a 7646 32c6 dd48
00000020: 2498 f746 13af 0949 603e 0649 1587 3548
00000030: 3c32 6e49 3ee2 3b4b b9ee 8a49 b5c9 7249
00000040: acf6 174b d26e 9d49
130456.04 1011.5758 133489.64 562501.2 6785.8296 740740.9 15750.693 454193.56
31692.07 563953.2 549862.0 185884.33 975651.75 1.231315e+07 1.1381351e+06 994459.3
9.959084e+06 1.2896902e+06

network_body.processors.0.normalizer.running_mean f4 [18]
00000000: f3bb 26bd 7dd1 82bb 4e40 073d 3c70 863d
00000010: e046 9fc1 d329 4abe 20a9 6abc 5435 77bd
00000020: dcfb b43a 6846 d0bd 149e 6f3c 66fb 4540
00000030: d7e0 e2bb e849 a2c1 faa2 23be 5815 eebb
00000040: 0110 a1c1 ee38 95be
-0.040706586 -0.003992258 0.03302031 0.06564376 -19.909607 -0.19742517 -0.014322549 -0.060353592
0.001380797 -0.10169679 0.014625091 3.0934691 -0.0069237757 -20.286087 -0.1598014 -0.007265728
-20.132814 -0.29144996

network_body.processors.0.normalizer.running_variance f4 [18]
00000000: 05cc fe47 dae4 7c44 695c 0248 5354 0949
00000010: a30e d445 4ed8 3449 c61a 7646 32c6 dd48
00000020: 2498 f746 13af 0949 603e 0649 1587 3548
00000030: 3c32 6e49 3ee2 3b4b b9ee 8a49 b5c9 7249
00000040: acf6 174b d26e 9d49
130456.04 1011.5758 133489.64 562501.2 6785.8296 740740.9 15750.693 454193.56
31692.07 563953.2 549862.0 185884.33 975651.75 1.231315e+07 1.1381351e+06 994459.3
9.959084e+06 1.2896902e+06

network_body._body_endoder.seq_layers.0.weight f4 [128, 18]
00000000: 2c37 49bd 6550 2bbe 6570 0ebe a430 423e
00000010: 428b 4c3e 0de7 5f3e 5b28 42bd 7643 923d
00000020: 8ab8 adbe aa58 1d3f 0ffe cebd 4413 793e
00000030: edc4 933e fc4a 4fbe 21b4 9dbe 78c9 d6bd
00000040: e3fa 8e3d bb6d bd3d 27dc 04bf cac5 e5be
00000050: f9b8 81bd 1b7f c1bd c978 e83c c7e3 2abd
00000060: 7ed8 0e3f 4111 803e 3c80 a13e 3080 2b3e
00000070: a530 623e 8b55 64be c134 24be 01bf 86be
00000080: 72fa 293e a6b8 1b3e a73b cc3e 5324 113e
00000090: c379 08be 82d2 cabd 15c8 9bbc d046 fdbd
000000a0: 25ec 9ebe 5707 d13d 8382 5a3e 2960 f43e
000000b0: 408f 26be 0c3d 163e 4c08 b3be 79fb 79be
000000c0: 1019 963e 0e1b 373d f082 4a3e 4c8f c6be
000000d0: 0cf8 58be 984f 9abd 4d02 df3d 7fb9 a4be
000000e0: 8cf8 143e 41ac c4bd 5f67 51be 3bd9 79bd
000000f0: c2fe 08bf 1636 683e 96a6 9a3e a589 25be
00000100: 7868 7e3d 0e0a 233d a9a5 153d f76a 42bd
00000110: df08 a23d d9bd c8be a1a3 ae3e df02 ec3d
00000120: f081 a9bd befd 8abe edb0 013d e723 0ebe
00000130: bf6d d8bd 1e67 a53e c7cc af3e c4ee c8be
00000140: 1daf edbe c62b 4bbe 6393 53bd e5e3 b0be
00000150: 294e c63d e1e8 183e 073a d7be e2c0 b53d
00000160: a341 16be de3f 923e a1eb 0a3e bd56 843e
00000170: 03f8 20be dbb1 263e fbbf cebd a080 5abd
00000180: dc65 55be 7421 d53e b4ca 27be c25c 66be
00000190: 2d2a 7bbe ff10 63be 5716 163e 36de 723c
000001a0: ed73 ff3b a317 7f3e 3156 0abc 2e9d 87bd
000001b0: 0b19 863e 4f51 ac3d 6a7e b8be bcd8 f8bd
000001c0: d208 1abe 4e46 143f eda7 293e 3745 8cbe
000001d0: 1769 60bd ed0f d539 e18a 3d3c 4c24 003e
000001e0: 481e 1dbd bb43 713e 8b36 913e 3391 fcbc
000001f0: e515 03bd fc16 bb3e d4c2 e2be 7010 57be
00000200: 2545 24bd edeb a4be 6ea0 0dbf 9b8b a6bd
00000210: 79eb bb3e 2b11 b53c 41a0 3f3e ba49 673e
00000220: 84d5 11bd a40e 163d 3dc2 a43e 25c5 0bbd
00000230: 1a60 68be 750d 8b3e c29e e13d 1c02 27be
00000240: 234d d7bd 0288 033e 775f a5bd d18c 0f3e
00000250: 1595 a83d 1f0d 6dbe 9a41 9d3e 86fb de3e
00000260: 1ebc 343e 4cf1 b83d 0a25 80be 4487 7c3e
00000270: 2765 fb3d 67c5 58be 348e 983e aef5 ef3e
00000280: 1b52 413e 0a12 513e 4c27 2a3e 53f9 16bf
00000290: c8ec d33e 4dcb b13d d27b bdbe e047 563e
000002a0: f530 803e d8a7 03bf 47d3 d63e 751f c1be
000002b0: 376b 953c 150e 0abe ed59 1a3e fde4 bd3d
000002c0: 3729 393d 7c87 16be 7c4a e9be d1e3 5b3e
000002d0: 614d 8abe 81a7 e73e e6ac 34be ede8 733d
000002e0: b318 343e 80e0 de3d 5ae1 01bf a026 dc3e
000002f0: 0dc2 d6be 9d17 6f3e 1dcb babd 6857 1f3e
00000300: 2970 f43c 3f7b a1be 0644 e2bd b94e 2b3e
00000310: 12db f23d 10d4 7dbc 5843 09be f27a c0be
00000320: f2fc 453e 6758 7fbe 9a49 99bd a556 bd3d
00000330: 98ea 8e3e 84a1 66be 131d 9fbe ca45 073e
00000340: 0663 b93d 8791 70bd 8285 743e 4c20 e83d
00000350: 30fd 36be 9340 5d3d baf1 dcbd 2270 dbbd
00000360: 2a16 a9bd 2b43 4cbe 855a fdbe 445f 89be
00000370: b91a 833d 9896 9e3d ca0e ccbe 4409 dc3d
00000380: 6bdb 0a3f 8513 c5bb 4003 fdbe 1dfa 7fbe
00000390: 1818 1dbd 37b1 ac3e f7db 803e eea7 df3e
000003a0: c751 093f 23ae f7bc a49a 6e3c 6222 aabe
000003b0: b7f6 c7be 2bef eebe edd2 c0bd 1498 553e
000003c0: 5c33 9abe d40f 29bf 5d59 43bf c6bc 8e3e
000003d0: b67f 333e b81c af3e f3e5 9b3d b020 9ebd
000003e0: 1e59 80be abc5 4abe dd6d 83be 885f dfbe
000003f0: 3837 a13e aea1 f43e 27c3 393d 403c 89be
-0.04912488 -0.16729887 -0.13910063 0.18963867 0.19974998 0.21865483 -0.047401767 0.071417734
-0.33929855 0.61463416 -0.101070516 0.24323756 0.2886118 -0.20243448 -0.3080149 -0.10487646
0.069814466 0.09249445 -0.51898426 -0.44877464 -0.06334109 -0.094480716 0.028377907 -0.04172113
0.5579909 0.25013164 0.31543148 0.16748118 0.22088869 -0.22298257 -0.16035749 -0.263176
0.16599444 0.15207157 0.3988926 0.14174013 -0.13327698 -0.099034324 -0.019016305 -0.12367022
-0.3103954 0.10206478 0.21338849 0.47729614 -0.16265583 0.14671725 -0.34967268 -0.24412335
0.29315996 0.044703536 0.19776511 -0.38781202 -0.21188372 -0.075347126 0.10889111 -0.32172772
0.14547938 -0.09603167 -0.20449589 -0.060998183 -0.5351373 0.22676882 0.3020522 -0.16165788
0.062111348 0.03980451 0.03653494 -0.04746529 0.07911848 -0.39207342 0.34109214 0.11523985
-0.08276737 -0.27146715 0.03166287 -0.13880883 -0.105678074 0.32305235 0.3433592 -0.39244664
-0.46422663 -0.19840917 -0.05165423 -0.3454887 0.096828766 0.14932586 -0.4203646 0.0887468
-0.14673476 0.28564352 0.13566448 0.25847426 -0.15719609 0.16278784 -0.10095211 -0.053345323
-0.20839638 0.41627085 -0.16385919 -0.22496322 -0.24527808 -0.22174452 0.1465696 0.014823487
0.007795802 0.2491136 -0.008443401 -0.066217765 0.2619098 0.08413946 -0.36033946 -0.12150714
-0.15042427 0.57919776 0.16567965 -0.27396557 -0.05478772 0.00040638392 0.011568756 0.12513846
-0.038358957 0.23560993 0.28361925 -0.030830955 -0.032003302 0.36540973 -0.44289267 -0.21002364
-0.040105004 -0.32211247 -0.5532292 -0.081320964 0.3670309 0.022102913 0.18713476 0.22586718
-0.035604015 0.036635056 0.32179442 -0.03412356 -0.2269291 0.27158704 0.11016609 -0.16309398
-0.105127595 0.12844852 -0.08074849 0.14018561 0.0823156 -0.23149537 0.30714113 0.43551272
0.17649886 0.09030399 -0.2502826 0.24660975 0.12275153 -0.21169053 0.29795992 0.46867126
0.18878977 0.20417038 0.16616553 -0.5897419 0.41391587 0.08681355 -0.3700853 0.20925856
0.2503735 -0.51427984 0.41958067 -0.37719312 0.0182396 -0.13481934 0.15073366 0.09272192
0.04520532 -0.1470012 -0.4556464 0.21473624 -0.2701216 0.45244983 -0.1764408 0.059548307
0.17587547 0.10882664 -0.50734484 0.4299822 -0.41944924 0.23348852 -0.09120772 0.15560687
0.029838638 -0.31539342 -0.11048131 0.16729249 0.118581906 -0.015492454 -0.13404596 -0.375938
0.19334772 -0.24936067 -0.074847415 0.09245042 0.27913356 -0.22522551 -0.3107687 0.13210216
0.0905209 -0.058732536 0.23879054 0.11334285 -0.17870021 0.05401666 -0.10788293 -0.10714747
-0.082561806 -0.19947498 -0.49483123 -0.26830494 0.06401581 0.07743567 -0.39855033 0.10743955
0.54241055 -0.00601429 -0.49416542 -0.24997754 -0.038353056 0.33728954 0.2516782 0.43682808
0.5364041 -0.030234402 0.014563236 -0.33229357 -0.39055416 -0.46666846 -0.09415231 0.20858794
-0.3011731 -0.66039777 -0.7630823 0.27878398 0.17529187 0.34201598 0.07612219 -0.077210784
-0.2506799 -0.19801967 -0.25669757 -0.43627572 0.3148744 0.47779602 0.045352127 -0.2680378

network_body._body_endoder.seq_layers.0.bias f4 [128]
00000000: 5997 433c 3726 d23c 040a 0d3c 747c 263d
00000010: 432c 1c3d 56e4 2d3b 35a1 b93c e9b4 cdbb
00000020: 1ca6 0abb 49c1 bf3c 63d3 933c 1393 81bc
00000030: cf51 d83a a49d 503d ac5f 503d e15c 9bbb
00000040: 1753 923c e59b a1bc 5653 34bb 6262 153d
00000050: ae81 efbb e11a 253b 8cf5 debc 83e0 70bc
00000060: e91d a63c 2f08 403d 403a 22bc b6d8 e83c
00000070: 64f3 30bd 9be3 d13c f22c 30bc a32f 4e3c
00000080: 1ca4 3a3c 5753 fe3c 5eef 94bb 4864 7fbc
00000090: 32d5 903c 6bc1 753c 7505 81bd 4af4 e03c
000000a0: bb31 40bb 2533 0ebd c710 14bd ee9b fb3c
000000b0: 9883 81bc 5d06 823c fff9 073d 6f51 ce3c
000000c0: 5830 ecba ce57 aebc 5c67 ae3c bbc0 32bb
000000d0: 9326 b43c 737f 073c 45ca 013d e933 3d3c
000000e0: 1f95 92bc 00a8 3bba cf3a 6bbc 5c12 14bc
000000f0: 97e4 31bd eaaf de3b 2e12 753c b249 c73c
00000100: 3074 7fbb 3c5f 4e3d 0ed9 0abd c74f 05bd
00000110: fcbc 013c 4dcf ae3c 96a4 873c af64 28bd
00000120: d1a9 7cbb b82a fa3c fd81 eb3c 4c4f 5a3d
00000130: d469 883d 4b46 c1bb 3455 013d 8378 063b
00000140: edf8 e9bb 9502 b13b c4d3 703b 0dae c9bc
00000150: dafc 803c d4dd 1f3d 8cf9 423c edc4 cf3c
00000160: edf4 a33c a81a 423c 8a71 d3ba 06da 0abd
00000170: 18d8 613c 468c af3c 1e07 bb3c f263 9abc
00000180: a0eb ea3c 87bb 1538 8cc8 103c e3f6 f23c
00000190: c7ee 143c b2e8 273d 4072 073c b759 a63a
000001a0: 7613 1b3b 3b70 dbbb c7af 02bb 5545 03bd
000001b0: 9d0c 403b 7922 d73b bed7 363c e1af 17bd
000001c0: 5351 2a3d 07d8 fa3c 6577 51bd 910b 8a3c
000001d0: b93d 673b b957 013c 67db 8fbb b321 293c
000001e0: bdd9 e63c c17d 1e3d 745a 6cbc 6051 4d3b
000001f0: 87af 3d3c 2251 87bb a5fd f23c 32dd 2c3d
0.01193794 0.025652988 0.008608345 0.04064603 0.03812815 0.0026533804 0.022659877 -0.0062776697
-0.0021156138 0.023407595 0.018045133 -0.0158172 0.0016503873 0.050931588 0.05087249 -0.0047412966
0.017861886 -0.019727657 -0.0027515492 0.03647078 -0.00730916 0.0025193023 -0.027216695 -0.014701965
0.020277934 0.046882804 -0.009901583 0.028423648 -0.043200865 0.025621226 -0.010752903 0.0125846
0.011391666 0.031045599 -0.0045451364 -0.015587874 0.017679784 0.014999728 -0.06299869 0.027460236
-0.0029326517 -0.034716744 -0.036148813 0.030714002 -0.01580982 0.015872175 0.0331974 0.025185315
-0.0018019779 -0.021282103 0.02128952 -0.002727552 0.02199105 0.008270132 0.03168704 0.011548021
-0.017893372 -0.0007158518 -0.014357283 -0.00903758 -0.04343089 0.006795873 0.014957948 0.024327133
-0.0038979165 0.05038379 -0.033898406 -0.032546785 0.007918593 0.021339083 0.016557973 -0.041111644
-0.0038553367 0.030537948 0.028748507 0.05329828 0.0666081 -0.005898272 0.031575397 0.0020518608
-0.00714027 0.005401919 0.0036747316 -0.024619127 0.015745569 0.03902991 0.011900317 0.025362456
0.02001425 0.011847176 -0.001613186 -0.03389933 0.013784431 0.021429192 0.022830542 -0.018846486
0.028676808 3.5699017e-05 0.008836877 0.02965874 0.009090132 0.0409934 0.008266985 0.0012691532
0.0023662723 -0.0066967285 -0.0019941197 -0.032048542 0.0029304393 0.0065653888 0.011159835 -0.037032966
0.041581463 0.030620588 -0.051139254 0.016851218 0.0035284592 0.00789445 -0.0043901685 0.010322976
0.028179998 0.038694147 -0.014425863 0.003132902 0.0115774935 -0.004129545 0.029661963 0.042203136

network_body._body_endoder.seq_layers.2.weight f4 [128, 128]
00000000: 1dca 683d 51f1 d5bd b2bb 243d 32fc ea3d
00000010: ae10 55be e798 c8bd d019 acbd 2c4f a73c
00000020: 5825 97bd cc93 fe3c 969c 3bbd 0760 ccbc
00000030: cda7 453c dc5d 1e3d 674a bfbd 501b aebc
00000040: c80a 563d 0f18 5c3e 14bc c83c d307 05be
00000050: c425 bfbc e0b5 373d 5571 333d 0b51 9d3d
00000060: 2675 9e3d f7d2 8a3d 3d9e a7bd 24bf afbc
00000070: 7e54 06be 78f8 f9bd bbdc 69ba 2876 f4bb
00000080: a91c 093d 02a8 08bd f465 b43d a421 2cbd
00000090: e312 023c 6564 1ebe fd6e 1c3d 3824 36bd
000000a0: 24a2 8fbd e309 203d a68b b53d 76a3 b5bd
000000b0: 9728 0cbd d4bc 923d 637d 41be fa8a ed3c
000000c0: e551 173d b400 213d f71f 10be 7b04 ac3d
000000d0: 4567 e43b d691 11be 8d25 b33b f88e ba3d
000000e0: 7ccd d13a ddb9 b5bc a365 9cbc e6ac 10be
000000f0: 45c3 aa3d b81e bbbd 3e6d 4e3d 8555 0fbe
00000100: 471e 42bd 112d ad3c 855c a8bd e6fd f93d
00000110: 194a fcbd ad69 0abd 4c18 25bc e8c0 1fbd
00000120: 52b5 f8bc bc3c 80bd 513b 99bd d17a 37bd
00000130: 29e3 ef3d dcfd a33c 04b6 0f3e 26f7 ad3d
00000140: 8706 37bb 5d4a dabc f06d eb3d 0250 0cbd
00000150: 2683 b6ba a078 0bbe 2dfa 3ebd e18a 073e
00000160: 9049 c7bd 6507 103e d624 0dbe 6e67 a0bd
00000170: 27d4 6f3d e632 953d 37a2 8abc 7ab3 9fbc
00000180: 10fa 8a3b 6c04 0abd 808f b73d 233a fd3d
00000190: edf7 3f3e 59c4 873c f447 0c3e 30b5 72be
000001a0: 4f62 f0bc fba0 1abc 2f5d 6dbe e145 283c
000001b0: 2205 b5bd e366 213e 530d 94bd bf83 dbbb
000001c0: b07c 96bc eb77 733d 31f0 3d3d 5027 113d
000001d0: 3632 9c3d 90d9 283d 4ab1 803e b368 e73a
000001e0: e791 1f3e 5e29 3b3d 542e 483d b451 543d
000001f0: 56af 0cbe 0fa9 233b 7aa1 be3d 283a a3bd
00000200: 6b96 cfbd 433c fe3c 8adf 19ba e2b6 bdbd
00000210: dd8d 6f3d 61ae 4ebc 703b 2b3e 6ef5 8c3c
00000220: c8a6 933d 2e2a 31be e8db 833e d840 0fbe
00000230: 5bd0 3b3d 6917 c23d a9b3 f5bd 7265 44be
00000240: f514 aeba 7586 263d aa73 103e f1c2 d43d
00000250: 2295 d6bd c5e7 8abd 7c97 30be d663 d7bc
00000260: 665e fdbd f80d 9d3d b460 513d e067 533d
00000270: bd83 9c3d f1d3 d83d 292c 5fbc e7ce 2b3d
00000280: 174b 803e 87b5 00bd 5e9d e33d 9591 99bd
00000290: ce50 25be 88ba d5bd 2865 5abd 2f29 273d
000002a0: 1ce4 b2bc 663e e33c c959 0bbe e607 2d3d
000002b0: 3f6f bb3d ee29 09bd cdc5 fc3c 935c bd3d
000002c0: c8d4 533e fea3 fa3d 4e52 91bc 3b02 433c
000002d0: ee35 f3bd df9c 143d baed 0dbe 7c14 ae3d
000002e0: c43d d0bd 754b 403d b342 2bbe 2f4e 373d
000002f0: 750f 063e d5ae 273d 6b14 3bbd 5a4f cebc
00000300: 38a5 89bd bcca 243d 21da b33c 3dac 82bd
00000310: 5601 20be 6a8c 73be f24d c3bb 6191 f3bb
00000320: e466 0fbc 8abb 373e 6659 60bc df6c 0b3e
00000330: 2b2a 203d fb0a ccbd 14b1 073d fb9b a23d
00000340: 9e09 c6bb 3a27 0a3e 3be7 34bd e222 553d
00000350: dddb 0e3e 38a6 ec3c 0a90 583d 52f8 373d
00000360: de56 15bd 2f83 a23b b61d cb3d 13ae 28bc
00000370: 8a7b 6b3c 8ec5 36bd 22e5 bcbc c0a8 8fbd
00000380: 7f24 633d aaa9 0a3e fc3e 05bd 5e9a 5c3d
00000390: 47d7 13be 9163 393e 1a4c bdbd b573 a8bc
000003a0: 6d89 2d3d b8e6 c9bc 07de ca3d 3ea3 87be
000003b0: ec2a 69bd 89c7 963d 06e4 973d 77ff 833c
000003c0: 1d7b 343d 290c 543d 45f2 1e3d 1d73 afbd
000003d0: 69ca 433c 72f5 67bd 2de6 133c 84b0 713d
000003e0: 0dcf 1bbc 6fb1 44bd 3d0e 8a3c 65b4 2f3a
000003f0: 76de 963d 1c7f 91bd 7fb2 da3d bfba a83d
0.056833375 -0.10446418 0.040218063 0.11473884 -0.20807144 -0.09794789 -0.08403361 0.020423494
-0.0738017 0.031076334 -0.04580363 -0.024948133 0.012063933 0.03866373 -0.09340363 -0.021253258
0.052256376 0.21493553 0.024503745 -0.12991266 -0.023333438 0.044851184 0.043809254 0.07681473
0.07737188 0.067785196 -0.081844784 -0.021453448 -0.13118169 -0.12205595 -0.0008921136 -0.0074603744
0.033474598 -0.03336335 0.088085085 -0.04202427 0.007939073 -0.15467985 0.038191784 -0.044468135
-0.07013348 0.03907193 0.088645265 -0.08869068 -0.034218397 0.07164922 -0.18895487 0.028996933
0.036943335 0.03930731 -0.14074694 0.08399292 0.0069703185 -0.14215788 0.005467123 0.091093004
0.0016006674 -0.022183353 -0.019091433 -0.14128456 0.08338026 -0.091367185 0.05039715 -0.13997467
-0.047392156 0.021139653 -0.08220772 0.122066304 -0.123188205 -0.033792187 -0.010076594 -0.03900233
-0.030359898 -0.06261584 -0.07482017 -0.04479486 0.11713249 0.02001851 0.14034277 0.084944054
-0.0027927475 -0.026646787 0.11495578 -0.03425599 -0.0013924583 -0.13620234 -0.046625305 0.13236572
-0.09730828 0.14065321 -0.13783583 -0.07832228 0.058551934 0.07285099 -0.016923053 -0.01949476
0.0042412356 -0.033695623 0.08962917 0.12364604 0.1874692 0.016573118 0.13699323 -0.2370193
-0.029343752 -0.009437795 -0.23180078 0.010270567 -0.0883887 0.15761904 -0.07229104 -0.006699055
-0.018370003 0.059440535 0.046371643 0.035437882 0.076267645 0.04122311 0.2513526 0.0017655104
0.15583001 0.045693748 0.048872307 0.05183573 -0.1373876 0.0024972593 0.09308143 -0.07970077
-0.10136112 0.031034594 -0.0005869797 -0.09263398 0.0584849 -0.012614817 0.16721892 0.017206874
0.072095454 -0.17301247 0.25753713 -0.1398958 0.045853 0.094771214 -0.11997158 -0.19179323
-0.0013281392 0.040655572 0.14106622 0.103887446 -0.104776636 -0.06782488 -0.17245287 -0.026292723
-0.12371521 0.0766868 0.051117614 0.051612735 0.076423146 0.105872996 -0.013621368 0.041945364
0.2505729 -0.031423118 0.11114 -0.07498471 -0.16144106 -0.10435969 -0.053319126 0.04081076
-0.021837287 0.027739715 -0.13608469 0.04224386 0.09152078 -0.033487253 0.030856038 0.09246173
0.20686638 0.1223831 -0.017739441 0.011902387 -0.11875521 0.036282416 -0.13860217 0.08500001
-0.10168031 0.04694696 -0.16724662 0.044752296 0.13091834 0.040938217 -0.04567377 -0.025184322
-0.06720966 0.040232405 0.021954598 -0.06380508 -0.1562551 -0.23784032 -0.0059602195 -0.007433102
-0.008752558 0.17942634 -0.013693189 0.1361575 0.039102715 -0.09963032 0.03312786 0.07939907
-0.006043627 0.13491526 -0.04416583 0.05203522 0.13951059 0.028887853 0.05287174 0.04491455
-0.036459796 0.004959486 0.09917776 -0.010295409 0.014372716 -0.044621997 -0.023058478 -0.070146084
0.055454727 0.13541284 -0.03253077 0.053858154 -0.1443759 0.18104388 -0.09243031 -0.020562986
0.042367388 -0.024646148 0.099056296 -0.2649173 -0.0569257 0.07362277 0.07416539 0.016113026
0.044062722 0.05176941 0.038805265 -0.08566878 0.011950114 -0.05663056 0.009027046 0.05900623
-0.009509814 -0.048020776 0.016852492 0.0006702601 0.0736665 -0.07104322 0.10678577 0.08238744

network_body._body_endoder.seq_layers.2.bias f4 [128]
00000000: bc07 bb3c bec1 e03b 34a4 26bb 0bb8 a43a
00000010: cbe6 183c 402e 2f3c 7bba 9cbb 65b2 533c
00000020: 2f03 293d 4914 36bb a1a0 d23c 6d84 c4bb
00000030: 8c4c 2d3b 6436 e6bb 3c0d 243c 4edb e33b
00000040: ac47 fc3b 1b98 9eba 3fa7 ea3b b9c2 6a3d
00000050: bb6b 043d 26e4 553c 1d1d 2d3c db80 c93a
00000060: 1890 d13c 0c54 09bb 59b9 113d e1de 533c
00000070: 70b4 d73c 37e5 babc 76bf 9d3a cdd9 8a3c
00000080: 8912 303c 7cc7 eb3c e5aa 033d 5350 443c
00000090: 8ac8 933a a635 393c ef32 283d 47e5 823c
000000a0: 7a31 aabc fc46 7c3c 3ce4 c83c 10fd 7d3c
000000b0: 8f3f 073c 7f66 c03c 5644 20bc b310 d33a
000000c0: b8d0 08bc ed4c 313d 6c4a 313d a9bc f7ba
000000d0: c5ed 213c 2722 c23c b17e 843c b7b9 c03c
000000e0: 5245 063d 0762 043c 227a 063c 415b 793c
000000f0: 0f98 fb3c 4c22 283d 3095 d9bb 902c ae3c
00000100: 417a 973c 3dc8 093d 67dc 2b3d 3ea0 e43c
00000110: baad 4ebc 24f8 4a3b f099 ff3c 2ca3 82bc
00000120: 56c6 c03c 6204 ae3c 7685 2ebd 28e9 b3bb
00000130: f73a c13c 64d7 fb3b 2c1f dabb 25a1 083d
00000140: 96d8 8cba 9e74 95bc faa0 863c 3ca7 d53c
00000150: 26c0 493d 52af 043d 3120 593c 37bb d6bc
00000160: ebb0 c1ba 4a5e 953b 00a5 8bbb 6660 253d
00000170: 3372 7a3d 124f 2ebb 1353 c93c f197 67bb
00000180: 79fe ae3c 5147 d53b 16fb 2bbb 5a5c 41bc
00000190: d19c f63b 0312 003d 3725 96bc 049f 573c
000001a0: 43ae a1bc 6f4a dd3c ec08 13bc f9fe 88bc
000001b0: 29b7 0f3c b1dc 023d 7116 abbc 8a36 01bb
000001c0: 380a 1cbb d8cc d03b 5b63 ea3c 3093 4fbb
000001d0: 14d5 d33c 2d5a 843b de6c d83c f6d8 1cbc
000001e0: 0691 0b3c 5d96 47bc 017c 353c 2cb9 c3ba
000001f0: df0e 52bc f432 6c3c 779c 0d3c f424 693b
0.022830836 0.0068590334 -0.0025427463 0.0012567056 0.009332369 0.010692179 -0.0047829724 0.012920951
0.0412628 -0.0027783087 0.02571136 -0.0059972317 0.002644333 -0.007025527 0.010012921 0.0069536334
0.0076989736 -0.0012099774 0.0071610506 0.05731461 0.032329302 0.013054883 0.010566023 0.0015373485
0.025581405 -0.0020954637 0.035577152 0.012931556 0.026331156 -0.022814376 0.0012035209 0.016949559
0.010746607 0.028781645 0.0321454 0.011982041 0.0011274975 0.011304295 0.0410642 0.015978469
-0.020775545 0.015397783 0.024522893 0.015502229 0.0082549 0.023486374 -0.009781918 0.0016102999
-0.008350544 0.043286253 0.043283865 -0.001890083 0.009883349 0.023697926 0.016173692 0.023526056
0.032780953 0.008080012 0.00820783 0.0152195105 0.030712156 0.041048333 -0.006640099 0.021261483
0.018490912 0.033638228 0.04195824 0.02790844 -0.012614662 0.0030970657 0.031201333 -0.015946947
0.023532074 0.021242324 -0.042607747 -0.005490441 0.023587687 0.0076855887 -0.006656548 0.033356804
-0.00107457 -0.018244084 0.016434181 0.02608072 0.049255513 0.03239376 0.013252304 -0.026212318
-0.0014777457 0.0045583593 -0.004261613 0.040375136 0.061144065 -0.0026597423 0.024575746 -0.0035338367
0.021361576 0.0065087457 -0.0026242188 -0.0118018035 0.007526018 0.031267177 -0.018328292 0.013160471
-0.019736415 0.027013032 -0.008974295 -0.016723143 0.008771696 0.03194875 -0.020884724 -0.0019716346
-0.0023809802 0.0063720755 0.02861183 -0.0031673424 0.02585844 0.00403907 0.0264191 -0.009573212
0.008518463 -0.0121818455 0.011076928 -0.0014932505 -0.012820928 0.014416445 0.008643261 0.0035575004

action_model._continuous_distribution.log_sigma f4 [1, 2]
00000000: 3a98 ad3d cd67 b63d
0.084763005 0.08906517

action_model._continuous_distribution.mu.weight f4 [2, 128]
00000000: f787 aa3d 9a90 9abc 7d09 313b 216e af3c
00000010: d5a1 973d 9e1a 873c 362a b13d 5c78 7e3d
00000020: 3f1b d8bc 7ac0 413d 8a62 97bd 00c6 d8bb
00000030: 251c 8bbb dfe9 713d f4c4 60bc c979 9d3d
00000040: 1546 373d af9f f93a 50bb aebc d599 b2bd
00000050: 3940 89bd ead2 d03a 997c 9cbb 6968 8d3d
00000060: 0d94 02bc b726 653d 868f 86bd e5b5 08bd
00000070: f418 58bd 0585 463d 6527 003d f6d1 75bd
00000080: 72c6 8d3d a29e 68bd ad15 9fbd fe8b 8bbd
00000090: 7716 2e3d afc7 7d3d b9e8 9abd 1ba3 3fbc
000000a0: 05c3 fa3c 2986 7fbc 7111 ccbd 117b ebbc
000000b0: 39d1 57bc 8a00 20bd 2b75 7f3d 2d4f 85bb
000000c0: 3f75 8f3d acbc a9bd 273b b0bd ca77 103d
000000d0: 77cc b8bc a1dd 693d 7f0c 7a3b 1396 1bbd
000000e0: 98f6 e63c 2119 a03d 12fe 323c 2b1e f3bc
000000f0: 9655 74bd 29e8 86bd 38d1 0c3d c3c4 1ebd
00000100: d9fe 6ebc f6e2 12bd 881d 86bd 8982 5fbd
00000110: f7b7 483d 2eed 8d3d 8841 95bd bcf0 653d
00000120: be31 92bd 1073 aaba 1046 00bc 7fb3 0d3d
00000130: 8d6e c93a cca4 5e3d 34b3 c53b 60d5 40bd
00000140: 531d 73bc acab 853b bd59 42bd 1259 85bd
00000150: f9fc ccbd 7eaa 94bd 514f b3bc 7767 033c
00000160: 0604 49bc c2f3 fdbb 1d93 0cbc 7afd 3b3d
00000170: 89de b0bd b879 703d 6eb3 29bd 1026 ec3b
00000180: 00ef d4bc ecc2 5d3d 2cf5 a23d e82c 0c3d
00000190: 0bf0 6abc 3d63 aebc f64b 3b3d 9fec 4ebd
000001a0: 73af 083d f749 93bd cb30 8d3d f157 253d
000001b0: 4085 f7bc 63f4 93bd 109e 9a3c 8960 8f3d
000001c0: 8955 a63d 3208 5a3c e429 07bd 9b72 8a3d
000001d0: 0d15 80bd b68a e0bc 8149 21bd 52b6 423d
000001e0: bff6 09bc 5e3a 5c3d 3871 c6bc c443 d43c
000001f0: b36c 183c 3b35 b8bc 25eb aeba 4a77 b63c
00000200: 1eec 64bd be0d 803d 03a2 5ebd 91d9 ccbc
00000210: f31b 09bc 3981 7abd 1c5f 403b ea68 99bd
00000220: ec76 5abd 5155 d6bb f7e0 253d ea87 3cbd
00000230: c664 383d bd02 4e3a 39bd 25bd 5628 89bd
00000240: d08f 3d3d 3a4d 5cbd af01 9c3c 8dce 07bb
00000250: 92d1 ed3c 235f 9cbd f2ca 6c3d 48db 453c
00000260: 2fb8 74bd b5df 9f3d 03bb 173c 84b6 ec3c
00000270: af4e 8c3c 5be1 f6ba 5c24 753d bd82 943c
00000280: ce82 f53c dbbc 033d 336b eabc 54ec 383c
00000290: d4f3 81bd c1ca 8cbd 2d55 583b b7c1 51bd
000002a0: 8216 6f39 3b6a 97bd 9636 5b3c 142f 92bd
000002b0: 72ec 583d 9ac9 bf3d a9a3 6638 b80a fc3c
000002c0: 3443 f5bc c64a 003c ea44 41bd ea2c 173d
000002d0: 587d e039 983d 9e3d 1877 8b3d 2d9e 7bbd
000002e0: 0757 aabd 7078 d9bc ce35 a7bd 2a75 693d
000002f0: 2078 073d d089 11bc 96f5 17bd b33e 01bd
00000300: 807e 3f3d f13e c5bd 2cda 6bbd 6e71 d4bc
00000310: 609e 303d 2fa7 41bc 0483 5a3b b4f2 d53c
00000320: 64ca cf3c a123 983d 7ae2 c83b ca71 50bd
00000330: 71c9 d2bd f552 973d 925b 2f3d eed1 77bd
00000340: 02e8 c33c 4fbc c139 70dd 643d 316f 093d
00000350: 4273 a53b db4f 2a3c 6cb8 43bd 5e4f 88bc
00000360: f9f9 993c e2e3 543d 4435 a8bb 1363 e1bd
00000370: c3da 5d3d b4fa e63c c3e4 99bd 5a1b 41bd
00000380: c18d 7dbb 79ce 653d 30bc 1a3c bc18 163d
00000390: dfed 73bd d321 853d 70ca 1b3d 5d6f a23c
000003a0: bb46 a8bc 05a2 e9bc 3023 05bd d49f 3bbc
000003b0: 5953 d1bc add4 a13c ec1c ee3c 0fec 453d
000003c0: b729 f1bb 6daf 8f3d 1f23 98bd 2a09 0a3d
000003d0: 7c46 5d3c 3d31 0aba 7b0e 13bc ec2a ed3c
000003e0: b906 07bd 665b b3bc fcf5 ecbc 83b4 553d
000003f0: 8376 c83c 36f2 2fbd 59de 183d 3eec 7dbd
0.083267145 -0.01886778 0.0027013712 0.021414818 0.07403914 0.016492184 0.08650629 0.062126502
-0.02638018 0.0473027 -0.07391842 -0.0066154003 -0.0042452984 0.059060927 -0.013718832 0.07689244
0.04474457 0.0019044782 -0.021329552 -0.087207474 -0.067017026 0.0015931998 -0.0047755954 0.0690468
-0.007969868 0.055945124 -0.06570344 -0.033376593 -0.052758172 0.0484667 0.03128757 -0.060014687
0.06922616 -0.05679191 -0.07767806 -0.06813811 0.042501893 0.06195801 -0.075639196 -0.011696602
0.03061057 -0.015595951 -0.09964264 -0.028745206 -0.013172441 -0.039063014 0.0623676 -0.0040682764
0.07004785 -0.082879394 -0.086050324 0.03527049 -0.022558434 0.057096127 0.003815442 -0.03798492
0.028193757 0.07817293 0.010924833 -0.029677471 -0.059651934 -0.0658725 0.034379214 -0.038761865
-0.014587128 -0.035860978 -0.065486014 -0.054567847 0.049003568 0.06930004 -0.0728789 0.056137785
-0.07138394 -0.0013004262 -0.007829204 0.03459501 0.001536803 0.05435638 0.0060333256 -0.04707849
-0.014838534 0.004079303 -0.047448862 -0.065111294 -0.10009188 -0.07259081 -0.021888407 0.008020273
-0.012269026 -0.0077500055 -0.008579996 0.04589603 -0.08636195 0.05870983 -0.041430883 0.007206686
-0.02599287 0.05414097 0.07956919 0.034222513 -0.014339457 -0.021287555 0.04572674 -0.05051863
0.033370446 -0.07191842 0.06894072 0.04036707 -0.030214906 -0.072243474 0.018874198 0.070008345
0.08121783 0.013307618 -0.032998934 0.067601405 -0.06254015 -0.027409893 -0.03937674 0.047537155
-0.008420645 0.0537666 -0.024223909 0.02591122 0.00930326 -0.02248632 -0.0013345225 0.022273678
-0.05588924 0.06252621 -0.054353725 -0.025006087 -0.00836848 -0.061158393 0.0029353565 -0.07490714
-0.05333607 -0.006540932 0.040497746 -0.046028055 0.04501798 0.00078586844 -0.04046366 -0.066971466
0.04627973 -0.053784586 0.019043772 -0.002072248 0.029030595 -0.076353334 0.05781073 0.0120762065
-0.059745964 0.078063406 0.009260896 0.028895624 0.017127363 -0.0018835472 0.059849128 0.018128747
0.0299696 0.03216253 -0.02861557 0.011286814 -0.06345335 -0.0687461 0.0033009753 -0.05121013
0.00022801201 -0.07393309 0.0133797135 -0.07137886 0.052959867 0.09364624 5.4988694e-05 0.03076683
-0.029939272 0.007830327 -0.047184862 0.036908068 0.00042817998 0.07726592 0.06809825 -0.061430145
-0.083173804 -0.026546687 -0.08164559 0.056996502 0.033073545 -0.008882955 -0.037099443 -0.031553935
0.0467515 -0.09631146 -0.05758111 -0.025932994 0.04311979 -0.011819645 0.0033342252 0.026116706
0.025365062 0.07428671 0.0061305137 -0.050889768 -0.10292328 0.0738887 0.042811938 -0.06050294
0.02391434 0.0003695213 0.05587524 0.033553306 0.00504914 0.010395016 -0.0477833 -0.016639408
0.018795954 0.05197514 -0.005133303 -0.11005225 0.054163706 0.028195716 -0.07514336 -0.047145225
-0.0038689228 0.05610511 0.009444281 0.036644682 -0.059553023 0.06500592 0.038034856 0.019828493
-0.02054154 -0.02851964 -0.03250426 -0.01145168 -0.025552439 0.019754732 0.029066525 0.048320826
-0.007359709 0.07015882 -0.07428574 0.033700146 0.013505574 -0.00052716193 -0.00897562 0.02895113
-0.032965396 -0.021894168 -0.028925888 0.052174103 0.024470573 -0.0429556 0.037321422 -0.061992876

action_model._continuous_distribution.mu.bias f4 [2]
00000000: 2dcb 99bc bcd7 fc3a
-0.01877364 0.0019290368

action_model._discrete_distribution.branches.0.weight f4 [1, 128]
00000000: caa2 f9bb 6317 a93b 857d 4c3b bd45 5cba
00000010: 36c0 09bc 0f32 1d3b 4860 d6ba 66aa a6bb
00000020: cb4d e93a 9f5d a2bb a0a2 813c 73e7 db3b
00000030: 0366 1b3c 054b 00bc 6dc2 653b be72 893c
00000040: a3cb a53b a043 4b3b c61a ccbb 7087 ecba
00000050: 7544 57bc 3be6 273c c7c9 483c b496 0dbb
00000060: b7f4 083b 1408 03bc 865b c03a 875d bc3b
00000070: c755 bd3b 7d27 26bb b603 84bb d373 34bb
00000080: db1a 723a 2b30 c2b8 3871 073c 55c3 8e3a
00000090: 003f 6fbb ddb5 273c e4cd 08bc ab27 433c
000000a0: 338c 1abc 02e6 eebb 4bb0 e83b 3e5e b5bb
000000b0: 4faf 233b 323a ddbb d838 dab9 cf3f 06bb
000000c0: 2822 6dbb 204b fd3b 725b ee3a 8144 333c
000000d0: bbb2 b73c 4bcc a6ba c3d2 a23b 2bec ecbb
000000e0: 505d bd3a e35f 8fbb 60eb db3b 7319 90bc
000000f0: 2a71 513c 0d07 f53b 7602 9ebc 0b45 b43a
00000100: d44d 43bc 98b5 46bb fd8b b5bc eb58 5bbc
00000110: 364b 8f3b 06e6 af3b 4a60 a139 f009 523c
00000120: 93b2 903a 08d3 6dbc 666e 093c 3587 07bb
00000130: 5368 f0bb ed64 363c f5a0 bebc 6139 953c
00000140: e5b9 6dbc 1029 f3bb 12ce b53b 14bd c7ba
00000150: b77e 003c 4a7a 863b b7c2 433b 061f 103b
00000160: 918f 4ab8 8232 debb 9447 14bc 7d2a f7bb
00000170: db3a 27bc 1b8a 95bb 0045 afba 06a6 3c3c
00000180: f597 d93c 18f8 143c 5188 3fbb 63f5 493c
00000190: 81d8 103c b7e1 13bb b298 9d3a 1bee 123b
000001a0: 9e95 ae3b 3d58 00bb 4773 b13b 0720 13bb
000001b0: 9d45 e33b 6a22 feba 00ac 13bb f927 85bc
000001c0: 80fc 52bc df21 9cb9 5407 a53b 370a 913b
000001d0: d8b2 5b3c 35da d43b 8977 2dbb 11b5 9bbb
000001e0: 9234 6f3c 60e3 74bc 476b 93bb a5f3 663b
000001f0: 9ce0 933b fd57 aabb 3fa8 54bb 3292 093c
-0.007618283 0.0051602586 0.0031202745 -0.0008402726 -0.008407643 0.0023986136 -0.0016355598 -0.005086231
0.0017799673 -0.004955008 0.015824616 0.0067109405 0.009484771 -0.007830386 0.0035058514 0.016778346
0.005059676 0.003101565 -0.0062287776 -0.0018045735 -0.01313888 0.010247762 0.012255139 -0.0021604719
0.0020897815 -0.007997531 0.0014675714 0.005748454 0.0057780477 -0.0025353127 -0.0040287627 -0.0027534857
0.0009235569 -9.259613e-05 0.00826674 0.0010891954 -0.0036506057 0.010236231 -0.008349869 0.011911313
-0.00943284 -0.0072906027 0.007101094 -0.005534916 0.0024976318 -0.006751322 -0.00041622552 -0.002048481
-0.0036183689 0.007729903 0.0018185212 0.010941626 0.022424093 -0.0012725679 0.0049689724 -0.007230302
0.0014447365 -0.0043754443 0.0067114085 -0.01759026 0.012783328 0.007477647 -0.019288283 0.0013753487
-0.011920411 -0.003032064 -0.022161478 -0.013387899 0.0043729795 0.005367997 0.00030780054 0.012819752
0.0011039547 -0.014515646 0.008388137 -0.0020679955 -0.007336655 0.011132461 -0.02327011 0.018215837
-0.014509653 -0.0074206665 0.005548247 -0.0015238845 0.007842711 0.0041039335 0.0029870698 0.0021991148
-4.829426e-05 -0.0067809233 -0.009050269 -0.007542907 -0.010206903 -0.0045635826 -0.0013372004 0.011514192
0.026561717 0.009092353 -0.0029225538 0.012326571 0.008840681 -0.0022564956 0.0012023656 0.0022419754
0.0053278944 -0.0019583844 0.0054153535 -0.002244951 0.006935789 -0.0019388918 -0.002253294 -0.016254412
-0.0128775835 -0.00029779875 0.005036274 0.0044262665 0.013409339 0.006495739 -0.0026468954 -0.0047518094
0.014599936 -0.014946789 -0.0044988724 0.0035240438 0.0045128595 -0.0051984773 -0.0032448915 0.008396672

exp_avg f4 [128, 18]
00000000: e2d7 7a3a 2c16 c139 8613 1d39 85a7 6839
00000010: 6f37 3238 ab08 49ba 9254 583a d9c3 0ab8
00000020: 1a12 a1b8 2221 dab6 2f91 fbb8 2c5b a235
00000030: b702 bdb9 61aa 16b8 8090 c6b9 923f 1a3a
00000040: d05a 0bb8 2caa bdb9 e07e 60ba 5ec9 05ba
00000050: 6133 aeb9 b4e0 2c38 1e22 54b7 c5ac 8939
00000060: bfd7 17ba d424 1e37 2103 8438 2612 0f39
00000070: 58c1 deb8 cf5d e338 b048 033a 16ea 2537
00000080: 739c e338 8ea7 5fb9 0144 4137 1447 3339
00000090: 43a1 1bba 30f2 a539 b182 463a ccc4 013a
000000a0: f107 1b38 e305 b5b9 7d4d 4eb9 6c16 ebb7
000000b0: 014f 4b39 fb4a b839 6e79 ceb9 2cfd 88b7
000000c0: 5b79 ff39 286f 07b8 b12b 91b9 6713 423a
000000d0: 2231 e9b7 0fd4 40b9 24e2 433b db00 da3a
000000e0: 2fc6 96b8 f631 62ba 742c d9b6 dfbd fd38
000000f0: 836f ea3a 16cc 2737 ca3e 4ab9 11f3 28ba
00000100: 8783 8f3a 7105 1eba ae83 f9ba 821e a136
00000110: bb4a bd39 a957 25ba 37bc bab6 e19a 81b7
00000120: 3814 01bb f7b7 d7b9 b3d5 843a 7c88 3539
00000130: 1c82 4e37 58f5 c639 0053 8fba af7a 39b7
00000140: 4105 cf39 d6be 563a 7737 77ba c9f0 91b8
00000150: cd3a 563a b444 53b7 cfe2 ef38 b9c4 9039
00000160: a7be 9bb6 5a45 9739 9edb 2cb9 f9d3 e4b8
00000170: 3be0 8a39 278d f1b7 bc3b f636 6765 d238
00000180: b8b4 b7b8 e806 dbb6 0424 4139 1dd5 3d39
00000190: 4627 2ab9 2ed3 a3b7 5997 7836 abb4 e7b6
000001a0: 735f 9038 0d7f 2238 c98d 94b6 b41f 8838
000001b0: beb5 8dba 0a86 8cb9 ed8c d138 660e c5b9
000001c0: a564 b4b7 17e9 043a b8f8 13ba d42d a737
000001d0: 8136 8db8 c346 8039 d801 cab9 ebb3 8fb9
000001e0: b46d e938 d1bd 9737 87d4 5739 5a2a 9eb9
000001f0: 8566 ac37 e8cf d239 3ecb d3b9 1ed4 a4b9
00000200: 140b 4fb9 38be e7b8 a1cb d3b7 213a 053a
00000210: 32fe 07ba 439d a337 e7fa b5b7 45a1 19b8
00000220: e9fb 0339 16cf e4b8 29f2 0839 bf2d b737
00000230: efc2 9839 3c30 ceb9 e185 a837 6fee 7b39
00000240: 7fe6 f3b8 2abf 04b8 6ca8 4d39 7d3a 4f39
00000250: 7681 f5b6 a9a5 8337 370a d3b8 2d44 ae36
00000260: bfef 2139 b201 f337 f41f c1b6 29f7 a137
00000270: b2aa 4239 b6b9 a636 38e1 82b7 e750 2e39
00000280: 485c e136 d2d5 72b7 7063 75ba e846 a0b9
00000290: 222c 31ba efaf 6d39 c118 6937 b605 03b9
000002a0: b43c 2dba 5240 73b7 c8a5 02b8 ffb6 9539
000002b0: d241 7a39 2bf3 b139 7fbd 0a3a 874e 4ab7
000002c0: 0e26 18b9 3072 af38 f133 44b7 5566 96b9
000002d0: 51ad 9a3a 1e59 2e3a ef10 153a 5f61 7cb8
000002e0: 4cfb 7d38 f1a9 5cba ddef 503a 82db 3bb8
000002f0: 3f0b 9bb9 d488 3cb8 7477 6db9 1ff4 08b9
00000300: 3f4d 4fba 589e 59b8 b5a1 67b9 4a59 4e3a
00000310: 66a4 56b8 d839 1fba 8090 7639 00fd 3e39
00000320: cba8 e939 e4a4 b3b6 8717 f735 108e 11b7
00000330: 2546 9139 27c9 5935 18f2 9138 bb9f 2639
00000340: 1f34 58b9 e7ab 58b9 6a93 14b9 2409 ecb5
00000350: c75d 3037 b727 f138 3b6b 40b5 d0d4 f338
00000360: 7593 603a e93e ca39 5c57 8eb9 931e dd39
00000370: cdf5 1f38 f083 f8b9 4d81 f039 7f81 10b8
00000380: b430 a8b8 39ef aab9 d118 cd39 bc51 8339
00000390: a1a7 82b8 8507 08b8 1dff 07b9 4373 ae39
000003a0: 9dd1 0fb8 7930 c0b9 4d96 533b 0116 013b
000003b0: abf6 943a bb9d cb39 606d 9e37 4592 bcba
000003c0: 955b 073b edb5 3eb7 670b 34b9 7cc7 d239
000003d0: 8e82 07ba 3576 0aba 1366 bdba d111 9db7
000003e0: 87e5 fcb9 455a 8f3a f2b6 85b7 13a1 1cba
000003f0: e2a6 4fbb 8ede 43ba 70a5 b0b9 291f ae3a
0.0009568912 0.00036828348 0.0001497996 0.0002218765 4.2490134e-05 -0.0007668833 0.0008252348 -3.308416e-05
-7.68045e-05 -6.5007634e-06 -0.00011995655 1.2096475e-06 -0.00036050912 -3.5921465e-05 -0.00037873164 0.00058841065
-3.322476e-05 -0.00036175677 -0.0008563828 -0.00051035534 -0.00033226146 4.1217267e-05 -1.2644128e-05 0.000262594
-0.00057923415 9.426109e-06 6.294833e-05 0.00013644304 -0.00010621798 0.00010841677 0.00050080847 9.889269e-06
0.000108533444 -0.00021329356 1.151953e-05 0.00017097249 -0.00059368106 0.00031651696 0.0007572575 0.00049502845
3.6962276e-05 -0.00034527396 -0.00019674558 -2.8024624e-05 0.0001938902 0.0003515108 -0.00039381854 -1.6330356e-05
0.00048727807 -3.229003e-05 -0.00027689108 0.0007403404 -2.7798644e-05 -0.00018389545 0.002988943 0.0016632335
-7.189472e-05 -0.00086286606 -6.472279e-06 0.00012099346 0.0017886016 1.0001493e-05 -0.00019287612 -0.0006444911
0.0010949232 -0.00060280325 -0.0019036436 4.8017255e-06 0.00036104568 -0.0006307313 -5.565143e-06 -1.545012e-05
-0.001969589 -0.0004114506 0.0010134488 0.0001731235 1.230885e-05 0.00037948298 -0.001093477 -1.1055424e-05
0.0003948603 0.0008191889 -0.0009430567 -6.9589885e-05 0.0008172214 -1.2592576e-05 0.000114386545 0.0002761239
-4.641555e-06 0.00028852635 -0.00016485012 -0.0001091137 0.00026488476 -2.8795168e-05 7.3383253e-06 0.00010032468
-8.7597815e-05 -6.5275126e-06 0.00018419331 0.00018103835 -0.00016227094 -1.9529452e-05 3.7042976e-06 -6.905369e-06
6.884234e-05 3.8742135e-05 -4.4272497e-06 6.4908905e-05 -0.001081161 -0.00026802748 9.992146e-05 -0.00037585496
-2.1504538e-05 0.00050701335 -0.0005644667 1.9929292e-05 -6.733556e-05 0.00024466784 -0.00038529816 -0.00027409135
0.000111307396 1.8088993e-05 0.0002058317 -0.00030167663 2.0551737e-05 0.00040209224 -0.00040396483 -0.00031438557
-0.00019745185 -0.00011050369 -2.5247982e-05 0.0005082209 -0.00051877194 1.9504345e-05 -2.1693717e-05 -3.6628237e-05
0.00012586977 -0.0001091046 0.00013060182 2.1836602e-05 0.00029136936 -0.0003932732 2.0089503e-05 0.00024026049
-0.00011630076 -3.1649288e-05 0.00019613066 0.00019762847 -7.31664e-06 1.5693558e-05 -0.00010063167 5.193541e-06
0.00015443469 2.8968647e-05 -5.755568e-06 1.9307789e-05 0.0001856487 4.968805e-06 -1.5602083e-05 0.00016624072
6.7162655e-06 -1.4474108e-05 -0.00093608256 -0.00030570407 -0.00067585905 0.00022667622 1.3893646e-05 -0.00012495261
-0.0006608472 -1.4498904e-05 -3.114881e-05 0.00028555837 0.00023866378 0.00033941245 0.00052925193 -1.2058422e-05
-0.00014510026 8.365919e-05 -1.1694604e-05 -0.00028686473 0.001180092 0.0006650853 0.0005686422 -6.0172166e-05
6.055394e-05 -0.0008417657 0.0007970313 -4.4788707e-05 -0.00029572283 -4.4950124e-05 -0.00022646581 -0.00013060913
-0.0007907934 -5.18843e-05 -0.00022090117 0.00078715815 -5.1174684e-05 -0.0006073988 0.00023514219 0.00018214062
0.00044566984 -5.3538115e-06 1.8409781e-06 -8.67575e-06 0.00027708817 8.1131515e-07 6.959232e-05 0.00015890498
-0.00020618782 -0.00020663404 -0.00014169296 -1.758603e-06 1.0512252e-05 0.00011499173 -7.1681615e-07 0.00011626782
0.00085668947 0.00038575314 -0.00027149438 0.00042175184 3.8137474e-05 -0.00047400547 0.00045872704 -3.4452878e-05
-8.019936e-05 -0.00032603162 0.00039119137 0.00025047164 -6.2301064e-05 -3.243193e-05 -0.0001296964 0.00033273743
-3.4289074e-05 -0.0003665721 0.0032285631 0.0019696953 0.0011365017 0.00038836696 1.8886e-05 -0.0014386853
0.0020653952 -1.136724e-05 -0.00017170385 0.0004020295 -0.00051692955 -0.00052818964 -0.0014449976 -1.8724155e-05
-0.00048236197 0.0010936937 -1.5940026e-05 -0.00059749297 -0.0031685163 -0.0007471823 -0.00033692596 0.0013284433

exp_avg_sq f4 [128, 18]
00000000: 0920 0537 ae1c 5a36 dc80 d836 066b 3437
00000010: e937 4633 0c36 8136 4caa 1737 39f0 0f33
00000020: a392 5436 a5d2 cb36 9994 c536 2a79 cd36
00000030: c93d 3237 25d7 1b33 91e7 7e36 97bb 5537
00000040: f3b5 f932 3b33 7636 6887 8336 436f da35
00000050: 7b83 1636 e01a 9536 c8ac b432 4319 3036
00000060: 51fc 2b36 5895 8632 1b7b 6c35 eb75 e935
00000070: eea9 fc35 8abc 1a36 d30b 8c36 f9b6 8f32
00000080: e0c0 2236 d46b 9336 1c75 6332 8bb9 1036
00000090: 915d b036 e230 3f36 aa37 3b36 806b d636
000000a0: 264e f332 2ebc 8536 38f3 4336 317d b832
000000b0: 295f 6b35 ead4 fe35 ba1b 1a36 5150 5036
000000c0: 54d2 de36 b272 bc32 38e1 4136 a4e2 c436
000000d0: e304 9632 66e5 3e36 a390 3c38 a4f2 a837
000000e0: a1f3 e937 2325 8338 066d 8234 1f0b 2838
000000f0: f846 cc37 2933 3d34 26ec ee36 4a71 d837
00000100: bc95 a537 6ff8 c937 d505 6838 6359 4934
00000110: 2822 0438 cf59 5338 efc6 1e34 5a23 e237
00000120: 4821 0938 ff03 8737 2217 b037 aead 4238
00000130: 33d3 4934 34da cf37 98b9 b137 b287 1634
00000140: 6932 eb36 dfc9 7537 b8f5 5e37 c532 af37
00000150: d46e 3938 792f 1d34 7b76 9f37 0e19 4438
00000160: d5a4 f833 6c87 9637 95bf 2036 3371 3a36
00000170: 366e 1936 7950 8436 1170 a732 146b e335
00000180: dde3 2036 335d 8432 6457 6435 a533 1a36
00000190: d27b 1336 3fa3 3136 1770 8036 18a3 8332
000001a0: a6cd dc35 f4cd 8b36 4ebc 5032 205e c935
000001b0: fce5 ea36 4ed7 7636 6c62 c136 27cb 3c37
000001c0: 4eb4 4c33 e771 1337 078d a836 3808 1533
000001d0: 08c2 e635 6179 6636 fbf0 6036 9fb3 9636
000001e0: eca3 1437 29b5 1d33 273e d336 38e6 2e37
000001f0: 550a f932 aeac be36 ecae a336 1e55 0036
00000200: 3d77 3436 cb3b ba36 99c8 cf32 8065 0336
00000210: 2ecd 7e36 49b2 9a32 fa31 a235 22ea 3a36
00000220: f3e7 3336 34d4 4f36 8a22 b436 5e48 a332
00000230: 9682 1a36 52f6 cc36 b1a8 8132 ea9a e635
00000240: 787c 9f35 0edb 2235 84d6 8435 e683 d135
00000250: ede0 fb31 f6fb 1b35 5a59 9435 8054 be31
00000260: e048 fb34 0aca 5835 05ed 6735 fe01 8935
00000270: 5a11 f535 414c c531 f360 2e35 0c88 fb35
00000280: 5200 9d31 a12b 2135 6acf 9736 d956 1536
00000290: a818 4136 b462 c236 3142 d632 b90e 6f36
000002a0: 44bf 3e36 7ba6 9b32 8eaf 7335 3dfc 1836
000002b0: cb13 f135 46e3 1e36 7136 af36 998a a832
000002c0: 6e2c 3536 c254 a636 2ebe 8632 5113 3636
000002d0: 77e5 af37 3eaf a237 f055 8737 440c e437
000002e0: a8b7 0634 85e8 5037 e1b3 8237 f2f0 ce33
000002f0: 84da b536 cd14 8937 0cdb 9037 e958 9937
00000300: b874 f337 98c4 cf33 7f10 5837 d193 de37
00000310: 6010 a533 f075 2d37 afa9 e235 f773 d735
00000320: 0f47 bc35 f85c 2a36 56ba 2c32 7fa6 9535
00000330: b429 b935 5938 fc31 c2b3 eb34 30eb 3435
00000340: 86ff 4c35 b488 8c35 368a 1a36 f02b 0a32
00000350: f307 7235 cd41 3936 4d08 de31 4626 5f35
00000360: 81bc ff36 bd8f b436 8c06 ba36 42c4 3337
00000370: 91f8 4b33 3ad4 eb36 7de0 9936 12b8 1733
00000380: 20ea c435 d890 b336 c63e ab36 8bef ac36
00000390: 095e 1d37 b343 1f33 6fd7 cf36 077a 0d37
000003a0: eeb4 fb32 0a83 a536 be26 1d38 8433 3937
000003b0: 0083 aa37 68b2 5038 8b95 3d34 1861 ad37
000003c0: 2709 b437 e0af 0534 730b df36 435b 6237
000003d0: ae7d 5c37 d9ef 7e37 cc3a 2a38 1e9c 1234
000003e0: b4b3 9337 6431 3538 6f02 e833 5125 7637
000003f0: 48e0 e137 db91 6737 22d8 5437 d514 0838
7.9348765e-06 3.2501225e-06 6.452303e-06 1.0753754e-05 4.6151317e-08 3.8507915e-06 9.039952e-06 3.3513263e-08
3.1675816e-06 6.0743937e-06 5.8883566e-06 6.1235814e-06 1.0624012e-05 3.6284423e-08 3.7983739e-06 1.2739466e-05
2.9070156e-08 3.6686677e-06 3.9198676e-06 1.6274647e-06 2.2428273e-06 4.4436747e-06 2.103333e-08 2.6240748e-06
2.5627853e-06 1.5667567e-08 8.8095993e-07 1.7394171e-06 1.8824919e-06 2.3057532e-06 4.1737017e-06 1.6730597e-08
2.425215e-06 4.3934942e-06 1.3239767e-08 2.1565672e-06 5.2561013e-06 2.8489671e-06 2.7897572e-06 6.3902116e-06
2.8324461e-08 3.985616e-06 2.9198836e-06 2.147735e-08 8.76828e-07 1.8986441e-06 2.2963927e-06 3.1041166e-06
6.640601e-06 2.1938238e-08 2.8890336e-06 5.8676396e-06 1.746452e-08 2.8445734e-06 4.4957396e-05 2.0140149e-05
2.7889213e-05 6.253484e-05 2.4293712e-07 4.006468e-05 2.4351742e-05 1.7620609e-07 7.120444e-06 2.580196e-05
1.9739258e-05 2.4076753e-05 5.5318542e-05 1.8752102e-07 3.1503063e-05 5.038996e-05 1.4787268e-07 2.6957761e-05
3.269434e-05 1.6095115e-05 2.0991607e-05 4.6414956e-05 1.8796418e-07 2.4777932e-05 2.1186468e-05 1.4019204e-07
7.0094143e-06 1.465014e-05 1.3289442e-05 2.0885267e-05 4.4210654e-05 1.4639035e-07 1.9009449e-05 4.6753375e-05
1.1578383e-07 1.7944454e-05 2.3953373e-06 2.778205e-06 2.2862928e-06 3.943275e-06 1.949232e-08 1.6943982e-06
2.3974492e-06 1.5409205e-08 8.506379e-07 2.297785e-06 2.197678e-06 2.6470077e-06 3.8277462e-06 1.5324574e-08
1.6451129e-06 4.166499e-06 1.2150009e-08 1.5003061e-06 7.000517e-06 3.678218e-06 5.763306e-06 1.1252973e-05
4.7661437e-08 8.788403e-06 5.023208e-06 3.469924e-08 1.7192806e-06 3.4343323e-06 3.351887e-06 4.491259e-06
8.8596535e-06 3.6719175e-08 6.2955255e-06 1.042481e-05 2.8992114e-08 5.682544e-06 4.878142e-06 1.912303e-06
2.6891496e-06 5.550193e-06 2.4189193e-08 1.9579602e-06 3.796838e-06 1.8009034e-08 1.2084486e-06 2.7852443e-06
2.680809e-06 3.0968922e-06 5.368439e-06 1.9008606e-08 2.30238e-06 6.108349e-06 1.5094288e-08 1.7181421e-06
1.1882648e-06 6.066847e-07 9.897199e-07 1.5610101e-06 7.3306325e-09 5.810865e-07 1.1052864e-06 5.5393343e-09
4.6805417e-07 8.0760276e-07 8.6399115e-07 1.0207875e-06 1.8258972e-06 5.7421237e-09 6.496113e-07 1.8740552e-06
4.569338e-09 6.004066e-07 4.524297e-06 2.2253282e-06 2.8773593e-06 5.793141e-06 2.494298e-08 3.5622345e-06
2.8423538e-06 1.8120081e-08 9.078002e-07 2.2796587e-06 1.796166e-06 2.3676125e-06 5.2217442e-06 1.9620801e-08
2.6996963e-06 4.9570526e-06 1.5686137e-08 2.7131357e-06 2.0968479e-05 1.9393508e-05 1.6133272e-05 2.718543e-05
1.2546536e-07 1.2451904e-05 1.558097e-05 9.63645e-08 5.419659e-06 1.6341359e-05 1.726814e-05 1.8280423e-05
2.9022209e-05 9.674949e-08 1.2878444e-05 2.6533295e-05 7.68639e-08 1.0339063e-05 1.6887697e-06 1.6052498e-06
1.4027772e-06 2.538609e-06 1.0054086e-08 1.1149822e-06 1.3795711e-06 7.3405713e-09 4.3902952e-07 6.739747e-07
7.636776e-07 1.0470599e-06 2.3028238e-06 8.042647e-09 9.0163593e-07 2.760545e-06 6.461994e-09 8.312967e-07
7.621537e-06 5.3811514e-06 5.543994e-06 1.0714926e-05 4.749069e-08 7.028252e-06 4.585889e-06 3.5324838e-08
1.4671277e-06 5.3514777e-06 5.103505e-06 5.153886e-06 9.3798235e-06 3.7081644e-08 6.1941605e-06 8.432667e-06
2.9302523e-08 4.932638e-06 3.74678e-05 1.1038854e-05 2.032658e-05 4.975722e-05 1.76564e-07 2.066842e-05
2.1461934e-05 1.2450573e-07 6.6472508e-06 1.3491898e-05 1.3142284e-05 1.5195424e-05 4.0585917e-05 1.3654105e-07
1.7607446e-05 4.319976e-05 1.08037845e-07 1.4671431e-05 2.692653e-05 1.3802633e-05 1.2686507e-05 3.2444328e-05

exp_avg f4 [128]
00000000: 6eb0 0cba c876 2739 97c5 f4b9 7571 ab38
00000010: ec05 23b9 2b62 c2b8 3f68 8e39 8132 a739
00000020: 1dcf c138 5c03 38b9 0f80 48ba bd0f c3b7
00000030: dc8d fcb9 6322 7ab9 022e 85ba 9414 ab37
00000040: ce8a 9a38 eb8b 4c39 3a47 1639 08d6 e7b9
00000050: b913 84b8 33d9 2fb9 695a d838 5746 85b8
00000060: ddc5 2eb9 9465 a4ba 5058 7c38 3326 2fba
00000070: f704 c338 5e39 6b38 6c89 c6b9 6ad8 00ba
00000080: fcfb eab9 f7f6 8238 483a e3b8 6b4a 82b8
00000090: 3a2c e4b9 eb10 aab9 c94c aab8 5e3f f8b9
000000a0: a079 05b7 e648 5939 ad6f e138 f4f0 48ba
000000b0: 96db f539 fdfd dfb9 d263 02ba bfa1 7ab9
000000c0: 32bf 38b9 cba5 b1b9 6ca3 91b8 b439 b2b9
000000d0: 65f7 8339 331d a5b8 808c 4eba 567a 46ba
000000e0: 656c f839 7ebf 5c38 1169 a038 49e9 3336
000000f0: 55bb 5838 9866 cb35 f106 57b8 d478 ec36
00000100: e14d a2b8 9b09 1fb9 e1ff 2d38 87ea 98b8
00000110: a44f 8f39 e4c0 0f38 d35e d6b8 fe74 eb37
00000120: b934 acb9 da72 aeb9 33dd 5eba 0fc8 23ba
00000130: 9af5 62b8 7281 45b6 8d4d a1b8 b8cd 9139
00000140: e016 03ba 664e 87b9 490a 4639 9c3e bdb8
00000150: 6006 acb9 df4d f2b7 ca27 21b9 dc2d 94b8
00000160: 31f8 1839 4f91 b8b9 0db1 c1b9 400a 1ab8
00000170: ab7f a3ba 893d 03b9 5f8c 8139 c7c8 1739
00000180: 2940 78b9 f5b0 b3b7 de34 88b9 07c9 a7b9
00000190: c2ba 8db9 5e57 6cba 2819 d839 6b6e fab9
000001a0: 02cf 98b9 882e cbb9 3c4a 1cb9 976d db37
000001b0: 6eb5 f338 99f8 e3b9 ff6b feb7 ef34 c639
000001c0: f3a0 00b9 8a90 8dba e176 7538 07df 17b8
000001d0: bf8c d9b9 5cc6 7ab9 83f8 50b9 94ae 10ba
000001e0: 9161 4f39 80b9 deb9 0740 0b3a 2d5a 90ba
000001f0: 823c 45b8 8198 cb38 3cac 54b9 0870 20ba
-0.0005366866 0.0001597061 -0.00046686523 8.1750484e-05 -0.00015547097 -9.268926e-05 0.0002716202 0.0003189035
9.241535e-05 -0.00017548859 -0.0007648477 -2.325314e-05 -0.0004817088 -0.00023854668 -0.0010160806 2.0394371e-05
7.3691466e-05 0.0001950708 0.00014331649 -0.0004421922 -6.297924e-05 -0.00016770214 0.00010316523 -6.355036e-05
-0.00016667643 -0.001254248 6.016373e-05 -0.00066814123 9.299249e-05 5.6081793e-05 -0.0003786789 -0.00049150607
-0.000448197 6.244884e-05 -0.00010835059 -6.2127445e-05 -0.000435205 -0.00032437532 -8.120534e-05 -0.00047349458
-7.955736e-06 0.0002072189 0.00010749637 -0.00076652993 0.00046893646 -0.0004272311 -0.0004973981 -0.00023902113
-0.00017618833 -0.00033883596 -6.9445785e-05 -0.00033993798 0.0002517059 -7.873252e-05 -0.00078792125 -0.000757133
0.00047383006 5.263043e-05 7.648965e-05 2.6808868e-06 5.167288e-05 1.5154537e-06 -5.126646e-05 7.0474143e-06
-7.739268e-05 -0.00015167 4.148472e-05 -7.291609e-05 0.00027334422 3.42735e-05 -0.000102219776 2.8068662e-05
-0.00032845678 -0.00033273437 -0.0008501589 -0.00062477676 -5.4111333e-05 -2.9430635e-06 -7.691523e-05 0.00027809828
-0.0005000662 -0.00025807618 0.00018886583 -9.023884e-05 -0.00032811146 -2.888491e-05 -0.00015368979 -7.065732e-05
0.00014588308 -0.00035203478 -0.00036943742 -3.6726007e-05 -0.0012473961 -0.00012516057 0.00024709382 0.00014475278
-0.00023675025 -2.1420865e-05 -0.0002597933 -0.000320025 -0.0002703276 -0.0009015704 0.00041217473 -0.00047765984
-0.00029145932 -0.00038753846 -0.00014904974 2.6157866e-05 0.00011620937 -0.00043482034 -3.032945e-05 0.00037804942
-0.0001226699 -0.0010800522 5.8523266e-05 -3.6208916e-05 -0.0004149433 -0.00023915753 -0.00019929004 -0.0005519178
0.00019777405 -0.00042481348 0.000531197 -0.0011013203 -4.7024812e-05 9.7082004e-05 -0.00020282058 -0.00061202096
