results/Roller4/Roller4/Roller4-37492.onnx (onnx, 82324 bytes, 10 tensors)

network_body.observation_encoder.processors.0.normalizer.running_mean f4 [12]
000000 00 00 00 00 00 00 00 00 00 00 00 00 ae 84 14 bf
       0.0 0.0 0.0 -0.58014953
000010 97 6e 9f c1 27 28 82 c0 1b 4a 3b be b0 da e8 c4
       -19.928999 -4.0674014 -0.18289988 -1862.834
000020 a4 7e 8d 41 a6 0c 6a be 74 9a af be 59 ba d9 44
       17.686836 -0.22856387 -0.34297526 1741.8234

network_body._body_endoder.seq_layers.0.weight f4 [128, 12]
000000 91 aa 36 3e f3 cf a6 3d 6f de f1 3e 96 1e 8c be
       0.17838503 0.08145132 0.47240016 -0.27367085
000010 d7 79 98 be 6b a3 a0 3e 5b d4 5d be 01 0c c6 3e
       -0.29780456 0.31374678 -0.21663038 0.38681033
000020 a9 08 98 3e 52 fb b6 3e 30 3a 0b bc 4e fe 50 be
       0.29694107 0.35738617 -0.00849776 -0.2040951
000030 d2 e2 35 3f 0a cc 8b bb f7 90 9a be a4 1b a0 3e
       0.71049225 -0.0042662667 -0.30188724 0.31271088
000040 3e a8 d1 bd d2 95 cd 3e 3f 6c 84 3e e5 00 e6 3e
       -0.10237168 0.40153366 0.25863835 0.44922557
000050 7f 9b 80 be 7e 33 86 3e e3 6f 09 be 91 dd 1a 3e
       -0.25118634 0.2621116 -0.13421588 0.15123583
000060 52 e1 d5 3e 85 78 bb be 94 1d d2 3e a5 29 cb be
       0.41773468 -0.36615387 0.4103819 -0.3968021
000070 17 8e d8 3d 78 e8 bd bd ee 8e 1a bd f5 9d 15 3f
       0.105739765 -0.092728555 -0.037733965 0.5844415
000080 52 52 94 be 88 f0 5f 3e 32 01 38 be df 38 39 bd
       -0.28969055 0.21869099 -0.17969206 -0.045220252
000090 4c ac fb 3e ef 65 01 3e 92 b5 c4 be 50 be 0f 3f
       0.4915489 0.12636541 -0.38419777 0.5614977
0000a0 ff 05 9b 3d 6a 5f 76 be 04 24 ad 3b fa 2a 78 3e
       0.07569503 -0.24059835 0.0052838344 0.24235144
0000b0 9a 30 44 3f 4f 13 86 3e 39 70 72 bd 1b 8b 70 bd
       0.7663666 0.26186606 -0.059189055 -0.05872641
0000c0 69 24 00 bf 48 e4 68 3d 4f b9 45 3e 63 6e 5a 3e
       -0.5005556 0.05685833 0.19308971 0.21331172
0000d0 1f b8 14 be d2 3b a9 bd e4 54 a9 3d 3a e4 e8 bd
       -0.14523362 -0.08263363 0.08268145 -0.11371656
0000e0 6f 54 8b be f6 d0 3e bf 7e 31 5e 3e 2f ed 69 3e
       -0.27212855 -0.745376 0.21698567 0.22844385
0000f0 04 33 82 3c 4b 33 d5 bd 40 41 90 3e c5 6f 67 be
       0.015893467 -0.10410174 0.28174782 -0.2260123
000100 1d 44 2f 3e 1f a7 46 3e a2 cf 99 3d 43 0a 9d bd
       0.17115827 0.19399689 0.07510306 -0.07667973
000110 a6 53 51 3e 0d 62 a1 3e a3 e4 2b 3f e0 1d ff be
       0.20442066 0.3152012 0.67145747 -0.4982748
000120 22 d7 56 be d3 07 4f 3d 42 e2 7c be ae eb 57 be
       -0.20980504 0.05054457 -0.24695686 -0.21085998
000130 c7 8b ee 3d 78 78 0e 3c 09 20 c5 be 7c 49 6a be
       0.11647754 0.008695714 -0.38501003 -0.22879595
000140 c1 ad 16 3e 86 f8 63 bc ae 63 e1 be ef 30 62 3e
       0.1471472 -0.013914233 -0.44021362 0.22088979
000150 97 9e 6d bd 3b cc 38 3f 94 d1 76 3e cd 89 dc 3e
       -0.05801257 0.7218663 0.24103385 0.43073884
000160 b6 aa 34 3d db 1c 54 3e 0c 60 8a 3e 12 39 91 bd
       0.044108115 0.20714132 0.27026403 -0.070909634
000170 94 ef 5f 3d 00 78 ec bc fb 5e 76 bd 0e 64 ae be
       0.05467184 -0.028865814 -0.060149174 -0.3406071
000180 13 68 df 3e 78 2c 25 3d 7b 20 cb bd 44 e2 87 3d
       0.4363409 0.04032561 -0.099183045 0.066349536
000190 09 16 83 3e 0a af f2 be aa 1b f2 bb 4a 98 0a bf
       0.2560275 -0.4739917 -0.0073885517 -0.54138625
0001a0 63 fa 27 bf d7 b3 de 3d 5b f1 06 bd d2 c8 16 3e
       -0.65616435 0.108741455 -0.03294502 0.14725044
0001b0 79 b2 3a bc bb ee 5e be 74 83 5b 3e fb 1c 63 3d
       -0.01139509 -0.21770756 0.21436864 0.05544756
0001c0 0e 22 4b 3e 2a 4e d7 be 05 c7 da 3e 73 6d 81 be
       0.1983721 -0.42051822 0.42729965 -0.25278816
0001d0 7e b8 0e bf 8b 46 24 3e c9 c8 e9 be 43 59 4f 3e
       -0.5575026 0.16042535 -0.45661 0.20248894
0001e0 36 41 dc bd 29 09 67 be 21 26 3e 3f c9 4b d4 be
       -0.107546255 -0.22562088 0.7427693 -0.4146407
0001f0 30 41 84 bc 80 8f 52 3e 2d 44 83 3e cd dc 21 be
       -0.016144365 0.20562553 0.25637951 -0.15806885
000200 5e 28 78 3e 3b 2e 05 3d f0 c4 80 be 3c b9 5e 3d
       0.24234149 0.032514792 -0.2515025 0.054375872
000210 30 ce 34 bf 23 39 f2 3e 60 31 ef 3b 6c f1 aa 3d
       -0.7062712 0.47309217 0.007299587 0.08346829
000220 c3 c0 fd 3d 51 8e ee be 5a 69 1c bf 46 df 1c bf
       0.12390282 -0.46592954 -0.61098254 -0.6127819
000230 63 27 d1 3e d2 38 04 3e 38 93 9d 3e 09 7d 60 bd
       0.40850362 0.129123 0.30776381 -0.054806743
000240 04 5f 0d 3e df 5e 63 be 90 16 f8 3d 14 c8 36 be
       0.13805777 -0.22204159 0.121136785 -0.17849761
000250 2f bb 8a bd 4d 56 25 3f dd a1 68 be 3e f7 1e bf
       -0.06773984 0.6458481 -0.22717996 -0.6209601
000260 ae 42 86 be bb ea e2 be 7d 01 c6 3c 6e d7 00 3e
       -0.26222748 -0.4431971 0.024170632 0.1258218
000270 26 39 80 be eb 6f c8 3e 6f 8a 14 bf 8c 85 4a 3e
       -0.250436 0.39147887 -0.5802373 0.19777507
000280 12 13 d3 be e3 0b 84 3e 30 91 1c 3d c0 74 3a 3f
       -0.41225487 0.2579032 0.0382244 0.72834396
000290 3e e2 d9 3e f8 10 94 be 13 37 66 3e c7 31 9e 3e
       0.42555422 -0.28919196 0.22481947 0.30897352
0002a0 50 c3 97 bc 18 35 83 be 53 ba 13 be df a2 8b 3e
       -0.01852575 -0.25626445 -0.14426546 0.27272698
0002b0 b9 46 df bd 16 c1 97 3e 26 e7 b2 3e 4b 77 5c 3d
       -0.10902161 0.296395 0.34941977 0.053824704
0002c0 3e 22 46 3e 9e ed f0 be 73 25 72 be 5a eb 0c 3e
       0.19349 -0.47056288 -0.23647098 0.13761654
0002d0 b4 c8 81 be 88 1d 0e 3f 4d 1a 30 3e dc e8 93 bc
       -0.25348437 0.5551381 0.17197533 -0.018055372
0002e0 59 8e 21 bf 12 33 68 3d 3f 71 d2 bd 34 3f ac bd
       -0.6310783 0.05668933 -0.10275506 -0.084104925
0002f0 4f b8 18 3e 3a 9a 62 3d d8 48 86 3e 96 7e a4 be
       0.14914058 0.055322863 0.2622745 -0.32127827
000300 89 a9 86 3e 66 5c c2 3b 15 0c c1 be 36 19 f0 3e
       0.2630122 0.005931425 -0.3770453 0.46894234
000310 9d b2 03 be 2d 13 21 3e 06 b2 9d be 89 37 9e 3d
       -0.12861104 0.15729971 -0.30799884 0.07725436
000320 10 e2 26 be 0e 9e 2e be c8 7f 28 bf 92 e1 87 bd
       -0.16297174 -0.1705248 -0.6581998 -0.06634821
000330 27 fc 92 3e fb f4 7d be c3 ad 1b 3e fb 09 6e 3d
       0.28708002 -0.24800484 0.15203004 0.058114987
000340 09 3f cb 3e c6 18 02 be 1a df 55 3e 90 ad 9d be
       0.3969653 -0.12704763 0.20885888 -0.3079648
000350 ed c6 ab bd d3 49 7e 3e 5d 9c 5d be 60 56 c5 be
       -0.083875515 0.24832849 -0.21641679 -0.3854246
000360 c6 d8 fe be c7 e4 52 bc f6 f2 e9 be 33 71 d8 bd
       -0.4977476 -0.012871928 -0.45693177 -0.10568466
000370 05 de 75 3e de e7 94 bd b5 89 af 3e 36 9a 92 3e
       0.24010475 -0.07270788 0.3428475 0.2863328
000380 41 d5 55 3d 5a 55 ef bd 26 15 c9 3d f2 d0 80 be
       0.052205328 -0.116862014 0.09818487 -0.25159413
000390 d7 ea 76 be 1b df 8e be 68 e8 36 bf e6 98 90 3c
       -0.24113022 -0.2790459 -0.71448374 0.017651033
0003a0 2c 20 b8 bd 53 d7 9b 3d 4f ce 7a be 71 28 9b 3d
       -0.08990511 0.07609429 -0.24492763 0.07576073
0003b0 f2 dd d5 be 45 b6 12 be a4 fa 1a 3e 4d dc cf bd
       -0.41770893 -0.14327343 0.15134674 -0.10149441
0003c0 ba df 94 3e e2 72 15 3f e8 74 f4 bd c0 86 45 bd
       0.2907694 0.5837842 -0.119363606 -0.04822421
0003d0 14 f5 66 3d 76 da 29 bf a2 39 87 bc 02 15 6d be
       0.05638607 -0.6634897 -0.016506974 -0.23152545
0003e0 e4 98 fb 3d 9a 67 08 3f 13 3f 97 be f6 87 f1 be
       0.12285021 0.53283083 -0.2954031 -0.47174042
0003f0 30 8d fc bd a4 74 a3 3d 57 9d 0b bf cc d7 0e bf
       -0.12331617 0.07981232 -0.54536957 -0.5579803

network_body._body_endoder.seq_layers.0.bias f4 [128]
000000 06 79 ce 3b 2d 1a 8e 3d c5 c5 9f 3d 12 e3 ac bd
       0.006301048 0.069385864 0.078013934 -0.08441748
000010 29 2d 51 bd 4d 80 99 3d 33 0b b9 bd a0 9e 80 3d
       -0.05106846 0.074951746 -0.09035339 0.06280255
000020 a8 bc 8e bd 15 3b 59 bc 4b 94 a3 bd 54 74 9d bd
       -0.06969577 -0.013258715 -0.07987269 -0.076882035
000030 43 2f a3 bd ae 61 34 bd ed 80 c1 bd bf c9 bd 3d
       -0.07967999 -0.044038467 -0.09448419 0.09266996
000040 ce 4b e6 bb 2a bb c8 bc 36 15 89 3d 66 1e 1f 3d
       -0.0070280796 -0.02450331 0.06693499 0.03884735
000050 7d 64 81 3c 2c 7b a2 bd 7f 35 cd bd 27 49 f7 bc
       0.015794987 -0.079336494 -0.10019969 -0.030186249
000060 89 f3 29 bc 0e 34 b4 3d 5f f6 73 3d f3 3e b6 3d
       -0.010373005 0.08798991 0.05956113 0.08898725
000070 91 54 b1 3d 9e 0c cd bd 7b 50 a4 bd 7d a7 55 bd
       0.08658708 -0.10012172 -0.08023163 -0.052161682
000080 c6 d2 b1 3d b5 98 81 bd 9d bf f4 3c 19 69 a1 bd
       0.0868278 -0.06327955 0.029876525 -0.07881374
000090 c5 66 b6 3d b1 20 d0 3b ef 3c d3 bd 8c c0 8c 3d
       0.089063205 0.0063515534 -0.103143565 0.06872663
0000a0 ca 4a f7 bd 62 ce 96 bd c9 67 03 3c f2 64 97 ba
       -0.12074812 -0.07363583 0.00802035 -0.001155047
0000b0 ee 81 ce bd 92 ea 8d 3d 6d 1f 90 3d 2a 7d 13 3d
       -0.10083376 0.06929506 0.07037244 0.036008038
0000c0 e3 d6 86 bd f9 28 80 3d f2 50 17 bd 1d 23 67 bb
       -0.06583955 0.06257815 -0.03694243 -0.0035268732
0000d0 1b 24 af 3c 39 da cb 3c 4e 0b 45 bd 85 ac 8d bd
       0.021379521 0.02488433 -0.048106484 -0.06917671
0000e0 87 a3 8c 3d a5 d3 bb bd 9f 85 ca bd 23 67 b3 bd
       0.06867128 -0.09171227 -0.098887675 -0.08759906
0000f0 d1 28 96 bd 4a dc f1 bd 30 59 a4 3d e4 14 85 bd
       -0.07332004 -0.11809595 0.08024824 -0.06498125
000100 a9 69 9f bd 08 7f 1e 3a 0f 74 6e bd 39 fa 6a ba
       -0.07783825 0.0006046151 -0.05821615 -0.00089636777
000110 6a 3c bc 3d d1 d9 4d bc fb b9 6f 3d 31 b4 56 3d
       0.091912106 -0.0125641385 0.058526974 0.052417938
000120 95 12 49 bd 9f 39 31 3d c8 03 2d bd 36 ad 88 3d
       -0.049089987 0.043267842 -0.042239934 0.06673662
000130 b1 1e 70 bd a9 6e 96 bc 4b 88 8d 3d 6b fe 4f bb
       -0.05862302 -0.018363314 0.069107614 -0.0031737338
000140 3f 43 02 3d 45 1f 9d 3d 5a fd a1 3d c6 61 9c bd
       0.031802412 0.0767198 0.07909651 -0.07635836
000150 70 c0 8d bd f2 0d fe b9 ed 4a 94 bd bb 8d bf bd
       -0.0692147 -0.00048457045 -0.072408535 -0.09353205
000160 ec 2d e3 bd 0d 00 be bc 70 af 92 3d 62 cd 96 bd
       -0.11092743 -0.023193384 0.07162368 -0.073633924
000170 12 9e 57 bd 43 66 b5 bd 4b c6 9e 3d c7 9e ed bc
       -0.052640982 -0.088573955 0.07752665 -0.029006375
000180 8e 68 29 bc 2a 9c a5 bd 47 fe 92 3d 9a 00 8d 3d
       -0.010339869 -0.080864266 0.07177406 0.0688488
000190 aa 10 01 be 19 51 8a 3d c5 ab de bd da 3c c2 bd
       -0.12604013 0.067537494 -0.10872606 -0.09484263
0001a0 b1 05 e6 bd 0a 6f 9b 3d 26 1a 15 bc 9a ef 64 3d
       -0.11231554 0.075895384 -0.009100473 0.055892564
0001b0 17 84 a6 bd 65 0b 12 bd 6b f7 a2 bd 1d 3f 6b bd
       -0.08130663 -0.035655398 -0.079573475 -0.057433236
0001c0 75 45 6d 3d 24 8d 94 bd cd 71 ac 3d 40 39 8a bd
       0.057927568 -0.07253483 0.08420143 -0.06749201
0001d0 2a a5 2c bd 9e 3f e6 3c 7b 02 6a 3b b3 1f 0a 3d
       -0.0421497 0.028106507 0.0035707045 0.033721637
0001e0 7c d1 6b 3d 63 a4 98 bd f4 05 fa 3c 67 2d 48 bc
       0.057572827 -0.07453229 0.030520417 -0.012217856
0001f0 a9 01 29 bd d5 b0 bb 3d f2 0a e1 3c 77 5d 7a 3d
       -0.04126135 0.091645874 0.02747104 0.06112429

network_body._body_endoder.seq_layers.2.weight f4 [128, 128]
000000 5e e2 88 3b 48 54 8e 3d 7b b4 e3 bd 1e 5e 7c 3d
       0.0041773757 0.06949669 -0.11118408 0.061613195
000010 a3 4e 2a 3d ce d9 be bd 1b 94 16 be 52 84 b3 bd
       0.0415789 -0.09318887 -0.14704935 -0.087654725
000020 6f 36 01 3e 06 f0 be 3d 97 1f 74 bd 27 f3 33 be
       0.12618421 0.093231246 -0.05960044 -0.17573224
000030 89 fc 66 3d 8a 62 28 be c5 0f f9 bd bb c2 1b 3e
       0.05639318 -0.1644384 -0.12161211 0.15211003
000040 fa 4a 7c bd 71 6f b2 bc 0a d9 66 bc 51 1f a1 3d
       -0.06159494 -0.021781655 -0.014089832 0.07867301
000050 fc 7c 23 bb 9f 49 f3 3d 01 b4 4f 3d 1f f2 35 3c
       -0.0024946323 0.118792765 0.050708774 0.011105089
000060 2c 5b 29 3e 59 04 05 3c f8 54 38 3d 33 3a 18 bd
       0.16538686 0.008118712 0.045002908 -0.037164878
000070 7f 4e 0e bd bb 94 dc 3d d0 90 01 3e 20 7a 0a 3e
       -0.03474283 0.107705556 0.12652898 0.1352315
000080 28 5d b6 3d 79 f4 08 3d 84 a6 4d 3e 1d 72 03 3d
       0.08904487 0.033436272 0.20083052 0.03209125
000090 af e8 ec 3d c4 f9 1b 3e cd 33 26 bd 34 a9 f7 bd
       0.115678184 0.15231997 -0.040576745 -0.1209282
0000a0 6f 50 b1 bd aa a8 e1 bd 74 c6 6c bd 3f 92 29 3e
       -0.086579196 -0.11018498 -0.057806447 0.16559695
0000b0 82 c0 fa 3d ad 1c 28 3e db 94 0b bd 06 3e 91 bd
       0.12243749 0.16417189 -0.034077507 -0.07091908
0000c0 d1 89 0f 3e ae 50 9a 3d ae 19 14 3c cc 95 a6 bd
       0.14017417 0.0753492 0.009039326 -0.0813404
0000d0 1a 07 7d 3d 70 5d 2c 3d 42 c1 51 3d 58 1b d4 bc
       0.06177435 0.042081296 0.051209696 -0.025891945
0000e0 83 57 d0 3d ae ea 2e bc c2 2e e6 bd 35 df 3f bc
       0.101729415 -0.010676069 -0.11239387 -0.011710932
0000f0 76 83 0c 3e 2d 89 38 3d 30 01 66 bd c0 9d 92 3c
       0.13722023 0.045052696 -0.056153476 0.017897487
000100 1c 3a 7a 3d 3a 69 d4 3c d7 85 e5 bc 3f 92 ea bc
       0.061090574 0.025929082 -0.028017921 -0.028634189
000110 f6 c9 43 bd 08 35 07 3b b1 8a ac 3d c4 aa 29 bd
       -0.047800027 0.0020630974 0.08424891 -0.04142262
000120 3b 5c 51 bd b7 e7 77 bd f8 9f 9b bd c8 fd 98 bc
       -0.05111335 -0.060523715 -0.07598871 -0.0186757
000130 d3 05 3d 3d 96 1a 08 bd 83 fa ce 3c c0 ec 85 3d
       0.046148133 -0.03322848 0.025265938 0.06539297
000140 20 d4 11 3d 65 34 cf 3d b1 e4 c8 3c 8a 5a 9a bd
       0.03560269 0.10117415 0.024523111 -0.075368
000150 8d d4 45 bd 71 9b ca bb c5 3d 30 3d 96 40 64 3e
       -0.048298407 -0.006183081 0.043027658 0.22290263
000160 71 5e 95 3d e8 08 78 bd 4b 04 fa bd 62 e0 32 3e
       0.07293404 -0.06055537 -0.1220785 0.17468408
000170 b8 db 7d bd 9e b0 c7 3d 54 23 93 bd 83 b2 7f bc
       -0.06197712 0.09750484 -0.07184473 -0.015606525
000180 1f 13 d5 bd fb 50 bd 3d d0 16 4e 3d a0 c5 b9 3d
       -0.10404038 0.092439614 0.050314724 0.09070897
000190 1e 76 cd 3c 1a b4 10 bd 03 59 ae 3c b3 a1 59 be
       0.025080737 -0.03532801 0.021282678 -0.2125309
0001a0 ea 42 19 be ad 6f de 3c 41 45 a2 3d d1 77 f2 bc
       -0.14966932 0.02715286 0.079233654 -0.029598149
0001b0 62 20 28 be 8e 5f 54 bd 77 e1 dd bc e0 25 82 3d
       -0.16418603 -0.05184894 -0.02708505 0.0635488
0001c0 04 ec ca bd 38 a6 ad bd db 8c c0 bd 0d 53 cf bd
       -0.09908298 -0.08478969 -0.09401866 -0.101232626
0001d0 c4 6c f0 bd 86 cb 04 3d ed 84 c1 bd 01 08 97 3d
       -0.117394954 0.032420658 -0.09449182 0.073745735
0001e0 f8 a6 02 bd 97 34 04 3e 6a af 49 3d 2d 2e 77 3c
       -0.031897515 0.12910686 0.049239554 0.015086693
0001f0 c7 6d e0 bd ce 5e 89 bd 9f 41 75 3d ec 9c 4e bc
       -0.10958438 -0.06707536 0.059877034 -0.012610655
000200 fd 80 83 3d d7 3a 8c bd 03 0d 04 3e 81 eb fb 3c
       0.06421087 -0.0684716 0.12895589 0.030751945
000210 52 5e 90 3c 99 50 76 3d 7f c1 96 bd 46 a9 0e bd
       0.0176231 0.060135458 -0.07361125 -0.0348294
000220 5c 2f 65 bd 46 ae b5 3c ea 38 fe bb 0a a5 99 bd
       -0.05595337 0.022177827 -0.0077582495 -0.07502182
000230 b2 88 2e be e4 8f 13 bd 73 18 a8 bd 6f 8d 0f 3d
       -0.17044333 -0.036025897 -0.08207788 0.03504699
000240 77 60 a4 3d 6f 73 00 3d 74 dc 3c b9 58 71 a0 3c
       0.08026212 0.031360086 -0.00018011202 0.019585297
000250 a9 76 b4 bd 57 28 e3 bd f4 a6 43 be 26 e0 55 be
       -0.08811695 -0.110916786 -0.19106656 -0.20886287
000260 ca 3a 31 bd b8 42 02 bd d9 ef 3d be 29 57 c4 3c
       -0.043268956 -0.03180191 -0.18548526 0.023967342
000270 c4 12 69 3e 84 c6 01 be 09 9a e2 bc 47 c5 19 bd
       0.22761065 -0.12673384 -0.02766134 -0.037541654
000280 e7 cd 96 3c 8a 08 0d 3d 6c 6a 5c be f5 41 3f 3e
       0.018408729 0.03443197 -0.21524972 0.18677504
000290 bd 97 f4 bd 53 38 93 3d be 13 25 be 0c 4e ab 3d
       -0.11943004 0.07188477 -0.16120812 0.08364496
0002a0 c8 fe 4f bd 84 9e 62 bd d6 fa 39 3d 72 27 81 bd
       -0.050780088 -0.055326954 0.04540523 -0.06306352
0002b0 d9 35 fa bb cd 22 b9 3c a0 30 78 bd e3 b3 75 bc
       -0.0076358137 0.022599602 -0.060593247 -0.014996502
0002c0 0d 51 e4 bd 65 6d 50 3d bb 12 92 be 97 63 94 3c
       -0.11148272 0.050885577 -0.28529915 0.018113894
0002d0 8b ec 41 3e 15 ed d6 3c e2 c4 f4 3d f5 f7 82 bd
       0.1893789 0.026236096 0.11951615 -0.0639495
0002e0 dd 81 35 ba a3 36 ad bc ee 15 6e bd 24 f4 42 3c
       -0.0006923953 -0.021144217 -0.058126383 0.011899028
0002f0 81 40 44 3d 68 01 44 bc 4f 6f a3 bc 5e e9 11 be
       0.04791308 -0.011963226 -0.019950537 -0.14249179
000300 15 63 c7 3d 60 11 20 3d 18 d0 58 bc 68 54 2f bc
       0.09735695 0.03907907 -0.013233207 -0.010701276
000310 6a 6d 12 bd 16 dd ab bd 1e 0c 46 bd 2a 93 b3 bb
       -0.035748877 -0.08391778 -0.0483514 -0.00548019
000320 93 a9 03 be 03 22 95 3c 14 25 36 bc 4a 27 30 3d
       -0.12857656 0.018204695 -0.011117239 0.04300622
000330 53 39 37 be b5 21 79 bc 5d 31 6f 3e fb 07 3d 3e
       -0.17892961 -0.01520579 0.23358674 0.18460076
000340 82 a7 a1 bd ad 42 4b 3d b2 80 14 3d 04 5d 4f 3d
       -0.07893278 0.049624134 0.036255546 0.050625816
000350 fb 2e 65 bc 68 b4 dd bc 0c f3 62 bd 92 3b d7 bd
       -0.013988252 -0.027063563 -0.05540757 -0.10509409
000360 26 2c 91 3d 90 aa 8a bc a6 bc b7 3c 94 e8 8f bd
       0.07088499 -0.016927034 0.022428822 -0.07026783
000370 1c 90 ba bb e2 2a 88 3d df 52 85 3e 23 19 34 bc
       -0.0056934487 0.06648804 0.26039788 -0.010992321
000380 5c 7d 62 3a 78 7d de bd 91 7d 0f 3e 09 33 05 3e
       0.0008639896 -0.10863775 0.14012744 0.1300775
000390 a1 11 22 bd 70 3d 4a bd e0 42 8e bd 14 60 82 be
       -0.039567593 -0.049374998 -0.06946349 -0.25463927
0003a0 60 e1 7e 3c 23 83 aa bc 39 d0 23 3e 65 15 1b 3d
       0.015556663 -0.020814484 0.159974 0.0378622
0003b0 ae f8 20 be bd 34 0b be 86 4c 72 bc 29 8a fe 3d
       -0.15719864 -0.13594337 -0.014788752 0.12428696
0003c0 4a 7f ab 3b bc 25 85 be d9 51 26 3e af dc 0f be
       0.00523368 -0.26005352 0.1624216 -0.14049028
0003d0 db 34 3b 3e 9e eb 32 3c 5e d3 92 3d 50 49 6b bd
       0.18281882 0.010920433 0.07169221 -0.057442963
0003e0 cb 22 2f 3d 08 19 e9 3d 46 49 a9 3d c4 3a b0 bd
       0.04275779 0.113817275 0.08265929 -0.08604959
0003f0 76 bf 15 3c 36 6b 44 3e c2 c9 3d 3b e0 59 61 3d
       0.009139886 0.19181523 0.0028959368 0.055017352

network_body._body_endoder.seq_layers.2.bias f4 [128]
000000 49 5f a1 bc 4b 21 76 3d 72 b0 31 3d fe 08 31 bd
       -0.019698756 0.060090344 0.043381162 -0.043221466
000010 66 be df bc c7 a6 7b bd fb e6 8a bd f6 bb 85 3c
       -0.027312469 -0.06143835 -0.06782337 0.016324978
000020 c0 e1 e9 3c d7 de 61 3d a0 cd 9e bd 6e 51 a4 3d
       0.028550029 0.055144157 -0.077540636 0.08023344
000030 32 b8 9d bd d4 75 81 bd 56 22 d8 bd 40 52 6b 3d
       -0.07701148 -0.06321302 -0.10553424 0.057451487
000040 0c e5 06 3d f0 4d 39 3d 4e 08 25 3d f0 40 27 3d
       0.03293328 0.045240343 0.040291123 0.040833414
000050 ff f8 00 bc 56 43 7e bd 8f 0d bc 3d f4 b5 b8 bd
       -0.007871865 -0.062075935 0.091822736 -0.0901908
000060 d6 89 b4 bd 4c 65 69 3b 32 06 6b bd 11 b8 d4 3d
       -0.088153526 0.0035613356 -0.057378955 0.103866704
000070 a2 62 1a bd 10 fa cb bc e2 8d 0a bd 24 4d c8 3c
       -0.03769172 -0.024899513 -0.033826716 0.024450846
000080 9e 5a 38 bd 17 6b c8 3c 04 1c 94 3d 2a b9 5e bd
       -0.045008294 0.024465127 0.07231906 -0.054375805
000090 35 1d 71 bd bc ad 97 bd 81 4d ae 3c c4 b3 9b bd
       -0.058865745 -0.07406184 0.021277191 -0.07602647
0000a0 3c 19 76 bd 24 67 a8 3d 16 03 a8 3c 6d b8 b4 bc
       -0.06008266 0.082227975 0.020509284 -0.022060597
0000b0 84 0d 24 3b de ac 20 3d a4 fd 96 3d 03 db b1 bd
       0.002503247 0.03922736 0.07372597 -0.08684351
0000c0 14 78 99 bd bc 66 28 3d 9b 48 7e 3d b2 8e 78 bd
       -0.07493606 0.0411136 0.06208096 -0.06068296
0000d0 bc db b2 bc 2d 9c 44 bd 2d ef a1 3d 78 57 7a 3d
       -0.021833293 -0.048000503 0.07906947 0.061118573
0000e0 0d 31 98 3d 2c f2 92 bd d4 ad 81 bd 46 b1 50 3d
       0.07431231 -0.07175097 -0.06331983 0.05095031
0000f0 ba 64 89 bc 7a 5a a3 bd c1 15 56 bd d0 cc c3 3d
       -0.016771663 -0.079762414 -0.05226684 0.09560549
000100 3a 66 b1 bd d4 c2 ea 3c 97 ad c3 3d 19 e8 33 bd
       -0.08662076 0.028657354 0.09554594 -0.043922517
000110 71 6c b5 3d 72 d8 8e bd f4 76 8c bd ca 25 11 bd
       0.08858574 -0.069748774 -0.06858626 -0.03543643
000120 1c 94 8c 3d cc 04 8a bd c2 b5 4e 3b f4 38 b6 3d
       0.06864187 -0.06739196 0.0031541442 0.08897582
000130 a9 b1 53 bd 6c 0b 55 bd 77 85 c6 3d 71 2b 4a bd
       -0.0516831 -0.052012846 0.09693425 -0.049357835
000140 95 88 b1 b8 b2 d7 d0 3d 94 ce 8c 3d a0 bb 60 3c
       -8.465458e-05 0.101973906 0.06875339 0.013716608
000150 0e ea ab bd 4a cc 87 bd 9e f5 a5 3d f6 54 67 3d
       -0.08394252 -0.06630762 0.081034884 0.05647751
000160 79 2a 92 bd 67 ed 0f bc a6 a7 f2 bb 56 fa 1e 3c
       -0.07137007 -0.0087846285 -0.007405239 0.009703239
000170 e8 b5 bb bd 25 b9 10 3b 68 04 8e 3d 03 0b a2 3d
       -0.09165555 0.002208301 0.06934434 0.079122566
000180 1a 93 58 bd 5c 1a 9b bd c7 29 96 3d 6a c2 8d bd
       -0.052874662 -0.07573387 0.07332187 -0.06921847
000190 b1 da 0f bc 35 3a 74 bd 51 7f d1 bd 3e 69 ca bd
       -0.008780167 -0.059625823 -0.10229362 -0.098833546
0001a0 f4 02 3a 3d 35 f6 23 3d 19 36 b2 3d dc 9b 75 3d
       0.045412973 0.040029723 0.087017246 0.059963092
0001b0 82 d9 4a bd 1a f8 c3 bd 06 cf bb bc 4a 34 56 3d
       -0.049523838 -0.09568806 -0.022925865 0.05229596
0001c0 d1 ff 9c bc 21 c7 b3 bd 8f 66 a1 bd c5 ba 35 bd
       -0.019164952 -0.08778215 -0.078808896 -0.04436757
0001d0 47 af f6 bc 6a d6 80 bd cb 5e 2f 3d a6 1b 42 3a
       -0.030112876 -0.06290896 0.04281501 0.00074046326
0001e0 71 2e 88 bd 96 55 bc bd c8 17 8a 3d 0a 9a 8d 3d
       -0.06649483 -0.09196012 0.06742817 0.06914146
0001f0 eb d7 6e 3d 1d d7 19 3d 16 75 60 3b 6c d4 db bd
       0.058311384 0.037558664 0.0034249476 -0.10733876

action_model._continuous_distribution.log_sigma f4 [1, 2]
000000 b5 e8 e2 bc d2 5b 02 be
       -0.027698854 -0.12730339

action_model._continuous_distribution.mu.weight f4 [2, 128]
000000 13 d9 04 bd 9d 17 9a 3c 87 35 37 bd e9 65 8b bc
       -0.03243358 0.018810088 -0.044728782 -0.017016368
000010 78 b4 58 bd ea 2d 90 3d 0a 2e 6c 3d 96 60 ab bc
       -0.052906483 0.070400074 0.057661094 -0.02092008
000020 89 2e 4a bc 15 8e fc 3c 4c e0 c7 3b e2 35 b8 39
       -0.012340196 0.030829469 0.0060997363 0.0003513536
000030 40 48 1f 3d 2b 2b b1 bc 6f 6b 66 3c 3f c6 5c 3c
       0.038887262 -0.02162703 0.0140637 0.013475
000040 07 57 66 bd 8c 93 1f bc dd ec bf bc 3c d7 80 bd
       -0.05623534 -0.009739768 -0.023428375 -0.06291053
000050 d2 00 68 3d 38 83 10 bd 11 64 8d bb 2c ff 85 bb
       0.056641407 -0.03528139 -0.0043149074 -0.0040892567
000060 b9 70 1b 3d ea bf 52 bd 84 d4 62 3c a1 1d da ba
       0.037949298 -0.051452555 0.013844613 -0.001664091
000070 88 a8 f3 bc 17 a0 3b 3c 84 43 95 3c ab e9 2b 3a
       -0.029743448 0.011451743 0.01822067 0.00065579516
000080 19 0f bd bc b5 c1 08 bd 18 9d 3c 3d 81 06 39 bd
       -0.023078488 -0.03338786 0.046048254 -0.04517222
000090 a1 a0 17 bd ce 87 6c bc 4c 2a 8c ba 0e 95 cf b9
       -0.037018422 -0.014436675 -0.0010693758 -0.0003959317
0000a0 88 1b 43 3d 4a 4f 32 3d 67 13 16 bd f6 b4 8e bc
       0.047633678 0.043532647 -0.036639597 -0.017420273
0000b0 74 3d 93 bd cb 59 b3 3c 17 6a 15 bd 27 7d 89 bc
       -0.07189456 0.021893403 -0.03647813 -0.01678331
0000c0 30 c1 99 ba 5f 60 a1 bd 50 da b4 3a 93 3d 10 3b
       -0.0011730548 -0.078797095 0.0013797972 0.0022009357
0000d0 38 db ea bb f7 21 ef 3c cc 5f 06 bc 09 6e 26 3d
       -0.007167246 0.029191 -0.008201551 0.04063228
0000e0 60 ec 52 bd 77 36 23 3d b2 26 44 3d 34 dd d7 bc
       -0.051494956 0.039846864 0.047888465 -0.026350595
0000f0 11 49 78 3d d4 ec 70 3b f3 f1 c4 bc 67 c9 3a bc
       0.060616557 0.0036762254 -0.024041152 -0.011400557
000100 27 7d 4f bc 61 ef 48 bd 2e 70 28 bc eb 00 0b bd
       -0.012664116 -0.049056415 -0.010280652 -0.033936422
000110 a0 93 c5 bc 8c 9a 32 3c 4c 17 0b 3d ff b9 10 bd
       -0.024118245 0.010901105 0.033957765 -0.03533363
000120 87 69 d6 bc 90 4a d2 bc a3 16 02 bd 88 93 d1 bb
       -0.026173366 -0.02567032 -0.03175987 -0.006395761
000130 06 1b aa bb 2c 2a 3b 3d 7d a9 cc bc 99 44 5b 3d
       -0.0051912097 0.045694515 -0.024983162 0.053532217
000140 ad 06 ed bc 40 e8 85 bc 82 c6 17 bd eb e3 65 3d
       -0.028933847 -0.016346097 -0.037054546 0.056125563
000150 54 56 0f 3d ec 13 36 3d 84 6e 8c bc 86 2a 40 bd
       0.03499444 0.044452593 -0.017142542 -0.046915554
000160 7a 75 b7 bc 77 4b 08 3d d8 5e 89 3d a1 34 3e bd
       -0.022394884 0.033275094 0.06707543 -0.04643691
000170 48 82 8a 3c 5a 39 b3 bc 8a 27 f0 bc 42 8d 3b bc
       0.016907826 -0.021877933 -0.029315729 -0.011447253
000180 c4 4b 75 3d 6a 08 48 bc 2b f4 51 bc 49 e1 09 bc
       0.05988671 -0.012209037 -0.012814562 -0.008415529
000190 39 17 4d 3d d6 ed 40 3c e3 2a 43 3c e6 24 a0 bb
       0.050070975 0.0117754545 0.01191208 -0.004887211
0001a0 4d d1 5f ba ec 68 4f bc 0b 03 95 3b 35 fe 87 ba
       -0.0008537963 -0.012659293 0.004547482 -0.0010375442
0001b0 eb 28 e5 3c 4f 29 63 3c 21 3f 6a bc e7 a0 3a bd
       0.027973613 0.013864829 -0.014297278 -0.045563605
0001c0 54 60 91 bd 3b c6 d6 bb fe 5c 82 39 30 e7 50 bc
       -0.07098451 -0.0065543926 0.00024864817 -0.012750432
0001d0 12 de 8a 3c d0 23 d0 3b c7 04 4d bd e1 3d 0f bd
       0.016951595 0.0063519254 -0.050053384 -0.03497112
0001e0 f8 e4 3d 3d 63 ba 84 3c b0 27 1b bd 9f c7 ab bd
       0.04636094 0.016202157 -0.037879646 -0.08387684
0001f0 af 41 09 bc 57 47 b0 bd 1c a6 b2 bb f1 b9 fa 3a
       -0.008377477 -0.08607357 -0.0054519307 0.0019128901
000200 1c bb 0e 3c a3 90 7e bd 85 06 e5 bc 12 df 4d 3d
       0.008711603 -0.062149655 -0.02795721 0.050261565
000210 f3 97 13 3d 1c 50 94 3d 10 5b 77 3d ce f0 2c ba
       0.036033582 0.07241842 0.06038958 -0.0006597162
000220 d0 c1 6a b9 be e3 b9 bc 4b be 50 3d e1 e6 77 bd
       -0.0002238818 -0.022691604 0.050962728 -0.060522918
000230 26 91 4c 3d 52 36 aa 3d ba b9 93 3d 4f 10 17 bd
       0.04994311 0.08311142 0.07213159 -0.036880787
000240 dd 4d 65 bc 5f 9b 5b bc 9b d3 2b bc 51 1c 70 bc
       -0.013995615 -0.013403743 -0.010487462 -0.014655189
000250 3d 36 79 bb 04 22 9e 3d 8c 5e e5 bd 75 30 62 3d
       -0.0038026713 0.07721332 -0.11199674 0.055221993
000260 4c 7e a2 3d e0 2d f2 3b 8b bb 57 3c 31 db f0 bd
       0.079342455 0.0073907226 0.013167272 -0.117605574
000270 01 48 ec 3c a8 47 22 bb 9c df 37 3c 81 bc b9 ba
       0.028842928 -0.0024761949 0.011222746 -0.0014170558
000280 7f 60 02 3d 3c 0c 2e bc 5e e8 c3 bd 4a 8d bc 3d
       0.031830307 -0.010623034 -0.09565805 0.09206636
000290 16 4e 41 3d 40 64 68 3d 71 21 d1 bb db 72 86 3c
       0.04719361 0.05673623 -0.0063821604 0.01641219
0002a0 92 39 db 3c 75 9c b4 bd d9 9b 42 3b e9 bf b8 3c
       0.02676085 -0.08818904 0.0029694943 0.022552447
0002b0 63 4f 27 3d f3 94 c9 bc b8 36 47 bd 0f 95 11 3d
       0.040847193 -0.024607157 -0.04863617 0.035542544
0002c0 fc 14 49 3d e9 a6 35 bc 3e d9 4b bd 39 c4 fe 3c
       0.049092278 -0.011087158 -0.049767725 0.031099426
0002d0 79 47 c5 3b b5 21 f3 3b 59 55 e0 bd 2d 7d 3a bd
       0.006020483 0.0074197897 -0.10953779 -0.045529533
0002e0 62 74 68 bd 78 9f 80 3d 5d cb 5e 3d 7b 1a e9 bc
       -0.056751616 0.06280416 0.05439316 -0.02845501
0002f0 b0 48 02 3c bd f0 69 3d fe f5 6e 3d 81 36 bc bd
       0.0079519 0.05711435 0.058340065 -0.09190083
000300 76 69 93 3d 6f bc bc bc 4b f3 02 be 13 79 19 3d
       0.071978495 -0.02303907 -0.12788121 0.03746898
000310 39 41 f6 bd f3 66 21 3d f6 88 dc 3c fb 4e 3b 3d
       -0.12024159 0.03940482 0.026920777 0.04572962
000320 94 ee 72 bc 8e 45 98 3d 50 43 1d bb 1f 48 dc bc
       -0.014827389 0.074351415 -0.002399642 -0.026889859
000330 a8 a3 1c 3d 74 cb 88 3c 3a 82 ae bd 64 60 21 3d
       0.038242012 0.016698577 -0.085209325 0.039398566
000340 11 dd ca ba 8e 39 90 bd d4 00 31 bd c5 09 e9 bb
       -0.001547726 -0.07042228 -0.04321368 -0.0071117603
000350 3e 85 85 3d e8 52 90 3d b5 02 81 bd dc bc 90 bd
       0.065195546 0.07047063 -0.062993445 -0.07067272
000360 10 37 2b 3d fd 42 c4 ba e4 4e 98 bb ce 9f cb 3c
       0.04180056 -0.0014973577 -0.0046480764 0.024856474
000370 50 30 ae 3d 1f d6 35 bc 3b 1a 3a bd 6f a9 0f bd
       0.08505309 -0.011098414 -0.04543517 -0.035073694
000380 aa 76 35 3d a5 ef d5 3d 5a 63 be bc 90 d9 b0 3d
       0.04430262 0.10446099 -0.023240734 0.08635247
000390 e1 a4 99 3a 40 97 7d 3b d2 93 93 3d 4c 3e d1 3d
       0.0011722111 0.0038694888 0.07205929 0.1021696
0003a0 85 e3 44 bc 92 dc 74 bc 9c 98 a6 bd 2a 36 3c bd
       -0.0120171355 -0.014945166 -0.08134577 -0.045950092
0003b0 f4 7c 65 3c a3 87 79 3d 03 9d 57 3c 67 7a 83 bc
       0.014006842 0.06092037 0.013159993 -0.016049577
0003c0 8f f1 b5 3c 1b 33 ae 3d a3 d9 a9 3d 7a b0 d4 3c
       0.02220991 0.08505841 0.08293464 0.025963057
0003d0 9d eb 6c 3b 3f ca 5c 3c b4 da 4b bc a9 98 b2 3c
       0.0036151179 0.013475954 -0.01244228 0.02180131
0003e0 e7 70 4d 3d 77 0c 9e 3d ac c4 43 bd 9c f1 4e bd
       0.0501565 0.07717221 -0.047794983 -0.050523385
0003f0 ca 69 88 bc 43 74 98 3b 11 a7 91 3b b6 2e 7f 3d
       -0.016652007 0.0046525314 0.0044449647 0.062300406

action_model._continuous_distribution.mu.bias f4 [2]
000000 fc 47 58 bc 02 8c 99 bd
       -0.013200756 -0.074974075

action_model._discrete_distribution.branches.0.weight f4 [1, 128]
000000 7b 3d d8 3b 09 2c 3c ba d4 51 42 bc c5 54 15 bb
       0.006599126 -0.00071781926 -0.01186033 -0.0022786122
000010 fe 9b 16 bc 1f 85 fe 3b e2 8d da 3b 15 66 14 bb
       -0.009192465 0.007767334 0.006669746 -0.0022643853
000020 b5 9a f2 bb 48 5d 38 bc ed 6f f9 bb 2a 15 59 3c
       -0.0074036964 -0.011252709 -0.0076122195 0.013249675
000030 a2 c7 a1 bb fa 54 ee 3c 5d 83 f5 bb f3 3b 75 ba
       -0.004937128 0.029093254 -0.0074924664 -0.00093549414
000040 47 2a 26 3b 72 6c 20 3b 25 78 cb bb a7 5f f1 bb
       0.002535479 0.00244787 -0.0062093907 -0.007366139
000050 2d 66 0d 3c ac 1c 26 bc a7 73 7a bb 4b 76 05 3c
       0.008630318 -0.010138672 -0.0038215907 0.008145879
000060 70 61 46 bb 59 50 0b ba 20 7b e5 ba 9a 08 d1 3c
       -0.003027048 -0.0005314402 -0.0017508008 0.025516797
000070 f4 76 86 3b 53 ab f4 3b 03 9a 97 bc dc 49 9d bb
       0.004103536 0.0074667125 -0.018506056 -0.0048000645
000080 a8 de 76 3c 4e 60 3f 3c db 1b 24 bc 70 04 6f 3c
       0.015067734 0.011680676 -0.010016407 0.01458846
000090 78 95 7f bb 07 cc 39 bb 19 f0 3a bc b9 ee 90 bb
       -0.0038999002 -0.002835037 -0.011409783 -0.004422989
0000a0 3b f2 8d 3b 05 5b d0 3b 17 eb 2e 3a d8 dc d8 3b
       0.0043318546 0.0063585066 0.00066726044 0.0066181235
0000b0 7a c6 8a 3b 11 81 a4 bb 97 1d e6 39 c8 98 8f 3b
       0.004235086 -0.0050202687 0.00043891065 0.0043822266
0000c0 92 86 64 3c a3 60 54 bb 39 24 3d bb 75 45 aa bc
       0.0139481 -0.0032406233 -0.0028860702 -0.020785073
0000d0 5a 40 9f b8 03 91 4c 3c 28 3d d8 3b 47 b1 95 3b
       -7.593697e-05 0.012485745 0.0065990873 0.0045682522
0000e0 03 fa e2 bb e5 0b 8b bb 7a ee 82 3c a1 bb 1e 3c
       -0.0069267764 -0.0042433613 0.015982855 0.009688289
0000f0 70 46 be 38 84 b8 01 3b f0 f5 94 39 7f 40 9e bb
       9.073026e-05 0.0019793818 0.00028411997 -0.004829466
000100 2d 91 a2 3c e3 cf ff 3b 87 f4 46 bb 16 87 b0 bb
       0.019844616 0.0078067644 -0.0030358152 -0.0053871972
000110 c8 ca 93 3a 2d 3c 20 bb b0 f6 54 3c 75 95 a4 bb
       0.0011275643 -0.002444993 0.012998268 -0.0050226995
000120 8d dc 64 3c 71 55 2b bb 5d 38 17 bb d0 14 11 b9
       0.013968599 -0.0026143456 -0.0023074367 -0.00013836031
000130 f2 ea cd bb 23 c3 1d 3b 7a 78 49 3b aa 95 c2 bb
       -0.006284111 0.002407261 0.0030741976 -0.0059382515
000140 7d 84 8f 3c 73 c5 af 3a 3b a3 db bc 0d c3 77 bc
       0.01751923 0.0013410285 -0.026811233 -0.015122187
000150 9b be 73 3c a7 8b 36 bc 3b 3c f1 3b a6 33 b2 3c
       0.014876987 -0.011141694 0.0073619164 0.021753144
000160 9d 91 b3 bb 9f 01 89 b9 77 74 05 bb 7a 3f 37 3c
       -0.005480005 -0.00026131884 -0.0020363608 0.011184568
000170 ff 6e 62 bb 2a 29 c4 bb eb a9 51 bb fd b8 21 3c
       -0.0034551022 -0.0059863525 -0.0031992148 0.009870765
000180 3b 9c 92 3b 64 28 42 3b dc 81 05 3c b7 3d 41 3c
       0.0044741905 0.0029626125 0.008148637 0.011794499
000190 a2 2b 67 ba 79 60 2a bc 9d 7c 75 3b 10 ac 79 3b
       -0.00088184525 -0.010398977 0.0037458309 0.0038096942
0001a0 13 21 dd bb f2 ed 40 3b bf b4 35 3b 63 74 3c 3c
       -0.0067483275 0.0029438701 0.0027726141 0.011502358
0001b0 73 16 b6 bc d5 ff 14 bc 08 cd 79 3c 34 43 0f bc
       -0.022227501 -0.009094198 0.015246637 -0.00874405
0001c0 95 4e 7a ba 2b 9b d8 3b a6 f4 1d b9 17 0f 02 3c
       -0.0009548453 0.0066102943 -0.00015063825 0.007938168
0001d0 2b a5 67 bb a0 fa 64 bb d4 f7 3d bb eb 11 45 3c
       -0.003534625 -0.0034939423 -0.0028986828 0.012028198
0001e0 19 74 12 3c 2f 9b 22 3c 53 ad d4 bb 53 f9 e9 3b
       0.008938813 0.009924694 -0.0064903884 0.0071403175
0001f0 1c 6f 3d bc 1a 0b 38 bc 23 d9 79 b9 ed c9 92 3b
       -0.011562135 -0.011233116 -0.0002382738 0.004479638

onnx::Div_70 f4 [12]
000000 a1 3a a9 3b a1 3a a9 3b a1 3a a9 3b c4 a8 9f 3f
       0.00516446 0.00516446 0.00516446 1.2473378
000010 ec 0d d3 3d 5a 78 c6 3f 72 37 e9 3f fa e9 ed 45
       0.1030539 1.5505478 1.8220046 7613.247
000020 93 6c 10 41 87 ee 18 40 a9 f1 43 40 0a da df 45
       9.026507 2.3895586 3.0616248 7163.255
