results/Smart6/Smart6/Smart6-259610.onnx (onnx, 80244 bytes, 10 tensors)

network_body.observation_encoder.processors.0.normalizer.running_mean f4 [8]
000000 d4 e1 71 be 00 00 00 00 d8 b6 2a 3c 50 e2 94 41
       -0.23621303 0.0 0.01041957 18.610504
000010 16 57 26 c1 0d 77 82 c1 fc 6a 84 40 11 9c 1b c0
       -10.396261 -16.30813 4.1380596 -2.4314005

network_body._body_endoder.seq_layers.0.weight f4 [128, 8]
000000 11 eb cd 3b c2 b8 72 bd 4f c9 5e bd cb 8c 85 be
       0.0062841256 -0.05925823 -0.0543912 -0.2608398
000010 bb 7b 05 bd 81 b0 af 3e e1 ab 00 be ef 67 08 bf
       -0.0325887 0.3431435 -0.12565567 -0.5328359
000020 dc 1a 06 3e 1c 1a 64 3e e1 54 ca 3e 6c 8f f2 bd
       0.13096184 0.22275585 0.39517882 -0.11843762
000030 35 ce 52 3e ab a6 ab bd a0 78 34 be 44 32 78 3d
       0.20586474 -0.08381399 -0.1762414 0.060594812
000040 a6 b1 1d 3e 58 53 eb 3e cf d6 9e bd c2 10 1c bf
       0.15399799 0.45962024 -0.07755815 -0.6096307
000050 eb 90 d1 3d 36 e5 e3 3d a5 1d c5 3c 50 34 a7 bd
       0.10232719 0.11127703 0.024061987 -0.08164275
000060 1d 05 dd bd 7f d4 60 3b 67 04 2c 3f 58 7f 4b 3e
       -0.10791991 0.0034306345 0.6719422 0.19872797
000070 c4 5f 4a bf 6c 57 49 bf fa 07 81 be 3b 08 5d bc
       -0.79052377 -0.7864902 -0.25201398 -0.013490732
000080 5e e6 14 be e2 23 21 bf 87 62 99 3e 1e 70 1b 3e
       -0.14541003 -0.6294538 0.29957983 0.15179488
000090 ec 29 93 3e f5 9f 0f 3f 80 35 2c be 70 97 09 3e
       0.2874292 0.5610345 -0.16817284 0.13436675
0000a0 18 fa 95 be a2 9c c5 be f0 5d 69 3b a0 4f c2 3e
       -0.2929237 -0.38596064 0.003560897 0.37951374
0000b0 36 f6 a9 be 16 8b 4a be 86 fe 0e 3e 0e 32 9b 3e
       -0.33195657 -0.1977962 0.1396428 0.30311626
0000c0 3a 2c 4b be f7 93 eb 3e bb 33 38 3f f8 86 b4 3e
       -0.1984109 0.46011326 0.71953934 0.35259223
0000d0 59 6e a8 be 4d cf 6e be d2 bc 03 3e 76 e2 e8 3e
       -0.3289669 -0.23321266 0.12864998 0.45485276
0000e0 75 7c b6 bd 6c 63 32 be ac 8b 9e 3e a0 2e 87 be
       -0.08910457 -0.17420739 0.30965936 -0.2640276
0000f0 78 29 4e bf d9 87 b0 3e 54 8f 12 bf 71 e1 98 3f
       -0.80532026 0.34478644 -0.5724995 1.1943799
000100 95 fa 1b 3e e9 78 28 3f 61 85 a5 3e a1 3b 10 be
       0.15232308 0.65809494 0.32328323 -0.14085247
000110 42 1f 3d 3d 51 69 11 bf ab f0 a2 3e ea c8 47 3d
       0.046172388 -0.56801325 0.3182424 0.04877559
000120 1a 92 71 be cc de 13 bf 72 fd b7 be ae 77 d1 be
       -0.2359089 -0.57761836 -0.3593555 -0.4091162
000130 57 d5 a5 3e 46 03 bf be 87 f0 4a 3f 5f b1 12 3f
       0.32389328 -0.37307185 0.79273266 0.57301897
000140 1e c0 a5 be b6 b5 66 3d 26 d3 5f 3e af ea ca bd
       -0.32373136 0.056325637 0.2185789 -0.099080436
000150 0e 76 15 3f 54 6a ce 3d bc 70 8c 3e 73 00 15 be
       0.5838326 0.10078874 0.2742976 -0.14550953
000160 46 3d bf bd c4 c5 a3 3d f5 2f 54 3e 9f 79 e1 3c
       -0.09337859 0.07996705 0.20721419 0.027523814
000170 da 5b 48 3e 50 aa 01 bf 9f 0d 96 3e 32 26 56 3e
       0.19566289 -0.506505 0.29307267 0.20913008
000180 91 01 32 3e d7 d5 80 3e 31 ee 19 be 0e b7 42 3f
       0.1738341 0.25163147 -0.15032269 0.7606057
000190 9d d6 0b 3e 28 31 e6 bd 01 71 c9 be 8a 08 89 bf
       0.13656087 -0.112398446 -0.39344028 -1.0705731
0001a0 f2 63 15 bf c3 4e 6a bd cd ae 7b 3e 92 73 a2 3d
       -0.5835563 -0.05720402 0.245784 0.079321995
0001b0 ce 67 a3 3e 32 41 30 bf 2a 71 3a be 8f d3 a5 3e
       0.31915134 -0.6884948 -0.18207231 0.3238797
0001c0 5d 39 a3 be ab b9 84 bb 7e 4d 97 3e 3a 87 8d 3e
       -0.31879702 -0.0040504537 0.2955131 0.27642232
0001d0 3b b0 24 3d e8 a9 bb bd f4 8c 03 bf 52 cb 2e 3e
       0.04020713 -0.091632664 -0.5138695 0.17069748
0001e0 1a e4 4c be a1 18 9a 3e 78 12 89 3d 85 0a 55 be
       -0.20008889 0.30096915 0.06692976 -0.20804794
0001f0 03 1a e5 3e 0b df a7 be 04 7c b4 be 4c e8 f2 3e
       0.44746408 -0.32787356 -0.35250866 0.47442853
000200 87 ba 02 bf 34 20 5a be 8e 0a 32 bf 26 d5 f1 be
       -0.5106587 -0.21301347 -0.69547355 -0.47232932
000210 bf 7e 6b 3e 7a 0d 15 3e 39 e9 75 3e 3c a6 89 3d
       0.22997569 0.14555922 0.24014749 0.0672116
000220 87 4b ed be 5f ef 4c bd f0 40 89 bd c3 b7 21 3f
       -0.46346685 -0.05003297 -0.06701839 0.63171023
000230 68 ac 05 3e a1 51 27 3f 55 6a a0 3e 86 87 78 3f
       0.13054049 0.6535893 0.31331125 0.9708179
000240 4e e4 73 3e 82 a0 aa be 8c b5 84 be 8b 08 8a 3b
       0.2381756 -0.33325583 -0.2591976 0.004212444
000250 2a 9a e2 be 1a c6 88 be c7 86 ab 3d e0 20 71 be
       -0.44258243 -0.2671364 0.08375316 -0.23547697
000260 32 f1 95 be a0 a8 38 3d 48 3a 97 be ab c8 c6 3e
       -0.2928558 0.04508269 -0.29536653 0.38824973
000270 47 e3 4d 3e 18 89 7c be 7f 16 57 bd ac dd 65 be
       0.2010623 -0.24661672 -0.05251169 -0.22447842
000280 dc 1e 25 3d 22 c0 49 be c9 bc 19 bf 99 81 cc be
       0.040312633 -0.19702199 -0.6005369 -0.39942625
000290 5c c5 38 bf 76 f1 bf 3e 42 f5 26 be d8 0d d1 bd
       -0.72176147 0.37488908 -0.16304496 -0.102077186
0002a0 9c 5f 46 bf 25 14 51 3d d5 15 a6 be a8 21 f0 be
       -0.7748964 0.051044602 -0.32438532 -0.46900678
0002b0 0d 5a 9b 3e 0a 8c 8d be 63 7e 95 3e bf b6 80 3e
       0.3034214 -0.27645904 0.29197988 0.25139424
0002c0 2c 90 bc 3e cc 00 ce be aa f5 59 bd 39 ad 1d be
       0.36828744 -0.40234983 -0.0532128 -0.1539811
0002d0 08 dc e4 be a7 0a 9b bd b6 0d c8 be fb 6e ed be
       -0.4469912 -0.07570391 -0.3907296 -0.46373734
0002e0 17 ba aa 3e a8 7a de bc 56 cc af bd 6d 8a 25 bf
       0.333451 -0.027158096 -0.08583896 -0.64664346
0002f0 98 0d 13 be d0 a7 24 3e 80 1f 18 be 58 c3 86 be
       -0.14360654 0.1607964 -0.14855766 -0.2632091
000300 00 24 ef bd 3f 1d 94 3e 29 4b a8 3e 1f 0b a0 3e
       -0.11676788 0.28928563 0.32869843 0.31258485
000310 a0 ee 35 bf 2a e6 ee 3e 7f bc 91 3e 9c 6e 6a be
       -0.7106724 0.46659976 0.28464124 -0.22893757
000320 da 93 98 bd dc 4a 30 bf da cc dd 3e 1c 08 89 be
       -0.074500754 -0.68864226 0.43320352 -0.26764
000330 1f 3c 1a 3e 53 4b 8f 3e cf eb 31 3f d6 7c b3 3e
       0.15061997 0.27987155 0.6950044 0.3505618
000340 07 19 10 3d 11 61 b0 be b0 32 c7 3e 70 a0 dd 3e
       0.035180118 -0.34449056 0.3890586 0.43286467
000350 a3 50 a1 3e 07 86 c3 bb 3e c7 ac 3d ae 8d 33 be
       0.31506833 -0.005966905 0.0843644 -0.17534515
000360 ce 97 d0 be f9 c3 db be fa 74 c3 bd 70 54 5e 3f
       -0.40740818 -0.42922953 -0.09543796 0.8684759
000370 8b 56 70 bc a4 68 d4 3e 17 ba dd be 46 5d 74 3e
       -0.014669071 0.41486084 -0.43306038 0.23863706
000380 ef 85 ab bd 2f a8 fb be c7 72 45 3e 5b 1e 8f be
       -0.08375155 -0.4915175 0.19282065 -0.27952847
000390 85 d1 f8 3e 25 f8 1f be 2a b1 2b 3f e3 af 8f be
       0.4859735 -0.15622003 0.67067206 -0.28063878
0003a0 a7 b3 91 be c8 40 03 3f 61 cd b9 bd 7c 8b d6 3e
       -0.28457376 0.51270723 -0.09072376 0.41903293
0003b0 21 1c 0b bf 9d ed de bd 1f 59 90 be 03 ff ff 3c
       -0.54339796 -0.10885165 -0.28192994 0.031249529
0003c0 8a f4 fe 3d 4b a2 b7 bd ca 40 6b 3e 49 01 8d 3e
       0.12448986 -0.08966502 0.22973934 0.27540043
0003d0 62 21 27 3f ce b3 cf be 6b de 79 3e fe 2b d6 3c
       0.65285313 -0.40566868 0.24401252 0.026144024
0003e0 3e 30 6d 3d 26 7a b9 be 5c 55 a9 3e 26 98 f6 bd
       0.057907335 -0.36226004 0.33072937 -0.12040739
0003f0 d4 e6 0b bf 4b 39 05 3c d5 0c c5 3e 29 30 13 be
       -0.5464909 0.0081313355 0.38486353 -0.1437384

network_body._body_endoder.seq_layers.0.bias f4 [128]
000000 d3 72 3e 3d 5d df 97 bd ef 99 d8 3c 4e 57 87 bc
       0.046496224 -0.0741565 0.026440589 -0.016521122
000010 71 5e 6b bd 65 76 61 3c 37 4d 08 bd 17 ce 93 3c
       -0.057463113 0.013761138 -0.033276763 0.018042607
000020 4f b8 3f bd d3 c5 ec 3c 56 c3 af bc 27 01 ee bb
       -0.04680663 0.028902924 -0.021455448 -0.007263321
000030 be bf 14 3d bb e5 10 bd 6b 47 f7 3b 6a db 27 bd
       0.036315672 -0.035375338 0.0075463555 -0.040980734
000040 3f 9a 0b bc f2 77 7b bc 45 e0 05 3d bc 63 df bb
       -0.008520662 -0.015348421 0.032684583 -0.006817309
000050 a7 77 0e 3c 73 13 a5 bc e3 cf 40 3d 12 d4 96 3c
       0.0086955195 -0.020150876 0.047073256 0.01841167
000060 83 56 cd 3c aa 3e a2 bc 08 9c 71 bc f4 d9 dc b9
       0.025065666 -0.019805271 -0.014746673 -0.00042124058
000070 7d bd ef 3b 10 d5 c9 3b e8 8b 7f 3c ab 0b 56 3c
       0.00731629 0.006159432 0.015597321 0.013064305
000080 de 6b 1b bd 85 f2 4f bd 84 fb 94 3c fb 69 9f b9
       -0.037944667 -0.050768394 0.018186338 -0.00030405805
000090 01 58 26 bc 02 d7 ef bc 90 26 01 bc 21 d5 c3 bd
       -0.010152818 -0.029277328 -0.007882729 -0.095621355
0000a0 92 3a a3 3b c3 b7 09 3c a6 39 84 3c c5 b1 c4 bc
       0.0049813474 0.008405629 0.01614077 -0.024010548
0000b0 0c 5b a5 bb 5c 0f d1 3a 80 70 89 3b 1d a3 2f 3d
       -0.005046254 0.0015950012 0.0041943192 0.042880166
0000c0 ff f1 7c 3b e7 5a 97 bc 5f f8 db 3c 2e e2 57 3b
       0.003859639 -0.018475963 0.026851831 0.003294121
0000d0 30 92 a0 3c 94 8f fa 3c 83 53 2e bc 89 68 5f bd
       0.019600958 0.030586042 -0.010640028 -0.054543052
0000e0 b6 db 6f 3b b8 b8 05 3b 22 34 9c bc 47 e9 8d bd
       0.0036599464 0.002040429 -0.019067828 -0.0692926
0000f0 5e 76 16 bc 81 11 27 3d 76 38 54 bd de 3a 72 bd
       -0.009183494 0.040788177 -0.051811658 -0.05913817
000100 08 54 8b bc 45 1e 36 3d 1b 10 91 bc f7 5f be 3a
       -0.017007843 0.04446246 -0.017707875 0.0014524449
000110 aa 12 af bb 4b 07 49 bd d0 23 54 bc e9 ca cc 3c
       -0.005342801 -0.04907922 -0.0129479915 0.024999099
000120 10 21 87 3b 0b 0d 80 bd ea d2 af 3c 9b ea e8 3c
       0.0041238144 -0.06252488 0.021462876 0.028432181
000130 43 83 81 bd 7d 90 07 bd 28 ac d1 3c db 81 4a 3d
       -0.06323864 -0.03309678 0.025594786 0.049440246
000140 df a1 db 3c b8 48 10 3d 47 ab 29 bc d6 a3 89 bd
       0.026810585 0.0352256 -0.010355777 -0.06720702
000150 52 59 47 3a b8 b2 11 bd 8b 8e c8 3b 07 cc ae bb
       0.00076045573 -0.03557083 0.006120508 -0.0053343805
000160 15 9c f0 bc cc ce d3 3c 17 6e 49 bc 8d 0b c9 3c
       -0.0293713 0.025855444 -0.012294314 0.02454164
000170 b8 e0 1e 3d f7 5b 86 bb 0e c8 82 bb 48 04 ff bc
       0.038788527 -0.0041003185 -0.0039911335 -0.031129971
000180 3b 48 33 bc 6e 67 a8 bc 7d 50 90 bd 76 9b 02 3d
       -0.010942514 -0.020557132 -0.07046602 0.03188654
000190 fc 24 5b 3c a9 eb 74 3c 6a eb a3 bb cc b1 1f bd
       0.013375517 0.014948764 -0.005002429 -0.03898792
0001a0 06 39 27 3d 6e 00 99 b9 ed 71 63 bd 04 c1 ef bc
       0.040825866 -0.00029182754 -0.05552857 -0.029266842
0001b0 46 d1 14 3d 5e 1a e8 3b eb 40 23 bd 14 ed b4 bc
       0.03633239 0.0070832213 -0.039856832 -0.022085704
0001c0 dd 10 f6 3c 60 d9 11 bd d6 26 8e bc 7a 70 7a 3c
       0.030037338 -0.035607696 -0.017352503 0.015285606
0001d0 f3 9a ae bb 88 90 c4 3c d9 58 23 bd a2 bc 83 bd
       -0.00532853 0.0239947 -0.039879654 -0.06432463
0001e0 80 22 9b bc 55 ce ac ba 46 73 72 3c fc 74 b0 bc
       -0.01893735 -0.001318405 0.014797991 -0.021540157
0001f0 e4 66 d5 bc 4d 33 d9 ba 48 c7 b8 bb 06 0e 25 bd
       -0.026050039 -0.0016571075 -0.0056389906 -0.040296577

network_body._body_endoder.seq_layers.2.weight f4 [128, 128]
000000 7a 79 c3 3b 28 ba 32 bd e2 e2 8f bc 2e 9d e1 3c
       0.005965409 -0.043634564 -0.01756424 0.02754077
000010 4b 49 f2 bc b6 b4 d4 3d 2e 04 ba 3d c5 f4 6f 3d
       -0.029575964 0.103860304 0.090828285 0.05858304
000020 78 23 b9 bd 46 3a 14 3d d5 92 98 3c e3 40 15 3e
       -0.09039968 0.036188386 0.018624702 0.14575534
000030 98 6e 4d 3d 52 d4 0e 3e 4e 26 52 bd ea 61 7c 3d
       0.0501543 0.13948181 -0.05130606 0.061616816
000040 b9 80 e1 3d e5 c2 ac bd dd 60 96 3e 85 f2 1e be
       0.1101088 -0.08435611 0.29370776 -0.15522201
000050 f8 36 8c 3d 25 24 35 bd c1 f0 8b 3c a5 12 ee 3d
       0.06846422 -0.044223923 0.017082574 0.1162465
000060 37 7b 3c bc be 9d 03 3c f8 11 af 3d 13 5d e8 bd
       -0.011503986 0.008033214 0.08548349 -0.113458775
000070 a8 07 a6 3d 3a 44 55 bd 0c 77 c1 3c bd 25 e9 bd
       0.08106929 -0.05206702 0.023616336 -0.11384151
000080 75 aa a0 bd 6e c2 8f bc a1 1b 7f 3b d0 07 a2 3c
       -0.07845012 -0.017548766 0.003892638 0.019779116
000090 6e 6f 28 3e 59 e0 fe 3d 3b e1 73 bd 2f 84 8d 3c
       0.16448757 0.12445135 -0.05954097 0.017274944
0000a0 fb 47 8d bc e5 ed af 3d e4 5d fe bb b0 4c 58 3d
       -0.017246237 0.08590297 -0.0077626575 0.05280751
0000b0 e9 9b ca bc d1 ed 43 bd 53 69 a5 3d 55 b1 8d bd
       -0.024732547 -0.04783422 0.080767296 -0.06918589
0000c0 89 cf 8e 3d 36 60 e3 bd 15 4c 3e be 38 a8 74 3d
       0.06973178 -0.11102335 -0.1858371 0.05973074
0000d0 b9 05 d4 bc 57 8e 09 3c 12 7f 0d 3d c5 b2 28 bd
       -0.025881635 0.008395753 0.03454501 -0.041186113
0000e0 c1 fa fe 3b f7 32 d9 b9 cc fa 00 be 16 bf 2d bd
       0.007781357 -0.00041427437 -0.12595671 -0.042418562
0000f0 ef e4 23 3d 33 2b 0a be bb 96 c9 3b 5e c6 0b bd
       0.04001325 -0.13493042 0.0061520017 -0.034124725
000100 ca 69 36 be 2e 8a b3 3d d3 fc 4f be c6 0f 72 3d
       -0.17813793 0.0876659 -0.20311289 0.059097074
000110 99 18 b3 bc 66 2a 13 bd cd d0 ec 3c 39 be 98 3a
       -0.021862315 -0.035929106 0.028908158 0.001165337
000120 bf 36 15 be 8e b7 8b 3d 4c 26 52 bc 52 16 f4 bc
       -0.14571665 0.0682212 -0.0128265135 -0.0297958
000130 f3 10 61 3d 8c 44 f2 bd 57 f3 12 3e ce 2a fd bc
       0.054947805 -0.118294805 0.1435064 -0.0309042
000140 89 1b d9 3c 8b 14 92 3d 2f c7 46 3d ba bd 3c bd
       0.026502388 0.071328245 0.0485298 -0.046079375
000150 61 77 e0 3c 33 b3 a4 3d 0a 8a 06 3d 93 b1 ee bc
       0.027400674 0.08041992 0.032846488 -0.029137408
000160 c3 26 e5 ba da b2 aa 3c b0 cc 36 be 19 fa 88 3d
       -0.0017482865 0.020837236 -0.1785152 0.06688327
000170 4a 5e 8f bd f3 9f e4 3d 60 ca 56 bd cd 4b 28 bd
       -0.07000406 0.111633204 -0.052439094 -0.041087914
000180 b2 8e 05 3d fe 28 5c 3d 6b 0f b1 bd 84 e5 bc bd
       0.032606788 0.05375003 -0.08645519 -0.09223464
000190 a6 5c ba bd 35 af 5e bd 88 35 5a bd 19 2b 4f be
       -0.090997025 -0.05436631 -0.053273708 -0.20231284
0001a0 62 67 04 bd 91 1d 96 bd 99 c4 c5 3d 0a 6c 54 3d
       -0.032325156 -0.07329858 0.09656639 0.051860847
0001b0 b2 c6 9c bd f8 f4 bd bc d1 26 32 3d 64 7a be bd
       -0.076550856 -0.0231881 0.04349405 -0.09300688
0001c0 b8 36 1b 3e b2 6f 26 3e f4 bb 34 3d 77 4c d5 bd
       0.15157592 0.16253546 0.04412456 -0.10414975
0001d0 53 b2 4b bc fa 49 bc 3c 0c f6 32 3c 26 ba 31 be
       -0.0124326525 0.022984494 0.01092292 -0.17356166
0001e0 d0 2f 6c bd 04 c7 75 bd fa 0c 40 bd 98 d1 92 bd
       -0.057662785 -0.06000425 -0.046887375 -0.07168883
0001f0 ad 2a 7e 3b 10 8d 07 be 6d 43 40 be 60 24 16 be
       0.003878276 -0.13237405 -0.18775721 -0.14662313
000200 28 b5 2c be cc da 0a bd 73 38 79 bd 5b bd 0e bd
       -0.1686598 -0.033900067 -0.06084485 -0.034848552
000210 79 01 94 ba 41 47 eb 3d 69 45 04 bc 63 f3 b3 3d
       -0.0011291943 0.114882 -0.008073189 0.08786657
000220 ce 69 ab bd 16 a0 e5 3c cd 4d 30 bd d1 27 34 bd
       -0.0836979 0.028030436 -0.043042947 -0.043983284
000230 8a ce ac 3d cc 60 c6 bd 53 7a 26 be 8a 34 4e 3e
       0.08437832 -0.09686431 -0.162576 0.2013723
000240 3a e1 07 3e 39 06 b0 3d f6 1c 54 bd 7a 2d 8c bb
       0.13269511 0.08594937 -0.05178543 -0.004277882
000250 aa 73 66 bd 67 62 12 3e 34 f2 0f be 95 8d 31 be
       -0.05626265 0.1429535 -0.14057237 -0.17339166
000260 3e 2a 7b bc aa b9 8e bb f7 91 10 bd 5c ac 4f 3e
       -0.015329896 -0.004355629 -0.035295453 0.20280594
000270 94 9f 11 bc 1b d6 b5 bd b7 e2 aa bd 8a 33 2a bd
       -0.008888144 -0.08878728 -0.08344024 -0.041553058
000280 8b d1 e5 bd 81 5c c1 bd 1d 89 14 be 91 e9 e8 bd
       -0.11221608 -0.09441472 -0.1450543 -0.11372674
000290 a8 70 f1 bb 84 ac ef 3d 14 17 87 3c 1a a4 bd 3d
       -0.007368166 0.117028266 0.016490497 0.092598155
0002a0 2d 2e 12 3e 00 9c 0e bd ed 1f fc 3c 0f d5 43 bc
       0.14275427 -0.034816742 0.030776942 -0.011952653
0002b0 ea de 10 bc b4 c7 06 3d 94 40 41 3c 21 56 d5 bd
       -0.008842209 0.032905295 0.011795182 -0.104168184
0002c0 7d bc b0 3d 3f 29 bd 3d d1 4b cb bd 3d c6 7c 3d
       0.08629701 0.09236383 -0.0992657 0.061712492
0002d0 9e b1 33 be b0 f7 47 bb 7e ca b2 bd 6d d7 c5 3c
       -0.17548224 -0.0030512623 -0.087300286 0.024150575
0002e0 3a 70 4c be 88 2d 40 bd ea ba 99 3b b9 66 3c 3c
       -0.19964686 -0.046918422 0.0046914713 0.0114991
0002f0 e5 50 0d be 8d 16 86 bc ef eb 2c be 41 74 59 3d
       -0.1380039 -0.016368175 -0.16886877 0.053089384
000300 d1 d7 6c bd 84 2b 8f bd a9 9a 32 3b 44 32 4b bd
       -0.057823006 -0.06990722 0.002725283 -0.049608484
000310 82 3e 80 3b c2 e7 c6 bd 02 17 6d bd d2 e1 33 be
       0.0039137015 -0.09712173 -0.05788327 -0.17566612
000320 bf 87 93 bc 92 22 d1 3d c5 ae bb bd 6c 1e 2e 3d
       -0.018009065 0.10211672 -0.09164194 0.04250948
000330 fc 79 67 bd 00 db b4 bc 65 3f 94 bb 1c 02 cf bd
       -0.056512818 -0.022077084 -0.004524159 -0.10107824
000340 bb dc bc 3d fa 49 1b 3d 8f 67 46 be 69 2a 61 3d
       0.092217885 0.037912346 -0.19375442 0.054972086
000350 09 c6 1c 3d 87 0c 52 3e 32 8a 6a be 39 a2 cc 3d
       0.0382748 0.20512591 -0.2290428 0.09991879
000360 74 37 a6 3b 51 a6 7e bd 4e c9 89 3d 80 9d 96 3c
       0.0050725285 -0.06217033 0.06727849 0.018385649
000370 a4 ff bb bc e9 ae 77 be 95 6b 72 3d b3 dd 95 bc
       -0.022949047 -0.24187817 0.05918463 -0.018294191
000380 08 e5 ba bd fe 75 d6 3d 22 2f 18 ba fa cd 89 bd
       -0.091257155 0.10471724 -0.0005805363 -0.0672874
000390 6c 47 07 be 75 8b 22 3d f2 d6 de 39 0b ce 81 3d
       -0.13210839 0.039683778 0.00042503286 0.06338128
0003a0 99 5b 64 3d 2c 86 b9 3d 78 6e 07 3e 7f e9 5d 3c
       0.055751417 0.090587944 0.13225734 0.013544439
0003b0 2f 38 5a be 8b 12 2b 3c b6 32 46 3d b8 b0 8e be
       -0.21310495 0.010441433 0.048388205 -0.278692
0003c0 73 d6 09 be a5 59 7c 3d ba 51 19 3d 95 42 1d 3d
       -0.13460712 0.06160893 0.037431456 0.038393576
0003d0 ff a3 2b 3e 7e fe 99 bd fd 55 96 3d b2 83 83 bd
       0.16761778 -0.07519244 0.0734062 -0.06421603
0003e0 d4 85 60 3d 98 7d d6 3d c5 04 90 3d d4 c9 63 3c
       0.05481513 0.10473174 0.0703216 0.0139031
0003f0 64 16 05 3e b8 7d 0f 3e 63 0c b4 3c 1a 73 94 3d
       0.12996823 0.14012802 0.021978563 0.072485164

network_body._body_endoder.seq_layers.2.bias f4 [128]
000000 63 18 11 3d cd 85 88 bc 9f b0 e4 bc 23 b7 f6 bb
       0.035423648 -0.016665364 -0.02791625 -0.007529156
000010 5f 58 0f bc 19 10 a1 bc 0a 60 8e bc fa 39 09 3b
       -0.008749097 -0.019660996 -0.01737978 0.0020939098
000020 6c a2 5d 3c 99 3d 97 3a 0d 70 8c 3c e1 1b b0 bc
       0.013527494 0.0011538743 0.017143274 -0.021497669
000030 59 19 d1 bc 1a 96 c0 bb bb f4 1f 3d dc 56 e1 3b
       -0.025524782 -0.0058772685 0.039051753 0.0068768095
000040 4a b6 c9 bc 74 fe 98 bc 3a fb fe 3c b6 31 43 bc
       -0.024623055 -0.01867602 0.031125654 -0.0119137075
000050 7b d8 0c 3d 3b e0 09 3b 94 42 d7 bb d1 cc d3 b9
       0.03438614 0.0021038193 -0.006569216 -0.00040397656
000060 45 fa c2 bc 37 53 76 3b 16 04 da bc d9 83 07 bc
       -0.023800978 0.003758622 -0.026613276 -0.008271181
000070 44 f9 b5 bc 36 f6 fc 3b 99 70 1d bd 06 bb 7b bd
       -0.022213586 0.0077197803 -0.03843746 -0.061457656
000080 70 94 ea bb 31 02 87 3c d9 a5 3d bd 2a ab 43 bc
       -0.0071588084 0.016480537 -0.046300743 -0.011942664
000090 64 d5 80 bc 4c 17 8b 3b ea a1 ce bc cd 2b a6 3b
       -0.015726753 0.0042447206 -0.025223691 0.0050711394
0000a0 8d 56 97 ba 5d 66 13 bc b0 af 88 3c bb 86 ae 3a
       -0.001154618 -0.008996573 0.016685337 0.0013315299
0000b0 15 88 b8 3c 82 1e df 3c 3b 44 81 3b be 31 12 3b
       0.022525826 0.027236227 0.0039449013 0.002230748
0000c0 72 92 00 bc df ab c7 bc e8 c6 0e 3c b7 37 1c bc
       -0.007847415 -0.024373947 0.008714415 -0.009534768
0000d0 bb 71 94 bb 70 e7 d1 bb 64 d2 51 bb 61 8e 13 bc
       -0.0045301593 -0.0064057633 -0.0032016272 -0.009006114
0000e0 df 87 8a 3c 52 05 3f 3a 79 e8 a8 39 da b7 d9 bc
       0.016910492 0.00072868646 0.00032216663 -0.026576925
0000f0 f0 fe 0d 3c b7 87 01 3d 1c 20 96 3b ac d7 ae bb
       0.008666739 0.03162357 0.0045814645 -0.0053357687
000100 91 07 ae 3c da 01 3a bc b6 9a 18 bd df 5b e3 bb
       0.021243842 -0.0113529805 -0.03725692 -0.006938442
000110 fc 56 2c 3b 4b ad 34 3c 91 6d 3f 3c 20 5d 32 3c
       0.0026296964 0.011027644 0.0116838375 0.010886461
000120 49 e0 94 bc 86 f9 7d bb 02 8d 0f 3c 0f 0c a4 bc
       -0.018173354 -0.0038753464 0.008761646 -0.020025281
000130 f8 b8 a4 3c 63 1a 28 3d f4 9b 64 3c 66 4c 28 bc
       0.020107731 0.04104079 0.013953198 -0.010272121
000140 ec 9c e0 3c 7e 4a 1b bb f7 00 4c 3c 3f 0a 09 bd
       0.027418576 -0.0023695524 0.012451402 -0.033457037
000150 75 a5 1c bd b7 a9 f8 bc f5 5a a1 bc 5e a4 af 3c
       -0.03824373 -0.030354364 -0.019696692 0.021440681
000160 1c 56 1a bc ec c2 51 3c 89 fd 7b 3c b3 92 90 3a
       -0.009419944 0.012802821 0.015380272 0.0011030048
000170 e5 b7 73 3b 1d 1c d8 3c 7e 3b b8 3b 82 3e 09 bd
       0.0037188467 0.026380593 0.0056223264 -0.033506878
000180 73 64 26 bd 52 96 47 3c ca 90 3d ba 6b 83 eb bb
       -0.04062314 0.012181835 -0.0007231353 -0.007187297
000190 4e 65 70 3b c1 ee 44 3b 69 fe ca bc a5 72 39 bb
       0.0036681476 0.0030049535 -0.024779515 -0.0028297093
0001a0 a6 14 74 3a 29 73 3b bc 97 0f ca 3b fa 50 a1 3b
       0.0009310938 -0.011441031 0.0061664092 0.0049229832
0001b0 4b 2f 81 bc b9 ce 8a 3c c8 39 ac bb 37 80 f0 bc
       -0.015769621 0.016944276 -0.0052559115 -0.029358013
0001c0 20 fc ac 3c 39 e2 76 bc 4d 0d ee 3b 04 57 1b 3c
       0.021116316 -0.015068584 0.007264769 0.009481195
0001d0 98 73 e4 bc 31 bc a4 bb 86 f4 a3 3c a5 e1 4e bd
       -0.02788715 -0.005027317 0.020014059 -0.05050816
0001e0 63 c7 af 3c 17 ba 45 bd 2c 16 41 3b 87 5d c2 3b
       0.02145738 -0.048273172 0.0029462678 0.0059315595
0001f0 01 8e 07 3c f8 0d 3a 3c 5a 23 3b 3c a9 c8 16 bb
       0.008273602 0.0113558695 0.011422003 -0.0023007786

action_model._continuous_distribution.log_sigma f4 [1, 2]
000000 76 55 93 be 90 a6 3f be
       -0.2877614 -0.18715882

action_model._continuous_distribution.mu.weight f4 [2, 128]
000000 90 0f 13 bb cf 14 c2 bc 29 02 71 bd d5 3c 1b 3d
       -0.0022439696 -0.023691563 -0.05883995 0.03789981
000010 84 f7 63 3c 5f eb 80 bc 92 50 1f bc 52 ed a5 bc
       0.013913993 -0.015737234 -0.009723799 -0.020254765
000020 1a 21 27 bc d5 84 17 bb 6d ac 08 3d ad 32 37 3d
       -0.010200763 -0.0023119946 0.033367563 0.044726063
000030 e1 68 dd bc 8d d9 b2 3c d5 99 ff b9 21 6a ea 3c
       -0.02702755 0.021832252 -0.00048752004 0.02861506
000040 68 45 80 bc fa 9e ad 3c 26 ec 6a bd 25 58 33 bc
       -0.015658095 0.02119397 -0.057354115 -0.010946308
000050 7f e0 e7 bd 38 b1 4a bd 32 ad 7f 3c 56 6f d7 bc
       -0.11322116 -0.049485415 0.015605258 -0.026298206
000060 16 d4 81 3b c5 4e aa 3a b4 55 18 bd 7b 49 47 3d
       0.00396205 0.0012993446 -0.037191108 0.04865406
000070 f4 64 32 bd 05 b6 58 bd eb e8 ed 3b 58 ec 95 bc
       -0.043553308 -0.052907962 0.007260432 -0.018301174
000080 45 71 9e ba f0 05 bf 3c bc 11 aa 3b 6a 22 56 3d
       -0.00120882 0.02331826 0.0051901024 0.052278914
000090 e8 ff 62 3c 75 ff 43 bb 38 71 8e 3b ef 47 7c bc
       0.013854958 -0.0029906903 0.004346993 -0.01539801
0000a0 01 f4 67 3c cc 8f 51 3d 17 e7 28 bd b0 6f 72 bd
       0.014157296 0.051162526 -0.04123601 -0.059188545
0000b0 d2 a9 40 3c e6 e3 84 bd bb c3 09 bd 25 c3 1a 3d
       0.011759238 -0.06488781 -0.03363393 0.03778376
0000c0 24 29 98 bd 2f 22 ee 3c c0 c9 6e 3d fb 47 89 3c
       -0.07429722 0.029069034 0.058297873 0.016757956
0000d0 21 76 33 bd 57 b4 56 3d 32 a2 82 bd 04 c0 d9 bc
       -0.04381383 0.05241808 -0.063785926 -0.026580818
0000e0 15 08 9a 3d a9 e1 01 3d d9 bc b5 bc 68 09 79 bc
       0.07521073 0.031709347 -0.022184776 -0.0151999965
0000f0 d8 eb c9 bc 28 b2 84 bd 77 fa a2 bc 02 81 7f 3c
       -0.024648592 -0.06479293 -0.019894822 0.015594723
000100 1d a7 af bc c1 ab 0d 3c e7 3f 09 bd fa d3 82 bc
       -0.02144199 0.008646906 -0.033508208 -0.015970219
000110 87 44 03 bd 31 96 74 bb c3 28 9b 3c e2 29 43 3d
       -0.032047775 -0.0037320966 0.018940335 0.047647364
000120 b5 ec 18 bd e0 86 d6 bb 60 82 61 3d 42 48 34 bd
       -0.037335116 -0.00654684 0.055055976 -0.044014223
000130 b7 21 67 bd 9b ec a3 3b 0e de 78 bd 75 7c 1c bd
       -0.056428637 0.005002571 -0.060758643 -0.03820463
000140 96 f6 d7 3c 6d d9 20 3c 3d 4c ba bb fc 66 38 3a
       0.026362699 0.009817463 -0.005685358 0.0007034389
000150 18 be 3c 3c 83 91 92 bc ef 57 3b bd d9 4d 99 bc
       0.011519931 -0.017891651 -0.045738157 -0.018713878
000160 c2 61 a1 bd 38 2b fd bb f1 be 27 3d 2d 23 19 3d
       -0.07879974 -0.0077260993 0.04095358 0.037387062
000170 3c ba 9c 3b ec e0 3e bd 82 c7 4c bd 56 8a d2 bb
       0.004782943 -0.04660122 -0.049994953 -0.0064251823
000180 44 c9 16 3b 16 2d c6 3d cd 16 7b 3d d0 0a 93 bc
       0.0023008147 0.09676568 0.06130104 -0.017949492
000190 c7 b0 bf ba d1 24 4a 3c e8 15 bf bc b3 af 02 bd
       -0.0014624827 0.012337879 -0.023325875 -0.03190584
0001a0 43 55 64 3b 5f f1 d0 bc 96 2a 9b 3d 78 78 33 3d
       0.003484086 -0.02550572 0.07576482 0.04381606
0001b0 1c 27 42 bd 99 78 b2 bc b6 b6 c8 bc 58 ec 13 bd
       -0.04740058 -0.021786021 -0.024501186 -0.036114067
0001c0 3a 87 1c 3c 84 03 52 bc f3 83 e8 3c f5 c1 af bc
       0.009553725 -0.012818221 0.02838323 -0.02145479
0001d0 c7 62 af 3b 77 78 10 3c c8 fc 22 3d 9f f9 e3 bc
       0.0053523513 0.008817784 0.039791852 -0.02782899
0001e0 c5 e3 91 bd 43 7a dc ba f2 dc 8f bd 08 c1 80 bd
       -0.07123522 -0.0016821105 -0.07024564 -0.06286818
0001f0 18 ac 5b 3c e4 c4 81 bd e1 12 f7 3c 0e 02 44 bb
       0.01340773 -0.06336382 0.03016037 -0.0029908451
000200 37 ea 00 3b 62 9c 46 bd ab 6d 2b bd 20 93 4d 3d
       0.0019670853 -0.048488982 -0.041852634 0.050189137
000210 e7 b1 ad 3a b2 26 5f bd 1f c0 45 3c ca 62 e3 bd
       0.0013251872 -0.054480262 0.012069731 -0.11102827
000220 78 4e a8 3d c5 4c 5f 3c 88 c4 ab 3d dd 9f 1a bd
       0.08218092 0.013629143 0.08387095 -0.037750114
000230 2c ad 1f bd 19 6b f3 bb f6 ca 5a 3d ad 23 a8 3d
       -0.03898351 -0.0074285385 0.053416215 0.082099296
000240 7e 92 b5 3b 5a 71 28 bd 36 17 bb 3d dc f7 ae bc
       0.005541145 -0.041123725 0.091352865 -0.021358423
000250 09 9a 4d 3d 18 df 1b bb 80 2e 16 3d 52 90 54 bd
       0.050195727 -0.0023784097 0.03666544 -0.051895447
000260 24 e5 44 bd bd c6 25 bd d7 a5 cb bc b7 52 33 bd
       -0.048070088 -0.040472735 -0.024859352 -0.043780055
000270 a4 cb 90 bc 8e 31 ac bd 89 a9 f9 bb aa a9 69 bb
       -0.017675228 -0.08407889 -0.007619087 -0.0035654106
000280 85 a0 09 bc 27 fb e8 3b 8e c2 16 38 41 d5 2d bc
       -0.008400087 0.007110018 3.594398e-05 -0.010609926
000290 44 fe 04 3d fd e3 06 bd 3f e6 d2 3b 7f 5a 48 3b
       0.03246905 -0.03293227 0.006436139 0.0030571518
0002a0 0b 53 8e 3b 4d 70 d5 3c d9 c7 8c bc 26 96 36 bd
       0.0043433956 0.026054526 -0.017185139 -0.044576786
0002b0 86 3d 90 3d c1 06 12 bd 06 d0 bc bc 16 6a 48 3c
       0.07042985 -0.035650972 -0.023048412 0.012232324
0002c0 13 57 e0 3b 3e 7b 88 3b dd b3 61 bc 46 93 3e bc
       0.0068463176 0.0041650822 -0.013775793 -0.011631792
0002d0 75 bb 52 bd 69 94 fc bb ef a0 b1 bb e3 89 74 bc
       -0.051448304 -0.0077081216 -0.005420796 -0.014925453
0002e0 50 4f 08 3e a0 0e 0a 3d 67 51 1a 3d 91 7d 86 bc
       0.13311505 0.033705354 0.037675288 -0.016417297
0002f0 10 f8 f4 3c 63 4b 92 bc c5 57 6a 3d df d6 4e bd
       0.029903442 -0.017858213 0.05721261 -0.050497886
000300 9f fc 14 3c cd 6a 13 bd 54 25 8f bd 30 44 52 bd
       0.009093433 -0.035990525 -0.06989542 -0.05133456
000310 c1 87 7e 3d 4a 42 bc bd b6 d2 7f bd dd 43 28 bd
       0.062141184 -0.09192331 -0.06245681 -0.041080344
000320 80 50 d8 3b 7e 75 f7 bb c5 7c 35 bc 2a 76 a0 bd
       0.006601393 -0.007551848 -0.011077111 -0.07835038
000330 4a b7 a6 3c eb 22 12 3d ff cd 3a 3d cf 1f 37 3c
       0.02035107 0.03567783 0.04560661 0.011177017
000340 93 0e 0d 3d 8d f2 31 3d f3 30 43 3d 36 1c 88 bd
       0.034437727 0.043444205 0.047654103 -0.06646006
000350 02 47 17 bc 51 fc 6c bc 31 64 88 bd b8 0e 0f 3c
       -0.009233238 -0.014464454 -0.06659735 0.008731537
000360 b7 41 d4 bc 0a 45 e6 3c 49 29 be 3c 30 11 9d 3d
       -0.025910242 0.028109092 0.023213046 0.07669294
000370 0e 29 89 3c 2e 88 a7 3d 82 53 c3 bc 1a 35 f2 bb
       0.01674321 0.08180271 -0.02384353 -0.007391584
000380 7e a3 3a bb 6f ec 23 3d 2c 78 15 bd 60 ee 4b bd
       -0.0028478797 0.040020403 -0.036491558 -0.04978788
000390 30 3a 36 bb 65 3d 32 bb db 4f f1 3c b7 1f 19 bd
       -0.0027805679 -0.0027197239 0.029457023 -0.03738376
0003a0 d5 54 3a 3d 3e a4 d2 bc cb 22 21 bd e3 c3 7d 3d
       0.04549106 -0.025713082 -0.03933982 0.06195439
0003b0 15 40 21 3b fe f9 b4 bd e5 43 2d 3c 9b 9e d7 bc
       0.0024604846 -0.08836745 0.010575269 -0.026320746
0003c0 bb 53 09 3d a0 0e 5c bb 99 d2 7c bc 10 df 46 3d
       0.033527117 -0.0033578053 -0.01543107 0.048552573
0003d0 62 94 9a bd 4d 4d 20 3c 12 41 4d 3d e4 9c 37 bd
       -0.07547833 0.009784055 0.050110884 -0.044827357
0003e0 e8 a0 65 3d 41 97 ea bb f1 de 96 bd 4d 6f 01 3d
       0.056061655 -0.007159144 -0.073667414 0.031600285
0003f0 1b 6f 96 3d 4c 83 4a ba 19 6d b8 3b f2 76 f5 3c
       0.073454104 -0.0007725253 0.00562824 0.029963944

action_model._continuous_distribution.mu.bias f4 [2]
000000 4c 5c b3 ba b9 be 6e bb
       -0.0013684123 -0.0036429598

action_model._discrete_distribution.branches.0.weight f4 [1, 128]
000000 23 53 b6 bb 46 34 47 bc a9 0a 91 3a dc d9 af 3b
       -0.00556411 -0.012158459 0.0011065799 0.005366547
000010 ce 8d 23 3b 13 a1 8a bc 76 6a 08 bc 63 3c 3d bc
       0.0024956348 -0.01692251 -0.0083261635 -0.011550042
000020 c7 a1 39 3c 97 4b 4e bb 50 8f 3e bc 87 4c 79 bb
       0.011330075 -0.003147816 -0.011630848 -0.0038039999
000030 11 68 93 3b dc c4 c8 bb 00 c5 ec 3b 50 c0 7e 3a
       0.0044984897 -0.006126983 0.0072256327 0.0009717988
000040 2c b9 91 39 11 19 ad 3b bf 00 c6 ba 4e 65 0f 3c
       0.0002779452 0.005282529 -0.0015106424 0.00875218
000050 b6 29 b2 3a 9f cb e9 bb 48 6b 50 bb e8 f5 fa bb
       0.0013592753 -0.007134869 -0.0031802226 -0.007658709
000060 53 a7 b1 bc fb 51 b8 bb 5c 26 92 bc 19 66 46 bc
       -0.021686232 -0.005625007 -0.017840557 -0.012109303
000070 4d e8 30 3c ef b7 a1 bc 8e 97 80 bb 80 18 5d 3c
       0.010797572 -0.019741027 -0.0039243167 0.013494611
000080 7b b5 57 3c 0d 78 a4 bc 6b f7 56 3a 74 ff ac 3a
       0.013165827 -0.020076776 0.00082003203 0.001319869
000090 57 f3 26 3b eb e9 01 3b 16 3a 0b 3b 3e d0 97 bc
       0.0025474632 0.0019823264 0.0021244339 -0.018531915
0000a0 77 89 37 3b fe 6d 96 ba 9b 7e ce 3a f1 ce 29 bc
       0.002800552 -0.0011476872 0.0015754284 -0.01036428
0000b0 5f 47 0f 3c d3 79 b5 3c a0 6a 1e bb 88 fe 5f bc
       0.008745044 0.022152817 -0.002417244 -0.013671525
0000c0 c9 c0 38 ba 27 de b0 bb c8 37 45 3c 76 a3 c8 b9
       -0.000704777 -0.0053975764 0.012037225 -0.0003826876
0000d0 17 37 fd ba 60 ba 16 3c 7b ea 92 bb 89 18 a1 3b
       -0.0019318786 0.009199709 -0.0044835187 0.004916255
0000e0 5f 1d 41 bb f9 b7 14 3c 78 c1 aa 3a d7 1f 84 bb
       -0.002946697 0.009077066 0.0013027629 -0.004032116
0000f0 08 54 b8 bb 50 95 de b7 f3 6d 52 bc a5 ae 70 3c
       -0.0056252517 -2.6533991e-05 -0.012843597 0.014690076
000100 86 7f 26 bb 5f 0d 81 3c f1 b1 ae 3b 7f b0 76 3b
       -0.00254056 0.015753446 0.005331271 0.003764182
000110 13 e2 d4 ba ba e6 67 bc 04 b7 b2 ba 67 7c 0d bb
       -0.0016241692 -0.014154131 -0.0013634865 -0.0021589042
000120 40 59 26 bc d5 a2 a6 3c cb 29 77 bc 44 d4 47 bb
       -0.010153115 0.020341316 -0.015085648 -0.003049151
000130 2b 47 f8 bb e3 5c f6 39 60 e3 9d 3b 53 f5 83 3a
       -0.0075768433 0.00046989982 0.004818365 0.0010067619
000140 1b bb fe b8 83 89 14 bc 42 78 53 3c af 19 e1 3b
       -0.00012146515 -0.0090659885 0.01290709 0.006869517
000150 17 13 05 3b 81 36 a1 ba 3f 60 7f bc a4 ff 09 bc
       0.0020305568 -0.0012299569 -0.015586912 -0.008422766
000160 13 67 fa 3b fa 97 f9 ba 55 86 21 3b ec b8 20 3b
       0.007641682 -0.0019042485 0.0024646719 0.0024524285
000170 68 f2 6f 3c be 7e 92 bb 13 4f b5 3c ad 8d b2 b8
       0.0146451965 -0.0044706753 0.022132432 -8.5140906e-05
000180 e7 49 73 ba cf aa 37 3c bd ff b7 3b 65 13 04 bc
       -0.00092807267 0.011210158 0.005615203 -0.008061265
000190 70 11 25 3c bb 27 cf 3b ef 3c dc 3a fa e0 84 3c
       0.010074958 0.006321875 0.0016802828 0.016220558
0001a0 90 8a 05 3c 0f ab 42 bc 8f ce 94 bc be 05 8c bb
       0.008150712 -0.011881604 -0.018164901 -0.0042731455
0001b0 ef 92 47 bb 97 9c 90 bb 13 ba b7 bb d2 2c 07 bc
       -0.003045257 -0.004413198 -0.0056068986 -0.008250432
0001c0 cf 74 2a bc b2 0a f1 b9 07 49 f3 bb 9d b0 f4 39
       -0.010403826 -0.0004597507 -0.007424477 0.00046670894
0001d0 ad d2 db 3b 1d dc ba bc 25 e7 09 ba c7 e5 94 3b
       0.006708464 -0.022810036 -0.00052605785 0.004543993
0001e0 63 1e 16 bc d7 33 0b bc 31 93 b3 3b 71 99 83 bb
       -0.009162518 -0.008496246 0.005480193 -0.0040160944
0001f0 57 15 25 bc e3 d5 37 bc c9 e7 24 bb f2 94 00 bb
       -0.010075889 -0.011220428 -0.0025162569 -0.0019620028

onnx::Div_70 f4 [8]
000000 f1 f3 9d 40 78 9f 00 3b a5 f8 a0 40 e5 d3 15 43
       4.936028 0.00196263 5.030352 149.82771
000010 17 36 25 42 88 e3 8b 42 eb af cb 41 be 38 29 41
       41.302822 69.9444 25.460897 10.576353
